highway_ddqn/ddqn_reward_change/checkpoint-final.tar (torch, 84538 bytes, 21 tensors)

base_module.layers.0.weight f4 [64, 25]
00000000: fa35 0cbe 179b eabd 0c8f e33d f7c7 6bbe
00000010: 6d4b 5abe a12f d53d 9418 cf3f 7e59 503f
00000020: 2ec0 073f 2c70 0b3f f796 b03d a86e b23e
00000030: 9bcb e33c b302 073f daae 20be 5ee0 403e
00000040: 855a 313e bd5e 913d b64a ef3e f0f0 773e
00000050: 834c 993c 3fcd 2a3d c924 1ebd 7b52 8c3e
00000060: 686d ba3e 0162 823e 63e2 c43d d6e4 fd3d
00000070: 1ee6 933e e115 c13d c5f3 373e f030 dcbe
00000080: 4919 2f3c 38fc e9be 8306 49bd 9670 acbd
00000090: 2403 583e 0b50 b23d 497c aebd 894f a1bd
000000a0: cb37 153e 6808 863d 32f1 32be 135d a9be
000000b0: dcd8 31be 5b9f b9bb b92a 253e 6e2f 90bd
000000c0: 52ff 1a3d 4e15 5dbf f84b 1abe bf7b 8bbd
000000d0: f17e 04be 5b29 ffbd dd28 1a3f 14dc e13d
000000e0: ec55 943f 5528 17bf 8503 5f3e 8c9d 39bf
000000f0: 8eed 343e a4bc dabd e1ac efbb ed88 afbc
00000100: 6351 e5be aecf d1bd 529d 11be a2ac 8abb
00000110: 0470 853d 4075 7abf b4b9 3d3e c2a2 0ebd
00000120: ed60 9fbd dea1 803e 5b1d 5dbe d3e3 913d
00000130: cdcf 85bd 620f 46be 8187 a3be 0068 f73e
00000140: d58d 1d3e 7b8b 1440 8482 51bf 94b6 063f
00000150: 9b3a 56bf 93d8 2a3e 6e0c 943e 5fce 34bd
00000160: 1663 223f d30a afbd bd7f 483d c598 883d
00000170: 6d7d 86bc 0ab8 243e d12c 10bf 3905 0abe
00000180: b773 36bd 2cd8 1b3c 1dab b93e 4f34 57be
00000190: bb4f 13bd 06ab 51be eba6 49bd e6db 4c3d
000001a0: 6a55 81bc 1f0e 38bd bea3 893f 0595 1ebe
000001b0: 2355 13be 8b10 9a3e 6640 3b3e ed8f 7a3d
000001c0: 3225 ce3e 4c99 1fbf 8d62 b03e aadd fe3d
000001d0: 3677 9c3e 1fef bf3d da3c 17bf 53f9 a73e
000001e0: 0abc 0c3e cccb 5b3e e19f 2e3e e174 dcbe
000001f0: 2159 03bf 0dff ffbd a035 5bbd 6bd6 3cbe
00000200: 9aa8 b63c 33bd c8bc 13d8 01bd 3332 f8bb
00000210: fa25 853d 8b54 40be faff a63d 80bb 80bd
00000220: 805d 7cbd 5057 42be 8d75 f03d b34e 01be
00000230: 472f 10bd 9a8c d6bc d2a9 033e b00b c1bd
00000240: 7f00 16be 000d cc3c 005b 3f3d 0d7e c63d
00000250: 5dcd b23d b3fc f5bd e39a 06be b336 a83d
00000260: 734b 1f3d aad1 34be b113 97bc e5f6 323e
00000270: 7b9c 6a3f ec69 bbbf 6491 7b3e 2308 07c0
00000280: fdea 123e 98ae 633d a036 703b 0645 65be
00000290: 787d 943e fc32 5ebd ed58 b53c bc4e 0e3e
000002a0: 653f 8bbe e697 29be cb0e cabd b20e 043d
000002b0: 6036 27bc 03b1 22bd c19f 84be 7e69 ef3d
000002c0: f673 b83d 7bac abbd d7cb bc3b 3840 9e3e
000002d0: 1d78 29bd fb5f b8be 3509 bcbe 3d8d 6fbc
000002e0: b153 40bf 6b80 1ebd 5d42 9f3e 1d78 c43e
000002f0: 3ce6 fe3e 5ced 68bd bdfe a73c aa43 3abe
00000300: 85b2 5c3d 18fb b43e a4d3 dbbe 91d0 5a3e
00000310: b1a6 823d 6004 10be 58ac 643e 86fb 213e
00000320: 7444 3ebe a7aa d13c d7b3 d3bd 789f 823d
00000330: f3be 193d a2ae 7e3d a50f db3b 297b a83d
00000340: 8291 313e 3f6b 303e 42a7 27bd 47a2 09be
00000350: 46cb 8ebd c895 903c 905b db3d 615e b0bd
00000360: 839a 8b3d 6e3d fc3c 9188 13be 4048 ca3d
00000370: 152b 193e c419 bf3d 3b3b 25be ee0a efbd
00000380: a81e 063e 665d 023e 53da 273e 822e 433d
00000390: 23ba abbd ec78 5dbe 0e49 16be 5d6e 2e3d
000003a0: fb26 98be 42c6 6dba b61a cebe d7c3 eebd
000003b0: 1abc c53e 8be9 503e 3752 e53e ef60 9a3e
000003c0: c33f bc3d dd07 74bd 27bb 07bd a50b b43e
000003d0: 633b 62be 4662 003e a106 afbc ba72 0b3e
000003e0: 5dc8 003e abe9 39be c0eb 8abc 57ed e2bd
000003f0: 5a7f 733d 5589 1a3e 87d1 0b3d 0076 6abb
-0.13692465 -0.11455362 0.111112684 -0.230255 -0.21317835 0.10409475 1.6179376 0.81386554
0.5302762 0.54468036 0.08622544 0.3485005 0.027807048 0.52738494 -0.156917 0.1883559
0.17319687 0.07098148 0.46736687 0.24213004 0.018713241 0.041699644 -0.0386093 0.27406678
0.36411595 0.25465396 0.09613492 0.123971626 0.28886503 0.09428001 0.17964084 -0.43006086
0.010687181 -0.4570024 -0.049078476 -0.084199116 0.21094948 0.08706673 -0.08519799 -0.07876498
0.14572065 0.06544572 -0.17474821 -0.33078822 -0.17367882 -0.0056647486 0.16129579 -0.070402965
0.03784115 -0.86360633 -0.15068042 -0.06810712 -0.1293905 -0.1245906 0.602186 0.11028305
1.1588721 -0.59045917 0.21778686 -0.7250602 0.17668745 -0.106805116 -0.00731431 -0.021427596
-0.44788656 -0.1024469 -0.14220169 -0.004232005 0.06515506 -0.9783516 0.18527871 -0.034823187
-0.07782159 0.25123495 -0.2159323 0.07123532 -0.065337755 -0.19341806 -0.3193932 0.48321533
0.15386136 2.3210132 -0.81839776 0.5262234 -0.83683175 0.16684179 0.28915733 -0.044142123
0.63432443 -0.085469864 0.048949946 0.066697635 -0.01641723 0.1608583 -0.56318384 -0.13478555
-0.044543948 0.009511989 0.36263362 -0.21016048 -0.03596471 -0.20475397 -0.04923145 0.0500144
-0.015787799 -0.044935342 1.0753095 -0.15486534 -0.14387946 0.30090746 0.18286285 0.061172415
0.40262753 -0.6234329 0.34450188 0.12444623 0.305597 0.093717806 -0.5907723 0.32807407
0.13743606 0.21464461 0.17053176 -0.43057922 -0.51307875 -0.12499819 -0.053517938 -0.18441169
0.022297192 -0.02450428 -0.031700205 -0.0075743436 0.06501384 -0.1878225 0.081542924 -0.06285763
-0.061612606 -0.1897862 0.11741171 -0.12627678 -0.035201337 -0.02619009 0.1285775 -0.09426057
-0.14648627 0.024908543 0.046717644 0.09692011 0.08730576 -0.12011089 -0.13145022 0.08213558
0.038890313 -0.17658105 -0.018442007 0.17476995 0.9164502 -1.46417 0.24567181 -2.1098716
0.14347453 0.055586427 0.0036653653 -0.22389612 0.29001975 -0.05424784 0.02213713 0.13897222
-0.27196804 -0.16561851 -0.09866103 0.032240577 -0.010205835 -0.039719593 -0.25903133 0.11690043
0.09006493 -0.083825074 0.0057616043 0.3090837 -0.041374315 -0.36010727 -0.36725774 -0.014621076
-0.751277 -0.038696688 0.3110532 0.3837289 0.4978503 -0.05686699 0.02050721 -0.18189874
0.053881187 0.3534782 -0.42934906 0.21368624 0.0637945 -0.14064169 0.22331369 0.15818605
-0.185808 0.025594069 -0.10337036 0.063780725 0.03753562 0.06217826 0.0066852146 0.08226616
0.17340663 0.17228411 -0.040930994 -0.1344081 -0.06972365 0.017649546 0.107108235 -0.08611751
0.0681658 0.03079101 -0.14407565 0.09877062 0.1495784 0.09331086 -0.16135876 -0.116720065
0.13097632 0.12730941 0.16391878 0.047651775 -0.08385112 -0.2162816 -0.14676306 0.04258572
-0.2971724 -0.0009070375 -0.40254754 -0.11658447 0.38620073 0.2040159 0.44789287 0.3015208
0.09191849 -0.05957781 -0.033137467 0.35165134 -0.22092967 0.12537488 -0.021365466 0.13617983
0.12576433 -0.18155544 -0.016958117 -0.11080425 0.059447624 0.1509145 0.034135368 -0.00357759

base_module.layers.0.bias f4 [64]
00000000: 87b3 563c 9c9d db3d 76fc ff3d a658 c93d
00000010: a99f 1dbe 0018 f4bc f65a 26be 1d0d e93c
00000020: bd96 f1bd c6bf 113e d31d 253d 4dff a5bd
00000030: 8777 163e c747 53bd 3de2 903d 013d 3ebd
00000040: 2816 233d 6ee3 1f3e 9a96 633c a277 423d
00000050: 2b3c 0b3c 4e2b 873e efab 893d 9f83 203e
00000060: f5fb 673e a0f5 303e 00a9 4bbe 17ef ddbd
00000070: 2db0 dd3d b664 b7bc 8551 d7bd daef d63b
00000080: aa44 203e 8497 3c3e 19c1 e73d 6dda e13d
00000090: ee64 043e 777f 143e 9daf dcbc d5ff 0f3e
000000a0: a7bf 513e 61fd 233d cdb6 203e af43 293e
000000b0: 5a25 8fbd 2a92 0e3e 03aa 44be 878b 83bd
000000c0: aa9b 233d ea05 f3bd 2c68 5f3d cddc 67bd
000000d0: 4552 d63d c85f cbbd 2752 503d 777d 313e
000000e0: a69e 473c 302a 313d 8fdb 0bbe 619e f2bd
000000f0: 7d3c 00be 9a31 2dbc e422 b13a e3e6 42be
0.013104326 0.10723421 0.12499325 0.098313615 -0.15392937 -0.0297966 -0.16245636 0.028448636
-0.11796329 0.14233312 0.040311646 -0.081053354 0.14694034 -0.051582124 0.070744015 -0.046444897
0.03981605 0.15614101 0.013890887 0.047477372 0.008498232 0.26400226 0.06722247 0.1567521
0.22654708 0.17281199 -0.19888687 -0.108366184 0.108246185 -0.02238689 -0.105135955 0.0065593543
0.15651193 0.18417174 0.11316127 0.110279895 0.12929127 0.14501749 -0.026939208 0.14062436
0.20483266 0.040036563 0.15694733 0.16529725 -0.06989546 0.13922945 -0.1920548 -0.06423097
0.039943375 -0.118663624 0.054542705 -0.056607056 0.104649104 -0.09930378 0.050859597 0.17333017
0.012183821 0.043253124 -0.13657974 -0.11846615 -0.12523074 -0.010570908 0.0013514427 -0.19033389

base_module.layers.1.weight f4 [64, 64]
00000000: 9800 96bd d531 bc3d 4ed3 2ebd bb01 723d
00000010: 16f2 afbd cef0 a1bd 635e ac3d bd45 df3c
00000020: 90be 07bc 52b7 00bc 28fd ffbd f49c d03d
00000030: 1133 333d 582e b9bd 44e8 a4be 0f98 49be
00000040: 74ff a8be a737 a3bd 9e7e 80bd f216 4dbb
00000050: 621b 6ebd 4ef9 dabc 2ce9 2cbe 2c81 ac3c
00000060: f17c 41bf 33e4 bd3d e03b 20bd 0241 adbd
00000070: c32c aabd 5e6e 1b3e ce75 013e c1a2 bd3d
00000080: c0f5 463d 44ea e1be e46f 3abe 6cb1 b3bd
00000090: db24 c4bd 1b16 d53d 867e 52bf 23e0 b6bd
000000a0: 3fed 073d faad 1b3c f619 ea3d 8378 083e
000000b0: 40c0 353c 2cf8 d03c 20fd 553d fc48 fb3d
000000c0: d2d6 2abd d621 92bd d0fa 50be c057 293b
000000d0: 1bcf 6fbe 78ce b9bc 2d72 dabe a0be eabc
000000e0: e6a0 2e3e 1dd8 f1bc c057 883b e450 b7bd
000000f0: d695 8cbe 8436 66bd cc5f dabd 04c9 cb3d
00000100: 588b 253c 7f35 b2bd 7dd8 0cbc 04d5 79bd
00000110: 823e 253d e87a ebbd a492 79bd cde3 733d
00000120: 8478 f13d e44d 8a3d c090 8dbd 38a5 f63c
00000130: 4cc9 debd 4c1c 9abd 67a8 afbd f04e 4d3c
00000140: b19c 33bd 3500 c93d b8d9 c1bc 22b5 cf3d
00000150: f009 893d 88da bdbd 21ea 683d fd20 c3bd
00000160: d261 27bd e0af 44bd 8080 afba 80fc 70bb
00000170: e0a8 09be d868 01be 06f1 6dbd 3545 53bc
00000180: 06cd c53d c6ab 81bb acd8 aabc 90e3 343c
00000190: 0132 b43c 3467 af3c d2f6 e2bb d9b2 d93c
000001a0: e87b 02be cfbb 85bc 5c7b 733d 6dce 733d
000001b0: 6c01 8cbd 19f7 b3bd e059 67bd 5cc4 7cbd
000001c0: d4e2 b0bc c631 ed3d b37a 983d 64a5 ad3d
000001d0: 3f56 8e3d 2c0c 9d3d 244c 8fbd f233 e5bd
000001e0: 3f69 aa3d d146 883c b02b 993c 7627 e23d
000001f0: 258b dbbc 8273 8a3d 000e 11bb 8043 0e3c
00000200: 99aa 2a3d b73f d33d 1f6c 363d d49e 31ba
00000210: 197d dcbd d847 5f3d 4796 e9bb b423 a1bd
00000220: 6486 d2bd 01f7 9fbd 44c1 f2bd 6432 563d
00000230: dd45 853d 08d0 393d fe02 a8bd f71f 9f3d
00000240: 437e cabc 953e 863d 74d9 b03d 8216 873d
00000250: 56ca 953d 0f92 c5bd 95fb fd3a 0716 90bd
00000260: 73b4 d8bd 485b b53d c04b ab3b b0cf dc3d
00000270: 2ecf b9ba 39a3 22bd 8a93 84bd d805 babd
00000280: 9053 cbbd d6f2 eebc 2876 03be 48a9 9b3c
00000290: f807 57bd 1ee1 0a3d 34a9 f6bd 7b26 f2bd
000002a0: 9cb7 b43d 50a1 ae3d 5f2e d53d f2ec 42bd
000002b0: 40a8 14bb 3cbb 7abb a463 47bd 7e68 a2bd
000002c0: 19fa f4bd 583e aa3c 63d7 d6bd 868d 90bd
000002d0: 15aa f4bd 8460 233d 551e aa3c 30c3 6f3d
000002e0: 2fe0 413c 5d9b 73bd d8e5 d13c ac6c 793d
000002f0: e132 103d 9404 f73d 0031 e63b 44c9 e93d
00000300: 45f3 923d 43eb 703d 66e2 2ebe ea03 3f3d
00000310: d489 99ba 1c7c b63d e50c 96bc a792 10be
00000320: 0a79 d33d 26ae e93c c084 babb a263 d6bd
00000330: b654 0cbd f4bf bc3d 0542 23be 57f5 f2bd
00000340: 3c9c a7bd 1a19 7cbd ccba 733d 787b 9d3d
00000350: d12b 563d 5bab c6ba 8587 f8bc 6eda 10bd
00000360: e3f2 55bd c27c c0bd ec3f 3e3d 0c39 6ebd
00000370: 4460 bd3d c4ae c13c adc3 1d3d 927b 1bbc
00000380: 2a48 b83d 9230 ae3d 123c c23d e647 8abd
00000390: e0da 41be 1973 873d aad6 33bd 0655 80bd
000003a0: 24d9 423d 17ee a03d 19be 19be 28e0 ce3c
000003b0: 70c7 d4bd cce6 95bd a42d 22bd 30ea f03c
000003c0: e3ba 75bd 00fe 543c 290e 22be 00dc 063a
000003d0: ace9 36bd 8e0b a2bd a571 b23b 2406 4c3d
000003e0: a82c 563d 40e1 88bd 2013 c4bc f027 893c
000003f0: 954e 53bd 683a 793d 02d7 9c3d b4d5 b93d
-0.07324332 0.09189192 -0.042681985 0.05908368 -0.08591096 -0.07907258 0.0841644 0.027254933
-0.00828518 -0.007856207 -0.124994576 0.101861864 0.043749873 -0.090420425 -0.32208455 -0.19686912
-0.33007395 -0.07969599 -0.0627415 -0.0031294194 -0.058131583 -0.026730206 -0.16885823 0.021057688
-0.7558127 0.09272041 -0.0391196 -0.08459665 -0.08309319 0.1517882 0.12642595 0.092595585
0.04857421 -0.44124043 -0.18206745 -0.08774075 -0.09577342 0.10404607 -0.8222431 -0.089294694
0.03318524 0.009501928 0.11430733 0.13327222 0.011093199 0.025508963 0.052243352 0.1226978
-0.041708775 -0.0713536 -0.20408177 0.0025839657 -0.23418848 -0.02268146 -0.42665234 -0.02865535
0.17053565 -0.029521996 0.0041608512 -0.089509755 -0.27458066 -0.056204334 -0.10662803 0.0995045
0.010104023 -0.0870161 -0.008596537 -0.060994163 0.040342815 -0.11498052 -0.060930863 0.05954342
0.11790565 0.06753138 -0.069123745 0.03010808 -0.10878238 -0.075249285 -0.08577042 0.012531027
-0.043850604 0.098144926 -0.023663387 0.1014197 0.066913486 -0.09270197 0.056863908 -0.095277764
-0.040864773 -0.04801929 -0.0013389736 -0.0036771595 -0.13443327 -0.12637651 -0.058091186 -0.012894918
0.09658246 -0.0039572446 -0.02085527 0.011040583 0.0219965 0.021411516 -0.006926396 0.026574539
-0.12742579 -0.016324906 0.059443817 0.059523035 -0.06836209 -0.087873645 -0.056482196 -0.0617107
-0.021592535 0.11581759 0.07445278 0.084788114 0.06950044 0.07668337 -0.069969445 -0.111915484
0.08320855 0.01663533 0.01869759 0.11042683 -0.026799748 0.067603126 -0.0022133589 0.008683085
0.0416666 0.10314887 0.044536706 -0.00067756814 -0.10766048 0.054511875 -0.00712851 -0.07868138
-0.10279539 -0.07810784 -0.11853269 0.05229415 0.06507466 0.04536441 -0.08203696 0.07769769
-0.02471841 0.06554905 0.08635226 0.0659609 0.07313983 -0.09646999 0.0019377345 -0.070354514
-0.10581293 0.08855301 0.005227536 0.10781801 -0.0014176124 -0.039706443 -0.06473453 -0.09083146
-0.09928048 -0.029168528 -0.12838042 0.019001618 -0.052497834 0.033906095 -0.12043992 -0.11823746
0.08824083 0.08526862 0.10409235 -0.04758925 -0.0022683293 -0.0038258573 -0.04867901 -0.079300866
-0.11961765 0.020781681 -0.104903005 -0.070582435 -0.11946503 0.039886966 0.020766417 0.058535755
0.011833235 -0.059474338 0.025622293 0.060894653 0.035204772 0.1206142 0.007024884 0.114153415
0.07175306 0.058818113 -0.17078552 0.046634592 -0.001171405 0.08910391 -0.018316695 -0.14118443
0.10325821 0.028525423 -0.0056920946 -0.10468222 -0.034260474 0.092163 -0.15943153 -0.11863201
-0.08184096 -0.061547376 0.059504315 0.076895654 0.05228788 -0.0015157269 -0.030338058 -0.03536456
-0.052233588 -0.09398796 0.04644768 -0.058159873 0.09246877 0.023642905 0.03851669 -0.009489911
0.08998139 0.08505358 0.09484114 -0.06751995 -0.1893115 0.0661375 -0.04390589 -0.06266217
0.047570363 0.07857912 -0.15013923 0.02525337 -0.10389602 -0.07319412 -0.039594308 0.029408544
-0.059992682 0.013000011 -0.15825714 0.0005144477 -0.04465644 -0.0791236 0.0054456764 0.049810544
0.05228868 -0.06683588 -0.0239349 0.016742676 -0.051588614 0.060846716 0.07658197 0.09073964

base_module.layers.1.bias f4 [64]
00000000: 9165 e1bd 20b8 2ebb e05d c8bc e5db 353c
00000010: a071 daba 5300 353e ae3f d5bb 40de 60ba
00000020: cd84 d53c 8ec7 babd ffb3 98bd d26e 4a3b
00000030: 3708 2c3e 8664 843d 7039 213c 50a2 ca3d
00000040: cc71 e8bd f083 eabd 721e 2f3d a7bf bfbc
00000050: 2f63 983d 6297 3b3d ed2e 1b3d 7442 183d
00000060: d331 3bbd e050 0e3e af34 1d3e 8d1b 3d3e
00000070: a01b 53bc 784c 0f3c 44ad 80bd ce05 893d
00000080: 6933 603d 05e5 563d d1b7 873d 2f4d 08bd
00000090: a49a c93d 1e35 eabd 3b74 0fbb 18b1 22be
000000a0: c87f 56bd d472 dbbd 4d5c 783d 04dd f3bd
000000b0: 4f16 3b3e 4d51 083e 9d66 5d3d 2676 60bd
000000c0: ffc8 13be bf36 0cbe 620e c8bd 781e 8ebd
000000d0: 484f fc3c f06d 1b3e d6a7 51bd 001e 5a3e
000000e0: dc47 abbd 5f0f af3d fdbb 3bbd d96b b43c
000000f0: 2855 d5bd 438d 9c3d 74f3 93bd 74e8 7f3c
-0.110057004 -0.002666004 -0.024458826 0.01109979 -0.0016665943 0.17675905 -0.0065078354 -0.00085780397
0.0260643 -0.09120093 -0.074562065 0.0030888808 0.16800009 0.06464486 0.009840354 0.0989424
-0.1134983 -0.11450946 0.042753644 -0.023406817 0.07440793 0.045798667 0.03788655 0.03717275
-0.045701813 0.13898039 0.15352128 0.18467541 -0.012885004 0.008746259 -0.06283048 0.0669056
0.05473653 0.052464504 0.06626857 -0.033276733 0.098439485 -0.114359125 -0.0021889347 -0.15887868
-0.052367955 -0.10715261 0.0606349 -0.1190739 0.18270229 0.13312264 0.054052938 -0.054800175
-0.14432143 -0.13692759 -0.09768368 -0.06939405 0.030799523 0.15178657 -0.05118545 0.21300507
-0.083633155 0.08547854 -0.045833576 0.022024082 -0.10416633 0.07644131 -0.072241694 0.015619386

value.predict.weight f4 [1, 64]
00000000: 0001 06be 267f e2bd e172 87bc 2823 adbd
00000010: e431 81bd c621 c93e 2be5 a43e 2166 f3bc
00000020: fdbc aa3e e042 24bc d9e7 0bbd f064 833d
00000030: 11c7 f0be cc80 443e 3e3b a73d 7ce2 6c38
00000040: 124c f53b f0e5 8bbc e032 85bd e903 43bd
00000050: 0c43 a5bc 1b5c a1bd 859a 0f3e d005 e7bc
00000060: 1b59 0c3e 181a 813f a115 033e 96be b63e
00000070: 5c37 2a3d 3ebd abbd 80d9 7dbd 1173 cebc
00000080: dae2 7abd c377 85bd 91b6 1dbd d09d 933e
00000090: 5eb3 f43e acda 053d 666b 8a3e b8f8 63bf
000000a0: b890 f7bc 77cf 11be f518 493e c091 9bbb
000000b0: 0473 4f3e 4b76 5f3e c6eb 6abf 8b53 88bd
000000c0: a6ae 2a3c d5fc 16bc 9e26 ba3d 9094 34bd
000000d0: e0f8 99bd 59e3 b53e 010f c5bd b5c0 15bf
000000e0: 50e4 f03c e2a5 bcbc 2a9c 1a3d 32f7 56bd
000000f0: b812 c63c 0ba8 31bd 1871 17bd cf95 0cbf
-0.13086319 -0.11059408 -0.01653427 -0.08453971 -0.06308344 0.3928358 0.3220609 -0.029711785
0.33347312 -0.01002571 -0.034156654 0.06415737 -0.47026876 0.19189757 0.081655964 5.6477715e-05
0.007485875 -0.017077416 -0.06503844 -0.04761115 -0.020173572 -0.07878896 0.14023788 -0.028201014
0.13705866 1.0086088 0.1280122 0.3569228 0.0415567 -0.083857045 -0.061975002 -0.025201352
-0.0612515 -0.06516983 -0.038504187 0.2883134 0.47793096 0.032679245 0.27035064 -0.8905139
-0.030220374 -0.14239298 0.19638427 -0.0047475994 0.20258719 0.21822469 -0.9176601 -0.066565596
0.010417616 -0.009215553 0.09089397 -0.044086993 -0.07518172 0.35525015 -0.096220024 -0.5849717
0.029405743 -0.023028318 0.037746586 -0.052481838 0.024178848 -0.04337315 -0.03697309 -0.5491609

advantage.predict.weight f4 [5, 64]
00000000: 73d2 913d 1679 68bd 833b e2bd 2cf0 a73d
00000010: 11e9 7dbd 8ffd 2bbf 0467 6f3c 3069 d73d
00000020: d0fb 9c3d c297 f43d 399e 2c3d 6033 8fba
00000030: 6b87 fb3e 9fc5 003d 5ecf f93d d45c 0e3d
00000040: 3693 b33b 40b3 8fbd e871 51bd 6eb8 6b3d
00000050: 7aa2 9cbd 5087 173d 95ee c9bc e069 8d3b
00000060: 368d 2b3a 5d22 59bd 637b 1ebe 0b5b c03c
00000070: d463 98bd 1c62 a1bd dc3a adbb ccf1 cabc
00000080: 20a5 79bd 589a b83d 9ca3 913b 2a10 8fbd
00000090: 98a5 b73d ba85 b6bd ff8f c83b a15f 79be
000000a0: 70b6 05bd 2551 843e 4c0f 603d 7cb6 c0bd
000000b0: 4414 babb 79b2 7a3c 809c 9c3f f393 c93d
000000c0: dc06 d73c 2bfc c4bd 1000 1d3c b76d efbd
000000d0: 5fe2 cebc 0499 53bd cc24 a03a 7c25 98bf
000000e0: 8855 a3bc 76e4 993d 0bdf 303d e82e 243d
000000f0: b045 18bc 7d10 3ebd d865 d13d e5fd 3e3f
00000100: e91b 8abd 3611 5ebd a610 833c 5404 e33d
00000110: 9c79 c0bd 2494 963e f9d7 bb3d f2ad 523d
00000120: 0703 683c 0060 2b3a 0607 6f3d d1c6 8cbd
00000130: 7906 2fbe 7883 b43d f001 04bd 9220 1f3d
00000140: 7ab2 b13c 0aac abbd d10f b8bb 9634 613d
00000150: 7fba ab3d 7e86 36bd 62b7 013d 0e05 96bd
00000160: 062f 98bc 6cc5 06bf f678 083f a1e3 c03d
00000170: 1026 f53c 5595 f13d 9163 a33c 2082 8dbd
00000180: 5cf4 483d c1ef f13d 4a65 cc3d 9a0d 9bbd
00000190: 70ac d6bb c056 883c 8369 003d a43e 0cbe
000001a0: c036 183d 3b5c dfbc 546d d53c cce7 44bd
000001b0: a63c 7c3d 14fa 923d 33ff e63d b17d 173d
000001c0: 034e 89bd 612d 5f3d 1ce2 6dbd 7b7d d03d
000001d0: fa06 283d 5a9b 06be 87a8 903d ff7f 653e
000001e0: 4030 fd3c 2c03 74bd 3bcd 85bb d66a ae3d
000001f0: e02f 013d 1c4f a2bd 4cc7 d3bd 31ed 8ebe
00000200: 9b0c 133f 14e6 843d 3d41 9fbd 8f87 dabd
00000210: 758d 2bbd ee2f c4be 9653 09be 1d7f 5abd
00000220: c7f4 05be d28f 913d 37b1 8c3d 83c4 b03e
00000230: d727 393f e5b6 a63d ea1b 9f3d 7b62 86bd
00000240: d5c9 dfbd 34fa 9bbd 5df2 d1bd 660a 513d
00000250: bcc3 3cbd e887 f4bc 6a1a d33d 40b9 58bd
00000260: 1b2d f13d 541b 153f 5700 5bbf 64e5 7ebd
00000270: c868 983d aa31 53bd 6b90 dcbd 44ec 9d3d
00000280: 8575 1c3d 69ed d73d 701a 7738 e8f1 463d
00000290: 99e3 2bbc e00d f5bd 2dfe 24be 0eff 0d3f
000002a0: e614 eabd 2fec bebe e479 e2bd d8fd 58bd
000002b0: 91d7 b93d d15d bc3d e22f 85bf 37ed a73b
000002c0: 011b 0a3e 8f86 e7bb 3cdc 1b3d 7189 673d
000002d0: e9fd aa3d 090b 3a3c 8d94 9d3d d778 943f
000002e0: 5011 073d 821c 2a3d 8400 58bd 7d71 493d
000002f0: 728d 843d 3f30 7bbd 2876 8cbc c6da 373e
00000300: 7286 f6bd bd58 6f3d fd5f 08bd 75fe 593d
00000310: 3716 3d3d 08a4 4c3f 3152 953c 0177 c13d
00000320: 4f55 1cbd a820 7c3d 0e40 b63d e358 f0bd
00000330: 7ad1 64bf 20bf b6bd 3c5c 5e3d f859 a93b
00000340: 0cfe d83d 8cba e13d 5235 bcbd 1b60 1fbd
00000350: 2c82 e83d 15da 8fbd db04 5d3c 80b4 1cbb
00000360: 348b 053e 1d75 0cbf 3778 323f 61bc 1a3c
00000370: b897 593d 0185 a03b e197 57bb f74c d7bd
00000380: 8503 a83c 4cb8 14bd b7e4 23bd 6d12 9a3d
00000390: 65fd d0bd 5079 9e3d b4a1 d93d ba12 6cbe
000003a0: 8243 c93d 751d ad3e 7138 253e 8823 f03c
000003b0: 6419 f23c afa6 033d c5d5 2f3e 43c1 e2bd
000003c0: 5b64 5ebd 87d2 5bbd 8005 88bd 738a 15bd
000003d0: 7a16 923d 4376 033d 240c 643c 1d5f 943d
000003e0: 349c b13d d38b e6bd 7ffc a4bc b66f febd
000003f0: a0cc 333c 7932 dc3b 6282 c93d 266d 2fbf
0.07120218 -0.0567561 -0.11046507 0.08200106 -0.061989848 -0.67183775 0.014611963 0.1051811
0.07665217 0.11943008 0.04214308 -0.0010925345 0.49126753 0.031438466 0.12197755 0.034756497
0.0054801954 -0.07016611 -0.05113402 0.057548933 -0.076481774 0.03699428 -0.024649898 0.0043156
0.00065441744 -0.053011287 -0.15476756 0.023480913 -0.07440916 -0.07880041 -0.0052865576 -0.0247735
-0.06094849 0.09013814 0.0044445526 -0.06985505 0.089671314 -0.08912225 0.0061206813 -0.24352886
-0.03264469 0.25843158 0.05470209 -0.09409806 -0.0056786854 0.01530134 1.223526 0.09842672
0.026248388 -0.0961841 0.009582534 -0.11690848 -0.025254427 -0.0516596 0.0012217998 -1.1886439
-0.019938245 0.075142786 0.04318146 0.040083796 -0.009293959 -0.046402443 0.10224503 0.7460616
-0.06743605 -0.054215632 0.01599915 0.1108481 -0.09398195 0.29409897 0.09172053 0.05143542
0.014160878 0.00065374374 0.058356307 -0.06873859 -0.17092313 0.08814138 -0.03222841 0.03884942
0.02169155 -0.08382423 -0.00561712 0.05498179 0.08385181 -0.044561855 0.031669028 -0.07325183
-0.01857711 -0.5264499 0.5330957 0.09418417 0.029925376 0.11796061 0.019944938 -0.06909585
0.049061164 0.118133076 0.09980257 -0.07570954 -0.006551318 0.016642928 0.031350624 -0.1369577
0.03716159 -0.027265659 0.026053108 -0.04807262 0.061581276 0.07176605 0.11279144 0.036985103
-0.06704333 0.054486636 -0.058076963 0.101801835 0.04102228 -0.131452 0.07063394 0.22412108
0.030906796 -0.059573337 -0.0040833033 0.08516471 0.031539798 -0.07925245 -0.10340747 -0.27915338
0.5744111 0.064891964 -0.07776115 -0.10670387 -0.04188295 -0.38317817 -0.13410792 -0.05334388
-0.13081656 0.0710751 0.068697385 0.34524927 0.72326416 0.08140353 0.07768996 -0.065617524
-0.10927168 -0.07616082 -0.10251305 0.051035307 -0.046085104 -0.029849961 0.103077725 -0.052911043
0.11776181 0.58244824 -0.85547394 -0.062230483 0.074418604 -0.051561035 -0.10769733 0.0771108
0.038198013 0.10543329 5.891401e-05 0.048570544 -0.010491275 -0.11965537 -0.16112585 0.5546731
-0.11429767 -0.3728957 -0.11058405 -0.05297646 0.09074319 0.091975816 -1.0405238 0.0051247138
0.13486864 -0.007065601 0.03805183 0.05652756 0.08349211 0.01135517 0.076943494 1.1599377
0.032975495 0.041531093 -0.052734867 0.049180496 0.06472291 -0.061325308 -0.017146185 0.17954549
-0.12037362 0.058434237 -0.033294667 0.053221185 0.046163764 0.7993779 0.018227668 0.09446526
-0.038167294 0.06155458 0.08898936 -0.11735704 -0.89382136 -0.08923173 0.05428718 0.005168196
0.105953306 0.11021909 -0.091898575 -0.038910013 0.11352953 -0.07024018 0.013489927 -0.0023911297
0.13041383 -0.548662 0.69714683 0.009444327 0.053123206 0.004898668 -0.0032896923 -0.10512727
0.02050949 -0.03630857 -0.04001304 0.07523046 -0.10204581 0.07737982 0.106265455 -0.23054019
0.09827329 0.33811536 0.16134812 0.029313818 0.029553123 0.032141384 0.1717139 -0.11072018
-0.054294925 -0.05366757 -0.06641674 -0.03650899 0.07133193 0.032095205 0.01391891 0.07244704
0.086723715 -0.11257138 -0.02013993 -0.12423651 0.010974079 0.006719884 0.09839322 -0.6852592

advantage.predict.bias f4 [5]
00000000: a3ad 2abe d561 d83d 96e1 08bd cc14 2dbd
00000010: 0ada e93d
-0.166678 0.10565535 -0.03341826 -0.04225616 0.11418541

exp_avg f4 [64, 25]
00000000: 536c 93bc 8d21 94bc 06e3 23bb 165d 9bbb
00000010: 268d 5738 536c 93bc 8aa8 46b9 4a9b 67bb
00000020: 4190 1b3a 3bd9 5ab8 536c 93bc 4aa6 4dbb
00000030: 9a3f 2fbb d6cf d739 6cbb 93b8 536c 93bc
00000040: ca2c c8bb 5b17 91bb 5b66 5539 4474 acb8
00000050: 536c 93bc e770 00bc e246 0cbb 352a 8c39
00000060: d811 46b8 d3a8 aa3a dcdb cb3a 40df 3d3b
00000070: 5ffa ad39 b4b4 2837 d3a8 aa3a 60a6 3db9
00000080: 8d08 a3bb daf2 ef38 092b 03b7 d3a8 aa3a
00000090: b84c 4cb9 285a 5fba 2ec8 c4b7 a815 3837
000000a0: d3a8 aa3a 7d80 363a 09dc 56bb 8816 41b7
000000b0: 9467 10b7 d3a8 aa3a abd2 2b3a f9f6 62bb
000000c0: 2613 a9b6 e14a 70b7 1420 0f3c c5a7 0e3c
000000d0: 6eb9 ba3b 34a7 4a3b b217 41b8 1420 0f3c
000000e0: 95ba 5a3a 1e75 99bb 4cd4 49ba 1e10 8d38
000000f0: 1420 0f3c e6d8 8c3a ecd3 80ba c3c2 50ba
00000100: 7ed0 e937 1420 0f3c d8f4 f93a 4f56 3ebb
00000110: 8899 7cba db5f 0338 1420 0f3c 8545 513b
00000120: 2689 b7bb 81a0 5cba 6f56 9238 d70b 123c
00000130: e6e7 063c fe57 d43b 7648 7f3b 8c76 04b8
00000140: d70b 123c c910 c33a aaa8 1dbb 5029 a6ba
00000150: deab c838 d70b 123c a7c3 da39 322a 99ba
00000160: d135 baba 7589 a9b8 d70b 123c f538 863a
00000170: 4492 e8bb 6a9b b1ba 476f 1c38 d70b 123c
00000180: e1dd 433b f469 acbb 2475 c3ba 045f b638
00000190: 17f2 77bb 19d4 73bb 938a 88bb 2914 b1ba
000001a0: e01c 0238 17f2 77bb 3eeb c3b9 f9ef d73b
000001b0: fd17 7139 23a3 4cb8 17f2 77bb 738c 823a
000001c0: d890 a538 5599 9c39 5229 58b7 17f2 77bb
000001d0: 7a0c d838 a6e8 153b b415 ad39 cbd4 e4b7
000001e0: 17f2 77bb 21fd 57ba d8f8 ea3b adee 9c39
000001f0: 9a8a 83b8 0000 0000 0000 0000 0000 0000
00000200: 0000 0000 0000 0000 0000 0000 0000 0000
00000210: 0000 0000 0000 0000 0000 0000 0000 0000
00000220: 0000 0000 0000 0000 0000 0000 0000 0000
00000230: 0000 0000 0000 0000 0000 0000 0000 0000
00000240: 0000 0000 0000 0000 0000 0000 0000 0000
00000250: 0000 0000 0000 0000 161b e83b c2e1 cf3b
00000260: 3a2b 463c 4d8a eb3a 4b08 c539 161b e83b
00000270: bcaa 1a3a 8372 e3bb d168 8639 c420 d5b9
00000280: 161b e83b 84eb e23a 4b4d 5bbc 50b4 fb39
00000290: 8190 d5b9 161b e83b 76ed 2f3b 89c2 29bc
000002a0: 04ac 91b9 4b37 c7b9 161b e83b e098 2d3b
000002b0: eed9 3ebb 61f1 6e39 c3b1 95b9 807e 06bc
000002c0: 654a 04bc 29d6 193b d2b1 1ebb e01b b138
000002d0: 807e 06bc 30e2 86b8 8a30 e5bb 2975 083a
000002e0: 2fbe a3b8 807e 06bc 17e8 8aba 6024 c8bb
000002f0: 68f6 ef39 8c9e 76b8 807e 06bc d6db edba
00000300: 5f72 78bb ea4b 9439 d73d c7b8 807e 06bc
00000310: 74b4 4fbb 4744 b6bb e57b d139 1693 aeb8
00000320: 07e9 1b02 07e9 1b02 850c 1502 db79 1602
00000330: 339a 1a82 07e9 1b02 d8e4 1402 850c 1502
00000340: 2622 1582 3a9a 1a02 07e9 1b02 9752 1902
00000350: 230b 1582 6dbe 1c82 4646 1282 07e9 1b02
00000360: 16d9 1702 c624 1202 9146 1182 3a9a 1a02
00000370: 07e9 1b02 54e0 1002 850c 1582 8423 1282
00000380: 3a9a 1a02 f088 94bb ac91 8bbb 8eaa 3aba
00000390: f131 a4ba f6f8 d6b7 f088 94bb 6fcd bdb9
000003a0: 64a2 96ba d4fa 9439 4407 d637 f088 94bb
000003b0: d6e1 2aba 0a60 75ba 0bda 0339 41e0 6838
000003c0: f088 94bb 9d52 64ba f02e 7338 503e 0239
000003d0: f0bc 9337 f088 94bb 9e17 f7ba b2f3 ccba
000003e0: d77f b938 ae94 f837 0000 0000 0000 0000
000003f0: 0000 0000 0000 0000 0000 0000 0000 0000
-0.017995989 -0.018082405 -0.0025007143 -0.0047413213 5.139145e-05 -0.017995989 -0.00018945537 -0.0035340362
0.0005934276 -5.2177562e-05 -0.017995989 -0.0031379634 -0.002674079 0.00041162845 -7.044416e-05 -0.017995989
-0.006108855 -0.004427833 0.00020351393 -8.223255e-05 -0.017995989 -0.007839418 -0.0021404554 0.00026734328
-4.7223497e-05 0.0013020284 0.0015553194 0.0028972179 0.00033183672 1.0055654e-05 0.0013020284 -0.00018086424
-0.0049753846 0.00011441643 -7.818228e-06 0.0013020284 -0.00019483536 -0.0008520209 -2.3458237e-05 1.0972297e-05
0.0013020284 0.0006961895 -0.003278496 -1.1508942e-05 -8.607185e-06 0.0013020284 0.00065545243 -0.003463207
-5.0388217e-06 -1.4322549e-05 0.008735675 0.008706992 0.0056983745 0.0030922415 -4.6036854e-05 0.008735675
0.0008343843 -0.004683151 -0.0007699176 6.726406e-05 0.008735675 0.0010745793 -0.0009828783 -0.0007963592
2.7872851e-05 0.008735675 0.0019070162 -0.0029043143 -0.0009635915 3.1322106e-05 0.008735675 0.0031932306
-0.005601066 -0.0008416251 6.977922e-05 0.008913956 0.008234 0.006480216 0.0038953102 -3.1581658e-05
0.008913956 0.0014882322 -0.002405683 -0.0012677107 9.568756e-05 0.008913956 0.00041725973 -0.0011685549
-0.0014206712 -8.084151e-05 0.008913956 0.0010240363 -0.0070975143 -0.0013550345 3.7296933e-05 0.008913956
0.0029886889 -0.005261654 -0.001491223 8.696134e-05 -0.0037833506 -0.0037205277 -0.00416691 -0.0013510037
3.1021307e-05 -0.0037833506 -0.00037368567 0.0065898863 0.00022992487 -4.8789323e-05 -0.0037833506 0.000996007
7.894792e-05 0.0002986888 -1.2884224e-05 -0.0037833506 0.000103020066 0.0022874265 0.000330133 -2.7278807e-05
-0.0037833506 -0.0008239318 0.007170778 0.00029932466 -6.272383e-05 0.0 0.0 0.0
0.0 0.0 0.0 0.0 0.0 0.0 0.0 0.0
0.0 0.0 0.0 0.0 0.0 0.0 0.0 0.0
0.0 0.0 0.0 0.0 0.0 0.0 0.007083307 0.006344051
0.012095267 0.0017970294 0.00037580947 0.007083307 0.0005900075 -0.006941141 0.00025636566 -0.00040650938
0.007083307 0.0017312621 -0.013385127 0.00048008794 -0.0004073419 0.007083307 0.0026844419 -0.010361322
-0.00027784717 -0.00037997434 0.007083307 0.0026488826 -0.0029121595 0.0002278737 -0.00028551937 -0.008208871
-0.008074378 0.0023473597 -0.0024214876 8.44521e-05 -0.008208871 -6.4317486e-05 -0.0069943117 0.00052054465
-7.80787e-05 -0.008208871 -0.0010597733 -0.006107852 0.0004576922 -5.879863e-05 -0.008208871 -0.0018147181
-0.0037909967 0.0002828532 -9.500578e-05 -0.008208871 -0.0031693252 -0.0055623385 0.00039955895 -8.3243634e-05
1.1454477e-37 1.1454477e-37 1.0950384e-37 1.105523e-37 -1.1358386e-37 1.1454477e-37 1.0938998e-37 1.0950384e-37
-1.0956591e-37 1.1358394e-37 1.1454477e-37 1.1264367e-37 -1.0949987e-37 -1.151572e-37 -1.0746553e-37 1.1454477e-37
1.1156029e-37 1.0736939e-37 -1.0673169e-37 1.1358394e-37 1.1454477e-37 1.0643828e-37 -1.0950384e-37 -1.0736578e-37
1.1358394e-37 -0.004532926 -0.004259309 -0.00071207515 -0.0012527091 -2.562672e-05 -0.004532926 -0.0003620195
-0.0011492488 0.0002841564 2.5514171e-05 -0.004532926 -0.00065186375 -0.0009360319 0.00012574361 5.5521963e-05
-0.004532926 -0.000870982 5.797943e-05 0.0001242098 1.7611746e-05 -0.004532926 -0.0018851643 -0.0015636592
8.8452995e-05 2.9633138e-05 0.0 0.0 0.0 0.0 0.0 0.0

exp_avg_sq f4 [64, 25]
00000000: a2c7 923c 38ac 913c 1150 763b af3c b53a
00000010: d234 f234 a2c7 923c bd80 ef37 258e ba3a
00000020: a206 3e38 17e0 6835 a2c7 923c 4ccb 353a
00000030: 7774 1e3b 352c 1438 5ecd 7435 a2c7 923c
00000040: 7adf cb3a abd6 5d3b b16d 1338 6d9d 8335
00000050: a2c7 923c 92b6 403b 87e5 f73a 03fd 4138
00000060: f5fa 1235 2b36 8b3a 5c08 893a 26da 3b39
00000070: e93e ad38 4662 ae32 2b36 8b3a 6c8e 8f36
00000080: 1505 2739 279d 0936 8e4c 6533 2b36 8b3a
00000090: a194 ef37 204d a038 a498 1136 fcc6 0733
000000a0: 2b36 8b3a 4b17 b538 3108 1939 f86f ff35
000000b0: d2f0 0633 2b36 8b3a e049 3339 9687 d038
000000c0: d3ef 0d36 27b5 0233 5b75 a33b ce48 a23b
000000d0: 125f 933a 8844 c539 32dd 3034 5b75 a33b
000000e0: af8f 3f37 cca6 003a bc04 4237 2787 0635
000000f0: 5b75 a33b 62b6 1f39 b679 2f3a 204e 1237
00000100: 5dc9 9034 5b75 a33b 29d0 d039 0bf4 843a
00000110: e247 1337 b357 7334 5b75 a33b 5084 503a
00000120: f6ba 113a e16b 2837 8b78 9234 81fa bd3c
00000130: 1737 bd3c 9663 443b 18e9 e03a be8d 4435
00000140: 81fa bd3c 6c8c 1838 c4d3 ca3a 15f3 4638
00000150: 3ca0 c635 81fa bd3c 8e1c 5b3a 887b 8c3b
00000160: a510 1b38 28b6 af35 81fa bd3c 0cd6 fd3a
00000170: 01b9 b13b 252a 1e38 4eec 7c35 81fa bd3c
00000180: e3ca 7e3b b263 313b 1ce8 2c38 e349 b635
00000190: 35e4 9f3b 6b79 9f3b 944e eb39 524e cb39
000001a0: 93a1 ed33 35e4 9f3b f249 bf36 8fbd 473a
000001b0: 8da3 5237 d9a5 1235 35e4 9f3b ce73 f538
000001c0: c4ea 7e3a cc85 4637 36e6 3434 35e4 9f3b
000001d0: 260b b939 4395 773a c550 3a37 2e19 0c34
000001e0: 35e4 9f3b 5ed6 373a 55ac 403a 96f5 3337
000001f0: 643e 3434 0000 0000 0000 0000 0000 0000
00000200: 0000 0000 0000 0000 0000 0000 0000 0000
00000210: 0000 0000 0000 0000 0000 0000 0000 0000
00000220: 0000 0000 0000 0000 0000 0000 0000 0000
00000230: 0000 0000 0000 0000 0000 0000 0000 0000
00000240: 0000 0000 0000 0000 0000 0000 0000 0000
00000250: 0000 0000 0000 0000 322f 703c 0eb0 6e3c
00000260: 9d32 513b 50c3 953a 0a66 0835 322f 703c
00000270: e2f7 c637 4915 b33a 49dd 1e38 bc95 0b36
00000280: 322f 703c b794 eb39 655f 103b d4c8 1a38
00000290: 38df 7935 322f 703c 6b3d 933a 77b5 543b
000002a0: 7e1f 2238 22e1 ac35 322f 703c caac 183b
000002b0: 3795 033b 74f4 3838 000d 7735 f22b dd3a
000002c0: e920 db3a 04da 4e39 2850 0e39 dc96 c632
000002d0: f22b dd3a 2913 b136 48e2 7f39 d6ce 8a36
000002e0: d96d ce33 f22b dd3a 092c 2c38 1022 f438
000002f0: 843c 9436 14c1 4633 f22b dd3a 01f0 0639
00000300: 4285 5939 6102 7636 14eb 5633 f22b dd3a
00000310: 3b37 8739 0241 3b39 cb0f 9436 0a38 2133
00000320: b447 9e0e b447 9e0e 1cb1 0c0d 3409 310d
00000330: 0000 0000 b447 9e0e 6738 5d0b 1cb1 0c0d
00000340: 3dee 5d0b 0000 0000 b447 9e0e 863b 080c
00000350: daae 0c0d 2cd5 ba0b 0000 0000 b447 9e0e
00000360: 4747 340d 0000 0000 7299 520b 0000 0000
00000370: b447 9e0e 311f 7a0d 1cb1 0c0d 7e80 c80b
00000380: 0000 0000 eb40 613a e78f 5e3a e8a9 1939
00000390: aa0f 9238 2fb2 6932 eb40 613a 1f6a 5936
000003a0: 815b 0039 6477 0c36 510a 0d33 eb40 613a
000003b0: 10a8 ac37 024f 8938 17ed 1336 ad56 c432
000003c0: eb40 613a 117f 8d38 978a ef38 29eb f435
000003d0: 36f8 b932 eb40 613a 128c 0a39 d34a a438
000003e0: a422 0d36 be14 bb32 0000 0000 0000 0000
000003f0: 0000 0000 0000 0000 0000 0000 0000 0000
0.017917458 0.017782316 0.0037584344 0.0013827289 4.5114444e-07 0.017917458 2.8550969e-05 0.0014233036
4.5305707e-05 8.675283e-07 0.017917458 0.00069348956 0.0024178305 3.532712e-05 9.119593e-07 0.017917458
0.0015554272 0.0033849876 3.514969e-05 9.806078e-07 0.017917458 0.0029405695 0.0018913009 4.625042e-05
5.475443e-07 0.0010621002 0.0010454762 0.00017914976 8.261001e-05 2.0300956e-08 0.0010621002 4.278312e-06
0.00015928254 2.0506066e-06 5.3387843e-08 0.0010621002 2.8560231e-05 7.64376e-05 2.1695532e-06 3.1613112e-08
0.0010621002 8.635091e-05 0.00014594269 1.9031568e-06 3.141833e-08 0.0010621002 0.00017098291 9.943468e-05
2.1150233e-06 3.043274e-08 0.004988355 0.0049525267 0.0011243543 0.00037625828 1.6471748e-07 0.004988355
1.1417941e-05 0.0004907667 1.1564403e-05 5.011556e-07 0.004988355 0.00015231365 0.00066938566 8.720468e-06
2.69686e-07 0.004988355 0.00039827943 0.0010143531 8.778619e-06 2.2663043e-07 0.004988355 0.00079542864
0.00055591704 1.0038698e-05 2.7282326e-07 0.023190739 0.023097558 0.0029966584 0.0017159311 7.322195e-07
0.023190739 3.6370402e-05 0.0015474488 4.7433266e-05 1.4798784e-06 0.023190739 0.0008358442 0.004287187
3.697038e-05 1.309153e-06 0.023190739 0.0019366159 0.0054236655 3.7709386e-05 9.4221184e-07 0.023190739
0.0038878254 0.002706748 4.1224164e-05 1.358156e-06 0.0048794993 0.004866769 0.00044881238 0.0003877753
1.1065563e-07 0.0048794993 5.700852e-06 0.0007619494 1.2555055e-05 5.463058e-07 0.0048794993 0.00011704081
0.0009724314 1.1832872e-05 1.6847557e-07 0.0048794993 0.00035294256 0.0009444544 1.110527e-05 1.3047676e-07
0.0048794993 0.0007012839 0.0007349898 1.0726411e-05 1.6786504e-07 0.0 0.0 0.0
0.0 0.0 0.0 0.0 0.0 0.0 0.0 0.0
0.0 0.0 0.0 0.0 0.0 0.0 0.0 0.0
0.0 0.0 0.0 0.0 0.0 0.0 0.01465969 0.014568342
0.0031921037 0.0011426006 5.0812434e-07 0.01465969 2.3718869e-05 0.001366296 3.7876223e-05 2.079977e-06
0.01465969 0.00044933494 0.0022029516 3.6903497e-05 9.3084554e-07 0.01465969 0.0011233514 0.0032456794
3.865314e-05 1.2880521e-06 0.01465969 0.002329635 0.0020077953 4.4096683e-05 9.203359e-07 0.0016874059
0.0016718182 0.00019726908 0.00013572036 2.3118837e-08 0.0016874059 5.2772416e-06 0.00024402991 4.1367994e-06
9.612604e-08 0.0016874059 4.1049007e-05 0.00011641171 4.4177887e-06 4.627607e-08 0.0016874059 0.00012868644
0.00020744375 3.6658241e-06 5.003956e-08 0.0016874059 0.00025790356 0.00017857927 4.4125823e-06 3.75367e-08
3.9019055e-30 3.9019055e-30 4.335402e-31 5.4553414e-31 0.0 3.9019055e-30 4.2605484e-32 4.335402e-31
4.2742282e-32 0.0 3.9019055e-30 1.0494971e-31 4.33513e-31 7.196534e-32 0.0 3.9019055e-30
5.555258e-31 0.0 4.0559968e-32 0.0 3.9019055e-30 7.7074743e-31 4.335402e-31 7.723053e-32
0.0 0.00085927424 0.0008490071 0.00014654512 6.96474e-05 1.3602899e-08 0.00085927424 3.239729e-06
0.00012241119 2.093112e-06 3.2838503e-08 0.00085927424 2.0582258e-05 6.5473854e-05 2.2042711e-06 2.2856819e-08
0.00085927424 6.747072e-05 0.000114222225 1.8247857e-06 2.1649708e-08 0.00085927424 0.00013212886 7.8340665e-05
2.10308e-06 2.1779098e-08 0.0 0.0 0.0 0.0 0.0 0.0

exp_avg f4 [64]
00000000: 536c 93bc d7a8 aa3a 1420 0f3c d40b 123c
00000010: 14f2 77bb 0000 0000 121b e83b 7f7e 06bc
00000020: 07e9 1b02 f088 94bb 0000 0000 c4ab 1002
00000030: b789 0a3b 0000 0000 027d 8ebb 4011 163b
00000040: a0a0 ad3a b89e 1ebb 0000 0000 5d42 0abb
00000050: aa2a 0bbc c412 a5bb ad7a 313c f0ff 413c
00000060: bad7 50bb 750d 4abb 0000 0000 0000 0000
00000070: 72d4 c53c b3a9 b43c a6ed 23bd 26b1 30bc
00000080: 4fcb 1c02 fed8 be3b 5057 8dbc 0000 0000
00000090: 8bc4 193c fab6 a8ba 4739 fa3a 8c6d 1cb9
000000a0: 8726 a1ba f2ad 3eba c4c6 003c 2012 2aba
000000b0: 0000 0000 24fe bc3a 0000 0000 0000 0000
000000c0: b84e d03b 0000 0000 9e0d 913c 0000 0000
000000d0: 9895 8e3c f1c7 87bc 1445 c7ba 9b8d 1802
000000e0: f7d8 18bb 1207 28bb 0000 0000 bf5b 1302
000000f0: a2af e6bb 0000 0000 1336 1e02 0000 0000
-0.017995989 0.0013020289 0.008735675 0.008913953 -0.0037833499 0.0 0.007083305 -0.00820887
1.1454477e-37 -0.004532926 0.0 1.0628743e-37 0.0021139213 0.0 -0.004348398 0.0022898465
0.0013246723 -0.002420349 0.0 -0.0021096685 -0.008494059 -0.0050376374 0.010832471 0.011840805
-0.0031866864 -0.0030830775 0.0 0.0 0.024149153 0.022053575 -0.04002156 -0.010784423
1.1519417e-37 0.0058242073 -0.017253548 0.0 0.009385238 -0.0012871914 0.0019090556 -0.00014918129
-0.0012294807 -0.00072738447 0.007859889 -0.0006487686 0.0 0.0014419002 0.0 0.0
0.0063570403 0.0 0.017706688 0.0 0.017405316 -0.016574832 -0.0015203082 1.1207835e-37
-0.002332268 -0.002563898 0.0 1.0826184e-37 -0.00703998 0.0 1.1623525e-37 0.0

exp_avg_sq f4 [64]
00000000: a2c7 923c 2b36 8b3a 5c75 a33b 81fa bd3c
00000010: 37e4 9f3b 0000 0000 342f 703c f32b dd3a
00000020: b447 9e0e ec40 613a 0000 0000 f4d1 6a0f
00000030: fd4f ba3a 0000 0000 553c 183b bdf2 df3b
00000040: 3bb0 7b3b 612c 593a 0000 0000 b5d1 003b
00000050: f071 293b 0a26 e43a 8432 cd3c 470e 273c
00000060: 806f 633b 3704 f939 0000 0000 0000 0000
00000070: 4dfc 0a3d a3e2 cb3b 4044 353d 5119 a43b
00000080: 0f7d 0b12 4393 dd3b 79de c83c 0000 0000
00000090: 414f cf3a f358 ec3a e0b7 993d 6e19 033a
000000a0: c5de 2c3b d469 7e3a ff3c c43b 026c f63a
000000b0: 0000 0000 f4d3 c23a 0000 0000 0000 0000
000000c0: e1b5 4f3c 0000 0000 2c65 513c 0000 0000
000000d0: ab1f 8b3c bacc 813c 09a3 2f3c 204e c90f
000000e0: 55c5 b23a 5067 6d3b 0000 0000 568d 2112
000000f0: d1d2 403c 0000 0000 98f0 2512 0000 0000
0.017917458 0.0010621002 0.0049883556 0.023190739 0.0048795003 0.0 0.014659692 0.001687406
3.9019055e-30 0.0008592743 0.0 1.1577526e-29 0.0014214512 0.0 0.002322932 0.0068343566
0.0038404602 0.0008284506 0.0 0.0019656245 0.0025855266 0.0017406356 0.025048502 0.010196275
0.003470391 0.0004749612 0.0 0.0 0.03393202 0.0062220856 0.04425454 0.0050079008
4.4014813e-28 0.0067619397 0.024520146 0.0 0.0015816466 0.001803188 0.075057745 0.0005001043
0.0026377898 0.00097051007 0.0059887166 0.0018800499 0.0 0.0014864192 0.0 0.0
0.012677641 0.0 0.012780469 0.0 0.016982874 0.015844692 0.010720023 1.9850223e-29
0.0013639132 0.003622491 0.0 5.097685e-28 0.011769013 0.0 5.2361374e-28 0.0

exp_avg f4 [64, 64]
00000000: 4ce8 4f3a e170 9a3a d527 3628 f826 882b
00000010: f90b 023a 0000 0000 5997 1882 cbff 8139
00000020: 0000 0000 ac37 b639 0000 0000 0000 0000
00000030: 427c a43a 0000 0000 56f6 d838 3ecb 0a36
00000040: 0ce0 c039 649e f739 0000 0000 6603 833a
00000050: 1f24 503a 0386 b03a 048f 263a b854 903a
00000060: 78e0 4938 1748 9d39 0000 0000 0000 0000
00000070: b719 092c 56ea c83a b151 933a 2e55 ba3a
00000080: 0000 0000 7443 b133 5c63 d939 0000 0000
00000090: 05ef 293a 334a 943a e206 4536 3f1d 0a3a
000000a0: 0046 313a eaac 943a 3f74 a33a 8e73 d43a
000000b0: 0000 0000 448d 3d3b 0000 0000 0000 0000
000000c0: d638 dd2b 0000 0000 71c2 003a 0000 0000
000000d0: e0bf 333a 0d95 913a b135 9137 0000 0000
000000e0: 30c2 323a 1444 593a 0000 0000 0000 0000
000000f0: 4286 ad39 0000 0000 0000 0000 0000 0000
00000100: 2bfc 1102 d65a 1d02 360f 1602 639c 1202
00000110: 4a3d 1202 0000 0000 ca7b 1502 dcc4 1902
00000120: 0000 0000 dc4b 1a02 0000 0000 0000 0000
00000130: 17f1 1c02 0000 0000 f4e3 1b02 12d7 1a02
00000140: a0ba 1702 6ef7 1b02 0000 0000 08a1 1402
00000150: 7bfd 1e02 94a7 1f02 8ac6 1502 529c 1102
00000160: 53ad 1602 727b 1202 0000 0000 0000 0000
00000170: e312 1802 a5dd 1402 7f6b 1f02 fc2a 1a02
00000180: 0000 0000 0c2d 1002 0f5a 1e02 0000 0000
00000190: c122 1902 369c 1d02 59cc 1102 ac75 1702
000001a0: 83c8 1302 2ee7 1a02 c3dd 1e02 b28d 1702
000001b0: 0000 0000 8a91 1302 0000 0000 0000 0000
000001c0: aae4 1502 0000 0000 7532 1a02 0000 0000
000001d0: ab67 1902 6d5a 1102 26b7 1902 0000 0000
000001e0: b812 1b02 7b81 1502 0000 0000 0000 0000
000001f0: 3c21 1d02 0000 0000 0000 0000 0000 0000
00000200: 6294 1402 c780 1002 845c 1302 343c 1d02
00000210: 5930 1002 0000 0000 ca11 1f02 81f2 1102
00000220: 0000 0000 da52 1702 0000 0000 0000 0000
00000230: 9d69 1c02 0000 0000 7ec7 1402 ee84 1a02
00000240: aa2f 1302 1eab 1b02 0000 0000 0a4b 1602
00000250: db2e 1c02 ac6c 1002 34c2 1502 9360 1c02
00000260: aaa4 1002 41d8 1902 0000 0000 0000 0000
00000270: 4736 1702 e735 1c02 f4fe 1302 0000 0000
00000280: 0000 0000 43f7 1f02 5e26 1a02 0000 0000
00000290: 8280 1202 c407 1502 c946 1002 a6dc 1c02
000002a0: 1071 1902 edc6 1702 e417 1302 fdca 1e02
000002b0: 0000 0000 7a2c 1002 0000 0000 0000 0000
000002c0: 69e5 1602 0000 0000 047f 1a02 0000 0000
000002d0: bb22 1c02 ed4e 1702 0d2c 1a02 0000 0000
000002e0: 084f 1702 02ef 1302 0000 0000 0000 0000
000002f0: fd32 1d02 0000 0000 0000 0000 0000 0000
00000300: 05f2 1102 e816 1702 6525 1202 fcf1 1b02
00000310: 2e0b 1b02 0000 0000 635b 1e02 b858 1e02
00000320: 0000 0000 e295 1e02 0000 0000 0000 0000
00000330: b2b4 1702 0000 0000 20ec 1202 f259 1902
00000340: 3829 1f02 6705 1502 0000 0000 8e2b 1f02
00000350: 544d 1f02 b57e 1802 466a 1202 8773 1502
00000360: a68d 1d02 7c41 1c02 0000 0000 0000 0000
00000370: c45f 1202 0a1c 1302 0261 1202 6aaf 1302
00000380: 0000 0000 e7b6 1202 594b 1882 0000 0000
00000390: ede5 1502 9d67 1302 b600 1302 3cf6 1b02
000003a0: d630 1302 5ec1 1902 6883 1a02 903e 1402
000003b0: 0000 0000 64e1 1b02 0000 0000 0000 0000
000003c0: 8dd8 1202 0000 0000 8260 1f02 0000 0000
000003d0: 50c9 1a02 2616 1002 bf09 1302 0000 0000
000003e0: 8a3d 1802 64b9 1202 0000 0000 0000 0000
000003f0: 59be 1902 0000 0000 0000 0000 0000 0000
0.0007931038 0.0011782908 1.0111667e-14 9.674197e-13 0.00049608905 0.0 -1.1210631e-37 0.00024795378
0.0 0.00034755224 0.0 0.0 0.0012549239 0.0 0.00010345566 2.0681905e-06
0.00036788022 0.0004722952 0.0 0.000999552 0.0007939953 0.0013467673 0.00063537084 0.0011011576
4.8131187e-05 0.00029999085 0.0 0.0 1.9483146e-12 0.0015328627 0.0011239556 0.0014216059
0.0 8.2544744e-08 0.00041463494 0.0 0.0006482455 0.0011313617 2.9359294e-06 0.000526864
0.0006762445 0.0011343036 0.0012470557 0.0016208754 0.0 0.0028923312 0.0 0.0
1.571877e-12 0.0 0.00049117865 0.0 0.00068568997 0.0011107043 1.7310349e-05 0.0
0.00068190973 0.00082880375 0.0 0.0 0.0003309716 0.0 0.0 0.0
1.0725286e-37 1.1560607e-37 1.1024625e-37 1.0771267e-37 1.0743975e-37 0.0 1.0982317e-37 1.1297161e-37
0.0 1.1335904e-37 0.0 0.0 1.1530259e-37 0.0 1.1453021e-37 1.1375855e-37
1.1147287e-37 1.145861e-37 0.0 1.0919536e-37 1.1680752e-37 1.1729568e-37 1.1003769e-37 1.0697779e-37
1.1070001e-37 1.0761813e-37 0.0 0.0 1.1172617e-37 1.0936932e-37 1.1712325e-37 1.1326469e-37
0.0 1.0592377e-37 1.1633852e-37 0.0 1.1250639e-37 1.1579369e-37 1.0711562e-37 1.1127498e-37
1.0857398e-37 1.1380478e-37 1.1671649e-37 1.1134392e-37 0.0 1.0841622e-37 0.0 0.0
1.1012415e-37 0.0 1.1328614e-37 0.0 1.1270416e-37 1.0678868e-37 1.1293226e-37 0.0
1.1392974e-37 1.098395e-37 0.0 0.0 1.1544076e-37 0.0 0.0 0.0
1.0915907e-37 1.0616406e-37 1.0826405e-37 1.1551816e-37 1.0593324e-37 0.0 1.168658e-37 1.0722513e-37
0.0 1.1117505e-37 0.0 0.0 1.149138e-37 0.0 1.0930574e-37 1.1352282e-37
1.0813533e-37 1.143671e-37 0.0 1.1041795e-37 1.1474517e-37 1.0610636e-37 1.1002525e-37 1.1488785e-37
1.0626705e-37 1.1302727e-37 0.0 0.0 1.1109305e-37 1.1476539e-37 1.0873022e-37 0.0
0.0 1.1752436e-37 1.1325144e-37 0.0 1.0763266e-37 1.094902e-37 1.0599764e-37 1.1524393e-37
1.1273112e-37 1.1150817e-37 1.0806711e-37 1.1666261e-37 0.0 1.0592213e-37 0.0 0.0
1.1086097e-37 0.0 1.1350585e-37 0.0 1.1471037e-37 1.1116379e-37 1.1326775e-37 0.0
1.1116409e-37 1.0868446e-37 0.0 0.0 1.1549171e-37 0.0 0.0 0.0
1.0722374e-37 1.1100302e-37 1.0737118e-37 1.1457048e-37 1.139081e-37 0.0 1.1634233e-37 1.1633468e-37
0.0 1.1651021e-37 0.0 0.0 1.1145585e-37 0.0 1.079415e-37 1.1266478e-37
1.1693304e-37 1.0948342e-37 0.0 1.1693975e-37 1.1703667e-37 1.120356e-37 1.0756885e-37 1.0979946e-37
1.1575189e-37 1.1479863e-37 0.0 0.0 1.0753869e-37 1.0807901e-37 1.0754226e-37 1.0850196e-37
0.0 1.0778876e-37 -1.118882e-37 0.0 1.1012777e-37 1.082959e-37 1.0800058e-37 1.1458267e-37
1.081387e-37 1.1296158e-37 1.1351845e-37 1.0891277e-37 0.0 1.1452285e-37 0.0 0.0
1.0788533e-37 0.0 1.1709171e-37 0.0 1.1371907e-37 1.0585805e-37 1.0802651e-37 0.0
1.1184857e-37 1.077959e-37 0.0 0.0 1.1295292e-37 0.0 0.0 0.0
