highway_ddqn/ddqn_reward_change/checkpoint-best.tar (torch, 84502 bytes, 21 tensors)

base_module.layers.0.weight f4 [64, 25]
0	0xbe0938f8	-0.13400638
1	0xbdda4080	-0.10656834
2	0x3dd5a958	0.104326904
3	0xbe623778	-0.22091472
4	0xbe1a91df	-0.15094708
5	0x3ddb29ea	0.10701354
6	0x3fc7a511	1.5597249
7	0x3f4c2350	0.7974138
8	0x3f052d61	0.5202237
9	0x3efe0812	0.49615532
10	0x3db69140	0.08914423
11	0x3ec58918	0.38581157
12	0x3d178740	0.03699422
13	0x3ee5e0a1	0.4489794
14	0xbe65faf1	-0.22459008
15	0x3e43dd60	0.19127417
16	0x3e3392fa	0.17536536
17	0x3d6f10f6	0.058365785
18	0x3eec5305	0.4615709
19	0x3e5281a9	0.20557274
20	0x3cb135b8	0.02163206
21	0x3d4e1876	0.050316297
22	0xbb4f1dfe	-0.003160357
23	0x3e9dd394	0.30825484
24	0x3ea06ce1	0.31333068
25	0x3e813c42	0.25241286
26	0x3dd5b9b5	0.104358114
27	0x3de6665f	0.112499945
28	0x3e928131	0.2861419
29	0xbc1dd8f6	-0.009634247
30	0x3e35a84d	0.17739983
31	0xbeea82b4	-0.45802844
32	0x3a5c8546	0.0008412193
33	0xbed45837	-0.41473553
34	0xbe191544	-0.14949518
35	0xbdb1074a	-0.086439684
36	0x3e2a17ae	0.16610596
37	0x3d20a411	0.039218966
38	0xbda6647a	-0.08124633
39	0x3c496ddf	0.012294262
40	0x3e12ec53	0.14347963
41	0x3d746e48	0.059675485
42	0xbe524a6d	-0.20536204
43	0xbebdd7b8	-0.37078643
44	0xbdecafdb	-0.11556979
45	0xbc018604	-0.007905487
46	0x3e1f0279	0.15528287
47	0xbd4d604a	-0.050140657
48	0x3d2839df	0.041070815
49	0xbf322db6	-0.69601
50	0xbe198587	-0.14992343
51	0xbd79450d	-0.060856868
52	0xbddb5b31	-0.10710753
53	0xbe014831	-0.12625195
54	0x3f072063	0.52783793
55	0x3de368fe	0.1110401
56	0x3f98368b	1.1891645
57	0xbf0bcfb5	-0.5461381
58	0x3e6c26e6	0.23061714
59	0xbf106a83	-0.56412524
60	0x3e35b3ff	0.17744444
61	0xbd00a935	-0.03141137
62	0xbcabd05b	-0.020973375
63	0x3c862b2c	0.016378008
64	0xbece478d	-0.40288964
65	0xbdd042c4	-0.101689845
66	0xbdf2b8c9	-0.11851651
67	0xbcd64348	-0.02615513
68	0x3deb79bc	0.11497828
69	0xbf63a53e	-0.88924015
70	0x3e3e8025	0.18603571
71	0xbb88dbf3	-0.0041766106
72	0xbd16bd94	-0.03680189
73	0x3eb46109	0.35230282
74	0xbe0f9bf9	-0.14024343
75	0x3d9425ac	0.07233748
76	0xbd82d285	-0.0638781
77	0xbe3dcee8	-0.1853596
78	0xbe9edbd8	-0.31027102
79	0x3ed752e0	0.42055416
80	0x3e1eaed1	0.15496375
81	0x400d3495	2.2063344
82	0xbf49d7fd	-0.78845197
83	0x3f05bd51	0.52242
84	0xbf3548d8	-0.70814276
85	0x3e2bf98f	0.16794418
86	0x3e8fa249	0.280535
87	0xbd2dcc79	-0.04243133
88	0x3f1e2e60	0.6178951
89	0xbdf9b011	-0.12191785
90	0x3d4d03c3	0.050052416
91	0x3d6c9f88	0.05776933
92	0xbd02c392	-0.03192479
93	0x3e84bff1	0.2592769
94	0xbf0254a4	-0.509104
95	0xbe08e43d	-0.13368316
96	0xbcffc044	-0.03121961
97	0xbbc0de7c	-0.005885897
98	0x3ec983e8	0.3935845
99	0xbdd8b97e	-0.10582255
100	0xbd1c2924	-0.038125172
101	0xbe535216	-0.20636782
102	0xbc9e375e	-0.01931351
103	0x3d0f1404	0.034931198
104	0xbdca9148	-0.098909914
105	0xbd40e788	-0.047095805
106	0x3f5e2a37	0.86783165
107	0xbe197866	-0.14987335
108	0xbde45703	-0.11149409
109	0x3e54d4c3	0.20784287
110	0x3e3909ea	0.18070188
111	0x3df49ffb	0.11944576
112	0x3eb58d37	0.354593
113	0xbf07a73f	-0.5298957
114	0x3ee27057	0.44226333
115	0x3dfa70e3	0.12228563
116	0x3ea2dde2	0.31809908
117	0x3c925da7	0.017866923
118	0xbf13df9b	-0.5776307
119	0x3ecc0598	0.39848018
120	0x3e0a858e	0.1352751
121	0x3e39f67d	0.18160434
122	0x3e82e5e4	0.25566018
123	0xbeccf830	-0.40033102
124	0xbecac75c	-0.39605224
125	0xbdffff0d	-0.12499819
126	0xbd5b35a0	-0.053517938
127	0xbe3cd66b	-0.18441169
128	0x3cb6a89a	0.022297192
129	0xbcc8bd33	-0.02450428
130	0xbd01d813	-0.031700205
131	0xbbf83233	-0.0075743436
132	0x3d8525fa	0.06501384
133	0xbe40548b	-0.1878225
134	0x3da6fffa	0.081542924
135	0xbd80bb80	-0.06285763
136	0xbd7c5d80	-0.061612606
137	0xbe425750	-0.1897862
138	0x3df0758d	0.11741171
139	0xbe014eb3	-0.12627678
140	0xbd102f47	-0.035201337
141	0xbcd68c9a	-0.02619009
142	0x3e03a9d2	0.1285775
143	0xbdc10bb0	-0.09426057
144	0xbe16007f	-0.14648627
145	0x3ccc0d00	0.024908543
146	0x3d3f5b00	0.046717644
147	0x3dc67e0d	0.09692011
148	0x3db2cd5d	0.08730576
149	0xbdf5fcb3	-0.12011089
150	0xbe0c3533	-0.13692169
151	0x3da14178	0.07873815
152	0x3d53e049	0.051727567
153	0xbe35cd7b	-0.17754166
154	0xbd511a5f	-0.05105054
155	0x3e2d5c93	0.16929846
156	0x3f578201	0.84182745
157	0xbfb99d1c	-1.4501071
158	0x3e66cae6	0.22538337
159	0xbff9868a	-1.9494183
160	0x3e0d50ab	0.13800304
161	0x3d5983f2	0.05310435
162	0xbc09148a	-0.008366713
163	0xbe507339	-0.20356454
164	0x3e8080de	0.25098318
165	0xbd749c23	-0.059719216
166	0x3baa4780	0.0051965117
167	0x3da83255	0.08212725
168	0xbe74555c	-0.23860687
169	0xbe2bb8b2	-0.16769674
170	0xbdd5435f	-0.10413241
171	0x3d3c47d6	0.045966946
172	0x3ca9ec1a	0.020742465
173	0x3bba96f7	0.005694266
174	0xbe1b6dd7	-0.1517862
175	0x3dea83fc	0.11450955
176	0x3dc526de	0.09626554
177	0xbdd228b3	-0.10261669
178	0x3b9506a3	0.0045479103
179	0x3e81e443	0.25369462
180	0xbd3342f0	-0.04376501
181	0xbea2c2ed	-0.31789342
182	0xbec14e7c	-0.3775519
183	0x3cdbb07d	0.026817555
184	0xbf2d2f09	-0.67649895
185	0xbd284b3e	-0.04108738
186	0x3eae98f3	0.34101066
187	0x3ebae1c2	0.36500365
188	0x3f000b81	0.50017554
189	0xbdc5d6cb	-0.09660109
190	0x3c9468b1	0.018116327
191	0xbe287360	-0.16450262
192	0x3db140bc	0.08654925
193	0x3eae9c7f	0.34103772
194	0xbeb3f561	-0.35148147
195	0x3e585dc1	0.21129514
196	0x3db6f4fb	0.08933445
197	0xbddfeed2	-0.10934223
198	0x3e7ff548	0.24995911
199	0x3e677668	0.22603762
200	0xbe3e4474	-0.185808
201	0x3cd1aaa7	0.025594069
202	0xbdd3b3d7	-0.10337036
203	0x3d829f78	0.063780725
204	0x3d19bef3	0.03753562
205	0x3d7eaea2	0.06217826
206	0x3bdb0fa5	0.0066852146
207	0x3da87b29	0.08226616
208	0x3e319182	0.17340663
209	0x3e306b3f	0.17228411
210	0xbd27a742	-0.040930994
211	0xbe09a247	-0.1344081
212	0xbd8ecb46	-0.06972365
213	0x3c9095c8	0.017649546
214	0x3ddb5b90	0.107108235
215	0xbdb05e61	-0.08611751
216	0x3d8b9a83	0.0681658
217	0x3cfc3d6e	0.03079101
218	0xbe138891	-0.14407565
219	0x3dca4840	0.09877062
220	0x3e192b15	0.1495784
221	0x3dbf19c4	0.09331086
222	0xbe253b3b	-0.16135876
223	0xbdef0aee	-0.116720065
224	0x3e061ea8	0.13097632
225	0x3e03a48e	0.12855741
226	0x3e2b3462	0.16719201
227	0x3d133195	0.035935957
228	0xbd923909	-0.07139785
229	0xbeb953bf	-0.36196706
230	0xbe1501d8	-0.14551485
231	0x3d937b3c	0.072012395
232	0xbea413f3	-0.3204647
233	0x3db480fd	0.08813665
234	0xbedf509b	-0.43616185
235	0xbdec34e0	-0.115335226
236	0x3eb64cb3	0.35605392
237	0x3e0a379b	0.13497774
238	0x3ed3b3cf	0.4134812
239	0x3ef0f249	0.4705985
240	0x3dbeceba	0.09316774
241	0xbd3d6ff5	-0.04624935
242	0xbd7f4def	-0.062330183
243	0x3e92e1dd	0.28687945
244	0xbe0f79d6	-0.1401132
245	0x3e01a99c	0.12662357
246	0x39174261	0.0001442521
247	0x3d9f3738	0.07774204
248	0x3dd21748	0.10258347
249	0x3c8a770b	0.016902467
250	0xbc8aebc0	-0.016958117
251	0xbde2ed57	-0.11080425
252	0x3d737f5a	0.059447624
253	0x3e1a8955	0.1509145
254	0x3d0bd187	0.034135368
255	0xbb6a7600	-0.00357759

base_module.layers.0.bias f4 [64]
0	0x3c8342ff	0.016023157
1	0x3dd706e2	0.1049936
2	0x3e00c4a7	0.12575017
3	0x3dcb9a82	0.099415794
4	0xbe1fd624	-0.15609032
5	0xbcf41800	-0.0297966
6	0xbe2bf54a	-0.16792789
7	0x3cd5770c	0.026057743
8	0xbdf196bd	-0.11796329
9	0x3e1306fa	0.1435813
10	0x3d251dd3	0.040311646
11	0xbda5ff4d	-0.081053354
12	0x3e1c7828	0.15280211
13	0xbd5347c7	-0.051582124
14	0x3da6cb2c	0.08144221
15	0xbd62ca32	-0.05536861
16	0x3d1814f1	0.037129346
17	0x3e2b36ae	0.16720077
18	0x3c63969a	0.013890887
19	0x3d4c1a4c	0.049829766
20	0x3bfebb53	0.0077737956
21	0x3e869fcb	0.26293787
22	0x3d90d51c	0.070718974
23	0x3e22692f	0.15860437
24	0x3e5403ae	0.20704529
25	0x3e3366ed	0.17519732
26	0xbe4ba900	-0.19888687
27	0xbdddef17	-0.108366184
28	0x3dd6b391	0.10483468
29	0xbc98492d	-0.01858958
30	0xbdd7a6f3	-0.1052989
31	0x3a0da523	0.00054033304
32	0x3e2044aa	0.15651193
33	0x3e3be710	0.18349862
34	0x3dea405a	0.11438055
35	0x3de1da6d	0.110279895
36	0x3e0d8aa5	0.1382242
37	0x3e16275d	0.14663453
38	0xbd10afb4	-0.035323814
39	0x3e1dabd6	0.15397581
40	0x3e577c97	0.21043621
41	0x3d2e0230	0.042482555
42	0x3e22317f	0.15839194
43	0x3e27b586	0.1637784
44	0xbd8f255a	-0.06989546
45	0x3e0f76f7	0.14010225
46	0xbe44aa03	-0.1920548
47	0xbd838b87	-0.06423097
48	0x3d1c9d6b	0.038236063
49	0xbdf305ea	-0.118663624
50	0x3d532be9	0.051555548
51	0xbd67dccd	-0.056607056
52	0x3dd2626b	0.10272678
53	0xbdc4361b	-0.09580632
54	0x3d3d154b	0.046162885
55	0x3e317d77	0.17333017
56	0x3c5d68a4	0.013513718
57	0x3d32a5ae	0.043615036
58	0xbe0bdb8f	-0.13657974
59	0xbdf29e61	-0.11846615
60	0xbdf84c49	-0.12123925
61	0xbc2d319a	-0.010570908
62	0x3ab122e4	0.0013514427
63	0xbe42e6e3	-0.19033389

base_module.layers.1.weight f4 [64, 64]
0	0xbc9c69fb	-0.019093504
1	0x3d8649e6	0.06557064
2	0x3e04e4a2	0.12977841
3	0x3e3ead2b	0.18620746
4	0x3ce22f34	0.027610399
5	0xbda1f0ce	-0.07907258
6	0x3dac5e63	0.0841644
7	0x3d862d60	0.06551623
8	0xbc07be90	-0.00828518
9	0xbccc00e0	-0.024902761
10	0xbdfffd28	-0.124994576
11	0x3dd09cf4	0.101861864
12	0x3d170c24	0.036876813
13	0xbdb92e58	-0.090420425
14	0xbe8815e4	-0.265792
15	0xbde8551b	-0.113443576
16	0xbe655c41	-0.22398473
17	0xbd831f81	-0.06402493
18	0xbd807e9e	-0.0627415
19	0xbcd15078	-0.025551066
20	0xbd95cf8f	-0.07314979
21	0xbd0fbcab	-0.035092037
22	0xbdac1154	-0.084017426
23	0x3d97a76a	0.074049786
24	0xbf051821	-0.5198994
25	0x3d3b54cf	0.045735177
26	0xbd203be0	-0.0391196
27	0xbdad4102	-0.08459665
28	0x3cb7bbc2	0.022428397
29	0x3e16e546	0.14735898
30	0x3e03ce6b	0.12871711
31	0x3d8affe8	0.067870915
32	0x3d46f5c0	0.04857421
33	0xbe6ca1cd	-0.23108597
34	0xbcf2526f	-0.029580323
35	0xbdb3b16c	-0.08774075
36	0xbd76571e	-0.060141675
37	0x3dabc3d5	0.08386961
38	0xbee4f5c7	-0.44718763
39	0xbdafd98b	-0.08586415
40	0xbc8d325d	-0.01723593
41	0x3c248cfd	0.01004338
42	0x3e0af69f	0.13570641
43	0x3de7a8fb	0.11311527
44	0x3c35c040	0.011093199
45	0x3cec36d5	0.02883474
46	0x3d55fd20	0.052243352
47	0x3dfb48fc	0.1226978
48	0x3decf003	0.11569216
49	0xbd9221d6	-0.0713536
50	0xbe1f7b1a	-0.15574303
51	0x3b2957c0	0.0025839657
52	0xbe3c3a4c	-0.18381613
53	0x3ae9d261	0.0017839187
54	0xbed2577f	-0.4108238
55	0xbceabea0	-0.02865535
56	0x3dfa360c	0.1221734
57	0xbd6b1642	-0.057394274
58	0x3b8857c0	0.0041608512
59	0xbdb750e4	-0.089509755
60	0xbe595015	-0.21221955
61	0xbd663684	-0.056204334
62	0xbdda5fcc	-0.10662803
63	0x3dcbc904	0.0995045
64	0x3c258b58	0.010104023
65	0xbdb2357f	-0.0870161
66	0xbc0cd87d	-0.008596537
67	0xbd79d504	-0.060994163
68	0x3d253e82	0.040342815
69	0xbdeb7ae8	-0.11498052
70	0xbd7992a4	-0.060930863
71	0x3d73e3cd	0.05954342
72	0x3df17884	0.11790565
73	0x3d8a4de4	0.06753138
74	0xbd8d90c0	-0.069123745
75	0x3cf6a538	0.03010808
76	0xbddec94c	-0.10878238
77	0xbd9a1c4c	-0.075249285
78	0xbdafa867	-0.08577042
79	0x3c4d4ef0	0.012531027
80	0xbd339cb1	-0.043850604
81	0x3dc90035	0.098144926
82	0xbcc1d9b8	-0.023663387
83	0x3dcfb522	0.1014197
84	0x3d8909f0	0.066913486
85	0xbdbdda88	-0.09270197
86	0x3d68ea21	0.056863908
87	0xbdc320fd	-0.095277764
88	0xbd2761d2	-0.040864773
89	0xbd44afe0	-0.04801929
90	0xbaaf8080	-0.0013389736
91	0xbb70fc80	-0.0036771595
92	0xbe09a8e0	-0.13443327
93	0xbe0168d8	-0.12637651
94	0xbd6df106	-0.058091186
95	0xbc534535	-0.012894918
96	0x3dc5cd06	0.09658246
97	0xbb81abc6	-0.0039572446
98	0xbcaad8ac	-0.02085527
99	0x3c34e390	0.011040583
100	0x3cb43201	0.0219965
101	0x3caf6734	0.021411516
102	0xbbe2f6d2	-0.006926396
103	0x3cd9b2d9	0.026574539
104	0xbe027be8	-0.12742579
105	0xbc85bbcf	-0.016324906
106	0x3d737b5c	0.059443817
107	0x3d73ce6d	0.059523035
108	0xbd8c016c	-0.06836209
109	0xbdb3f719	-0.087873645
110	0xbd6759e0	-0.056482196
111	0xbd7cc45c	-0.0617107
112	0xbcb0e2d4	-0.021592535
113	0x3ded31c6	0.11581759
114	0x3d987ab3	0.07445278
115	0x3dada564	0.084788114
116	0x3d8e563f	0.06950044
117	0x3d9d0c2c	0.07668337
118	0xbd8f4c24	-0.069969445
119	0xbde533f2	-0.111915484
120	0x3daa693f	0.08320855
121	0x3c8846d1	0.01663533
122	0x3c992bb0	0.01869759
123	0x3de22776	0.11042683
124	0xbcdb8b25	-0.026799748
125	0x3d8a7382	0.067603126
126	0xbb110e00	-0.0022133589
127	0x3c0e4380	0.008683085
128	0x3d2aaa99	0.0416666
129	0x3dd33fb7	0.10314887
130	0x3d366c1f	0.044536706
131	0xba319ed4	-0.00067756814
132	0xbddc7d19	-0.10766048
133	0x3d5f47d8	0.054511875
134	0xbbe99647	-0.00712851
135	0xbda123b4	-0.07868138
136	0xbdd28664	-0.10279539
137	0xbd9ff701	-0.07810784
138	0xbdf2c144	-0.11853269
139	0x3d563264	0.05229415
140	0x3d8545dd	0.06507466
141	0x3d39d008	0.04536441
142	0xbda802fe	-0.08203696
143	0x3d9f1ff7	0.07769769
144	0xbcca7e43	-0.02471841
145	0x3d863e95	0.06554905
146	0x3db0d974	0.08635226
147	0x3d871682	0.0659609
148	0x3d95ca56	0.07313983
149	0xbdc5920f	-0.09646999
150	0x3afdfb95	0.0019377345
151	0xbd901607	-0.070354514
152	0xbdd8b473	-0.10581293
153	0x3db55b48	0.08855301
154	0x3bab4bc0	0.005227536
155	0x3ddccfb0	0.10781801
156	0xbab9cf2e	-0.0014176124
157	0xbd22a339	-0.039706443
158	0xbd84938a	-0.06473453
159	0xbdba05d8	-0.09083146
160	0xbdcb5390	-0.09928048
161	0xbceef2d6	-0.029168528
162	0xbe037628	-0.12838042
163	0x3c9ba948	0.019001618
164	0xbd5707f8	-0.052497834
165	0x3d0ae11e	0.033906095
166	0xbdf6a934	-0.12043992
167	0xbdf2267b	-0.11823746
168	0x3db4b79c	0.08824083
169	0x3daea150	0.08526862
170	0x3dd52e5f	0.10409235
171	0xbd42ecf2	-0.04758925
172	0xbb14a840	-0.0022683293
173	0xbb7abb3c	-0.0038258573
174	0xbd4763a4	-0.04867901
175	0xbda2687e	-0.079300866
176	0xbdf4fa19	-0.11961765
177	0x3caa3e58	0.020781681
178	0xbdd6d763	-0.104903005
179	0xbd908d86	-0.070582435
180	0xbdf4aa15	-0.11946503
181	0x3d236084	0.039886966
182	0x3caa1e55	0.020766417
183	0x3d6fc330	0.058535755
184	0x3c41e02f	0.011833235
185	0xbd739b5d	-0.059474338
186	0x3cd1e5d8	0.025622293
187	0x3d796cac	0.060894653
188	0x3d1032e1	0.035204772
189	0x3df70494	0.1206142
190	0x3be63100	0.007024884
191	0x3de9c944	0.114153415
192	0x3d92f345	0.07175306
193	0x3d70eb43	0.058818113
194	0xbe2ee266	-0.17078552
195	0x3d3f03ea	0.046634592
196	0xba9989d4	-0.001171405
197	0x3db67c1c	0.08910391
198	0xbc960ce5	-0.018316695
199	0xbe1092a7	-0.14118443
200	0x3dd3790a	0.10325821
201	0x3ce9ae26	0.028525423
202	0xbbba84c0	-0.0056920946
203	0xbdd663a2	-0.10468222
204	0xbd0c54b6	-0.034260474
205	0x3dbcbff4	0.092163
206	0xbe234205	-0.15943153
207	0xbdf2f557	-0.11863201
208	0xbda79c3c	-0.08184096
209	0xbd7c191a	-0.061547376
210	0x3d73bacc	0.059504315
211	0x3d9d7b78	0.076895654
212	0x3d562bd1	0.05228788
213	0xbac6ab5b	-0.0015157269
214	0xbcf88785	-0.030338058
215	0xbd10da6e	-0.03536456
216	0xbd55f2e3	-0.052233588
217	0xbdc07cc2	-0.09398796
218	0x3d3e3fec	0.04644768
219	0xbd6e390c	-0.058159873
220	0x3dbd6044	0.09246877
221	0x3cc1aec4	0.023642905
222	0x3d1dc3ad	0.03851669
223	0xbc1b7b92	-0.009489911
224	0x3db8482a	0.08998139
225	0x3dae3092	0.08505358
226	0x3dc23c12	0.09484114
227	0xbd8a47e6	-0.06751995
228	0xbe41dae0	-0.1893115
229	0x3d877319	0.0661375
230	0xbd33d6aa	-0.04390589
231	0xbd805506	-0.06266217
232	0x3d42d924	0.047570363
233	0x3da0ee17	0.07857912
234	0xbe19be19	-0.15013923
235	0x3ccee028	0.02525337
236	0xbdd4c770	-0.10389602
237	0xbd95e6cc	-0.07319412
238	0xbd222da4	-0.039594308
239	0x3cf0ea30	0.029408544
240	0xbd75bae3	-0.059992682
241	0x3c54fe00	0.013000011
242	0xbe220e29	-0.15825714
243	0x3a06dc00	0.0005144477
244	0xbd36e9ac	-0.04465644
245	0xbda20b8e	-0.0791236
246	0x3bb271a5	0.0054456764
247	0x3d4c0624	0.049810544
248	0x3d562ca8	0.05228868
249	0xbd88e140	-0.06683588
250	0xbcc41320	-0.0239349
251	0x3c8927f0	0.016742676
252	0xbd534e95	-0.051588614
253	0x3d793a68	0.060846716
254	0x3d9cd702	0.07658197
255	0x3db9d5b4	0.09073964

base_module.layers.1.bias f4 [64]
0	0xbdf9b0d1	-0.12191928
1	0xbb2eb820	-0.002666004
2	0xbcc85de0	-0.024458826
3	0x3c35dbe5	0.01109979
4	0xbada71a0	-0.0016665943
5	0x3e24327e	0.16034886
6	0xbc2c593e	-0.010519324
7	0xba60de40	-0.00085780397
8	0x3cba6776	0.022754412
9	0xbdbac78e	-0.09120093
10	0xbd98b3ff	-0.074562065
11	0xbb18daae	-0.0023323703
12	0x3e2e91d0	0.1704781
13	0x3d74c10d	0.05975442
14	0x3c213970	0.009840354
15	0x3dcaa250	0.0989424
16	0xbde871cc	-0.1134983
17	0xbdea83f0	-0.11450946
18	0x3d2f1e72	0.042753644
19	0xbcbfbfa7	-0.023406817
20	0x3d98632f	0.07440793
21	0x3d3b9762	0.045798667
22	0x3d128ad6	0.035776936
23	0x3d184274	0.03717275
24	0xbd232dac	-0.039838478
25	0x3e05ff1d	0.13085599
26	0x3e0e06e8	0.13869822
27	0x3e37d32d	0.17951651
28	0xbc531ba0	-0.012885004
29	0x3c0f4c78	0.008746259
30	0xbd80ad44	-0.06283048
31	0x3d8905ce	0.0669056
32	0x3d603369	0.05473653
33	0x3d56e505	0.052464504
34	0x3d87b7d1	0.06626857
35	0xbd185c6e	-0.037197523
36	0x3dbd42db	0.09241267
37	0xbdea351e	-0.114359125
38	0xbb61e86a	-0.0034470805
39	0xbe209f39	-0.15685739
40	0xbd567fc8	-0.052367955
41	0xbdd6be56	-0.104855224
42	0x3d81c1e1	0.063358076
43	0xbdf3dd04	-0.1190739
44	0x3e3724ad	0.17885084
45	0x3e042a3c	0.12906736
46	0x3d3e6edc	0.046492442
47	0xbd607626	-0.054800175
48	0xbe13c8ff	-0.14432143
49	0xbe0c36bf	-0.13692759
50	0xbdc80e62	-0.09768368
51	0xbd8e1e78	-0.06939405
52	0x3cfc4f48	0.030799523
53	0x3e17061a	0.14748421
54	0xbd51a7d6	-0.05118545
55	0x3e53015f	0.20605992
56	0xbdab47dc	-0.083633155
57	0x3daf0f5f	0.08547854
58	0xbd3bbbfd	-0.045833576
59	0x3cb46bd9	0.022024082
60	0xbdd55528	-0.10416633
61	0x3da5b4c4	0.08091119
62	0xbd93f374	-0.072241694
63	0x3c8252cc	0.015908621

value.predict.weight f4 [1, 64]
0	0xbd6f5221	-0.058427934
1	0xbde27f26	-0.11059408
2	0xbc8772e1	-0.01653427
3	0xbdad2328	-0.08453971
4	0xbd8131e4	-0.06308344
5	0x3ec39182	0.3819695
6	0x3ea5f950	0.32416773
7	0xbcf36621	-0.029711785
8	0x3ea844b3	0.32864913
9	0xbc2442e0	-0.01002571
10	0xbd0be7d9	-0.034156654
11	0x3d6c9ea5	0.057768483
12	0xbef2ff9e	-0.47460645
13	0x3e489a0a	0.19590011
14	0x3da73b3e	0.081655964
15	0x386ce27c	5.6477715e-05
16	0x3bf54c12	0.007485875
17	0xbc8be5f0	-0.017077416
18	0xbd8532e0	-0.06503844
19	0xbd4303e9	-0.04761115
20	0xbca5430c	-0.020173572
21	0xbda15c1b	-0.07878896
22	0x3e144d27	0.14482556
23	0xbce705d0	-0.028201014
24	0x3e0d4dcf	0.13799213
25	0x3f25a405	0.647034
26	0x3d81d144	0.063387424
27	0x3eb612cb	0.35561213
28	0x3d2a375c	0.0415567
29	0xbdabbd3e	-0.083857045
30	0xbd7dd980	-0.061975002
31	0xbcce7311	-0.025201352
32	0xbd7ae2da	-0.0612515
33	0xbd8577c3	-0.06516983
34	0xbd1db691	-0.038504187
35	0x3e947f05	0.29003158
36	0x3eeb57b9	0.45965365
37	0x3d05daac	0.032679245
38	0x3e8cfdcc	0.27537382
39	0xbf64ff19	-0.8945175
40	0xbcf790b8	-0.030220374
41	0xbe0e73a1	-0.13911296
42	0x3e51baba	0.20481387
43	0xbb9b91c0	-0.0047475994
44	0x3e4df60d	0.20113392
45	0x3e5f0eda	0.21783009
46	0xbf7223c3	-0.9458582
47	0xbd88538b	-0.066565596
48	0x3c2aaea6	0.010417616
49	0xbc16fcd5	-0.009215553
50	0x3dba269e	0.09089397
51	0xbd349490	-0.044086993
52	0xbd99f8e0	-0.07518172
53	0x3eb3b7ea	0.35101253
54	0xbdc50f01	-0.096220024
55	0xbf21c63c	-0.63193107
56	0x3cf0e450	0.029405743
57	0xbcbca5e2	-0.023028318
58	0x3d1a9c2a	0.037746586
59	0xbd56f732	-0.052481838
60	0x3cc612b8	0.024178848
61	0xbd4cd025	-0.05000319
62	0xbd177118	-0.03697309
63	0xbf133839	-0.57507664

advantage.predict.weight f4 [5, 64]
0	0x3e497750	0.1967442
1	0xbd687916	-0.0567561
2	0xbde23b83	-0.11046507
3	0x3da7f02c	0.08200106
4	0xbd7de911	-0.061989848
5	0xbf24a343	-0.6431162
6	0x3c56de68	0.013114549
7	0x3dd76930	0.1051811
8	0x3d9ab2ac	0.0755361
9	0x3df497c2	0.11943008
10	0x3d2c9e39	0.04214308
11	0x3c37e81e	0.011224775
12	0x3ee918e8	0.45526814
13	0x3d093537	0.033498015
14	0x3df9cf5e	0.12197755
15	0x3d0e5cd4	0.034756497
16	0x3bb39336	0.0054801954
17	0xbd8fb340	-0.07016611
18	0xbd5171e8	-0.05113402
19	0x3d6bb86e	0.057548933
20	0xbd9ca27a	-0.076481774
21	0x3d178750	0.03699428
22	0xbc7cd215	-0.015430947
23	0x3b8d69e0	0.0043156
24	0xbc7eb8a4	-0.015546951
25	0xbe3cf7fa	-0.1845397
26	0xbe2d4c79	-0.16923703
27	0x3cafd1cd	0.021462345
28	0xbd9863d4	-0.07440916
29	0xbda1621c	-0.07880041
30	0xbbad3adc	-0.0052865576
31	0xbccaf1cc	-0.0247735
32	0xbd79a520	-0.06094849
33	0x3db89a58	0.09013814
34	0x3b91a39c	0.0044445526
35	0xbd864c84	-0.06557563
36	0x3db16e7b	0.086636506
37	0xbdb685ba	-0.08912225
38	0xbb7727bd	-0.0037712895
39	0xbe6d7dc7	-0.23192511
40	0xbd05b670	-0.03264469
41	0x3e80ace2	0.251319
42	0x3d46cf08	0.048537284
43	0xbdc0b67c	-0.09409806
44	0xbc086f09	-0.008327254
45	0x3cbedfbf	0.02330005
46	0x3f98ec70	1.1947155
47	0x3dc993f3	0.09842672
48	0x3cd706dc	0.026248388
49	0xbdc4fc2b	-0.0961841
50	0x3c1d0010	0.009582534
51	0xbdef6db7	-0.11690848
52	0xbccee25f	-0.025254427
53	0xbd3b91fd	-0.045793522
54	0x3aa024cc	0.0012217998
55	0xbf904cfe	-1.1273496
56	0xbca35588	-0.019938245
57	0x3d99e476	0.075142786
58	0x3d30df0b	0.04318146
59	0x3d242ee8	0.040083796
60	0xbc1845b0	-0.009293959
61	0xbd4a8c5e	-0.04945027
62	0x3dd165d8	0.10224503
63	0x3f3dddc2	0.741665
64	0xbd93862d	-0.072033264
65	0xbd5e1136	-0.054215632
66	0x3c8310a6	0.01599915
67	0x3de30454	0.1108481
68	0xbdc0799c	-0.09398195
69	0x3ea44df3	0.3209072
70	0x3dc0d82d	0.09416232
71	0x3d52adf2	0.05143542
72	0x3c69240c	0.014229786
73	0x3a2b6000	0.00065374374
74	0x3d6f0706	0.058356307
75	0xbdb72806	-0.08943181
76	0xbe7300ed	-0.23730822
77	0x3db4cb6f	0.088278644
78	0xbd0401f0	-0.03222841
79	0x3d1f2092	0.03884942
80	0x3cb1b27a	0.02169155
81	0xbdabac0a	-0.08382423
82	0xbbb80fd1	-0.00561712
83	0x3d613496	0.05498179
84	0x3dabba7f	0.08385181
85	0xbd36867e	-0.044561855
86	0x3d16bb06	0.036799453
87	0xbd96050e	-0.07325183
88	0xbb7eaebc	-0.0038861474
89	0xbe527cb3	-0.20555381
90	0x3f019b43	0.50627536
91	0x3dbe8346	0.09302382
92	0x3cf52610	0.029925376
93	0x3df19555	0.11796061
94	0x3ca36391	0.019944938
95	0xbd8d8220	-0.06909585
96	0x3d48f45c	0.049061164
97	0x3df1efc1	0.118133076
98	0x3dcc654a	0.09980257
99	0xbd883f85	-0.066527404
100	0xbc19b3f3	-0.009381282
101	0x3c8856c0	0.016642928
102	0x3d328bbf	0.043590304
103	0xbe323a9b	-0.17405169
104	0x3d1836c0	0.03716159
105	0xbcb00cee	-0.02149054
106	0x3d1c7d14	0.03820522
107	0xbd44e7cc	-0.04807262
108	0x3d8d2330	0.06891477
109	0x3d906f51	0.07052482
110	0x3cf56229	0.029954033
111	0x3d177db1	0.036985103
112	0xbd894e03	-0.06704333
113	0x3d5f2d61	0.054486636
114	0xbd6de21c	-0.058076963
115	0x3dd07d7b	0.101801835
116	0x3d2806fa	0.04102228
117	0xbe08d37e	-0.13361928
118	0x3d90a887	0.07063394
119	0x3e31b43f	0.17353915
120	0x3cfd3040	0.030906796
121	0xbd74032c	-0.059573337
122	0xbb85cd3b	-0.0040833033
123	0x3dae6ad6	0.08516471
124	0x3d012fe0	0.031539798
125	0xbda8764c	-0.08225688
126	0xbdd3c74c	-0.10340747
127	0xbea6bd52	-0.32566315
128	0x3ea661c7	0.32496473
129	0x3d84e614	0.064891964
130	0xbd9f413d	-0.07776115
131	0xbdda878f	-0.10670387
132	0xbd2b8d75	-0.04188295
133	0xbeb61dfb	-0.35569748
134	0xbe091a30	-0.13388896
135	0xbd5a7f1d	-0.05334388
136	0xbe042f1d	-0.12908597
137	0x3d918fd2	0.0710751
138	0x3d8cb137	0.068697385
139	0x3eb33d4c	0.35007703
140	0x3f3c1271	0.7346564
141	0x3da60b1a	0.08107586
142	0x3d9f1bea	0.07768996
143	0xbd86627b	-0.065617524
144	0xbddfc9d5	-0.10927168
145	0xbd9bfa34	-0.07616082
146	0xbdd1f25d	-0.10251305
147	0x3d510a66	0.051035307
148	0xbd3cc3bc	-0.046085104
149	0xbcf487e8	-0.029849961
150	0x3dd11121	0.10208345
151	0xbd58b940	-0.052911043
152	0x3df3e72b	0.11909326
153	0x3ed46a91	0.41487554
154	0xbf4fefe5	-0.81225425
155	0xbd82a75d	-0.06379578
156	0x3d9868c8	0.074418604
157	0xbd5331aa	-0.051561035
158	0xbddc906b	-0.10769733
159	0x3d9dec44	0.0771108
160	0x3d1c7585	0.038198013
161	0x3dd7ed69	0.10543329
162	0x38771a70	5.891401e-05
163	0x3d2082f7	0.039187398
164	0xbc7a35ef	-0.015271648
165	0xbdf50de0	-0.11965537
166	0xbe225b7a	-0.15855208
167	0x3f19ef3b	0.6013066
168	0xbdea14e6	-0.11429767
169	0xbebc7640	-0.36808968
170	0xbddda656	-0.10822742
171	0xbd58fdd8	-0.05297646
172	0x3dae2b7e	0.08504389
173	0x3dbc84bd	0.09205005
174	0xbf6a1ec4	-0.91453195
175	0x3ba7ed37	0.0051247138
176	0x3e0a1b01	0.13486864
177	0xbbe7868f	-0.007065601
178	0x3d1bdc3c	0.03805183
179	0x3d678971	0.05652756
180	0x3daafde9	0.08349211
181	0x3b9dca0a	0.0048153447
182	0x3d9d948d	0.076943494
183	0x3f89d6da	1.0768692
184	0x3d071150	0.032975495
185	0x3d2a1c82	0.041531093
186	0xbd580084	-0.052734867
187	0x3d49717d	0.049180496
188	0x3d848d72	0.06472291
189	0xbdab5681	-0.08366109
190	0xbc8c7628	-0.017146185
191	0x3e1e3c6b	0.15452735
192	0xbe3d0f71	-0.18462922
193	0x3d6f58bd	0.058434237
194	0xbd085ffd	-0.033294667
195	0x3d59fe75	0.053221185
196	0x3d3d1637	0.046163764
197	0x3f4421cb	0.76614064
198	0x3c855d70	0.016279906
199	0x3dc17701	0.09446526
200	0xbd178881	-0.036995415
201	0x3d7c20a8	0.06155458
202	0x3db6400e	0.08898936
203	0xbe022322	-0.12708715
204	0xbf5d4ff1	-0.86450106
205	0xbdc1d60f	-0.094646566
206	0x3d5e5c3c	0.05428718
207	0x3ba959f8	0.005168196
208	0x3dd8fe0c	0.105953306
209	0x3de1ba8c	0.11021909
210	0xbdbc3552	-0.091898575
211	0xbd1f601b	-0.038910013
212	0x3de8822c	0.11352953
213	0xbd8fda15	-0.07024018
214	0xbb858752	-0.0040749693
215	0xbb1cb480	-0.0023911297
216	0x3e00e18f	0.12586044
217	0xbe8f1674	-0.27946818
218	0x3f39a257	0.72513336
219	0x3c5d6409	0.01351262
220	0x3d5997b8	0.053123206
221	0x3ba08501	0.004898668
222	0xbb5797e1	-0.0032896923
223	0xbdd74cf7	-0.10512727
224	0x3ca80385	0.02050949
225	0xbd14b84c	-0.03630857
226	0xbd23e4b7	-0.04001304
227	0x3d9599a3	0.073046945
228	0xbdc1776c	-0.09446606
229	0x3d9e7950	0.07737982
230	0x3de0d69c	0.109784335
231	0xbe722970	-0.2364862
232	0x3dc94382	0.09827329
233	0x3e9b148a	0.30289108
234	0x3e209460	0.156816
235	0x3cf02388	0.029313818
236	0x3ce5302b	0.02797707
237	0x3cba5999	0.022747802
238	0x3da2f81b	0.079574786
239	0xbde2c143	-0.11072018
240	0xbd5e645b	-0.054294925
241	0xbd5bd287	-0.05366757
242	0xbd880580	-0.06641674
243	0xbd158a73	-0.03650899
244	0x3d92167a	0.07133193
245	0x3d031bc1	0.03200889
246	0x3c640c24	0.01391891
247	0x3daadb9e	0.0834267
248	0x3db19c34	0.086723715
249	0xbde68bd3	-0.11257138
250	0xbca4fc7f	-0.02013993
251	0xbdfe6fb6	-0.12423651
252	0x3c33cca0	0.010974079
253	0x3c557987	0.013029463
254	0x3dc98262	0.09839322
255	0xbf258149	-0.646504

advantage.predict.bias f4 [5]
0	0xbe22c8e8	-0.15896952
1	0x3dc05eb3	0.093930624
2	0xbd2ec849	-0.042671476
3	0xbcf01699	-0.02930765
4	0x3de6f307	0.112768225

exp_avg f4 [64, 25]
0	0x3d809453	0.062782906
1	0x3d81bd17	0.06334894
2	0x3d3da402	0.04629899
3	0x3c861b58	0.01637046
4	0x3993fed4	0.00028227887
5	0x3d809453	0.062782906
6	0x39c4c946	0.00037533994
7	0xbcc0ae83	-0.023520714
8	0x39508320	0.00019885274
9	0xb98fe98f	-0.000274491
10	0x3d809453	0.062782906
11	0x3ca3fbe5	0.020017574
12	0xbc63179a	-0.0138606075
13	0xba33e706	-0.0006862733
14	0xb9b91ad7	-0.00035305947
15	0x3d809453	0.062782906
16	0x3cb20cc8	0.02173461
17	0xbd1cd9ea	-0.038293757
18	0xb83165c0	-4.229485e-05
19	0xb98313e3	-0.00025001084
20	0x3d809453	0.062782906
21	0x3ccf1578	0.025278792
22	0xbcd26df8	-0.025687203
23	0xb7d9b680	-2.5953399e-05
24	0xb99bb16e	-0.000296961
25	0x3c459fe9	0.012062051
26	0x3c44964f	0.011998727
27	0x3b717bf8	0.0036847573
28	0x3b715471	0.0036824013
29	0xb805f61d	-3.1938882e-05
30	0x3c459fe9	0.012062051
31	0xb88d6fa4	-6.7441986e-05
32	0xba02f43c	-0.00049955
33	0xba230414	-0.0006218564
34	0x374c61ca	1.2182116e-05
35	0x3c459fe9	0.012062051
36	0x3a7f14b2	0.0009730562
37	0x3aaa9c38	0.0013016528
38	0xba36896d	-0.0006963227
39	0x38000d1a	3.052978e-05
40	0x3c459fe9	0.012062051
41	0x3b0c1990	0.002137754
42	0x39805ee8	0.00024484773
43	0xba2394bd	-0.000624012
44	0x3792f368	1.7517901e-05
45	0x3c459fe9	0.012062051
46	0x3b827b60	0.0039819926
47	0x3ad7a72e	0.0016453022
48	0xba3dfc19	-0.00072473433
49	0x38143132	3.5331766e-05
50	0xba89ea95	-0.0010522181
51	0xba767706	-0.0009401891
52	0x3c586364	0.01320729
53	0xba2fc4be	-0.0006705037
54	0x392fcda4	0.00016765908
55	0xba89ea95	-0.0010522181
56	0xba5a55a4	-0.00083288015
57	0xbc21661f	-0.009851008
58	0x3a659eaf	0.00087593024
59	0xb9357b90	-0.00017307536
60	0xba89ea95	-0.0010522181
61	0x3b82cd31	0.003991746
62	0xbbf5e6aa	-0.007504304
63	0x39bb876f	0.00035768325
64	0xb98b838b	-0.00026610153
65	0xba89ea95	-0.0010522181
66	0x3b2129cd	0.0024591566
67	0xbc95a067	-0.018264962
68	0x3a0d5251	0.0005390989
69	0xb925ba89	-0.00015805116
70	0xba89ea95	-0.0010522181
71	0x3a0cdbad	0.00053733104
72	0xbc9a28a4	-0.018818207
73	0x3a7ff6b2	0.00097642385
74	0xb919ebd0	-0.00014679064
75	0xbcc890d1	-0.024483116
76	0xbcc4c769	-0.024020867
77	0x3cd0fa3e	0.02550995
78	0xbbc981c4	-0.0061495025
79	0x39c2089f	0.00037008987
80	0xbcc890d1	-0.024483116
81	0xbb3245a6	-0.0027202158
82	0xbcc957f1	-0.024578067
83	0x3a85294a	0.00101594
84	0xb9bf884e	-0.00036531914
85	0xbcc890d1	-0.024483116
86	0xbaaf416d	-0.0013370939
87	0xbcaa7a8e	-0.020810392
88	0xb9afba9e	-0.00033517642
89	0xba0ed1ae	-0.0005448115
90	0xbcc890d1	-0.024483116
91	0xbbc14ea2	-0.0058992663
92	0xbd3c2ea3	-0.045942914
93	0x37afd37d	2.0960108e-05
94	0xb9bb7bef	-0.00035759757
95	0xbcc890d1	-0.024483116
96	0xbc146760	-0.00905785
97	0xbd1f6b4a	-0.03892068
98	0x3a975024	0.001154427
99	0xb9ad846c	-0.00033095793
100	0x3b1309a1	0.002243616
101	0x3b0cb0ca	0.002146768
102	0xbbaca084	-0.0052681584
103	0x39715764	0.00023016107
104	0xb8c56ff7	-9.414547e-05
105	0x3b1309a1	0.002243616
106	0x3a007e66	0.00049016473
107	0x3b53d85a	0.0032325
108	0x38e5968a	0.00010947611
109	0x38c964c7	9.603198e-05
110	0x3b1309a1	0.002243616
111	0x3a748827	0.00093281496
112	0x3bab9d4b	0.0052372566
113	0x39c3f9dc	0.00037379458
114	0x3911712c	0.00013870437
115	0x3b1309a1	0.002243616
116	0x3a9146a2	0.0011083672
117	0x3bc75c97	0.0060840356
118	0x39c29902	0.00037116563
119	0x38c0f17b	9.200253e-05
120	0x3b1309a1	0.002243616
121	0x3a86c5c4	0.0010282327
122	0x3c0c1c2c	0.008551639
123	0x38c78d8c	9.5154246e-05
124	0x38d2bce4	0.00010048764
125	0x00000000	0.0
126	0x00000000	0.0
127	0x00000000	0.0
128	0x00000000	0.0
129	0x00000000	0.0
130	0x00000000	0.0
131	0x00000000	0.0
132	0x00000000	0.0
133	0x00000000	0.0
134	0x00000000	0.0
135	0x00000000	0.0
136	0x00000000	0.0
137	0x00000000	0.0
138	0x00000000	0.0
139	0x00000000	0.0
140	0x00000000	0.0
141	0x00000000	0.0
142	0x00000000	0.0
143	0x00000000	0.0
144	0x00000000	0.0
145	0x00000000	0.0
146	0x00000000	0.0
147	0x00000000	0.0
148	0x00000000	0.0
149	0x00000000	0.0
150	0x3da75ca0	0.08171964
151	0x3da8f4f0	0.08249843
152	0x3d60a836	0.05484792
153	0x3cb4fd5c	0.022093467
154	0xb6434655	-2.9098203e-06
155	0x3da75ca0	0.08171964
156	0xba48f4ea	-0.00076658896
157	0xbcee58ad	-0.029095018
158	0xbad6648a	-0.0016356867
159	0x37f63a73	2.9352703e-05
160	0x3da75ca0	0.08171964
161	0x3c799503	0.015233281
162	0xbb9ddfe0	-0.0048179477
163	0xbb060c67	-0.002045417
164	0xb93bc4a4	-0.00017906964
165	0x3da75ca0	0.08171964
166	0x3cb174df	0.021662174
167	0xbd57b06d	-0.052658487
168	0xba977832	-0.0011556207
169	0x374eb33b	1.2320287e-05
170	0x3da75ca0	0.08171964
171	0x3cf7c18c	0.030243658
172	0xbcc1cdcc	-0.023657702
173	0xba2833f2	-0.0006416432
174	0x364660cf	2.956065e-06
175	0x3c377852	0.01119812
176	0x3c391956	0.011297544
177	0x3bae266a	0.005314638
178	0x3b8059d9	0.0039169607
179	0x37e12e90	2.6843773e-05
180	0x3c377852	0.01119812
181	0xb9da110d	-0.00041592904
182	0xbb462d1e	-0.0030239294
183	0xba84a784	-0.0010120724
184	0xb85d8858	-5.2817486e-05
185	0x3c377852	0.01119812
186	0x3ac73e54	0.001520107
187	0xb9e055ac	-0.0004278844
188	0xba88e01a	-0.0010442764
189	0xb872901d	-5.7831512e-05
190	0x3c377852	0.01119812
191	0x3b0c66c6	0.0021423562
192	0xb9cb07e0	-0.00038725045
193	0xba8ce246	-0.0010748587
194	0xb814d30b	-3.54825e-05
195	0x3c377852	0.01119812
196	0x3b5f4584	0.0034068534
197	0xbb1d43ac	-0.0023996634
198	0xba999fa6	-0.0011720553
199	0xb788b126	-1.6294955e-05
200	0x021be907	1.1454477e-37
201	0x021be907	1.1454477e-37
202	0x02150c85	1.0950384e-37
203	0x021679db	1.105523e-37
204	0x821a9a33	-1.1358386e-37
205	0x021be907	1.1454477e-37
206	0x0214e4d8	1.0938998e-37
207	0x02150c85	1.0950384e-37
208	0x82152226	-1.0956591e-37
209	0x021a9a3a	1.1358394e-37
210	0x021be907	1.1454477e-37
211	0x02195297	1.1264367e-37
212	0x82150b23	-1.0949987e-37
213	0x821cbe6d	-1.151572e-37
214	0x82124646	-1.0746553e-37
215	0x021be907	1.1454477e-37
216	0x0217d916	1.1156029e-37
217	0x021224c6	1.0736939e-37
218	0x82114691	-1.0673169e-37
219	0x021a9a3a	1.1358394e-37
220	0x021be907	1.1454477e-37
221	0x0210e054	1.0643828e-37
222	0x82150c85	-1.0950384e-37
223	0x82122384	-1.0736578e-37
224	0x021a9a3a	1.1358394e-37
225	0x3c4312a5	0.011906301
226	0x3c3fc472	0.011704551
227	0x3b639541	0.0034726413
228	0x3b760210	0.003753785
229	0xb659bb82	-3.2444664e-06
230	0x3c4312a5	0.011906301
231	0xb9590836	-0.00020697791
232	0xba6ce3a8	-0.0009036609
233	0xba401fcb	-0.0007328956
234	0xb78aa312	-1.6526817e-05
235	0x3c4312a5	0.011906301
236	0x3a99f93b	0.001174725
237	0x3aa3bffa	0.0012493127
238	0xba4262fa	-0.00074152614
239	0xb5b1f2a8	-1.325815e-06
240	0x3c4312a5	0.011906301
241	0x3b09f533	0.002105069
242	0x3aa4c83a	0.0012571879
243	0xba2f3233	-0.00066832005
244	0xb782f42a	-1.5610905e-05
245	0x3c4312a5	0.011906301
246	0x3b7de74a	0.0038742595
247	0x3ae06b1e	0.0017121767
248	0xba601122	-0.0008547475
249	0xb50c41ec	-5.2249993e-07
250	0x00000000	0.0
251	0x00000000	0.0
252	0x00000000	0.0
253	0x00000000	0.0
254	0x00000000	0.0
255	0x00000000	0.0

exp_avg_sq f4 [64, 25]
0	0x3c936a77	0.017995102
1	0x3c932524	0.017962046
2	0x3b86ed6b	0.004117658
3	0x3ab6b642	0.0013939815
4	0x3562eeb6	8.453893e-07
5	0x3c936a77	0.017995102
6	0x37f5df97	2.9310393e-05
7	0x3aac804d	0.0013160795
8	0x384cf828	4.8868504e-05
9	0x35f8b153	1.8529048e-06
10	0x3c936a77	0.017995102
11	0x3a25688d	0.000630983
12	0x3b5e5035	0.0033922319
13	0x381c5662	3.727375e-05
14	0x357a7f45	9.331746e-07
15	0x3c936a77	0.017995102
16	0x3abf509a	0.0014596165
17	0x3b5ab566	0.0033372282
18	0x3836e9e3	4.3610005e-05
19	0x3591f9eb	1.0876078e-06
20	0x3c936a77	0.017995102
21	0x3b39b9a1	0.0028339403
22	0x3b19005a	0.0023346157
23	0x38240500	3.9105304e-05
24	0x3584ca1e	9.89359e-07
25	0x3a894307	0.0010472246
26	0x3a86ebad	0.0010293626
27	0x3916e553	0.00014390545
28	0x38a48a49	7.845887e-05
29	0x32cc63d5	2.3794124e-08
30	0x3a894307	0.0010472246
31	0x36a7d131	5.001341e-06
32	0x3918e559	0.00014581288
33	0x35e86d98	1.7317243e-06
34	0x33c364e7	9.098749e-08
35	0x3a894307	0.0010472246
36	0x37f69e95	2.939933e-05
37	0x38ac5e19	8.219126e-05
38	0x35e77dff	1.7247511e-06
39	0x3307f6c2	3.1656562e-08
40	0x3a894307	0.0010472246
41	0x38be60b0	9.0779155e-05
42	0x38eb7252	0.00011226967
43	0x35dc25f4	1.6402323e-06
44	0x3300800c	2.991878e-08
45	0x3a894307	0.0010472246
46	0x393b3af9	0.00017855679
47	0x38dd6e39	0.00010558632
48	0x35d35081	1.5744155e-06
49	0x331d6d5b	3.665387e-08
50	0x3bba74a7	0.0056901756
51	0x3bb95623	0.0056560203
52	0x3aa39072	0.0012478961
53	0x39de99c4	0.00042457704
54	0x348e4d89	2.6505975e-07
55	0x3bba74a7	0.0056901756
56	0x375245a1	1.2533187e-05
57	0x3a2192d4	0.00061635417
58	0x3761fd6d	1.347005e-05
59	0x3581dc26	9.675321e-07
60	0x3bba74a7	0.0056901756
61	0x3921735b	0.0001539713
62	0x3a73e160	0.0009303298
63	0x37249f7e	9.812296e-06
64	0x34b098ef	3.2893828e-07
65	0x3bba74a7	0.0056901756
66	0x39e3392a	0.00043339405
67	0x3a90957e	0.001103088
68	0x372e3e80	1.038576e-05
69	0x34a46a06	3.0624523e-07
70	0x3bba74a7	0.0056901756
71	0x3a742c5a	0.000931447
72	0x3a3a3f7d	0.00071047974
73	0x3720fd3e	9.595706e-06
74	0x349e4048	2.9476564e-07
75	0x3cd9bc4b	0.026579043
76	0x3cd922b8	0.026505813
77	0x3b71a47e	0.0036871727
78	0x3b088b25	0.002083489
79	0x35de5c77	1.65672e-06
80	0x3cd9bc4b	0.026579043
81	0x3839bd0b	4.4283497e-05
82	0x3afb4ec9	0.001917326
83	0x388d7843	6.7458044e-05
84	0x36777d82	3.6878923e-06
85	0x3cd9bc4b	0.026579043
86	0x3a480193	0.0007629629
87	0x3bb28edf	0.0054491605
88	0x384cacf3	4.879846e-05
89	0x360bbb09	2.0821483e-06
90	0x3cd9bc4b	0.026579043
91	0x3b1b73ba	0.0023720101
92	0x3bae8cc4	0.005326839
93	0x3852cda9	5.0259438e-05
94	0x36013d67	1.9258239e-06
95	0x3cd9bc4b	0.026579043
96	0x3b9a842c	0.004715463
97	0x3b8cc75d	0.004296227
98	0x384ff73a	4.9582894e-05
99	0x35edea18	1.7726006e-06
100	0x3b6afbfb	0.0035855758
101	0x3b6a8aae	0.0035788226
102	0x39b49849	0.00034445737
103	0x398fc5d6	0.00027422485
104	0x340d6195	1.3167148e-07
105	0x3b6afbfb	0.0035855758
106	0x36885cc7	4.0639165e-06
107	0x39f32f8b	0.00046383994
108	0x37123416	8.714405e-06
109	0x35804bb1	9.558772e-07
110	0x3b6afbfb	0.0035855758
111	0x38a873a9	8.032408e-05
112	0x3a325684	0.0006803053
113	0x36ec9cb9	7.051593e-06
114	0x342f566c	1.6329585e-07
115	0x3b6afbfb	0.0035855758
116	0x398d2100	0.00026918203
117	0x3a280a9b	0.0006410272
118	0x36f9dd75	7.4465593e-06
119	0x3418dc90	1.4236343e-07
120	0x3b6afbfb	0.0035855758
121	0x3a1388c1	0.0005627983
122	0x3a2bd319	0.00065545883
123	0x36cf1e72	6.172625e-06
124	0x3449e51b	1.8802932e-07
125	0x00000000	0.0
126	0x00000000	0.0
127	0x00000000	0.0
128	0x00000000	0.0
129	0x00000000	0.0
130	0x00000000	0.0
131	0x00000000	0.0
132	0x00000000	0.0
133	0x00000000	0.0
134	0x00000000	0.0
135	0x00000000	0.0
136	0x00000000	0.0
137	0x00000000	0.0
138	0x00000000	0.0
139	0x00000000	0.0
140	0x00000000	0.0
141	0x00000000	0.0
142	0x00000000	0.0
143	0x00000000	0.0
144	0x00000000	0.0
145	0x00000000	0.0
146	0x00000000	0.0
147	0x00000000	0.0
148	0x00000000	0.0
149	0x00000000	0.0
150	0x3c930655	0.017947355
151	0x3c9259c2	0.017865065
152	0x3b9c5aca	0.004771565
153	0x3ab8a4b2	0.0014087169
154	0x357edb58	9.494156e-07
155	0x3c930655	0.017947355
156	0x38000c54	3.052906e-05
157	0x3abf8e80	0.0014614612
158	0x387470be	5.8279133e-05
159	0x3681091c	3.84556e-06
160	0x3c930655	0.017947355
161	0x39f71722	0.00047128747
162	0x3b5bff4f	0.0033568924
163	0x383feb6d	4.5757206e-05
164	0x35b04685	1.3133546e-06
165	0x3c930655	0.017947355
166	0x3aae4cd8	0.0013298048
167	0x3b72fb68	0.003707612
168	0x3842d22a	4.6448935e-05
169	0x35a92e70	1.2604996e-06
170	0x3c930655	0.017947355
171	0x3b418148	0.002952652
172	0x3b166877	0.002295045
173	0x384af757	4.8390906e-05
174	0x35aae28c	1.2731921e-06
175	0x3ac154f9	0.0014750055
176	0x3abed36b	0.0014558857
177	0x39195107	0.00014621402
178	0x38f9038c	0.00011873906
179	0x32e2db93	2.6409714e-08
180	0x3ac154f9	0.0014750055
181	0x36dd7d83	6.6009247e-06
182	0x39641d0e	0.00021754598
183	0x368a003c	4.112748e-06
184	0x33f42d6a	1.1370396e-07
185	0x3ac154f9	0.0014750055
186	0x381c8f92	3.732701e-05
187	0x39010301	0.00012303518
188	0x3680c794	3.837931e-06
189	0x331e62b1	3.6877e-08
190	0x3ac154f9	0.0014750055
191	0x38fb61df	0.000119868426
192	0x392ff89f	0.00016781919
193	0x36730f0a	3.6218576e-06
194	0x33196ef1	3.572399e-08
195	0x3ac154f9	0.0014750055
196	0x39713307	0.0002300256
197	0x391ad25e	0.00014764952
198	0x367edb04	3.7976433e-06
199	0x33225811	3.779866e-08
200	0x13a3bdcd	4.1334143e-27
201	0x13a3bdcd	4.1334143e-27
202	0x12118bdd	4.5926327e-28
203	0x123724e0	5.779007e-28
204	0x00000000	0.0
205	0x13a3bdcd	4.1334143e-27
206	0x1064da6a	4.5133332e-29
207	0x12118bdd	4.5926327e-28
208	0x106596a4	4.5278336e-29
209	0x00000000	0.0
210	0x13a3bdcd	4.1334143e-27
211	0x110ceeef	1.111768e-28
212	0x12118983	4.592343e-28
213	0x10c1478b	7.6235307e-29
214	0x02141b2c	1.0881121e-37
215	0x13a3bdcd	4.1334143e-27
216	0x123a7fc1	5.884872e-28
217	0x00000000	0.0
218	0x1059ddbf	4.296653e-29
219	0x00000000	0.0
220	0x13a3bdcd	4.1334143e-27
221	0x12816029	8.16475e-28
222	0x12118bdd	4.5926327e-28
223	0x10cf6b89	8.181279e-29
224	0x00000000	0.0
225	0x3a2fe5d6	0.00067099684
226	0x3a2c8e76	0.00065825076
227	0x38bad286	8.908384e-05
228	0x3857f800	5.1490963e-05
229	0x325cbac0	1.2848147e-08
230	0x3a2fe5d6	0.00067099684
231	0x36737227	3.6276267e-06
232	0x38bc0083	8.964634e-05
233	0x35a8e52b	1.2583672e-06
234	0x33240c3e	3.819536e-08
235	0x3a2fe5d6	0.00067099684
236	0x379c69ac	1.8645856e-05
237	0x38314aab	4.226963e-05
238	0x35b0a42c	1.3160802e-06
239	0x3293df48	1.7214589e-08
240	0x3a2fe5d6	0.00067099684
241	0x38749679	5.8314272e-05
242	0x3884f3dd	6.3396736e-05
243	0x359cf01f	1.169279e-06
244	0x3289318e	1.5971434e-08
245	0x3a2fe5d6	0.00067099684
246	0x38ed6867	0.00011320487
247	0x386bd202	5.622395e-05
248	0x35a399c6	1.21892e-06
249	0x32a046e1	1.8658683e-08
250	0x00000000	0.0
251	0x00000000	0.0
252	0x00000000	0.0
253	0x00000000	0.0
254	0x00000000	0.0
255	0x00000000	0.0

exp_avg f4 [64]
0	0x3d809454	0.06278291
1	0x3c459fe8	0.01206205
2	0xba89ea77	-0.0010522146
3	0xbcc890d8	-0.02448313
4	0x3b1309a9	0.0022436178
5	0x00000000	0.0
6	0x3da75ca0	0.08171964
7	0x3c377851	0.011198119
8	0x021be907	1.1454477e-37
9	0x3c4312a4	0.0119063
10	0x00000000	0.0
11	0x0210abc4	1.0628743e-37
12	0xba807604	-0.0009800796
13	0x00000000	0.0
14	0xbb72a44d	-0.00370242
15	0xbc80f58c	-0.015742086
16	0xbc93edca	-0.018057723
17	0xbba9b814	-0.0051794145
18	0x00000000	0.0
19	0x3c8dc3b2	0.017305229
20	0x3ae67db0	0.0017585065
21	0x3ac08bd4	0.001469011
22	0x3d6768f2	0.056496568
23	0x3d67029e	0.05639898
24	0x3b909606	0.0044124154
25	0xbc01aa9e	-0.007914213
26	0x00000000	0.0
27	0x00000000	0.0
28	0x3aa91ee8	0.0012902888
29	0xbc385abc	-0.0112521015
30	0x3c943482	0.018091444
31	0x3ca4e3ac	0.020128094
32	0x021ccb4f	1.1519417e-37
33	0x3c33c2f0	0.01097177
34	0xbcb8e7fa	-0.022571553
35	0x00000000	0.0
36	0xbb8e36e9	-0.004340042
37	0x3bb74ac4	0.0055936296
38	0xba276cd0	-0.0006386759
39	0x3accbb0c	0.0015619709
40	0x3c4b5bde	0.01241204
41	0x3bd38902	0.0064555416
42	0x3cfe0e66	0.031012725
43	0x3b4ee1d8	0.0031567719
44	0x00000000	0.0
45	0xbb928e48	-0.0044725277
46	0x00000000	0.0
47	0x00000000	0.0
48	0xbc987e21	-0.01861483
49	0x00000000	0.0
50	0xbcfb7eac	-0.03070005
51	0x00000000	0.0
52	0xbd4d3161	-0.05009592
53	0x3c228d2c	0.009921353
54	0x3d141664	0.036154166
55	0x02188d9b	1.1207835e-37
56	0x3b920d6a	0.0044571655
57	0x3cae650e	0.021288421
58	0x00000000	0.0
59	0x02135bbf	1.0826184e-37
60	0x3bff5f28	0.007793326
61	0x00000000	0.0
62	0x021e3613	1.1623525e-37
63	0x00000000	0.0

exp_avg_sq f4 [64]
0	0x3c936a77	0.017995102
1	0x3a894307	0.0010472246
2	0x3bba74a7	0.0056901756
3	0x3cd9bc4d	0.026579047
4	0x3b6afbfa	0.0035855756
5	0x00000000	0.0
6	0x3c930656	0.017947357
7	0x3ac154fa	0.0014750056
8	0x13a3bdcd	4.1334143e-27
9	0x3a2fe5d7	0.0006709969
10	0x00000000	0.0
11	0x1472ec2b	1.2264454e-26
12	0x3aafacf6	0.0013402987
13	0x00000000	0.0
14	0x3af24636	0.0018484059
15	0x3bc21426	0.005922812
16	0x3aced836	0.0015780989
17	0x3a5e3426	0.00084763987
18	0x00000000	0.0
19	0x3ad94d4e	0.0016578825
20	0x3b2fe8a8	0.0026841555
21	0x3ae854ab	0.0017725428
22	0x3cbbe7ea	0.022937734
23	0x3c1e3362	0.009655805
24	0x3b22deee	0.0024852115
25	0x3a1076d1	0.0005510869
26	0x00000000	0.0
27	0x00000000	0.0
28	0x3d1305c3	0.035894167
29	0x3b913ff5	0.004432673
30	0x3d3e1b02	0.046412475
31	0x3b978e5e	0.004625126
32	0x17104d19	4.662622e-25
33	0x3c0ba0f1	0.008522258
34	0x3cd675c7	0.026179207
35	0x00000000	0.0
36	0x3a99102c	0.0011677793
37	0x3ad41bf4	0.0016182647
38	0x3d5f1b2d	0.054469276
39	0x3a07c4cc	0.00051791663
40	0x3b10a228	0.002206931
41	0x3a821bd0	0.0009926502
42	0x3bbc84e9	0.005753149
43	0x3adce3e5	0.0016852586
44	0x00000000	0.0
45	0x3ac1669a	0.0014755309
46	0x00000000	0.0
47	0x00000000	0.0
48	0x3c76e3e6	0.015068984
49	0x00000000	0.0
50	0x3c13d68f	0.009023323
51	0x00000000	0.0
52	0x3c48c21f	0.012253313
53	0x3c55f544	0.013058964
54	0x3c0e7617	0.008695147
55	0x14d0404a	2.102799e-26
56	0x3a9f0f6f	0.0012135337
57	0x3b27e0d9	0.0025616197
58	0x00000000	0.0
59	0x17272068	5.4001513e-25
60	0x3c3b7f2d	0.011443895
61	0x00000000	0.0
62	0x172baa40	5.5467966e-25
63	0x00000000	0.0

exp_avg f4 [64, 64]
0	0xba109f67	-0.0005516917
1	0xbb1e2380	-0.0024130046
2	0xa3132530	-7.976761e-18
3	0x25479441	1.7310729e-16
4	0xbaa28f90	-0.0012402404
5	0x00000000	0.0
6	0x82189759	-1.1210631e-37
7	0xb9c8e7f3	-0.00038319788
8	0x00000000	0.0
9	0xb9d63548	-0.00040856958
10	0x00000000	0.0
11	0x00000000	0.0
12	0xbb384574	-0.002811757
13	0x00000000	0.0
14	0xba753eab	-0.00093553466
15	0xb56544c8	-8.540924e-07
16	0xba89b9d6	-0.0010507654
17	0xbaec41f5	-0.0018025028
18	0x00000000	0.0
19	0xbb05e75a	-0.0020432086
20	0xbb144632	-0.0022624847
21	0xbb5decfc	-0.0033863178
22	0xba11b226	-0.0005557857
23	0xbaa080e5	-0.0012245445
24	0xb4b3f6c4	-3.3520894e-07
25	0xba9aebaa	-0.0011819501
26	0x00000000	0.0
27	0x00000000	0.0
28	0xa2e94a54	-6.3233475e-18
29	0xbb2e821f	-0.0026627851
30	0xba8681fe	-0.0010262129
31	0xbb8acd1b	-0.0042358763
32	0x00000000	0.0
33	0xb6156889	-2.2263578e-06
34	0xb92748d0	-0.00015953486
35	0x00000000	0.0
36	0xbb036140	-0.002004698
37	0xbb19e6b0	-0.0023483448
38	0x3830bbcd	4.2136573e-05
39	0xbacae51f	-0.001547966
40	0xbaa5cf8d	-0.0012650356
41	0xbb2c5133	-0.0026293516
42	0xbadafca6	-0.0016707375
43	0xbb61ff84	-0.0034484575
44	0x00000000	0.0
45	0xbbd8340a	-0.0065980004
46	0x00000000	0.0
47	0x00000000	0.0
48	0x24c0226a	8.3325027e-17
49	0x00000000	0.0
50	0xba0f501c	-0.00054669543
51	0x00000000	0.0
52	0xbabac038	-0.001424796
53	0xba58a3ef	-0.0008264174
54	0xb96145f3	-0.0002148373
55	0x00000000	0.0
56	0xba8e6272	-0.0010863079
57	0xba903668	-0.0011002542
58	0x00000000	0.0
59	0x00000000	0.0
60	0x395b32d2	0.000209044
61	0x00000000	0.0
62	0x00000000	0.0
63	0x00000000	0.0
64	0x0211fc2b	1.0725286e-37
65	0x021d5ad6	1.1560607e-37
66	0x02160f36	1.1024625e-37
67	0x02129c63	1.0771267e-37
68	0x02123d4a	1.0743975e-37
69	0x00000000	0.0
70	0x02157bca	1.0982317e-37
71	0x0219c4dc	1.1297161e-37
72	0x00000000	0.0
73	0x021a4bdc	1.1335904e-37
74	0x00000000	0.0
75	0x00000000	0.0
76	0x021cf117	1.1530259e-37
77	0x00000000	0.0
78	0x021be3f4	1.1453021e-37
79	0x021ad712	1.1375855e-37
80	0x0217baa0	1.1147287e-37
81	0x021bf76e	1.145861e-37
82	0x00000000	0.0
83	0x0214a108	1.0919536e-37
84	0x021efd7b	1.1680752e-37
85	0x021fa794	1.1729568e-37
86	0x0215c68a	1.1003769e-37
87	0x02119c52	1.0697779e-37
88	0x0216ad53	1.1070001e-37
89	0x02127b72	1.0761813e-37
90	0x00000000	0.0
91	0x00000000	0.0
92	0x021812e3	1.1172617e-37
93	0x0214dda5	1.0936932e-37
94	0x021f6b7f	1.1712325e-37
95	0x021a2afc	1.1326469e-37
96	0x00000000	0.0
97	0x02102d0c	1.0592377e-37
98	0x021e5a0f	1.1633852e-37
99	0x00000000	0.0
100	0x021922c1	1.1250639e-37
101	0x021d9c36	1.1579369e-37
102	0x0211cc59	1.0711562e-37
103	0x021775ac	1.1127498e-37
104	0x0213c883	1.0857398e-37
105	0x021ae72e	1.1380478e-37
106	0x021eddc3	1.1671649e-37
107	0x02178db2	1.1134392e-37
108	0x00000000	0.0
109	0x0213918a	1.0841622e-37
110	0x00000000	0.0
111	0x00000000	0.0
112	0x0215e4aa	1.1012415e-37
113	0x00000000	0.0
114	0x021a3275	1.1328614e-37
115	0x00000000	0.0
116	0x021967ab	1.1270416e-37
117	0x02115a6d	1.0678868e-37
118	0x0219b726	1.1293226e-37
119	0x00000000	0.0
120	0x021b12b8	1.1392974e-37
121	0x0215817b	1.098395e-37
122	0x00000000	0.0
123	0x00000000	0.0
124	0x021d213c	1.1544076e-37
125	0x00000000	0.0
126	0x00000000	0.0
127	0x00000000	0.0
128	0x02149462	1.0915907e-37
129	0x021080c7	1.0616406e-37
130	0x02135c84	1.0826405e-37
131	0x021d3c34	1.1551816e-37
132	0x02103059	1.0593324e-37
133	0x00000000	0.0
134	0x021f11ca	1.168658e-37
135	0x0211f281	1.0722513e-37
136	0x00000000	0.0
137	0x021752da	1.1117505e-37
138	0x00000000	0.0
139	0x00000000	0.0
140	0x021c699d	1.149138e-37
141	0x00000000	0.0
142	0x0214c77e	1.0930574e-37
143	0x021a84ee	1.1352282e-37
144	0x02132faa	1.0813533e-37
145	0x021bab1e	1.143671e-37
146	0x00000000	0.0
147	0x02164b0a	1.1041795e-37
148	0x021c2edb	1.1474517e-37
149	0x02106cac	1.0610636e-37
150	0x0215c234	1.1002525e-37
151	0x021c6093	1.1488785e-37
152	0x0210a4aa	1.0626705e-37
153	0x0219d841	1.1302727e-37
154	0x00000000	0.0
155	0x00000000	0.0
156	0x02173647	1.1109305e-37
157	0x021c35e7	1.1476539e-37
158	0x0213fef4	1.0873022e-37
159	0x00000000	0.0
160	0x00000000	0.0
161	0x021ff743	1.1752436e-37
162	0x021a265e	1.1325144e-37
163	0x00000000	0.0
164	0x02128082	1.0763266e-37
165	0x021507c4	1.094902e-37
166	0x021046c9	1.0599764e-37
167	0x021cdca6	1.1524393e-37
168	0x02197110	1.1273112e-37
169	0x0217c6ed	1.1150817e-37
170	0x021317e4	1.0806711e-37
171	0x021ecafd	1.1666261e-37
172	0x00000000	0.0
173	0x02102c7a	1.0592213e-37
174	0x00000000	0.0
175	0x00000000	0.0
176	0x0216e569	1.1086097e-37
177	0x00000000	0.0
178	0x021a7f04	1.1350585e-37
179	0x00000000	0.0
180	0x021c22bb	1.1471037e-37
181	0x02174eed	1.1116379e-37
182	0x021a2c0d	1.1326775e-37
183	0x00000000	0.0
184	0x02174f08	1.1116409e-37
185	0x0213ef02	1.0868446e-37
186	0x00000000	0.0
187	0x00000000	0.0
188	0x021d32fd	1.1549171e-37
189	0x00000000	0.0
190	0x00000000	0.0
191	0x00000000	0.0
192	0x0211f205	1.0722374e-37
193	0x021716e8	1.1100302e-37
194	0x02122565	1.0737118e-37
195	0x021bf1fc	1.1457048e-37
196	0x021b0b2e	1.139081e-37
197	0x00000000	0.0
198	0x021e5b63	1.1634233e-37
199	0x021e58b8	1.1633468e-37
200	0x00000000	0.0
201	0x021e95e2	1.1651021e-37
202	0x00000000	0.0
203	0x00000000	0.0
204	0x0217b4b2	1.1145585e-37
205	0x00000000	0.0
206	0x0212ec20	1.079415e-37
207	0x021959f2	1.1266478e-37
208	0x021f2938	1.1693304e-37
209	0x02150567	1.0948342e-37
210	0x00000000	0.0
211	0x021f2b8e	1.1693975e-37
212	0x021f4d54	1.1703667e-37
213	0x02187eb5	1.120356e-37
214	0x02126a46	1.0756885e-37
215	0x02157387	1.0979946e-37
216	0x021d8da6	1.1575189e-37
217	0x021c417c	1.1479863e-37
218	0x00000000	0.0
219	0x00000000	0.0
220	0x02125fc4	1.0753869e-37
221	0x02131c0a	1.0807901e-37
222	0x02126102	1.0754226e-37
223	0x0213af6a	1.0850196e-37
224	0x00000000	0.0
225	0x0212b6e7	1.0778876e-37
226	0x82184b59	-1.118882e-37
227	0x00000000	0.0
228	0x0215e5ed	1.1012777e-37
229	0x0213679d	1.082959e-37
230	0x021300b6	1.0800058e-37
231	0x021bf63c	1.1458267e-37
232	0x021330d6	1.081387e-37
233	0x0219c15e	1.1296158e-37
234	0x021a8368	1.1351845e-37
235	0x02143e90	1.0891277e-37
236	0x00000000	0.0
237	0x021be164	1.1452285e-37
238	0x00000000	0.0
239	0x00000000	0.0
240	0x0212d88d	1.0788533e-37
241	0x00000000	0.0
242	0x021f6082	1.1709171e-37
243	0x00000000	0.0
244	0x021ac950	1.1371907e-37
245	0x02101626	1.0585805e-37
246	0x021309bf	1.0802651e-37
247	0x00000000	0.0
248	0x02183d8a	1.1184857e-37
249	0x0212b964	1.077959e-37
250	0x00000000	0.0
251	0x00000000	0.0
252	0x0219be59	1.1295292e-37
253	0x00000000	0.0
254	0x00000000	0.0
255	0x00000000	0.0
