highway_ddqn/ddqn_reward_change/checkpoint-64.tar (torch, 84430 bytes, 21 tensors)

base_module.layers.0.weight f4 [64, 25]
0	0xbde4d416	-0.11173265
1	0xbd28ce95	-0.041212637
2	0xbd334509	-0.04376701
3	0xbd8794c5	-0.066201724
4	0xbe844411	-0.2583318
5	0x3e046412	0.12928799
6	0x3ed71be3	0.42013463
7	0x3e20b7bf	0.15695094
8	0x3dc6e0ad	0.09710822
9	0xbd47a388	-0.04873994
10	0x3de42f68	0.111418545
11	0x3ead2ff6	0.33825654
12	0x3e6f93ea	0.23396268
13	0x3e45ee9f	0.19329308
14	0xbda5ca5c	-0.080952376
15	0x3e5aac49	0.21354784
16	0x3e407031	0.18792798
17	0x3e1948cc	0.14969176
18	0x3e99b688	0.30022073
19	0xbc36a4a7	-0.011147655
20	0x3d33d7c1	0.04390693
21	0xbd50a0d3	-0.050934624
22	0xbcbc68d6	-0.022999208
23	0xbcf44aff	-0.029820917
24	0x3e8758d6	0.26434964
25	0x3e3bfbda	0.18357792
26	0x3d764633	0.06012554
27	0x3d91093b	0.07081839
28	0x3e25e8d9	0.16202106
29	0xbe2c366c	-0.16817635
30	0x3dde570a	0.10856445
31	0x3dab03f6	0.08350365
32	0x3e219dbe	0.1578283
33	0x3c8edc24	0.017438956
34	0xbe055212	-0.13019589
35	0xbe1f0050	-0.15527463
36	0x3dd5d3c2	0.1044078
37	0xbe1cd057	-0.1531385
38	0x3e911adf	0.28340814
39	0x3d8fe362	0.07025792
40	0x3d98df22	0.07464434
41	0xbb75b035	-0.003748906
42	0xbe76321e	-0.24042556
43	0xbc8935cd	-0.016749287
44	0x3e85f09b	0.2616013
45	0xbd9d2a10	-0.076740384
46	0x3ddc4dff	0.10757064
47	0xbe23b977	-0.15988718
48	0x3e37251b	0.17885248
49	0xbb89b784	-0.004202785
50	0xbe434512	-0.19069317
51	0xbd8441d8	-0.06457871
52	0xbe3991cf	-0.18122028
53	0xbd800c24	-0.06252316
54	0x3e2c5faf	0.16833375
55	0x3d8fea03	0.07027056
56	0x3d9e5538	0.07731098
57	0x3bf0863c	0.0073402207
58	0xbdf75dcc	-0.12078437
59	0x3cfbf4e1	0.030756416
60	0x3e0bf474	0.1366747
61	0x3dd05d19	0.10174007
62	0xbd10716e	-0.035264425
63	0xbe34bb07	-0.1764947
64	0xbde4de34	-0.111751944
65	0xbe11e0e8	-0.14245951
66	0x3ce0c8d7	0.027439518
67	0xbc6b1e04	-0.014350418
68	0x3e05e00b	0.13073747
69	0xbe38c5a3	-0.18044142
70	0x3e14c09a	0.14526597
71	0xbdffee98	-0.1249668
72	0xbdc4abb3	-0.096030615
73	0x3dc8978a	0.09794529
74	0x3d28ae30	0.041181743
75	0x3d9c5a61	0.07634426
76	0xbd16b20a	-0.036790885
77	0xbdf6b948	-0.12047058
78	0xbe0116c1	-0.12606336
79	0xbdc909d4	-0.09816328
80	0x3e22c94b	0.158971
81	0x3f00b0e8	0.5026994
82	0xbe819539	-0.2530916
83	0xbb6a89fe	-0.0035787816
84	0x3d397bc8	0.045284063
85	0x3e3013f7	0.17195116
86	0x3ead0483	0.33792505
87	0x3d3edb02	0.04659558
88	0x3eb3e06a	0.35132152
89	0x3d86e10e	0.065858945
90	0x3d5d6d98	0.054059595
91	0x3e29a718	0.16567647
92	0x3d4dc2a2	0.050234444
93	0x3d53696f	0.05161422
94	0x3e5f6b59	0.21818294
95	0xbe04c9d5	-0.12967618
96	0xbde323ac	-0.11090788
97	0xbd037234	-0.032091334
98	0xbcee0917	-0.029057069
99	0x3e2998a8	0.1656214
100	0x3c7f2386	0.015572434
101	0xbe0864e7	-0.13319741
102	0x3e066217	0.13123356
103	0xbd4519af	-0.048120197
104	0x3ca16900	0.019703388
105	0x3bd8521b	0.0066015846
106	0x3e45ca2e	0.19315407
107	0x3d94c0a3	0.07263305
108	0x3e973c0a	0.29537994
109	0xbc67925b	-0.014134015
110	0x3e700676	0.23439965
111	0x3d407ab9	0.046992037
112	0x3decf6d3	0.115705155
113	0xbc85376f	-0.016261784
114	0x3d8b1333	0.06790771
115	0x3e3434f4	0.17598325
116	0x3e7b8872	0.24563769
117	0xbe5a5057	-0.2131971
118	0x3bfe4250	0.00775937
119	0x3e98a445	0.29812828
120	0x3e41820c	0.18897265
121	0x3d30538f	0.043048438
122	0x3cfcf92d	0.030880535
123	0xbdac0a41	-0.08400393
124	0x3d7151cf	0.05891591
125	0xbdffff0d	-0.12499819
126	0xbd5b35a0	-0.053517938
127	0xbe3cd66b	-0.18441169
128	0x3cb6a89a	0.022297192
129	0xbcc8bd33	-0.02450428
130	0xbd01d813	-0.031700205
131	0xbbf83233	-0.0075743436
132	0x3d8525fa	0.06501384
133	0xbe40548b	-0.1878225
134	0x3da6fffa	0.081542924
135	0xbd80bb80	-0.06285763
136	0xbd7c5d80	-0.061612606
137	0xbe425750	-0.1897862
138	0x3df0758d	0.11741171
139	0xbe014eb3	-0.12627678
140	0xbd102f47	-0.035201337
141	0xbcd68c9a	-0.02619009
142	0x3e03a9d2	0.1285775
143	0xbdc10bb0	-0.09426057
144	0xbe16007f	-0.14648627
145	0x3ccc0d00	0.024908543
146	0x3d3f5b00	0.046717644
147	0x3dc67e0d	0.09692011
148	0x3db2cd5d	0.08730576
149	0xbdf5fcb3	-0.12011089
150	0xbd9cbc2d	-0.07653079
151	0x3e0f6546	0.14003477
152	0x3e5c96c6	0.2154189
153	0xbe056f6b	-0.13030784
154	0xbe4dce8c	-0.20098323
155	0x3e6b33d1	0.22968985
156	0x3e4e67e7	0.20156823
157	0xbe887f2a	-0.26659518
158	0x3e45dac1	0.19321729
159	0xbe08683d	-0.13321014
160	0x3e4b27e9	0.19839443
161	0x3e67a226	0.22620448
162	0x3e61d21e	0.2205281
163	0x3e394da5	0.18096025
164	0x3dd78c10	0.10524762
165	0x3a3010dc	0.00067163794
166	0x3e1b095b	0.15140288
167	0xbe1ce858	-0.15323007
168	0x3e2228d2	0.15835884
169	0x3e1642ac	0.14673871
170	0xbd332b24	-0.043742314
171	0xbc05d44f	-0.008168294
172	0xbcd28c7d	-0.025701756
173	0x3d8a87f5	0.06764213
174	0x3e113263	0.14179377
175	0x3e0aa7b8	0.13540542
176	0x3e29fab6	0.16599545
177	0xbc26d6c1	-0.010183037
178	0x3db99bda	0.090629295
179	0x3d83084b	0.06398066
180	0xbcbb586f	-0.022869317
181	0x3e033fa7	0.1281725
182	0xbe2b7cac	-0.16746777
183	0x3afc127e	0.0019231585
184	0xbcf522c4	-0.029923804
185	0xbca56945	-0.020191798
186	0x3ea241b9	0.31690767
187	0x3e5d9841	0.21640112
188	0x3e62876e	0.22121975
189	0xbe0aacf6	-0.13542542
190	0x3d1fcb41	0.039012197
191	0xbdc6a025	-0.09698514
192	0xbaafb214	-0.0013404512
193	0x3e421971	0.18955018
194	0xbcc09899	-0.023510264
195	0x3e6dc388	0.2321912
196	0x3dfcf4a8	0.12351352
197	0xbca6b824	-0.020351477
198	0xbc357047	-0.011074132
199	0x3e1807d6	0.14846739
200	0xbe3e4474	-0.185808
201	0x3cd1aaa7	0.025594069
202	0xbdd3b3d7	-0.10337036
203	0x3d829f78	0.063780725
204	0x3d19bef3	0.03753562
205	0x3d7eaea2	0.06217826
206	0x3bdb0fa5	0.0066852146
207	0x3da87b29	0.08226616
208	0x3e319182	0.17340663
209	0x3e306b3f	0.17228411
210	0xbd27a742	-0.040930994
211	0xbe09a247	-0.1344081
212	0xbd8ecb46	-0.06972365
213	0x3c9095c8	0.017649546
214	0x3ddb5b90	0.107108235
215	0xbdb05e61	-0.08611751
216	0x3d8b9a83	0.0681658
217	0x3cfc3d6e	0.03079101
218	0xbe138891	-0.14407565
219	0x3dca4840	0.09877062
220	0x3e192b15	0.1495784
221	0x3dbf19c4	0.09331086
222	0xbe253b3b	-0.16135876
223	0xbdef0aee	-0.116720065
224	0x3e061ea8	0.13097632
225	0x3e323679	0.17403592
226	0x3e529557	0.20564781
227	0x3e4181be	0.18897149
228	0x3cec3805	0.028835306
229	0xbe5590d7	-0.20856033
230	0xbdcce02a	-0.100036934
231	0x3eba2d45	0.36362663
232	0xbe2169cb	-0.15763013
233	0x3e874cba	0.26425725
234	0xbc862102	-0.016373161
235	0xbd8f11d6	-0.06985824
236	0x3ea1a900	0.3157425
237	0x3c0b1711	0.008489386
238	0x3e8f4a69	0.27986458
239	0x3dc30d56	0.09524028
240	0x3e0df8ed	0.13864489
241	0x3d2088bb	0.039192896
242	0xbdd82fa9	-0.105559655
243	0x3e528807	0.20559703
244	0xbbcb2f62	-0.006200717
245	0x3e303b7e	0.17210194
246	0x3db7c698	0.089734256
247	0x3bd3c4c2	0.0064626643
248	0xbd27b34a	-0.040942468
249	0x3dc9ee07	0.09859853
250	0xbc8aebc0	-0.016958117
251	0xbde2ed57	-0.11080425
252	0x3d737f5a	0.059447624
253	0x3e1a8955	0.1509145
254	0x3d0bd187	0.034135368
255	0xbb6a7600	-0.00357759

base_module.layers.0.bias f4 [64]
0	0x3d1cde54	0.038297966
1	0x3d141afe	0.036158554
2	0x3dae0a8c	0.084981054
3	0x3dd3cf4b	0.10342272
4	0xbdd1b35e	-0.1023929
5	0xbcf41800	-0.0297966
6	0xbddc3c1a	-0.10753651
7	0x3d405249	0.046953473
8	0xbdf196bd	-0.11796329
9	0x3e4198e4	0.1890598
10	0x3d251dd3	0.040311646
11	0xbda5ff4d	-0.081053354
12	0x3e3c85d8	0.18410432
13	0xbd5347c7	-0.051582124
14	0x3dd6a635	0.1048092
15	0xbc01e087	-0.007927067
16	0x3da60c4a	0.08107813
17	0x3e35e0ab	0.17761485
18	0x3c63969a	0.013890887
19	0x3d70f3f2	0.058826394
20	0xbd20712b	-0.039170425
21	0x3e57edb8	0.21086776
22	0x3da23f29	0.07922203
23	0x3e40c3d1	0.18824698
24	0x3e83992d	0.257028
25	0x3e365efa	0.17809668
26	0xbe4ba900	-0.19888687
27	0xbdddef17	-0.108366184
28	0x3d975e53	0.07391038
29	0x3a738c61	0.00092906324
30	0xbe0ba4c5	-0.13637073
31	0xbe3f002a	-0.18652406
32	0x3e2044aa	0.15651193
33	0x3e3a872b	0.18215625
34	0x3e2e4b0e	0.17020819
35	0x3de1da6d	0.110279895
36	0x3e18959f	0.14900826
37	0x3e23bb24	0.15989357
38	0x3c8e40c0	0.01736486
39	0x3e378069	0.17920078
40	0x3e754e3e	0.23955628
41	0x3d6e1b62	0.058131583
42	0x3dfe449b	0.12415429
43	0x3def0bef	0.11672198
44	0xbd8f255a	-0.06989546
45	0x3d410b2b	0.04712979
46	0xbe44aa03	-0.1920548
47	0xbd838b87	-0.06423097
48	0x3d811814	0.06303421
49	0xbdf305ea	-0.118663624
50	0x3de42c2d	0.11141238
51	0xbd67dccd	-0.056607056
52	0x3dc16562	0.09443165
53	0xbdad35c4	-0.084575206
54	0x3c252398	0.010079287
55	0x3e3e057b	0.18556778
56	0x3d5948ee	0.053048067
57	0x3da7614f	0.08172857
58	0xbe0bdb8f	-0.13657974
59	0xbdd5413d	-0.10412834
60	0xbdb59d0e	-0.088678464
61	0xbc2d319a	-0.010570908
62	0x3c8c7833	0.01714716
63	0xbe42e6e3	-0.19033389

base_module.layers.1.weight f4 [64, 64]
0	0xbc9673c8	-0.018365756
1	0x3d29709a	0.04136715
2	0x3cef43a0	0.02920705
3	0x3da8d977	0.08244603
4	0x3de52472	0.11188592
5	0xbda1f0ce	-0.07907258
6	0x3dcf0d71	0.101099856
7	0x3df142c5	0.117803134
8	0xbc07be90	-0.00828518
9	0x3d022608	0.03177455
10	0xbdfffd28	-0.124994576
11	0x3dd09cf4	0.101861864
12	0x3d2eb83a	0.04265616
13	0xbdb92e58	-0.090420425
14	0xbd8f2c5f	-0.06990885
15	0xbdca4d5b	-0.09878036
16	0xbdae3e7d	-0.085080124
17	0xbc129f16	-0.008949062
18	0xbd807e9e	-0.0627415
19	0xbd77b523	-0.06047548
20	0xbcce258d	-0.02516439
21	0xbc4a5d9c	-0.01235142
22	0xbc0b8bc2	-0.008517208
23	0x3d8a99ca	0.06767614
24	0xbdf188ae	-0.11793648
25	0x3ddca64d	0.10773907
26	0xbd203be0	-0.0391196
27	0xbdad4102	-0.08459665
28	0xbd722fe9	-0.059127722
29	0x3d6593f0	0.056049287
30	0x3d2baa10	0.04191023
31	0x3d4c5c40	0.049892664
32	0x3d46f5c0	0.04857421
33	0xbd522927	-0.051308777
34	0x3d87530a	0.06607635
35	0xbdb3b16c	-0.08774075
36	0xbd05214c	-0.032502457
37	0x3d1d8dac	0.038465187
38	0xbc15c200	-0.0091404915
39	0xbdd218b0	-0.10258615
40	0xbd848ece	-0.0647255
41	0x3cc893da	0.024484564
42	0x3de096fc	0.10966298
43	0x3dd11715	0.10209481
44	0x3c35c040	0.011093199
45	0x3c9616a2	0.018321339
46	0x3d55fd20	0.052243352
47	0x3dfb48fc	0.1226978
48	0x3cd8c2d8	0.026460096
49	0xbd9221d6	-0.0713536
50	0xbd9af9aa	-0.07567151
51	0x3b2957c0	0.0025839657
52	0xbd88d610	-0.06681454
53	0xbde78a96	-0.1130573
54	0xbdca6c6d	-0.09883962
55	0xbceabea0	-0.02865535
56	0x3d8b5b4a	0.068045214
57	0xbe00adb1	-0.12566258
58	0x3b8857c0	0.0041608512
59	0xbdb750e4	-0.089509755
60	0xbdf64f2c	-0.120268196
61	0xbd663684	-0.056204334
62	0xbdda5fcc	-0.10662803
63	0x3dcbc904	0.0995045
64	0x3c258b58	0.010104023
65	0xbdafd557	-0.08585613
66	0xbc0cd87d	-0.008596537
67	0xbd75412d	-0.05987661
68	0x3d5c7658	0.0538238
69	0xbdeb7ae8	-0.11498052
70	0xbd72b6b3	-0.059256267
71	0x3d7ffb6e	0.06249564
72	0x3df17884	0.11790565
73	0x3d8e89d6	0.06959884
74	0xbd8d90c0	-0.069123745
75	0x3cf6a538	0.03010808
76	0xbdda5c89	-0.10662181
77	0xbd9a1c4c	-0.075249285
78	0xbdaab846	-0.083359286
79	0x3cdaa1da	0.026688505
80	0xbd28f4be	-0.04124903
81	0x3dce1bcc	0.100638956
82	0xbcc1d9b8	-0.023663387
83	0x3dd830f7	0.10556214
84	0x3d9395fa	0.0720634
85	0xbdb82280	-0.08990955
86	0x3d68ad27	0.056805756
87	0xbdc22211	-0.09479154
88	0xbd25d600	-0.04048729
89	0xbd3a99c5	-0.045556802
90	0xbaaf8080	-0.0013389736
91	0xbb70fc80	-0.0036771595
92	0xbe09b613	-0.13448362
93	0xbdf975e8	-0.12180692
94	0xbd6df106	-0.058091186
95	0x3cce3408	0.025171295
96	0x3dc5cd06	0.09658246
97	0xbb81abc6	-0.0039572446
98	0xbc949d38	-0.018141374
99	0x3c34e390	0.011040583
100	0x3ced31e1	0.028954448
101	0x3ccd4482	0.025057081
102	0x3ab89a19	0.0014084011
103	0x3cf059ee	0.029339757
104	0xbdfe46ce	-0.12415849
105	0xbc698f66	-0.01425538
106	0x3d725042	0.05915857
107	0x3d80308d	0.0625926
108	0xbd8c016c	-0.06836209
109	0xbdaf29e8	-0.08552915
110	0xbd6759e0	-0.056482196
111	0xbd7cc45c	-0.0617107
112	0xbc9c2bfd	-0.019063944
113	0x3ded31c6	0.11581759
114	0x3d9f1e14	0.07769409
115	0x3dada564	0.084788114
116	0x3d8e83ab	0.069587074
117	0x3d9d0c2c	0.07668337
118	0xbd8f4c24	-0.069969445
119	0xbde533f2	-0.111915484
120	0x3db09af3	0.08623304
121	0x3ca463c1	0.020067098
122	0x3c992bb0	0.01869759
123	0x3de22776	0.11042683
124	0xbccba4bc	-0.024858825
125	0x3d8a7382	0.067603126
126	0xbb110e00	-0.0022133589
127	0x3c0e4380	0.008683085
128	0x3d2aaa99	0.0416666
129	0x3dd33fb7	0.10314887
130	0x3d366c1f	0.044536706
131	0xba319ed4	-0.00067756814
132	0xbddc7d19	-0.10766048
133	0x3d5f47d8	0.054511875
134	0xbbe99647	-0.00712851
135	0xbda123b4	-0.07868138
136	0xbdd28664	-0.10279539
137	0xbd9ff701	-0.07810784
138	0xbdf2c144	-0.11853269
139	0x3d563264	0.05229415
140	0x3d8545dd	0.06507466
141	0x3d39d008	0.04536441
142	0xbda802fe	-0.08203696
143	0x3d9f1ff7	0.07769769
144	0xbcca7e43	-0.02471841
145	0x3d863e95	0.06554905
146	0x3db0d974	0.08635226
147	0x3d871682	0.0659609
148	0x3d95ca56	0.07313983
149	0xbdc5920f	-0.09646999
150	0x3afdfb95	0.0019377345
151	0xbd901607	-0.070354514
152	0xbdd8b473	-0.10581293
153	0x3db55b48	0.08855301
154	0x3bab4bc0	0.005227536
155	0x3ddccfb0	0.10781801
156	0xbab9cf2e	-0.0014176124
157	0xbd22a339	-0.039706443
158	0xbd84938a	-0.06473453
159	0xbdba05d8	-0.09083146
160	0xbdcb5390	-0.09928048
161	0xbceef2d6	-0.029168528
162	0xbe037628	-0.12838042
163	0x3c9ba948	0.019001618
164	0xbd5707f8	-0.052497834
165	0x3d0ae11e	0.033906095
166	0xbdf6a934	-0.12043992
167	0xbdf2267b	-0.11823746
168	0x3db4b79c	0.08824083
169	0x3daea150	0.08526862
170	0x3dd52e5f	0.10409235
171	0xbd42ecf2	-0.04758925
172	0xbb14a840	-0.0022683293
173	0xbb7abb3c	-0.0038258573
174	0xbd4763a4	-0.04867901
175	0xbda2687e	-0.079300866
176	0xbdf4fa19	-0.11961765
177	0x3caa3e58	0.020781681
178	0xbdd6d763	-0.104903005
179	0xbd908d86	-0.070582435
180	0xbdf4aa15	-0.11946503
181	0x3d236084	0.039886966
182	0x3caa1e55	0.020766417
183	0x3d6fc330	0.058535755
184	0x3c41e02f	0.011833235
185	0xbd739b5d	-0.059474338
186	0x3cd1e5d8	0.025622293
187	0x3d796cac	0.060894653
188	0x3d1032e1	0.035204772
189	0x3df70494	0.1206142
190	0x3be63100	0.007024884
191	0x3de9c944	0.114153415
192	0x3d94938b	0.07254704
193	0x3dcbccf6	0.099512026
194	0xbdc70955	-0.09718577
195	0x3d523988	0.051324397
196	0x3cd19c73	0.025587296
197	0x3db67c1c	0.08910391
198	0xbcdecddc	-0.02719777
199	0xbe0f24d2	-0.1397889
200	0x3dd3790a	0.10325821
201	0x3d1845c1	0.037175898
202	0xbbba84c0	-0.0056920946
203	0xbdd663a2	-0.10468222
204	0xbcbe3215	-0.02321724
205	0x3dbcbff4	0.092163
206	0xbe131493	-0.14363317
207	0xbe129994	-0.14316398
208	0xbd6fa5bf	-0.058507677
209	0xbd4715ba	-0.048604704
210	0x3d73bacc	0.059504315
211	0x3db21a0c	0.08696374
212	0x3d8599bf	0.06523465
213	0x3c1bf540	0.009518921
214	0xbcf87fbc	-0.030334346
215	0xbd043f34	-0.032286838
216	0xbc27c3d0	-0.010239556
217	0xbda6e659	-0.08149404
218	0x3d3e3fec	0.04644768
219	0xbd6e390c	-0.058159873
220	0x3db9a09f	0.09063839
221	0x3d0f1829	0.03493515
222	0x3d8b8f8c	0.06814489
223	0x3d719300	0.05897808
224	0x3db8482a	0.08998139
225	0x3dc3ac97	0.09554403
226	0x3dc78b27	0.09743338
227	0xbd8a47e6	-0.06751995
228	0xbe133ba3	-0.14378218
229	0x3d9f4755	0.077772774
230	0xbcfce4fe	-0.03087091
231	0xbd5f70d4	-0.05455096
232	0x3d6d02fe	0.05786418
233	0x3dbd7356	0.09250514
234	0xbe11f11e	-0.14252135
235	0x3d150d92	0.036389895
236	0xbdd4c770	-0.10389602
237	0xbd7579c0	-0.059930563
238	0xbd222da4	-0.039594308
239	0x3cf0ea30	0.029408544
240	0xbd5e3ed5	-0.05425914
241	0x3c54fe00	0.013000011
242	0xbe100096	-0.14062724
243	0x3a06dc00	0.0005144477
244	0xbd1c5921	-0.038170937
245	0xbd9125b7	-0.07087272
246	0x3d18ae17	0.0372754
247	0x3d4c0624	0.049810544
248	0x3d8d19f3	0.06889715
249	0xbd4f3594	-0.050588205
250	0xbcc41320	-0.0239349
251	0x3c8927f0	0.016742676
252	0xbd5badee	-0.05363267
253	0x3d793a68	0.060846716
254	0x3d9cd702	0.07658197
255	0x3db9d5b4	0.09073964

base_module.layers.1.bias f4 [64]
0	0xbde18fd3	-0.110137604
1	0xba118297	-0.00055507704
2	0xbcc85de0	-0.024458826
3	0x3c9c8520	0.019106448
4	0xbada71a0	-0.0016665943
5	0xb957881c	-0.00020554702
6	0xbc06cfda	-0.008228267
7	0xba60de40	-0.00085780397
8	0x3d095d0b	0.033536
9	0xbdbac78e	-0.09120093
10	0xbd7902c8	-0.060793668
11	0x3c1eec64	0.009699915
12	0x3d2bb718	0.04192266
13	0x3d82689c	0.06367609
14	0x3c213970	0.009840354
15	0x3dcaa250	0.0989424
16	0xbde871cc	-0.1134983
17	0xbdea83f0	-0.11450946
18	0x3d718558	0.058965057
19	0x3a814400	0.0009862185
20	0x3da9e194	0.08294979
21	0x3d513c3e	0.051082842
22	0x3d515b72	0.0511126
23	0x3d184274	0.03717275
24	0xbc75cbcb	-0.015002201
25	0x3df1c819	0.11805744
26	0x3bec5ec4	0.0072134454
27	0x3e235d6d	0.15953608
28	0xbc531ba0	-0.012885004
29	0x3c0f4c78	0.008746259
30	0xbd41d39f	-0.04732096
31	0x3d8905ce	0.0669056
32	0x3d61286c	0.05497019
33	0x3d5af738	0.053458422
34	0x3d8d0505	0.06885723
35	0xbd8ace13	-0.06777587
36	0x3d983b0a	0.07433136
37	0xbdea351e	-0.114359125
38	0xbb8d7cb9	-0.0043178466
39	0xbd97570a	-0.07389648
40	0xbd567fc8	-0.052367955
41	0x3cd9eb10	0.026601344
42	0x3dd77082	0.10519506
43	0xbdf3dd04	-0.1190739
44	0x3e24aa06	0.16080484
45	0x3e0e122e	0.13874123
46	0xbdb78ec4	-0.08962777
47	0xbd37add7	-0.04484352
48	0xbdf56622	-0.11982371
49	0xbdf7e6e4	-0.12104586
50	0xbdc80e62	-0.09768368
51	0xbd7cdd7c	-0.06173466
52	0x3d46268d	0.04837661
53	0x3dfdc78d	0.12391577
54	0xbd50bf3f	-0.050963636
55	0xbc37daf7	-0.011221639
56	0xbdab47dc	-0.083633155
57	0x3daf0f5f	0.08547854
58	0xbd3bbbfd	-0.045833576
59	0x3d107a0c	0.035272643
60	0xbdd55528	-0.10416633
61	0x3da5b4c4	0.08091119
62	0xbd93f374	-0.072241694
63	0x3db0625e	0.08612512

value.predict.weight f4 [1, 64]
0	0xbcf9e33d	-0.030503863
1	0xbde4a976	-0.111651346
2	0xbc8772e1	-0.01653427
3	0xbdb0ac6f	-0.08626639
4	0xbd8131e4	-0.06308344
5	0x3c86111f	0.016365586
6	0x3e5e452b	0.21706073
7	0xbcf36621	-0.029711785
8	0x3e1f3bfd	0.15550227
9	0xbc2442e0	-0.01002571
10	0xbd43cd18	-0.047803015
11	0x3d23f23a	0.040025927
12	0xbc8274fc	-0.015924923
13	0x3e304906	0.17215356
14	0x3da73b3e	0.081655964
15	0x386ce27c	5.6477715e-05
16	0x3bf54c12	0.007485875
17	0xbc8be5f0	-0.017077416
18	0xbd4fafe5	-0.050704855
19	0xbd534a9c	-0.051584825
20	0xbc9b9f22	-0.018996779
21	0xbda18257	-0.078861885
22	0x3dc2e4d0	0.09516299
23	0xbce705d0	-0.028201014
24	0x3df2dad8	0.118581474
25	0x3d808c17	0.0627672
26	0x3c7f1050	0.015567854
27	0x3e49ea2e	0.19718239
28	0x3d2a375c	0.0415567
29	0xbdabbd3e	-0.083857045
30	0xbd3e7411	-0.04649741
31	0xbcce7311	-0.025201352
32	0xbd7aedfb	-0.061262112
33	0xbd842bb5	-0.06453649
34	0xbd102545	-0.035191793
35	0x3e2e275c	0.17007202
36	0x3e448f34	0.19195253
37	0x3d05daac	0.032679245
38	0x3e3f8277	0.18702112
39	0xbdd4353c	-0.10361716
40	0xbcf790b8	-0.030220374
41	0x3d36177d	0.044455994
42	0x3e14bd48	0.1452533
43	0xbb9b91c0	-0.0047475994
44	0x3dc522b0	0.09625757
45	0x3dfce723	0.12348773
46	0xbd9dbbe2	-0.077018514
47	0xbd8d3340	-0.06894541
48	0x3d330a38	0.043710917
49	0x3bd4f980	0.0064994693
50	0x3dba269e	0.09089397
51	0xbd5cf0d7	-0.05394062
52	0xbdbbeaa1	-0.09175611
53	0x3e305703	0.17220692
54	0xbdc52652	-0.0962645
55	0xbcc9018f	-0.024536876
56	0x3cf0e450	0.029405743
57	0xbcbca5e2	-0.023028318
58	0x3d1a9c2a	0.037746586
59	0xbd864c4a	-0.0655752
60	0x3cc612b8	0.024178848
61	0xbd4cd025	-0.05000319
62	0xbd177118	-0.03697309
63	0xbc8e9c8f	-0.017408637

advantage.predict.weight f4 [5, 64]
0	0x3d031ea1	0.032011632
1	0xbd5f6c56	-0.054546677
2	0xbde23b83	-0.11046507
3	0x3db36372	0.08759202
4	0xbd7de911	-0.061989848
5	0xbdc7528f	-0.09732544
6	0x3bcb0e38	0.0061967634
7	0x3dd76930	0.1051811
8	0x3db069ae	0.08613907
9	0x3df497c2	0.11943008
10	0x3d6294f4	0.055317834
11	0x3b66ba99	0.0035206436
12	0x3e0dd3be	0.13850304
13	0x3c0133b9	0.007885867
14	0x3df9cf5e	0.12197755
15	0x3d0e5cd4	0.034756497
16	0x3bb39336	0.0054801954
17	0xbd8fb340	-0.07016611
18	0xbd7e8ad1	-0.062144104
19	0x3d817b20	0.06322312
20	0xbda83801	-0.08213807
21	0x3d17d0e3	0.037064444
22	0xbca06f63	-0.019584363
23	0x3b8d69e0	0.0043156
24	0xbda60d21	-0.08107973
25	0xbd9daae9	-0.07698614
26	0x3d51fb0e	0.051264815
27	0x3c137dfa	0.009002203
28	0xbd9863d4	-0.07440916
29	0xbda1621c	-0.07880041
30	0x3c26d414	0.010182399
31	0xbccaf1cc	-0.0247735
32	0xbd799319	-0.0609313
33	0x3db6d35b	0.089270316
34	0x3c0e5ca3	0.0086890785
35	0xbdbe26ac	-0.0928472
36	0x3d99b9fb	0.07506176
37	0xbdb685ba	-0.08912225
38	0xbd28b216	-0.04118546
39	0xbd4fb655	-0.050710995
40	0xbd05b670	-0.03264469
41	0x3e070e9a	0.13189164
42	0x3d3515ec	0.04421036
43	0xbdc0b67c	-0.09409806
44	0xbd603ce3	-0.054745566
45	0x3d6facb4	0.058514312
46	0x3de4211e	0.11139129
47	0x3dce7328	0.10080558
48	0x3d0ad3c4	0.03389336
49	0xbde3dd30	-0.111261725
50	0x3c1d0010	0.009582534
51	0xbdd9d409	-0.106361456
52	0xbc0fe7bc	-0.008783277
53	0xbd69bf53	-0.057067227
54	0x3aa5f973	0.0012662843
55	0xbcb4b1ac	-0.022057377
56	0xbca35588	-0.019938245
57	0x3d99e476	0.075142786
58	0x3d30df0b	0.04318146
59	0x3d5758f8	0.05257508
60	0xbc1845b0	-0.009293959
61	0xbd4a8c5e	-0.04945027
62	0x3dd165d8	0.10224503
63	0x3de70773	0.11280718
64	0x3d86ed45	0.06588224
65	0xbd6a5ed1	-0.05721933
66	0x3c8310a6	0.01599915
67	0x3de459d1	0.111499436
68	0xbdc0799c	-0.09398195
69	0x3df1e1ff	0.118106835
70	0x3d39a58e	0.0453239
71	0x3d52adf2	0.05143542
72	0xbc9467a7	-0.018115832
73	0x3a2b6000	0.00065374374
74	0x3d927ee0	0.07153106
75	0xbd25296e	-0.040322714
76	0xbcddbcf9	-0.027067648
77	0x3dbca327	0.09210806
78	0xbd0401f0	-0.03222841
79	0x3d1f2092	0.03884942
80	0x3cb1b27a	0.02169155
81	0xbdabac0a	-0.08382423
82	0xbd12cbe1	-0.035838965
83	0x3da61fd2	0.08111538
84	0x3dc67e95	0.09692112
85	0xbd364fc5	-0.044509668
86	0x3d2ac4cd	0.04169159
87	0xbd96050e	-0.07325183
88	0x3cb89abb	0.022534719
89	0x3b1f1ae9	0.0024277514
90	0x3de98274	0.11401835
91	0x3d7d6db7	0.06187221
92	0x3cf52610	0.029925376
93	0x3df19555	0.11796061
94	0x3b98e89d	0.0046664015
95	0xbd8d8220	-0.06909585
96	0x3d491398	0.04909095
97	0x3e00a6f7	0.12563692
98	0x3dbf9da6	0.09356241
99	0xbd273602	-0.04082299
100	0xbcd4b71a	-0.025966216
101	0x3c8856c0	0.016642928
102	0x3d1b496c	0.037911817
103	0xbd89a19c	-0.06720278
104	0x3d1836c0	0.03716159
105	0xbdfccc46	-0.123436496
106	0x3d3cdd58	0.046109527
107	0xbd44e7cc	-0.04807262
108	0x3d99d89f	0.0751202
109	0x3cf73ef0	0.030181378
110	0x3da8a66f	0.0823487
111	0x3d06250a	0.032750167
112	0xbd7b573c	-0.06136249
113	0x3d8fb030	0.07016027
114	0xbd6de21c	-0.058076963
115	0x3dd04dc9	0.10171086
116	0x3d6a2b36	0.057170115
117	0xbe0f1015	-0.13970979
118	0x3d907e27	0.07055312
119	0xbdd854f2	-0.10563077
120	0x3cfd3040	0.030906796
121	0xbd74032c	-0.059573337
122	0xbb85cd3b	-0.0040833033
123	0x3dc7ffdc	0.09765598
124	0x3d012fe0	0.031539798
125	0xbda8764c	-0.08225688
126	0xbdd3c74c	-0.10340747
127	0x3d84c1c6	0.06482272
128	0x3d859355	0.06522242
129	0x3d766129	0.060151253
130	0xbd9f413d	-0.07776115
131	0xbe02d6db	-0.12777273
132	0xbd2b8d75	-0.04188295
133	0xbdb15387	-0.0865851
134	0xbd9eebdb	-0.077598296
135	0xbd5a7f1d	-0.05334388
136	0xbd9df84d	-0.07713375
137	0x3d918fd2	0.0710751
138	0x3d619d24	0.0550815
139	0x3e1d537e	0.15363881
140	0x3d893689	0.06699855
141	0x3d68d877	0.056847062
142	0x3d9f1bea	0.07768996
143	0xbd86627b	-0.065617524
144	0xbddfc9d5	-0.10927168
145	0xbd9bfa34	-0.07616082
146	0xbdf10103	-0.11767771
147	0x3d684838	0.0567095
148	0xbd364152	-0.044495888
149	0xbcf29c60	-0.029615581
150	0x3dce93ca	0.10086782
151	0xbd58b940	-0.052911043
152	0x3db8f0e0	0.09030318
153	0x3e0a09e3	0.13480334
154	0xbdcf2a33	-0.10115471
155	0xbd1615ea	-0.036641993
156	0x3d9868c8	0.074418604
157	0xbd5331aa	-0.051561035
158	0xbdfbeafa	-0.123006776
159	0x3d9dec44	0.0771108
160	0x3d1ca556	0.038243614
161	0x3dc4585c	0.09587166
162	0x3cbb2cb6	0.022848468
163	0x3bf722e8	0.007542003
164	0xbcafdadf	-0.02146667
165	0xbdf50de0	-0.11965537
166	0xbde530f3	-0.11190977
167	0x3dfb8777	0.12281697
168	0xbdea14e6	-0.11429767
169	0xbdd05f70	-0.10174453
170	0xbd59515e	-0.053056113
171	0xbd58fdd8	-0.05297646
172	0x3d76c39f	0.060245153
173	0x3dfb272c	0.12263331
174	0xbd98167c	-0.074261636
175	0x3c02b25e	0.007977096
176	0x3dd376f6	0.103254244
177	0xbcb565b8	-0.02214323
178	0x3d1bdc3c	0.03805183
179	0x3d62ba6a	0.05535356
180	0x3dcd53ef	0.10025775
181	0xbc893756	-0.016750019
182	0x3d9dbda6	0.07702188
183	0x3de72778	0.11286825
184	0x3d071150	0.032975495
185	0x3d2a1c82	0.041531093
186	0xbd580084	-0.052734867
187	0x3d13f958	0.036126465
188	0x3d848d72	0.06472291
189	0xbdab5681	-0.08366109
190	0xbc8c7628	-0.017146185
191	0x3c6507a0	0.013978869
192	0xbbec2b7c	-0.007207332
193	0x3d729613	0.059225153
194	0xbd085ffd	-0.033294667
195	0x3d114645	0.035467405
196	0x3d3d1637	0.046163764
197	0x3d025a7d	0.031824578
198	0xbd7154da	-0.05891881
199	0x3dc17701	0.09446526
200	0xbdcc8d59	-0.099878974
201	0x3d7c20a8	0.06155458
202	0x3dd13b66	0.102164075
203	0xbd6a32f9	-0.057177518
204	0xbe13cd51	-0.1443379
205	0xbda03c4e	-0.07824002
206	0x3d5e5c3c	0.05428718
207	0x3ba959f8	0.005168196
208	0x3dd8fe0c	0.105953306
209	0x3de1ba8c	0.11021909
210	0xbdd5c602	-0.104381576
211	0xbd82109c	-0.06350824
212	0x3de6d137	0.11270373
213	0xbd9136d4	-0.07090536
214	0xbd0e10e0	-0.034684062
215	0xbb1cb480	-0.0023911297
216	0x3e0282f4	0.12745267
217	0x3e023fc3	0.12719636
218	0x3cf3f3ec	0.029779397
219	0xbc4162af	-0.011803313
220	0x3d5997b8	0.053123206
221	0x3ba08501	0.004898668
222	0xbc985d42	-0.018599156
223	0xbdd74cf7	-0.10512727
224	0x3ca6754c	0.020319603
225	0xbd1b05fa	-0.037847497
226	0xbd1b7b69	-0.03795949
227	0x3d9e7d5a	0.07738753
228	0xbddffeed	-0.10937295
229	0x3d9e7950	0.07737982
230	0x3d9a8bb2	0.07546176
231	0xbc36af06	-0.011150127
232	0x3dc94382	0.09827329
233	0xbcb646eb	-0.022250613
234	0x3db1f92e	0.086901054
235	0x3cf02388	0.029313818
236	0x3d282ca1	0.041058186
237	0xbcc907b5	-0.024539808
238	0xbdba186c	-0.09086689
239	0xbdd26629	-0.10273392
240	0xbd371dd8	-0.044706196
241	0xbd8cca48	-0.068745196
242	0xbd880580	-0.06641674
243	0xbd3ac502	-0.045598038
244	0x3d9fc933	0.078020476
245	0x3d27716a	0.040879644
246	0x3c635f5c	0.013877716
247	0x3d8f9ef8	0.07012743
248	0x3db19c34	0.086723715
249	0xbde68bd3	-0.11257138
250	0xbca4fc7f	-0.02013993
251	0xbde4dab0	-0.11174524
252	0x3c33cca0	0.010974079
253	0x3c557987	0.013029463
254	0x3dc98262	0.09839322
255	0x3df226e9	0.11823828

advantage.predict.bias f4 [5]
0	0xbda2f680	-0.079571724
1	0x3d313a99	0.043268774
2	0xbd8764e9	-0.06611044
3	0x3d146b52	0.03623516
4	0x3bd04fa6	0.006357151

exp_avg f4 [64, 25]
0	0xbc1554e0	-0.009114474
1	0xbbf8b564	-0.007589983
2	0xbb8a69f8	-0.0042240582
3	0x369ae800	4.616566e-06
4	0xb8afc1f0	-8.380774e-05
5	0xbc1554e0	-0.009114474
6	0xbb5612a9	-0.003266493
7	0x3b062e1e	0.0020474265
8	0xbb03a8a6	-0.0020089536
9	0x38ea9134	0.00011185036
10	0xbc1554e0	-0.009114474
11	0xbb29aaa7	-0.002588907
12	0xba8d4432	-0.001077777
13	0xbb20cd79	-0.0024536534
14	0x38cb2b00	9.687804e-05
15	0xbc1554e0	-0.009114474
16	0xbb3c9e3a	-0.0028780834
17	0x3b9375e3	0.004500137
18	0xbb0365a6	-0.00200496
19	0x38cff1ce	9.915569e-05
20	0xbc1554e0	-0.009114474
21	0xbc012757	-0.0078829145
22	0x3a6dd88c	0.00090731005
23	0xbb20cf98	-0.0024537798
24	0xb80fc03c	-3.427289e-05
25	0xbbbf5bce	-0.0058398014
26	0xbba91bb6	-0.005160774
27	0xbb19342c	-0.0023377044
28	0xba2acd63	-0.00065155904
29	0xb7efaae6	-2.8570601e-05
30	0xbbbf5bce	-0.0058398014
31	0xbaacd562	-0.0013186152
32	0x39bc8501	0.0003595725
33	0xba2cbfcb	-0.00065898587
34	0x383607cc	4.3399443e-05
35	0xbbbf5bce	-0.0058398014
36	0xbaac8bd6	-0.0013164233
37	0xba170dc4	-0.0005762244
38	0xba70ea90	-0.0009190226
39	0x381890c3	3.6374444e-05
40	0xbbbf5bce	-0.0058398014
41	0xbaea6080	-0.0017881542
42	0x3af23572	0.0018479063
43	0xba326325	-0.0006804935
44	0x381f85d8	3.8033206e-05
45	0xbbbf5bce	-0.0058398014
46	0xbb82cdd8	-0.0039918236
47	0x39532ea0	0.00020139897
48	0xba6470a5	-0.0008714295
49	0xb7faa8d0	-2.9880932e-05
50	0xb88750d1	-6.452355e-05
51	0xb8529d47	-5.0214378e-05
52	0xb7affe69	-2.0980095e-05
53	0xb7b30b49	-2.1343718e-05
54	0xb4227659	-1.513048e-07
55	0xb88750d1	-6.452355e-05
56	0xb6f38429	-7.25735e-06
57	0x36004c85	1.9118027e-06
58	0x369d9506	4.696313e-06
59	0xb420afde	-1.4965141e-07
60	0xb88750d1	-6.452355e-05
61	0xb78317dd	-1.562753e-05
62	0x37a1ad88	1.9273502e-05
63	0x36384629	2.7458975e-06
64	0x3561d936	8.4135115e-07
65	0xb88750d1	-6.452355e-05
66	0xb7ca3aef	-2.410772e-05
67	0x363e053c	2.8315253e-06
68	0x36203298	2.3871307e-06
69	0x340bdee7	1.3026475e-07
70	0xb88750d1	-6.452355e-05
71	0xb8056b0e	-3.1809373e-05
72	0x37affe69	2.0980095e-05
73	0x36335aea	2.6725997e-06
74	0x34227659	1.513048e-07
75	0xbbc4a313	-0.0060008853
76	0xbb9df47b	-0.004820404
77	0xbb833d42	-0.0040051052
78	0x3a6399c8	0.0008682278
79	0xb89b0ccb	-7.393359e-05
80	0xbbc4a313	-0.0060008853
81	0xbb2fe28d	-0.0026837916
82	0x3b87fbe0	0.004149899
83	0xbb09d22d	-0.0021029816
84	0x38c69d71	9.4707015e-05
85	0xbbc4a313	-0.0060008853
86	0xbabb540a	-0.0014292013
87	0x3abfdd78	0.0014638146
88	0xbb27d631	-0.0025609846
89	0x38d7d427	0.00010291515
90	0xbbc4a313	-0.0060008853
91	0xbb117f67	-0.0022201182
92	0x3bc155f4	0.005900139
93	0xbb06e462	-0.0020582904
94	0x38a0df88	7.6710305e-05
95	0xbbc4a313	-0.0060008853
96	0xbbbb3f51	-0.005714335
97	0xba2ed1c6	-0.0006668832
98	0xbb254720	-0.0025219396
99	0xb7bc069d	-2.2414426e-05
100	0xbb9721be	-0.0046121767
101	0xbb75118e	-0.0037394497
102	0xbb42ca10	-0.002972249
103	0x39a47d8e	0.00031374063
104	0xb864e1ab	-5.4569606e-05
105	0xbb9721be	-0.0046121767
106	0xbadc29e2	-0.001679715
107	0x3ab1d011	0.0013566037
108	0xbaa128c7	-0.0012295478
109	0x38a8af83	8.043556e-05
110	0xbb9721be	-0.0046121767
111	0xbaa203f5	-0.0012360798
112	0x3a4c2170	0.0007786965
113	0xbadd5244	-0.0016885479
114	0x388c8ad0	6.701576e-05
115	0xbb9721be	-0.0046121767
116	0xbae13607	-0.0017182239
117	0x3b89ee4e	0.0042093163
118	0xbaa469f1	-0.001254378
119	0x38857b26	6.3648724e-05
120	0xbb9721be	-0.0046121767
121	0xbb8497e7	-0.0040464285
122	0xb9966cf3	-0.00028691403
123	0xbaca3631	-0.0015427527
124	0xb7545cda	-1.2657803e-05
125	0x00000000	0.0
126	0x00000000	0.0
127	0x00000000	0.0
128	0x00000000	0.0
129	0x00000000	0.0
130	0x00000000	0.0
131	0x00000000	0.0
132	0x00000000	0.0
133	0x00000000	0.0
134	0x00000000	0.0
135	0x00000000	0.0
136	0x00000000	0.0
137	0x00000000	0.0
138	0x00000000	0.0
139	0x00000000	0.0
140	0x00000000	0.0
141	0x00000000	0.0
142	0x00000000	0.0
143	0x00000000	0.0
144	0x00000000	0.0
145	0x00000000	0.0
146	0x00000000	0.0
147	0x00000000	0.0
148	0x00000000	0.0
149	0x00000000	0.0
150	0xbc22c7e6	-0.009935355
151	0xbc01990e	-0.007910026
152	0xbbae081c	-0.0053110253
153	0x3a68b124	0.00088764937
154	0xb8e7fdaf	-0.000110621906
155	0xbc22c7e6	-0.009935355
156	0xbb876776	-0.0041322066
157	0x3b3de84a	0.0028977566
158	0xbb417148	-0.0029516984
159	0x391e9257	0.0001512257
160	0xbc22c7e6	-0.009935355
161	0xbb4857bc	-0.0030569872
162	0xba50c400	-0.00079637766
163	0xbb72776d	-0.0036997453
164	0x390a6325	0.0001319764
165	0xbc22c7e6	-0.009935355
166	0xbb6bbd44	-0.0035970965
167	0x3bebe3a4	0.0071987677
168	0xbb426cfb	-0.0029667008
169	0x39082815	0.00012984902
170	0xbc22c7e6	-0.009935355
171	0xbc1ad4ff	-0.009450196
172	0x391ea250	0.0001512852
173	0xbb6b0f6a	-0.0035867342
174	0xb8472c7c	-4.7486727e-05
175	0xbbb0cc42	-0.005395443
176	0xbb92729d	-0.0044692294
177	0xbb1187e0	-0.0022206232
178	0x38124100	3.486965e-05
179	0xb82b6c41	-4.0870396e-05
180	0xbbb0cc42	-0.005395443
181	0xbb01787a	-0.0019755648
182	0x3a94c17a	0.0011349164
183	0xbaa28fac	-0.0012402437
184	0x385cdc50	5.265727e-05
185	0xbbb0cc42	-0.005395443
186	0xbad17ef1	-0.0015983266
187	0xba98899c	-0.001163769
188	0xbabf5499	-0.0014597356
189	0x384cea39	4.8855527e-05
190	0xbbb0cc42	-0.005395443
191	0xbae14784	-0.0017187451
192	0x3b0e0571	0.0021670724
193	0xbaa20310	-0.0012360532
194	0x3850696c	4.9689246e-05
195	0xbbb0cc42	-0.005395443
196	0xbb9b875c	-0.0047463607
197	0x3a31fad6	0.00067893916
198	0xbac2a6db	-0.0014850752
199	0xb810a6e7	-3.4487715e-05
200	0x06341c4b	3.3875024e-35
201	0x06341c4b	3.3875024e-35
202	0x057025ce	1.12916894e-35
203	0x0586b15b	1.266645e-35
204	0x821a9a33	-1.1358386e-37
205	0x06341c4b	3.3875024e-35
206	0x049690aa	3.5397683e-36
207	0x057025ce	1.12916894e-35
208	0x8496cea5	-3.5454604e-36
209	0x021a9a3a	1.1358394e-37
210	0x06341c4b	3.3875024e-35
211	0x04ec4f8c	5.5556386e-36
212	0x85702395	-1.1291281e-35
213	0x84c3aecb	-4.60048e-36
214	0x82124646	-1.0746553e-37
215	0x06341c4b	3.3875024e-35
216	0x0587ebbd	1.2781936e-35
217	0x021224c6	1.0736939e-37
218	0x8492e7fa	-3.4537472e-36
219	0x021a9a3a	1.1358394e-37
220	0x06341c4b	3.3875024e-35
221	0x05a0196b	1.5055665e-35
222	0x857025ce	-1.12916894e-35
223	0x84cab6ef	-4.765797e-36
224	0x021a9a3a	1.1358394e-37
225	0xbba76138	-0.005108025
226	0xbb882c24	-0.0041556526
227	0xbb5bf46e	-0.003356244
228	0x3a1be648	0.00059470953
229	0xb821f8a0	-3.861694e-05
230	0xbba76138	-0.005108025
231	0xbb00e036	-0.001966489
232	0x3b468470	0.0030291341
233	0xbad7949f	-0.0016447491
234	0x385f1e0c	5.3195326e-05
235	0xbba76138	-0.005108025
236	0xba94d828	-0.0011355923
237	0x3ab89f8e	0.0014085637
238	0xbb07fd50	-0.0020750351
239	0x3889cfc0	6.5713655e-05
240	0xbba76138	-0.005108025
241	0xbb02ccb5	-0.001995844
242	0x3b9bdcd3	0.004756549
243	0xbad584f8	-0.0016290238
244	0x382e27ce	4.1521904e-05
245	0xbba76138	-0.005108025
246	0xbb92ea3c	-0.0044834893
247	0xba1dd70e	-0.00060211204
248	0xbb014975	-0.0019727622
249	0xb846badb	-4.73809e-05
250	0x00000000	0.0
251	0x00000000	0.0
252	0x00000000	0.0
253	0x00000000	0.0
254	0x00000000	0.0
255	0x00000000	0.0

exp_avg_sq f4 [64, 25]
0	0x3afe05d0	0.0019380394
1	0x3af86cb3	0.0018953293
2	0x39b5af3e	0.00034653576
3	0x395d0609	0.0002107845
4	0x3391955c	6.779257e-08
5	0x3afe05d0	0.0019380394
6	0x372090a0	9.570416e-06
7	0x390611f2	0.00012785921
8	0x3792354b	1.7429373e-05
9	0x33eede44	1.11231685e-07
10	0x3afe05d0	0.0019380394
11	0x3854f2d7	5.07709e-05
12	0x39814db6	0.00024662697
13	0x379c5ab3	1.8638884e-05
14	0x34b4bec5	3.3666416e-07
15	0x3afe05d0	0.0019380394
16	0x3916f624	0.0001439681
17	0x396ba09f	0.00022471182
18	0x378ee4d9	1.7034285e-05
19	0x33b4a144	8.411237e-08
20	0x3afe05d0	0.0019380394
21	0x399d9b35	0.00030061012
22	0x397a65de	0.00023879806
23	0x378fbdd3	1.7135322e-05
24	0x33bceb50	8.797235e-08
25	0x3a39a453	0.0007081676
26	0x3a349fd0	0.0006890269
27	0x38fb7731	0.00011990814
28	0x38a00123	7.629606e-05
29	0x32a437c9	1.9117481e-08
30	0x3a39a453	0.0007081676
31	0x36620e16	3.3684823e-06
32	0x38149b9f	3.5430883e-05
33	0x36c0317e	5.7278075e-06
34	0x330a4f16	3.2202557e-08
35	0x3a39a453	0.0007081676
36	0x379882ae	1.8180664e-05
37	0x389351a6	7.0247144e-05
38	0x36d2dd5c	6.2842573e-06
39	0x340404d4	1.2295214e-07
40	0x3a39a453	0.0007081676
41	0x38532f46	5.0350347e-05
42	0x3898b5f0	7.281813e-05
43	0x36c2c922	5.8050655e-06
44	0x32c96794	2.3446582e-08
45	0x3a39a453	0.0007081676
46	0x38e80ffe	0.00011065601
47	0x387e01ae	6.0559883e-05
48	0x36be4d29	5.671424e-06
49	0x32d33928	2.4589625e-08
50	0x3567db6a	8.6373495e-07
51	0x35515f14	7.7996924e-07
52	0x31af85e6	5.108393e-09
53	0x339dc171	7.346069e-08
54	0x2aa1640a	2.866876e-13
55	0x3567db6a	8.6373495e-07
56	0x32146d88	8.639638e-09
57	0x3467400e	2.1536854e-07
58	0x30d42fca	1.5438613e-09
59	0x2aa129a4	2.862824e-13
60	0x3567db6a	8.6373495e-07
61	0x32f13996	2.808228e-08
62	0x343fd1f9	1.7864649e-07
63	0x306db40a	8.647595e-10
64	0x2b6db40c	8.444918e-13
65	0x3567db6a	8.6373495e-07
66	0x3393bceb	6.879585e-08
67	0x3215c885	8.718534e-09
68	0x31007b3f	1.8696509e-09
69	0x2bc427f8	1.3937731e-12
70	0x3567db6a	8.6373495e-07
71	0x343830b0	1.7154048e-07
72	0x333fe4d1	4.467876e-08
73	0x30a69c44	1.2122503e-09
74	0x2df7c382	2.8167472e-11
75	0x3ac894e6	0.0015303164
76	0x3ac4adf9	0.0015005461
77	0x39933d5d	0.00028083744
78	0x3932a118	0.00017035415
79	0x337b27e0	5.8476758e-08
80	0x3ac894e6	0.0015303164
81	0x36ee4317	7.100763e-06
82	0x38cccf92	9.766141e-05
83	0x377e0240	1.5140104e-05
84	0x33c2ca42	9.0706195e-08
85	0x3ac894e6	0.0015303164
86	0x38249aca	3.9244806e-05
87	0x395d0f00	0.0002108179
88	0x37896905	1.6380576e-05
89	0x3481718e	2.4110744e-07
90	0x3ac894e6	0.0015303164
91	0x38ef0e82	0.000113991104
92	0x393ee6f9	0.00018205856
93	0x376f461a	1.4261832e-05
94	0x339645f8	6.9976466e-08
95	0x3ac894e6	0.0015303164
96	0x3976ca4e	0.00023535753
97	0x3966ba6e	0.0002200396
98	0x377f49f9	1.52164075e-05
99	0x339843fa	7.0904164e-08
100	0x3a82f0d2	0.0009989983
101	0x3a7fcc3d	0.0009757912
102	0x39333f7f	0.00017094424
103	0x38e5e1e2	0.00010961645
104	0x33016402	3.012611e-08
105	0x3a82f0d2	0.0009989983
106	0x369f6e26	4.751392e-06
107	0x38490389	4.7925427e-05
108	0x3715bd3e	8.925153e-06
109	0x33586251	5.0380837e-08
110	0x3a82f0d2	0.0009989983
111	0x37d40d45	2.5278548e-05
112	0x39031548	0.00012501061
113	0x37272ae4	9.963962e-06
114	0x3439c9dd	1.7302905e-07
115	0x3a82f0d2	0.0009989983
116	0x38989f6b	7.277619e-05
117	0x38e80d3e	0.000110650886
118	0x3712aa38	8.74191e-06
119	0x331ac39a	3.6033818e-08
120	0x3a82f0d2	0.0009989983
121	0x39227074	0.00015491416
122	0x38ec2256	0.000112597525
123	0x37152a67	8.890965e-06
124	0x3320edba	3.7469114e-08
125	0x00000000	0.0
126	0x00000000	0.0
127	0x00000000	0.0
128	0x00000000	0.0
129	0x00000000	0.0
130	0x00000000	0.0
131	0x00000000	0.0
132	0x00000000	0.0
133	0x00000000	0.0
134	0x00000000	0.0
135	0x00000000	0.0
136	0x00000000	0.0
137	0x00000000	0.0
138	0x00000000	0.0
139	0x00000000	0.0
140	0x00000000	0.0
141	0x00000000	0.0
142	0x00000000	0.0
143	0x00000000	0.0
144	0x00000000	0.0
145	0x00000000	0.0
146	0x00000000	0.0
147	0x00000000	0.0
148	0x00000000	0.0
149	0x00000000	0.0
150	0x3b932c43	0.0044913604
151	0x3b8f8de4	0.0043809284
152	0x3a57c6a9	0.0008231202
153	0x39ffaf0e	0.00048767816
154	0x3416bf75	1.403949e-07
155	0x3b932c43	0.0044913604
156	0x37bb801a	2.2351789e-05
157	0x398a4469	0.0002637238
158	0x3826ff3f	3.98152e-05
159	0x34807912	2.3929948e-07
160	0x3b932c43	0.0044913604
161	0x38f51138	0.000116857176
162	0x3a0c906b	0.0005362096
163	0x3833bd2f	4.2853117e-05
164	0x35605b73	8.357958e-07
165	0x3b932c43	0.0044913604
166	0x39ad20eb	0.00033021657
167	0x3a0a5ea8	0.0005278387
168	0x3821932d	3.852246e-05
169	0x343869e1	1.7174854e-07
170	0x3b932c43	0.0044913604
171	0x3a37c999	0.00070109364
172	0x3a034bb3	0.00050085335
173	0x38244cf6	3.9172322e-05
174	0x344272c3	1.8109408e-07
175	0x3a72ad32	0.00092573755
176	0x3a6cba7c	0.0009030474
177	0x392a97a1	0.0001626895
178	0x38d08694	9.94328e-05
179	0x32ff3446	2.9709678e-08
180	0x3a72ad32	0.00092573755
181	0x369d23e8	4.6831447e-06
182	0x386d57aa	5.6586847e-05
183	0x37053be9	7.941367e-06
184	0x3357fe11	5.028966e-08
185	0x3a72ad32	0.00092573755
186	0x37cc035d	2.4320261e-05
187	0x38db9813	0.0001047106
188	0x370be19f	8.337577e-06
189	0x343befef	1.750302e-07
190	0x3a72ad32	0.00092573755
191	0x388e4029	6.7830384e-05
192	0x38ddb8c7	0.00010572519
193	0x37022352	7.7568275e-06
194	0x331da3b5	3.67033e-08
195	0x3a72ad32	0.00092573755
196	0x3917bfa7	0.00014471878
197	0x38d07347	9.939685e-05
198	0x3701cb9a	7.736404e-06
199	0x3326eb4c	3.8863888e-08
200	0x2e16dbd5	3.43013e-11
201	0x2e16dbd5	3.43013e-11
202	0x2c8618b6	3.8112525e-12
203	0x2ca8bc8b	4.7957797e-12
204	0x0f89e6f3	1.3598201e-29
205	0x2e16dbd5	3.43013e-11
206	0x2ad2d904	3.7454078e-13
207	0x2c8618b6	3.8112525e-12
208	0x2ad386e1	3.757472e-13
209	0x0f89e6f8	1.3598209e-29
210	0x2e16dbd5	3.43013e-11
211	0x2b81d881	9.226093e-13
212	0x2c86164d	3.810985e-12
213	0x2b321283	6.3263994e-13
214	0x1c887412	9.029729e-22
215	0x2e16dbd5	3.43013e-11
216	0x2cabd3e4	4.883637e-12
217	0x105a26fb	4.302295e-29
218	0x2ac8b988	3.5655875e-13
219	0x0f89e6f8	1.3598209e-29
220	0x2e16dbd5	3.43013e-11
221	0x2cee655a	6.775619e-12
222	0x2c8618b6	3.8112525e-12
223	0x2b3f19a7	6.789243e-13
224	0x0f89e6f8	1.3598209e-29
225	0x3aaf941b	0.0013395579
226	0x3aab448c	0.0013066693
227	0x396f0c39	0.0002279737
228	0x391abbe2	0.00014756576
229	0x333a4587	4.3369734e-08
230	0x3aaf941b	0.0013395579
231	0x36d647c6	6.3860525e-06
232	0x388f3778	6.829103e-05
233	0x37510a5c	1.2459783e-05
234	0x33986cc6	7.097837e-08
235	0x3aaf941b	0.0013395579
236	0x380e6654	3.395074e-05
237	0x392bb1a5	0.00016374009
238	0x375f8e66	1.33249905e-05
239	0x349c885e	2.9156485e-07
240	0x3aaf941b	0.0013395579
241	0x38cbd728	9.71987e-05
242	0x39212674	0.00015368481
243	0x37473af0	1.1875047e-05
244	0x335c5efe	5.1309136e-08
245	0x3aaf941b	0.0013395579
246	0x395aa0f6	0.00020850063
247	0x3921aab0	0.00015417743
248	0x374f6514	1.2361696e-05
249	0x3364eaa1	5.329878e-08
250	0x00000000	0.0
251	0x00000000	0.0
252	0x00000000	0.0
253	0x00000000	0.0
254	0x00000000	0.0
255	0x00000000	0.0

exp_avg f4 [64]
0	0xbc1554de	-0.009114472
1	0xbbbf5bce	-0.0058398014
2	0xb88750d1	-6.452355e-05
3	0xbbc4a317	-0.006000887
4	0xbb9721b8	-0.004612174
5	0x00000000	0.0
6	0xbc22c7e2	-0.009935351
7	0xbbb0cc45	-0.0053954446
8	0x06341c4b	3.3875024e-35
9	0xbba76136	-0.005108024
10	0x00000000	0.0
11	0x15cf9140	8.38358e-26
12	0xbbe5889a	-0.0070048096
13	0x00000000	0.0
14	0xbbc5eb51	-0.006040015
15	0xbbc5e4dd	-0.0060392455
16	0xbbd45bd2	-0.0064806724
17	0xbb869005	-0.004106524
18	0x00000000	0.0
19	0xbbdba61c	-0.0067031514
20	0xbba80bf0	-0.005128376
21	0xbbdcf1bb	-0.0067426837
22	0xbbf11c4c	-0.0073581096
23	0xbb826ece	-0.003980494
24	0xbbdbb870	-0.0067053363
25	0xbb9f998e	-0.0048706
26	0x00000000	0.0
27	0x00000000	0.0
28	0xbc91f93a	-0.017819036
29	0xbb8f31ae	-0.004369936
30	0x3b819bba	0.0039553316
31	0x00000000	0.0
32	0x07ba3b64	2.8021076e-34
33	0xbbf758f4	-0.007548446
34	0xbb865fd3	-0.0041007786
35	0x00000000	0.0
36	0xbbf0369b	-0.007330728
37	0xbbc4bdf0	-0.0060040876
38	0xbbf24592	-0.0073935473
39	0xbbda1534	-0.0066553596
40	0xbc11982a	-0.008886376
41	0xbb381845	-0.0028090638
42	0x3b2af7c0	0.0026087612
43	0xbbe59d38	-0.0070072673
44	0x00000000	0.0
45	0xbbc76215	-0.0060846903
46	0x00000000	0.0
47	0x00000000	0.0
48	0xbbdea1f0	-0.006794207
49	0x00000000	0.0
50	0xbb8d77e5	-0.004317271
51	0x00000000	0.0
52	0xbb33675a	-0.0027374835
53	0xbb5b6a80	-0.0033480227
54	0xbc607681	-0.0137001285
55	0x00000000	0.0
56	0xbbca8600	-0.006180525
57	0xbbbadc78	-0.0057025515
58	0x00000000	0.0
59	0x00000000	0.0
60	0xbc21af12	-0.0098684
61	0x00000000	0.0
62	0x00000000	0.0
63	0x00000000	0.0

exp_avg_sq f4 [64]
0	0x3afe05d1	0.0019380396
1	0x3a39a451	0.0007081675
2	0x3567db6a	8.6373495e-07
3	0x3ac894e5	0.0015303163
4	0x3a82f0d2	0.0009989983
5	0x00000000	0.0
6	0x3b932c42	0.00449136
7	0x3a72ad31	0.0009257375
8	0x2e16dbd5	3.43013e-11
9	0x3aaf9419	0.0013395577
10	0x00000000	0.0
11	0x2edfcf82	1.0177727e-10
12	0x3adbfe81	0.0016784222
13	0x00000000	0.0
14	0x3a936e75	0.0011248129
15	0x3ab1852a	0.0013543714
16	0x3a2c273c	0.00065671257
17	0x3ac42c91	0.0014966895
18	0x00000000	0.0
19	0x3b190aa8	0.00233523
20	0x3a515a2d	0.00079861545
21	0x3b3fd80c	0.002927306
22	0x3a7ee062	0.00097227667
23	0x3a84323c	0.0010085772
24	0x3a9bd8ef	0.0011890213
25	0x3a52f2a4	0.00080470205
26	0x00000000	0.0
27	0x00000000	0.0
28	0x3b010290	0.0019685365
29	0x3ae36ac2	0.0017350542
30	0x3b05f7a0	0.0020441785
31	0x00000000	0.0
32	0x3184f2c1	3.8693035e-09
33	0x3add1d07	0.0016869613
34	0x3aafa998	0.0013401983
35	0x00000000	0.0
36	0x3abc6b06	0.0014375157
37	0x3b00c175	0.001964656
38	0x3b3cafc9	0.00287913
39	0x3abd6287	0.0014448919
40	0x3ba587f4	0.0050516073
41	0x3a6d94e3	0.00090630184
42	0x3935759d	0.0001730532
43	0x3ade0fb4	0.0016941936
44	0x00000000	0.0
45	0x3a9c7c16	0.0011938836
46	0x00000000	0.0
47	0x00000000	0.0
48	0x3af7d506	0.001890809
49	0x00000000	0.0
50	0x3a652f3f	0.0008742697
51	0x00000000	0.0
52	0x39452e8f	0.00018804728
53	0x380e715b	3.396101e-05
54	0x3a977418	0.0011554984
55	0x00000000	0.0
56	0x3acb9e43	0.0015534837
57	0x3a6c4681	0.00090131914
58	0x00000000	0.0
59	0x00000000	0.0
60	0x3b4d84d2	0.0031359685
61	0x00000000	0.0
62	0x00000000	0.0
63	0x00000000	0.0

exp_avg f4 [64, 64]
0	0x00000000	0.0
1	0x033574a8	5.3325034e-37
2	0x00000000	0.0
3	0x0412dab1	1.7262636e-36
4	0x00000000	0.0
5	0x00000000	0.0
6	0x030ef0ff	4.20067e-37
7	0x04652d43	2.6939604e-36
8	0x00000000	0.0
9	0x05129258	6.891766e-36
10	0x00000000	0.0
11	0x00000000	0.0
12	0x052e06e2	8.182705e-36
13	0x00000000	0.0
14	0x0496cdd6	3.545386e-36
15	0x021c4bd7	1.1482835e-37
16	0x021d85ea	1.157297e-37
17	0x04f25a32	5.6976758e-36
18	0x00000000	0.0
19	0x048f2c9c	3.3660106e-36
20	0x048da10d	3.3296842e-36
21	0x050bef46	6.579696e-36
22	0x0221818d	1.1865591e-37
23	0x00000000	0.0
24	0x029c805e	2.299582e-37
25	0x04d272dd	4.9476248e-36
26	0x00000000	0.0
27	0x00000000	0.0
28	0x044734d2	2.3416591e-36
29	0x00000000	0.0
30	0x00000000	0.0
31	0x00000000	0.0
32	0x00000000	0.0
33	0x0425292d	1.9414564e-36
34	0x00000000	0.0
35	0x00000000	0.0
36	0x00000000	0.0
37	0x04e25549	5.3210667e-36
38	0x00000000	0.0
39	0x0488dd6c	3.217679e-36
40	0x049a4c80	3.627548e-36
41	0x04e8feca	5.4776925e-36
42	0x0211a59a	1.0700443e-37
43	0x04e29288	5.3266912e-36
44	0x00000000	0.0
45	0x04c6a2f2	4.6699218e-36
46	0x00000000	0.0
47	0x00000000	0.0
48	0x00000000	0.0
49	0x00000000	0.0
50	0x030ce510	4.1405253e-37
51	0x00000000	0.0
52	0x04898c6f	3.2337513e-36
53	0x00000000	0.0
54	0x02820339	1.9103633e-37
55	0x00000000	0.0
56	0x0491465b	3.4153947e-36
57	0x0449c9ec	2.3720154e-36
58	0x00000000	0.0
59	0x00000000	0.0
60	0x00000000	0.0
61	0x00000000	0.0
62	0x00000000	0.0
63	0x00000000	0.0
64	0x0628a513	3.1718566e-35
65	0x06147800	2.7923868e-35
66	0x043334c8	2.1065585e-36
67	0x078114f6	1.9422082e-34
68	0x066f9ee2	4.5067633e-35
69	0x00000000	0.0
70	0x07a08a8e	2.415556e-34
71	0x0834be29	5.439031e-34
72	0x00000000	0.0
73	0x089c4818	9.405858e-34
74	0x00000000	0.0
75	0x00000000	0.0
76	0x08de36f9	1.3374063e-33
77	0x00000000	0.0
78	0x0856445f	6.4478652e-34
79	0x06dcb281	8.301709e-35
80	0x075adbc7	1.6465084e-34
81	0x0894c468	8.953601e-34
82	0x00000000	0.0
83	0x0856741b	6.4534764e-34
84	0x08314c3d	5.3353618e-34
85	0x08acfcca	1.0411304e-33
86	0x065e834a	4.1850015e-35
87	0x05adfba0	1.6361274e-35
88	0x075df90d	1.6699382e-34
89	0x083ba30c	5.6464926e-34
90	0x00000000	0.0
91	0x00000000	0.0
92	0x079d86b8	2.3701915e-34
93	0x05ee602b	2.2416739e-35
94	0x04c70610	4.6790243e-36
95	0x00000000	0.0
96	0x00000000	0.0
97	0x0779acbe	1.8783442e-34
98	0x050c16e6	6.586974e-36
99	0x00000000	0.0
100	0x06a982b9	6.3762814e-35
101	0x08918331	8.757713e-34
102	0x0611a684	2.7393805e-35
103	0x085a72cc	6.573693e-34
104	0x08625fe6	6.812213e-34
105	0x0881d23e	7.813333e-34
106	0x06e726b3	8.6949406e-35
107	0x089052a7	8.686116e-34
108	0x00000000	0.0
109	0x088dbf78	8.531143e-34
110	0x00000000	0.0
111	0x00000000	0.0
112	0x074c84e1	1.5386304e-34
113	0x00000000	0.0
114	0x078bf720	2.1059643e-34
115	0x00000000	0.0
116	0x07d58a49	3.2129955e-34
117	0x05f4d1e0	2.3022746e-35
118	0x070d777a	1.0642772e-34
119	0x00000000	0.0
120	0x085a8cee	6.576765e-34
121	0x0826624b	5.006935e-34
122	0x00000000	0.0
123	0x00000000	0.0
124	0x067a5ab5	4.7086415e-35
125	0x00000000	0.0
126	0x00000000	0.0
127	0x00000000	0.0
128	0x04963f4c	3.532296e-36
129	0x03fb9b9f	1.4788183e-36
130	0x02609a1f	1.6501151e-37
131	0x052636f4	7.815376e-36
132	0x02ba169d	2.7343223e-37
133	0x00000000	0.0
134	0x04824add	3.0631604e-36
135	0x05c71d57	1.8724648e-35
136	0x00000000	0.0
137	0x062ecfe0	3.2878485e-35
138	0x00000000	0.0
139	0x00000000	0.0
140	0x0689b35f	5.1797234e-35
141	0x00000000	0.0
142	0x05a46992	1.5461266e-35
143	0x039edec6	9.337552e-37
144	0x0494d691	3.499168e-36
145	0x060318d2	2.4656597e-35
146	0x00000000	0.0
147	0x05fd23e7	2.3805194e-35
148	0x059b55ad	1.4607602e-35
149	0x06396145	3.4866095e-35
150	0x050e7ae2	6.699378e-36
151	0x03f50e0b	1.440303e-36
152	0x03fbda1a	1.4802528e-36
153	0x06018fa8	2.4367745e-35
154	0x00000000	0.0
155	0x00000000	0.0
156	0x0573a205	1.14555634e-35
157	0x044f47b6	2.4365661e-36
158	0x029ab61a	2.2732787e-37
159	0x00000000	0.0
160	0x00000000	0.0
161	0x052919f1	7.9511065e-36
162	0x02f59c18	3.6089108e-37
163	0x00000000	0.0
164	0x0299264e	2.2503315e-37
165	0x062c29ab	3.2380217e-35
166	0x03704f2b	7.062054e-37
167	0x06041a1f	2.4845631e-35
168	0x060f9461	2.7004322e-35
169	0x061dcd5f	2.96793e-35
170	0x04e2b5ac	5.3299184e-36
171	0x062518bd	3.1051226e-35
172	0x00000000	0.0
173	0x06390ee1	3.4805564e-35
174	0x00000000	0.0
175	0x00000000	0.0
176	0x039b2521	9.118606e-37
177	0x00000000	0.0
178	0x0535773e	8.5324804e-36
179	0x00000000	0.0
180	0x05ac8ab0	1.6225748e-35
181	0x0422a0c1	1.9116823e-36
182	0x0425b4b6	1.9478635e-36
183	0x00000000	0.0
184	0x05fed9c6	2.3966043e-35
185	0x05e03fda	2.1088314e-35
186	0x00000000	0.0
187	0x00000000	0.0
188	0x043bbb93	2.2067874e-36
189	0x00000000	0.0
190	0x00000000	0.0
191	0x00000000	0.0
192	0x07e38e87	3.4238934e-34
193	0x082066b6	4.8268985e-34
194	0x04c6636c	4.664088e-36
195	0x08080fe4	4.094469e-34
196	0x0867461b	6.9596443e-34
197	0x00000000	0.0
198	0x0886568c	8.085179e-34
199	0x091f0bf5	1.9144551e-33
200	0x00000000	0.0
201	0x0971b16d	2.9092745e-33
202	0x00000000	0.0
203	0x00000000	0.0
204	0x09c2bd28	4.6881683e-33
205	0x00000000	0.0
206	0x09337444	2.160101e-33
207	0x077a43d2	1.882784e-34
208	0x08b117f4	1.0658431e-33
209	0x0953e60e	2.5506372e-33
210	0x00000000	0.0
211	0x0940701b	2.3163871e-33
212	0x09068450	1.6191876e-33
213	0x09782d49	2.9873207e-33
214	0x07ca89fd	3.0474684e-34
215	0x08044b8c	3.981111e-34
216	0x082e6d53	5.248973e-34
217	0x08ab5c2c	1.0313358e-33
218	0x00000000	0.0
219	0x00000000	0.0
220	0x089ed66d	9.55969e-34
221	0x07feccfe	3.8338156e-34
222	0x05ea42a1	2.202973e-35
223	0x00000000	0.0
224	0x00000000	0.0
225	0x0883f0bc	7.940872e-34
226	0x072f874a	1.3205295e-34
227	0x00000000	0.0
228	0x0800389f	3.8585157e-34
229	0x0934eef5	2.1779069e-33
230	0x081ad67c	4.6594814e-34
231	0x09521abf	2.5290406e-33
232	0x096dfdea	2.8647227e-33
233	0x095decaa	2.6713186e-33
234	0x074b865f	1.5311511e-34
235	0x096e827f	2.8709567e-33
236	0x00000000	0.0
237	0x0987164c	3.2521036e-33
238	0x00000000	0.0
239	0x00000000	0.0
240	0x08b075e4	1.0620331e-33
241	0x00000000	0.0
242	0x08a10672	9.69135e-34
243	0x00000000	0.0
244	0x081ac950	4.657933e-34
245	0x073b3f3d	1.40869e-34
246	0x073b9790	1.4112857e-34
247	0x00000000	0.0
248	0x09362200	2.192344e-33
249	0x092a3ff5	2.0493078e-33
250	0x00000000	0.0
251	0x00000000	0.0
252	0x07bd800e	2.8512823e-34
253	0x00000000	0.0
254	0x00000000	0.0
255	0x00000000	0.0
