highway_ddqn/ddqn1/checkpoint-216.tar (torch, 253330 bytes, 18 tensors)

layers.0.weight f4 [128, 25]
00000000: c509 f9bc 592f 9ebb e989 a5bd 54a1 f43d
00000010: d528 043d 8b33 ee3d 847e 12bd a043 7fbc
00000020: 440f c5bd 143d 95bc 6b0b cdbd 819f 3abe
00000030: 99d9 fcbd ac93 523e 2141 abbc 3fba 36be
00000040: 71a5 36be bba0 093e b864 ac3d e38f efbd
00000050: 2525 743d c83b 853d 301e 113e ba9f 063e
00000060: 2685 febd b34e 3f3d ddd4 153e cd34 3a3a
00000070: 6713 753d 40ab 113e 4aaa d2bd c024 9ebd
00000080: d39a 10bd da53 41be ede3 50bd 0785 3f3d
00000090: c771 45bd 0dec 1abe e0bc e7bd e504 473e
000000a0: 13ee 21be 7331 ee3d 774b bcbd cd6e 42bb
000000b0: 08a4 06be 238c ecbd cd27 45be d581 3d3e
000000c0: aaa9 e1bd 1dbe 99bd 8a7e e53d 33d9 a8bd
000000d0: 8b7b 09be 14ff b03d 6033 abbd fa38 553e
000000e0: bd64 8a3d ca12 08be a4a0 a43e f6ca fd3c
000000f0: a066 b43d f51e bc3e cdc5 4f3e ea99 463e
00000100: f007 633e 7df7 53bd 4190 a43e f3f1 1c3e
00000110: b953 973e 7171 fe3d b88f 1cbe e11a cf3d
00000120: 02c7 843d a821 933e e809 50bc 323d 3d3d
00000130: 18cf 233d 04fa 4b3e 9a61 353e 043b 5b3e
00000140: ed84 e3bd 2f72 1c3f 9528 19bf 93c4 653e
00000150: de4b 5fbe f4db 593d dd50 4f3d 04e8 383e
00000160: 5390 f23c e815 5ebe 27f7 593e a5be 553e
00000170: 3cd4 b53d f3cf 593e dbb6 a4be 0b6b 1abe
00000180: 9ae8 0ebc f5e6 23be 76bb 903e 9daa 93bd
00000190: ca9a 3e3e f46a c53d 76aa 1a3e 5f2c 93bd
000001a0: 335a b1bd a53f 61bd 2774 96bd a0c2 8bbe
000001b0: e31e 043e 8090 3e3e 0551 8f3d 280f a13e
000001c0: e848 a1bd ce34 863e 02e5 043e ea02 503e
000001d0: 29a4 8d3e 4075 28be 3414 94bd fab1 cabd
000001e0: 500b 5e3e bce2 293e 4ab9 363e 21c0 d13d
000001f0: 9b24 1c3e 4413 733c 16c3 79bb f9a0 4a3d
00000200: 88a0 413d 1a25 d53d f9b3 c43d b635 cbbc
00000210: 8dd3 ecbd 6851 433d fe69 813d facd 09bd
00000220: 07d3 0c3e 2086 273e f7ed 4d3e 6534 85bd
00000230: e510 0d3e 8ac6 403e ed74 b53c 38df 7e3e
00000240: b63e 44be ad3c 213e c40c 1bbc 0f54 3fbe
00000250: 4b3f 633e 9b42 3f3e 1d78 10be bd27 d7bd
00000260: 8f52 3a3e e51a 133e 3aea 06be 8022 88bd
00000270: da5b cf3c 53e8 f1bd 275d 2f3e 3b88 163e
00000280: 0dd2 c3bd 3f07 3c3e b33a 28bc 27c6 f5bd
00000290: 67a2 f73a 8743 75bd cfa0 4a3e 4af9 8e3d
000002a0: d38b e8bd 6054 1abe 43ee b3bd 6790 01bc
000002b0: fb3e 133e cbd2 23be cdb8 c33b 1022 073e
000002c0: 6da3 703c 276f 763d f6d8 43be 15e4 253e
000002d0: e8f3 803d 0911 c43b 243b bbbc 792c 843e
000002e0: 33cb 683d 2f8e e83c f0b1 763e eb83 123e
000002f0: 53fe 313c 2d90 cb3d f470 633c 179c d3bb
00000300: a552 0dbc 566b aa3e 769d 28bd 1230 08bd
00000310: bef9 263e 6e5a e43d 0225 803e 55ca 563e
00000320: 389c 03be 5032 073e b41d 4e3e 3852 e7bd
00000330: b138 933d d776 5dbd 2eac 973d 6664 eb3d
00000340: 6bab c13e 6a52 48bd 975f 053d 7465 293e
00000350: c673 473d 02c3 5b3e 86ba 933e 34ba 8d3d
00000360: 86bd 1c3e 7ed3 45be f50d b83d f303 62be
00000370: 4e62 2a3e 47af 843e 134d 683d db8f 813e
00000380: 9fc7 6abd a8a3 403e 15a6 333e de8e 20bd
00000390: 11b7 4cbe a165 d7bc f4e3 193e 6c15 2dbe
000003a0: 8943 12be c88d 2f3e 8786 613d 456f d03d
000003b0: 86ac 513e 1cb7 623c 8d13 733e c590 983e
000003c0: 3761 823c 0976 9d3e 071e 36bd 4fd3 853d
000003d0: f953 6a3e 850c aa3d f9ef 913e 33ef 8cbd
000003e0: ef59 1d3e eb68 e9bc 309c 6ebd 02b8 213e
000003f0: 44c3 5b3d b651 253e daf7 e1bd 9103 c5bd
-0.030400166 -0.0048274216 -0.08082945 0.119448334 0.032265503 0.11630925 -0.035765186 -0.015580088
-0.09622052 -0.0182176 -0.100119434 -0.18224908 -0.12346191 0.20564145 -0.02090508 -0.17844485
-0.17836548 0.1344022 0.08417648 -0.11697366 0.059605736 0.06505543 0.14171672 0.13146868
-0.1242774 0.046705913 0.14631982 0.0007103205 0.059832957 0.14225483 -0.10286386 -0.07721853
-0.035303902 -0.18879643 -0.050998617 0.046757724 -0.04820421 -0.15129109 -0.11315322 0.19435461
-0.15813474 0.116305254 -0.09194081 -0.0029668093 -0.1314851 -0.115501665 -0.19253464 0.18506558
-0.11018689 -0.07506964 0.11205776 -0.082445525 -0.13426034 0.08642402 -0.083594084 0.20822516
0.067574956 -0.13288417 0.3215381 0.030980568 0.08808637 0.36742368 0.20290299 0.19394651
0.22170997 -0.051749695 0.32141307 0.15326671 0.29556063 0.12423981 -0.152892 0.101125486
0.0648327 0.28736615 -0.012697674 0.04620094 0.039992422 0.19919592 0.17713013 0.21409231
-0.11109338 0.6111173 -0.5982755 0.22438268 -0.21806285 0.05318828 0.050614227 0.18057257
0.029609835 -0.21688044 0.21285687 0.20873506 0.08878371 0.21270733 -0.32170758 -0.15079896
-0.008722449 -0.16006072 0.2826802 -0.07210276 0.18613735 0.0963954 0.15104088 -0.071861975
-0.08659782 -0.054992337 -0.07346373 -0.27296925 0.12902407 0.1860981 0.06997875 0.31456876
-0.07875234 0.26212162 0.12977985 0.20313612 0.27664307 -0.16450977 -0.07230416 -0.098972276
0.21684003 0.16590399 0.1784412 0.10241724 0.15248339 0.014836136 -0.0038110665 0.04946992
0.047272235 0.10407467 0.096046396 -0.024805885 -0.115637876 0.047685057 0.063190445 -0.0336437
0.13752376 0.16359758 0.20110308 -0.06504134 0.13775976 0.18825737 0.022150481 0.24889839
-0.19164547 0.15745802 -0.009463493 -0.1868441 0.22192113 0.18677752 -0.1410832 -0.10505626
0.18195556 0.14365728 -0.13175288 -0.06647205 0.025312353 -0.118118905 0.17125379 0.14700405
-0.095615484 0.18362139 -0.010267901 -0.12000685 0.0018893004 -0.059878852 0.19787906 0.06981142
-0.11354794 -0.15071249 -0.08785679 -0.007907963 0.14379494 -0.1599838 0.0059729577 0.13196588
0.014687401 0.060164597 -0.19125733 0.16200288 0.062965214 0.005983476 -0.022855349 0.2581518
0.05683441 0.02838811 0.24091315 0.14308135 0.010863858 0.09939609 0.013881911 -0.0064578163
-0.008625661 0.33285016 -0.04116579 -0.03324897 0.16306207 0.111500606 0.25028235 0.20975621
-0.12852561 0.13202786 0.20128518 -0.11294979 0.071885474 -0.054068413 0.074058875 0.11493759
0.37826094 -0.04890672 0.032561865 0.16542608 0.048694395 0.21461108 0.28853244 0.06920281
0.15306672 -0.19318959 0.08987037 -0.22071819 0.16639063 0.25914976 0.05671413 0.25305066
-0.05731928 0.1881243 0.17543824 -0.03919875 -0.1999171 -0.026293578 0.15028363 -0.16902703
-0.14283575 0.17143929 0.055059936 0.10177473 0.20475969 0.013837602 0.23737927 0.2979795
0.015915496 0.30754116 -0.04446223 0.065344445 0.22883596 0.08303169 0.28503397 -0.06881561
0.15366338 -0.028492412 -0.05825442 0.1579285 0.053653017 0.16144451 -0.11033602 -0.09619821

layers.0.bias f4 [128]
00000000: 0beb f6bd bf80 02be 4d6d 363e 80d8 2fbd
00000010: df33 33be d0e2 063e bb73 47be 0f85 d9ba
00000020: 80dd 30bd af2c 5e3e b02c 623c d332 213e
00000030: ba1c 1cbe 1202 3cbd 4db1 19be c20a ffbd
00000040: 39ad 1dbe deae 2a3c 35d9 0c3e 46b3 183e
00000050: ad07 193d 4a73 f43d 464f c5bb 918c b6bd
00000060: 8477 01ba d745 473e 1abe 5ebd 4fc7 1c3d
00000070: e901 5c3d 5818 3c3d d1dd cf3c 4595 d13d
00000080: 967f 5d3e 7399 31bd dabc e8bd 7293 873d
00000090: 53d5 3f3d 8d09 2cbd 3708 1c3e 8519 673c
000000a0: 54b2 68bc 47ca 373e d2dd 3f3e b748 1fbe
000000b0: d7ec 193e 2f39 413a 9765 6b3d 0005 29bd
000000c0: d702 713d 3030 f43d 58f4 683d adb0 17be
000000d0: 3052 a7bc 2504 25be b1d2 fdbd 93d4 70bc
000000e0: 8423 1b3e d1e9 283e 8e93 80bd a523 10bc
000000f0: 0fe5 273e d7a9 983c 00ad 30bc de95 00bd
00000100: db3e 243c 9a0b b5bd 06dd 283e 6ad1 663e
00000110: f160 dc3d 9c69 3b3e d1f4 303c 3434 2f3e
00000120: 1b61 cf3d ba44 0f3d 67e3 c83d 33c5 79bc
00000130: 5b3f 5bbd 3eac 1f3e 6d6d 17be 338a e8bc
00000140: 1a75 3c3c 06e0 3bbe 0c7f 06bd 30c7 d9bd
00000150: 2f98 61bd 8354 603e b008 573e b3b0 7ebd
00000160: 1b7e 0f3e 1411 dd39 9906 1c3e 2073 96bd
00000170: 9d31 063e c0fe 9ebc fde8 08be 70e6 323d
00000180: 8865 823c 4770 473c eb5d de3d 6a98 45be
00000190: b638 923d 6ac7 023e fcb7 4d3d a292 51ba
000001a0: a4ba b9bd 368c 95bd bf9d 9c3d 9522 823d
000001b0: 90cc 293e 2d23 c03d ca49 4e3c 5b35 0ebe
000001c0: fb5e 91bb 8125 0c3e dab8 4abe ea6b 2d3e
000001d0: 5a12 993d 289f c73d 4eb9 ccbd 3926 293e
000001e0: 0297 06be ecb3 b93d 310a cd3d b85e 083e
000001f0: f379 253d 884a 29be 551b 673d 4020 ffbd
-0.1205655 -0.12744425 0.17815132 -0.04293108 -0.17500256 0.1317246 -0.19477741 -0.0016595441
-0.04317999 0.21696733 0.0138046 0.15742044 -0.15245333 -0.045900412 -0.15009041 -0.12453224
-0.1539811 0.010417668 0.13754733 0.14912137 0.037360836 0.11936052 -0.006021413 -0.0891353
-0.00049387687 0.19460236 -0.054380514 0.038276013 0.05371276 0.045921654 0.025374325 0.10233549
0.21630701 -0.04335923 -0.113641456 0.0661992 0.0468343 -0.042001296 0.15237509 0.014105205
-0.014202673 0.17948256 0.18736961 -0.15555082 0.15031753 0.0007370887 0.05746993 -0.041264534
0.0588406 0.119232535 0.05687365 -0.1481349 -0.020424932 -0.16114862 -0.12393702 -0.014699119
0.15150267 0.16495444 -0.06278144 -0.008797561 0.16395973 0.018635673 -0.010783434 -0.031392924
0.010024752 -0.088401034 0.16490564 0.22540823 0.107606776 0.18302006 0.010800556 0.17109758
0.10125943 0.034977652 0.098089986 -0.01524477 -0.053527217 0.15593049 -0.14787836 -0.028386211
0.011502529 -0.18347177 -0.032836005 -0.10633695 -0.055076774 0.21907239 0.20999408 -0.062180232
0.14012949 0.0004216513 0.15236892 -0.07346177 0.13104863 -0.019408584 -0.13370128 0.043676794
0.015917554 0.012172765 0.10857757 -0.19296423 0.07139723 0.12771383 0.05022429 -0.0007994567
-0.09068802 -0.07302134 0.07647275 0.06354252 0.1658194 0.09381709 0.012590835 -0.13887541
-0.0044363714 0.13686182 -0.19797078 0.16935697 0.074742034 0.097471535 -0.099962816 0.16518487
-0.13143542 0.090675205 0.100117095 0.13317382 0.040399503 -0.16532338 0.05642255 -0.12457323

layers.1.weight f4 [128, 128]
00000000: 12de 4b3d bb5e 82bb c0d4 a7bb ff1d 89bc
00000010: b5bb 34bc 41f6 58bc 5225 853d 2923 3fbd
00000020: e219 e73c d426 b8bd 5cca 71bc f9bc 273b
00000030: 01e6 38bd 6c32 2d3a a3ac 5a3d 24bd 8dbd
00000040: e6dd f33c f37f 5f3d 5227 2f3d 2a55 b4bd
00000050: 2b0f b13c e80d 6c3d c559 bdbc 94ce fe3c
00000060: b7db 41bd e4ea a0bd a177 e4bc 032c 74bd
00000070: 5ff2 8dbc 7a93 2fbd 09fb 283d 10fd 8e3d
00000080: d6cc 96bd b9a8 a5bd 5259 34bd b815 babd
00000090: 1c58 1f3d a746 173d 85a2 2d3d 9b5a 7f38
000000a0: fa26 a53d 2e67 b83c 65ae d63c 40fa 5d3d
000000b0: f454 81bd ac3c 9cbd 3b0d 643d 0f5d 873d
000000c0: 386a 6d3c caa7 663d 5b68 923d a445 693c
000000d0: 0cb4 f8bc c8a8 7c3c c72b d9bc e61b 89bd
000000e0: 5da8 5c3d f340 27bd 0367 5e3c 9fe0 3d3d
000000f0: e7f2 0abd 7585 a8bd 6cde 543b ef0f 853d
00000100: e3f3 923c e175 2b3d 6765 1c3d 3de4 a93d
00000110: f63b a23d 386f 3f3d 8508 2a3c b953 82ba
00000120: 2948 febb 0fcc 1b3c 4d2d 4a3d 7109 51bc
00000130: 35a9 4bbd 3c35 3cbd 341d 9bbc 9da7 a73a
00000140: c00a 65bc 0da6 7ebd 3eb9 a23b 755b cf3c
00000150: 65f0 aabc 9978 76bd c743 7cbd d26c 99bc
00000160: 0b5b 84bd 6aec 523d ea72 843d adf0 5a3d
00000170: a3df 89bd fe60 643d 01b6 6fbd 777a babd
00000180: f521 8d3d 31c8 d03c ee1a 97bc def5 fe3c
00000190: 0da4 983d d912 ffbc c433 69bd 8b2f 613d
000001a0: 1072 3e3d e08b b53c 3a29 0e3d e394 b03d
000001b0: 66d5 5ebd c0e7 663d 458b d0bc b314 afbc
000001c0: 3539 c6bc 4f7f 693d 1e3f 7b3d b974 d5bb
000001d0: d26c 993d b323 4cbc 951e f8bc db63 753d
000001e0: 8eaa a2bd b57b 6e3c ebe2 6bba 67f8 723d
000001f0: 69a8 3cbd 2898 14bd 7458 05bd 067e 983d
00000200: 544c 41bd 9f55 21bc 99b7 263c c36d 22be
00000210: eb9a cfbc 0ae5 52bb 85e7 53bd fd15 1a3c
00000220: f1ae e0ba ca1c a93d 80a3 973e ac6b f93d
00000230: 12dc 03be 3739 49be e07f b13d 216e e23d
00000240: 0f12 b33c 4d37 f43d 40eb 58bd d310 83be
00000250: 4c06 42bd 8592 383d e96f 2bbc 3c6d 393d
00000260: ca5e 763e fc7d a13c 04ef 3bbd 52dd 063c
00000270: dead a4bd 0e8b ba3d 910e 87be b9e8 d3bd
00000280: 9c01 bb3d 0a7f 803d f003 973d aa37 a6bd
00000290: 7713 a7bc d13b fc3d 7898 023c ebf0 413e
000002a0: 0123 cf3a d130 39bb f72c 49bd ef19 c73b
000002b0: a0cc 05be 8723 4f3b 7383 d2bd 9b57 853d
000002c0: 5f24 a93d 7f2f a5bd 4600 81bd 0109 a83d
000002d0: 3de3 01bd 028e 9fbd 3d57 9b3c 355f 3bbe
000002e0: 6630 e3be 1b95 d13b 7675 553d 3f16 c3bd
000002f0: 97fa 99b9 f44b aabd 82cc 0d3d 1015 ccbd
00000300: 7738 1abd bc63 333d 1ee5 543e 0a57 c93b
00000310: 06f0 8fbe f99a a93c a3ab 833d 922c e9be
00000320: f985 1fbe 801a 973d aea6 42bd e40f 1b3d
00000330: e90b 01bf 1321 b63d 2cc7 4ebd db05 dbbc
00000340: a83a 283d d6e3 19be f808 a1be 28b0 a03c
00000350: 07fc 8c3d 6c53 f43b a46f d93d 59a3 8b3d
00000360: 6c6b 05bf 09ce a83d 637b 6abd 4b0d e1ba
00000370: bb8f 3c3c bcd3 22bd f73e 80be 4173 7f3a
00000380: 4280 103e b105 a53d e879 e53b 6304 a23d
00000390: 0689 29be dd25 593d 6fcb 19bd 86c0 b13c
000003a0: ec89 ebbe 75a5 ab3c 24f3 96bd edc5 81be
000003b0: fe3f 913d e515 383d 4e85 7abd 74e1 11bd
000003c0: 5ed6 97be b698 083d e0d9 013d d6ef e83d
000003d0: fa09 593d c7ff d3be eb2c 33be 05a0 bc3d
000003e0: 634e 103e 0782 90bc dfe9 6f3e 43df 7c3d
000003f0: 090d 09bd 4058 083c a20b bdbe 2b01 1abd
0.04977233 -0.003978578 -0.0051217973 -0.016737936 -0.011031081 -0.013242305 0.06501259 -0.04666439
0.028210584 -0.08991781 -0.014757719 0.0025594814 -0.045141224 0.000660694 0.053387295 -0.06920841
0.029768895 0.05456538 0.04276211 -0.08805306 0.021613678 0.05763045 -0.023114095 0.031104364
-0.047328677 -0.07857302 -0.027889075 -0.059612285 -0.017327486 -0.042865254 0.04125503 0.069818616
-0.07363288 -0.08088822 -0.044030495 -0.09086174 0.038902387 0.036932614 0.04239132 6.088112e-05
0.08064075 0.022510137 0.026206205 0.054193735 -0.06315032 -0.0762876 0.05567668 0.066095464
0.014490657 0.05631236 0.071488105 0.014237795 -0.03035929 0.0154211 -0.026510132 -0.06694774
0.0538715 -0.040833425 0.013574365 0.046356793 -0.033923056 -0.0822858 0.0032481207 0.0649718
0.01793856 0.041860465 0.038182642 0.08295486 0.07921593 0.046736926 0.010378008 -0.0009943164
-0.007760067 0.009509101 0.04935961 -0.012758599 -0.049721915 -0.045949206 -0.018934824 0.0012791042
-0.013979614 -0.062170077 0.0049659302 0.025312165 -0.020866582 -0.060173605 -0.061588075 -0.018728647
-0.064626776 0.051494993 0.064672306 0.053452183 -0.067321084 0.05575656 -0.05852318 -0.091053896
0.068912424 0.025486084 -0.018445458 0.031123098 0.07453165 -0.031136917 -0.056934133 0.05497698
0.046495497 0.022161424 0.034707285 0.08622148 -0.05440273 0.056373358 -0.025457034 -0.021372175
-0.0241972 0.057006177 0.06133949 -0.0065141586 0.07491459 -0.012459683 -0.03028802 0.059909683
-0.07942687 0.014555861 -0.0008998352 0.059318926 -0.046059046 -0.03627792 -0.03255506 0.07445912
-0.047191933 -0.009847074 0.010175609 -0.15862183 -0.025342425 -0.0032179975 -0.051734466 0.0094046565
-0.001714198 0.08257444 0.29616928 0.1217874 -0.12876919 -0.19650732 0.08666968 0.11056162
0.021859197 0.1192461 -0.052958727 -0.25598773 -0.047369286 0.045061607 -0.010463693 0.04527019
0.24059597 0.019713394 -0.04588224 0.008231478 -0.08040975 0.09108554 -0.263783 -0.10347123
0.09131166 0.06274231 0.07373798 -0.08116086 -0.020395024 0.123160966 0.007970922 0.18939559
0.0015803279 -0.0028257857 -0.049115147 0.0060760896 -0.1306634 0.003160687 -0.10278978 0.0651085
0.0825889 -0.080657 -0.0629888 0.08204842 -0.031710852 -0.07790758 0.018962497 -0.18298037
-0.44372863 0.0063959486 0.052113973 -0.095257275 -0.00029369138 -0.08315268 0.034618862 -0.09964955
-0.037651505 0.043796286 0.20790526 0.006144409 -0.2811281 0.02070378 0.064292215 -0.45541817
-0.1557845 0.07378101 -0.04752224 0.03785695 -0.504088 0.08893027 -0.050482914 -0.02673619
0.041071564 -0.15028319 -0.31452155 0.019615248 0.06884008 0.0074562337 0.10616997 0.068182655
-0.5211704 0.08242423 -0.057246577 -0.0017170099 0.011508877 -0.039752707 -0.25048038 0.0009744652
0.14111426 0.08057726 0.0070030577 0.07910993 -0.16556177 0.053014625 -0.037547525 0.021698248
-0.46003664 0.02095292 -0.07370594 -0.25346318 0.07092284 0.044942755 -0.061162286 -0.0356154
-0.29655737 0.03334876 0.031701922 0.1137387 0.05298803 -0.4140608 -0.17497604 0.09210209
0.14092402 -0.017640127 0.23429058 0.061736356 -0.033459697 0.008321822 -0.36922938 -0.03759877

layers.1.bias f4 [128]
00000000: 2fba 5d3d 9412 083e d4ae bd3c 10c4 cabd
00000010: 2c04 25bd 981a 3e3d 8f13 853b b1ad 6b3d
00000020: e7e6 cb3d c8b5 4ebc 3a9e a53d 5ecc cb3b
00000030: e709 b93c 51a6 c5bd b766 8dbc 2944 64bd
00000040: d015 bf3d 1da2 6abd ecf8 1e3d 5273 083e
00000050: dcf4 22bd 6b2e ba3d 8466 7f3d 0628 b0bd
00000060: d00a b33d fbd7 9bbd 2757 f8b9 b2fc c73c
00000070: a9b1 803d 50b9 a2bd 30ee 5d3d 244f c43c
00000080: 02c2 3c3d 6b5f 3ebd 523a 5ebc a578 213d
00000090: fa38 5d3c 1c7d 94bc 44ef 863d 679d 38bd
000000a0: 98ff ff3c de31 213d 550f a03d 00fe c43c
000000b0: b7ca a33d ef62 77bd f014 c0bc 94b2 ab3d
000000c0: bf2a 993d 118f 19bd 760b 033e 029d 24bd
000000d0: c5ba b83d e878 0b3d fb71 bfbd 1690 34bd
000000e0: 8f03 c2bd c120 0abd 7e34 013e b332 98bd
000000f0: 673c 8a3a d3a7 053d 38cc 993d 0d82 1f3d
00000100: 0caf 0b3d 5407 67bd 272f 05bd 2da8 2fbd
00000110: 2628 9bbd a103 08bd aa35 aabc d3b3 843d
00000120: cdba 0d3e d65c bb3d 9703 89bd 1dfc 60bd
00000130: 7875 b8bc 8f7e 09bc fccf 8ebd 642f 7ebd
00000140: c338 4e3c bd82 4cbd a86f 1cbd ce68 f0bc
00000150: 2396 033d bcfb 01bd 9fa4 863d 7e2f 123d
00000160: 7451 5a3d f704 83bd 0919 2b3b 077e 893d
00000170: d5c1 033d b5ae 59bd 3ed5 10bc a2d3 8a3d
00000180: 6eaa d3bc 7833 d4b9 2e93 90bd 9ba6 c3bd
00000190: 1fb0 b0bd 1b66 8c3d fb13 debc 4737 de3b
000001a0: f637 933d 7103 a2bd 4ac9 223c 9e61 8d3d
000001b0: e4dd eabc 4286 c63d 93b2 c43c 3878 cf3d
000001c0: f30a 023d 6bed b7bd 6107 61bd d895 923d
000001d0: d5d0 583c 6478 89bd 2c6c 3ebd f048 93bd
000001e0: de4a c7bd 8c0a b2bd 6002 4d3d 4c42 b4bd
000001f0: 350b 833d 9c0e aabd 5624 79bd 6386 aabd
0.054132637 0.13288337 0.023154654 -0.09900677 -0.04028718 0.04641208 0.0040611695 0.057538692
0.099561505 -0.012616582 0.0808682 0.006219431 0.02258773 -0.09650863 -0.017260892 -0.055729065
0.09330332 -0.05728351 0.03881161 0.13325241 -0.039784297 0.09090885 0.062353626 -0.08601384
0.08742297 -0.076095544 -0.0004736718 0.024412487 0.06283886 -0.07945502 0.05418223 0.023963518
0.046083458 -0.046477716 -0.013563709 0.039421696 0.013502354 -0.018126063 0.06588605 -0.045071986
0.031249806 0.039354198 0.07815424 0.024046898 0.07997649 -0.060397085 -0.023447484 0.083836704
0.07478856 -0.037489954 0.12797341 -0.040188797 0.090199985 0.034050852 -0.09347912 -0.044082724
-0.09473335 -0.033722643 0.1261768 -0.07431545 0.0010546566 0.032630753 0.07509655 0.038942385
0.034102485 -0.056403473 -0.03251567 -0.042884994 -0.07576017 -0.033206586 -0.020777542 0.06479611
0.1384079 0.091485664 -0.06690138 -0.054927934 -0.022516951 -0.00839199 -0.069732636 -0.062056914
0.012586775 -0.04992937 -0.03819242 -0.02934685 0.032125603 -0.031734213 0.06574368 0.035689823
0.053300336 -0.06397431 0.0026107451 0.06713491 0.032167275 -0.05314513 -0.008839903 0.06778647
-0.025838103 -0.00040474138 -0.07059322 -0.09553262 -0.086273424 0.068554126 -0.027109137 0.006781492
0.07188408 -0.07910813 0.009935686 0.069033846 -0.028670259 0.096935764 0.024010932 0.10130352
0.031748723 -0.08980831 -0.054938678 0.07157487 0.013233383 -0.06712416 -0.04648988 -0.07191646
-0.09731077 -0.08693418 0.050051093 -0.088017076 0.06398622 -0.08303568 -0.06082567 -0.083264135

predict.weight f4 [5, 128]
00000000: ef13 acbc a2ac f0bc cfb5 073e 3958 13bd
00000010: 3653 8fbd fb20 c13d 2ee9 d43b 1549 cd3d
00000020: 4bd9 913e 84a5 68bc bb14 b4be 649f 563e
00000030: ef1b 153e e24e 723c cca9 3abd c1d2 073e
00000040: df42 933c c66c bfbc e458 17bb 2512 b53d
00000050: 6730 8fbd 9027 8d3d 9aed 223e f0ec fd3b
00000060: 532f c73d f4e1 973d c009 95bd b216 aebd
00000070: 15e0 093d 3835 48bc 3bbe 143e a42d 99bc
00000080: 0e86 2bbd b489 1d3e f493 153d 6d22 a1bc
00000090: e66f 8fbd 8753 9a3c e312 cb3c 917b 4c3d
000000a0: 4d52 a8bd 0744 5dbd d95d cabb 150e fd3c
000000b0: 6a9b 383d 6e20 85be bead e33d 9828 1b3e
000000c0: c7c3 973d c0c9 a23d e7b3 6d3e 2a4c 123e
000000d0: 1281 503c a395 f0bc 8125 863e 2d68 173e
000000e0: e05d 4e3e e0c6 b8bc 5d8c 343e f04f a63d
000000f0: 61a1 413c 2654 3bbe 844e ca3d 7f65 1e3e
00000100: 1491 ed3c 19c3 30bd 4c19 273d e814 273e
00000110: fffa 12bd 9afe 373d 381b 303e c891 f43d
00000120: 9102 543d ac6c 14ba a3ed 193e 524f a1bd
00000130: b675 973d 43bd 0a3d 7268 fabb e73c 17bd
00000140: a00b 073e a9d1 2fbd 9901 423d 5ad4 503d
00000150: a25e 94bd ff15 5cbd 0720 08bd e952 483e
00000160: 8116 fb3c 3c15 9cbc a915 273c 29f9 8dbd
00000170: 9592 be3d 53ba 95bd 9c0d 33be 65f3 3cbd
00000180: b64f 093e a0bd 573d e824 6f3d 249f 013d
00000190: a822 d9bc 1056 9dbe 5d36 eb3c 58a0 2a3e
000001a0: 425e 6a3d e990 2a3e 55cf f8bc be06 7a3d
000001b0: e1da fc3c f06c 943d 2244 85bc 801f 043e
000001c0: 6f2e 133e 9b14 893c ccae 9abc 533b 5b3d
000001d0: 8026 2bbc 1610 9dbd 3b60 bebc f855 0f3d
000001e0: 81f0 ad3d a5ee e7bc cd9e 0abd 82b2 edbb
000001f0: 6d8d 9bb9 8126 13bc f4bd 00bd 5d12 98bd
00000200: f6e6 afbd ee2e c9bd 53d0 4d3d fd51 093d
00000210: 336e 2cbc c008 4a3d f473 803d 9834 ed3d
00000220: b6bb ddbc 7587 b83d 6e25 73be 8168 c13d
00000230: 6909 af3c d601 fa3d 5107 9abc 3ca5 033e
00000240: 2cfd 033e 534c 83bd fb14 0a3d 9671 66bc
00000250: c60f 953d 3199 b03d 848d 843d 40ee 86bd
00000260: cb49 093f 13e5 1f3b a274 573a 8ae0 0dbb
00000270: 1c02 be3d 5fc3 69bc 1fb8 fe3c 83f0 093e
00000280: 63d5 9bbd cc96 153e bed9 073d 1fd2 413d
00000290: a9f6 0fbd fb97 2a3e cfb5 f93c 9504 3cbd
000002a0: 0023 90bd 4670 86bd 0705 153d a1c3 8a3c
000002b0: 1d92 92bc 46c3 74bd 80a2 273e ecec 023e
000002c0: 45d0 fd3d 9f34 c53d 6790 a53e 6ae1 b13d
000002d0: b8b6 da3d 019f 773d bc54 103e 5de1 c23d
000002e0: 565b 633e 8437 84bd 7e39 bebd d804 97bc
000002f0: 4ed3 69bd 770e 253d e522 053d 4d4d a9bc
00000300: 2b68 023d 600b a93d 961a 653d c14b 8b3c
00000310: eed5 98bd 8c8b 5abd 0429 183e a9a8 1a3e
00000320: 347d fb3d 0d06 633b 4026 923d 1c70 0bbd
00000330: 557b 52bb 1f8c 113d 3d8b a6bc 7eab 803d
00000340: a3d1 203d 8592 a7bb 2d89 cf38 bc60 0b3e
00000350: 69a6 dfbc 20dc 763d 0a90 a1bb dda5 10bd
00000360: a89e 423c 3e5b 97bd 78e1 973d ec75 6a3c
00000370: 3340 913d d532 9e3d 2e31 923e c1bb ee3c
00000380: 1344 843d 17c5 1b3e c610 d63a c420 253e
00000390: 34b1 8d3d c8b9 883e 3757 29bc be98 da3d
000003a0: 2946 fc3d f267 f13d 562c 07bc d988 dbba
000003b0: 9997 8fbd 8f08 f03d bbba 33bd d841 e63d
000003c0: b26a 863d 4f44 a1bd 832c 3c3d 18ba 203d
000003d0: 76c7 2a3d ec1b d43c ed9f 37bb 7a67 a5bc
000003e0: 23e9 a73d f249 2b3c b67f 1a3e fd9e 94bd
000003f0: 8c97 b33d cfcf 923d fe25 c13d d436 b4bd
-0.021005599 -0.029379193 0.13252948 -0.035972808 -0.06998293 0.09430119 0.0064975237 0.10023705
0.28486094 -0.014199618 -0.35172066 0.2095924 0.14561437 0.014789315 -0.045572087 0.1326399
0.017976223 -0.023367297 -0.0023093754 0.088413514 -0.06991654 0.068923116 0.1591095 0.0077491924
0.09725823 0.07416144 -0.0727725 -0.085004225 0.033660967 -0.01221972 0.14525692 -0.018698521
-0.04187589 0.15384561 0.036518052 -0.019669736 -0.07003765 0.018838657 0.02478928 0.04992253
-0.08218823 -0.054019954 -0.0061757383 0.030890504 0.04507009 -0.26001304 0.11117123 0.15152204
0.074103884 0.07948637 0.23213159 0.14286867 0.012726085 -0.029368227 0.26200488 0.14785834
0.20152998 -0.022555768 0.1763167 0.081207156 0.011818261 -0.18293819 0.09878257 0.15468405
0.028999843 -0.04315481 0.04079561 0.16316569 -0.0358839 0.04492054 0.17197883 0.11941868
0.05176026 -0.00056619453 0.15032057 -0.07876457 0.073954985 0.0338719 -0.0076418454 -0.036923315
0.13188028 -0.042924557 0.047364805 0.050983764 -0.07244612 -0.053731915 -0.03323367 0.19562878
0.03065038 -0.019053094 0.010198035 -0.06932289 0.09305302 -0.07310929 -0.1748566 -0.046130557
0.13409314 0.052671075 0.058384806 0.03164591 -0.026505783 -0.30729723 0.028712446 0.16662729
0.057218798 0.16656841 -0.030372301 0.061041586 0.030866088 0.07247341 -0.01626784 0.12902641
0.14373182 0.016733458 -0.018882178 0.053523373 -0.010446191 -0.07669084 -0.023239246 0.034994096
0.08493138 -0.028312037 -0.03384285 -0.007253946 -0.00029669274 -0.008981348 -0.031431153 -0.074253775
-0.08588974 -0.09823404 0.0502475 0.033525456 -0.01052432 0.04932475 0.06272116 0.11582297
-0.027067047 0.090102114 -0.23744747 0.09443761 0.021366792 0.122073814 -0.018802317 0.12856
0.12889546 -0.06411042 0.033711415 -0.014065167 0.07278399 0.08622969 0.064723045 -0.06588411
0.53628224 0.0024398013 0.0008218979 -0.0021648728 0.09277746 -0.0142677715 0.031093655 0.13470654
-0.0760906 0.14608306 0.03316664 0.047319528 -0.035147343 0.16659538 0.0304822 -0.045902807
-0.07037926 -0.06564383 0.036381748 0.016938986 -0.017891938 -0.05975654 0.16370583 0.12785691
0.1239324 0.09629177 0.32336733 0.086855724 0.10679382 0.060454372 0.14094824 0.09515641
0.2220281 -0.06455901 -0.092883095 -0.018434927 -0.05708628 0.040296998 0.03250398 -0.020666743
0.031837624 0.08254123 0.055933557 0.017003896 -0.07462679 -0.05335574 0.14859396 0.15103401
0.1227974 0.0034641058 0.07136202 -0.034042463 -0.0032116969 0.03553402 -0.020330066 0.062827095
0.039262425 -0.005113902 9.89608e-05 0.1361112 -0.02730103 0.06026852 -0.004930501 -0.03531443
0.011878647 -0.0739045 0.074160516 0.014310341 0.07092323 0.07724539 0.28553146 0.029142262
0.064582966 0.15211903 0.0016331903 0.1612578 0.069185644 0.2670424 -0.010335735 0.106736645
0.123180695 0.11787404 -0.008250317 -0.0016749158 -0.07011337 0.117203824 -0.043879252 0.112430274
0.06563319 -0.07874357 0.045940887 0.039239973 0.041694127 0.02589222 -0.0028018907 -0.020190943
0.08198764 0.010454642 0.1508778 -0.07256887 0.0876914 0.071685426 0.094310746 -0.0879952

predict.bias f4 [5]
00000000: 093d 5abc ef88 783c cb87 27bd 6d55 03bd
00000010: ca5d 443c
-0.013320216 0.015169366 -0.040900987 -0.03206389 0.011985252

exp_avg f4 [128, 25]
00000000: 7700 1902 7700 1902 beda 1202 e0d8 1b02
00000010: b0af 1d82 7700 1902 29e2 1102 ff43 1202
00000020: d1b4 1382 b0af 1d02 7700 1902 7649 1302
00000030: beda 1282 1f54 1082 b0af 1d02 7700 1902
00000040: 2fed 1202 e876 1b02 9c61 1682 b0af 1d02
00000050: 7700 1902 a7fd 1202 e876 1b02 047d 1382
00000060: b0af 1d02 0000 0000 0000 0000 0000 0000
00000070: 0000 0000 0000 0000 0000 0000 0000 0000
00000080: 0000 0000 0000 0000 0000 0000 0000 0000
00000090: 0000 0000 0000 0000 0000 0000 0000 0000
000000a0: 0000 0000 0000 0000 0000 0000 0000 0000
000000b0: 0000 0000 0000 0000 0000 0000 0000 0000
000000c0: 0000 0000 0000 0000 7027 7d3c 5ecd 4b3c
000000d0: e079 6c3b a2a5 043c 8824 1cb8 7027 7d3c
000000e0: 20e5 313b b79e b53b 7cad 5dbb f6a3 9139
000000f0: 7027 7d3c 28da 7e3a f1ea 893c c38d 83bb
00000100: f032 e4b9 7027 7d3c 1045 1e3b f012 383a
00000110: 3559 a4bb ba0e 05b9 7027 7d3c 1073 053c
00000120: 3a0d 413c b2c0 2abb 9a90 bfb8 1ef7 83bc
00000130: 60c7 acbc e0e3 2fba 40ea 71b9 68d7 78b6
00000140: 1ef7 83bc 8061 553a 09a6 2b3c 8a11 78bb
00000150: a300 d0b8 1ef7 83bc 90c7 d6b9 a28d 763b
00000160: ccb4 38bb 6c14 b5b9 1ef7 83bc 1ca2 0abb
00000170: fe99 39bb 9637 41bb 761c c2b8 1ef7 83bc
00000180: 88eb 07bb 743c a93b c0bf 10bb 7e69 26b9
00000190: 3089 983c 1484 8c3c dd4f 983b d0ef df3b
000001a0: 30f4 e0b6 3089 983c 5860 133b 1967 8e3b
000001b0: 78c6 ffba cbd3 05b9 3089 983c 26fe a93a
000001c0: 1165 373c 6a51 11bb f0a4 35b9 3089 983c
000001d0: e911 613b b80c 04ba 361a 23bb f85c 6a37
000001e0: 3089 983c b98f fd3b 9824 e13b 1222 b4ba
000001f0: d1ba b3b7 a5ce 333c 4eeb 233c 185c 0d3b
00000200: 1361 813b 80ce c2b7 a5ce 333c 8026 cb3a
00000210: e3f4 3d3b dc7e 78ba 64c8 42b8 a5ce 333c
00000220: ccb8 1f3a 292b 143c 92f5 b0ba a692 87b8
00000230: a5ce 333c fc67 eb3a d4e1 eaba f6bd b5ba
00000240: 856d 3d38 a5ce 333c 914d a23b 219c ae3b
00000250: ac7b 0cba 1e36 c335 0000 0000 0000 0000
00000260: 0000 0000 0000 0000 0000 0000 0000 0000
00000270: 0000 0000 0000 0000 0000 0000 0000 0000
00000280: 0000 0000 0000 0000 0000 0000 0000 0000
00000290: 0000 0000 0000 0000 0000 0000 0000 0000
000002a0: 0000 0000 0000 0000 0000 0000 0000 0000
000002b0: 0000 0000 0000 0000 0000 0000 1836 e63b
000002c0: 4a5d bb3b 1cdc e03a dd26 6d3b ef86 04b8
000002d0: 1836 e63b 1cb2 953a c34b 503b a2b7 e1ba
000002e0: cca4 e5b6 1836 e63b 2c7f 043a 083b bc3b
000002f0: 52bd d6ba d6fe 25b9 1836 e63b fa24 903a
00000300: 0076 7db7 041c 08bb 3fba 9eb8 1836 e63b
00000310: e23c 623b f467 c53b 8cb2 a9ba 5422 b6b7
00000320: b8a2 c53b ce58 9f3b 60c9 35b9 cc89 423b
00000330: 0076 73b8 b8a2 c53b 9582 6f3a 8a36 5a3b
00000340: 7df6 a2ba ec49 ce36 b8a2 c53b d0cf 8039
00000350: b125 173c 7d54 b8ba 78ae eab8 b8a2 c53b
00000360: c88c 223a f57a 3abb f83e d2ba f87a 3738
00000370: b8a2 c53b c7a6 603b fe4f ed3b 27d8 2bba
00000380: c4cc d637 0c96 913c 8fe3 833c 80a4 c43a
00000390: 996c d13b 5b46 04b8 0c96 913c ca52 203b
000003a0: 2869 a93b 4dbe d4ba 48a9 06b9 0c96 913c
000003b0: 7e67 933a 8c0d 993c 93aa 04bb 7c90 44b9
000003c0: 0c96 913c 98bb 373b 804c 61ba a5c1 17bb
000003d0: f981 aa38 0c96 913c a041 043c bdb0 363c
000003e0: ae57 47ba f0b3 9f36 dcc7 d9bb bcc8 98bb
000003f0: 9095 3abc c5bd d1bb 548f c0b8 dcc7 d9bb
1.1240798e-37 1.1240798e-37 1.0789162e-37 1.1449842e-37 -1.1584958e-37 1.1240798e-37 1.0717822e-37 1.07459e-37
-1.0851746e-37 1.1584958e-37 1.1240798e-37 1.0820937e-37 -1.0789162e-37 -1.0603591e-37 1.1584958e-37 1.1240798e-37
1.0794454e-37 1.1421726e-37 -1.1048272e-37 1.1584958e-37 1.1240798e-37 1.0799181e-37 1.1421726e-37 -1.0835732e-37
1.1584958e-37 0.0 0.0 0.0 0.0 0.0 0.0 0.0
0.0 0.0 0.0 0.0 0.0 0.0 0.0 0.0
0.0 0.0 0.0 0.0 0.0 0.0 0.0 0.0
0.0 0.0 0.015451297 0.0124391 0.0036083385 0.008096131 -3.722732e-05 0.015451297
0.0027144626 0.005542602 -0.0033825329 0.00027778716 0.015451297 0.0009721839 0.016835662 -0.004014702
-0.000435255 0.015451297 0.0024150051 0.0007021865 -0.005015517 -0.00012689354 0.015451297 0.008145109
0.011782939 -0.0026054797 -9.134524e-05 -0.016109046 -0.021091163 -0.0006709676 -0.00023070816 -3.7080263e-06
-0.016109046 0.0008139834 0.010476598 -0.003785225 -9.9183315e-05 -0.016109046 -0.00040965946 0.003762104
-0.0028183935 -0.00034538226 -0.016109046 -0.0021153754 -0.0028320546 -0.0029482595 -9.255942e-05 -0.016109046
-0.0020739753 0.0051646773 -0.0022086948 -0.00015870293 0.018620104 0.017152824 0.0046481923 0.006834008
-6.7041474e-06 0.018620104 0.0022487845 0.0043457863 -0.0019514104 -0.00012762767 0.018620104 0.0012969419
0.01119353 -0.002217377 -0.00017322949 0.018620104 0.003434295 -0.00050372956 -0.002488745 1.3969133e-05
0.018620104 0.0077380803 0.0068708174 -0.0013743064 -2.1425456e-05 0.010974561 0.0100048315 0.0021569785
0.0039483397 -2.3222761e-05 0.010974561 0.0015499145 0.0028985075 -0.0009479353 -4.6439833e-05 0.010974561
0.00060929055 0.009043493 -0.001350092 -6.464617e-05 0.010974561 0.0017960067 -0.0017920085 -0.0013865817
4.516311e-05 0.010974561 0.0049530943 0.0053286706 -0.0005359005 1.4544382e-06 0.0 0.0
0.0 0.0 0.0 0.0 0.0 0.0 0.0 0.0
0.0 0.0 0.0 0.0 0.0 0.0 0.0 0.0
0.0 0.0 0.0 0.0 0.0 0.0 0.0 0.0070254914
0.005717908 0.0017155441 0.0036186494 -3.159692e-05 0.0070254914 0.0011420879 0.0031783439 -0.0017220865
-6.8439167e-06 0.0070254914 0.00050543505 0.0057443418 -0.0016383326 -0.0001583056 0.0070254914 0.0010997348
-1.5107449e-05 -0.0020768652 -7.568718e-05 0.0070254914 0.0034521152 0.006024355 -0.0012946888 -2.1712076e-05
0.0060313605 0.0048628813 -0.00017336523 0.0029684184 -5.804561e-05 0.0060313605 0.00091365847 0.0033296668
-0.0012433078 6.147884e-06 0.0060313605 0.00024568895 0.009225295 -0.0014063265 -0.00011190487 0.0060313605
0.00062007876 -0.0028454636 -0.0016040495 4.3745124e-05 0.0060313605 0.0034279095 0.007242202 -0.00065553415
2.560614e-05 0.017771743 0.01609972 0.0015002638 0.0063911197 -3.1536776e-05 0.017771743 0.0024463409
0.0051700063 -0.001623103 -0.00012842298 0.017771743 0.0011246053 0.018683217 -0.0020243272 -0.00018745841
0.017771743 0.0028035399 -0.0008594468 -0.0023156193 8.130441e-05 0.017771743 0.008072287 0.011150536
-0.0007604313 4.7595167e-06 -0.0066461395 -0.0046626013 -0.011388198 -0.006400796 -9.1819704e-05 -0.0066461395

exp_avg_sq f4 [128, 25]
00000000: 7e15 9929 7e15 9929 e1e0 3218 7a3d fa27
00000010: 0ffe 6817 7e15 9929 b56a cf24 9828 0828
00000020: 57fc 7625 0ffe 6817 7e15 9929 c290 cc26
00000030: 4b04 f321 40af b325 0ffe 6817 7e15 9929
00000040: c26b 6c27 6e12 0829 7bdf 8b26 0ffe 6817
00000050: 7e15 9929 98a9 2928 6e12 0829 64a4 bb25
00000060: 0ffe 6817 0000 0000 0000 0000 0000 0000
00000070: 0000 0000 0000 0000 0000 0000 0000 0000
00000080: 0000 0000 0000 0000 0000 0000 0000 0000
00000090: 0000 0000 0000 0000 0000 0000 0000 0000
000000a0: 0000 0000 0000 0000 0000 0000 0000 0000
000000b0: 0000 0000 0000 0000 0000 0000 0000 0000
000000c0: 0000 0000 0000 0000 9c0a cb3c 3173 c63c
000000d0: c173 963b a22b 1d3b f3fc 2235 9c0a cb3c
000000e0: a67b a438 9682 3f3b 5028 1b39 13b9 1436
000000f0: 9c0a cb3c 002c 1d3a 2017 503b 6a4c 0d39
00000100: 4574 0f36 9c0a cb3c 2bf1 e93a a304 403b
00000110: a701 1739 eeac 9635 9c0a cb3c 5d0e 763b
00000120: 0103 1e3b c6e2 1839 c343 8335 84a2 e43c
00000130: 237a df3c 363a d43b 8037 2e3b ff4b 4335
00000140: 84a2 e43c 75ce cc38 4c3e 3a3b 0a50 2939
00000150: 40d1 1636 84a2 e43c 5bfb 3e3a eec2 a93b
00000160: 2d1f 1639 046b 2836 84a2 e43c f604 0d3b
00000170: 2c7f 403b 5c6a 2739 9132 fa35 84a2 e43c
00000180: 09a7 923b b8fc 313b 2aae 2d39 192b d535
00000190: 9f67 ba3b c970 b53b 4446 9b3a 23cc 133a
000001a0: a96c 1234 9f67 ba3b cbce ac37 5b79 1a3a
000001b0: 2c3d 1838 b6b6 3535 9f67 ba3b 358f 0a39
000001c0: 57c3 353a edcc 0f38 174e 0b35 9f67 ba3b
000001d0: 8352 d739 a0e8 1f3a bc3d 1038 2982 8134
000001e0: 9f67 ba3b a21a 623a 8a29 0b3a bd2f 1638
000001f0: 1fbf 6c34 6df1 593b 245b 543b 2398 283a
00000200: bf94 ae39 bca4 ad33 6df1 593b adb7 4337
00000210: 329a bc39 7345 b837 022c c634 6df1 593b
00000220: 6d88 9d38 606b d139 2f9e af37 ecae 9434
00000230: 6df1 593b c5a9 7639 bfcc bc39 b7da ae37
00000240: bd0c 1434 6df1 593b ca22 023a 923f a539
00000250: 1b15 b637 9241 0134 0000 0000 0000 0000
00000260: 0000 0000 0000 0000 0000 0000 0000 0000
00000270: 0000 0000 0000 0000 0000 0000 0000 0000
00000280: 0000 0000 0000 0000 0000 0000 0000 0000
00000290: 0000 0000 0000 0000 0000 0000 0000 0000
000002a0: 0000 0000 0000 0000 0000 0000 0000 0000
000002b0: 0000 0000 0000 0000 0000 0000 f126 a13b
000002c0: 926f 9d3b 190c 783a e3a9 fc39 7ace 0334
000002d0: f126 a13b afae 8337 4ed6 153a 4115 0038
000002e0: 0f27 0335 f126 a13b 6ea4 f538 30db 263a
000002f0: ccc0 e837 3639 fe34 f126 a13b 6c92 b839
00000300: 2338 163a 1ec8 f837 6174 6834 f126 a13b
00000310: a46f 423a 7b7c f739 0500 fd37 7318 4e34
00000320: 7cf3 823b a484 7f3b 7726 5e3a 5831 cc39
00000330: 6d32 db33 7cf3 823b d3f7 5c37 065b ef39
00000340: ece4 c137 fb17 f634 7cf3 823b 76ba c338
00000350: 2b7e 073a fac7 bd37 65b4 e834 7cf3 823b
00000360: d00f 9739 f93f df39 f6a5 ba37 7ffb 1b34
00000370: 7cf3 823b 3792 1e3a 649d c539 4f44 bd37
00000380: d509 1234 b076 0c3c 15eb 083c cfdb f23a
00000390: f7a4 5f3a e88b 5d34 b076 0c3c 9082 fb37
000003a0: c464 723a bef1 6338 a9f6 8e35 b076 0c3c
000003b0: 9c68 4a39 e00a 8e3a a361 6138 ba99 5235
000003c0: b076 0c3c 77b0 1f3a b98f 713a 54d0 5638
000003d0: 1ba6 b634 b076 0c3c d48e a83a 520f 523a
000003e0: 1df6 5e38 7398 a234 2f49 ce3c f565 cb3c
000003f0: a0eb 1a3b 8ddf 203b d088 7d35 2f49 ce3c
6.798293e-14 6.798293e-14 2.3119496e-24 6.945559e-15 7.528391e-25 6.798293e-14 8.995271e-17 7.558319e-15
2.1422595e-16 7.528391e-25 6.798293e-14 1.419458e-15 1.6467457e-18 3.1170304e-16 7.528391e-25 6.798293e-14
3.2809995e-15 3.021405e-14 9.705637e-16 7.528391e-25 6.798293e-14 9.418159e-15 3.021405e-14 3.2550724e-16
7.528391e-25 0.0 0.0 0.0 0.0 0.0 0.0 0.0
0.0 0.0 0.0 0.0 0.0 0.0 0.0 0.0
0.0 0.0 0.0 0.0 0.0 0.0 0.0 0.0
0.0 0.0 0.024785332 0.02422485 0.0045914357 0.0023982306 6.071779e-07 0.024785332
7.843161e-05 0.0029222122 0.0001479697 2.2161446e-06 0.024785332 0.0005995631 0.0031752065 0.00013475274
2.1376338e-06 0.024785332 0.0017848363 0.0029299639 0.00014401098 1.12262e-06 0.024785332 0.0037545182
0.0024110677 0.0001458033 9.779982e-07 0.027909525 0.027279919 0.006476666 0.0026583374 7.275375e-07
0.027909525 9.765934e-05 0.002841848 0.00016146913 2.2473541e-06 0.027909525 0.00072853797 0.005180708
0.00014316729 2.5096242e-06 0.027909525 0.002151785 0.0029372675 0.00015965983 1.8641168e-06 0.027909525
0.0044754785 0.0027158689 0.00016563447 1.588228e-06 0.005688622 0.0055371267 0.0011846502 0.0005638024
1.363684e-07 0.005688622 2.0600293e-05 0.0005892717 3.6296595e-05 6.7693634e-07 0.005688622 0.00013214054
0.000693371 3.428471e-05 5.189517e-07 0.005688622 0.00041069472 0.00061000325 3.438977e-05 2.4122826e-07
0.005688622 0.00086251844 0.0005308619 3.5807247e-05 2.2048742e-07 0.0033255473 0.0032402957 0.00064313615
0.0003329869 8.085905e-08 0.0033255473 1.1665671e-05 0.0003597304 2.1966849e-05 3.6912394e-07 0.0033255473
7.511755e-05 0.00039943587 2.0935286e-05 2.769442e-07 0.0033255473 0.00023523632 0.00036010702 2.0844263e-05
1.3788208e-07 0.0033255473 0.00049642904 0.00031518616 2.1705919e-05 1.2037916e-07 0.0 0.0
0.0 0.0 0.0 0.0 0.0 0.0 0.0 0.0
0.0 0.0 0.0 0.0 0.0 0.0 0.0 0.0
0.0 0.0 0.0 0.0 0.0 0.0 0.0 0.0049179723
0.00480456 0.0009462252 0.0004819176 1.2275441e-07 0.0049179723 1.569776e-05 0.0005715833 3.0537372e-05
4.885814e-07 0.0049179723 0.00011713138 0.0006365059 2.7746333e-05 4.7352813e-07 0.0049179723 0.00035204308
0.0005730411 2.965709e-05 2.1649022e-07 0.0049179723 0.00074171484 0.00047204256 3.015996e-05 1.919414e-07
0.0039963108 0.0038988972 0.00084743596 0.00038946676 1.02071546e-07 0.0039963108 1.3170723e-05 0.0004565345
2.3113993e-05 4.583852e-07 0.0039963108 9.333056e-05 0.0005168642 2.2623677e-05 4.3344622e-07 0.0039963108
0.00028812746 0.00042581538 2.225021e-05 1.4526994e-07 0.0039963108 0.00060490094 0.00037692033 2.2562364e-05
1.3600886e-07 0.008573219 0.008356829 0.0018528643 0.00085313566 2.0633126e-07 0.008573219 2.998233e-05
0.00092465826 5.4346157e-05 1.0651612e-06 0.008573219 0.00019303191 0.0010836981 5.373511e-05 7.84548e-07
0.008573219 0.0006091664 0.0009214837 5.1215597e-05 3.4021e-07 0.008573219 0.0012859949 0.0008013147
5.3158135e-05 3.0285773e-07 0.025181381 0.02482889 0.0023638979 0.002454731 9.4448933e-07 0.025181381

exp_avg f4 [128]
00000000: 7700 1902 0000 0000 6c27 7d3c 22f7 83bc
00000010: 3089 983c a6ce 333c 0000 0000 0836 e63b
00000020: c6a2 c53b 1396 913c e8c7 d9bb f6a8 833c
00000030: 31f0 f4bc b4a6 b83c 2777 1d02 16f1 693c
00000040: e661 8c3c 614d 413c 0000 0000 60b8 d8bb
00000050: e7b1 fa3c 0000 0000 8615 ad3c 2aef 563c
00000060: a0ad 17bd 1fe2 083c 0000 0000 5ce8 6e3c
00000070: 8a44 5b3c 34a5 153c 604f 23bc e325 1202
00000080: a1c3 243c 0000 0000 0000 0000 681c c8bc
00000090: 36d6 e73b 4ece 733c 531f 1a02 5a25 9e3d
000000a0: 0c35 e83b 81bf 19bc d6b5 f53c 0000 0000
000000b0: 7e57 303d 1568 1502 6422 05bb 0000 0000
000000c0: 1253 ab3b 579a ca3c 714f 9d27 784d 19bd
000000d0: 38d9 623c 0000 0000 6c36 943c 5cc0 acbb
000000e0: e676 7fbd d848 ef3c 20b8 f83a e40e f8bc
000000f0: f4d0 d23c 7370 2cbd 0000 0000 6162 a93c
00000100: c130 da3d 8095 bc39 580c f63b 4e2c b93c
00000110: acf7 db3b 40d8 cc3b cd92 1502 e930 7fbd
00000120: 0a5c 89bc 16b4 123c 5bcc 253c 0000 0000
00000130: 8052 49ba b6e6 883c dd38 473c 0000 0000
00000140: 0000 0000 a203 7b3c 0847 0a3c 0000 0000
00000150: cddc 483c 1607 9c3c 1506 5c3c 0000 0000
00000160: 006f 72ba 833b 1d3c 2002 0b3c 7447 1202
00000170: a8d6 993b 0000 0000 f0e9 1e3b 7a54 1f3c
00000180: 5cd1 0a3b 90a8 1a02 c1a1 5d3c 0000 0000
00000190: fa85 cabc 8db1 d1bd 020a 3c3c 66df 913b
000001a0: c893 bdbb d8e8 1ebc 6657 a0bb 9828 383d
000001b0: 0000 0000 0000 0000 ba24 1a3d 2af7 163d
000001c0: fa9a 7dbc 6444 2a3d 1fbc 1202 e44f 9c3c
000001d0: 0000 0000 3312 f73c 9c17 713c eadf b83b
000001e0: 0e5d 633c 5868 39bc e884 a8bd 0000 0000
000001f0: 3ea0 1302 0000 0000 1498 823c 0000 0000
1.1240798e-37 0.0 0.015451293 -0.016109053 0.018620104 0.010974562 0.0 0.007025484
0.006031367 0.017771756 -0.006646145 0.016071778 -0.029899688 0.022540428 1.1568733e-37 0.014278671
0.017136525 0.011798234 0.0 -0.006613776 0.030602409 0.0 0.021128427 0.013118545
-0.037030816 0.008354693 0.0 0.014581766 0.01338304 0.009133626 -0.009967655 1.0737259e-37
0.010056407 0.0 0.0 -0.024427608 0.0070750965 0.01488073 1.1323123e-37 0.07721968
0.007086402 -0.009384037 0.029993933 0.0 0.04305219 1.0976661e-37 -0.0020314688 0.0
0.0052284086 0.024731798 4.3662384e-15 -0.037427396 0.013845734 0.0 0.018092357 -0.0052719545
-0.06236925 0.02920954 0.0018975772 -0.030280538 0.025734402 -0.042099427 0.0 0.020676794
0.1065383 0.0003596954 0.0075087957 0.022604134 0.0067128744 0.006251365 1.0988921e-37 -0.062302504
-0.01676752 0.008954069 0.010119523 0.0 -0.0007679835 0.016711574 0.012159553 0.0
0.0 0.01532069 0.008439787 0.0 0.012259674 0.019046348 0.013429184 0.0
-0.00092481077 0.009596708 0.008484393 1.0746892e-37 0.0046947785 0.0 0.0024248324 0.009724731
0.0021181917 1.1362508e-37 0.013527335 0.0 -0.024722088 -0.10238943 0.011476995 0.00445168
-0.005785439 -0.009699069 -0.004893231 0.04496059 0.0 0.0 0.03763268 0.036856808
-0.015478844 0.04156913 1.0780374e-37 0.019081064 0.0 0.030160045 0.014715102 0.005641927
0.013877166 -0.011316381 -0.08228475 0.0 1.0845842e-37 0.0 0.015941657 0.0

exp_avg_sq f4 [128]
00000000: 7e15 9929 0000 0000 9d0a cb3c 83a2 e43c
00000010: a067 ba3b 6ef1 593b 0000 0000 f126 a13b
00000020: 7cf3 823b b076 0c3c 3249 ce3c d939 233b
00000030: ce49 7c3c e870 ec3d a1d6 d430 fda6 1b3c
00000040: fd2e bd3b 4bb2 043c 0000 0000 f76c cf3c
00000050: 537d 5d3c 0000 0000 3298 f93b ec2c 843a
00000060: ad2c ca3d 724e c33a 0000 0000 fb66 c33c
00000070: 6c2b 4f3c 64c4 033c ad0a d63c b170 1030
00000080: 009b 983b 0000 0000 0000 0000 e87c ad3b
00000090: 670f 6d3b 49ab 023b 0a13 e530 dc89 b83c
000000a0: 82c1 5f3b fb0b 2f3c ac48 a33c 0000 0000
000000b0: 6450 163e c642 8c29 e262 953b 0000 0000
000000c0: 54b5 f73a ed0c ae3c 0880 e031 fb57 d83c
000000d0: d85e db3b 0000 0000 b1fc ae3b 6e70 763c
000000e0: e956 b93d 95a8 fc3b a1cb 763c 9105 723b
000000f0: 5850 903c 9226 c13c 0000 0000 117a 813c
00000100: eefa bf3c b9ed ab3b 6de9 3b3d 0572 f33c
00000110: 9e61 8b3c 8d57 953a ecf1 7428 47d5 d63d
00000120: 497a b93c 893d c33b dfbc e83b 0000 0000
00000130: 6f38 fb3c 2bf1 933a 699c 113c 0000 0000
00000140: 0000 0000 c76a 933b 7ce0 b43c 0000 0000
00000150: f3da 2b3c 40a4 bf3a 6658 143b 0000 0000
00000160: f81f e23d 5e88 4f3b cfef 3d3c f1e2 6729
00000170: 3d66 a33b 0000 0000 b2e9 d53c ecc1 613c
00000180: c533 0d3c 7bc2 8429 4842 da3b 0000 0000
00000190: 8114 ce3b 71cc 0a3d fa15 de3a a55f c73b
000001a0: 4072 9c3d 7529 d43c 274d a63a ba46 b93c
000001b0: 0000 0000 0000 0000 ebf2 e13c d7ce 713c
000001c0: 5c71 8e3c 3c0c a33c 86e8 a828 c46b 7c3b
000001d0: 0000 0000 8fe5 463c d9a5 1b3e c3d9 9c3b
000001e0: 6319 293b ade9 a53b 464f 703d 0000 0000
000001f0: 7ea9 db2c 0000 0000 f96c 773d 0000 0000
6.798293e-14 0.0 0.024785334 0.027909523 0.0056886226 0.0033255476 0.0 0.0049179723
0.0039963108 0.008573219 0.025181387 0.0024906306 0.015398456 0.11544973 1.5486031e-09 0.009500262
0.0057734237 0.008099149 0.0 0.025320513 0.013518649 0.0 0.00761702 0.0010084189
0.098718025 0.0014900698 0.0 0.023852816 0.01264463 0.008042429 0.026128137 5.254704e-10
0.0046571493 0.0 0.0 0.005294431 0.003617251 0.001993852 1.6667354e-09 0.022526674
0.003414244 0.010684009 0.019932114 0.0 0.14679104 6.228832e-14 0.004558907 0.0
0.0018898644 0.021246398 6.5338135e-09 0.02640914 0.006694656 0.0 0.0053401818 0.015041454
0.0904978 0.007710526 0.015063197 0.0036929587 0.017616436 0.023577962 0.0 0.015805276
0.023435082 0.0052468446 0.04587691 0.029717455 0.017014321 0.001139389 1.3597179e-14 0.10489898
0.022641318 0.0059582633 0.0071025933 0.0 0.030666558 0.0011287084 0.008887389 0.0
0.0 0.004498813 0.022079699 0.0 0.010489213 0.0014621094 0.0022635697 0.0
0.11041254 0.0031666975 0.011592819 5.1489144e-14 0.004986553 0.0 0.026112411 0.013779145
0.0086183 5.8957146e-14 0.0066607334 0.0 0.0062890653 0.033886377 0.0016943805 0.0060843998
0.07638979 0.025898675 0.0012687788 0.022616733 0.0 0.0 0.027581653 0.014758787
0.017388038 0.019903295 1.8752588e-14 0.0038516382 0.0 0.012139692 0.15199985 0.0047867014
0.0025802485 0.0050632567 0.05866935 0.0 6.2431718e-12 0.0 0.06040666 0.0

exp_avg f4 [128, 128]
00000000: 0000 0000 0000 0000 1a13 1502 0000 0000
00000010: 02fe 1902 b062 1202 0000 0000 9fb7 1d02
00000020: b1bb 1c02 55de 1e02 0000 0000 be1c 1a02
00000030: 0000 0000 0000 0000 0000 0000 6df3 1302
00000040: a582 1002 f339 1e02 0000 0000 9b73 1f02
00000050: 3695 1c02 0000 0000 896d 1102 4ab7 1902
00000060: 0000 0000 8115 1402 0000 0000 e97e 1502
00000070: 0000 0000 9b4c 1002 f009 1502 0000 0000
00000080: 3204 1c02 0000 0000 0000 0000 0478 1f02
00000090: af1c 1102 6b84 1202 0000 0000 0000 0000
000000a0: a1f2 1102 48d3 1402 0000 0000 0000 0000
000000b0: 0000 0000 0000 0000 52c0 1202 0000 0000
000000c0: a861 1402 e308 1a02 0000 0000 0000 0000
000000d0: 788b 1402 0000 0000 9af6 1c02 4265 1802
000000e0: 0000 0000 369b 1202 12cc 1402 9649 1502
000000f0: 8ce3 1c02 0000 0000 0000 0000 0000 0000
00000100: b6af 1302 694e 1702 0000 0000 4f60 1a02
00000110: 7b98 1302 1512 1702 0000 0000 e4b9 1f02
00000120: 0000 0000 9f1a 1302 2a51 1e02 0000 0000
00000130: 2293 1f02 decf 1f02 64ab 1702 0000 0000
00000140: 0000 0000 20c3 1802 8ec4 1702 0000 0000
00000150: b451 1002 1a50 1b02 09e9 1d02 0000 0000
00000160: 0000 0000 6346 1302 9855 1302 0000 0000
00000170: 2652 1a02 0000 0000 7dee 1702 af28 1102
00000180: 0000 0000 0000 0000 514c 1502 0000 0000
00000190: 0000 0000 e9eb 1402 42e7 1f02 8009 1102
000001a0: 0000 0000 0000 0000 0000 0000 0000 0000
000001b0: 0000 0000 0000 0000 0000 0000 39f6 1e02
000001c0: 0000 0000 023b 1502 0000 0000 286f 1402
000001d0: 0000 0000 0000 0000 0000 0000 ba1c 1502
000001e0: 0000 0000 19dd 1102 0000 0000 0000 0000
000001f0: 0000 0000 0000 0000 0000 0000 0000 0000
00000200: 8068 1002 0000 0000 68e4 d739 f862 6a3a
00000210: a44b aebb 0260 11bb 0000 0000 a486 a13a
00000220: 001b eeb8 24f5 ccbb bc31 adba 7652 19bc
00000230: aeff 223a 8379 b43a 0000 0000 9ced c7ba
00000240: be51 3ebb 1cad a1ba 0000 0000 d448 843a
00000250: 325c 9f3a 0000 0000 2934 c7ba 01b9 7dbb
00000260: 2484 17bb 0ae5 a1bb 0000 0000 5aa8 2b3a
00000270: 2866 a7ba 5726 39bb a91b 8f39 5531 1802
00000280: 57c6 23bb 0000 0000 0000 0000 2475 12ba
00000290: b201 8abb 5f75 20bc 35a4 1582 7030 923a
000002a0: c0fa 25ba f0f3 bf3a d14a c7ba 0000 0000
000002b0: 87e2 423b 0000 0000 18db d43a 0000 0000
000002c0: 0a98 d8bb 8800 253b 467a 1b02 8f3a aeba
000002d0: 6e42 beba 0000 0000 7f24 b1bb 202b 78b8
000002e0: 4a8b 8b3a 5983 033b 95d0 963a 809a 01ba
000002f0: 2fd1 9a3a bac1 e939 0000 0000 2643 68bb
00000300: 8708 993a 2668 09bb e6c0 88ba 4d46 063b
00000310: 4ad1 89b9 139d 49bb 74cf 1682 8350 453b
00000320: ecf7 503a 6bed d6ba 45fa 34bb 0000 0000
00000330: fe30 963a 97a5 e9bb 5c35 dbba 0000 0000
00000340: 0000 0000 7e7c 093a 11a6 053a 0000 0000
00000350: e243 32bb 3749 9dbb 323d 9dbb 0000 0000
00000360: b4c1 c53a 52c2 d4bb 32fb b3ba 0000 0000
00000370: b8a4 00b9 0000 0000 2be3 423a 6059 5db8
00000380: a6dc d0ba 0000 0000 442f 29bb 0000 0000
00000390: 6511 6cba fa71 fdba edb3 b9bb 9e7a f039
000003a0: c2b7 ae3a 0055 f037 cddf f73a 9a6a 723a
000003b0: 0000 0000 0000 0000 4702 8b3a e00c b03a
000003c0: 4697 633a 7274 153b 0000 0000 78e4 8abb
000003d0: 0000 0000 7fb0 233a 4a94 db3a 4843 82ba
000003e0: 34e4 c1bb 2213 fe3a 6250 f2ba 0000 0000
000003f0: 5b77 1282 0000 0000 5826 24b9 0000 0000
0.0 0.0 1.0952273e-37 0.0 1.1313561e-37 1.0754708e-37 0.0 1.1587235e-37
1.1514935e-37 1.1671813e-37 0.0 1.1322382e-37 0.0 0.0 0.0 1.0869714e-37
1.0616942e-37 1.1624637e-37 0.0 1.1714652e-37 1.1503891e-37 0.0 1.0684353e-37 1.1293266e-37
0.0 1.0879494e-37 0.0 1.0983213e-37 0.0 1.0601434e-37 1.0949643e-37 0.0
1.1462274e-37 0.0 0.0 1.1715918e-37 1.0661149e-37 1.0764388e-37 0.0 0.0
1.0722549e-37 1.0933957e-37 0.0 0.0 0.0 0.0 1.0781579e-37 0.0
1.0901349e-37 1.1316683e-37 0.0 0.0 1.0913348e-37 0.0 1.1531841e-37 1.1196256e-37
0.0 1.0770929e-37 1.0931888e-37 1.0967909e-37 1.1526373e-37 0.0 0.0 0.0
1.0850281e-37 1.111623e-37 0.0 1.1341772e-37 1.0843614e-37 1.1098917e-37 0.0 1.1734823e-37
0.0 1.0807494e-37 1.16313e-37 0.0 1.17237e-37 1.174113e-37 1.1142915e-37 0.0
0.0 1.1223194e-37 1.1150136e-37 0.0 1.0602897e-37 1.141059e-37 1.1601416e-37 0.0
0.0 1.0820054e-37 1.0824419e-37 0.0 1.1337709e-37 0.0 1.1162171e-37 1.0664593e-37
0.0 0.0 1.0968693e-37 0.0 0.0 1.0941026e-37 1.1747843e-37 1.0655644e-37
0.0 0.0 0.0 0.0 0.0 0.0 0.0 1.1678669e-37
0.0 1.0963726e-37 0.0 1.0905223e-37 0.0 0.0 0.0 1.0955035e-37
0.0 1.071637e-37 0.0 0.0 0.0 0.0 0.0 0.0
1.0609439e-37 0.0 0.00041178172 0.0008941139 -0.0053190757 -0.002218247 0.0 0.0012323451
-0.000113537535 -0.006254809 -0.0013213675 -0.009358039 0.0006217909 0.0013769123 0.0 -0.0015253308
-0.0029040421 -0.0012334916 0.0 0.0010092505 0.0012158214 0.0 -0.001519804 -0.0038715007
-0.0023119533 -0.0049406337 0.0 0.00065482187 -0.0012771534 -0.0028251612 0.00027295694 1.1181354e-37
-0.0024990046 0.0 0.0 -0.00055869133 -0.004211628 -0.009793608 -1.0993916e-37 0.0011153352
-0.0006331615 0.0014644843 -0.0015204792 0.0 0.0029737072 0.0 0.0016239611 0.0
-0.0066099213 0.0025177319 1.1422692e-37 -0.0013292598 -0.0014515647 0.0 -0.005405962 -5.916797e-05
0.001064637 0.0020067303 0.0011506254 -0.0004943982 0.0011811609 0.0004458556 0.0 -0.0035440414
0.0011675515 -0.0020966618 -0.0010433465 0.002048868 -0.0002628661 -0.003076379 -1.1079796e-37 0.0030107803
0.00079715136 -0.001639766 -0.0027614993 0.0 0.0011458693 -0.0071303356 -0.0016724276 0.0
0.0 0.0005244686 0.0005098293 0.0 -0.0027201106 -0.0047999877 -0.004798555 0.0
0.0015087635 -0.0064928913 -0.0013731478 0.0 -0.00012268394 0.0 0.00074343634 -5.2773743e-05
-0.0015934899 0.0 -0.0025815526 0.0 -0.00090052775 -0.0019336336 -0.005667201 0.00045867724
0.001332991 2.864981e-05 0.0018911302 0.0009247452 0.0 0.0 0.0010605537 0.0013431571
0.00086819043 0.0022805003 0.0 -0.0042386614 0.0 0.00062442565 0.0016752568 -0.0009938264
-0.0059170965 0.0019384364 -0.0018487091 0.0 -1.0760639e-37 0.0 -0.00015654543 0.0
