highway_ddqn/ddqn1/checkpoint-125.tar (torch, 253330 bytes, 18 tensors)

layers.0.weight f4 [128, 25]
-0.030400166 -0.0048274216 -0.08082945 0.119448334 0.032265503 0.11630925 -0.035765186 -0.015580088
-0.09622052 -0.0182176 -0.100119434 -0.18224908 -0.12346191 0.20564145 -0.02090508 -0.17844485
-0.17836548 0.1344022 0.08417648 -0.11697366 0.059605736 0.06505543 0.14171672 0.13146868
-0.1242774 0.046705913 0.14631982 0.0007103205 0.059832957 0.14225483 -0.10286386 -0.07721853
-0.035303902 -0.18879643 -0.050998617 0.046757724 -0.04820421 -0.15129109 -0.11315322 0.19435461
-0.15813474 0.116305254 -0.09194081 -0.0029668093 -0.1314851 -0.115501665 -0.19253464 0.18506558
-0.11018689 -0.07506964 0.11125499 -0.09675325 -0.11386004 0.094224274 -0.13335234 0.20742236
0.1621341 -0.14883052 0.29395017 -0.045258507 0.0872836 0.31035194 0.23966248 0.23620337
0.13653007 -0.052552428 0.28252298 0.15228295 0.30643803 0.07580827 -0.1536948 0.08847506
0.067755505 0.30605713 6.558576e-05 0.04249174 0.023605362 0.21489649 0.19208685 0.1629957
-0.114802614 0.52369875 -0.48589438 0.128571 -0.25249204 0.049479082 0.019988654 0.26323214
0.06356854 -0.24202149 0.20914792 0.16530173 0.074005574 0.17043453 -0.3074296 -0.15450792
-0.019623425 -0.24009684 0.23917593 -0.007081276 0.18456821 0.08094264 0.17066641 -0.07206411
-0.13668458 -0.056561526 0.109602585 -0.2540226 0.14201747 0.06282411 0.068409726 0.25154006
-0.06817765 0.31946418 0.045852084 0.20156698 0.24539246 -0.14706512 -0.03199818 -0.105839826
0.21527089 0.15962046 0.17798093 0.14484948 0.16555619 0.015199755 -0.016681498 0.07066859
0.048645478 0.0634067 0.09640997 0.17135927 -0.11411671 0.059379246 -0.070813425 -0.033280104
0.0730422 0.17356928 0.25122866 -0.14424747 0.13812335 0.15744293 0.038501885 0.28796014
-0.21203811 0.15782161 -0.014971554 -0.17799173 0.2610878 0.19042754 -0.1410832 -0.10505626
0.18195556 0.14365728 -0.13175288 -0.06647205 0.025312353 -0.118118905 0.17125379 0.14700405
-0.095615484 0.18362139 -0.010267901 -0.12000685 0.0018893004 -0.059878852 0.19787906 0.06981142
-0.11354794 -0.15071249 -0.08785679 -0.007907963 0.14379494 -0.1599838 0.0059729577 0.13762674
0.0062438417 0.08439092 -0.17574784 0.09121548 0.06862602 0.13867207 -0.013813341 0.21576335
-0.035084922 0.034049004 0.19804904 0.150654 0.04446598 0.017063415 0.019542774 -0.035999797
0.002353834 0.33503386 -0.06261996 -0.02758813 0.16042234 0.10402012 0.25630444 0.24700905
-0.122594945 0.123566076 0.20663233 -0.09596266 -0.013679924 -0.048137948 0.20597899 0.13416067
0.33816323 -0.17211524 0.03849233 0.11613026 0.040206745 0.22471128 0.22668727 0.075133316
0.120352924 -0.17942044 0.09602469 -0.2096281 0.17232135 0.2571168 0.07822398 0.26149163
-0.006184381 0.18655965 0.16021974 -0.02626042 -0.20003366 -0.053879447 0.14871898 0.018266315
-0.1348879 0.18925661 -0.11124109 0.100210086 0.13320155 0.017818324 0.28329614 0.2172584
0.0143508185 0.27062386 -0.022581695 0.11042881 0.19419028 0.08146705 0.2777285 -0.054888055
0.20065823 -0.03073293 -0.06441879 0.16207169 0.050356206 0.13989544 -0.08124199 -0.10236271
00000000: c509 f9bc 592f 9ebb e989 a5bd 54a1 f43d
00000010: d528 043d 8b33 ee3d 847e 12bd a043 7fbc
00000020: 440f c5bd 143d 95bc 6b0b cdbd 819f 3abe
00000030: 99d9 fcbd ac93 523e 2141 abbc 3fba 36be
00000040: 71a5 36be bba0 093e b864 ac3d e38f efbd
00000050: 2525 743d c83b 853d 301e 113e ba9f 063e
00000060: 2685 febd b34e 3f3d ddd4 153e cd34 3a3a
00000070: 6713 753d 40ab 113e 4aaa d2bd c024 9ebd
00000080: d39a 10bd da53 41be ede3 50bd 0785 3f3d
00000090: c771 45bd 0dec 1abe e0bc e7bd e504 473e
000000a0: 13ee 21be 7331 ee3d 774b bcbd cd6e 42bb
000000b0: 08a4 06be 238c ecbd cd27 45be d581 3d3e
000000c0: aaa9 e1bd 1dbe 99bd a8d9 e33d 9126 c6bd
000000d0: 742f e9bd a8f8 c03d 848d 08be 8766 543e
000000e0: 7b06 263e 0767 18be a380 963e fc60 39bd
000000f0: bec1 b23d 73e6 9e3e 156a 753e 4cdf 713e
00000100: 8ace 0b3e 3741 57bd daa6 903e 10f0 1b3e
00000110: 72e5 9c3e 5e41 9b3d 2b62 1dbe 6a32 b53d
00000120: 66c3 8a3d 85b3 9c3e 168b 8938 d20b 2e3d
00000130: 0860 c13c d30d 5c3e 6ab2 443e 58e8 263e
00000140: a21d ebbd 1f11 063f 26c7 f8be 1ea8 033e
00000150: a346 81be 94aa 4a3d 3fbf a33c 5dc6 863e
00000160: 3930 823d 7bd4 77be df2a 563e db44 293e
00000170: 3c90 973d 6486 2e3e 6a67 9dbe 5337 1ebe
00000180: 4ec1 a0bc f2db 75be 89ea 743e 0c0a e8bb
00000190: 73ff 3c3e 41c5 a53d 2dc3 2e3e 5996 93bd
000001a0: 0bf7 0bbe 0fad 67bd 5277 e03d 400f 82be
000001b0: 076d 113e eda9 803d 661a 8c3d dcc9 803e
000001c0: b9a0 8bbd cf90 a33e 65cf 3b3d 9367 4e3e
000001d0: 2948 7b3e 3d98 16be 8610 03bd 8dc2 d8bd
000001e0: f96f 5c3e 8c73 233e a240 363e 6c53 143e
000001f0: 9087 293e 6508 793c a3a7 88bc b2ba 903d
00000200: 7b40 473d 5fdb 813d 9772 c53d ce78 2f3e
00000210: 06b6 e9bd a737 733d a106 91bd b850 08bd
00000220: 2697 953d 25bc 313e 0ba1 803e 9cb5 13be
00000230: 3570 0d3e b838 213e 27b4 1d3d 836f 933e
00000240: 8520 59be fd9b 213e 404b 75bc 7743 36be
00000250: 4dad 853e 70ff 423e 1d78 10be bd27 d7bd
00000260: 8f52 3a3e e51a 133e 3aea 06be 8022 88bd
00000270: da5b cf3c 53e8 f1bd 275d 2f3e 3b88 163e
00000280: 0dd2 c3bd 3f07 3c3e b33a 28bc 27c6 f5bd
00000290: 67a2 f73a 8743 75bd cfa0 4a3e 4af9 8e3d
000002a0: d38b e8bd 6054 1abe 43ee b3bd 6790 01bc
000002b0: fb3e 133e cbd2 23be cdb8 c33b 06ee 0c3e
000002c0: 2499 cc3b 26d5 ac3d 3ef7 33be 2ecf ba3d
000002d0: cc8b 8c3d 0d00 0e3e 5a51 62bc 11f1 5c3e
000002e0: 35b5 0fbd f876 0b3d 5ecd 4a3e 0b45 1a3e
000002f0: f621 363d 93c8 8b3c 2b18 a03c 8674 13bd
00000300: c842 1a3b 8f89 ab3e e53e 80bd 8100 e2bc
00000310: c145 243e 8008 d53d 563a 833e f1ef 7c3e
00000320: 0f13 fbbd 3610 fd3d 6d97 533e 1288 c4bd
00000330: c321 60bc 4c2c 45bd 28ec 523e 6a61 093e
00000340: bb23 ad3e fa3e 30be 22aa 1d3d b4d5 ed3d
00000350: d4af 243d b71a 663e b520 683e 7fdf 993d
00000360: 987b f63d feb9 37be 98a8 c43d c0a8 56be
00000370: 0275 303e d0a4 833e e533 a03d 3be2 853e
00000380: 59a6 cabb 7e09 3f3e a510 243e 1820 d7bc
00000390: a0d5 4cbe b2b0 5cbd ca49 183e 3da3 953c
000003a0: 0e20 0abe 7ccc 413e 5ed2 e3bd f23a cd3d
000003b0: fd65 083e bcf7 913c 310c 913e fc78 5e3e
000003c0: b21f 6b3c 368f 8a3e 3ffd b8bc 8028 e23d
000003d0: d1d9 463e 32d8 a63d 6e32 8e3e 4cd2 60bd
000003e0: 5a79 4d3e a0c3 fbbc 00ee 83bd 1ff6 253e
000003f0: 4f42 4e3d c040 0f3e 3362 a6bd 8aa3 d1bd

layers.0.bias f4 [128]
-0.1205655 -0.12744425 0.17734857 -0.04664027 -0.17657168 0.13208818 -0.19477741 0.0040013073
-0.03724954 0.21540263 0.007640134 0.13795173 -0.14343552 -0.04314281 -0.15009041 -0.120129414
-0.15388873 0.0113119455 0.13754733 0.15625314 0.037090786 0.11936052 -0.0043326197 -0.103467666
-0.0067204335 0.18545057 -0.054380514 0.04144266 0.055853337 0.046681374 0.029948415 0.10233549
0.21079385 -0.04335923 -0.113641456 0.06440761 0.046882667 -0.05253033 0.15237509 0.012595121
-0.016348282 0.17582044 0.1808164 -0.15555082 0.14271411 0.0007370887 0.06978846 -0.041264534
0.05372156 0.11860207 0.06462533 -0.16550304 -0.018081388 -0.16114862 -0.1265833 -0.017189633
0.14764638 0.16086586 -0.06253545 -0.0034993219 0.16251177 0.027180655 -0.010783434 -0.029298006
0.015795497 -0.083853185 0.16421123 0.2260604 0.10169595 0.17354901 0.010800556 0.18064304
0.10760363 0.04081685 0.1039316 -0.01524477 -0.059181456 0.1436944 -0.14345884 -0.028386211
0.011502529 -0.18412724 -0.03514607 -0.10633695 -0.052191567 0.21352632 0.2044288 -0.062180232
0.136636 -0.0027775806 0.15254015 -0.07346177 0.13824618 -0.019408584 -0.13191918 0.045031905
0.016380347 0.012172765 0.115771495 -0.19296423 0.06685909 0.117318206 0.05851485 0.006521811
-0.092386305 -0.06678742 0.09322478 0.06558486 0.1658194 0.09381709 0.017228842 -0.1318591
-0.004937818 0.13827962 -0.19797078 0.16329134 0.074742034 0.09252948 -0.10362285 0.17001122
-0.14435586 0.09612349 0.08304557 0.13317382 0.040399503 -0.16532338 0.05190003 -0.12457323
00000000: 0beb f6bd bf80 02be dd9a 353e de09 3fbd
00000010: 35cf 34be 2042 073e bb73 47be 661d 833b
00000020: f992 18bd 8292 5c3e 175a fa3b 3843 0d3e
00000030: c3e0 12be 84b6 30bd 4db1 19be 6906 f6bd
00000040: 0295 1dbe bd55 393c 35d9 0c3e d300 203e
00000050: 82ec 173d 4a73 f43d a6f8 8dbb dbe6 d3bd
00000060: 1537 dcbb c1e6 3d3e 1abe 5ebd c7bf 293d
00000070: 78c6 643d f834 3f3d 6156 f53c 4595 d13d
00000080: 58da 573e 7399 31bd dabc e8bd 23e8 833d
00000090: 0a08 403d 0b2a 57bd 3708 1c3e c45b 4e3c
000000a0: d5ec 85bc 460a 343e ef27 393e b748 1fbe
000000b0: a623 123e 2f39 413a 41ed 8e3d 0005 29bd
000000c0: 230b 5c3d a4e5 f23d 495a 843d a179 29be
000000d0: 6b1f 94bc 2504 25be 0d9f 01be 46d1 8cbc
000000e0: 9d30 173e 05ba 243e 9612 80bd e154 65bb
000000f0: 7c69 263e f7a9 de3c 00ad 30bc 5f02 f0bc
00000100: 8f65 813c 38bb abbd fd26 283e 617c 673e
00000110: f745 d03d d5b6 313e d1f4 303c 7dfa 383e
00000120: 4b5f dc3d 922f 273d 17da d43d 33c5 79bc
00000130: 4168 72bd a024 133e e0e6 12be 338a e8bc
00000140: 1a75 3c3c da8b 3cbe 53f5 0fbd 30c7 d9bd
00000150: d3c6 55bd a5a6 5a3e c955 513e b3b0 7ebd
00000160: 4fea 0b3e 1208 36bb 7c33 1c3e 2073 96bd
00000170: 6890 0d3e c0fe 9ebc d215 07be 6073 383d
00000180: 1430 863c 4770 473c 9b19 ed3d 6a98 45be
00000190: 6bed 883d 8744 f03d 44ad 6f3d eab4 d53b
000001a0: 0835 bdbd d8c7 88bd a2ec be3d 5b51 863d
000001b0: 90cc 293e 2d23 c03d 8023 8d3c 1206 07be
000001c0: 6bcd a1bb 2c99 0d3e dab8 4abe d835 273e
000001d0: 5a12 993d 1980 bd3d 3738 d4bd 6c17 2e3e
000001e0: 06d2 13be 64dc c43d cc13 aa3d b85e 083e
000001f0: f379 253d 884a 29be 2095 543d 4020 ffbd

layers.1.weight f4 [128, 128]
0.04977233 -0.003978578 -0.0051217973 -0.016737936 -0.011031081 -0.013242305 0.06501259 -0.04666439
0.028210584 -0.08991781 -0.014757719 0.0025594814 -0.045141224 0.000660694 0.053387295 -0.06920841
0.029768895 0.05456538 0.04276211 -0.08805306 0.021613678 0.05763045 -0.023114095 0.031104364
-0.047328677 -0.07857302 -0.027889075 -0.059612285 -0.017327486 -0.042865254 0.04125503 0.069818616
-0.07363288 -0.08088822 -0.044030495 -0.09086174 0.038902387 0.036932614 0.04239132 6.088112e-05
0.08064075 0.022510137 0.026206205 0.054193735 -0.06315032 -0.0762876 0.05567668 0.066095464
0.014490657 0.05631236 0.071488105 0.014237795 -0.03035929 0.0154211 -0.026510132 -0.06694774
0.0538715 -0.040833425 0.013574365 0.046356793 -0.033923056 -0.0822858 0.0032481207 0.0649718
0.01793856 0.041860465 0.038182642 0.08295486 0.07921593 0.046736926 0.010378008 -0.0009943164
-0.007760067 0.009509101 0.04935961 -0.012758599 -0.049721915 -0.045949206 -0.018934824 0.0012791042
-0.013979614 -0.062170077 0.0049659302 0.025312165 -0.020866582 -0.060173605 -0.061588075 -0.018728647
-0.064626776 0.051494993 0.064672306 0.053452183 -0.067321084 0.05575656 -0.05852318 -0.091053896
0.068912424 0.025486084 -0.018445458 0.031123098 0.07453165 -0.031136917 -0.056934133 0.05497698
0.046495497 0.022161424 0.034707285 0.08622148 -0.05440273 0.056373358 -0.025457034 -0.021372175
-0.0241972 0.057006177 0.06133949 -0.0065141586 0.07491459 -0.012459683 -0.03028802 0.059909683
-0.07942687 0.014555861 -0.0008998352 0.059318926 -0.046059046 -0.03627792 -0.03255506 0.07445912
-0.047191933 -0.009847074 0.011934199 -0.00018291341 -0.054619867 -0.0285244 -0.051734466 -0.0037365614
-0.03720986 0.055685952 0.27054152 0.073796526 -0.08448872 -0.167863 0.08666968 0.09246932
-0.02205672 0.098991595 -0.052958727 -0.100564666 -0.051281363 0.045061607 -0.022437315 0.026926463
0.21762183 -0.005328619 -0.04588224 0.0072723883 -0.09443543 0.060803726 -0.12097094 -0.10347123
0.055259537 0.06274231 0.07373798 -0.065366514 -0.044890594 0.087088674 0.007970887 0.1956147
-0.02384575 0.0108154295 0.047142606 0.0060760896 -0.11384238 0.003160687 -0.07302834 0.0651085
0.055822175 -0.078013614 -0.0629888 0.06949388 -0.06333813 -0.07790758 -0.013783993 -0.05178193
-0.15442689 0.008284743 0.06719515 -0.08244443 -0.007332965 0.032239985 0.034618862 -0.092302464
-0.0061082286 0.023145389 0.13601813 0.00541805 -0.18658045 -0.028100992 0.064292215 -0.324397
-0.026042005 0.057428792 -0.0710627 0.03785695 -0.2379608 0.05282981 -0.08022361 -0.02673619
0.041071564 0.009743896 -0.11788012 0.019615248 0.03970091 -0.016482629 0.08074978 0.068182655
-0.24219808 0.058312032 -0.055451777 -0.0017170099 0.011128986 -0.039752707 -0.03455814 -0.00957381
0.09987744 0.08057726 -0.013662944 0.07910993 -0.1153636 0.041392054 -0.06699706 0.016909014
-0.21358317 0.061788924 0.011137498 -0.019009992 0.07092284 0.044942755 -0.04207285 -0.03350175
-0.12674972 0.021157814 0.031701922 0.088706784 0.05298803 -0.1805597 -0.05458458 0.07489683
0.09105946 0.0077286963 0.21687993 0.061736356 -0.033459697 0.008321822 -0.24241476 -0.03759877
00000000: 12de 4b3d bb5e 82bb c0d4 a7bb ff1d 89bc
00000010: b5bb 34bc 41f6 58bc 5225 853d 2923 3fbd
00000020: e219 e73c d426 b8bd 5cca 71bc f9bc 273b
00000030: 01e6 38bd 6c32 2d3a a3ac 5a3d 24bd 8dbd
00000040: e6dd f33c f37f 5f3d 5227 2f3d 2a55 b4bd
00000050: 2b0f b13c e80d 6c3d c559 bdbc 94ce fe3c
00000060: b7db 41bd e4ea a0bd a177 e4bc 032c 74bd
00000070: 5ff2 8dbc 7a93 2fbd 09fb 283d 10fd 8e3d
00000080: d6cc 96bd b9a8 a5bd 5259 34bd b815 babd
00000090: 1c58 1f3d a746 173d 85a2 2d3d 9b5a 7f38
000000a0: fa26 a53d 2e67 b83c 65ae d63c 40fa 5d3d
000000b0: f454 81bd ac3c 9cbd 3b0d 643d 0f5d 873d
000000c0: 386a 6d3c caa7 663d 5b68 923d a445 693c
000000d0: 0cb4 f8bc c8a8 7c3c c72b d9bc e61b 89bd
000000e0: 5da8 5c3d f340 27bd 0367 5e3c 9fe0 3d3d
000000f0: e7f2 0abd 7585 a8bd 6cde 543b ef0f 853d
00000100: e3f3 923c e175 2b3d 6765 1c3d 3de4 a93d
00000110: f63b a23d 386f 3f3d 8508 2a3c b953 82ba
00000120: 2948 febb 0fcc 1b3c 4d2d 4a3d 7109 51bc
00000130: 35a9 4bbd 3c35 3cbd 341d 9bbc 9da7 a73a
00000140: c00a 65bc 0da6 7ebd 3eb9 a23b 755b cf3c
00000150: 65f0 aabc 9978 76bd c743 7cbd d26c 99bc
00000160: 0b5b 84bd 6aec 523d ea72 843d adf0 5a3d
00000170: a3df 89bd fe60 643d 01b6 6fbd 777a babd
00000180: f521 8d3d 31c8 d03c ee1a 97bc def5 fe3c
00000190: 0da4 983d d912 ffbc c433 69bd 8b2f 613d
000001a0: 1072 3e3d e08b b53c 3a29 0e3d e394 b03d
000001b0: 66d5 5ebd c0e7 663d 458b d0bc b314 afbc
000001c0: 3539 c6bc 4f7f 693d 1e3f 7b3d b974 d5bb
000001d0: d26c 993d b323 4cbc 951e f8bc db63 753d
000001e0: 8eaa a2bd b57b 6e3c ebe2 6bba 67f8 723d
000001f0: 69a8 3cbd 2898 14bd 7458 05bd 067e 983d
00000200: 544c 41bd 9f55 21bc a987 433c 72cc 3fb9
00000210: 15b9 5fbd 01ac e9bc 85e7 53bd 19e1 74bb
00000220: 5e69 18bd f416 643d 6b84 8a3e a222 973d
00000230: 6c08 adbd 47e4 2bbe e07f b13d 8e60 bd3d
00000240: 4bb0 b4bc 1bbc ca3d 40eb 58bd d9f4 cdbd
00000250: 680c 52bd 8592 383d 76ce b7bc e394 dc3c
00000260: 42d8 5e3e b29b aebb 04ef 3bbd 374d ee3b
00000270: 5d67 c1bd 540d 793d 9dbf f7bd b9e8 d3bd
00000280: d357 623d 0a7f 803d f003 973d e1de 85bd
00000290: 33df 37bd 8c5b b23d 5398 023c 384f 483e
000002a0: 2a58 c3bc 3333 313c 9b18 413d ef19 c73b
000002b0: 3226 e9bd 8723 4f3b e28f 95bd 9b57 853d
000002c0: cba5 643d 9ac5 9fbd 4600 81bd cf52 8e3d
000002d0: 6cb7 81bd 028e 9fbd 42d6 61bc 4a19 54bd
000002e0: 1522 1ebe bbbc 073c 9c9d 893d a0d8 a8bd
000002f0: 5e49 f0bb 130e 043d 82cc 0d3d 1309 bdbd
00000300: 8927 c8bb 669b bd3c 5648 0b3e e689 b13b
00000310: f20e 3fbe 0d34 e6bc a3ab 833d 5d17 a6be
00000320: 0b56 d5bc 743a 6b3d 5289 91bd e40f 1b3d
00000330: ffab 73be 1264 583d 474c a4bd db05 dbbc
00000340: a83a 283d dda4 1f3c 226b f1bd 28b0 a03c
00000350: 6c9d 223d 9406 87bc 2460 a53d 59a3 8b3d
00000360: c602 78be 99d8 6e3d 6721 63bd 4b0d e1ba
00000370: 5a56 363c bcd3 22bd d68c 0dbd 78db 1cbc
00000380: 8b8c cc3d b105 a53d 8ada 5fbc 6304 a23d
00000390: c043 ecbd b78a 293d c135 89bd c684 8a3c
000003a0: 8cb5 5abe 6216 7d3d 0d7a 363c d8ba 9bbc
000003b0: fe3f 913d e515 383d 9554 2cbd 2239 09bd
000003c0: aeca 01be 2753 ad3c e0d9 013d e7ab b53d
000003d0: fa09 593d a4e4 38be 1594 5fbd 8263 993d
000003e0: 627d ba3d 0141 fd3b c615 5e3e 43df 7c3d
000003f0: 090d 09bd 4058 083c 933b 78be 2b01 1abd

layers.1.bias f4 [128]
0.054132637 0.09854641 0.023180375 -0.09867349 -0.04028718 0.049419757 0.00033082534 0.056796044
0.04459566 -0.017557055 0.037062377 0.011474804 0.02161388 -0.08852809 -0.017260892 -0.055698253
0.09431344 -0.05728351 0.048092403 0.13088803 -0.039784297 0.091511324 0.05538596 -0.08601384
0.049119864 -0.076095544 0.010163552 0.024412487 0.06356235 -0.07945502 0.06420738 0.021745099
0.046083458 -0.04786448 -0.013563709 0.039421696 0.013502354 -0.013569432 0.071292736 -0.045071986
0.04814621 0.039354198 0.071265146 0.030912442 0.07997649 -0.04513889 -0.019247508 0.07517972
0.065508835 -0.030684093 0.09561766 -0.032274406 0.0938855 0.038467072 -0.09973857 -0.04009011
-0.089524426 -0.033722643 0.057988506 -0.07431545 0.0010546566 -0.008605782 0.07691338 0.044910688
0.023877779 -0.056403473 -0.03251567 -0.0443389 -0.07576017 -0.033206586 -0.020456892 0.05608782
0.12694146 0.09189605 -0.071719505 -0.054927934 -0.022516951 -0.002190332 -0.069732636 -0.062056914
0.0120978 -0.04992937 -0.03819242 -0.031880606 0.032125603 -0.031734213 0.06574368 0.029064786
0.053300336 -0.06397431 0.0026107451 0.06713491 0.02459293 -0.05314513 -0.0043768627 0.06778647
-0.018740522 -0.0020327936 -0.07059322 -0.091738515 -0.086273424 0.025511676 -0.027109137 0.007855113
0.071257636 -0.073975354 0.016983893 0.069033846 -0.013813987 0.09597797 0.024010932 0.10324187
0.033805512 -0.08980831 -0.054938678 0.07523444 0.013233383 -0.06712416 -0.04648988 -0.07191646
-0.09731077 -0.08693418 0.046040952 -0.088017076 0.06398622 -0.08303568 -0.06082567 -0.083264135
00000000: 2fba 5d3d b3d2 c93d c5e4 bd3c 5415 cabd
00000010: 2c04 25bd 5f6c 4a3d a072 ad39 f8a2 683d
00000020: f0a9 363d d0d3 8fbc b8ce 173d d100 3c3c
00000030: 970f b13c 374e b5bd b766 8dbc da23 64bd
00000040: 6827 c13d 1da2 6abd 8afc 443d 8307 063e
00000050: dcf4 22bd 4a6a bb3d 63dc 623d 0628 b0bd
00000060: e931 493d fbd7 9bbd 0785 263c b2fc c73c
00000070: fa2c 823d 50b9 a2bd 297f 833d c722 b23c
00000080: 02c2 3c3d 8c0d 44bd 523a 5ebc a578 213d
00000090: fa38 5d3c 5352 5ebc ed01 923d 679d 38bd
000000a0: f634 453d de31 213d 76f3 913d 173c fd3c
000000b0: b7ca a33d 8fe3 38bd f3ac 9dbc d3f7 993d
000000c0: 7f29 863d 355d fbbc 31d3 c33d 2b32 04bd
000000d0: 0b47 c03d a68f 1d3d bc43 ccbd 8735 24bd
000000e0: 9558 b7bd c120 0abd 5b85 6d3d b332 98bd
000000f0: 673c 8a3a 44ff 0cbc c384 9d3d 45f4 373d
00000100: 559b c33c 5407 67bd 272f 05bd b59c 35bd
00000110: 2628 9bbd a103 08bd 3695 a7bc 58bc 653d
00000120: f1fc 013e ff33 bc3d ade1 92bd 1dfc 60bd
00000130: 7875 b8bc ac8b 0fbb fccf 8ebd 642f 7ebd
00000140: da35 463c bd82 4cbd a86f 1cbd 3d95 02bd
00000150: 2396 033d bcfb 01bd 9fa4 863d 4619 ee3c
00000160: 7451 5a3d f704 83bd 0919 2b3b 077e 893d
00000170: 1d77 c93c b5ae 59bd c96b 8fbb a2d3 8a3d
00000180: b985 99bc 9e38 05bb 2e93 90bd 67e1 bbbd
00000190: 1fb0 b0bd ddfd d03c fb13 debc bbb2 003c
000001a0: 86ef 913d 6480 97bd ce21 8b3c 9e61 8d3d
000001b0: 1054 62bc 1990 c43d 93b2 c43c 7970 d33d
000001c0: a677 0a3d 6bed b7bd 6107 61bd 8414 9a3d
000001d0: d5d0 583c 6478 89bd 2c6c 3ebd f048 93bd
000001e0: de4a c7bd 8c0a b2bd 7095 3c3d 4c42 b4bd
000001f0: 350b 833d 9c0e aabd 5624 79bd 6386 aabd

predict.weight f4 [5, 128]
-0.021005599 -0.09850504 0.12592217 -0.035972808 -0.06998293 0.08336097 -0.003916937 0.08916248
0.16592002 -0.01959991 -0.16968323 0.18571313 0.13750191 -0.00024849852 -0.045572087 0.122171596
0.007466661 -0.023367297 -0.014133566 0.08468693 -0.06991654 0.06334279 0.1546992 0.0077491924
0.020111473 0.07416144 -0.047438037 -0.085004225 0.022864217 -0.01221972 0.1292822 -0.03869117
-0.04187589 0.13745514 0.036518052 -0.019669736 -0.07003765 0.0073489686 0.012508412 0.04992253
-0.078830294 -0.054019954 -0.011032389 0.011389459 0.04507009 -0.121399514 0.09835189 0.14073458
0.06750704 0.06307808 0.19152978 0.13095151 0.0051428755 -0.03938929 0.2506124 0.13844864
0.20778023 -0.022555768 0.03463808 0.081207156 0.011818261 -0.14166489 0.09055493 0.14573357
0.026120232 -0.04315481 0.04079561 0.15537678 -0.0358839 0.04492054 0.15723814 0.10828464
0.046172913 -0.009633445 0.1491653 -0.07876457 0.073954985 0.023210904 -0.0076418454 -0.036923315
0.11985938 -0.042924557 0.047364805 0.041512463 -0.07244612 -0.053731915 -0.03323367 0.18607579
0.03065038 -0.019053094 0.010198035 -0.06932289 0.089804746 -0.07310929 -0.16857219 -0.046130557
0.11790387 0.041128542 0.058384806 -0.0005158277 -0.026505783 -0.23702571 0.028712446 0.15397583
0.049158573 0.14975342 -0.033100814 0.061041586 0.04570499 0.06387317 -0.01626784 0.11751787
0.13677503 0.016733458 -0.018882178 0.043434877 -0.010446191 -0.07669084 -0.023239246 0.034994096
0.08493138 -0.028312037 -0.043225203 -0.007253946 -0.00029669274 -0.008981348 -0.031431153 -0.074253775
-0.08588974 -0.03194786 0.0436251 0.03353421 -0.01052432 0.037040602 0.05020067 0.09947868
0.034662597 0.069367476 -0.0831266 0.053020436 0.004171518 0.11154487 -0.018802317 0.11783044
0.11322683 -0.06411042 0.023684118 -0.020898934 0.07278399 0.076258 0.055841383 -0.06588411
0.2600872 0.0024398013 0.012640635 -0.0021648728 0.07463378 -0.0142677715 0.019834988 0.11435378
-0.0760906 0.13048491 0.03316664 0.047319528 -0.035147343 0.1496629 0.019963138 -0.045902807
-0.052499842 -0.06564383 0.023694228 0.0008400115 -0.017891938 0.007832578 0.15461847 0.11446737
0.109083645 0.0780883 0.20805264 0.08041612 0.09744222 0.04647881 0.12757006 0.08276692
0.19518067 -0.06455901 -0.0338025 -0.018434927 -0.05708628 0.081231214 0.028042788 -0.030045122
0.021315686 0.08254123 0.055933557 0.007119159 -0.07462679 -0.05335574 0.11133895 0.13338612
0.10586081 -0.01019042 0.055965055 -0.034042463 -0.0032116969 0.020968443 -0.020330066 0.062827095
0.026473375 -0.005113902 9.89608e-05 0.12089719 -0.02730103 0.06026852 -0.004930501 -0.05094741
0.011878647 -0.0739045 0.074160516 0.014310341 0.05651014 0.07724539 0.19908953 0.029142262
0.052677877 0.1374805 0.0016331903 0.14116886 0.069185644 0.20532261 -0.010335735 0.091523916
0.11223239 0.103831984 -0.02276448 -0.0016749158 -0.07011337 0.10732302 -0.043879252 0.10073622
0.060723457 -0.07874357 0.045940887 0.02865568 0.041694127 0.02589222 -0.0028018907 -0.020190943
0.08198764 0.010454642 0.13543794 -0.07256887 0.0876914 0.071685426 0.094310746 -0.0879952
00000000: ef13 acbc 03bd c9bd bef1 003e 3958 13bd
00000010: 3653 8fbd 28b9 aa3d a659 80bb d19a b63d
00000020: f0e6 293e fe8f a0bc 71c1 2dbe 952b 3e3e
00000030: 4dcd 0c3e e848 82b9 cca9 3abd 1a35 fa3d
00000040: e4aa f43b c66c bfbc 7990 67bc 5770 ad3d
00000050: 6730 8fbd ddb9 813d 7869 1e3e f0ec fd3b
00000060: d1c0 a43c f4e1 973d 634e 42bd b216 aebd
00000070: bd4d bb3c 3835 48bc 8e62 043e a27a 1ebd
00000080: 0e86 2bbd 0ac1 0c3e f493 153d 6d22 a1bc
00000090: e66f 8fbd 9ecf f03b 15f0 4c3c 917b 4c3d
000000a0: c771 a1bd 0744 5dbd 31c1 34bc da9a 3a3c
000000b0: 6a9b 383d 4fa0 f8bd b76c c93d ba1c 103e
000000c0: 2241 8a3d 152f 813d 6220 443e 2718 063e
000000d0: 9185 a83b aa56 21bd 4550 803e 7bc5 0d3e
000000e0: 57c4 543e e0c6 b8bc a9e0 0d3d f04f a63d
000000f0: 61a1 413c 9a10 11be dd74 b93d 2e3b 153e
00000100: 19fa d53c 19c3 30bd 4c19 273d 171b 1f3e
00000110: fffa 12bd 9afe 373d 0903 213e 56c4 dd3d
00000120: cf1f 3d3d 99d5 1dbc cabe 183e 524f a1bd
00000130: b675 973d cb24 be3c 7268 fabb e73c 17bd
00000140: d678 f53d a9d1 2fbd 9901 423d f908 2a3d
00000150: a25e 94bd ff15 5cbd 0720 08bd a78a 3e3e
00000160: 8116 fb3c 3c15 9cbc a915 273c 29f9 8dbd
00000170: 8deb b73d 53ba 95bd 309e 2cbe 65f3 3cbd
00000180: 9677 f13d 6776 283d e824 6f3d 9c38 07ba
00000190: a822 d9bc deb6 72be 5d36 eb3c d7ab 1d3e
000001a0: 805a 493d f658 193e b894 07bd be06 7a3d
000001b0: 2835 3b3d f0cf 823d 2244 85bc 36ad f03d
000001c0: c10e 0c3e 9b14 893c ccae 9abc c5e8 313d
000001d0: 8026 2bbc 1610 9dbd 3b60 bebc f855 0f3d
000001e0: 81f0 ad3d a5ee e7bc e90c 31bd 82b2 edbb
000001f0: 6d8d 9bb9 8126 13bc f4bd 00bd 5d12 98bd
00000200: f6e6 afbd c2db 02bd 3cb0 323d 2b5b 093d
00000210: 336e 2cbc e3b7 173d 389f 4d3d 7abb cb3d
00000220: 5efa 0d3d 8910 8e3d 473e aabd f52b 593d
00000230: 3bb1 883b a371 e43d 5107 9abc 1651 f13d
00000240: 78e3 e73d 534c 83bd 3205 c23c 3e34 abbc
00000250: c60f 953d 282d 9c3d efb9 643d 40ee 86bd
00000260: 262a 853e 13e5 1f3b aa1a 4f3c 8ae0 0dbb
00000270: 98d9 983d 5fc3 69bc fc7c a23c 5132 ea3d
00000280: 63d5 9bbd d69d 053e bed9 073d 1fd2 413d
00000290: a9f6 0fbd 3b41 193e bc89 a33c 9504 3cbd
000002a0: 130a 57bd 4670 86bd 661a c23c 3834 5c3a
000002b0: 1d92 92bc 3754 003c 4e54 1e3e de6d ea3d
000002c0: 3f67 df3d c2ec 9f3d c00b 553e 35b1 a43d
000002d0: c98f c73d 9160 3e3d baa1 023e b481 a93d
000002e0: 71dd 473e 8437 84bd 7e74 0abd d804 97bc
000002f0: 4ed3 69bd 8d5c a63d fdb9 e53c 3021 f6bc
00000300: 3c9e ae3c 600b a93d 961a 653d d647 e93b
00000310: eed5 98bd 8c8b 5abd ad05 e43d 5f96 083e
00000320: 8dcd d83d b8f5 26bc 9d3b 653d 1c70 0bbd
00000330: 557b 52bb 03c6 ab3c 3d8b a6bc 7eab 803d
00000340: b1de d83c 8592 a7bb 2d89 cf38 f298 f73d
00000350: 69a6 dfbc 20dc 763d 0a90 a1bb 3bae 50bd
00000360: a89e 423c 3e5b 97bd 78e1 973d ec75 6a3c
00000370: 2d77 673d d532 9e3d 20de 4b3e c1bb ee3c
00000380: c2c4 573d b0c7 0c3e c610 d63a 928e 103e
00000390: 34b1 8d3d 1740 523e 3757 29bc e470 bb3d
000003a0: 18da e53d dda5 d43d 937c babc d988 dbba
000003b0: 9997 8fbd 2ccc db3d bbba 33bd cb4e ce3d
000003c0: 29b9 783d 4f44 a1bd 832c 3c3d 51bf ea3c
000003d0: 76c7 2a3d ec1b d43c ed9f 37bb 7a67 a5bc
000003e0: 23e9 a73d f249 2b3c 3eb0 0a3e fd9e 94bd
000003f0: 8c97 b33d cfcf 923d fe25 c13d d436 b4bd

predict.bias f4 [5]
-0.015999926 0.009616741 -0.030541182 -0.03590168 0.0013747963
00000000: 4712 83bc 898f 1d3c 8031 fabc a40d 13bd
00000010: 8232 b43a

exp_avg f4 [128, 25]
1.1240798e-37 1.1240798e-37 1.0789162e-37 1.1449842e-37 -1.1584958e-37 1.1240798e-37 1.0717822e-37 1.07459e-37
-1.0851746e-37 1.1584958e-37 1.1240798e-37 1.0820937e-37 -1.0789162e-37 -1.0603591e-37 1.1584958e-37 1.1240798e-37
1.0794454e-37 1.1421726e-37 -1.1048272e-37 1.1584958e-37 1.1240798e-37 1.0799181e-37 1.1421726e-37 -1.0835732e-37
1.1584958e-37 0.0 0.0 0.0 0.0 0.0 0.0 0.0
0.0 0.0 0.0 0.0 0.0 0.0 0.0 0.0
0.0 0.0 0.0 0.0 0.0 0.0 0.0 0.0
0.0 0.0 -0.0044409065 -0.0073813843 -0.0029333509 -0.0006127786 2.968733e-05 -0.0044409065
-0.00037922696 -0.005387281 0.0006159957 -0.00015011945 -0.0044409065 -0.004161578 -0.0049109133 0.00030349742
-2.5898884e-05 -0.0044409065 -0.0038628501 0.0021875417 0.0012803284 -9.86532e-05 -0.0044409065 -0.004531695
0.0074215615 0.0009055694 4.5873217e-05 0.002468736 -0.0008184593 0.007917421 0.0022696492 -0.00015159966
0.002468736 -0.0012130226 -0.0035155527 -0.0007369219 0.00012192354 0.002468736 -0.0029653606 -0.0134475725
-0.0007876648 -7.5501557e-06 0.002468736 -0.0019249069 -0.00540857 -0.00019791315 0.00025293656 0.002468736
-0.00018486753 -0.0049180537 -6.0113263e-05 0.00020067603 -0.0039758547 -0.005457937 -0.0020625524 -0.000809963
2.3568173e-05 -0.0039758547 0.00016337179 -0.002683246 0.00051636016 -7.889952e-05 -0.0039758547 -0.002333206
-0.0025016163 0.0001487975 -2.8041159e-05 -0.0039758547 -0.0024783013 0.0025935196 0.0005454316 -4.8815113e-05
-0.0039758547 -0.002609023 0.0033571227 0.00046947395 -1.883725e-05 -0.0023242324 -0.0034030825 -0.0015458309
-0.0004472622 1.5419966e-05 -0.0023242324 0.00010864997 -0.0018836762 0.0003762679 -7.4891606e-05 -0.0023242324
-0.0019599656 -0.0018588535 0.00016192926 -3.3705528e-06 -0.0023242324 -0.0017686298 0.0021711094 0.0005675937
-4.514636e-05 -0.0023242324 -0.001979816 0.0027258298 0.00039213177 2.1473534e-06 0.0 0.0
0.0 0.0 0.0 0.0 0.0 0.0 0.0 0.0
0.0 0.0 0.0 0.0 0.0 0.0 0.0 0.0
0.0 0.0 0.0 0.0 0.0 0.0 0.0 -0.002450395
-0.0038570878 -0.0015707922 -0.00042011798 9.601168e-06 -0.002450395 2.1875938e-05 -0.001808287 0.00037878042
-5.388337e-05 -0.002450395 -0.0018465077 -0.0025836625 0.00017856143 -7.4160434e-06 -0.002450395 -0.001879244
0.001299895 0.00061882497 -3.7330807e-05 -0.002450395 -0.0020048276 0.0029352298 0.0004944774 2.4521178e-05
-0.0037675486 -0.004909462 -0.002951296 -0.0008386235 8.921095e-06 -0.0037675486 -9.982454e-05 -0.0012854121
0.00038068776 -6.7210996e-05 -0.0037675486 -0.0017328069 -0.0020123837 0.0001309831 2.1369233e-05 -0.0037675486
-0.0021174904 0.0022412313 0.00051247625 -4.7698366e-05 -0.0037675486 -0.0022707956 0.0039643277 0.0004420414
1.681237e-05 -0.007315573 -0.008913035 -0.0042395815 -0.0019378656 4.2179352e-05 -0.007315573 7.767114e-05
-0.003311075 0.0009128176 -0.00014892247 -0.007315573 -0.0030937635 -0.0029543398 0.00039482705 3.0706524e-06
-0.007315573 -0.003682238 0.00427402 0.00094995386 -0.00010389094 -0.007315573 -0.0039443616 0.0056482935
0.0007984701 -3.0750816e-05 0.009810489 0.011227334 0.002587921 0.0018708508 -0.00019458885 0.009810489
00000000: 7700 1902 7700 1902 beda 1202 e0d8 1b02
00000010: b0af 1d82 7700 1902 29e2 1102 ff43 1202
00000020: d1b4 1382 b0af 1d02 7700 1902 7649 1302
00000030: beda 1282 1f54 1082 b0af 1d02 7700 1902
00000040: 2fed 1202 e876 1b02 9c61 1682 b0af 1d02
00000050: 7700 1902 a7fd 1202 e876 1b02 047d 1382
00000060: b0af 1d02 0000 0000 0000 0000 0000 0000
00000070: 0000 0000 0000 0000 0000 0000 0000 0000
00000080: 0000 0000 0000 0000 0000 0000 0000 0000
00000090: 0000 0000 0000 0000 0000 0000 0000 0000
000000a0: 0000 0000 0000 0000 0000 0000 0000 0000
000000b0: 0000 0000 0000 0000 0000 0000 0000 0000
000000c0: 0000 0000 0000 0000 0685 91bb 8adf f1bb
000000d0: 763d 40bb e0a2 20ba 0e09 f937 0685 91bb
000000e0: fbd2 c6b9 ca87 b0bb c67a 213a 6269 1db9
000000f0: 0685 91bb d95d 88bb baeb a0bb bc1e 9f39
00000100: 6e41 d9b7 0685 91bb df27 7dbb dc5c 0f3b
00000110: b1d0 a73a 09e4 ceb8 0685 91bb 9d7e 94bb
00000120: 9230 f33b bc63 6d3a fe67 4038 84ca 213b
00000130: e08d 56ba 12b8 013c 65be 143b b9f6 1eb9
00000140: 84ca 213b 49fe 9eba 3065 66bb fe2d 41ba
00000150: 34b1 ff38 84ca 213b 7f56 42bb 3553 5cbc
00000160: 4a7b 4eba 5857 fdb6 84ca 213b 284d fcba
00000170: 603a b1bb e886 4fb9 929c 8439 84ca 213b
00000180: 00d9 41b9 a027 a1bb 2022 7cb8 906c 5239
00000190: e347 82bb 7ed8 b2bb e32b 07bb b253 54ba
000001a0: 44b4 c537 e347 82bb c84e 2b39 66d9 2fbb
000001b0: 585c 073a db76 a5b8 e347 82bb b3e8 18bb
000001c0: 28f2 23bb 8606 1c39 ee39 ebb7 e347 82bb
000001d0: ff6a 22bb 0af8 293b 4cfb 0e3a d4be 4cb8
000001e0: e347 82bb 24fc 2abb 2c03 5c3b ba23 f639
000001f0: b004 9eb7 2652 18bb 4006 5fbb 7a9d caba
00000200: 847e eab9 205a 8137 2652 18bb 02db e338
00000210: afe5 f6ba d345 c539 200f 9db8 2652 18bb
00000220: c472 00bb c6a4 f3ba 8ecb 2939 a831 62b6
00000230: 2652 18bb 5ed1 e7ba 2c49 0e3b 92ca 143a
00000240: 895b 3db8 2652 18bb cdbf 01bb d6a3 323b
00000250: 0997 cd39 401b 1036 0000 0000 0000 0000
00000260: 0000 0000 0000 0000 0000 0000 0000 0000
00000270: 0000 0000 0000 0000 0000 0000 0000 0000
00000280: 0000 0000 0000 0000 0000 0000 0000 0000
00000290: 0000 0000 0000 0000 0000 0000 0000 0000
000002a0: 0000 0000 0000 0000 0000 0000 0000 0000
000002b0: 0000 0000 0000 0000 0000 0000 ce96 20bb
000002c0: 32c7 7cbb 0ae3 cdba 4843 dcb9 b414 2137
000002d0: ce96 20bb 3882 b737 0b04 edba 0c97 c639
000002e0: d400 62b8 ce96 20bb 8406 f2ba aa52 29bb
000002f0: 383c 3b39 54d7 f8b6 ce96 20bb f750 f6ba
00000300: 3d61 aa3a a438 223a a693 1cb8 ce96 20bb
00000310: 6d63 03bb fc5c 403b d19f 013a d4b2 cd37
00000320: fae8 76bb 8ddf a0bb 886a 41bb 12d7 5bba
00000330: d0ab 1537 fae8 76bb e458 d1b8 467b a8ba
00000340: 0c97 c739 a1f3 8cb8 fae8 76bb 5a1f e3ba
00000350: 32e2 03bb 8258 0939 1442 b337 fae8 76bb
00000360: 98c5 0abb 9fe1 123b b357 063a bb0f 48b8
00000370: fae8 76bb a1d1 14bb 31e7 813b cbc1 e739
00000380: 4a08 8d37 79b7 efbb fa07 12bc 30ec 8abb
00000390: fbff fdba bce9 3038 79b7 efbb 60e3 a238
000003a0: 9ffe 58bb 274a 6f3a 1228 1cb9 79b7 efbb
000003b0: bdc0 4abb 999d 41bb ca00 cf39 6811 4e36
000003c0: 79b7 efbb b451 71bb 140d 8c3b 5306 793a
000003d0: 06e0 d9b8 79b7 efbb b43f 81bb 5215 b93b
000003e0: 6c50 513a 70fa 00b8 2cbc 203c daf2 373c
000003f0: 1c9a 293b 5637 f53a 8c0a 4cb9 2cbc 203c

exp_avg_sq f4 [128, 25]
2.400558e-13 2.400558e-13 8.163772e-24 2.4525563e-14 2.658364e-24 2.400558e-13 3.1763328e-16 2.668936e-14
7.5645664e-16 2.658364e-24 2.400558e-13 5.0122717e-15 5.8148555e-18 1.1006634e-15 2.658364e-24 2.400558e-13
1.15855845e-14 1.06689356e-13 3.4271758e-15 2.658364e-24 2.400558e-13 3.325666e-14 1.06689356e-13 1.1494058e-15
2.658364e-24 0.0 0.0 0.0 0.0 0.0 0.0 0.0
0.0 0.0 0.0 0.0 0.0 0.0 0.0 0.0
0.0 0.0 0.0 0.0 0.0 0.0 0.0 0.0
0.0 0.0 0.0068047647 0.006589095 0.0010055534 0.00067541096 1.1635721e-07 0.0068047647
2.4570827e-05 0.0004694168 3.9892275e-05 2.9356738e-07 0.0068047647 0.00017131094 0.0006090373 3.832006e-05
4.903039e-07 0.0068047647 0.00052106846 0.00061437255 4.0463292e-05 1.6798884e-07 0.0068047647 0.0010655908
0.00044006656 4.0620245e-05 1.7529375e-07 0.006835969 0.006618089 0.0017335305 0.0006801674 1.4440477e-07
0.006835969 2.8527937e-05 0.00049907615 4.169719e-05 3.1617552e-07 0.006835969 0.00018724918 0.00093000697
3.8824368e-05 5.5145654e-07 0.006835969 0.0005511919 0.00071155676 4.45165e-05 2.4121655e-07 0.006835969
0.0011523886 0.00050333585 4.0405757e-05 2.2614056e-07 0.0020154854 0.0019474502 0.0003371756 0.00020243559
3.1061287e-08 0.0020154854 7.3476276e-06 0.00011533583 1.1841997e-05 9.015405e-08 0.0020154854 5.0250168e-05
0.00018391674 1.1701713e-05 1.4208348e-07 0.0020154854 0.0001545049 0.00016895695 1.230603e-05 4.567528e-08
0.0020154854 0.0003212636 0.00012973478 1.197969e-05 5.9281174e-08 0.0013573861 0.0013133843 0.00021052659
0.0001363547 2.2056321e-08 0.0013573861 4.8284005e-06 8.9099965e-05 8.251808e-06 6.03756e-08 0.0013573861
3.3526856e-05 0.00012257026 7.934732e-06 7.915636e-08 0.0013573861 0.000102321355 0.00011972795 8.389799e-06
3.2670954e-08 0.0013573861 0.00021220557 9.0738286e-05 8.462246e-06 3.890018e-08 0.0 0.0
0.0 0.0 0.0 0.0 0.0 0.0 0.0 0.0
0.0 0.0 0.0 0.0 0.0 0.0 0.0 0.0
0.0 0.0 0.0 0.0 0.0 0.0 0.0 0.0013546704
0.0013118251 0.00021175842 0.00013549805 2.2455422e-08 0.0013546704 4.8664656e-06 8.660078e-05 7.989082e-06
6.646501e-08 0.0013546704 3.3540186e-05 0.00012179469 7.788264e-06 1.11686404e-07 0.0013546704 0.00010309804
0.00011713215 8.228482e-06 3.195554e-08 0.0013546704 0.00021206423 8.544409e-05 8.172262e-06 3.3009254e-08
0.0009998893 0.0009691875 0.00016462487 9.9860656e-05 1.6715752e-08 0.0009998893 3.6399335e-06 7.052915e-05
5.643126e-06 5.7030178e-08 0.0009998893 2.4206991e-05 9.1029004e-05 5.919683e-06 8.087094e-08 0.0009998893
7.565845e-05 8.344142e-05 5.8088135e-06 2.1886311e-08 0.0009998893 0.00015556831 6.5090906e-05 5.957136e-06
2.2887273e-08 0.0026583527 0.0025710072 0.00046116672 0.0002660671 4.0235204e-08 0.0026583527 9.804293e-06
0.00017913667 1.504476e-05 1.3354773e-07 0.0026583527 6.525845e-05 0.0002417134 1.5707474e-05 1.8091782e-07
0.0026583527 0.00020121715 0.00022203477 1.5553256e-05 5.7646524e-08 0.0026583527 0.00041776776 0.0001752787
1.5898804e-05 6.714944e-08 0.004463055 0.0044008745 0.0004390733 0.00047352293 1.6112504e-07 0.004463055
00000000: b023 872a b023 872a 0ae9 1d19 19e8 dc28
00000010: 53ae 4d18 b023 872a 661a b725 7965 f028
00000020: a608 5a26 53ae 4d18 b023 872a 0c96 b427
00000030: c287 d622 509f 9e26 53ae 4d18 b023 872a
00000040: 14b5 5028 3a3e f029 3cf4 7627 53ae 4d18
00000050: b023 872a 52c6 1529 3a3e f029 97a5 a526
00000060: 53ae 4d18 0000 0000 0000 0000 0000 0000
00000070: 0000 0000 0000 0000 0000 0000 0000 0000
00000080: 0000 0000 0000 0000 0000 0000 0000 0000
00000090: 0000 0000 0000 0000 0000 0000 0000 0000
000000a0: 0000 0000 0000 0000 0000 0000 0000 0000
000000b0: 0000 0000 0000 0000 0000 0000 0000 0000
000000c0: 0000 0000 0000 0000 81fa de3b 56e9 d73b
000000d0: c6cc 833a 100e 313a 0de0 f933 81fa de3b
000000e0: 731d ce37 0e1c f639 0152 2738 989b 9d34
000000f0: 81fa de3b eea1 3339 cda7 1f3a dab9 2038
00000100: 6d9d 0335 81fa de3b 5098 083a d80d 213a
00000110: 21b7 2938 6c60 3434 81fa de3b 4bab 8b3a
00000120: bcb8 e639 a85f 2a38 6138 3c34 4400 e03b
00000130: 8edc d83b a237 e33a 434d 323a ae0d 1b34
00000140: 4400 e03b 474f ef37 6fd4 023a 04e4 2e38
00000150: d5be a934 4400 e03b 5258 4439 b6cb 733a
00000160: 59d7 2238 ce07 1435 4400 e03b dd7d 103a
00000170: c487 3a3a 3ab7 3a38 8d80 8134 4400 e03b
00000180: bf0b 973a 4cf2 033a 5a79 2938 0bd1 7234
00000190: 3c16 043b 9641 ff3a f1c6 b039 e444 5439
000001a0: 3f68 0533 3c16 043b a48b f636 74e0 f138
000001b0: fdac 4637 b79a c133 3c16 043b b5c3 5238
000001c0: c6d9 4039 7a52 4437 9c8f 1834 3c16 043b
000001d0: 9802 2239 092a 3139 ff75 4e37 802c 4433
000001e0: 3c16 043b 456f a839 6a09 0839 60fc 4837
000001f0: 579c 7e33 52ea b13a dd25 ac3a cdc0 5c39
00000200: 70fa 0e39 5d76 bd32 52ea b13a a503 a236
00000210: 2edb ba38 3f71 0a37 d6a7 8133 52ea b13a
00000220: 309f 0c38 3486 0039 6a1f 0537 abfc a933
00000230: 52ea b13a 5c95 d638 7416 fb38 eac1 0c37
00000240: 1852 0c33 52ea b13a 8083 5e39 bf4a be38
00000250: 12f9 0d37 3313 2733 0000 0000 0000 0000
00000260: 0000 0000 0000 0000 0000 0000 0000 0000
00000270: 0000 0000 0000 0000 0000 0000 0000 0000
00000280: 0000 0000 0000 0000 0000 0000 0000 0000
00000290: 0000 0000 0000 0000 0000 0000 0000 0000
000002a0: 0000 0000 0000 0000 0000 0000 0000 0000
000002b0: 0000 0000 0000 0000 0000 0000 328f b13a
000002c0: 8cf1 ab3a 780b 5e39 7b14 0e39 ffe3 c032
000002d0: 328f b13a 9f4a a336 719d b538 d908 0637
000002e0: 87bb 8e33 328f b13a 80ad 0c38 076c ff38
000002f0: 57aa 0237 40d8 ef33 328f b13a 5736 d838
00000300: d8a4 f538 100d 0a37 7d3f 0933 328f b13a
00000310: 8f5d 5e39 7230 b338 991b 0937 0fc6 0d33
00000320: b80e 833a 1211 7e3a 279f 2c39 486c d138
00000330: 5496 8f32 b80e 833a 9545 7436 0de9 9338
00000340: 155a bd36 58f1 7433 b80e 833a 1e10 cb37
00000350: d3e6 be38 b1a1 c636 45ab ad33 b80e 833a
00000360: d2aa 9e38 45fd ae38 54e9 c236 8200 bc32
00000370: b80e 833a 0d20 2339 6a81 8838 69e3 c736
00000380: a599 c432 c237 2e3b 587e 283b c0c8 f139
00000390: ec7e 8b39 13cf 2c33 c237 2e3b 1e7d 2437
000003a0: a2d6 3b39 c168 7c37 5265 0f34 c237 2e3b
000003b0: 5ddb 8838 7274 7d39 8bc3 8337 5042 4234
000003c0: c237 2e3b d1fd 5239 01d2 6839 5d78 8237
000003d0: 0697 7733 c237 2e3b d707 db39 05cb 3739
000003e0: 6c5e 8537 cc33 9033 d23e 923b 3635 903b
000003f0: 6c33 e639 2c43 f839 b701 2d34 d23e 923b

exp_avg f4 [128]
1.1240798e-37 0.0 -0.004440915 0.0024687378 -0.0039758557 -0.0023242314 0.0 -0.002450393
-0.003767551 -0.007315574 0.009810492 -0.008301182 0.0025430121 0.0054531638 1.1568733e-37 -0.0072789183
-0.0073108994 -0.0048732692 0.0 0.006914049 -0.017010553 0.0 -0.003254225 -0.0010598474
-0.0052460916 -0.0012295449 0.0 -0.026599681 -0.008370304 -0.0036819903 -0.008750835 1.0737259e-37
-0.002535568 0.0 0.0 -0.010281773 -0.0005361666 -0.0077746655 7.490666e-10 -0.010935091
-0.00075367466 -0.014343829 0.010254099 0.0 -0.05196801 1.0976661e-37 -0.0011659344 0.0
-0.001752761 -0.00779863 1.0839703e-37 0.0021359827 -0.0055581955 0.0 -0.0076949806 0.005721873
0.010279514 -0.0026522817 -0.0014506988 -0.0006473515 -0.024704449 0.021107147 0.0 -0.012921555
-0.018516317 -0.0017637932 0.026944619 -0.03104553 0.003914966 -0.0029005902 1.0988921e-37 -0.0011089668
0.023051318 -0.0041863113 -0.0015038215 0.0 -0.0013989718 -0.007166029 -0.0040046577 0.0
0.0 -0.0032141511 -0.0077868407 0.0 -0.006377224 -0.004241891 -0.0059224134 0.0
-0.012848314 -0.0027130754 0.00044723414 1.0746892e-37 0.001424518 0.0 -0.0059213666 -0.0072616506
-0.009958949 1.1362508e-37 -0.006472511 0.0 -0.010478438 0.0202638 -0.0030365237 -0.001467397
-0.026807092 -0.0075620627 0.00033649988 -0.0007783305 0.0 0.0 -0.014073563 -0.023254033
0.0031204792 -0.023534358 1.0780374e-37 -0.003162883 0.0 -4.914892e-05 0.021492207 -0.002140277
-0.007923297 0.0017531291 0.005648868 0.0 1.0845842e-37 0.0 -0.004333632 0.0
00000000: 7700 1902 0000 0000 1885 91bb 8cca 213b
00000010: e547 82bb 2252 18bb 0000 0000 c696 20bb
00000020: 04e9 76bb 7cb7 efbb 30bc 203c ae01 08bc
00000030: aaa8 263b 74b0 b23b 2777 1d02 fe83 eebb
00000040: 4590 efbb f2af 9fbb 0000 0000 3f8f e23b
00000050: b759 8bbc 0000 0000 d644 55bb 94ea 8aba
00000060: 68e7 abbb ae28 a1ba 0000 0000 93e7 d9bc
00000070: 9923 09bc 8c4d 71bb aa5f 0fbc e325 1202
00000080: c62b 26bb 0000 0000 0000 0000 e274 28bc
00000090: 888d 0cba 9fc2 febb e0e6 4d30 1929 33bc
000000a0: 4092 45ba 6102 6bbc cf00 283c 0000 0000
000000b0: 68dc 54bd 1568 1502 44d2 98ba 0000 0000
000000c0: e6bc e5ba a68b ffbb da8a 1302 d8fb 0b3b
000000d0: 8621 b6bb 0000 0000 2d26 fcbb 8d7e bb3b
000000e0: 686b 283c e7d1 2dbb 6025 beba 06b3 29ba
000000f0: fc60 cabc e5e8 ac3c 0000 0000 eeb4 53bc
00000100: 88af 97bc 142f e7ba f6ba dc3c 3253 febc
00000110: 1d49 803b d417 3ebb cd92 1502 c05a 91ba
00000120: 1ed6 bc3c 532d 89bb e01b c5ba 0000 0000
00000130: b45d b7ba 02d1 eabb 8139 83bb 0000 0000
00000140: 0000 0000 82a4 52bb c128 ffbb 0000 0000
00000150: 08f8 d0bb 90ff 8abb ce10 c2bb 0000 0000
00000160: bc81 52bc dacd 31bb c07a ea39 7447 1202
00000170: e4b6 ba3a 0000 0000 0608 c2bb 24f3 edbb
00000180: dc2a 23bc 90a8 1a02 5c17 d4bb 0000 0000
00000190: c1ad 2bbc 4500 a63c 6a00 47bb ac55 c0ba
000001a0: 8c9a dbbc 2ecb f7bb 406c b039 e008 4cba
000001b0: 0000 0000 0000 0000 cd94 66bc 3e7f bebc
000001c0: f480 4c3b 20cb c0bc 1fbc 1202 5f48 4fbb
000001d0: 0000 0000 4025 4eb8 6d10 b03c e443 0cbb
000001e0: b7d0 01bc 40c9 e53a 241a b93b 0000 0000
000001f0: 3ea0 1302 0000 0000 2401 8ebb 0000 0000

exp_avg_sq f4 [128]
2.400558e-13 0.0 0.006804765 0.0068359696 0.0020154852 0.0013573864 0.0 0.0013546704
0.0009998892 0.0026583527 0.004463055 0.0003304136 0.002540261 0.026067235 5.4682983e-09 0.0023116004
0.0018963418 0.002202436 0.0 0.0035284727 0.0026850286 0.0 0.002617206 0.0005331585
0.026108736 0.00068464107 0.0 0.0057129757 0.0035530261 0.0028754377 0.0017720521 1.8554964e-09
0.001888486 0.0 0.0 0.002144265 0.0013068136 0.00056848663 5.8854326e-09 0.004485352
0.0012951958 0.0027951882 0.0027298257 0.0 0.032721154 2.1994743e-13 0.0016866488 0.0
0.000878817 0.0036520604 1.7092576e-08 0.0054201405 0.0014066416 0.0 0.0017555561 0.002165635
0.014801125 0.0015782779 0.0046280064 0.0023494165 0.0048557506 0.0033645472 0.0 0.0019466445
0.0038525753 0.002054652 0.0016727535 0.0061609005 0.0020130812 0.00015825407 4.8013263e-14 0.01795834
0.0067412658 0.0018500431 0.0025034368 0.0 0.0024707639 0.00019860618 0.0025262355 0.0
0.0 0.000360253 0.0038586895 0.0 0.002926123 0.0005063337 0.00092638994 0.0
0.020164626 0.0013653438 0.0032320472 1.8181421e-13 0.0021499984 0.0 0.005295294 0.0043047215
0.0018205974 2.0818503e-13 0.0012388659 0.0 0.0009485655 0.0040226444 0.0006815237 0.002155373
0.015660422 0.0049116663 0.00073812844 0.0021979965 0.0 0.0 0.011026663 0.0033078196
0.003104739 0.0032994773 6.621761e-14 0.0015052062 0.0 0.0009657016 0.02995538 0.001533736
0.0004355464 0.0011595013 0.014531811 0.0 2.2045374e-11 0.0 0.01062549 0.0
00000000: b023 872a 0000 0000 82fa de3b 4500 e03b
00000010: 3b16 043b 54ea b13a 0000 0000 328f b13a
00000020: b70e 833a c237 2e3b d23e 923b 5d3b ad39
00000030: 827a 263b f48a d53c a9e3 bb31 387e 173b
00000040: ac8e f83a bf56 103b 0000 0000 f33d 673b
00000050: 4ef7 2f3b 0000 0000 6e85 2b3b a9c3 0b3a
00000060: fde1 d53c 7c79 333a 0000 0000 ea33 bb3b
00000070: e3d9 683b d771 3c3b 3444 e83a 7a04 ff30
00000080: 1387 f73a 0000 0000 0000 0000 cc86 0c3b
00000090: 6349 ab3a 7e06 153a d038 ca31 dcf9 923b
000000a0: 8fc3 a93a 7a2f 373b e0e6 323b 0000 0000
000000b0: 9e06 063d 88a3 772a 8b12 dd3a 0000 0000
000000c0: 6960 663a 6857 6f3b f9d2 9232 6f9b b13b
000000d0: 0f5f b83a 0000 0000 b01a e63a 54ed 0d3b
000000e0: 6b80 723c 38de ce3a 88a6 973b abf8 193b
000000f0: fd1c 9f3b bc7f 5c3b 0000 0000 8d26 ff3a
00000100: 7d7b 7c3b 57a7 063b 4b40 db3a 61e1 c93b
00000110: e6ed 033b 01f1 2539 863b 5829 5e1d 933c
00000120: d6e5 dc3b 257d f23a b310 243b 0000 0000
00000130: 8aec 213b f140 5039 338f 253b 0000 0000
00000140: 0000 0000 57e0 bc39 11e2 7c3b 0000 0000
00000150: 33c4 3f3b 7bbb 043a fad8 723a 0000 0000
00000160: 4930 a53c 56f5 b23a c1d0 533b 61b4 4c2a
00000170: fde6 0c3b 0000 0000 2584 ad3b 9f0e 8d3b
00000180: 1da1 ee3a 4065 6a2a 7161 a23a 0000 0000
00000190: 27a9 783a 63d0 833b 48a8 323a 2941 0d3b
000001a0: 494a 803c 0bf2 a03b f67e 413a 430c 103b
000001b0: 0000 0000 0000 0000 2da9 343c 01c8 583b
000001c0: e078 4b3b 0b3c 583b da1b 9529 574a c53a
000001d0: 0000 0000 2327 7d3a fc64 f53c a407 c93a
000001e0: 0c5a e439 68fa 973a d516 6e3c 0000 0000
000001f0: c5e9 c12d 0000 0000 8916 2e3c 0000 0000

exp_avg f4 [128, 128]
0.0 0.0 1.0952273e-37 0.0 1.1313561e-37 1.0754708e-37 0.0 1.1587235e-37
1.1514935e-37 1.1671813e-37 0.0 1.1322382e-37 0.0 0.0 0.0 1.0869714e-37
1.0616942e-37 1.1624637e-37 0.0 1.1714652e-37 1.1503891e-37 0.0 1.0684353e-37 1.1293266e-37
0.0 1.0879494e-37 0.0 1.0983213e-37 0.0 1.0601434e-37 1.0949643e-37 0.0
1.1462274e-37 0.0 0.0 1.1715918e-37 1.0661149e-37 1.0764388e-37 0.0 0.0
1.0722549e-37 1.0933957e-37 0.0 0.0 0.0 0.0 1.0781579e-37 0.0
1.0901349e-37 1.1316683e-37 0.0 0.0 1.0913348e-37 0.0 1.1531841e-37 1.1196256e-37
0.0 1.0770929e-37 1.0931888e-37 1.0967909e-37 1.1526373e-37 0.0 0.0 0.0
1.0850281e-37 1.111623e-37 0.0 1.1341772e-37 1.0843614e-37 1.1098917e-37 0.0 1.1734823e-37
0.0 1.0807494e-37 1.16313e-37 0.0 1.17237e-37 1.174113e-37 1.1142915e-37 0.0
0.0 1.1223194e-37 1.1150136e-37 0.0 1.0602897e-37 1.141059e-37 1.1601416e-37 0.0
0.0 1.0820054e-37 1.0824419e-37 0.0 1.1337709e-37 0.0 1.1162171e-37 1.0664593e-37
0.0 0.0 1.0968693e-37 0.0 0.0 1.0941026e-37 1.1747843e-37 1.0655644e-37
0.0 0.0 0.0 0.0 0.0 0.0 0.0 1.1678669e-37
0.0 1.0963726e-37 0.0 1.0905223e-37 0.0 0.0 0.0 1.0955035e-37
0.0 1.071637e-37 0.0 0.0 0.0 0.0 0.0 0.0
1.0609439e-37 0.0 0.0011852824 0.00059514295 0.00076892367 0.0007796213 0.0 0.00064168446
0.0006636027 0.0013617815 0.00019485928 0.0003907883 0.00057238026 0.0011654677 0.0 0.00094113214
0.0005006972 0.0010760244 0.0 0.00097432005 0.00094205874 0.0 0.0010286103 0.00011722185
-9.887456e-05 0.0009832145 0.0 0.0010508567 0.00035424007 0.0011676495 0.00028582278 1.1181354e-37
0.0007361884 0.0 0.0 7.553189e-05 0.0007797951 0.0006902118 -2.459247e-12 0.00089278875
0.0007277775 0.00038673036 -0.00046458887 0.0 0.0010256603 0.0 0.0007787317 0.0
0.00053117995 0.000928866 1.1422692e-37 0.00033908105 0.0005048512 0.0 0.0006227946 0.00056171743
0.0009851418 0.00074178923 0.0011230728 1.0530595e-05 0.0008224469 0.00019315182 0.0 0.00016777788
0.00019664585 0.0005466045 -0.00049578445 0.0012463965 0.00022718076 0.00014324824 -1.1079796e-37 0.0010809416
0.0009812961 0.0009522663 0.00089920184 0.0 0.000348939 0.0002155999 0.00046972226 0.0
0.0 0.00041041675 0.0004635096 0.0 0.00070880057 0.00029984757 0.00091189286 0.0
0.00087644433 0.0007197608 0.00076565903 0.0 0.00059835415 0.0 0.00056184427 0.0006282477
0.00075581274 0.0 0.0006517031 0.0 0.0005919131 0.00013554416 0.00044712517 0.0005878086
0.00045959197 0.0010189936 0.00060310983 1.7708808e-05 0.0 0.0 1.064947e-05 0.0004217933
0.0008254859 0.0007838265 0.0 0.00097240484 0.0 8.721225e-05 0.0006547383 0.0006390576
9.5920055e-05 0.0007796304 0.00014917928 0.0 -1.0760639e-37 0.0 0.00030456617 0.0
00000000: 0000 0000 0000 0000 1a13 1502 0000 0000
00000010: 02fe 1902 b062 1202 0000 0000 9fb7 1d02
00000020: b1bb 1c02 55de 1e02 0000 0000 be1c 1a02
00000030: 0000 0000 0000 0000 0000 0000 6df3 1302
00000040: a582 1002 f339 1e02 0000 0000 9b73 1f02
00000050: 3695 1c02 0000 0000 896d 1102 4ab7 1902
00000060: 0000 0000 8115 1402 0000 0000 e97e 1502
00000070: 0000 0000 9b4c 1002 f009 1502 0000 0000
00000080: 3204 1c02 0000 0000 0000 0000 0478 1f02
00000090: af1c 1102 6b84 1202 0000 0000 0000 0000
000000a0: a1f2 1102 48d3 1402 0000 0000 0000 0000
000000b0: 0000 0000 0000 0000 52c0 1202 0000 0000
000000c0: a861 1402 e308 1a02 0000 0000 0000 0000
000000d0: 788b 1402 0000 0000 9af6 1c02 4265 1802
000000e0: 0000 0000 369b 1202 12cc 1402 9649 1502
000000f0: 8ce3 1c02 0000 0000 0000 0000 0000 0000
00000100: b6af 1302 694e 1702 0000 0000 4f60 1a02
00000110: 7b98 1302 1512 1702 0000 0000 e4b9 1f02
00000120: 0000 0000 9f1a 1302 2a51 1e02 0000 0000
00000130: 2293 1f02 decf 1f02 64ab 1702 0000 0000
00000140: 0000 0000 20c3 1802 8ec4 1702 0000 0000
00000150: b451 1002 1a50 1b02 09e9 1d02 0000 0000
00000160: 0000 0000 6346 1302 9855 1302 0000 0000
00000170: 2652 1a02 0000 0000 7dee 1702 af28 1102
00000180: 0000 0000 0000 0000 514c 1502 0000 0000
00000190: 0000 0000 e9eb 1402 42e7 1f02 8009 1102
000001a0: 0000 0000 0000 0000 0000 0000 0000 0000
000001b0: 0000 0000 0000 0000 0000 0000 39f6 1e02
000001c0: 0000 0000 023b 1502 0000 0000 286f 1402
000001d0: 0000 0000 0000 0000 0000 0000 ba1c 1502
000001e0: 0000 0000 19dd 1102 0000 0000 0000 0000
000001f0: 0000 0000 0000 0000 0000 0000 0000 0000
00000200: 8068 1002 0000 0000 7a5b 9b3a 5e03 1c3a
00000210: 9891 493a 805f 4c3a 0000 0000 b736 283a
00000220: a0f5 2d3a ce7d b23a 2453 4c39 b8e2 cc39
00000230: ca0b 163a 9bc2 983a 0000 0000 4fb6 763a
00000240: 3841 033a 6309 8d3a 0000 0000 8369 7f3a
00000250: 7ef4 763a 0000 0000 6fd2 863a 00d5 f538
00000260: e05a cfb8 34df 803a 0000 0000 e6bc 893a
00000270: 4cb9 b939 d10b 993a 7cda 9539 5531 1802
00000280: c4fc 403a 0000 0000 0000 0000 e066 9e38
00000290: 2a6b 4c3a 54ef 343a db0d 2dac 0a0a 6a3a
000002a0: 52c8 3e3a 12c2 ca39 1094 f3b9 0000 0000
000002b0: 736f 863a 0000 0000 cd23 4c3a 0000 0000
000002c0: e23e 0b3a 247f 733a 467a 1b02 b0c6 b139
000002d0: fe57 043a 0000 0000 0a43 233a 3840 133a
000002e0: e01f 813a a274 423a 1234 933a 90ac 3037
000002f0: 7a99 573a cc88 4a39 0000 0000 88ed 2f39
00000300: b832 4e39 024a 0f3a 88f7 01ba 205e a33a
00000310: 5f37 6e39 e834 1639 74cf 1682 62ae 8d3a
00000320: d59e 803a 82a1 793a 6ab8 6b3a 0000 0000
00000330: cdf1 b639 a812 6239 0e45 f639 0000 0000
00000340: 0000 0000 342d d739 3503 f339 0000 0000
00000350: cdce 393a dc34 9d39 180c 6f3a 0000 0000
00000360: 2fc1 653a 54ae 3c3a 82b6 483a 0000 0000
00000370: deda 1c3a 0000 0000 bb48 133a fdb0 243a
00000380: bc21 463a 0000 0000 0ed7 2a3a 0000 0000
00000390: 9e2a 1b3a dc20 0e39 206c ea39 2b17 1a3a
000003a0: 64f5 f039 c08f 853a 041a 1e3a 608d 9437
000003b0: 0000 0000 0000 0000 20ab 3237 2324 dd39
000003c0: 6c65 583a b579 4d3a 0000 0000 fce8 7e3a
000003d0: 0000 0000 b8e5 b638 bea2 2b3a 6e86 273a
000003e0: b028 c938 1c60 4c3a 026d 1c39 0000 0000
000003f0: 5b77 1282 0000 0000 2eae 9f39 0000 0000
