highway_ddqn/ddqn1/checkpoint-512.tar (torch, 253330 bytes, 18 tensors)

layers.0.weight f4 [128, 25]
-0.030400166 -0.0048274216 -0.08082945 0.119448334 0.032265503 0.11630925 -0.035765186 -0.015580088
-0.09622052 -0.0182176 -0.100119434 -0.18224908 -0.12346191 0.20564145 -0.02090508 -0.17844485
-0.17836548 0.1344022 0.08417648 -0.11697366 0.059605736 0.06505543 0.14171672 0.13146868
-0.1242774 0.046705913 0.14631982 0.0007103205 0.059832957 0.14225483 -0.10286386 -0.07721853
-0.035303902 -0.18879643 -0.050998617 0.046757724 -0.04820421 -0.15129109 -0.11315322 0.19435461
-0.15813474 0.116305254 -0.09194081 -0.0029668093 -0.1314851 -0.115501665 -0.19253464 0.18506558
-0.11018689 -0.07506964 0.10811135 -0.07120126 -0.2104086 0.0912885 0.022867978 0.20427819
-0.24916816 -0.05796002 0.1291288 -0.040958595 0.08413996 0.35921162 0.1744467 0.1551293
0.008551204 -0.055696163 0.33290255 0.1478478 0.23964193 0.058500525 -0.15683897 0.07857017
0.049268726 0.23578477 -0.18298292 0.06579491 0.066351414 0.15869746 0.18520403 0.38934886
-0.09149916 0.92005277 -0.91457874 0.33048257 -0.83950996 0.072782435 0.017928394 0.06435545
-0.05122969 -0.27170345 0.2324512 0.16736005 0.023217512 0.11673953 -0.30708545 -0.13120463
-0.033498533 -0.03400446 0.28143623 -0.28800532 0.1864894 0.11524807 0.07605274 -0.065839246
-0.08433587 -0.05463984 -0.3204192 -0.23434147 -0.12901273 0.18129009 0.07033107 0.3834674
-0.09468957 0.30893674 0.016063068 0.20348817 0.3194959 -0.17544885 -0.110704094 -0.18742876
0.21719208 0.1766524 0.19292834 0.11014028 0.045311414 0.012709416 0.013016384 0.014196048
0.03976957 0.06819899 0.09391962 -0.4605557 -0.17433028 -0.19198667 0.2168664 -0.03577049
0.21006952 0.23001066 0.31683987 -0.12331142 0.13563287 0.21992178 0.015420218 0.25393528
-0.17878973 0.15533113 -0.010825301 -0.12989794 0.28715476 0.1341533 -0.1410832 -0.10505626
0.18195556 0.14365728 -0.13175288 -0.06647205 0.025312353 -0.118118905 0.17125379 0.14700405
-0.095615484 0.18362139 -0.010267901 -0.12000685 0.0018893004 -0.059878852 0.19787906 0.06981142
-0.11354794 -0.15071249 -0.08785679 -0.007907963 0.14379494 -0.1599838 0.0059729577 0.12203816
0.026627442 0.040443376 -0.23307292 0.2079621 0.053037807 -0.24718514 -0.048861466 0.21441737
0.11662167 0.018460725 0.2089932 0.13418841 0.184977 0.055335954 0.00395443 -0.01512722
0.010582736 0.36083117 0.09634935 -0.043176398 0.13680965 0.20879959 0.3924587 0.13450198
-0.12991859 0.15079074 0.25447732 -0.12833339 -0.018875685 -0.05546177 -0.09150312 0.100197904
0.31473726 0.0935167 0.031168632 0.2520011 0.06447616 0.3266068 0.5169192 0.06780949
0.16673768 -0.2331377 0.06125554 -0.08748566 0.16499765 0.24631579 0.08255931 0.27569124
0.0966209 0.19162974 0.19747952 -0.07809906 -0.18425757 -0.014346373 0.15378907 -0.48843443
-0.13056417 -0.083729304 0.11816121 0.10528062 0.2572705 -0.004123724 0.22116616 0.2086071
0.019421129 0.34568065 -0.07596994 -0.015474675 0.14722171 0.086537585 0.27773684 -0.06982151
0.09029406 -0.12161668 -0.058154557 0.15270111 0.16279103 0.15651146 -0.11709543 -0.09609858
00000000: c509 f9bc 592f 9ebb e989 a5bd 54a1 f43d
00000010: d528 043d 8b33 ee3d 847e 12bd a043 7fbc
00000020: 440f c5bd 143d 95bc 6b0b cdbd 819f 3abe
00000030: 99d9 fcbd ac93 523e 2141 abbc 3fba 36be
00000040: 71a5 36be bba0 093e b864 ac3d e38f efbd
00000050: 2525 743d c83b 853d 301e 113e ba9f 063e
00000060: 2685 febd b34e 3f3d ddd4 153e cd34 3a3a
00000070: 6713 753d 40ab 113e 4aaa d2bd c024 9ebd
00000080: d39a 10bd da53 41be ede3 50bd 0785 3f3d
00000090: c771 45bd 0dec 1abe e0bc e7bd e504 473e
000000a0: 13ee 21be 7331 ee3d 774b bcbd cd6e 42bb
000000b0: 08a4 06be 238c ecbd cd27 45be d581 3d3e
000000c0: aaa9 e1bd 1dbe 99bd 7c69 dd3d f7d1 91bd
000000d0: 5a75 57be 77f5 ba3d a055 bb3c 4d2e 513e
000000e0: f025 7fbe 7c67 6dbd 573a 043e 33c4 27bd
000000f0: 9251 ac3d 96ea b73e 28a2 323e 37da 1e3e
00000100: 591a 0c3c a921 64bd 3472 aa3e 6a65 173e
00000110: b264 753e 3f9e 6f3d 659a 20be 66e9 a03d
00000120: 01ce 493d 9071 713e e05f 3bbe 7bbf 863d
00000130: 40e3 873d 9681 223e 20a6 3d3e bc58 c73e
00000140: e963 bbbd 9488 6b3f d521 6abf 0335 a93e
00000150: 20ea 56bf f50e 953d 91de 923c cacc 833d
00000160: 39d6 51bd b71c 8bbe b007 6e3e 6f60 2b3e
00000170: a732 be3c 2215 ef3d 4e3a 9dbe 825a 06be
00000180: c235 09bd 4348 0bbd 6918 903e 6f75 93be
00000190: 14f7 3e3e 2e07 ec3d 8ac1 9b3d bad6 86bd
000001a0: 49b8 acbd 06ce 5fbd fc0d a4be 36f7 6fbe
000001b0: ea1b 04be 1ca4 393e bc09 903d d755 c43e
000001c0: 9bec c1bd f52c 9e3e b296 833c 345f 503e
000001d0: f794 a33e dda8 33be d4b8 e2bd 53ed 3fbe
000001e0: 9a67 5e3e 5ee4 343e 028f 453e 3a91 e13d
000001f0: 7698 393d 283b 503c ac42 553c 8a96 683c
00000200: 6be5 223d e9ab 8b3d ee58 c03d f5cd ebbe
00000210: a383 32be 2798 44be 3a12 5e3e 1484 12bd
00000220: 771c 573e ea87 6b3e d638 a23e b38a fcbd
00000230: 58e3 0a3e 2d33 613e 15a5 7c3c ce03 823e
00000240: a814 37be 200f 1f3e 9a5c 31bc f703 05be
00000250: f305 933e 7c5f 093e 1d78 10be bd27 d7bd
00000260: 8f52 3a3e e51a 133e 3aea 06be 8022 88bd
00000270: da5b cf3c 53e8 f1bd 275d 2f3e 3b88 163e
00000280: 0dd2 c3bd 3f07 3c3e b33a 28bc 27c6 f5bd
00000290: 67a2 f73a 8743 75bd cfa0 4a3e 4af9 8e3d
000002a0: d38b e8bd 6054 1abe 43ee b3bd 6790 01bc
000002b0: fb3e 133e cbd2 23be cdb8 c33b 25ef f93d
000002c0: cb21 da3c f4a7 253d abaa 6ebe 04f4 543e
000002d0: 2c3e 593d 1a1e 7dbe f622 48bd 3a90 5b3e
000002e0: 58d7 ee3d f23a 973c 5002 563e b068 093e
000002f0: 9c6a 3d3e f4a7 623d 2a94 813b 29d8 77bc
00000300: 3663 2d3c ddbe b83e cf52 c53d bcd9 30bd
00000310: d417 0c3e 8fcf 553e 59f0 c83e e3ba 093e
00000320: 6109 05be e368 1a3e da4a 823e d469 03be
00000330: 2ea1 9abc e22b 63bd fd65 bbbd 8f34 cd3d
00000340: 3e25 a13e af85 bf3d 5c55 ff3c 4a06 813e
00000350: 140c 843d 0239 a73e d154 043f b4df 8a3d
00000360: 48bd 2a3e a6bb 6ebe 17e7 7a3d af2b b3bd
00000370: 25f5 283e 353a 7c3e db14 a93d 6727 8d3e
00000380: 2ee1 c53d 963a 443e 1238 4a3e 66f2 9fbd
00000390: 04ae 3cbe 0d0d 6bbc e27a 1d3e 1414 fabe
000003a0: 9db2 05be 457a abbd 81fe f13d 5e9d d73d
000003b0: f5b8 833e 4e20 87bb 6279 623e 1a9d 553e
000003c0: 0f19 9f3c 0efd b03e 2196 9bbd 7e89 7dbc
000003d0: 4ac1 163e 9e3a b13d 8633 8e3e 94fe 8ebd
000003e0: 18ec b83d 2a12 f9bd 7933 6ebd ae5d 1c3e
000003f0: b1b2 263e 8a44 203e bbcf efbd 55cf c4bd

layers.0.bias f4 [128]
-0.1205655 -0.12744425 0.17420435 -0.023337126 -0.1746505 0.12959765 -0.19477741 -0.011587017
-0.044573348 0.22047274 0.013904422 0.18371414 -0.1603343 -0.043532167 -0.1635747 -0.1255452
-0.1484597 0.013409309 0.13754733 0.15412343 0.038819123 0.11936052 -0.0086873295 -0.07671848
0.00517594 0.19027402 -0.054380514 0.02307373 0.04418984 0.03824659 0.014247303 0.10233549
0.22208919 -0.04335923 -0.113641456 0.085315004 0.054939527 -0.01685589 0.15237509 0.01734066
-0.026445698 0.17265823 0.19625138 -0.17129913 0.15449117 0.0007370887 0.048738718 -0.041264534
0.083476864 0.13245054 0.05687365 -0.13672079 -0.017298816 -0.16114862 -0.10891042 0.0032362207
0.15539093 0.17669906 -0.06837574 -0.020870456 0.14936808 0.0075151925 -0.010783434 -0.035518385
0.002306583 -0.08901209 0.14355247 0.20653392 0.10499318 0.19403772 0.010800556 0.16389917
0.10756983 0.024541892 0.086276546 -0.01524477 -0.04565324 0.1809415 -0.13726984 -0.028386211
0.011502529 -0.16691287 -0.021847466 -0.10633695 -0.055436984 0.2381793 0.2250029 -0.062180232
0.15356708 0.004213902 0.14343344 -0.07346177 0.116731174 -0.019408584 -0.12592277 0.035520535
0.013170432 0.012172765 0.07513727 -0.19296423 0.072570816 0.13311927 0.04065962 -0.016811159
-0.09534049 -0.076237515 0.039683618 0.06580699 0.1658194 0.09381709 0.0062832497 -0.15242322
0.004290529 0.1367034 -0.19797078 0.16891587 0.074742034 0.08914677 -0.089202225 0.15511663
-0.11669772 0.08502338 0.09997119 0.13317382 0.040399503 -0.16532338 0.055239446 -0.12457323
00000000: 0beb f6bd bf80 02be a062 323e 802d bfbc
00000010: 95d7 32be 3fb5 043e bb73 47be 79d7 3dbc
00000020: 8b92 36bd 9bc3 613e 5fcf 633c 8f1f 3c3e
00000030: ad2e 24be c94e 32bd 2080 27be ec8e 00be
00000040: d205 18be b8b2 5b3c 35d9 0c3e 88d2 1d3e
00000050: cd00 1f3d 4a73 f43d 4d55 0ebc 941e 9dbd
00000060: ef9a a93b 31d7 423e 1abe 5ebd 1e05 bd3c
00000070: 6800 353d 75a8 1c3d 856d 693c 4595 d13d
00000080: 596b 633e 7399 31bd dabc e8bd a2b9 ae3d
00000090: 4508 613d 5d15 8abc 3708 1c3e 000e 8e3c
000000a0: a6a4 d8bc 52cd 303e 1ff6 483e 0a69 2fbe
000000b0: ef32 1e3e 2f39 413a 40a2 473d 0005 29bd
000000c0: ebf5 aa3d 1da1 073e 58f4 683d 8900 0cbe
000000d0: 3fb6 8dbc 2504 25be 6d0c dfbd c616 543b
000000e0: cd1e 1f3e 99f0 343e 9408 8cbd 85f8 aabc
000000f0: f2f3 183e 0142 f63b 00ad 30bc ba7b 11bd
00000100: 0b2a 173b f84b b6bd 6bff 123e a17d 533e
00000110: aa06 d73d d3b1 463e d1f4 303c 2fd5 273e
00000120: 924d dc3d 140c c93c c2b1 b03d 33c5 79bc
00000130: e4fe 3abd bb48 393e 7790 0cbe 338a e8bc
00000140: 1a75 3c3c 35eb 2abe 75f9 b2bc 30c7 d9bd
00000150: e411 63bd 46e5 733e 2967 663e b3b0 7ebd
00000160: b040 1d3e c614 8a3b 37e0 123e 2073 96bd
00000170: c110 ef3d c0fe 9ebc e6f1 00be fb7d 113d
00000180: ccc8 573c 4770 473c 92e1 993d 6a98 45be
00000190: 02a0 943d 6b50 083e b48a 263d 8eb7 89bc
000001a0: e041 c3bd 6a22 9cbd 4a8b 223d d1c5 863d
000001b0: 90cc 293e 2d23 c03d b8e3 cd3b d514 1cbe
000001c0: 9197 8c3b fafb 0b3e dab8 4abe 48f8 2c3e
000001d0: 5a12 993d 9592 b63d a8af b6bd e5d6 1e3e
000001e0: 37ff eebd bd20 ae3d b2bd cc3d b85e 083e
000001f0: f379 253d 884a 29be c242 623d 4020 ffbd

layers.1.weight f4 [128, 128]
0.04977233 -0.003978578 -0.0051217973 -0.016737936 -0.011031081 -0.013242305 0.06501259 -0.04666439
0.028210584 -0.08991781 -0.014757719 0.0025594814 -0.045141224 0.000660694 0.053387295 -0.06920841
0.029768895 0.05456538 0.04276211 -0.08805306 0.021613678 0.05763045 -0.023114095 0.031104364
-0.047328677 -0.07857302 -0.027889075 -0.059612285 -0.017327486 -0.042865254 0.04125503 0.069818616
-0.07363288 -0.08088822 -0.044030495 -0.09086174 0.038902387 0.036932614 0.04239132 6.088112e-05
0.08064075 0.022510137 0.026206205 0.054193735 -0.06315032 -0.0762876 0.05567668 0.066095464
0.014490657 0.05631236 0.071488105 0.014237795 -0.03035929 0.0154211 -0.026510132 -0.06694774
0.0538715 -0.040833425 0.013574365 0.046356793 -0.033923056 -0.0822858 0.0032481207 0.0649718
0.01793856 0.041860465 0.038182642 0.08295486 0.07921593 0.046736926 0.010378008 -0.0009943164
-0.007760067 0.009509101 0.04935961 -0.012758599 -0.049721915 -0.045949206 -0.018934824 0.0012791042
-0.013979614 -0.062170077 0.0049659302 0.025312165 -0.020866582 -0.060173605 -0.061588075 -0.018728647
-0.064626776 0.051494993 0.064672306 0.053452183 -0.067321084 0.05575656 -0.05852318 -0.091053896
0.068912424 0.025486084 -0.018445458 0.031123098 0.07453165 -0.031136917 -0.056934133 0.05497698
0.046495497 0.022161424 0.034707285 0.08622148 -0.05440273 0.056373358 -0.025457034 -0.021372175
-0.0241972 0.057006177 0.06133949 -0.0065141586 0.07491459 -0.012459683 -0.03028802 0.059909683
-0.07942687 0.014555861 -0.0008998352 0.059318926 -0.046059046 -0.03627792 -0.03255506 0.07445912
-0.047191933 -0.009847074 -0.014083037 -0.2693865 0.0715094 0.039634317 -0.051734466 -0.027225059
0.124763615 0.14327933 0.17787586 0.20208654 -0.48699906 -0.2674109 0.08666968 0.15161692
0.13369994 0.15221632 -0.052958727 -0.9182416 -0.11915528 0.045061607 -0.019412795 0.100225635
0.15825804 0.050752636 -0.04588224 -0.044106107 0.051545545 0.15227489 -0.64467907 -0.10347123
0.17142154 0.06274231 0.07373798 -0.08766855 0.024493234 0.21050294 0.007970922 0.14526783
0.01947756 -0.12828174 0.009856216 -0.008900573 -0.1874973 0.003160687 -0.20778093 0.0651085
0.17573346 -0.17040876 -0.0629888 0.0015214635 0.11525922 -0.07790758 0.10442157 -0.32293558
-0.77376246 -0.08428294 0.022683727 0.061530616 -0.060213115 -0.5315184 0.034618862 0.008398246
-0.24971484 0.15289812 0.32026398 -0.074133 -0.5378827 0.15835974 0.064292215 -0.8173786
-0.4060173 0.11777376 0.027586054 0.03785695 -1.1455313 0.14948826 0.09608603 -0.02673619
0.041071564 -0.55445564 -0.67601633 0.019615248 0.17482401 0.0733319 0.15902534 0.068182655
-1.1063105 0.14519364 -0.02796802 -0.0017170099 -0.024215978 -0.039752707 -0.64789295 -0.02414973
0.2411907 0.08057726 0.11671825 0.07910993 -0.114918076 -0.04700216 0.044144098 -0.057085793
-0.82403773 0.01844894 -0.4165381 -0.9900316 0.07092284 0.044942755 -0.2368499 -0.18417959
-0.69763887 -0.011565444 0.031701922 0.15867145 0.05298803 -1.1935632 -0.43046385 0.16216406
0.23259363 -0.23613654 0.1564096 0.061736356 -0.033459697 0.008321822 -0.7412566 -0.03759877
00000000: 12de 4b3d bb5e 82bb c0d4 a7bb ff1d 89bc
00000010: b5bb 34bc 41f6 58bc 5225 853d 2923 3fbd
00000020: e219 e73c d426 b8bd 5cca 71bc f9bc 273b
00000030: 01e6 38bd 6c32 2d3a a3ac 5a3d 24bd 8dbd
00000040: e6dd f33c f37f 5f3d 5227 2f3d 2a55 b4bd
00000050: 2b0f b13c e80d 6c3d c559 bdbc 94ce fe3c
00000060: b7db 41bd e4ea a0bd a177 e4bc 032c 74bd
00000070: 5ff2 8dbc 7a93 2fbd 09fb 283d 10fd 8e3d
00000080: d6cc 96bd b9a8 a5bd 5259 34bd b815 babd
00000090: 1c58 1f3d a746 173d 85a2 2d3d 9b5a 7f38
000000a0: fa26 a53d 2e67 b83c 65ae d63c 40fa 5d3d
000000b0: f454 81bd ac3c 9cbd 3b0d 643d 0f5d 873d
000000c0: 386a 6d3c caa7 663d 5b68 923d a445 693c
000000d0: 0cb4 f8bc c8a8 7c3c c72b d9bc e61b 89bd
000000e0: 5da8 5c3d f340 27bd 0367 5e3c 9fe0 3d3d
000000f0: e7f2 0abd 7585 a8bd 6cde 543b ef0f 853d
00000100: e3f3 923c e175 2b3d 6765 1c3d 3de4 a93d
00000110: f63b a23d 386f 3f3d 8508 2a3c b953 82ba
00000120: 2948 febb 0fcc 1b3c 4d2d 4a3d 7109 51bc
00000130: 35a9 4bbd 3c35 3cbd 341d 9bbc 9da7 a73a
00000140: c00a 65bc 0da6 7ebd 3eb9 a23b 755b cf3c
00000150: 65f0 aabc 9978 76bd c743 7cbd d26c 99bc
00000160: 0b5b 84bd 6aec 523d ea72 843d adf0 5a3d
00000170: a3df 89bd fe60 643d 01b6 6fbd 777a babd
00000180: f521 8d3d 31c8 d03c ee1a 97bc def5 fe3c
00000190: 0da4 983d d912 ffbc c433 69bd 8b2f 613d
000001a0: 1072 3e3d e08b b53c 3a29 0e3d e394 b03d
000001b0: 66d5 5ebd c0e7 663d 458b d0bc b314 afbc
000001c0: 3539 c6bc 4f7f 693d 1e3f 7b3d b974 d5bb
000001d0: d26c 993d b323 4cbc 951e f8bc db63 753d
000001e0: 8eaa a2bd b57b 6e3c ebe2 6bba 67f8 723d
000001f0: 69a8 3cbd 2898 14bd 7458 05bd 067e 983d
00000200: 544c 41bd 9f55 21bc 8abc 66bc 07ed 89be
00000210: 8573 923d 9857 223d 85e7 53bd 1607 dfbc
00000220: 1184 ff3d d1b7 123e 1725 363e c6ef 4e3e
00000230: f157 f9be 15ea 88be e07f b13d 7741 1b3e
00000240: a3e8 083e 98de 1b3e 40eb 58bd e211 6bbf
00000250: af07 f4bd 8592 383d 9507 9fbc 1943 cd3d
00000260: 650e 223e ffe1 4f3d 04ef 3bbd 9ba8 34bd
00000270: 6c21 533d f3ed 1b3e b009 25bf b9e8 d3bd
00000280: 2189 2f3e 0a7f 803d f003 973d 928b b3bd
00000290: 09a6 c83c 158e 573e 7898 023c 17c1 143e
000002a0: 678f 9f3c 4a5c 03be f77b 213c b5d3 11bc
000002b0: 4bff 3fbe 8723 4f3b 86c4 54be 9b57 853d
000002c0: 79f3 333e a27f 2ebe 4600 81bd d86b c73a
000002d0: 070d ec3d 028e 9fbd fada d53d d057 a5be
000002e0: 4c15 46bf 899c acbd 39d3 b93c 8707 7c3d
000002f0: 07a2 76bd 9711 08bf 82cc 0d3d cc98 093c
00000300: 3fb5 7fbe 5391 1c3e a4f9 a33e 0bd3 97bd
00000310: aeb2 09bf 0e29 223e a3ab 833d b93f 51bf
00000320: 80e1 cfbe 5e33 f13d 26fc e13c e40f 1b3d
00000330: c5a0 92bf 7313 193e c1c8 c43d db05 dbbc
00000340: a83a 283d cef0 0dbf 680f 2dbf 28b0 a03c
00000350: 1105 333e 092f 963d 8ad7 223e 59a3 8b3d
00000360: 959b 8dbf a4ad 143e 301d e5bc 4b0d e1ba
00000370: 9660 c6bc bcd3 22bd 50dc 25bf a8d5 c5bc
00000380: b2fa 763e b105 a53d fa09 ef3d 6304 a23d
00000390: 2b5a ebbd 5685 40bd 71d0 343d cbd2 69bd
000003a0: 23f4 52bf 3b22 973c 7b44 d5be b672 7dbf
000003b0: fe3f 913d e515 383d c888 72be 9399 3cbe
000003c0: 7698 32bf fd7c 3dbc e0d9 013d c57a 223e
000003d0: fa09 593d aec6 98bf c265 dcbe 560e 263e
000003e0: 062d 6e3e c7cd 71be d729 203e 43df 7c3d
000003f0: 090d 09bd 4058 083c fec2 3dbf 2b01 1abd

layers.1.bias f4 [128]
0.054132637 0.18789297 0.005714754 -0.10237939 -0.04028718 0.04906907 0.0055125533 0.06612081
0.14088064 0.009664213 0.10120967 0.004696465 0.016803198 -0.08356126 -0.017260892 -0.056869965
0.12424983 -0.05728351 0.037718747 0.1095856 -0.039784297 0.090593085 0.04187926 -0.08601384
0.107841596 -0.076095544 0.0156403 0.024412487 0.07718085 -0.08731029 0.038278732 0.059960105
0.046083458 -0.03473949 -0.013563709 0.039421696 0.013502354 0.01051658 0.05319428 -0.045071986
0.031249806 0.032288622 0.07169479 0.0073010945 0.07997649 -0.066054285 -0.015685078 0.08305177
0.085601866 -0.028263923 0.1412742 -0.047942758 0.09954818 0.049077295 -0.099965155 -0.045019984
-0.103916876 -0.033722643 0.2075194 -0.07431545 0.0010546566 0.05633604 0.049737785 0.014245856
0.02326032 -0.056403473 -0.03251567 -0.06321655 -0.07576017 -0.033206586 -0.004685017 0.079958856
0.15484446 0.08691032 -0.07125612 -0.056166627 -0.022516951 -0.00097110285 -0.069732636 -0.062056914
0.0029629762 -0.04992937 -0.03819242 -0.018531077 0.032125603 -0.04444004 0.06421417 0.025138589
0.053300336 -0.06397431 0.0026107451 0.06713491 0.031921975 -0.05314513 0.026163878 0.06494757
-0.03512908 0.015394693 -0.07059322 -0.08464892 -0.086273424 0.10925747 -0.027109137 0.009037019
0.077318594 -0.08413409 0.04928398 0.069033846 -0.028670259 0.09565471 0.024010932 0.09993612
0.010420049 -0.08980831 -0.054938678 0.06101233 0.013233383 -0.06712416 -0.04648988 -0.07191646
-0.09731077 -0.08693418 0.0743456 -0.088017076 0.06398622 -0.08303568 -0.06082567 -0.083264135
00000000: 2fba 5d3d 0467 403e d542 bb3b 49ac d1bd
00000010: 2c04 25bd a6fc 483d a6a2 b43b 596a 873d
00000020: 0443 103e a656 1e3c 0447 cf3d cee4 993b
00000030: dca6 893c 2a22 abbd b766 8dbc 7bf0 68bd
00000040: b276 fe3d 1da2 6abd f97e 1a3d 6a6e e03d
00000050: dcf4 22bd de88 b93d 9689 2b3d 0628 b0bd
00000060: 0edc dc3d fbd7 9bbd 1620 803c b2fc c73c
00000070: fe10 9e3d bdcf b2bd 29ca 1c3d ba98 753d
00000080: 02c2 3c3d ff4a 0ebd 523a 5ebc a578 213d
00000090: fa38 5d3c bc4d 2c3c 3fe2 593d 679d 38bd
000000a0: 98ff ff3c 1341 043d b8d4 923d 053e ef3b
000000b0: b7ca a33d 7847 87bd fe7d 80bc 0c17 aa3d
000000c0: 0850 af3d be89 e7bc 2faa 103e a05f 44bd
000000d0: ebdf cb3d 4605 493d 88ba ccbd e066 38bd
000000e0: 5fd2 d4bd c120 0abd f77f 543e b332 98bd
000000f0: 673c 8a3a 9fc0 663d d9b9 4b3d 7367 693c
00000100: 6d8c be3c 5407 67bd 272f 05bd ae77 81bd
00000110: 2628 9bbd a103 08bd c584 99bb 78c1 a33d
00000120: 8c8f 1e3e 0afe b13d bbee 91bd fa0e 66bd
00000130: 7875 b8bc 9c91 7eba fccf 8ebd 642f 7ebd
00000140: 7e2e 423b bd82 4cbd a86f 1cbd 7cce 97bc
00000150: 2396 033d c206 36bd b882 833d 71ef cd3c
00000160: 7451 5a3d f704 83bd 0919 2b3b 077e 893d
00000170: 9ec0 023d b5ae 59bd a155 d63c 3b03 853d
00000180: 83e3 0fbd 063a 7c3c 2e93 90bd 6a5c adbd
00000190: 1fb0 b0bd 61c2 df3d fb13 debc 0110 143c
000001a0: 3659 9e3d 7e4e acbd 00de 493d 9e61 8d3d
000001b0: e4dd eabc 9ee6 c33d 93b2 c43c 4fab cc3d
000001c0: dab8 2a3c 6bed b7bd 6107 61bd 11e8 793d
000001d0: d5d0 583c 6478 89bd 2c6c 3ebd f048 93bd
000001e0: de4a c7bd 8c0a b2bd 8242 983d 4c42 b4bd
000001f0: 350b 833d 9c0e aabd 5624 79bd 6386 aabd

predict.weight f4 [5, 128]
-0.021005599 0.011584221 0.12881182 -0.03658506 -0.06998293 0.0758739 -0.008809321 0.09712245
0.4314088 -0.09343413 -0.45553082 0.31617463 0.06548352 0.025960235 -0.045572087 0.14547627
-0.024257395 -0.023367297 -0.021442631 0.060134802 -0.06991654 0.050385926 0.16680655 0.0077491924
0.23274851 0.07416144 -0.24232492 -0.085004225 -0.0069037518 0.012626911 0.17809425 -0.009689997
-0.04187589 0.17374672 0.036518052 -0.019669736 -0.07003765 -0.017704828 0.017601645 0.04992253
-0.08218823 -0.054019954 -0.041510206 0.059548263 0.04507009 -0.49274787 0.12751092 0.16889907
0.056933206 0.09731502 0.116495624 0.17814633 -0.014534605 -0.07830062 0.30478406 0.14833799
0.25114378 -0.022555768 0.39931276 0.081207156 0.011818261 -0.19644456 0.12136248 0.15818632
0.0042919503 -0.04315481 0.04079561 0.16021861 -0.0358839 0.04492054 0.15215738 0.12864988
0.022670241 -0.05532622 0.12838784 -0.07876457 0.073954985 0.0032300719 -0.0076418454 -0.036923315
0.15115613 -0.042924557 0.047364805 0.044858836 -0.07244612 -0.04359704 -0.032919597 0.17881452
0.03065038 -0.019053094 0.010198035 -0.06932289 0.057955366 -0.07310929 -0.17747885 -0.03366096
0.16287614 0.031783298 0.058384806 0.13788693 -0.026505783 -0.52796763 0.028712446 0.1795244
0.042634755 0.20061155 -0.20287156 0.061041586 0.030866088 0.07571731 -0.01626784 0.14469074
0.16828357 0.016733458 -0.018882178 0.041437794 -0.010446191 -0.07669084 -0.023239246 0.034994096
0.08493138 -0.028312037 -0.051468793 -0.007253946 -0.00029669274 -0.008981348 -0.031431153 -0.074253775
-0.08588974 -0.56544536 0.04802331 0.03297921 -0.01052432 0.063952215 0.08345779 0.14053553
-0.3864133 0.15999627 -0.41041702 0.18902107 0.03812811 0.12298471 -0.018802317 0.118768185
0.17549436 -0.06411042 0.02524329 -3.7804755e-05 0.07278399 0.08682563 0.05958899 -0.06588411
1.2002913 0.0024398013 -0.07496654 -0.0021648728 0.13160008 -0.039425988 0.007023103 0.15523413
-0.0760906 0.1636376 0.03316664 0.047319528 -0.035147343 0.19242705 0.0423878 -0.045902807
-0.07037926 -0.065648146 0.071522154 -0.04394889 -0.017891938 -0.3757809 0.1307244 0.140886
0.14507304 0.08866847 0.6476269 0.062246397 0.13784853 0.096637204 0.09137777 0.09122996
0.22878078 -0.06455901 -0.4468228 -0.018434927 -0.05708628 -0.0841718 0.012641807 -0.042231515
0.06599694 0.08254123 0.055933557 0.020929663 -0.07462679 -0.05335574 0.20111126 0.18165925
0.17761506 0.02453531 0.07909978 -0.034042463 -0.0032116969 0.048633806 -0.020330066 0.062827095
0.05131598 -0.005113902 9.89608e-05 0.15700576 -0.02730103 0.051205833 -0.004930501 -0.019837439
0.011878647 -0.0739045 0.074160516 0.014310341 0.10738355 0.07724539 0.22873157 0.029142262
0.02366722 0.18101597 0.0016331903 0.15165253 0.069185644 0.33731622 -0.010335735 0.11673943
0.1468602 0.09835479 0.08373532 -0.0016749158 -0.07011337 0.120594345 -0.043879252 0.10050692
0.04801564 -0.07874357 0.045940887 0.033353616 0.041694127 0.02589222 -0.0028018907 -0.020190943
0.08198764 0.010454642 0.195031 -0.07256887 0.0876914 0.071685426 0.094310746 -0.0879952
00000000: ef13 acbc bfcb 3d3c 3fe7 033e 37da 15bd
00000010: 3653 8fbd c663 9b3d f854 10bc 23e8 c63d
00000020: 9de1 dc3e 655a bfbd 563b e9be a4e1 a13e
00000030: 391c 863d 8faa d43c cca9 3abd bbf7 143e
00000040: 72b7 c6bc c66c bfbc 75a8 afbc e94f 763d
00000050: 6730 8fbd 7961 4e3d 56cf 2a3e f0ec fd3b
00000060: a055 6e3e f4e1 973d 0624 78be b216 aebd
00000070: de38 e2bb 1ae1 4e3c 575e 363e cbc2 1ebc
00000080: 0e86 2bbd a9ea 313e f493 153d 6d22 a1bc
00000090: e66f 8fbd b709 91bc 5331 903c 917b 4c3d
000000a0: 4d52 a8bd 0744 5dbd 9b06 2abd e1e8 733d
000000b0: 6a9b 383d 7349 fcbe 3992 023e e1f3 2c3e
000000c0: cb32 693d 194d c73d 4295 ee3d fe6b 363e
000000d0: 8d22 6ebc 135c a0bd a80c 9c3e eae5 173e
000000e0: eb95 803e e0c6 b8bc b972 cc3e f04f a63d
000000f0: 61a1 413c c328 49be e48c f83d 98fb 213e
00000100: 7da3 8c3b 19c3 30bd 4c19 273d 5910 243e
00000110: fffa 12bd 9afe 373d 25cf 1b3e cbbc 033e
00000120: f1b6 b93c bf9d 62bd 1a78 033e 524f a1bd
00000130: b675 973d 9daf 533b 7268 fabb e73c 17bd
00000140: acc8 1a3e a9d1 2fbd 9901 423d e6bd 373d
00000150: a25e 94bd cf92 32bd b3d6 06bd 271b 373e
00000160: 8116 fb3c 3c15 9cbc a915 273c 29f9 8dbd
00000170: 9b62 6d3d 53ba 95bd 04bd 35be 13e0 09bd
00000180: 01c9 263e 342f 023d e824 6f3d 3b32 0d3e
00000190: a822 d9bc e328 07bf 5d36 eb3c 3fd5 373e
000001a0: c8a1 2e3d 1d6d 4d3e 90bd 4fbe be06 7a3d
000001b0: e1da fc3c ad11 9b3d 2244 85bc cf29 143e
000001c0: 8752 2c3e 9b14 893c ccae 9abc adba 293d
000001d0: 8026 2bbc 1610 9dbd 3b60 bebc f855 0f3d
000001e0: 81f0 ad3d a5ee e7bc f1d0 52bd 82b2 edbb
000001f0: 6d8d 9bb9 8126 13bc f4bd 00bd 5d12 98bd
00000200: f6e6 afbd 07c1 10bf 17b4 443d 3515 073d
00000210: 336e 2cbc 61f9 823d ebeb aa3d 8ce8 0f3e
00000220: f7d7 c5be 10d6 233e 2e22 d2be bd8e 413e
00000230: 392c 1c3d 68df fb3d 5107 9abc bc3c f33d
00000240: cbb4 333e 534c 83bd 04cb ce3c 8c90 1eb8
00000250: c60f 953d a3d1 b13d 9613 743d 40ee 86bd
00000260: 25a3 993f 13e5 1f3b 0f88 99bd 8ae0 0dbb
00000270: 2cc2 063e 257d 21bd 0f22 e63b b2f5 1e3e
00000280: 63d5 9bbd 9d90 273e bed9 073d 1fd2 413d
00000290: a9f6 0fbd 990b 453e d49e 2d3d 9504 3cbd
000002a0: 0023 90bd 8972 86bd 357a 923d c003 34bd
000002b0: 1d92 92bc 5b66 c0be 9edc 053e 6b44 103e
000002c0: 078e 143e d197 b53d e0ca 253f 14f6 7e3d
000002d0: 2a28 0d3e bae9 c53d 4524 bb3d c6d6 ba3d
000002e0: 8245 6a3e 8437 84bd f5c5 e4be d804 97bc
000002f0: 4ed3 69bd 4462 acbd 951f 4f3c f4fa 2cbd
00000300: 6729 873d 600b a93d 961a 653d af74 ab3c
00000310: eed5 98bd 8c8b 5abd 1cf0 4d3e e204 3a3e
00000320: b9e0 353e 46fe c83c 11ff a13d 1c70 0bbd
00000330: 557b 52bb 3e34 473d 3d8b a6bc 7eab 803d
00000340: b430 523d 8592 a7bb 2d89 cf38 1ec6 203e
00000350: 69a6 dfbc 35bd 513d 0a90 a1bb 2082 a2bc
00000360: a89e 423c 3e5b 97bd 78e1 973d ec75 6a3c
00000370: e8eb db3d d532 9e3d 9c38 6a3e c1bb ee3c
00000380: c2e1 c13c 405c 393e c610 d63a cd4a 1b3e
00000390: 34b1 8d3d b6b4 ac3e 3757 29bc 1515 ef3d
000003a0: 8562 163e 3c6e c93d 6c7d ab3d d988 dbba
000003b0: 9997 8fbd 2bfa f63d bbba 33bd 92d6 cd3d
000003c0: 0cac 443d 4f44 a1bd 832c 3c3d cd9d 083d
000003d0: 76c7 2a3d ec1b d43c ed9f 37bb 7a67 a5bc
000003e0: 23e9 a73d f249 2b3c 35b6 473e fd9e 94bd
000003f0: 8c97 b33d cfcf 923d fe25 c13d d436 b4bd

predict.bias f4 [5]
-0.035257068 0.08977424 -0.036142625 -0.051587325 0.020779138
00000000: b769 10bd 8fdb b73d 4a0a 14bd 3b4d 53bd
00000010: 0339 aa3c

exp_avg f4 [128, 25]
1.1240798e-37 1.1240798e-37 1.0789162e-37 1.1449842e-37 -1.1584958e-37 1.1240798e-37 1.0717822e-37 1.07459e-37
-1.0851746e-37 1.1584958e-37 1.1240798e-37 1.0820937e-37 -1.0789162e-37 -1.0603591e-37 1.1584958e-37 1.1240798e-37
1.0794454e-37 1.1421726e-37 -1.1048272e-37 1.1584958e-37 1.1240798e-37 1.0799181e-37 1.1421726e-37 -1.0835732e-37
1.1584958e-37 0.0 0.0 0.0 0.0 0.0 0.0 0.0
0.0 0.0 0.0 0.0 0.0 0.0 0.0 0.0
0.0 0.0 0.0 0.0 0.0 0.0 0.0 0.0
0.0 0.0 -0.0060572224 -0.0064314436 0.009104418 -0.0028820965 -0.0002339076 -0.0060572224
0.001338059 -0.018516775 0.0013331047 0.00012424449 -0.0060572224 -5.045114e-05 -0.011034073 0.0014411112
-0.00016587203 -0.0060572224 -0.0001261956 -0.009270467 0.0017907193 0.00020703473 -0.0060572224 -0.0007060184
-0.017506376 0.0013799671 0.0003108027 -0.0010353616 0.00018037017 0.0022770958 -0.001123331 -9.607633e-06
-0.0010353616 -0.0028790927 0.0030212738 0.00075754675 0.00011964768 -0.0010353616 0.0003142038 -0.0033775992
0.0015755352 -0.00058114144 -0.0010353616 0.0021901107 -0.016683344 0.0015585197 -4.3868087e-05 -0.0010353616
-0.0011422206 -0.008157373 0.00017075299 1.7088292e-05 -0.00029694452 -0.0004025452 0.004972903 -0.0008123153
-2.0388745e-05 -0.00029694452 0.00015443689 -0.009239683 0.0008510839 4.5841236e-05 -0.00029694452 0.0007578823
-0.0050265635 0.0005639623 -0.0001193665 -0.00029694452 0.0009480898 -0.0029676289 0.00091286213 7.3177e-06
-0.00029694452 0.00040349842 -0.005943615 0.00078399363 5.7707923e-05 -0.008574981 -0.008384294 0.0017349301
-0.0030310946 2.0759853e-05 -0.008574981 0.00011037636 -0.0070620975 0.0010639431 -2.0286128e-05 -0.008574981
-0.0007444245 -0.0036126962 0.00084009895 -2.6627804e-05 -0.008574981 -0.0017069024 -0.0035828073 0.00084796693
-5.0092156e-05 -0.008574981 -0.0030134262 -0.0037215597 0.0009165776 1.6908916e-05 0.0 0.0
0.0 0.0 0.0 0.0 0.0 0.0 0.0 0.0
0.0 0.0 0.0 0.0 0.0 0.0 0.0 0.0
0.0 0.0 0.0 0.0 0.0 0.0 0.0 -0.009106921
-0.008867734 0.00024387815 -0.0025155633 6.0159175e-05 -0.009106921 -0.0007680816 -0.004554393 0.00033295108
-6.545702e-05 -0.009106921 -0.0015387395 -0.0017982551 0.00026939006 -0.00013208186 -0.009106921 -0.0027543644
-0.0039787693 0.0002232047 -8.249132e-05 -0.009106921 -0.004443856 -0.0023680981 0.00022820075 -4.867542e-05
-0.009086902 -0.008221512 -0.004082451 -0.002811145 0.000188381 -0.009086902 -0.000572664 0.0025047322
0.0005954199 -0.00017441236 -0.009086902 -0.00012364343 0.003851753 0.0005012107 -3.317831e-05 -0.009086902
-0.0017611707 -0.0015096817 0.0002226166 -0.00021762017 -0.009086902 -0.0034678082 0.006151432 0.0003682835
-0.00019018234 -3.7392834e-05 -0.00027825474 0.00735459 -0.0010405072 -7.6454584e-05 -3.7392834e-05 0.00092300907
-0.0123648625 0.0011134399 5.4355034e-05 -3.7392834e-05 0.0010920119 -0.0070595583 0.00092553743 -0.00013589438
-3.7392834e-05 0.0016457747 -0.00646197 0.0012622247 6.587249e-05 -3.7392834e-05 0.0013597386 -0.009459193
0.001128405 0.00012537549 0.02833837 0.028230028 0.0013266907 0.008175112 0.00029252557 0.02833837
00000000: 7700 1902 7700 1902 beda 1202 e0d8 1b02
00000010: b0af 1d82 7700 1902 29e2 1102 ff43 1202
00000020: d1b4 1382 b0af 1d02 7700 1902 7649 1302
00000030: beda 1282 1f54 1082 b0af 1d02 7700 1902
00000040: 2fed 1202 e876 1b02 9c61 1682 b0af 1d02
00000050: 7700 1902 a7fd 1202 e876 1b02 047d 1382
00000060: b0af 1d02 0000 0000 0000 0000 0000 0000
00000070: 0000 0000 0000 0000 0000 0000 0000 0000
00000080: 0000 0000 0000 0000 0000 0000 0000 0000
00000090: 0000 0000 0000 0000 0000 0000 0000 0000
000000a0: 0000 0000 0000 0000 0000 0000 0000 0000
000000b0: 0000 0000 0000 0000 0000 0000 0000 0000
000000c0: 0000 0000 0000 0000 aa7b c6bb dcbe d2bb
000000d0: b22a 153c 8ee1 3cbb 1845 75b9 aa7b c6bb
000000e0: cf61 af3a 7eb0 97bc 92bb ae3a a047 0239
000000f0: aa7b c6bb 809b 53b8 42c8 34bc abe3 bc3a
00000100: efed 2db9 aa7b c6bb 6053 04b9 28e3 17bc
00000110: 92b6 ea3a 7617 5939 aa7b c6bb 1814 39ba
00000120: 8869 8fbc 03e0 b43a 3bf3 a239 f8b4 87ba
00000130: c021 3d39 543b 153b bc3c 93ba 7830 21b7
00000140: f8b4 87ba 29af 3cbb 9000 463b 1a96 463a
00000150: 5ceb fa38 f8b4 87ba b8bb a439 b65a 5dbb
00000160: 3082 ce3a be57 18ba f8b4 87ba f687 0f3b
00000170: 82ab 88bc 3e47 cc3a 00ff 37b8 f8b4 87ba
00000180: 90b6 95ba 81a6 05bc 280c 3339 d458 8f37
00000190: 38af 9bb9 b40c d3b9 bcf3 a23b 8ff1 54ba
000001a0: 7f08 abb7 38af 9bb9 56f0 2139 0a62 17bc
000001b0: 461b 5f3a a745 4038 38af 9bb9 9fac 463a
000001c0: dfb5 a4bb dfd6 133a 6754 fab8 38af 9bb9
000001d0: 3b89 783a 8d7c 42bb 244d 6f3a 908a f536
000001e0: 38af 9bb9 a48c d339 a8c2 c2bb ec84 4d3a
000001f0: 690b 7238 147e 0cbc 475e 09bc 9866 e33a
00000200: 54a5 46bb 7225 ae37 147e 0cbc db79 e738
00000210: 2b69 e7bb 0274 8b3a 212c aab7 147e 0cbc
00000220: 7c25 43ba fcc2 6cbb 163a 5c3a c65e dfb7
00000230: 147e 0cbc 24ba dfba 88cd 6abb 194a 5e3a
00000240: 0b1a 52b8 147e 0cbc e77c 45bb 69e5 73bb
00000250: 7b46 703a 9fd7 8d37 0000 0000 0000 0000
00000260: 0000 0000 0000 0000 0000 0000 0000 0000
00000270: 0000 0000 0000 0000 0000 0000 0000 0000
00000280: 0000 0000 0000 0000 0000 0000 0000 0000
00000290: 0000 0000 0000 0000 0000 0000 0000 0000
000002a0: 0000 0000 0000 0000 0000 0000 0000 0000
000002b0: 0000 0000 0000 0000 0000 0000 3235 15bc
000002c0: f949 11bc 8bb9 7f39 26dc 24bb 6c53 7c38
000002d0: 3235 15bc 1559 49ba 043d 95bb f08f ae39
000002e0: f845 89b8 3235 15bc 88af c9ba 6eb3 ebba
000002f0: ec3c 8d39 747f 0ab9 3235 15bc 9182 34bb
00000300: 5660 82bb 0e0c 6a39 31ff acb8 3235 15bc
00000310: c49d 91bb 1832 1bbb 2c49 6f39 d628 4cb8
00000320: 3be1 14bc 85b3 06bc 15c6 85bb 303b 38bb
00000330: 2488 4539 3be1 14bc d51e 16ba 6f26 243b
00000340: f415 1c3a 76e2 36b9 3be1 14bc 48a6 01b9
00000350: b16d 7c3b ae63 033a f028 0bb8 3be1 14bc
00000360: 15d7 e6ba 83e0 c5ba 306e 6939 f830 64b9
00000370: 3be1 14bc 2b44 63bb f491 c93b 2d16 c139
00000380: af6b 47b9 40d6 1cb8 b8e2 91b9 c6fe f03b
00000390: a161 88ba 3e56 a0b8 40d6 1cb8 17f6 713a
000003a0: fe95 4abc d8f0 913a 46fb 6338 40d6 1cb8
000003b0: d721 8f3a de53 e7bb c49f 723a df7e 0eb9
000003c0: 40d6 1cb8 09b7 d73a efbe d3bb 3c71 a53a
000003d0: 0625 8a38 40d6 1cb8 4239 b23a bbfa 1abc
000003e0: fde6 933a 3a77 0339 df25 e83c a942 e73c
000003f0: 5ae4 ad3a e8f0 053c 1e5e 9939 df25 e83c

exp_avg_sq f4 [128, 25]
1.3202217e-16 1.3202217e-16 4.4897887e-27 1.3488213e-17 1.4620089e-27 1.3202217e-16 1.7468663e-19 1.467821e-17
4.160239e-19 1.4620089e-27 1.3202217e-16 2.7565771e-18 3.1979586e-21 6.053257e-19 1.4620089e-27 1.3202217e-16
6.3716614e-18 5.86753e-17 1.8848237e-18 1.4620089e-27 1.3202217e-16 1.8289938e-17 5.86753e-17 6.321316e-19
1.4620089e-27 0.0 0.0 0.0 0.0 0.0 0.0 0.0
0.0 0.0 0.0 0.0 0.0 0.0 0.0 0.0
0.0 0.0 0.0 0.0 0.0 0.0 0.0 0.0
0.0 0.0 0.020276036 0.019870637 0.0030572438 0.001854583 5.5061673e-07 0.020276036
6.73317e-05 0.0022579324 0.00010425987 1.4032491e-06 0.020276036 0.0005123235 0.0021722699 9.4339484e-05
1.5708458e-06 0.020276036 0.0015444879 0.0021362028 9.540823e-05 1.2319915e-06 0.020276036 0.0031406148
0.0021356798 9.566338e-05 8.58302e-07 0.021368377 0.021169404 0.0030032168 0.0018461732 7.168898e-07
0.021368377 5.476478e-05 0.001984923 0.00010118927 3.4789625e-06 0.021368377 0.0006479206 0.0040947883
8.641823e-05 1.7011474e-06 0.021368377 0.0018752101 0.002370381 8.5119e-05 1.5362848e-06 0.021368377
0.0035510967 0.0019307148 9.053716e-05 1.3214759e-06 0.0045389174 0.004427334 0.0007562169 0.0004054128
1.2105728e-07 0.0045389174 1.8739645e-05 0.0005764835 2.022909e-05 3.3030162e-07 0.0045389174 0.00011266312
0.00032033492 1.9559206e-05 3.3790093e-07 0.0045389174 0.00035420922 0.0003890602 1.850814e-05 2.033775e-07
0.0045389174 0.000708794 0.00048311547 1.9115276e-05 1.7454646e-07 0.0023330322 0.002291905 0.00028152738
0.00021394443 6.633955e-08 0.0023330322 7.78548e-06 0.0003565936 1.1806884e-05 1.9373985e-07 0.0023330322
5.0290884e-05 0.00017273627 1.1273453e-05 2.1190606e-07 0.0023330322 0.00017087608 0.00021692671 1.0771738e-05
9.990945e-08 0.0023330322 0.00034858048 0.00029781033 1.0849577e-05 8.7082014e-08 0.0 0.0
0.0 0.0 0.0 0.0 0.0 0.0 0.0 0.0
0.0 0.0 0.0 0.0 0.0 0.0 0.0 0.0
0.0 0.0 0.0 0.0 0.0 0.0 0.0 0.0010533483
0.001040335 9.3007955e-05 9.462069e-05 3.2484692e-08 0.0010533483 3.1361853e-06 0.00018377337 4.9615624e-06
1.17433586e-07 0.0010533483 2.2426108e-05 9.598519e-05 4.8432958e-06 1.08888145e-07 0.0010533483 7.546274e-05
0.00012292009 4.511402e-06 5.974557e-08 0.0010533483 0.00015620454 0.00015692587 4.4981284e-06 4.352634e-08
0.0030568363 0.0030181515 0.00046264572 0.00028175846 1.01866945e-07 0.0030568363 8.043053e-06 0.0003401803
1.665589e-05 2.785348e-07 0.0030568363 7.796848e-05 0.00046651406 1.5981408e-05 2.939245e-07 0.0030568363
0.00022536183 0.00038165422 1.5481024e-05 1.8710419e-07 0.0030568363 0.0004696001 0.0004074978 1.5527752e-05
1.4010014e-07 0.008039582 0.007854235 0.0013971518 0.00072763005 2.1180512e-07 0.008039582 3.0921154e-05
0.0009852006 3.7788373e-05 5.831823e-07 0.008039582 0.00019669201 0.00062863634 3.6265512e-05 6.3397226e-07
0.008039582 0.0006196554 0.0007156536 3.4791097e-05 3.5853824e-07 0.008039582 0.0012445757 0.00084901473
3.5381516e-05 3.0449488e-07 0.041523088 0.04131885 0.005893604 0.0038544405 1.5254093e-06 0.041523088
00000000: 1136 1825 1136 1825 dedb b113 49d0 7823
00000010: 20aa e712 1136 1825 cb3b 4e20 f261 8723
00000020: c193 f520 20aa e712 1136 1825 4566 4b22
00000030: 84a1 711d 1ea9 3221 20aa e712 1136 1825
00000040: a412 eb22 c94b 8724 5013 0b22 20aa e712
00000050: 1136 1825 e5b1 a823 c94b 8724 8392 3a21
00000060: 20aa e712 0000 0000 0000 0000 0000 0000
00000070: 0000 0000 0000 0000 0000 0000 0000 0000
00000080: 0000 0000 0000 0000 0000 0000 0000 0000
00000090: 0000 0000 0000 0000 0000 0000 0000 0000
000000a0: 0000 0000 0000 0000 0000 0000 0000 0000
000000b0: 0000 0000 0000 0000 0000 0000 0000 0000
000000c0: 0000 0000 0000 0000 ee19 a63c bfc7 a23c
000000d0: 0a5c 483b 7b15 f33a 18ce 1335 ee19 a63c
000000e0: 6e34 8d38 d2f9 133b 17a6 da38 4657 bc35
000000f0: ee19 a63c 734d 063a a45c 0e3b 20d8 c538
00000100: dad5 d235 ee19 a63c 6a70 ca3a 89ff 0b3b
00000110: e715 c838 e85a a535 ee19 a63c c6d2 4d3b
00000120: c3f6 0b3b e39e c838 1066 6635 bc0c af3c
00000130: 756b ad3c 9ed1 443b 4bfb f13a 4b70 4035
00000140: bc0c af3c 3cb3 6538 7b15 023b 9335 d438
00000150: 1f78 6936 bc0c af3c 37d9 293a 932d 863b
00000160: 6f3b b538 fb52 e435 bc0c af3c 9cc9 f53a
00000170: 6558 1b3b ea81 b238 5832 ce35 bc0c af3c
00000180: 84b9 683b 0a10 fd3a c5de bd38 915d b135
00000190: 33bb 943b 2b13 913b db3c 463a 968d d439
000001a0: f9fb 0134 33bb 943b 1533 9d37 271f 173a
000001b0: a4b1 a937 4f54 b134 33bb 943b 8d45 ec38
000001c0: a0f2 a739 1313 a437 c068 b534 33bb 943b
000001d0: 28b5 b939 c7fa cb39 ee41 9b37 fb5f 5a34
000001e0: 33bb 943b 5cce 393a a94a fd39 be59 a037
000001f0: f76a 3b34 c9e5 183b c933 163b f799 9339
00000200: 4556 6039 8e76 8e33 c9e5 183b 629e 0237
00000210: 2ff5 ba39 2e16 4637 ce06 5034 c9e5 183b
00000220: 6def 5238 8a20 3539 1d23 3d37 4b88 6334
00000230: c9e5 183b 332d 3339 d276 6339 43b8 3437
00000240: cd8d d633 c9e5 183b aec1 b639 6d23 9c39
00000250: 9406 3637 d801 bb33 0000 0000 0000 0000
00000260: 0000 0000 0000 0000 0000 0000 0000 0000
00000270: 0000 0000 0000 0000 0000 0000 0000 0000
00000280: 0000 0000 0000 0000 0000 0000 0000 0000
00000290: 0000 0000 0000 0000 0000 0000 0000 0000
000002a0: 0000 0000 0000 0000 0000 0000 0000 0000
000002b0: 0000 0000 0000 0000 0000 0000 8110 8a3a
000002c0: da5b 883a 440d c338 196f c638 4c85 0b33
000002d0: 8110 8a3a 4177 5236 4ab3 4039 7f7b a636
000002e0: cc2f fc33 8110 8a3a b31f bc37 a84b c938
000002f0: 9883 a236 e4d5 e933 8110 8a3a c041 9e38
00000300: 1ce4 0039 a660 9736 794d 8033 8110 8a3a
00000310: d6ca 2339 788c 2439 a1ee 9636 b8f1 3a33
00000320: 3455 483b 2ecc 453b 428f f239 fbb8 9339
00000330: f2c1 da33 3455 483b a6f0 0637 3a5a b239
00000340: 40b8 8b37 8889 9534 3455 483b 0283 a338
00000350: 7596 f439 d00f 8637 adcc 9d34 3455 483b
00000360: 1b4f 6c39 c318 c839 3fdd 8137 cfe6 4834
00000370: 3455 483b a934 f639 6ea5 d539 9841 8237
00000380: 6f6e 1634 73b8 033c 0daf 003c a320 b73a
00000390: 6dbe 3e3a 8c6c 6334 73b8 033c 56b1 0138
000003a0: d921 813a f57e 1e38 fc8b 1c35 73b8 033c
000003b0: 1c3f 4e39 12cb 243a cc1b 1838 3e2e 2a35
000003c0: 73b8 033c 5f70 223a b39a 3b3a a8ec 1138
000003d0: 1f7d c034 73b8 033c 0821 a33a 6a90 5e3a
000003e0: 9d66 1438 7579 a334 1d14 2a3d f43d 293d
000003f0: 221f c13b c89a 7c3b aabc cc35 1d14 2a3d

exp_avg f4 [128]
1.1240798e-37 0.0 -0.0060572233 -0.0010353606 -0.0002969443 -0.008574982 0.0 -0.009106921
-0.009086901 -3.7391903e-05 0.028338365 0.005421113 -0.029013628 -0.050643843 1.1434923e-37 0.0032640332
0.005644102 -0.0064382064 0.0 0.054833174 -0.0063236514 0.0 0.0058900807 -0.00258933
0.0542569 -0.004625258 0.0 -0.015410043 -9.1102906e-05 -0.006616204 -0.09467766 1.0737259e-37
-0.0053015174 0.0 0.0 -0.022256017 -0.0034706108 0.0019280579 1.1323123e-37 -0.01850628
-0.013997363 -0.017868228 -0.009093067 1.1657877e-37 -0.07893206 1.0976661e-37 -0.00851088 0.0
-0.00062103244 -0.00030747987 1.0861933e-37 0.0024471935 -0.0014977471 0.0 -0.003828275 -0.014580792
0.091552414 -0.0051898565 -0.012490152 0.06478723 -0.020396017 0.07522981 0.0 0.02313588
-0.08491596 0.0005496526 -0.083724014 -0.030091312 0.010438267 -0.017218053 1.0988921e-37 -0.05519919
0.007942988 0.0040670647 -0.0067441026 0.0 0.018111737 0.0075899316 0.010222408 0.0
0.0 0.09783078 -0.0057020746 0.0 -0.0068801744 -0.0013398516 0.0010023005 0.0
0.07519637 -0.00040565053 -0.012779452 1.0746892e-37 0.0070678103 0.0 0.040368922 -0.02742418
-0.0079565495 1.1362508e-37 0.017086195 0.0 -0.019151619 0.049884938 0.0029683528 0.007541408
0.06613119 -0.005378872 -0.02899547 0.09985413 0.0 0.0 -0.054100525 -0.049578592
0.022710891 0.01227448 1.0780374e-37 -0.0017000402 0.0 0.09592755 -0.046427753 -0.005975449
-0.0016891509 -0.009118622 0.030231606 0.0 1.0845842e-37 0.0 0.05719347 0.0
00000000: 7700 1902 0000 0000 ac7b c6bb f0b4 87ba
00000010: 30af 9bb9 157e 0cbc 0000 0000 3235 15bc
00000020: 3ae1 14bc 40d5 1cb8 dc25 e83c 98a3 b13b
00000030: fdad edbc eb6f 4fbd e4a4 1b02 64e9 553b
00000040: 29f2 b83b 97f7 d2bb 0000 0000 c098 603d
00000050: a236 cfbb 0000 0000 9401 c13b c0b1 29bb
00000060: 7c3c 5e3d 7a8f 97bb 0000 0000 687a 7cbc
00000070: 800e bfb8 becc d8bb 5ce6 c1bd e325 1202
00000080: 5ab8 adbb 0000 0000 0000 0000 4052 b6bc
00000090: 3073 63bb e3b6 fc3a 531f 1a02 7b9a 97bc
000000a0: 3255 65bc 6460 92bc 16fb 14bc c6ad 1e02
000000b0: 22a7 a1bd 1568 1502 3871 0bbc 0000 0000
000000c0: c8cc 22ba 4035 a1b9 50d8 1302 1861 203b
000000d0: 0e50 c4ba 0000 0000 cce3 7abb 46e4 6ebc
000000e0: d57f bb3d ac0f aabb 7fa3 4cbc 2baf 843d
000000f0: 8c15 a7bc 1612 9a3d 0000 0000 7587 bd3c
00000100: 6be8 adbd 9016 103a 7f77 abbd 0e82 f6bc
00000110: 4405 2b3c e00c 8dbc cd92 1502 8c18 62bd
00000120: 4e23 023c 0345 853b a2fd dcbb 0000 0000
00000130: 115f 943c f6b4 f83b e37b 273c 0000 0000
00000140: 0000 0000 815b c83d 78d8 babb 0000 0000
00000150: 1673 e1bb f69d afba a05f 833a 0000 0000
00000160: 8e00 9a3d 7ead d4b9 e860 51bc 7447 1202
00000170: 1799 e73b 0000 0000 e259 253d ada8 e0bc
00000180: 305c 02bc 90a8 1a02 59f8 8b3c 0000 0000
00000190: dbe3 9cbc 2654 4c3d b288 423b ea1d f73b
000001a0: ca6f 873d 4041 b0bb e887 edbc 5280 cc3d
000001b0: 0000 0000 0000 0000 8398 5dbd ec12 4bbd
000001c0: 310c ba3c e71a 493c 1fbc 1202 e2d3 deba
000001d0: 0000 0000 aa75 c43d 072b 3ebd b3cd c3bb
000001e0: 8066 ddba 4666 15bc 46a8 f73c 0000 0000
000001f0: 3ea0 1302 0000 0000 b343 6a3d 0000 0000

exp_avg_sq f4 [128]
1.3202217e-16 0.0 0.020276036 0.021368379 0.0045389174 0.002333032 0.0 0.0010533483
0.0030568358 0.008039581 0.041523088 0.0033541883 0.010063887 0.14869805 1.1635183e-11 0.0133674545
0.008906219 0.01008844 0.0 0.09425881 0.032068662 0.0 0.009819712 0.0021157118
0.10189151 0.001605212 0.0 0.03312871 0.016031248 0.0030106849 0.093303345 1.0204591e-12
0.0022951523 0.0 0.0 0.018642386 0.0031373177 0.002280842 3.236782e-12 0.07097771
0.0029105868 0.015378307 0.06792743 6.923066e-14 0.17454529 1.2096353e-16 0.0053860857 0.0
0.0008231949 0.054002255 1.2688649e-11 0.049826466 0.004640112 0.0 0.004769926 0.023887739
0.18183595 0.043459553 0.004020022 0.039782673 0.018215558 0.13497627 0.0 0.06558998
0.096554376 0.004061421 0.110217065 0.04405741 0.014897368 0.0069360253 2.6405609e-17 0.17326069
0.02424756 0.0044095917 0.0024589614 0.0 0.08465012 0.0030201336 0.01423485 0.0
0.0 0.065942295 0.037749995 0.0 0.0054759276 0.0038455594 0.003290985 0.0
0.25308707 0.0012815739 0.004464579 9.999129e-17 0.0070099537 0.0 0.07624436 0.01542014
0.0067039486 1.1449465e-16 0.017334493 0.0 0.009764202 0.06268478 0.0018338205 0.003257109
0.10906107 0.027671287 0.015156022 0.050789222 0.0 0.0 0.07096132 0.025546722
0.040827934 0.048064377 3.6417394e-17 0.004170934 0.0 0.04034047 0.21549466 0.0011115987
0.0056072967 0.0054314453 0.072790764 0.0 1.2124169e-14 0.0 0.08022851 0.0
00000000: 1136 1825 0000 0000 ee19 a63c bd0c af3c
00000010: 33bb 943b c8e5 183b 0000 0000 8110 8a3a
00000020: 3255 483b 72b8 033c 1d14 2a3d f1d1 5b3b
00000030: 00e3 243c 4d44 183e 35b0 4c2d 2b03 5b3c
00000040: 64eb 113c fc49 253c 0000 0000 c30a c13d
00000050: 6e5a 033d 0000 0000 dbe2 203c c1a7 0a3b
00000060: 7fac d03d fa65 d23a 0000 0000 f8b1 073d
00000070: f753 833c e94e 453b d315 bf3d ea9d 8f2b
00000080: 446a 163b 0000 0000 0000 0000 ebb7 983c
00000090: 759b 4d3b 2e7a 153b aec4 632c c35c 913d
000000a0: 8bbf 3e3b 4bf5 7b3c 891d 8b3d c2e4 9b29
000000b0: 00bc 323e 2276 0b25 c37d b03b 0000 0000
000000c0: adcb 573a 7831 5d3d 9838 5f2d d616 4c3d
000000d0: 150c 983b 0000 0000 0a4d 9c3b 38b0 c33c
000000e0: 3433 3a3e a502 323d 64ba 833b 28f3 223d
000000f0: cb38 953c 3837 0a3e 0000 0000 0a54 863d
00000100: 4dbe c53d ab15 853b 7cb9 e13d 8b75 343d
00000110: 1714 743c 9947 e33b 7b8c f323 406b 313e
00000120: d2a2 c63c 567e 903b 8726 213b 0000 0000
00000130: 0b5d ad3d 6fed 453b 4a39 693c 0000 0000
00000140: 0000 0000 c10c 873d bd9f 1a3d 0000 0000
00000150: 696f b33b c805 7c3b 91ad 573b 0000 0000
00000160: a194 813e 7cfa a73a 9a4b 923b 7190 e624
00000170: c1b3 e53b 0000 0000 0126 9c3d c1a4 7c3c
00000180: ccac db3b db00 0425 1101 8e3c 0000 0000
00000190: 08fa 1f3c e160 803d ce5c f03a 3975 553b
000001a0: 695b df3d e5ae e23c f750 783c 5c08 503d
000001b0: 0000 0000 0000 0000 2b54 913d 5c47 d13c
000001c0: 313b 273d 27df 443d 12f2 2724 55ac 883b
000001d0: 0000 0000 0c3c 253d a2aa 5c3e 10b3 913a
000001e0: 6abd b73b 44fa b13b 5313 953d 0000 0000
000001f0: dc68 5a28 0000 0000 d84e a43d 0000 0000

exp_avg f4 [128, 128]
0.0 0.0 1.0952273e-37 0.0 1.1313561e-37 1.0754708e-37 0.0 1.1587235e-37
1.1514935e-37 1.1671813e-37 0.0 1.1322382e-37 0.0 0.0 0.0 1.0869714e-37
1.0616942e-37 1.1624637e-37 0.0 1.1714652e-37 1.1503891e-37 0.0 1.0684353e-37 1.1293266e-37
0.0 1.0879494e-37 0.0 1.0983213e-37 0.0 1.0601434e-37 1.0949643e-37 0.0
1.1462274e-37 0.0 0.0 1.1715918e-37 1.0661149e-37 1.0764388e-37 0.0 0.0
1.0722549e-37 1.0933957e-37 0.0 0.0 0.0 0.0 1.0781579e-37 0.0
1.0901349e-37 1.1316683e-37 0.0 0.0 1.0913348e-37 0.0 1.1531841e-37 1.1196256e-37
0.0 1.0770929e-37 1.0931888e-37 1.0967909e-37 1.1526373e-37 0.0 0.0 0.0
1.0850281e-37 1.111623e-37 0.0 1.1341772e-37 1.0843614e-37 1.1098917e-37 0.0 1.1734823e-37
0.0 1.0807494e-37 1.16313e-37 0.0 1.17237e-37 1.174113e-37 1.1142915e-37 0.0
0.0 1.1223194e-37 1.1150136e-37 0.0 1.0602897e-37 1.141059e-37 1.1601416e-37 0.0
0.0 1.0820054e-37 1.0824419e-37 0.0 1.1337709e-37 0.0 1.1162171e-37 1.0664593e-37
0.0 0.0 1.0968693e-37 0.0 0.0 1.0941026e-37 1.1747843e-37 1.0655644e-37
0.0 0.0 0.0 0.0 0.0 0.0 0.0 1.1678669e-37
0.0 1.0963726e-37 0.0 1.0905223e-37 0.0 0.0 0.0 1.0955035e-37
0.0 1.071637e-37 0.0 0.0 0.0 0.0 0.0 0.0
1.0609439e-37 0.0 0.008626748 -0.0016334024 0.008852201 0.0057865134 0.0 0.0043932535
0.0060394597 0.012935385 0.0041787205 0.015302187 0.00042332383 0.0109012 0.0 0.005159179
0.005539699 0.008635289 0.0 0.0004144321 0.014095359 0.0 0.010603919 0.003119621
0.0057834676 0.014060134 0.0 0.01036967 -0.00030194293 0.009101849 0.002879802 1.1181354e-37
0.011078788 0.0 0.0 0.015409611 0.009547511 0.011743009 -1.0993916e-37 0.006446674
0.008596308 0.01287094 -0.0025430012 1.0981785e-37 0.009510512 0.0 0.0021019527 0.0
0.006276851 0.011548193 1.1422692e-37 0.0041928473 0.0030267288 0.0 0.005915545 -0.0014267826
-0.0007569272 0.010200864 0.0042091645 0.0069438308 0.010944098 -0.00091913086 0.0 -0.0025674924
0.011440929 0.0025219047 1.5376194e-05 0.0113228895 3.7065474e-06 0.0039147027 -1.1079796e-37 0.0048579676
-0.0008873278 0.0042418772 0.0045532724 0.0 0.00025999814 0.014440797 0.003427152 0.0
0.0 -0.00042426726 -0.00036356796 0.0 0.003235567 0.009006887 0.008384367 0.0
-0.000485335 0.010056446 0.0029410177 0.0 0.0035400041 0.0 -0.00067180337 0.010983765
0.0028430682 0.0 -0.0014092153 0.0 -0.0010613726 0.0045785075 0.0059666564 0.0079455925
0.0017970847 -0.00021647988 0.003445157 0.0022615832 0.0 0.0 0.0114838425 0.008950683
-0.0003460495 0.0084750885 0.0 0.008914203 0.0 0.0020007296 0.0024969932 0.0007932801
0.0025594272 -7.273164e-05 0.007747695 0.0 -1.0760639e-37 0.0 -7.021113e-05 0.0
00000000: 0000 0000 0000 0000 1a13 1502 0000 0000
00000010: 02fe 1902 b062 1202 0000 0000 9fb7 1d02
00000020: b1bb 1c02 55de 1e02 0000 0000 be1c 1a02
00000030: 0000 0000 0000 0000 0000 0000 6df3 1302
00000040: a582 1002 f339 1e02 0000 0000 9b73 1f02
00000050: 3695 1c02 0000 0000 896d 1102 4ab7 1902
00000060: 0000 0000 8115 1402 0000 0000 e97e 1502
00000070: 0000 0000 9b4c 1002 f009 1502 0000 0000
00000080: 3204 1c02 0000 0000 0000 0000 0478 1f02
00000090: af1c 1102 6b84 1202 0000 0000 0000 0000
000000a0: a1f2 1102 48d3 1402 0000 0000 0000 0000
000000b0: 0000 0000 0000 0000 52c0 1202 0000 0000
000000c0: a861 1402 e308 1a02 0000 0000 0000 0000
000000d0: 788b 1402 0000 0000 9af6 1c02 4265 1802
000000e0: 0000 0000 369b 1202 12cc 1402 9649 1502
000000f0: 8ce3 1c02 0000 0000 0000 0000 0000 0000
00000100: b6af 1302 694e 1702 0000 0000 4f60 1a02
00000110: 7b98 1302 1512 1702 0000 0000 e4b9 1f02
00000120: 0000 0000 9f1a 1302 2a51 1e02 0000 0000
00000130: 2293 1f02 decf 1f02 64ab 1702 0000 0000
00000140: 0000 0000 20c3 1802 8ec4 1702 0000 0000
00000150: b451 1002 1a50 1b02 09e9 1d02 0000 0000
00000160: 0000 0000 6346 1302 9855 1302 0000 0000
00000170: 2652 1a02 0000 0000 7dee 1702 af28 1102
00000180: 0000 0000 0000 0000 514c 1502 0000 0000
00000190: 0000 0000 e9eb 1402 42e7 1f02 8009 1102
000001a0: 0000 0000 0000 0000 0000 0000 0000 0000
000001b0: 0000 0000 0000 0000 0000 0000 39f6 1e02
000001c0: 0000 0000 023b 1502 0000 0000 286f 1402
000001d0: 0000 0000 0000 0000 0000 0000 ba1c 1502
000001e0: 0000 0000 19dd 1102 0000 0000 0000 0000
000001f0: 0000 0000 0000 0000 0000 0000 0000 0000
00000200: 8068 1002 0000 0000 3457 0d3c e417 d6ba
00000210: d208 113c cb9c bd3b 0000 0000 48f5 8f3b
00000220: a9e6 c53b f0ee 533c a6ed 883b 06b6 7a3c
00000230: 90f1 dd39 f29a 323c 0000 0000 550e a93b
00000240: 5d86 b53b 077b 0d3c 0000 0000 2348 d939
00000250: 38f0 663c 0000 0000 0fbc 2d3c 8e72 4c3b
00000260: 3e83 bd3b 7a5c 663c 0000 0000 8ce5 293c
00000270: 184e 9eb9 ec1f 153c 0fbb 3c3b 5531 1802
00000280: ce83 353c 0000 0000 0000 0000 9878 7c3c
00000290: 2a6d 1c3c c065 403c 35a4 1582 9f3e d33b
000002a0: 87d7 0c3c a3e0 523c 7ba8 26bb f079 1502
000002b0: fbd1 1b3c 0000 0000 eac0 093b 0000 0000
000002c0: 0bae cd3b a234 3d3c 467a 1b02 2764 893b
000002d0: 155c 463b 0000 0000 30d7 c13b e102 bbba
000002e0: 866c 46ba 8621 273c 08ed 893b 1389 e33b
000002f0: e04e 333c d4f1 70ba 0000 0000 6043 28bb
00000300: bc72 3b3c 8a46 253b 20fc 8037 a483 393c
00000310: 00be 7836 e846 803b 74cf 1682 962f 9f3b
00000320: 909b 68ba 72ff 8a3b 9e33 953b 0000 0000
00000330: 5c50 8839 1899 6c3c 129a 603b 0000 0000
00000340: 0000 0000 3070 deb9 449d beb9 0000 0000
00000350: ce0b 543b 9f91 133c 965e 093c 0000 0000
00000360: 9074 feb9 cbc3 243c 17be 403b 0000 0000
00000370: 6aff 673b 0000 0000 f61b 30ba 40f5 333c
00000380: c552 3a3b 0000 0000 6bb5 b8ba 0000 0000
00000390: c11d 8bba 4e07 963b f183 c33b 3b2e 023c
000003a0: 288c eb3a e0fe 62b9 25c8 613b 1237 143b
000003b0: 0000 0000 0000 0000 ba26 3c3c e3a5 123c
000003c0: fa6d b5b9 19db 0a3c 0000 0000 e10c 123c
000003d0: 0000 0000 ac1e 033b 98a4 233b 20f4 4f3a
000003e0: 10bc 273b 8087 98b8 60e0 fd3b 0000 0000
000003f0: 5b77 1282 0000 0000 503e 93b8 0000 0000
