highway_ddqn/ddqn1/checkpoint-8.tar (torch, 253274 bytes, 18 tensors)

layers.0.weight f4 [128, 25]
00000000: 402f 80bc 679d 223c 8086 a5bd 4a30 083e
00000010: f324 043d 0f35 063e a7c9 d6bc 33df a7ba
00000020: c7c9 dabd 4d35 95bc d0d4 aebd 8780 2dbe
00000030: 9d93 f7bd d853 483e 5a39 abbc f39e 27be
00000040: 220c 29be 1873 183e e385 943d f78d efbd
00000050: 3349 983d dada a13d 8df0 1f3e 6abf f73d
00000060: 3a83 febd b34e 3f3d ddd4 153e cd34 3a3a
00000070: 6713 753d 40ab 113e 4aaa d2bd c024 9ebd
00000080: d39a 10bd da53 41be ede3 50bd 0785 3f3d
00000090: c771 45bd 0dec 1abe e0bc e7bd e504 473e
000000a0: 13ee 21be 7331 ee3d 774b bcbd cd6e 42bb
000000b0: 08a4 06be 238c ecbd cd27 45be d581 3d3e
000000c0: aaa9 e1bd 1dbe 99bd 99be ca3d 5fea b6bd
000000d0: 152e f2bd e255 003e 7a9b 29be f4d8 473e
000000e0: 129f 0cbe 0012 05be 384c fc3d 6cc2 883d
000000f0: afa6 993d 12eb 7f3d fc00 473e c25c 853d
00000100: 1722 aa3d a1bb 84bd 6b61 483e 0da6 c53d
00000110: 86f6 463e d74f ba3d beef 29be fe85 69bb
00000120: 3d06 cb3d f28d c83d e128 1cbe 9e59 8f3c
00000130: e027 9e3c 781f 483e daf0 543e 69cc 1cbe
00000140: 8d26 0fbe 0447 3f3e 6bc9 22be 39e4 2abd
00000150: cd0d 103e 2997 c83c fd48 24be 1163 283e
00000160: 84bf aabc ffe6 4dbd 1d93 3c3e 7162 b33d
00000170: 4ffd edbc 9ecf 1b3d 66f0 9a3d 15cf 37be
00000180: 949d 9dbd bc4b 40be edf9 ec3d 395b f43d
00000190: 8672 393e f160 bd3d 7144 353e b006 2dbd
000001a0: 6264 10be c0e0 75bd a9c5 a0bc 3102 48be
000001b0: 0ada 253c 8f07 aa3d 8b00 853d 7804 833d
000001c0: e3d3 d7bd a1cc 383e b8e5 92bd a6da 4a3e
000001d0: e9d7 473e da58 43be 8f8a 0ebe 42cc e8bd
000001e0: 0ce3 583e 1e5c d93d f70a 383e 216c b9bc
000001f0: dc2d 473d b777 7f3c 14e8 e73a 967d a63d
00000200: 1f3d ad3d 3b6b 843c 8240 c63d 3231 04bd
00000210: 4113 20bd eb01 c8bd 3d57 1dbc e5b4 06bd
00000220: 923b 09be 9f0b e43d 1d4c d33d 22db 42be
00000230: 34d7 0d3e 73fc c83d 0091 983b 36c6 373e
00000240: 077a 2bbe fc02 223e aebb a0bd cf67 3dbe
00000250: ba93 8d3d 1f61 ab3d 1d78 10be bd27 d7bd
00000260: 8f52 3a3e e51a 133e 3aea 06be 8022 88bd
00000270: da5b cf3c 53e8 f1bd 275d 2f3e 3b88 163e
00000280: 0dd2 c3bd 3f07 3c3e b33a 28bc 27c6 f5bd
00000290: 67a2 f73a 8743 75bd cfa0 4a3e 4af9 8e3d
000002a0: d38b e8bd 6054 1abe 43ee b3bd 6790 01bc
000002b0: fb3e 133e cbd2 23be cdb8 c33b a085 153e
000002c0: de94 063d cbc8 d43d 46dd febd b621 6e3d
000002d0: faba 9d3d 673a c1bd 186c 143d 0fb8 073d
000002e0: 69c6 843d 62d5 2d3d ca5b 9fbc bb9f 953d
000002f0: 61f9 0dbe 71b8 2dbd 0dd5 e43c a61c c8bd
00000300: 810d 42bd 8961 4e3e 97ef 3abd 9843 9dbc
00000310: 2d4b ca3d f109 c43d de33 183d f14e fe3d
00000320: 4d08 eabd 285f 193e 2cc9 583e 9dda 30bd
00000330: f1f8 a9bd b616 23bd 556a 22bd 12f5 323e
00000340: 56e4 1a3e 5d65 33bd cabf 3f3d a0e4 e6bd
00000350: a80d 24bd 6029 b33c ba24 243e 41ea aa3d
00000360: be10 413d c8b5 2fbe b73c 29bd e6b8 2fbe
00000370: 67fa 383e 57d0 3d3e 6956 c73d fec1 843c
00000380: 6ccf d5bd f564 383e 8f43 2d3e 482a c5bc
00000390: 7cf7 2fbe 1e57 41bd 41a5 113e 4582 2ebe
000003a0: 72dd e6bd 9d0c 813d 7971 7fbd 00f2 bf3d
000003b0: 7614 9dbd c3a2 97bc 593c 033e ec0f 053e
000003c0: 4ed8 003c 3cf5 4d3e a801 42bd a0af 183c
000003d0: 30d9 253e 408f 993d 0a8a 563e b2b3 eabc
000003e0: c571 a63c b8f4 2fbe dc96 cbbd d6aa 033e
000003f0: 5f06 483c e519 713d 1258 d23c 3aa6 0cbe
-0.01564753 0.009925223 -0.080822945 0.13299671 0.0322618 0.13106178 -0.026219202 -0.0012807607
-0.10683017 -0.018213892 -0.085366845 -0.1694356 -0.12088702 0.19563234 -0.02090137 -0.16369228
-0.16508535 0.14887655 0.07252099 -0.116969995 0.07435837 0.07903071 0.15619107 0.12097056
-0.12427373 0.046705913 0.14631982 0.0007103205 0.059832957 0.14225483 -0.10286386 -0.07721853
-0.035303902 -0.18879643 -0.050998617 0.046757724 -0.04820421 -0.15129109 -0.11315322 0.19435461
-0.15813474 0.116305254 -0.09194081 -0.0029668093 -0.1314851 -0.115501665 -0.19253464 0.18506558
-0.11018689 -0.07506964 0.09899635 -0.089314215 -0.11825196 0.12532762 -0.16563216 0.19516355
-0.13732556 -0.12995148 0.12319225 0.06677708 0.075024955 0.06248004 0.1943397 0.06511833
0.08307283 -0.064811 0.19568412 0.09650812 0.19429979 0.090972595 -0.1659536 -0.0035632844
0.09913299 0.09792699 -0.15249969 0.017498787 0.019306123 0.19543254 0.20795003 -0.15312351
-0.1397955 0.18679434 -0.15897147 -0.041721556 0.14067765 0.024486141 -0.16043468 0.16444041
-0.020843275 -0.050269123 0.18415494 0.087590106 -0.029051451 0.038039796 0.075653836 -0.1795009
-0.07696071 -0.1877889 0.11571107 0.11931462 0.18110093 0.09247006 0.1770189 -0.042242706
-0.14100793 -0.06002879 -0.019625502 -0.19532086 0.010122785 0.08302223 0.06494244 0.06397337
-0.10538461 0.1804681 -0.071727216 0.1980997 0.19515957 -0.19076863 -0.13920043 -0.11367084
0.21180362 0.10613273 0.17972933 -0.022634568 0.04862772 0.015592507 0.0017693066 0.08129422
0.084589235 0.016164413 0.09680273 -0.03227348 -0.039080862 -0.09765991 -0.009603319 -0.03288736
-0.1340163 0.11135029 0.10317252 -0.19028905 0.13851625 0.09813776 0.004655957 0.17946705
-0.16745768 0.15821451 -0.07848297 -0.18496631 0.06912942 0.08368134 -0.1410832 -0.10505626
0.18195556 0.14365728 -0.13175288 -0.06647205 0.025312353 -0.118118905 0.17125379 0.14700405
-0.095615484 0.18362139 -0.010267901 -0.12000685 0.0018893004 -0.059878852 0.19787906 0.06981142
-0.11354794 -0.15071249 -0.08785679 -0.007907963 0.14379494 -0.1599838 0.0059729577 0.14601755
0.032856815 0.10389861 -0.12444548 0.058137618 0.077016786 -0.094349675 0.0362359 0.033134516
0.06483156 0.042439826 -0.019452948 0.07305857 -0.13864662 -0.042412225 0.027933622 -0.09771089
-0.04737616 0.20154394 -0.045638647 -0.01919727 0.0987762 0.09572209 0.03715884 0.12417401
-0.114273645 0.14977705 0.21170491 -0.043177236 -0.08299435 -0.03981658 -0.039652187 0.174763
0.15126166 -0.04379784 0.046813764 -0.112740755 -0.040052086 0.021870315 0.16029635 0.08345462
0.047135107 -0.17159188 -0.041317668 -0.17160377 0.18064271 0.18536507 0.09733278 0.016205784
-0.10439953 0.18007262 0.16920303 -0.024068013 -0.17184252 -0.047202222 0.14223196 -0.17041881
-0.11272706 0.06301234 -0.062364075 0.0937233 -0.07669918 -0.018510228 0.1281599 0.12994355
0.007864071 0.2011308 -0.04736486 0.009319216 0.16196132 0.07498026 0.20951095 -0.028650139
0.020317921 -0.17183197 -0.099408835 0.12858137 0.01220855 0.058862586 0.02567676 -0.13735285

layers.0.bias f4 [128]
00000000: 70b4 d8bd bf80 02be 4a0d 293e 82b4 92bd
00000010: 245c 38be 1ca9 073e bb73 47be 6c08 4b3c
00000020: ecfa ecbc faed 553e 3d0d e0bc 8e9e e53d
00000030: 536d 13be fc4e 9ebd e857 18be bd78 02be
00000040: 5b95 23be 9b4a 323c 35d9 0c3e d245 263e
00000050: 8014 0e3d 4a73 f43d 6440 02bb c0c8 d6bd
00000060: ab65 5abd b126 433e 1abe 5ebd 224e 693c
00000070: 0491 363d b44f 403d e262 383d 6ab8 df3d
00000080: e8bb 553e 7399 31bd dabc e8bd ce16 263d
00000090: 25e0 483d f8a8 81bd 7210 2a3e 2d5f 25bc
000000a0: 78a6 46bc 9274 3e3e 51e5 1e3e b748 1fbe
000000b0: 0d4a ff3d e71e 023c e0bd a03d 0005 29bd
000000c0: e97d 603d babb f33d 1865 883d b90c 54be
000000d0: a26b 3fbc 2504 25be 14ba 07be 7a1d 97bc
000000e0: 9afe 163e a0f6 2d3e 6fd1 6bbd da42 0abd
000000f0: d3c1 053e b487 083d 00ad 30bc fddd 1ebd
00000100: 6fe4 a53c 13bd a6bd 1da1 193e 1584 593e
00000110: 3b08 f33d af1b 313e c056 943c 9bc0 213e
00000120: ff85 a33d 386f 1e3d ad94 dd3d 33c5 79bc
00000130: 6e00 35bd b27b 0c3e d237 14be 338a e8bc
00000140: 1a75 3c3c e8a5 2ebe e2ce d3bc 30c7 d9bd
00000150: 6b2b 60bd bc9d 5d3e b9e3 4d3e b3b0 7ebd
00000160: 03f4 083e 4a7d 9dbb 3b3a 1e3e 8031 89bd
00000170: b70e 193e c0fe 9ebc 5e5a 04be 0c7c 793c
00000180: b1fe 1bbc 007c 8b3c 9660 e83d 6a98 45be
00000190: 4c4d 8e3d ff44 ce3d 2511 7b3d f5fa 9b3c
000001a0: d23d e9bd 4d0f b2bd be54 dc3d b6ae 8e3d
000001b0: 90cc 293e 2d23 c03d 9a43 7bbc f3fb 07be
000001c0: 7a12 bcbc 733f 013e 2d91 41be fece 243e
000001d0: 5a12 993d d4f6 d53d 8d77 0dbe b174 2c3e
000001e0: b0aa 25be e360 e53d f095 2e3d b85e 083e
000001f0: dac6 273d 884a 29be 8717 1d3d 4020 ffbd
-0.10581291 -0.12744425 0.16508976 -0.071633354 -0.18003899 0.13248104 -0.19477741 0.012392145
-0.028928243 0.20891562 -0.027350063 0.112118825 -0.14397173 -0.07729909 -0.14877284 -0.1274137
-0.15974943 0.010882045 0.13754733 0.16237572 0.03468752 0.11936052 -0.0019874806 -0.10487509
-0.053319614 0.19057728 -0.054380514 0.01423982 0.04457189 0.04695101 0.045016177 0.10923846
0.20872462 -0.04335923 -0.113641456 0.040549092 0.049041886 -0.06331056 0.16607836 -0.010093492
-0.01212465 0.18599156 0.15517165 -0.15555082 0.12465296 0.007941938 0.07848716 -0.041264534
0.054807577 0.119010404 0.06659907 -0.20707978 -0.0116833765 -0.16114862 -0.13254577 -0.018446673
0.1474556 0.16988611 -0.05757278 -0.03375516 0.1306222 0.03333254 -0.010783434 -0.038785923
0.020250527 -0.08141532 0.15002866 0.21241792 0.11866804 0.17295717 0.018107772 0.1579613
0.07984542 0.038680285 0.10819373 -0.01524477 -0.044189863 0.13719061 -0.14474419 -0.028386211
0.011502529 -0.17055476 -0.025855485 -0.10633695 -0.054728907 0.21642202 0.201064 -0.062180232
0.13374333 -0.0048061954 0.154519 -0.066988945 0.1494702 -0.019408584 -0.12925097 0.015227329
-0.009521172 0.017026901 0.11346547 -0.19296423 0.06948337 0.10071754 0.061295647 0.019040564
-0.113887444 -0.08694325 0.10758351 0.06966917 0.1658194 0.09381709 -0.015335942 -0.13279705
-0.022958029 0.1262186 -0.18903036 0.16094586 0.074742034 0.10447469 -0.13815136 0.16841389
-0.16178393 0.1120012 0.04262346 0.13317382 0.040961124 -0.16532338 0.038352516 -0.12457323

layers.1.weight f4 [128, 128]
00000000: 12de 4b3d bb5e 82bb afa3 88bb ff1d 89bc
00000010: dd22 25bc 195d 49bc 5225 853d 8c3d 3bbd
00000020: 52e6 ee3c c333 b6bd 5cca 71bc 7420 663b
00000030: 01e6 38bd 6c32 2d3a a3ac 5a3d 14ca 8bbd
00000040: 49aa fb3c 1a66 633d 5227 2f3d 3a65 b2bd
00000050: e6db b83c e80d 6c3d 528d b5bc e03e 033d
00000060: b7db 41bd e9f7 9ebd a177 e4bc e946 70bd
00000070: 5ff2 8dbc 43ad 2bbd a2e0 2c3d 10fd 8e3d
00000080: c4d9 94bd b9a8 a5bd 5259 34bd 2c27 b8bd
00000090: 473e 233d a82c 1b3d 85a2 2d3d 9b5a 7f38
000000a0: 121a a73d 7932 c03c 65ae d63c 40fa 5d3d
000000b0: f454 81bd ac3c 9cbd 5af3 673d 0f5d 873d
000000c0: 2403 7d3c 238d 6a3d 5b68 923d a445 693c
000000d0: 64e8 f0bc c8a8 7c3c 645f d1bc 292a 87bd
000000e0: 5da8 5c3d cf5a 23bd d9ff 6d3c 1da1 413d
000000f0: fe0d 07bd 7585 a8bd 6cde 543b ef0f 853d
00000100: 55bd 9a3c 275c 2f3d 6765 1c3d 63d7 ab3d
00000110: 172f a43d 6255 433d 8508 2a3c b848 60b8
00000120: 2948 febb 6c64 2b3c 8d13 4e3d 7109 51bc
00000130: c2c4 47bd 414f 38bd ca51 93bc 9da7 a73a
00000140: c00a 65bc e8bf 7abd f0e5 c13b 755b cf3c
00000150: b923 a3bc 6992 72bd 975d 78bd d26c 99bc
00000160: 0b5b 84bd a4d2 563d 0366 863d adf0 5a3d
00000170: a6ec 87bd fe60 643d 8e0b 6dbd 2988 b8bd
00000180: f521 8d3d 31c8 d03c ba4e 8fbc def5 fe3c
00000190: 0da4 983d 345e f7bc 8c4d 65bd ba15 653d
000001a0: 1072 3e3d e08b b53c 3a29 0e3d e394 b03d
000001b0: 66d5 5ebd c0e7 663d 458b d0bc 8347 a7bc
000001c0: 3539 c6bc 3b64 6d3d 1e3f 7b3d d042 b6bb
000001d0: d26c 993d b323 4cbc 951e f8bc 0b4a 793d
000001e0: 8eaa a2bd f10c 7e3c ebe2 6bba 67f8 723d
000001f0: 69a8 3cbd 2898 14bd 7458 05bd 067e 983d
00000200: 6383 20bd 9f55 21bc 0376 82bc 5bd8 92bd
00000210: 3237 2cbd 6ea1 6bbd 85e7 53bd 0932 8f3b
00000220: f4ee 64bc 572b 233d e30d 92bc 8caa 3d3d
00000230: 1896 c9bd c7b3 08bd e07f b13d 6f52 3b3d
00000240: 45fc dcbc 46f2 973d 40eb 58bd b14e 61bd
00000250: b6bb 72bd 8592 383d ebb8 59bd b0ed 9a3b
00000260: ce23 13bd a93b 05bd 04ef 3bbd 0de7 b83c
00000270: cc8d 59bc 03a4 3c3d 5242 953c 69ef a0bd
00000280: 2502 533d 0a7f 803d f003 973d fc81 6bbd
00000290: 2d1f a3bd 4a84 823d 0bcc adbb a121 843d
000002a0: 1035 29bd 21d4 4c3d 090d 193c ef19 c73b
000002b0: 259d 5ebc 8723 4f3b b753 9fbd 9b57 853d
000002c0: cdd9 ef3c 04c3 c5bd 45f0 7fbd 3947 c6bd
000002d0: dcaf 0fbd 028e 9fbd c656 20bd 5d86 7c3c
000002e0: a602 4dbd 14fb 8ebb 0334 7a3d 54b8 3dbd
000002f0: 72d5 62bb 3da3 203d 82cc 0d3d 2eff d5bd
00000300: d440 423c fc72 073c 762e 253d 69eb c83c
00000310: d5d5 c2bd 7817 db3b 681b 823d 507f 55bd
00000320: 15a0 843c 95fb b93c fc70 a8bd e40f 1b3d
00000330: 33db c6bd e277 1f3d 328f 57bd db05 dbbc
00000340: a83a 283d 8e33 37bc baa3 53bd 28b0 a03c
00000350: b5b8 043d 301b a1bc f201 4e3d 59a3 8b3d
00000360: c4b9 aabd af19 153d 3588 a7bd 4b0d e1ba
00000370: 443e 03ba bcd3 22bd 6628 d53b fb7b b2bc
00000380: 57f0 8739 b105 a53d 8486 b8bc 6304 a23d
00000390: e344 b2bd 1e97 7d3d 6cb1 a7bd 3b5e 703c
000003a0: ff80 91bd 4e27 ab3c e608 4fbc 53e6 983d
000003b0: fe3f 913d e515 383d f522 8ebd e260 2fbd
000003c0: 6b9c a1bd 0b01 5a3d e0d9 013d 89f0 803d
000003d0: fa09 593d f2a5 cebd 1e39 6abd cb32 3b3d
000003e0: c2f0 d93c 6d2b 083d 984b ffbc 43df 7c3d
000003f0: a7fc 0abd 4058 083c 931d 90bb 2b01 1abd
0.04977233 -0.003978578 -0.004169903 -0.016737936 -0.010079113 -0.012290263 0.06501259 -0.045712993
0.02916256 -0.088965915 -0.014757719 0.0035114558 -0.045141224 0.000660694 0.053387295 -0.06825653
0.030720847 0.055517294 0.04276211 -0.08710714 0.022565793 0.05763045 -0.022162113 0.032042384
-0.047328677 -0.07762129 -0.027889075 -0.058661375 -0.017327486 -0.041913282 0.042206414 0.069818616
-0.07268098 -0.08088822 -0.044030495 -0.089918464 0.039854314 0.037884384 0.04239132 6.088112e-05
0.081592694 0.023461567 0.026206205 0.054193735 -0.06315032 -0.0762876 0.056628563 0.066095464
0.015442643 0.057263505 0.071488105 0.014237795 -0.029407687 0.0154211 -0.025558181 -0.06599838
0.0538715 -0.039881524 0.014526331 0.04727279 -0.03297233 -0.0822858 0.0032481207 0.0649718
0.018889109 0.042812493 0.038182642 0.08390691 0.08016794 0.04768885 0.010378008 -5.3473486e-05
-0.007760067 0.010460954 0.050311614 -0.012758599 -0.048771627 -0.044997457 -0.017983336 0.0012791042
-0.013979614 -0.061218172 0.0059173033 0.025312165 -0.019914495 -0.05922166 -0.06063613 -0.018728647
-0.064626776 0.052446976 0.06562426 0.053452183 -0.06636934 0.05575656 -0.057872348 -0.090103455
0.068912424 0.025486084 -0.017493594 0.031123098 0.07453165 -0.030196287 -0.055982158 0.055928923
0.046495497 0.022161424 0.034707285 0.08622148 -0.05440273 0.056373358 -0.025457034 -0.020419842
-0.0241972 0.057956915 0.06133949 -0.005562164 0.07491459 -0.012459683 -0.03028802 0.06086163
-0.07942687 0.015506015 -0.0008998352 0.059318926 -0.046059046 -0.03627792 -0.03255506 0.07445912
-0.0391878 -0.009847074 -0.015925413 -0.07170173 -0.042044826 -0.057527 -0.051734466 0.0043699783
-0.0139729865 0.039836254 -0.017828887 0.046305224 -0.09843081 -0.033374574 0.08666968 0.04573291
-0.02697576 0.07419257 -0.052958727 -0.055006687 -0.059261046 0.045061607 -0.053154867 0.0047280416
-0.035922818 -0.0325276 -0.04588224 0.022571111 -0.013278436 0.04605485 0.0182201 -0.07858164
0.051515717 0.06274231 0.07373798 -0.05749701 -0.07964931 0.063728884 -0.005303865 0.06451727
-0.04131037 0.05000699 0.009341487 0.0060760896 -0.013587271 0.003160687 -0.07779639 0.0651085
0.02927866 -0.09656337 -0.062485 -0.096815534 -0.035079822 -0.07790758 -0.039145254 0.015412894
-0.050051354 -0.004363427 0.06108476 -0.046318367 -0.0034612087 0.039218176 0.034618862 -0.10449062
0.011856277 0.0082671605 0.04032751 0.024526315 -0.095134415 0.0066861473 0.063528836 -0.052123368
0.016189614 0.022702971 -0.08224675 0.03785695 -0.09709778 0.03893269 -0.052626796 -0.02673619
0.041071564 -0.011181725 -0.051669814 0.019615248 0.032402713 -0.019666284 0.050294824 0.068182655
-0.08336213 0.036401447 -0.08180276 -0.0017170099 -0.0005006532 -0.039752707 0.00650506 -0.021787634
0.00025928274 0.08057726 -0.02252508 0.07910993 -0.08704545 0.061911695 -0.081881374 0.014670904
-0.07104682 0.020892765 -0.012636399 0.07465806 0.07092284 0.044942755 -0.06940261 -0.042817004
-0.078911625 0.05322365 0.031701922 0.062958784 0.05298803 -0.10090245 -0.057183377 0.045702737
0.02660406 0.03324454 -0.031163976 0.061736356 -0.033932354 0.008321822 -0.004398057 -0.03759877

layers.1.bias f4 [128]
00000000: 36a0 613d 1a29 923d 8a13 1c3c f469 c1bd
00000010: 2c04 25bd 9339 323d abd2 c8bc 5406 673d
00000020: 3ecf df3b 8b30 2abd 8513 d9b9 7243 3c3d
00000030: e3f1 8c3c 62de 93bd ffb2 8cbc 2df8 7dbd
00000040: 6b0f bf3d 1da2 6abd 6e26 603d 4a89 c93d
00000050: dcf4 22bd aab7 a23d 9bf7 0e3d 27dd abbd
00000060: d4fd d73c e0f9 90bd 03de 4e3c b2fc c73c
00000070: 8141 503d 1989 a2bd 2751 a33d 2fd6 253d
00000080: 6cc5 423d 16ee 5fbd 523a 5ebc 839a 233d
00000090: fa38 5d3c 62a7 07bc 399c 843d 679d 38bd
000000a0: f634 453d 57a9 253d ca66 113d ee2c 203d
000000b0: b7ca a33d 1e0a 18bd ba4d 07bc f90f 523d
000000c0: deb1 1c3d 1bdf 9fbc c4aa 703d cdaf 69bc
000000d0: 9dfc c23d 6ae3 ed3c 6b25 aebd f22d 19bd
000000e0: c292 3cbd 6069 09bd 007e 6e3d e346 97bd
000000f0: 20b8 503c 5ddb 12bd 4060 863d e5ae 293d
00000100: 1d67 9dbc 5407 67bd 272f 05bd 4128 82bd
00000110: 2628 9bbd a103 08bd 9d31 c5bc e6b2 223d
00000120: e7f2 c33d e3a3 843d 7c9c 80bd ed1d 60bd
00000130: 21ac 85bc e8f2 d7bb 76c9 87bd 642f 7ebd
00000140: 0490 87bb 859b 4bbd a86f 1cbd 9735 2fbd
00000150: 8ade 063d 6ec6 00bd bcab 873d 6da4 43bb
00000160: 7451 5a3d f704 83bd cf70 8a3c 47ed 893d
00000170: ba36 00ba b5ae 59bd 45bf a3bc f3f9 8a3d
00000180: 19a0 97bb c97d 6ebc 2e93 90bd f5d5 98bd
00000190: 1fb0 b0bd 7671 14bb fb13 debc 6809 a43a
000001a0: 16e2 823d 0be0 85bd 02d7 293c 9e61 8d3d
000001b0: 1054 62bc 23d2 b93d 93b2 c43c 4c0e d43d
000001c0: d077 ff3c c2fc a4bd 6107 61bd f504 853d
000001d0: d5d0 583c 6478 89bd 2c6c 3ebd f048 93bd
000001e0: 2674 abbd 8f1c a5bd 01d6 e93c d79c b3bd
000001f0: 350b 833d 3069 a9bd 776c 5ebd 2e9e 9abd
0.05508443 0.07136746 0.009526143 -0.09444037 -0.04028718 0.04351194 -0.024514517 0.05640252
0.006830125 -0.0415502 -0.00041404009 0.04596276 0.017205184 -0.072201505 -0.017175196 -0.062004257
0.093291126 -0.05728351 0.05472415 0.09840639 -0.039784297 0.079451874 0.034904104 -0.08391791
0.026366152 -0.0707891 0.012626174 0.024412487 0.05084372 -0.079363056 0.07974463 0.040487465
0.047551557 -0.054670416 -0.013563709 0.039942276 0.013502354 -0.008279653 0.064751096 -0.045071986
0.04814621 0.0404447 0.035498418 0.03910535 0.07997649 -0.037119024 -0.008258278 0.051284764
0.038255565 -0.019515565 0.058756605 -0.014263106 0.095208384 0.029039104 -0.08503231 -0.037397332
-0.046038397 -0.03354776 0.05822563 -0.073865674 0.012739211 -0.035853732 0.06561327 0.041426558
-0.019214207 -0.056403473 -0.03251567 -0.06355334 -0.07576017 -0.033206586 -0.024071509 0.039721392
0.09567814 0.064765714 -0.06279847 -0.05471604 -0.016317429 -0.006590236 -0.066302225 -0.062056914
-0.004137041 -0.04970886 -0.03819242 -0.042775717 0.032927074 -0.031439237 0.066245526 -0.0029852644
0.053300336 -0.06397431 0.016899494 0.0673471 -0.00048909674 -0.05314513 -0.019988665 0.06785955
-0.0046272394 -0.014556357 -0.07059322 -0.07462684 -0.086273424 -0.0022650636 -0.027109137 0.001251501
0.06390779 -0.065368734 0.010366203 0.069033846 -0.013813987 0.090732835 0.024010932 0.103542894
0.03118506 -0.08056022 -0.054938678 0.06495086 0.013233383 -0.06712416 -0.04648988 -0.07191646
-0.08371763 -0.08062088 0.028544428 -0.08770149 0.06398622 -0.08272016 -0.05430266 -0.07549702

predict.weight f4 [5, 128]
00000000: ef13 acbc dfcc 0abc efb6 763d 7caf 1abd
00000010: 3653 8fbd e87f 1c3d 849a e6bc 40cc 243d
00000020: 8ffa a43d 9785 16bd 063f e7bc 75de 5f3d
00000030: 40a3 2a3d d508 01bd d5f3 3abd 6176 9c3d
00000040: a035 c7bc c66c bfbc 1dac 2fbd 0018 043d
00000050: 6730 8fbd b88f 563c bb69 a03d 5d6a b0bb
00000060: ed2d b03d e600 b13d 827a 93bd b216 aebd
00000070: a78b 8bbc 3835 48bc 0aca 6d3d fc9c 3fbd
00000080: cd68 2fbd 1e2b b93d f493 153d 2d81 a4bc
00000090: e66f 8fbd 4a8d 26bd 176c 6fbc 917b 4c3d
000000a0: c771 a1bd 21af 5fbd 5082 19bd 3c32 a0bb
000000b0: 6a9b 383d 355d 88bd e3dd 2a3d 7c19 c73d
000000c0: 2708 c63c 6200 ec3c 885b c23d 299c a33d
000000d0: 1514 ddbc 4eeb 82bd 2100 b83d e3cc aa3d
000000e0: a87a bb3d 3bf7 b9bc 1f1d d93c 6ca8 a53d
000000f0: 2982 c03c 201c 24bc 08e0 3d3d ca86 cf3d
00000100: ecd6 6cbb 19c3 30bd 4c19 273d 0d0f cc3d
00000110: fffa 12bd 9afe 373d 7f3f 723d 8c0d 803d
00000120: ee85 8c3c eaff 0dbd b680 df3c d6b8 a1bd
00000130: d837 423d fe5b b9bb 7268 fabb e73c 17bd
00000140: 54c6 9e3d c0b2 30bd 9901 423d ae3a 43ba
00000150: c06c 95bd 2700 5dbd 61e7 09bd 648d 973d
00000160: 8116 fb3c 3c15 9cbc a2ee 5e3c a35f 8ebd
00000170: 7f4b 013d 53ba 95bd 94d4 5cbd 65f3 3cbd
00000180: 2b36 7f3d 6cce 12bc e824 6f3d be75 8dbc
00000190: a822 d9bc 3c1b 46bd 5d36 eb3c e966 d63d
000001a0: 0d76 0a3b 92c6 d33d 92ed 16bd be06 7a3d
000001b0: 2835 3b3d 1d4b be3c 2244 85bc 9879 813d
000001c0: d0c5 b03d 9b14 893c ccae 9abc 680d 7c3a
000001d0: 8026 2bbc 1610 9dbd 3b60 bebc f855 0f3d
000001e0: 81f0 ad3d 195b 01bd 5be3 7fbd 225f f4bb
000001f0: 6d8d 9bb9 334c 16bc b598 0cbd 2bbc aabd
00000200: f6e6 afbd 5153 9b3c 7fa2 16bb 3159 063d
00000210: 336e 2cbc 869e a33b 43d6 c93c efdf 733d
00000220: 4de7 313c fcab 493d 9f83 65bb b45d 77bd
00000230: a8c7 38bd 8b3b 8f3d 609b 9abc a90c 903d
00000240: d57e af3d 534c 83bd c7a8 99bc 42c0 4dbd
00000250: c60f 953d c8f0 eb3c 774e d23c 4c2d 8fbd
00000260: 32a7 5d3c bc77 803c 67c9 63bd 8ae0 0dbb
00000270: 8968 193d 6444 6bbc bf6f 0cbd cc78 853d
00000280: 14b5 9cbd dd33 bb3d bed9 073d c915 403d
00000290: a9f6 0fbd 36da ce3d 0235 1fbc 9504 3cbd
000002a0: 130a 57bd 013d 87bd 84e1 343b 646f 65bd
000002b0: 1d92 92bc 23ce 66bd b9b6 c03d ce04 a23d
000002c0: b2ff 953d 25fb f93c 1870 be3d 5067 033d
000002d0: dde6 833d 6b92 b13c 6c21 f4bc 973f 193d
000002e0: d42d 4d3d 5e7d 84bd 92b7 06bd 0c89 99bc
000002f0: 4ed3 69bd 6e25 813c e422 49bc 16f8 90bd
00000300: a767 163b 600b a93d 961a 653d d3c3 12bd
00000310: eed5 98bd 8c8b 5abd 1964 2d3c 840d ce3d
00000320: 2d15 b93d fd45 2abd f9b4 8abc a526 0cbd
00000330: 4153 08bd d410 b8ba c89b bebc 7eab 803d
00000340: 033b 32bc f94c adbb 2d89 cf38 1602 a43d
00000350: 0d42 e3bc 8f0a 763d 1fb4 abbb 82e8 8cbd
00000360: a89e 423c 3e5b 97bd 78e1 973d 07a9 673c
00000370: 8c63 d73c d532 9e3d 7b8e ac3d 2876 ed3c
00000380: c8d2 62bb 82d8 c03d c610 d63a 2ac5 823d
00000390: 34b1 8d3d a061 963d 3757 29bc e011 413d
000003a0: 0019 973d 4901 563d 7448 e9bc d988 dbba
000003b0: 9997 8fbd da5f 863d bbba 33bd 938e 513d
000003c0: e994 1f3c 3727 b4bd 832c 3c3d db1f 1dbc
000003d0: 76c7 2a3d ec1b d43c ed9f 37bb 7a67 a5bc
000003e0: 23e9 a73d 23d3 8b3c e513 d73d fd1f 95bd
000003f0: 8c97 b33d 3866 923d 5afa be3d 9631 a6bd
-0.021005599 -0.008471697 0.060233053 -0.03776501 -0.06998293 0.03820792 -0.02814985 0.04023385
0.08055603 -0.036748495 -0.028228294 0.05465551 0.041659594 -0.031502564 -0.045642693 0.076397665
-0.024317563 -0.023367297 -0.04288875 0.03224945 -0.06991654 0.013095789 0.078326665 -0.0053837732
0.0860251 0.086427495 -0.07201101 -0.085004225 -0.017034365 -0.01221972 0.058054008 -0.04678057
-0.042824555 0.09041427 0.036518052 -0.020081127 -0.07003765 -0.040662088 -0.014613173 0.04992253
-0.078830294 -0.054610375 -0.03747779 -0.004888801 0.04507009 -0.06658403 0.041715514 0.09721658
0.02417381 0.028808776 0.094901145 0.079887696 -0.026987115 -0.06392537 0.089843996 0.0833986
0.09154254 -0.022700896 0.026503144 0.080887645 0.023499565 -0.010016471 0.04635623 0.10133131
-0.0036138846 -0.04315481 0.04079561 0.09963808 -0.0358839 0.04492054 0.059142586 0.06252584
0.017153706 -0.034667887 0.027283054 -0.07896583 0.047416538 -0.0056567183 -0.0076418454 -0.036923315
0.07752672 -0.04313922 0.047364805 -0.00074474036 -0.07296133 -0.053955223 -0.033667926 0.07400015
0.03065038 -0.019053094 0.013606699 -0.06951835 0.03156614 -0.07310929 -0.053913668 -0.046130557
0.062307518 -0.008960348 0.058384806 -0.017268058 -0.026505783 -0.048365816 0.028712446 0.10468847
0.0021127493 0.10340609 -0.03684766 0.061041586 0.04570499 0.023229176 -0.01626784 0.0632202
0.0863148 0.016733458 -0.018882178 0.0009615035 -0.010446191 -0.07669084 -0.023239246 0.034994096
0.08493138 -0.031581018 -0.062472682 -0.00745763 -0.00029669274 -0.009173441 -0.03432532 -0.083366714
-0.08588974 0.018960627 -0.0022985039 0.032799903 -0.01052432 0.0049932627 0.0246383 0.05953973
0.010858369 0.049236283 -0.003502108 -0.060392097 -0.045112282 0.06993779 -0.018872917 0.07033665
0.08569113 -0.06411042 -0.018757237 -0.05023218 0.07278399 0.028801337 0.02567218 -0.069910616
0.013528632 0.015682094 -0.055611994 -0.0021648728 0.037453208 -0.014359567 -0.034286257 0.06517181
-0.076517254 0.091407515 0.03316664 0.046895776 -0.035147343 0.10100214 -0.009717228 -0.045902807
-0.052499842 -0.066034324 0.0027600238 -0.056014434 -0.017891938 -0.05634893 0.094098516 0.07911073
0.07324161 0.030515263 0.09298724 0.03208095 0.06440518 0.021676263 -0.029801093 0.03741416
0.050092533 -0.064692244 -0.03288991 -0.018742107 -0.05708628 0.015764918 -0.012276385 -0.07078569
0.0022949965 0.08254123 0.055933557 -0.035831284 -0.07462679 -0.05335574 0.010582947 0.10061172
0.09037242 -0.041570652 -0.016931998 -0.03421654 -0.033282522 -0.0014043101 -0.023267642 0.062827095
-0.010878327 -0.005288717 9.89608e-05 0.0800821 -0.027741456 0.060068663 -0.005239978 -0.06880285
0.011878647 -0.0739045 0.074160516 0.01413942 0.026292585 0.07724539 0.084256135 0.028987005
-0.0034610499 0.094162956 0.0016331903 0.06385262 0.069185644 0.07342839 -0.010335735 0.047136188
0.07377815 0.05224732 -0.028476931 -0.0016749158 -0.07011337 0.06561251 -0.043879252 0.05116136
0.009740093 -0.08796542 0.045940887 -0.0095901145 0.041694127 0.02589222 -0.0028018907 -0.020190943
0.08198764 0.017068451 0.105018415 -0.07281492 0.0876914 0.07148403 0.093250945 -0.081149265

predict.bias f4 [5]
00000000: da4b c9bc 7ebd 9c3c d7c4 96bc 13b9 75bd
00000010: 8583 25bd
-0.024572302 0.019133326 -0.018404407 -0.059990954 -0.04040863

exp_avg f4 [128, 25]
00000000: 0000 0000 0000 0000 0000 0000 0000 0000
00000010: 0000 0000 0000 0000 0000 0000 0000 0000
00000020: 0000 0000 0000 0000 0000 0000 0000 0000
00000030: 0000 0000 0000 0000 0000 0000 0000 0000
00000040: 0000 0000 0000 0000 0000 0000 0000 0000
00000050: 0000 0000 0000 0000 0000 0000 0000 0000
00000060: 0000 0000 0000 0000 0000 0000 0000 0000
00000070: 0000 0000 0000 0000 0000 0000 0000 0000
00000080: 0000 0000 0000 0000 0000 0000 0000 0000
00000090: 0000 0000 0000 0000 0000 0000 0000 0000
000000a0: 0000 0000 0000 0000 0000 0000 0000 0000
000000b0: 0000 0000 0000 0000 0000 0000 0000 0000
000000c0: 0000 0000 0000 0000 28b7 fbbb 05f0 efbb
000000d0: edb7 11bb c5da 1dbb 68c8 6a36 28b7 fbbb
000000e0: 183d 09ba 46c3 d6b8 8a20 123a 3f93 3838
000000f0: 28b7 fbbb 389d d2ba 3fbb 1dba d31e e139
00000100: a056 02b7 28b7 fbbb 5ed4 1abb c894 ab38
00000110: 766e 003a 9c68 7ab7 28b7 fbbb 06e7 4dbb
00000120: 1e5a acb9 950f 023a a8dd b335 bc92 86ba
00000130: 7da3 86ba 5e3a 07ba d511 9eb9 62b9 7ab6
00000140: bc92 86ba ae8f 84b8 0b6e e939 1653 5d38
00000150: 445f 7a36 bc92 86ba 703b 66b9 f218 b537
00000160: 0da7 2b38 b7e3 6e36 bc92 86ba 8faa a3b9
00000170: d762 3539 98b1 2238 676e 8436 bc92 86ba
00000180: 2548 d9b9 5d87 f839 a05c 3a38 98a2 7736
00000190: 839b 17bc 4a07 12bc 99d8 4abb 63cd 40bb
000001a0: 7233 0bb5 839b 17bc 5e73 25ba 94b4 9939
000001b0: 786f 2d3a f4f9 1fb8 839b 17bc c042 ecba
000001c0: 627a 0439 5d9e 223a 8b39 44b6 839b 17bc
000001d0: f1b6 3bbb 202c 933a 46e1 2a3a 34e3 3936
000001e0: 839b 17bc b94e 76bb 42a4 9ab9 3ee4 2e3a
000001f0: 7c71 ea37 c451 f5bb 1cc5 e9bb a1bd 29bb
00000200: a898 18bb 32b4 4836 c451 f5bb cb4a 0eba
00000210: ec79 db39 d2c0 ee39 105e d0b7 c451 f5bb
00000220: 73ef c6ba bd3d c839 458b f139 57c8 d735
00000230: c451 f5bb ec60 18bb 82f2 8c3a a34d ec39
00000240: 487b 8cb6 c451 f5bb cef8 47bb 24b5 0dba
00000250: 1cf3 f539 725f 3d37 0000 0000 0000 0000
00000260: 0000 0000 0000 0000 0000 0000 0000 0000
00000270: 0000 0000 0000 0000 0000 0000 0000 0000
00000280: 0000 0000 0000 0000 0000 0000 0000 0000
00000290: 0000 0000 0000 0000 0000 0000 0000 0000
000002a0: 0000 0000 0000 0000 0000 0000 0000 0000
000002b0: 0000 0000 0000 0000 0000 0000 5295 adba
000002c0: 67d8 a5ba 0225 87b9 c2a8 e9b9 3228 1b36
000002d0: 5295 adba 1e0e 93b8 01b3 5ab9 9665 0839
000002e0: a41a a837 5295 adba 419c 8eb9 b5c8 6db9
000002f0: bac8 da38 9d3a 79b6 5295 adba 4631 ccb9
00000300: e03c 45b9 b7c5 f838 7fa0 f9b6 5295 adba
00000310: 0619 0bba 3656 9337 bc94 d938 0c54 f1b4
00000320: 3d32 36bb 6af7 27bb 60b6 a6ba 70fe 58ba
00000330: d247 b134 3d32 36bb a4d3 84b9 0574 343a
00000340: c770 2539 5e1c 9bb5 3d32 36bb 188f 34ba
00000350: bd23 ac39 4927 c338 b7c5 6cb7 3d32 36bb
00000360: ec8c 6eba f3e3 be39 c93b 0739 f60e 50b6
00000370: 3d32 36bb 2ac1 a2ba a5a0 ae39 45ed 1539
00000380: f413 12b6 2334 41bc 975b 38bc 4b56 97bb
00000390: ec21 70bb 9744 4db5 2334 41bc ca5a 52ba
000003a0: 8213 be3a 8479 593a de64 f537 2334 41bc
000003b0: fa0d 23bb 83bc 183a 54c2 253a 2a4d d9b7
000003c0: 2334 41bc 3eee 6dbb db74 a13a eb5e 423a
000003d0: 5298 e5b6 2334 41bc 12b8 a0bb 5d1b 623a
000003e0: 578e 4c3a 7b9d e437 cfa5 2e38 cfa5 2e38
000003f0: d2b1 9732 f79a 9337 a005 3fb2 cfa5 2e38
0.0 0.0 0.0 0.0 0.0 0.0 0.0 0.0
0.0 0.0 0.0 0.0 0.0 0.0 0.0 0.0
0.0 0.0 0.0 0.0 0.0 0.0 0.0 0.0
0.0 0.0 0.0 0.0 0.0 0.0 0.0 0.0
0.0 0.0 0.0 0.0 0.0 0.0 0.0 0.0
0.0 0.0 0.0 0.0 0.0 0.0 0.0 0.0
0.0 0.0 -0.007681746 -0.0073223137 -0.0022234872 -0.0024086696 3.498537e-06 -0.007681746
-0.0005235239 -0.00010240688 0.00055743067 4.4006152e-05 -0.007681746 -0.0016068583 -0.00060169765 0.0004293831
-7.768773e-06 -0.007681746 -0.0023625116 8.181628e-05 0.00048992725 -1.49255175e-05 -0.007681746 -0.0031418218
-0.0003287354 0.00049614283 1.340105e-06 -0.0010267119 -0.0010272112 -0.00051585387 -0.00030149394 -3.736081e-06
-0.0010267119 -6.321013e-05 0.00044523212 5.2767886e-05 3.7308355e-06 -0.0010267119 -0.00021956651 2.1588497e-05
4.0925155e-05 3.559731e-06 -0.0010267119 -0.0003121686 0.00017298326 3.8789207e-05 3.946759e-06 -0.0010267119
-0.00041443217 0.000474031 4.443212e-05 3.690051e-06 -0.0092533855 -0.008912871 -0.0030951856 -0.0029419295
-5.18564e-07 -0.0092533855 -0.00063114415 0.00029316975 0.00066160364 -3.814134e-05 -0.0092533855 -0.0018025264
0.00012634092 0.00062034075 -2.923977e-06 -0.0092533855 -0.0028642977 0.001122836 0.0006518554 2.7699398e-06
-0.0092533855 -0.0037583543 -0.0002949555 0.0006671584 2.7947819e-05 -0.007486554 -0.007134093 -0.002590038
-0.002328435 2.990721e-06 -0.007486554 -0.0005428015 0.00041861774 0.0004553856 -2.4839333e-05 -0.007486554
-0.0015177563 0.0003819297 0.00046070866 1.6077055e-06 -0.007486554 -0.002325113 0.0010753425 0.00045071272
-4.186677e-06 -0.007486554 -0.003051329 -0.0005405715 0.00046911172 1.12875005e-05 0.0 0.0
0.0 0.0 0.0 0.0 0.0 0.0 0.0 0.0
0.0 0.0 0.0 0.0 0.0 0.0 0.0 0.0
0.0 0.0 0.0 0.0 0.0 0.0 0.0 -0.0013243353
-0.0012652994 -0.0002577678 -0.00044566958 2.3120197e-06 -0.0013243353 -7.012136e-05 -0.00020856784 0.00013007814
2.0039566e-05 -0.0013243353 -0.0002720077 -0.0002267685 0.00010432438 -3.7138009e-06 -0.0013243353 -0.00038946624
-0.00018810062 0.00011862389 -7.4394625e-06 -0.0013243353 -0.0005306158 1.756391e-05 0.0001037507 -4.49509e-07
-0.002780094 -0.0025629648 -0.0012719147 -0.000827766 3.3021075e-07 -0.002780094 -0.00025334687 0.00068837433
0.00015777639 -1.1556656e-06 -0.002780094 -0.00068877777 0.00032833024 9.305642e-05 -1.411273e-05 -0.002780094
-0.00090999785 0.0003640946 0.00012896875 -3.1003124e-06 -0.002780094 -0.0012417187 0.00033307556 0.00014298137
-2.176731e-06 -0.0117922155 -0.0112523055 -0.004618441 -0.0036641313 -7.646826e-07 -0.0117922155 -0.0008024393
0.0014501663 0.00082960003 2.9253246e-05 -0.0117922155 -0.0024880157 0.000582643 0.00063232076 -2.5904348e-05
-0.0117922155 -0.0036305333 0.0012318151 0.00074146566 -6.8424642e-06 -0.0117922155 -0.0049047554 0.0008625293
0.0007803193 2.725305e-05 4.1639254e-05 4.1639254e-05 1.7659577e-08 1.7595927e-05 -1.1118942e-08 4.1639254e-05

exp_avg_sq f4 [128, 25]
00000000: 0000 0000 0000 0000 0000 0000 0000 0000
00000010: 0000 0000 0000 0000 0000 0000 0000 0000
00000020: 0000 0000 0000 0000 0000 0000 0000 0000
00000030: 0000 0000 0000 0000 0000 0000 0000 0000
00000040: 0000 0000 0000 0000 0000 0000 0000 0000
00000050: 0000 0000 0000 0000 0000 0000 0000 0000
00000060: 0000 0000 0000 0000 0000 0000 0000 0000
00000070: 0000 0000 0000 0000 0000 0000 0000 0000
00000080: 0000 0000 0000 0000 0000 0000 0000 0000
00000090: 0000 0000 0000 0000 0000 0000 0000 0000
000000a0: 0000 0000 0000 0000 0000 0000 0000 0000
000000b0: 0000 0000 0000 0000 0000 0000 0000 0000
000000c0: 0000 0000 0000 0000 a51f 9c36 b70d 8f36
000000d0: ca15 2b35 af6d de34 77cf 6c2c a51f 9c36
000000e0: fe09 cf32 21ee 2f34 2e55 8c32 4d03 c22e
000000f0: a51f 9c36 c842 6734 5145 2933 ded9 0932
00000100: 8f21 2d2d a51f 9c36 13ed f634 8c85 7733
00000110: a6d2 4332 80e4 1f2d a51f 9c36 c26f 5435
00000120: ccba 2033 d8f8 6e32 257f c52c 4478 7733
00000130: cd7b 7733 b863 8a32 791c 9b31 e2de 572c
00000140: 4478 7733 773b 9c2f 6844 6632 4a53 d52e
00000150: b0e1 572c 4478 7733 bb9a 4b31 9e5f cd30
00000160: 131c 8e2e 1e27 4d2c 4478 7733 f410 c231
00000170: 2061 0e31 8dfb 822e 738a 5b2c 4478 7733
00000180: b5dd 1a32 3d0c 6e32 201a aa2e d123 5b2c
00000190: 62d7 2537 73f7 1937 8364 bf35 5b21 7c35
000001a0: a699 6e2c 62d7 2537 c26f 4033 1c6d 7b34
000001b0: 6855 2b33 34d3 ab2f 62d7 2537 1356 c834
000001c0: 8287 af33 a672 1033 29af c12d 62d7 2537
000001d0: 3ac6 8235 7e0f 1635 3d47 2933 a8c0 ba2d
000001e0: 62d7 2537 3756 dc35 1572 c832 fbab 3233
000001f0: 7930 822f 6325 9b36 f12e 9136 3dfa 4535
00000200: 4236 dc34 0309 892d 6325 9b36 20d6 b132
00000210: b881 2034 6a3f 5432 d59e 0d30 6325 9b36
00000220: 6d56 4e34 707b 8f33 00fa 5132 e85d 382e
00000230: 6325 9b36 d0bf f134 1aec 9534 9390 4032
00000240: b2a5 192d 6325 9b36 7dff 4a35 086f b533
00000250: eb55 7832 04b7 8b2e 0000 0000 0000 0000
00000260: 0000 0000 0000 0000 0000 0000 0000 0000
00000270: 0000 0000 0000 0000 0000 0000 0000 0000
00000280: 0000 0000 0000 0000 0000 0000 0000 0000
00000290: 0000 0000 0000 0000 0000 0000 0000 0000
000002a0: 0000 0000 0000 0000 0000 0000 0000 0000
000002b0: 0000 0000 0000 0000 0000 0000 735b cd35
000002c0: 1d0c bc35 e6f3 6c34 0379 1a34 8a40 932b
000002d0: 735b cd35 44b6 1032 c809 3a33 97d9 ca31
000002e0: 59f4 382e 735b cd35 74f1 8833 4a1f 4a32
000002f0: 9d28 a031 5b42 fa2c 735b cd35 915b 2634
00000300: 0b04 ab33 35d3 b431 7707 0e2c 735b cd35
00000310: d88f 8d34 641b ee31 72ea dc31 db59 a22c
00000320: 6b80 8e35 f6a0 7b35 3a36 4734 30b0 c133
00000330: 66e8 312c 6b80 8e35 a083 0932 26d1 4133
00000340: bb5f 6331 7563 b52d 6b80 8e35 4863 8333
00000350: c87e ac32 7ebc 8e30 d1b3 c52e 6b80 8e35
00000360: 1912 e533 9e20 a632 0baf f230 0820 6e2d
00000370: 6b80 8e35 990a 5434 677d b732 0fc3 4d31
00000380: bdc7 ac2e 6757 7637 860c 6337 ea72 4736
00000390: 9183 b235 b0fb 332d 6757 7637 f70d a233
000003a0: 7fab 7135 0189 7233 61d6 d72e 6757 7637
000003b0: 2b3a 3135 2d9d 2234 4464 f232 0411 0c2f
000003c0: 6757 7637 66a4 bb35 dd4c 9f34 1358 2e33
000003d0: 2a3e 2b2d 6757 7637 aa8c 2936 3a2a a434
000003e0: 7ec9 6733 78bf ea2e 81cb 7931 81cb 7931
000003f0: ace3 c926 6e50 1f30 0714 1f26 81cb 7931
0.0 0.0 0.0 0.0 0.0 0.0 0.0 0.0
0.0 0.0 0.0 0.0 0.0 0.0 0.0 0.0
0.0 0.0 0.0 0.0 0.0 0.0 0.0 0.0
0.0 0.0 0.0 0.0 0.0 0.0 0.0 0.0
0.0 0.0 0.0 0.0 0.0 0.0 0.0 0.0
0.0 0.0 0.0 0.0 0.0 0.0 0.0 0.0
0.0 0.0 4.652846e-06 4.2633287e-06 6.373417e-07 4.1430528e-07 3.3652783e-12 4.652846e-06
2.4102516e-08 1.6384776e-07 1.633688e-08 8.822685e-11 4.652846e-06 2.1537846e-07 3.941142e-08 8.023987e-09
9.841363e-12 4.652846e-06 4.5993565e-07 5.763063e-08 1.139839e-08 9.088841e-12 4.652846e-06 7.9138783e-07
3.7422794e-08 1.3910004e-08 5.6131926e-12 5.761855e-08 5.7621765e-08 1.6110661e-08 4.5143307e-09 3.0677062e-12
5.761855e-08 2.8418487e-10 1.3403316e-08 9.700914e-11 3.067862e-12 5.761855e-08 2.9628342e-09 1.4942889e-09
6.4623994e-11 2.9153967e-12 5.761855e-08 5.6480705e-09 2.0718929e-09 5.9564e-11 3.1198627e-12 5.761855e-08
9.01439e-09 1.3856206e-08 7.735346e-11 3.1141654e-12 9.884914e-06 9.177124e-06 1.4259862e-06 9.3925854e-07
3.3907126e-12 9.884914e-06 4.4805127e-08 2.341589e-07 3.9891717e-08 3.1254788e-10 9.884914e-06 3.731553e-07
8.173721e-08 3.3631885e-08 2.2019346e-11 9.884914e-06 9.743446e-07 5.59019e-07 3.941317e-08 2.1231308e-11
9.884914e-06 1.6416369e-06 2.3334943e-08 4.160027e-08 2.3681304e-10 4.6237124e-06 4.3268014e-06 7.3752364e-07
4.101767e-07 1.5579099e-11 4.6237124e-06 2.0702885e-08 1.4948353e-07 1.2354443e-08 5.1521215e-10 4.6237124e-06
1.9216687e-07 6.6814096e-08 1.22222445e-08 4.1920162e-11 4.6237124e-06 4.502931e-07 2.79252e-07 1.1208743e-08
8.733835e-12 4.6237124e-06 7.562265e-07 8.448666e-08 1.4455035e-08 6.353498e-11 0.0 0.0
0.0 0.0 0.0 0.0 0.0 0.0 0.0 0.0
0.0 0.0 0.0 0.0 0.0 0.0 0.0 0.0
0.0 0.0 0.0 0.0 0.0 0.0 0.0 1.5300305e-06
1.4010617e-06 2.2067942e-07 1.4386391e-07 1.0462891e-12 1.5300305e-06 8.423346e-09 4.3315396e-08 5.903711e-09
4.205378e-11 1.5300305e-06 6.3769136e-08 1.1765062e-08 4.66123e-09 7.1127943e-12 1.5300305e-06 1.5493266e-07
7.9635434e-08 5.262701e-09 2.0183558e-12 1.5300305e-06 2.6367957e-07 6.9298256e-09 6.429496e-09 4.614293e-12
1.0617199e-06 9.3739015e-07 1.8553047e-07 9.019311e-08 2.528222e-12 1.0617199e-06 8.004378e-09 4.5126534e-08
3.3087264e-09 2.0621485e-11 1.0617199e-06 6.118222e-08 2.0081089e-08 1.0385433e-09 8.9904646e-11 1.0617199e-06
1.06669354e-07 1.9339776e-08 1.7657568e-09 1.3535846e-11 1.0617199e-06 1.9747894e-07 2.136103e-08 2.9942304e-09
7.857135e-11 1.4683093e-05 1.353317e-05 2.97202e-06 1.3300324e-06 1.0230858e-11 1.4683093e-05 7.546253e-08
9.0029056e-07 5.646962e-08 9.8151494e-11 1.4683093e-05 6.6022284e-07 1.5144606e-07 2.8218103e-08 1.2738971e-10
1.4683093e-05 1.3980432e-06 2.9671983e-07 4.0592635e-08 9.734028e-12 1.4683093e-05 2.526484e-06 3.0578104e-07
5.3967135e-08 1.06751e-10 3.6349947e-09 3.6349947e-09 1.4008887e-15 5.795816e-10 5.519135e-16 3.6349947e-09

exp_avg f4 [128]
00000000: 0000 0000 0000 0000 29b7 fbbb bc92 86ba
00000010: 839b 17bc c451 f5bb 0000 0000 5195 adba
00000020: 3d32 36bb 2334 41bc cfa5 2e38 b85b 8ebb
00000030: 9f4d a5bb 5843 3336 0000 0000 0df9 adbb
00000040: 87d7 2bbc b9f7 11bc 0000 0000 a71e f5ba
00000050: cf00 50bb 0000 0000 a8ff 42bb ade5 0fbc
00000060: ea90 353a 6210 a4bb 0000 0000 e0f6 0fbb
00000070: 641f 08bc eb92 19bc 3f1a deb9 0000 0000
00000080: 0bf8 54bc 0000 0000 0000 0000 e7ec 1bba
00000090: 0b83 fabb 2d05 aaba 0000 0000 1d37 0b36
000000a0: 2835 25bc b8c5 58ba e099 4d3b 0000 0000
000000b0: ea20 1dba 0000 0000 fd02 bfbb 0000 0000
000000c0: c999 fcbb f08a 5d3b a33b 0e39 ef9c 9539
000000d0: 30cb d7b7 0000 0000 9223 39bc 584a 203a
000000e0: 4db5 afba dc70 78bb 2e09 debb b3dd 85b9
000000f0: 6d1c 9fba 261d d538 0000 0000 766d 4dbb
00000100: 1835 4e36 037e 2abc 6844 87b9 ca86 26bb
00000110: fc09 f7bb 7163 59bb 0000 0000 9fde 7d38
00000120: fa1a 34bb a037 cbbb c6aa 07bc 0000 0000
00000130: eb65 47bb d27f 8d38 2122 7fbb 0000 0000
00000140: 0000 0000 243d f3bb d682 28bc 0000 0000
00000150: 7fd0 0fbc 7b38 74bb a64d ebbb 0000 0000
00000160: 3666 66bb c283 d3bb ae8d 4fbc 0000 0000
00000170: b5b3 2cbb 0000 0000 526c fcbb de5c 11bb
00000180: 4bfc 8fbb 0000 0000 0a05 00bc 0000 0000
00000190: 94f1 83bb a5ac f5b9 1ccc c6bb f55f aebb
000001a0: 2cc6 4eba 9ad0 bcb9 584f d3bb 5238 9cbb
000001b0: 0000 0000 0000 0000 0000 0000 b2a9 72bb
000001c0: 9979 a8bb 6e1e 7738 0000 0000 9718 e1bb
000001d0: 0000 0000 54a0 d0bb 0000 0000 4899 07bc
000001e0: 0294 0cbc 6121 ebba b709 b039 0000 0000
000001f0: 439e ba36 0000 0000 b587 d6ba 0000 0000
0.0 0.0 -0.0076817465 -0.0010267119 -0.0092533855 -0.007486554 0.0 -0.0013243352
-0.002780094 -0.0117922155 4.1639254e-05 -0.00434443 -0.0050446535 2.6712278e-06 0.0 -0.00530923
-0.010488397 -0.008909159 0.0 -0.0018701152 -0.0031738763 0.0 -0.0029754434 -0.008782786
0.0006926196 -0.005006836 0.0 -0.0021967217 -0.008308265 -0.009373407 -0.00042362695 0.0
-0.012998591 0.0 0.0 -0.0005948082 -0.007645016 -0.0012971513 0.0 2.0744694e-06
-0.010083474 -0.00082692085 0.0031372234 0.0 -0.0005993979 0.0 -0.0058292137 0.0
-0.0077087623 0.0033804737 0.00013564392 0.0002853642 -2.5724614e-05 0.0 -0.0112999845 0.00061145937
-0.0013405472 -0.0037909066 -0.0067759966 -0.00025532916 -0.0012139209 0.00010162061 0.0 -0.0031345761
3.0727297e-06 -0.01040602 -0.00025800173 -0.002540993 -0.007539032 -0.0033170844 0.0 6.0527233e-05
-0.00274819 -0.0062016994 -0.008280462 0.0 -0.0030425738 6.747212e-05 -0.0038930255 0.0
0.0 -0.00742306 -0.0102851 0.0 -0.008777737 -0.003726511 -0.0071808873 0.0
-0.0035156137 -0.0064549157 -0.012668056 0.0 -0.002635223 0.0 -0.0077033425 -0.0022180597
-0.0043940893 0.0 -0.007813701 0.0 -0.004026601 -0.00046858672 -0.006066812 -0.0053214976
-0.0007887806 -0.00036013575 -0.0064486675 -0.004767456 0.0 0.0 0.0 -0.0037027416
-0.0051414487 5.891773e-05 0.0 -0.0068693864 0.0 -0.006366769 0.0 -0.008276291
-0.00858021 -0.0017939025 0.00033576574 0.0 5.561656e-06 0.0 -0.0016367348 0.0

exp_avg_sq f4 [128]
00000000: 0000 0000 0000 0000 a51f 9c36 4378 7733
00000010: 63d7 2537 6325 9b36 0000 0000 725b cd35
00000020: 6a80 8e35 6757 7637 7fcb 7931 4b22 1436
00000030: c967 ec35 8155 802e 0000 0000 5908 3536
00000040: a14f 6037 2f69 b536 0000 0000 cf87 e235
00000050: 274c 4d35 0000 0000 9b2e 3636 6567 1637
00000060: 5435 5135 8152 7036 0000 0000 6295 1735
00000070: 7b2d 0b37 eb68 9836 f8fa 3633 0000 0000
00000080: 9c7e 7b37 0000 0000 0000 0000 1035 2c32
00000090: 3862 8536 061f f134 0000 0000 399f 6b30
000000a0: ecaa 9b36 a7b5 1f36 be13 9135 0000 0000
000000b0: e28c 1633 0000 0000 3afb ae36 0000 0000
000000c0: 1110 8a36 852e 4a36 29bb 9933 1143 0534
000000d0: 1aab 9b34 0000 0000 5e5e 9537 92e0 5335
000000e0: eb7c 8f33 440d 8735 a08a 6136 604b 4731
000000f0: 978a 2834 5c88 ba32 0000 0000 4e36 fe34
00000100: add7 ac35 e490 d736 91cb 2e32 0014 9534
00000110: 021a a136 0374 8135 0000 0000 f1e9 8430
00000120: 94dd 4e35 e252 9036 dd81 fb36 0000 0000
00000130: 34c3 d834 f462 a334 267c 8236 0000 0000
00000140: 0000 0000 1329 0337 ae16 2637 0000 0000
00000150: 3f4e 9336 70f2 8036 d7e7 c336 0000 0000
00000160: d695 6f35 0d93 6836 2ad8 4537 0000 0000
00000170: 9e99 9a35 0000 0000 6475 d036 f6ac 5d34
00000180: 456b 3735 0000 0000 158b dc36 0000 0000
00000190: 8c63 9235 c610 1433 bded 7936 6f5f 6c36
000001a0: b67e f933 5f64 a134 54af 6636 5858 2336
000001b0: 0000 0000 0000 0000 0000 0000 5c1a 2b35
000001c0: 34f0 0936 b766 3435 0000 0000 261d 6e36
000001d0: 0000 0000 7233 8f36 0000 0000 6ff8 0837
000001e0: 08a6 0f37 b96c 3a35 80dc d033 0000 0000
000001f0: f58c cc2e 0000 0000 f8d7 8a35 0000 0000
0.0 0.0 4.652846e-06 5.7618546e-08 9.884915e-06 4.6237124e-06 0.0 1.5300304e-06
1.0617198e-06 1.4683093e-05 3.6349943e-09 2.207368e-06 1.7613576e-06 5.8359546e-11 0.0 2.697596e-06
1.33699805e-05 5.4064653e-06 0.0 1.6877838e-06 7.647927e-07 0.0 2.7147241e-06 8.96477e-06
7.793617e-07 3.581081e-06 0.0 5.6469264e-07 8.295635e-06 4.542167e-06 4.2603432e-08 0.0
1.4990244e-05 0.0 0.0 1.0023783e-08 3.975143e-06 4.491232e-07 0.0 8.571877e-10
4.639258e-06 2.3798582e-06 1.0809088e-06 0.0 3.505273e-08 0.0 5.2148507e-06 0.0
4.114591e-06 3.0127424e-06 7.158662e-08 1.2410989e-07 2.8995493e-07 0.0 1.7806127e-05 7.893042e-07
6.681679e-08 1.0062145e-06 3.3608303e-06 2.9001157e-09 1.5696638e-07 2.1715259e-08 0.0 4.73507e-07
1.2877769e-06 6.424367e-06 1.0174419e-08 2.7767965e-07 4.8012016e-06 9.645013e-07 0.0 9.670754e-10
7.706342e-07 4.3011833e-06 7.495501e-06 0.0 4.0375164e-07 3.0433114e-07 3.8887547e-06 0.0
0.0 7.817772e-06 9.899652e-06 0.0 4.3900504e-06 3.8429207e-06 5.8384426e-06 0.0
8.925248e-07 3.4656289e-06 1.1792445e-05 0.0 1.1518603e-06 0.0 6.212549e-06 2.0645152e-07
6.832891e-07 0.0 6.572702e-06 0.0 1.090682e-06 3.447419e-08 3.7242273e-06 3.522229e-06
1.16180146e-07 3.0061616e-07 3.4374725e-06 2.4340316e-06 0.0 0.0 0.0 6.374082e-07
2.0554407e-06 6.7204695e-07 0.0 3.548173e-06 0.0 4.267721e-06 0.0 8.164075e-06
8.562121e-06 6.944861e-07 9.7258635e-08 0.0 9.301885e-11 0.0 1.0344656e-06 0.0

exp_avg f4 [128, 128]
00000000: 0000 0000 0000 0000 8a48 7736 0000 0000
00000010: 0884 0537 07e4 9536 0000 0000 fa6f b336
00000020: 4f25 dc36 7bf1 5137 0000 0000 71f6 2437
00000030: 0000 0000 0000 0000 0000 0000 507e 9736
00000040: 6469 a436 303e de36 0000 0000 feb6 8834
00000050: 4863 5236 0000 0000 bfaa 1b37 aaf1 2c34
00000060: 0000 0000 5a6f 5937 0000 0000 6ac7 3436
00000070: 0000 0000 059f 2b37 fc39 3436 0000 0000
00000080: 5745 0737 0000 0000 0000 0000 11ef 0e35
00000090: 3c54 1b37 5842 2e37 0000 0000 0000 0000
000000a0: 2a7f b836 6422 bc36 0000 0000 0000 0000
000000b0: 0000 0000 0000 0000 aa93 d135 0000 0000
000000c0: ada6 0037 6d3f af36 0000 0000 0000 0000
000000d0: 001a 9836 0000 0000 bfb8 a036 5c49 b035
000000e0: 0000 0000 d41d 9636 2abf 1136 5a2a 1734
000000f0: 29ac 1936 0000 0000 0000 0000 0000 0000
00000100: 4697 3236 e7f7 3636 0000 0000 f709 8036
00000110: 357b 3236 39fb 4a36 0000 0000 2ded e734
00000120: 0000 0000 ea9e ce36 ec13 f736 0000 0000
00000130: 5707 0f35 5010 2b37 6ac5 8b36 0000 0000
00000140: 0000 0000 ac22 8f35 8ff0 2735 0000 0000
00000150: 2b65 6f36 e155 c436 2aa8 b336 0000 0000
00000160: 0000 0000 dda4 1d37 d968 d235 0000 0000
00000170: 1b63 6636 0000 0000 20a1 9532 4cea a735
00000180: 0000 0000 0000 0000 6b7c 2236 0000 0000
00000190: 0000 0000 d3d5 6534 a40b 1a37 ad3f 1b37
000001a0: 0000 0000 0000 0000 0000 0000 0000 0000
000001b0: 0000 0000 0000 0000 0000 0000 c0e1 b735
000001c0: 0000 0000 cd2b 1236 0000 0000 86a7 e736
000001d0: 0000 0000 0000 0000 0000 0000 230e 1236
000001e0: 0000 0000 364f d035 0000 0000 0000 0000
000001f0: 0000 0000 0000 0000 0000 0000 0000 0000
00000200: 0000 0000 0000 0000 1eb4 3b3a 7a11 3137
00000210: b9c5 fe3a 4227 b83a 0000 0000 5958 923a
00000220: 91a4 943a 5e58 353b e4ff 1a36 2755 d73a
00000230: 3cd6 dc38 e0b2 cdb1 0000 0000 0e07 2f3a
00000240: 299a 603a 2632 ba3a 0000 0000 7d32 9739
00000250: 5c8f db39 0000 0000 6431 b03a 9713 2e3a
00000260: 6359 9b38 e98e 4f3b 0000 0000 23f8 6a39
00000270: c5cf 9c39 9661 dd3a 285f 9f39 0000 0000
00000280: 808a d43a 0000 0000 0000 0000 33aa 1a38
00000290: b35d c93a 0aa8 103b 0000 0000 fca9 9031
000002a0: 58f5 9e3a b033 2b3a 0a43 8439 0000 0000
000002b0: 1a51 1837 0000 0000 4406 5d3a 0000 0000
000002c0: f14a b83a 99f2 543a 697a 1337 e958 4537
000002d0: 33ab 8f3a 0000 0000 71a8 a33a 6603 3b3a
000002e0: 33ad 8137 108a 263a 0d4f 473a afa2 3c36
000002f0: 8920 6239 8951 cf37 0000 0000 c7d4 0938
00000300: a2bc f939 1136 3b3a c63d 9036 e1e8 bb39
00000310: 562d b839 924c 333a 0000 0000 fa86 4136
00000320: 901b 9138 ce43 9a3a ed56 e43a 0000 0000
00000330: 8030 a239 08d7 ff3a a295 123a 0000 0000
00000340: 0000 0000 4c14 db39 a135 6a39 0000 0000
00000350: 73ce 173a 9d4f d33a 8209 fc3a 0000 0000
00000360: 04ec 8d38 1c2e 093b 387b 2b3a 0000 0000
00000370: 65cc 8e3a 0000 0000 f533 0739 f3cb eb38
00000380: 8311 a638 0000 0000 8525 4a3a 0000 0000
00000390: 680a 8838 5013 8138 7d09 113b 45d0 633a
000003a0: c79f f135 2726 8538 35a7 633a 47e5 0439
000003b0: 0000 0000 0000 0000 0000 0000 443b 7f39
000003c0: eaba 0e39 f971 9639 0000 0000 d7b5 de3a
000003d0: 0000 0000 4dba 4b39 0000 0000 8fd2 113a
000003e0: b036 9239 1085 823a 7520 e437 0000 0000
000003f0: d1d4 65b3 0000 0000 5b56 3d38 0000 0000
0.0 0.0 3.6848091e-06 0.0 7.958159e-06 4.467092e-06 0.0 5.3476515e-06
6.560854e-06 1.2513595e-05 0.0 9.832541e-06 0.0 0.0 0.0 4.5148554e-06
4.89985e-06 6.623355e-06 0.0 2.5465118e-07 3.1350228e-06 0.0 9.278475e-06 1.6106665e-07
0.0 1.2960134e-05 0.0 2.6938164e-06 0.0 1.0229419e-05 2.6855841e-06 0.0
8.0627715e-06 0.0 0.0 5.324701e-07 9.258332e-06 1.0386655e-05 0.0 0.0
5.498431e-06 5.60684e-06 0.0 0.0 0.0 0.0 1.5614689e-06 0.0
7.668202e-06 5.22279e-06 0.0 0.0 4.53298e-06 0.0 4.789879e-06 1.3134372e-06
0.0 4.473821e-06 2.1717956e-06 1.4078378e-07 2.2898987e-06 0.0 0.0 0.0
2.661212e-06 2.7264412e-06 0.0 3.8158573e-06 2.6595783e-06 3.0246576e-06 0.0 4.319967e-07
0.0 6.1577784e-06 7.363493e-06 0.0 5.328233e-07 1.0196192e-05 4.165505e-06 0.0
0.0 1.0664421e-06 6.2562407e-07 0.0 3.5672663e-06 5.851253e-06 5.3541926e-06 0.0
0.0 9.396314e-06 1.5676734e-06 0.0 3.4330358e-06 0.0 1.7419154e-08 1.2510659e-06
0.0 0.0 2.4212302e-06 0.0 0.0 2.1405076e-07 9.181826e-06 9.253546e-06
0.0 0.0 0.0 0.0 0.0 0.0 0.0 1.3700264e-06
0.0 2.178119e-06 0.0 6.9038388e-06 0.0 0.0 0.0 2.1763924e-06
0.0 1.5520261e-06 0.0 0.0 0.0 0.0 0.0 0.0
0.0 0.0 0.00071603234 1.0554091e-05 0.0019437588 0.0014049786 0.0 0.0011165246
0.0011340549 0.002767108 2.3096736e-06 0.0016428576 0.00010530322 -5.986621e-09 0.0 0.00066767714
0.00085678935 0.0014205619 0.0 0.0002883858 0.00041877746 0.0 0.0013442454 0.00066404924
7.4076255e-05 0.0031670874 0.0 0.00022408417 0.0002990944 0.0016890045 0.0003039774 0.0
0.0016215593 0.0 0.0 3.687497e-05 0.0015363008 0.0022072815 0.0 4.2102766e-09
0.0012127561 0.00065308344 0.0002522695 0.0 9.078789e-06 0.0 0.00084314146 0.0
0.001406042 0.0008123308 8.790384e-06 1.1762816e-05 0.0010961056 0.0 0.0012486113 0.00071339903
1.545865e-05 0.00063529704 0.0007603027 2.8108877e-06 0.0002156516 2.471429e-05 0.0 3.286151e-05
0.00047633523 0.00071415404 4.298726e-06 0.00035840928 0.00035128993 0.0006839718 0.0 2.8837808e-06
6.919273e-05 0.0011769475 0.0017420925 0.0 0.00030935183 0.001951904 0.0005591755 0.0
0.0 0.00041786057 0.00022335957 0.0 0.0005790956 0.0016121749 0.0019228908 0.0
6.767365e-05 0.0020932024 0.00065414933 0.0 0.0010894655 0.0 0.00012893959 0.00011243662
7.918759e-05 0.0 0.00077112793 0.0 6.486924e-05 6.1547966e-05 0.00221309 0.00086903974
1.80024e-06 6.3490406e-05 0.00086842786 0.00012673913 0.0 0.0 0.0 0.00024340773
0.00013611806 0.00028695146 0.0 0.0016991448 0.0 0.00019428991 0.0 0.0005562687
0.00027888035 0.0009957869 2.7194832e-05 0.0 -5.3511773e-08 0.0 4.5141536e-05 0.0
