highway_ddqn/ddqn1/checkpoint-27.tar (torch, 253302 bytes, 18 tensors)

layers.0.weight f4 [128, 25]
0	0xbc9b52b4	-0.018960334
1	0x3bd8acec	0.006612411
2	0xbda58680	-0.080822945
3	0x3e05c7a6	0.13064441
4	0x3d0424f3	0.0322618
5	0x3e02d0a5	0.12774904
6	0xbcdb46c5	-0.026767144
7	0xbb8f4fe4	-0.0043735374
8	0xbdd90bc5	-0.10597948
9	0xbc95354d	-0.018213892
10	0xbdb59dae	-0.08867966
11	0xbe2f9459	-0.17146434
12	0xbdfcdbe6	-0.1234663
13	0x3e484f46	0.1956149
14	0xbcab395a	-0.02090137
15	0xbe2b035d	-0.16700502
16	0xbe2b57e9	-0.16732754
17	0x3e154859	0.1457838
18	0x3d969b99	0.07353897
19	0xbdef8df7	-0.116969995
20	0x3d918055	0.071045555
21	0x3d9c438c	0.07630071
22	0x3e1cc5ce	0.15309832
23	0x3df8a7ba	0.12141366
24	0xbdfe833a	-0.12427373
25	0x3d3f4eb3	0.046705913
26	0x3e15d4dd	0.14631982
27	0x3a3a34cd	0.0007103205
28	0x3d751367	0.059832957
29	0x3e11ab40	0.14225483
30	0xbdd2aa4a	-0.10286386
31	0xbd9e24c0	-0.07721853
32	0xbd109ad3	-0.035303902
33	0xbe4153da	-0.18879643
34	0xbd50e3ed	-0.050998617
35	0x3d3f8507	0.046757724
36	0xbd4571c7	-0.04820421
37	0xbe1aec0d	-0.15129109
38	0xbde7bce0	-0.11315322
39	0x3e4704e5	0.19435461
40	0xbe21ee13	-0.15813474
41	0x3dee3173	0.116305254
42	0xbdbc4b77	-0.09194081
43	0xbb426ecd	-0.0029668093
44	0xbe06a408	-0.1314851
45	0xbdec8c23	-0.115501665
46	0xbe4527cd	-0.19253464
47	0x3e3d81d5	0.18506558
48	0xbde1a9aa	-0.11018689
49	0xbd99be1d	-0.07506964
50	0x3de47a80	0.111561775
51	0xbda291f1	-0.07937992
52	0xbdefe3a7	-0.11713343
53	0x3e105f1c	0.14098781
54	0xbe0e840f	-0.13917564
55	0x3e54b6e9	0.207729
56	0xbdd1a7b0	-0.10237062
57	0xbdfdbfab	-0.123900734
58	0x3dc35b28	0.09538871
59	0x3d529fb5	0.05142184
60	0x3db36296	0.08759038
61	0x3db36cd9	0.087609954
62	0x3e63e909	0.22256865
63	0x3d36d623	0.04463781
64	0x3da5b605	0.08091358
65	0xbd55ff7a	-0.052245595
66	0x3e585f33	0.21130066
67	0x3e1250b7	0.14288603
68	0x3e2caddf	0.16863202
69	0x3da90d1c	0.082544535
70	0xbe1d11c9	-0.15338816
71	0x3c5669ec	0.013086777
72	0x3dd41383	0.10355284
73	0x3d9f8ff2	0.07791127
74	0xbe1f9588	-0.15584385
75	0x3cbb0221	0.022828164
76	0x3cc18308	0.02362205
77	0x3e4ef19d	0.20209356
78	0x3e5bee6e	0.21477672
79	0xbdbc7856	-0.0920264
80	0xbe09b183	-0.13446622
81	0x3e45cf79	0.19317426
82	0xbe5fa474	-0.21840078
83	0xbd6c06c1	-0.05762363
84	0x3dc1f292	0.09470095
85	0x3cf43fab	0.029815516
86	0xbe11ac58	-0.142259
87	0x3e60bd90	0.21947312
88	0xbd259a78	-0.040430516
89	0xbda41928	-0.08012611
90	0x3e420827	0.18948422
91	0x3dbdfc21	0.092766054
92	0xbd565c06	-0.052333854
93	0x3ceb44f6	0.028719407
94	0x3c575e42	0.013145031
95	0xbe325a0b	-0.17417161
96	0xbd97b915	-0.074083485
97	0xbe5fd40a	-0.2185823
98	0x3db1c5d4	0.08680311
99	0x3d9e2d38	0.077234685
100	0x3e45c99b	0.19315188
101	0x3dd105e0	0.10206199
102	0x3e3b4d82	0.18291286
103	0xbce760d7	-0.028244419
104	0xbde7b7e9	-0.11314375
105	0xbd448463	-0.047977816
106	0x3bfef339	0.0077804592
107	0xbe449253	-0.19196443
108	0xbc2dc1c6	-0.010605281
109	0x3db33a80	0.08751392
110	0x3d9daeb8	0.076993406
111	0x3db3d7b9	0.0878138
112	0xbde0f224	-0.10983685
113	0x3e2b2e81	0.16716959
114	0xbd77fd81	-0.060544495
115	0x3e5731bb	0.21015064
116	0x3e56986d	0.20956583
117	0xbe2a4052	-0.16626099
118	0xbe21c671	-0.15798356
119	0xbe0238c7	-0.12716971
120	0x3e653a21	0.22385456
121	0x3df8c66b	0.1214722
122	0x3e3251d1	0.17414023
123	0xbd13f546	-0.036122583
124	0x3d1d627e	0.038424008
125	0x3ce4e64f	0.027941851
126	0x3c34f005	0.011043553
127	0x3db58d29	0.08864815
128	0x3dc920ec	0.098207325
129	0x3d858902	0.06520273
130	0x3ddf8b1f	0.10915207
131	0x3b9efcbf	0.004851907
132	0xbd5f6854	-0.054542854
133	0xbdec17cf	-0.11527979
134	0xbca58e3a	-0.02020942
135	0xbca83f54	-0.02053801
136	0xbdd98240	-0.10620546
137	0x3df98efb	0.121854745
138	0x3dc1b65e	0.09458612
139	0xbe570b11	-0.21000315
140	0x3e1a7c84	0.15086561
141	0x3de810c7	0.11331325
142	0x3c81a3b2	0.015825126
143	0x3e270d7a	0.16313735
144	0xbe594714	-0.2121852
145	0x3e2ea84c	0.17056388
146	0xbd7e0cba	-0.062023856
147	0xbe3bf75a	-0.18356076
148	0x3d7acad0	0.061228573
149	0x3d8b2a38	0.06795162
150	0xbe10781d	-0.1410832
151	0xbdd727bd	-0.10505626
152	0x3e3a528f	0.18195556
153	0x3e131ae5	0.14365728
154	0xbe06ea3a	-0.13175288
155	0xbd882280	-0.06647205
156	0x3ccf5bda	0.025312353
157	0xbdf1e853	-0.118118905
158	0x3e2f5d27	0.17125379
159	0x3e16883b	0.14700405
160	0xbdc3d20d	-0.095615484
161	0x3e3c073f	0.18362139
162	0xbc283ab3	-0.010267901
163	0xbdf5c627	-0.12000685
164	0x3af7a267	0.0018893004
165	0xbd754387	-0.059878852
166	0x3e4aa0cf	0.19787906
167	0x3d8ef94a	0.06981142
168	0xbde88bd3	-0.11354794
169	0xbe1a5460	-0.15071249
170	0xbdb3ee43	-0.08785679
171	0xbc019067	-0.007907963
172	0x3e133efb	0.14379494
173	0xbe23d2cb	-0.1599838
174	0x3bc3b8cd	0.0059729577
175	0x3e1e3b40	0.1545229
176	0x3d1f81c0	0.0389421
177	0x3dd150ce	0.102204904
178	0xbde7de2d	-0.113216735
179	0x3d9ea725	0.07746724
180	0x3daf2638	0.085522115
181	0xbd877822	-0.066147104
182	0x3d37fda1	0.044919614
183	0x3c3d199a	0.011541748
184	0x3d5d8009	0.054077182
185	0x3d50abce	0.050945096
186	0x3a2090d7	0.00061250984
187	0x3dc83c0f	0.0977708
188	0xbe1c425d	-0.1525969
189	0xbd35ed89	-0.044415984
190	0x3d1540f4	0.036438897
191	0xbdb186c1	-0.086682804
192	0xbc362a48	-0.011118479
193	0x3e3afb83	0.18260007
194	0xbd4da673	-0.050207566
195	0xbc2f2d77	-0.010691992
196	0x3de2ae27	0.11068373
197	0x3dc4b7bd	0.09605358
198	0x3cb523be	0.02211177
199	0x3df29eec	0.11846718
200	0xbdd79d36	-0.105280325
201	0x3e1f3f8c	0.15551585
202	0x3e619a72	0.22031572
203	0xbd089c4f	-0.033352192
204	0xbd16253b	-0.0366566
205	0xbcfc8130	-0.03082332
206	0x3a9351ee	0.0011239627
207	0x3e2387b1	0.15969731
208	0x3e0d4f39	0.13799752
209	0xbda75b16	-0.0817167
210	0x3d6495e4	0.05580701
211	0xbdab5a7f	-0.0836687
212	0xbd1332d0	-0.03593713
213	0x3caab910	0.020840198
214	0x3e2600c7	0.16211234
215	0x3dbd5558	0.09244794
216	0x3d7d9458	0.06190905
217	0xbe3aeeb8	-0.18255126
218	0xbd6024d1	-0.05472261
219	0xbe5829ef	-0.21109746
220	0x3e422fed	0.18963595
221	0x3e4fe1b6	0.20300946
222	0x3da6e971	0.08149994
223	0x3cac9d09	0.021070974
224	0xbdf0cfaf	-0.117583625
225	0x3e46181e	0.19345137
226	0x3e388bf7	0.18022142
227	0xbc89d1e0	-0.016823709
228	0xbe20234c	-0.15638465
229	0xbca839df	-0.020535408
230	0x3e1f586a	0.15561071
231	0xbe0bcfd4	-0.13653499
232	0xbdec4fd6	-0.11538665
233	0x3d2120f1	0.039338056
234	0xbda7214e	-0.08160649
235	0x3ddb584a	0.10710199
236	0xbd4c1e1d	-0.049833406
237	0xbc6a57ad	-0.01430313
238	0x3de80501	0.113290794
239	0x3e0ccf94	0.1375106
240	0x3cae0546	0.021242749
241	0x3e5faf87	0.21844302
242	0xbce49fdf	-0.027908264
243	0xbc42c0df	-0.011886804
244	0x3e151682	0.14559367
245	0x3db4f58a	0.08835895
246	0x3e698313	0.22803907
247	0xbd2da0c4	-0.042389646
248	0x3be61529	0.0070215655
249	0xbe399f0d	-0.1812708
250	0xbdc52dcf	-0.09627878
251	0x3e065cb8	0.13121307
252	0xbb9229a4	-0.0044605304
253	0x3d7a45b5	0.061101634
254	0x3ce3016f	0.027710645
255	0xbe0971b5	-0.13422282

layers.0.bias f4 [128]
0	0xbddf7d4e	-0.10912572
1	0xbe0280bf	-0.12744425
2	0x3e35eb3f	0.1776552
3	0xbd87ca5a	-0.066303924
4	0xbe2c0510	-0.16798806
5	0x3e144e6c	0.1448304
6	0xbe4773bb	-0.19477741
7	0x3cab3114	0.020897426
8	0xbca34ea2	-0.019934956
9	0x3e63a124	0.22229439
10	0xbcc668f7	-0.024219973
11	0x3dfbdcd2	0.122979775
12	0xbe0a5b08	-0.13511288
13	0xbd58bf5c	-0.05291687
14	0xbe19b14d	-0.15009041
15	0xbded3561	-0.11582447
16	0xbe173893	-0.14767675
17	0x3cc25267	0.023720933
18	0x3e0cd935	0.13754733
19	0x3e2f54d2	0.171222
20	0x3d16f854	0.036857918
21	0x3df4734a	0.11936052
22	0x3c097ce1	0.00839159
23	0xbdc105f5	-0.09424964
24	0xbd4dd47b	-0.050251465
25	0x3e4f12ce	0.20222017
26	0xbd5ebe1a	-0.054380514
27	0x3d12db91	0.035853926
28	0x3d5933b3	0.05302782
29	0x3d769092	0.060196467
30	0x3d369d4d	0.044583607
31	0x3ddfb86a	0.10923846
32	0x3e633e11	0.22191645
33	0xbd319973	-0.04335923
34	0xbde8bcda	-0.113641456
35	0x3d80db44	0.062918216
36	0x3d7f95c4	0.062398687
37	0xbd5fd262	-0.054643996
38	0x3e2a1072	0.16607836
39	0xba9367ff	-0.0011246203
40	0x3a7d1fa3	0.00096558983
41	0x3e3c7fc8	0.1840812
42	0x3e21c94a	0.15799442
43	0xbe1f48b7	-0.15555082
44	0x3dee13f6	0.11624901
45	0x3a413c47	0.0007371348
46	0x3db6a7ac	0.089186996
47	0xbd290500	-0.041264534
48	0x3d895b00	0.0670681
49	0x3def10db	0.11673137
50	0x3d85b027	0.06527739
51	0xbe54db8f	-0.2078688
52	0xbbd9edf6	-0.0066506816
53	0xbe250425	-0.16114862
54	0xbdf618a4	-0.120164186
55	0xbc7d498a	-0.015459428
56	0x3e10aad6	0.14127669
57	0x3e3a68fd	0.18204112
58	0xbd3bad93	-0.04581983
59	0xbbe3ee1a	-0.006955874
60	0x3e21cf9f	0.15801857
61	0x3d2569ac	0.04038398
62	0xbc30ad00	-0.010783434
63	0xbd05d496	-0.03267344
64	0x3c53287d	0.012888071
65	0xbd8ca035	-0.068664946
66	0x3e16b595	0.14717706
67	0x3e5f9061	0.2183242
68	0x3e03df3f	0.1287813
69	0x3e39f079	0.1815814
70	0x3c38570e	0.011251224
71	0x3e1fa7da	0.15591374
72	0x3da430a7	0.08017092
73	0x3d52a320	0.0514251
74	0x3df79041	0.12088061
75	0xbc79c533	-0.01524477
76	0xbd0c2ce3	-0.034222495
77	0x3e128128	0.14307082
78	0xbe08b3a4	-0.13349777
79	0xbce88a33	-0.028386211
80	0x3c3c751a	0.011502529
81	0xbe23c6b4	-0.15993768
82	0xbc6b0544	-0.014344517
83	0xbdd9c730	-0.10633695
84	0xbd2d621a	-0.042329885
85	0x3e66f11f	0.22552918
86	0x3e5a5581	0.2132168
87	0xbd7eb0b3	-0.062180232
88	0x3e05c366	0.1306282
89	0x3bf37cd9	0.0074306545
90	0x3e2bf8b9	0.16794099
91	0xbd967320	-0.07346177
92	0x3e23a760	0.15981817
93	0xbc9efec0	-0.019408584
94	0xbdf35caa	-0.11882909
95	0x3d240ed1	0.040053193
96	0x3b5a54d3	0.003331472
97	0x3c477047	0.012172765
98	0x3dff65e5	0.12470607
99	0xbe45986a	-0.19296423
100	0x3d846a62	0.064656034
101	0x3dcdd87c	0.10051057
102	0x3d945df7	0.07244485
103	0x3cf24320	0.029573023
104	0xbdd14490	-0.102181554
105	0xbda64325	-0.081182756
106	0x3df32444	0.118721515
107	0x3d9dbf83	0.077025436
108	0x3e29cc90	0.1658194
109	0x3dc0232d	0.09381709
110	0x3c18e3c4	0.009331647
111	0xbe0369dc	-0.12833351
112	0xbcae186a	-0.021251876
113	0x3e07febb	0.13280766
114	0xbe41912d	-0.18903036
115	0x3e31988b	0.17343347
116	0x3d99125a	0.074742034
117	0x3deb9988	0.11503893
118	0xbe04c13a	-0.12964335
119	0x3e393244	0.18085581
120	0xbe1a3e32	-0.15062788
121	0x3df2a7ce	0.118484125
122	0x3d3839f9	0.044977162
123	0x3e085eb8	0.13317382
124	0x3d2579f3	0.040399503
125	0xbe294a88	-0.16532338
126	0x3d49e982	0.049294956
127	0xbdff2040	-0.12457323

layers.1.weight f4 [128, 128]
0	0x3d4bde12	0.04977233
1	0xbb825ebb	-0.003978578
2	0xbba7d4c0	-0.0051217973
3	0xbc891dff	-0.016737936
4	0xbc34bbb5	-0.011031081
5	0xbc58f641	-0.013242305
6	0x3d852552	0.06501259
7	0xbd3f2329	-0.04666439
8	0x3ce719e2	0.028210584
9	0xbdb826d4	-0.08991781
10	0xbc71ca5c	-0.014757719
11	0x3b27bcf9	0.0025594814
12	0xbd38e601	-0.045141224
13	0x3a2d326c	0.000660694
14	0x3d5aaca3	0.053387295
15	0xbd8dbd24	-0.06920841
16	0x3cf3dde6	0.029768895
17	0x3d5f7ff3	0.05456538
18	0x3d2f2752	0.04276211
19	0xbdb4552a	-0.08805306
20	0x3cb10f2b	0.021613678
21	0x3d6c0de8	0.05763045
22	0xbcbd59c5	-0.023114095
23	0x3cfece94	0.031104364
24	0xbd41dbb7	-0.047328677
25	0xbda0eae4	-0.07857302
26	0xbce477a1	-0.027889075
27	0xbd742c03	-0.059612285
28	0xbc8df25f	-0.017327486
29	0xbd2f937a	-0.042865254
30	0x3d28fb09	0.04125503
31	0x3d8efd10	0.069818616
32	0xbd96ccd6	-0.07363288
33	0xbda5a8b9	-0.08088822
34	0xbd345952	-0.044030495
35	0xbdba15b8	-0.09086174
36	0x3d1f581c	0.038902387
37	0x3d1746a7	0.036932614
38	0x3d2da285	0.04239132
39	0x387f5a9b	6.088112e-05
40	0x3da526fa	0.08064075
41	0x3cb8672e	0.022510137
42	0x3cd6ae65	0.026206205
43	0x3d5dfa40	0.054193735
44	0xbd8154f4	-0.06315032
45	0xbd9c3cac	-0.0762876
46	0x3d640d3b	0.05567668
47	0x3d875d0f	0.066095464
48	0x3c6d6a38	0.014490657
49	0x3d66a7ca	0.05631236
50	0x3d92685b	0.071488105
51	0x3c6945a4	0.014237795
52	0xbcf8b40c	-0.03035929
53	0x3c7ca8c8	0.0154211
54	0xbcd92bc7	-0.026510132
55	0xbd891be6	-0.06694774
56	0x3d5ca85d	0.0538715
57	0xbd2740f3	-0.040833425
58	0x3c5e6703	0.013574365
59	0x3d3de09f	0.046356793
60	0xbd0af2e7	-0.033923056
61	0xbda88575	-0.0822858
62	0x3b54de6c	0.0032481207
63	0x3d850fef	0.0649718
64	0x3c92f3e3	0.01793856
65	0x3d2b75e1	0.041860465
66	0x3d1c6567	0.038182642
67	0x3da9e43d	0.08295486
68	0x3da23bf6	0.07921593
69	0x3d3f6f38	0.046736926
70	0x3c2a0885	0.010378008
71	0xba8253b9	-0.0009943164
72	0xbbfe4829	-0.007760067
73	0x3c1bcc0f	0.009509101
74	0x3d4a2d4d	0.04935961
75	0xbc510971	-0.012758599
76	0xbd4ba935	-0.049721915
77	0xbd3c353c	-0.045949206
78	0xbc9b1d34	-0.018934824
79	0x3aa7a79d	0.0012791042
80	0xbc650ac0	-0.013979614
81	0xbd7ea60d	-0.062170077
82	0x3ba2b93e	0.0049659302
83	0x3ccf5b75	0.025312165
84	0xbcaaf065	-0.020866582
85	0xbd767899	-0.060173605
86	0xbd7c43c7	-0.061588075
87	0xbc996cd2	-0.018728647
88	0xbd845b0b	-0.064626776
89	0x3d52ec6a	0.051494993
90	0x3d8472ea	0.064672306
91	0x3d5af0ad	0.053452183
92	0xbd89dfa3	-0.067321084
93	0x3d6460fe	0.05575656
94	0xbd6fb601	-0.05852318
95	0xbdba7a77	-0.091053896
96	0x3d8d21f5	0.068912424
97	0x3cd0c831	0.025486084
98	0xbc971aee	-0.018445458
99	0x3cfef5de	0.031123098
100	0x3d98a40d	0.07453165
101	0xbcff12d9	-0.031136917
102	0xbd6933c4	-0.056934133
103	0x3d612f8b	0.05497698
104	0x3d3e7210	0.046495497
105	0x3cb58be0	0.022161424
106	0x3d0e293a	0.034707285
107	0x3db094e3	0.08622148
108	0xbd5ed566	-0.05440273
109	0x3d66e7c0	0.056373358
110	0xbcd08b45	-0.025457034
111	0xbcaf14b3	-0.021372175
112	0xbcc63935	-0.0241972
113	0x3d697f4f	0.057006177
114	0x3d7b3f1e	0.06133949
115	0xbbd574b9	-0.0065141586
116	0x3d996cd2	0.07491459
117	0xbc4c23b3	-0.012459683
118	0xbcf81e95	-0.03028802
119	0x3d7563db	0.059909683
120	0xbda2aa8e	-0.07942687
121	0x3c6e7bb5	0.014555861
122	0xba6be2eb	-0.0008998352
123	0x3d72f867	0.059318926
124	0xbd3ca869	-0.046059046
125	0xbd149828	-0.03627792
126	0xbd055874	-0.03255506
127	0x3d987e06	0.07445912
128	0xbd206084	-0.039154544
129	0xbc21559f	-0.009847074
130	0xbc816ced	-0.01579901
131	0xbd980ad4	-0.0742394
132	0xbd2fddad	-0.042936016
133	0xbd6de6c3	-0.0580814
134	0xbd53e785	-0.051734466
135	0x3b6f6e49	0.003653424
136	0xbc773c63	-0.015090081
137	0x3d1fcc4e	0.0390132
138	0xbb19f20d	-0.002349022
139	0x3d39284b	0.045204442
140	0xbdc48e55	-0.0959746
141	0xbd049b7e	-0.03237485
142	0x3db17fe0	0.08666968
143	0x3d398cdc	0.04530035
144	0xbce40434	-0.027834035
145	0x3d96e73b	0.073683225
146	0xbd58eb40	-0.052958727
147	0xbd666d34	-0.056256488
148	0xbd717b59	-0.058955524
149	0x3d389285	0.045061607
150	0xbd5ba8cc	-0.053627774
151	0x3b85d6f1	0.004084461
152	0xbd084acb	-0.033274453
153	0xbd07fb44	-0.03319861
154	0xbd3bef04	-0.04588224
155	0x3cc7a5bb	0.024371019
156	0xbc6cc0f4	-0.0144503005
157	0x3d398a3d	0.04529785
158	0x3c81bc5c	0.015836887
159	0xbda0ef69	-0.07858164
160	0x3d4ff706	0.05077269
161	0x3d807f0a	0.06274231
162	0x3d9703f0	0.07373798
163	0xbd7e7459	-0.062122677
164	0xbda4ed39	-0.08053059
165	0x3d8099ca	0.06279333
166	0xbbadcc0b	-0.005303865
167	0x3d81c51e	0.06336425
168	0xbd2b2cb4	-0.04179068
169	0x3d47d1af	0.048783954
170	0x3c0c2e2e	0.008555932
171	0x3bc719ef	0.0060760896
172	0xbc47b784	-0.01218975
173	0x3b4f2387	0.003160687
174	0xbd9fb4c2	-0.07798149
175	0x3d85579b	0.0651085
176	0x3ce731c6	0.028221976
177	0xbdc6ed0f	-0.09713184
178	0xbd80fd8b	-0.062983595
179	0xbdc75e58	-0.097347915
180	0xbd140ed6	-0.03614696
181	0xbd9f8e02	-0.07790758
182	0xbd24321b	-0.040086847
183	0x3c6de305	0.014519458
184	0xbd553345	-0.052050848
185	0xbb8e630d	-0.004345304
186	0x3d7a6c95	0.06113871
187	0xbd281d1f	-0.041043397
188	0xbaabee27	-0.001311724
189	0x3d1d6e68	0.03843537
190	0x3d0dcc82	0.034618862
191	0xbdd9e05f	-0.106384985
192	0x3c3aa20f	0.011391177
193	0x3bfabf3c	0.0076521914
194	0x3d20b35b	0.039233547
195	0x3cd02ca9	0.02541192
196	0xbdc74a42	-0.097309604
197	0x3badf8e9	0.0053092134
198	0x3d83943d	0.064247586
199	0xbd5e40e6	-0.05426111
200	0x3c7a7fc5	0.015289252
201	0x3cb64e34	0.022254087
202	0xbdaa188d	-0.08305464
203	0x3d1b0fe4	0.03785695
204	0xbdc99646	-0.098431155
205	0x3d1b5509	0.037922893
206	0xbd5c0fb1	-0.053725902
207	0xbcdb05db	-0.02673619
208	0x3d283aa8	0.041071564
209	0xbc3e0628	-0.011598147
210	0xbd56baf8	-0.0524244
211	0x3ca0b028	0.019615248
212	0x3cfef44f	0.031122355
213	0xbca91784	-0.020641096
214	0x3d4bea17	0.049783792
215	0x3d8ba359	0.068182655
216	0xbdae2a5a	-0.08504172
217	0x3d116e68	0.035505682
218	0xbda848f0	-0.08217037
219	0xbae10d4b	-0.0017170099
220	0xba7a55dd	-0.0009549538
221	0xbd22d3bc	-0.039752707
222	0x3bcff0bb	0.006345836
223	0xbc8c2603	-0.01710797
224	0x3bfd66a7	0.0077331844
225	0x3da505b1	0.08057726
226	0xbcbef5d8	-0.023310587
227	0x3da20463	0.07910993
228	0xbdb4b9f1	-0.08824528
229	0x3d7f7920	0.062371373
230	0xbda96cf2	-0.08272733
231	0x3c4f4067	0.012649632
232	0xbd92955c	-0.07157394
233	0x3cb34504	0.021883495
234	0xbc5267c0	-0.012842119
235	0x3d968044	0.073486835
236	0x3d913ffe	0.07092284
237	0x3d3815e5	0.044942755
238	0xbcd40e4a	-0.02588572
239	0xbd2406fc	-0.040045723
240	0xbda42bbe	-0.08016156
241	0x3d58fcc7	0.052975442
242	0x3d01d9e0	0.031701922
243	0x3d7fc31f	0.06244194
244	0x3d5909fa	0.05298803
245	0xbdd1912e	-0.10232769
246	0xbd6a391e	-0.057183377
247	0x3d394eba	0.045241095
248	0x3cd5907b	0.02606987
249	0x3d05855a	0.032597877
250	0xbd00e1f4	-0.031465486
251	0x3d7cdf43	0.061736356
252	0xbd090d09	-0.033459697
253	0x3c085840	0.008321822
254	0xbbb82813	-0.0056200116
255	0xbd1a012b	-0.03759877

layers.1.bias f4 [128]
0	0x3d5dba2f	0.054132637
1	0x3d906aa7	0.07051592
2	0x3cc1ea25	0.02367122
3	0xbdc91e4f	-0.09820234
4	0xbd25042c	-0.04028718
5	0x3d6a6714	0.05722721
6	0xbc49a2dd	-0.012306896
7	0x3d8f390c	0.06993303
8	0x3bff10ff	0.0077840085
9	0xbcf8f346	-0.03038944
10	0xb9d91385	-0.00041404009
11	0x3d42961e	0.047506444
12	0x3c96edb4	0.018423893
13	0xbd7bd871	-0.06148571
14	0xbc8d66b7	-0.017260892
15	0xbd4a7ae1	-0.049433593
16	0x3dd6e461	0.104927786
17	0xbd6aa21d	-0.05728351
18	0x3d833fa3	0.06408622
19	0x3de7b11e	0.11313079
20	0xbd22f4dc	-0.039784297
21	0x3dbdf365	0.092749394
22	0x3d2db202	0.04240609
23	0xbdb0257d	-0.086009
24	0x3cd7fdd4	0.026366152
25	0xbd9bd7fb	-0.076095544
26	0x3c2abca1	0.010420949
27	0x3cc7fcb2	0.024412487
28	0x3d80d7c8	0.06291157
29	0xbda2b950	-0.07945502
30	0x3db0ea91	0.0863849
31	0x3d3afe61	0.04565275
32	0x3d3cc202	0.046083458
33	0xbd2e6719	-0.04257879
34	0xbc5e3a52	-0.013563709
35	0x3d2178a5	0.039421696
36	0x3c5d38fa	0.013502354
37	0x3b81407c	0.0039444547
38	0x3d9e2f3e	0.077238545
39	0xbd389d67	-0.045071986
40	0x3d4534f6	0.04814621
41	0x3d22b103	0.039719593
42	0x3d40f53f	0.047108885
43	0x3d57ba39	0.05266783
44	0x3da3cab7	0.07997649
45	0xbd19a59f	-0.037511464
46	0x3b783977	0.0037876049
47	0x3d81a1ab	0.06329664
48	0x3d52e284	0.051485553
49	0xbbd4b9a3	-0.006491856
50	0x3d822ba7	0.06355982
51	0xba9da278	-0.0012026569
52	0x3dda778c	0.10667333
53	0x3d25de45	0.040495176
54	0xbda55024	-0.08071926
55	0xbcbb91b6	-0.022896629
56	0xbd3ebc2f	-0.046566185
57	0xbd0a20c1	-0.033722643
58	0x3d6d9719	0.058005426
59	0xbd9832b3	-0.07431545
60	0x3c50b820	0.012739211
61	0xbd077856	-0.033073746
62	0x3da2bba3	0.07945945
63	0x3d5f8431	0.054569427
64	0xbbd214f3	-0.0064111887
65	0xbd670754	-0.056403473
66	0xbd052f27	-0.03251567
67	0xbd4b5b6c	-0.049647734
68	0xbd9b2826	-0.07576017
69	0xbd0803a1	-0.033206586
70	0xbcc5319d	-0.024071509
71	0x3d576471	0.052586023
72	0x3ddd608c	0.108094305
73	0x3d9e2efd	0.07723806
74	0xbd5cac56	-0.05387529
75	0xbd60fc1d	-0.054927934
76	0xbc76aacf	-0.015055372
77	0x3bc7d207	0.0060980353
78	0xbd8ecffc	-0.069732636
79	0xbd7e2f64	-0.062056914
80	0x3c10ea35	0.008844902
81	0xbd4c82bd	-0.04992937
82	0xbd1c6fa8	-0.03819242
83	0xbcfda723	-0.030963486
84	0x3d039623	0.032125603
85	0xbd01fbbc	-0.031734213
86	0x3d86a49f	0.06574368
87	0x3aae9e4f	0.0013322326
88	0x3d5a5174	0.053300336
89	0xbd8304f7	-0.06397431
90	0x3c5c5dc0	0.013450086
91	0x3d897e07	0.06713491
92	0x3c4a4ad4	0.012346942
93	0xbd59aeb5	-0.05314513
94	0xbcba5bd8	-0.022748873
95	0x3d8ad3a2	0.06778647
96	0x3c00216a	0.0078204665
97	0xbaa40ec0	-0.0012516603
98	0xbd90932e	-0.07059322
99	0xbd91942f	-0.07108342
100	0xbdb0b01f	-0.086273424
101	0x3ad0a001	0.0015916826
102	0xbcde13fb	-0.027109137
103	0x3c5f3f38	0.013625912
104	0x3d9aea69	0.075642414
105	0xbd5a3654	-0.053274468
106	0x3c931ffa	0.017959584
107	0x3d8d619e	0.069033846
108	0xbc625410	-0.013813987
109	0x3dd32458	0.103096664
110	0x3cc4b293	0.024010932
111	0x3dee7c19	0.116447635
112	0x3d3516a9	0.044211064
113	0xbda4fcc2	-0.08056022
114	0xbd610761	-0.054938678
115	0x3d9f33a7	0.07773524
116	0x3c58d0d5	0.013233383
117	0xbd897864	-0.06712416
118	0xbd3e6c2c	-0.04648988
119	0xbd9348f0	-0.07191646
120	0xbdab7426	-0.08371763
121	0xbda64ae5	-0.08119754
122	0x3d226ebd	0.03965639
123	0xbdb4424c	-0.088017076
124	0x3d830b35	0.06398622
125	0xbdaa0e9c	-0.08303568
126	0xbd7577b6	-0.05992862
127	0xbdaa852c	-0.08326182

predict.weight f4 [5, 128]
0	0xbcac13ef	-0.021005599
1	0xbbdeb9fc	-0.0067970734
2	0x3da4eabf	0.08052587
3	0xbd135839	-0.035972808
4	0xbd8f5336	-0.06998293
5	0x3d5c8d73	0.053845834
6	0xbc88b490	-0.016687661
7	0x3d5a0be8	0.05323401
8	0x3dc67772	0.09690751
9	0xbcfcd888	-0.030864969
10	0xbce73f06	-0.028228294
11	0x3d5bcac4	0.05366017
12	0x3d3b457a	0.045720555
13	0xbca36d5e	-0.019949611
14	0xbd3aa9cc	-0.045572087
15	0x3db7d858	0.08976811
16	0xbc5d9e7a	-0.013526553
17	0xbcbf6cc6	-0.023367297
18	0xbd0ae3d4	-0.03390868
19	0x3d587dc7	0.052854326
20	0xbd8f3067	-0.06991654
21	0x3cf0a9d4	0.029377855
22	0x3dc04340	0.09387827
23	0x3bfd5f50	0.0077323094
24	0x3db02ded	0.0860251
25	0x3d97e1f4	0.07416144
26	0xbd918770	-0.07105911
27	0xbdae16b2	-0.085004225
28	0xbb90f192	-0.0044233287
29	0xbc483538	-0.01221972
30	0x3d903604	0.07041553
31	0xbd48c753	-0.049018215
32	0xbd2b860e	-0.04187589
33	0x3ddaaf4e	0.10677968
34	0x3d1593f4	0.036518052
35	0xbca1226d	-0.019669736
36	0xbd8f6fe6	-0.07003765
37	0xbcc0a020	-0.023513854
38	0xbb82b8b8	-0.0039893053
39	0x3d4c7b91	0.04992253
40	0xbda171c7	-0.078830294
41	0xbd5d4407	-0.054019954
42	0xbce78685	-0.028262386
43	0xbbf6ac74	-0.0075278822
44	0x3d389b6a	0.04507009
45	0xbd879ac4	-0.06621316
46	0x3d743ea9	0.05963007
47	0x3de544ea	0.11194785
48	0x3d2a476a	0.041572012
49	0x3d20c82d	0.039253403
50	0x3e0602d8	0.13087022
51	0x3dc619fd	0.096729256
52	0xbc6c99b3	-0.014440942
53	0xbd64940e	-0.05580526
54	0x3df8599e	0.12126468
55	0x3dc73ee8	0.09728795
56	0x3dd6b36b	0.1048344
57	0xbcb8c6e0	-0.022555768
58	0x3cda9dbc	0.026686542
59	0x3da64ff0	0.081207156
60	0x3cc08229	0.023499565
61	0xbcc19e10	-0.02363494
62	0x3d7ea6f8	0.062170953
63	0x3decae80	0.11556721
64	0x3c1e105b	0.009647454
65	0xbd30c319	-0.04315481
66	0x3d27194c	0.04079561
67	0x3deecedf	0.11660551
68	0xbd12faff	-0.0358839
69	0x3d37fe9a	0.04492054
70	0x3d723f7f	0.059142586
71	0x3da0145d	0.07816384
72	0x3d08eb80	0.033427715
73	0xbcec610c	-0.02885487
74	0x3d7e8fae	0.062148742
75	0xbda14f52	-0.07876457
76	0x3d8d6299	0.06903572
77	0x3ba9a51d	0.0051771537
78	0xbbfa6872	-0.0076418454
79	0xbd173ce7	-0.036923315
80	0x3dba06ec	0.090833515
81	0xbd2fd1a9	-0.042924557
82	0x3d420199	0.047364805
83	0x3c441318	0.011967443
84	0xbd945ea2	-0.07244612
85	0xbd5c15ff	-0.053731915
86	0xbd082007	-0.03323367
87	0x3dc14cb4	0.09438458
88	0x3cfb1681	0.03065038
89	0xbc9c153c	-0.019053094
90	0x3c2715a9	0.010198035
91	0xbd8df929	-0.06932289
92	0x3d46f9b8	0.048577994
93	0xbd95ba53	-0.07310929
94	0xbd588ba7	-0.052867558
95	0xbd3cf365	-0.046130557
96	0x3da09d4e	0.078425035
97	0x3bb67b75	0.0055689164
98	0x3d6f24e8	0.058384806
99	0xbbbb5834	-0.0057173017
100	0xbcd922a8	-0.026505783
101	0xbda2b70a	-0.07945068
102	0x3ceb365d	0.028712446
103	0x3dedddb4	0.11614552
104	0x3c979eb9	0.018508302
105	0x3defa0dd	0.11700604
106	0xbd251376	-0.040301763
107	0x3d7a06be	0.061041586
108	0x3d3b3528	0.04570499
109	0x3d1a1c1a	0.037624456
110	0xbc854422	-0.01626784
111	0x3da7dea8	0.08196765
112	0x3dcd4b26	0.10024099
113	0x3c89149b	0.016733458
114	0xbc9aaecc	-0.018882178
115	0x3c878854	0.016544499
116	0xbc2b2680	-0.010446191
117	0xbd9d1016	-0.07669084
118	0xbcbe603b	-0.023239246
119	0x3d0f55f8	0.034994096
120	0x3dadf081	0.08493138
121	0xbcff401b	-0.031158498
122	0xbd57d9dd	-0.052698005
123	0xbbedb282	-0.007253946
124	0xb99b8d6d	-0.00029669274
125	0xbc132681	-0.008981348
126	0xbd00b9b6	-0.031427108
127	0xbd981355	-0.07425562
128	0xbdafe6f6	-0.08588974
129	0x3ca57b74	0.020200469
130	0x3bccbbaf	0.0062479596
131	0x3d0979f9	0.033563588
132	0xbc2c6e33	-0.01052432
133	0x3c7196ae	0.0147453975
134	0x3d110d2b	0.03541295
135	0x3d929ae1	0.07158447
136	0x3ca9f3a7	0.020746065
137	0x3d77eae1	0.060526732
138	0xbb65839f	-0.003502108
139	0xbd6c0eba	-0.05763123
140	0xbd59dd24	-0.05318941
141	0x3da6ffe8	0.08154279
142	0xbc9a0751	-0.018802317
143	0x3da7b9f4	0.081897646
144	0x3dc61e0a	0.09673698
145	0xbd834c53	-0.06411042
146	0xbc03fb15	-0.008055468
147	0xbd2a107a	-0.04151962
148	0x3d950fc6	0.07278399
149	0x3d22e14c	0.03976564
150	0x3c9ce3cc	0.01915159
151	0xbd86f0af	-0.065888755
152	0x3c5da732	0.013528632
153	0x3b1fe513	0.0024398013
154	0xbd5fe601	-0.05466271
155	0xbb0de08a	-0.0021648728
156	0x3d44cbd9	0.048045967
157	0xbc69c35f	-0.0142677715
158	0xbcd0cdf4	-0.025488831
159	0x3d953df7	0.072872095
160	0xbd9bd563	-0.0760906
161	0x3dd16057	0.102234535
162	0x3d07d9be	0.03316664
163	0x3d41d21f	0.047319528
164	0xbd0ff6a9	-0.035147343
165	0x3de14d53	0.110010765
166	0x3a07f250	0.00051859487
167	0xbd3c0495	-0.045902807
168	0xbd570a13	-0.052499842
169	0xbd867046	-0.06564383
170	0x3c6869f1	0.014185415
171	0xbd2b2fa4	-0.04179348
172	0xbc92921d	-0.017891938
173	0xbd65e25f	-0.056124087
174	0x3dd7f4a8	0.10544711
175	0x3db90b73	0.09035387
176	0x3dac0c93	0.08400836
177	0x3d2ef7ab	0.042716663
178	0x3dc194e4	0.09452227
179	0x3d35adb1	0.0443551
180	0x3d9c3062	0.07626416
181	0x3d08784b	0.033317845
182	0xbcb697e0	-0.022289217
183	0x3d43134a	0.047625817
184	0x3d4874ab	0.04893939
185	0xbd843784	-0.06455901
186	0xbd0604f4	-0.032719567
187	0xbc9704d8	-0.018434927
188	0xbd69d34e	-0.05708628
189	0x3ccbb638	0.024867162
190	0xbae9cc24	-0.0017837328
191	0xbd7515f2	-0.05983538
192	0x3c5751ef	0.013142093
193	0x3da90b60	0.08254123
194	0x3d651a96	0.055933557
195	0xbccd04e3	-0.025026744
196	0xbd98d5ee	-0.07462679
197	0xbd5a8b8c	-0.05335574
198	0x3c2d6419	0.010582947
199	0x3de544c3	0.11194756
200	0x3dd0e4b4	0.10199872
201	0xbcf82652	-0.03029171
202	0xbcb3003a	-0.021850694
203	0xbd0b701c	-0.034042463
204	0xbc8cd6ed	-0.017192328
205	0x3c11238b	0.008858572
206	0xbca68b3d	-0.020330066
207	0x3d80ab7e	0.062827095
208	0x3ab62d32	0.0013898967
209	0xbba79285	-0.005113902
210	0x38cf892d	9.89608e-05
211	0x3dbad793	0.09123149
212	0xbcdfa669	-0.02730103
213	0x3d76dc20	0.06026852
214	0xbba1900a	-0.004930501
215	0xbd8f93c7	-0.07010608
216	0x3c429ea8	0.011878647
217	0xbd975b3e	-0.0739045
218	0x3d97e178	0.074160516
219	0x3c6a75ec	0.014310341
220	0x3d12e882	0.035866268
221	0x3d9e32d5	0.07724539
222	0x3dad745c	0.084694594
223	0x3ceebbc1	0.029142262
224	0x3ba39ff9	0.0049934355
225	0x3dd0e0ff	0.101991646
226	0x3ad610c6	0.0016331903
227	0x3d86776a	0.06565745
228	0x3d8db134	0.069185644
229	0x3dc68955	0.09694163
230	0xbc295737	-0.010335735
231	0x3d76ce14	0.060255125
232	0x3dad8c17	0.08473986
233	0x3d80fa67	0.062977605
234	0xbcb673dc	-0.022272043
235	0xbadb88d9	-0.0016749158
236	0xbd8f9799	-0.07011337
237	0x3d9e72ce	0.07736741
238	0xbd33babb	-0.043879252
239	0x3d7a59b3	0.0611207
240	0x3ca8a3fe	0.02058601
241	0xbdb42737	-0.08796542
242	0x3d3c2c83	0.045940887
243	0x3ab65471	0.0013910664
244	0x3d2ac776	0.041694127
245	0x3cd41bec	0.02589222
246	0xbb379fed	-0.0028018907
247	0xbca5677a	-0.020190943
248	0x3da7e923	0.08198764
249	0x3c8f07e1	0.017459812
250	0x3df0d679	0.117596574
251	0xbd949efd	-0.07256887
252	0x3db3978c	0.0876914
253	0x3d92cfcf	0.071685426
254	0x3dc125fe	0.094310746
255	0xbdb43622	-0.087993875

predict.bias f4 [5]
0	0xbc62c539	-0.013840967
1	0x3ce7ba6b	0.028287133
2	0xbc0a4bcd	-0.008440924
3	0xbd4d57ef	-0.050132688
4	0xbcf44e38	-0.029822454

exp_avg f4 [128, 25]
0	0x236b28d3	1.274802e-17
1	0x236b28d3	1.274802e-17
2	0x00000000	0.0
3	0x2272e6c4	3.2919282e-18
4	0x00000000	0.0
5	0x236b28d3	1.274802e-17
6	0x20cdbf5e	3.4854987e-19
7	0x231cc5e5	8.498683e-18
8	0xa12fd7ac	-5.9577746e-19
9	0x00000000	0.0
10	0x236b28d3	1.274802e-17
11	0x222c76e1	2.337328e-18
12	0x229cc5e5	4.2493414e-18
13	0x1e34cecf	9.571888e-21
14	0x00000000	0.0
15	0x236b28d3	1.274802e-17
16	0x2257ca2d	2.9244964e-18
17	0x231cc5e5	8.498683e-18
18	0xa15ed7df	-7.550223e-19
19	0x00000000	0.0
20	0x236b28d3	1.274802e-17
21	0x22bc0ba5	5.096983e-18
22	0x231cc5e5	8.498683e-18
23	0xa0a13e4a	-2.731568e-19
24	0x00000000	0.0
25	0x00000000	0.0
26	0x00000000	0.0
27	0x00000000	0.0
28	0x00000000	0.0
29	0x00000000	0.0
30	0x00000000	0.0
31	0x00000000	0.0
32	0x00000000	0.0
33	0x00000000	0.0
34	0x00000000	0.0
35	0x00000000	0.0
36	0x00000000	0.0
37	0x00000000	0.0
38	0x00000000	0.0
39	0x00000000	0.0
40	0x00000000	0.0
41	0x00000000	0.0
42	0x00000000	0.0
43	0x00000000	0.0
44	0x00000000	0.0
45	0x00000000	0.0
46	0x00000000	0.0
47	0x00000000	0.0
48	0x00000000	0.0
49	0x00000000	0.0
50	0xbb069d7d	-0.0020540648
51	0xba7f63e5	-0.00097423635
52	0xb99ea2ba	-0.0003025735
53	0xba08a305	-0.000521228
54	0xb80e3f42	-3.391435e-05
55	0xbb069d7d	-0.0020540648
56	0xba35eb4b	-0.00069396634
57	0x3a2dc942	0.0006629416
58	0xb875983a	-5.8554324e-05
59	0x383bb88a	4.475614e-05
60	0xbb069d7d	-0.0020540648
61	0xba856d4a	-0.0010179665
62	0xbaae8e56	-0.0013317566
63	0xb914298a	-0.00014129854
64	0x3798f8ec	1.8235725e-05
65	0xbb069d7d	-0.0020540648
66	0xba5bd6e2	-0.0008386207
67	0xbae39c89	-0.0017365377
68	0xb7b19968	-2.117148e-05
69	0x387cf128	6.0306076e-05
70	0xbb069d7d	-0.0020540648
71	0xbaae7c0a	-0.0013312113
72	0x3a54346d	0.000809497
73	0xb8e147b6	-0.00010742193
74	0x3760cc88	1.3399062e-05
75	0xbb11c7fe	-0.0022244449
76	0xbaf62e3e	-0.0018782092
77	0xbaca96d9	-0.0015456333
78	0xba1a3ed2	-0.0005883995
79	0xb841d747	-4.621528e-05
80	0xbb11c7fe	-0.0022244449
81	0xb977760d	-0.00023599733
82	0x3b2468b5	0.0025086824
83	0xb828b3e3	-4.0221854e-05
84	0x385b5bc1	5.229912e-05
85	0xbb11c7fe	-0.0022244449
86	0xb9ee3004	-0.00045430672
87	0xba63f29a	-0.0008695513
88	0x380e1aea	3.3880504e-05
89	0x382456f2	3.918162e-05
90	0xbb11c7fe	-0.0022244449
91	0xba2a7ef9	-0.0006503906
92	0x39e05d81	0.00042794275
93	0xb8495f97	-4.801116e-05
94	0x38730863	5.7943525e-05
95	0xbb11c7fe	-0.0022244449
96	0xba43666a	-0.00074539206
97	0x3ac8ce5f	0.0015320292
98	0x39130f62	0.00014024743
99	0x3810d31a	3.452888e-05
100	0xba64fe41	-0.00087353966
101	0x397d9090	0.00024181814
102	0xb9a23076	-0.00030935154
103	0xb8d82f82	-0.00010308532
104	0xb80f75d3	-3.420359e-05
105	0xba64fe41	-0.00087353966
106	0xba0de65b	-0.0005413049
107	0x3a54a3b4	0.0008111552
108	0xb939b696	-0.00017710993
109	0x385653f0	5.109975e-05
110	0xba64fe41	-0.00087353966
111	0xba83ca41	-0.0010054783
112	0xb926589c	-0.00015864003
113	0xb99a855c	-0.0002947253
114	0x3764c82c	1.3636465e-05
115	0xba64fe41	-0.00087353966
116	0xba15ad7e	-0.0005709751
117	0xbad583a4	-0.0016289842
118	0xb9175604	-0.00014432525
119	0x3882613f	6.2169966e-05
120	0xba64fe41	-0.00087353966
121	0xba64dd02	-0.00087304425
122	0x3a45ac76	0.00075406523
123	0xb9924793	-0.00027900617
124	0x37a2d65c	1.9411724e-05
125	0xb9dfb9ea	-0.0004267239
126	0x3a19c23d	0.00058654306
127	0x381691cd	3.5898574e-05
128	0x38621d20	5.3909724e-05
129	0xb8191732	-3.6499645e-05
130	0xb9dfb9ea	-0.0004267239
131	0xba129b6a	-0.00055926165
132	0x3a6f14cc	0.00091202254
133	0xb97ceeb7	-0.00024121521
134	0x383aca59	4.4534307e-05
135	0xb9dfb9ea	-0.0004267239
136	0xba55561a	-0.00081381353
137	0xba90f32e	-0.0011058801
138	0xb994425c	-0.000282782
139	0x3798b631	1.8204651e-05
140	0xb9dfb9ea	-0.0004267239
141	0xb9c24e5a	-0.0003706094
142	0xbac58bf2	-0.0015071614
143	0xb9260821	-0.00015834022
144	0x3874689b	5.8271555e-05
145	0xb9dfb9ea	-0.0004267239
146	0xba21d524	-0.0006173423
147	0x39c36658	0.0003726955
148	0xb9898cb4	-0.00026235508
149	0x37bdda8b	2.2632323e-05
150	0x00000000	0.0
151	0x00000000	0.0
152	0x00000000	0.0
153	0x00000000	0.0
154	0x00000000	0.0
155	0x00000000	0.0
156	0x00000000	0.0
157	0x00000000	0.0
158	0x00000000	0.0
159	0x00000000	0.0
160	0x00000000	0.0
161	0x00000000	0.0
162	0x00000000	0.0
163	0x00000000	0.0
164	0x00000000	0.0
165	0x00000000	0.0
166	0x00000000	0.0
167	0x00000000	0.0
168	0x00000000	0.0
169	0x00000000	0.0
170	0x00000000	0.0
171	0x00000000	0.0
172	0x00000000	0.0
173	0x00000000	0.0
174	0x00000000	0.0
175	0xba308202	-0.000673324
176	0xb92ad326	-0.00016291122
177	0xb8cf6df5	-9.89101e-05
178	0xb913e9e1	-0.00014106139
179	0xb79686c8	-1.7944156e-05
180	0xba308202	-0.000673324
181	0xb9a155b7	-0.00030772176
182	0x39cb1094	0.0003873153
183	0xb8791d70	-5.9393642e-05
184	0x37c5f26f	2.3597122e-05
185	0xba308202	-0.000673324
186	0xb9e9e7f8	-0.00044614053
187	0xba0e7710	-0.0005434612
188	0xb8c8ec88	-9.5808005e-05
189	0x37256574	9.858388e-06
190	0xba308202	-0.000673324
191	0xb9a1a217	-0.0003082908
192	0xba603117	-0.0008552237
193	0xb80c4734	-3.3444914e-05
194	0x380035a2	3.0567528e-05
195	0xba308202	-0.000673324
196	0xba03fc19	-0.0005034819
197	0x39c0d9ae	0.00036783278
198	0xb8b29ece	-8.517281e-05
199	0x371f505e	9.4958505e-06
200	0x3941a5aa	0.00018467629
201	0x3a5682cc	0.00081829424
202	0x3915b93e	0.00014278755
203	0x393c5791	0.00017961698
204	0xb7562f94	-1.2766472e-05
205	0x3941a5aa	0.00018467629
206	0xb9db8f1e	-0.00041877566
207	0x3a0d7234	0.0005395741
208	0xb9340e12	-0.0001717138
209	0x37c0291f	2.2907332e-05
210	0x3941a5aa	0.00018467629
211	0xba20b1a4	-0.0006129986
212	0xba1fabd4	-0.0006090973
213	0xb9659303	-0.00021893908
214	0xb633ee5d	-2.6811824e-06
215	0x3941a5aa	0.00018467629
216	0xb9809e40	-0.00024531968
217	0xba57e666	-0.0008235931
218	0xb89fbc88	-7.6168275e-05
219	0x37da7e39	2.6046402e-05
220	0x3941a5aa	0.00018467629
221	0xb9edc98b	-0.00045354324
222	0x3990ce6e	0.00027619622
223	0xb985e7e1	-0.000255405
224	0x374f62c1	1.2361154e-05
225	0xbaa7628a	-0.0012770456
226	0xb85394e8	-5.0445e-05
227	0x39119b85	0.00013886213
228	0xb96f0071	-0.0002279298
229	0xb7debfa8	-2.655371e-05
230	0xbaa7628a	-0.0012770456
231	0xba4e48c4	-0.0007869119
232	0x3a15e952	0.00057186664
233	0xb919b195	-0.00014657372
234	0x383c5a93	4.4907047e-05
235	0xbaa7628a	-0.0012770456
236	0xbaa19b0e	-0.0012329535
237	0xbac7bc11	-0.0015238543
238	0xb9982183	-0.00029016667
239	0x369d9d64	4.6972873e-06
240	0xbaa7628a	-0.0012770456
241	0xba62e576	-0.0008655408
242	0xbb043b5a	-0.0020176978
243	0xb8c70728	-9.4903924e-05
244	0x38777271	5.899597e-05
245	0xbaa7628a	-0.0012770456
246	0xbaadd729	-0.0013262975
247	0x3a78237b	0.0009465736
248	0xb991855b	-0.00027755913
249	0x3755124f	1.2700052e-05
250	0xb97ae233	-0.00023926124
251	0xb975e458	-0.00023450085
252	0xb7d84b68	-2.578432e-05
253	0xb923a739	-0.00015607187
254	0x36da451f	6.504953e-06
255	0xb97ae233	-0.00023926124

exp_avg_sq f4 [128, 25]
0	0x254b78cb	1.764837e-16
1	0x254b78cb	1.764837e-16
2	0x00000000	0.0
3	0x235916f8	1.1768457e-17
4	0x00000000	0.0
5	0x254b78cb	1.764837e-16
6	0x201bc1e1	1.319316e-19
7	0x24b4dd2f	7.8437256e-17
8	0x20e38a03	3.8546624e-19
9	0x00000000	0.0
10	0x254b78cb	1.764837e-16
11	0x22dae1a3	5.932792e-18
12	0x23b4dd2f	1.9609314e-17
13	0x1af09256	9.949809e-23
14	0x00000000	0.0
15	0x254b78cb	1.764837e-16
16	0x232b554c	9.287991e-18
17	0x24b4dd2f	7.8437256e-17
18	0x2136b77d	6.1906843e-19
19	0x00000000	0.0
20	0x254b78cb	1.764837e-16
21	0x24021bc2	2.8212768e-17
22	0x24b4dd2f	7.8437256e-17
23	0x1fbf534d	8.1029456e-20
24	0x00000000	0.0
25	0x00000000	0.0
26	0x00000000	0.0
27	0x00000000	0.0
28	0x00000000	0.0
29	0x00000000	0.0
30	0x00000000	0.0
31	0x00000000	0.0
32	0x00000000	0.0
33	0x00000000	0.0
34	0x00000000	0.0
35	0x00000000	0.0
36	0x00000000	0.0
37	0x00000000	0.0
38	0x00000000	0.0
39	0x00000000	0.0
40	0x00000000	0.0
41	0x00000000	0.0
42	0x00000000	0.0
43	0x00000000	0.0
44	0x00000000	0.0
45	0x00000000	0.0
46	0x00000000	0.0
47	0x00000000	0.0
48	0x00000000	0.0
49	0x00000000	0.0
50	0x38ba2497	8.8759865e-05
51	0x38af9c35	8.373746e-05
52	0x378df9bb	1.69248e-05
53	0x370bb1f0	8.326475e-06
54	0x2fab0634	3.1109126e-10
55	0x38ba2497	8.8759865e-05
56	0x34add029	3.2375218e-07
57	0x36053f2b	1.9855313e-06
58	0x34b41d15	3.3548773e-07
59	0x306d0dd0	8.6239726e-10
60	0x38ba2497	8.8759865e-05
61	0x3639bc0a	2.7676601e-06
62	0x361a4d07	2.2992624e-06
63	0x34a0368f	2.984202e-07
64	0x2ffcd4da	4.5989773e-10
65	0x38ba2497	8.8759865e-05
66	0x36fef35e	7.5981216e-06
67	0x362c01f0	2.5631125e-06
68	0x34a6c9f5	3.1066853e-07
69	0x2fdb6fdd	3.9915352e-10
70	0x38ba2497	8.8759865e-05
71	0x37796659	1.4865386e-05
72	0x35eece01	1.7792337e-06
73	0x34b53ebc	3.3759522e-07
74	0x3093ad0b	1.074484e-09
75	0x37252a9a	9.844685e-06
76	0x37220b5b	9.658596e-06
77	0x363ebeac	2.8423192e-06
78	0x357c1435	9.390672e-07
79	0x2f5451cc	1.9310348e-10
80	0x37252a9a	9.844685e-06
81	0x32be911d	2.2184901e-08
82	0x3586b6c1	1.0036966e-06
83	0x33279baa	3.9024293e-08
84	0x2f60d8bf	2.0449685e-10
85	0x37252a9a	9.844685e-06
86	0x347dc6ef	2.3634833e-07
87	0x35333f0e	6.6774453e-07
88	0x33667b1c	5.3663015e-08
89	0x2f909dff	2.630571e-10
90	0x37252a9a	9.844685e-06
91	0x354740d4	7.4227614e-07
92	0x35738807	9.07225e-07
93	0x333fa38b	4.4619394e-08
94	0x2f770805	2.2467368e-10
95	0x37252a9a	9.844685e-06
96	0x35d0c8e6	1.5555677e-06
97	0x3569a664	8.7041394e-07
98	0x333fa316	4.461898e-08
99	0x2fe34024	4.1336634e-10
100	0x38e4e5da	0.000109147004
101	0x38d7c2cd	0.000102882834
102	0x37ac4b55	2.0539077e-05
103	0x372cbe42	1.0296297e-05
104	0x2fde7f24	4.0471904e-10
105	0x38e4e5da	0.000109147004
106	0x34defdd5	4.153541e-07
107	0x361dccad	2.351396e-06
108	0x34e37d4a	4.2373205e-07
109	0x30b5e95e	1.323581e-09
110	0x38e4e5da	0.000109147004
111	0x3663ba36	3.3934025e-06
112	0x3635ccd7	2.7090334e-06
113	0x34c4ea24	3.6678205e-07
114	0x300e21e4	5.170746e-10
115	0x38e4e5da	0.000109147004
116	0x372214fe	9.66084e-06
117	0x366da4f7	3.5411774e-06
118	0x34d51f10	3.9696943e-07
119	0x300f67a4	5.217038e-10
120	0x38e4e5da	0.000109147004
121	0x379a345b	1.838261e-05
122	0x3603311d	1.9549109e-06
123	0x34e6e6a7	4.300866e-07
124	0x30e91a87	1.6960521e-09
125	0x3894a371	7.087633e-05
126	0x388c3623	6.685804e-05
127	0x376ce2e6	1.4119525e-05
128	0x36dd41f2	6.5939903e-06
129	0x2fcd03ce	3.7291986e-10
130	0x3894a371	7.087633e-05
131	0x348c6d12	2.615639e-07
132	0x3603bb34	1.9629488e-06
133	0x34897c93	2.5608878e-07
134	0x3092b6f8	1.0674901e-09
135	0x3894a371	7.087633e-05
136	0x36154920	2.2245295e-06
137	0x3612c2b9	2.1869039e-06
138	0x347959cc	2.32226e-07
139	0x3006b35e	4.900381e-10
140	0x3894a371	7.087633e-05
141	0x36cc57ac	6.08988e-06
142	0x3633145d	2.6684932e-06
143	0x347f37ae	2.3768982e-07
144	0x2fea2296	4.2588927e-10
145	0x3894a371	7.087633e-05
146	0x3747dc60	1.1912634e-05
147	0x35e4f5cd	1.7058861e-06
148	0x348f4da4	2.6692317e-07
149	0x30924fc1	1.0645566e-09
150	0x00000000	0.0
151	0x00000000	0.0
152	0x00000000	0.0
153	0x00000000	0.0
154	0x00000000	0.0
155	0x00000000	0.0
156	0x00000000	0.0
157	0x00000000	0.0
158	0x00000000	0.0
159	0x00000000	0.0
160	0x00000000	0.0
161	0x00000000	0.0
162	0x00000000	0.0
163	0x00000000	0.0
164	0x00000000	0.0
165	0x00000000	0.0
166	0x00000000	0.0
167	0x00000000	0.0
168	0x00000000	0.0
169	0x00000000	0.0
170	0x00000000	0.0
171	0x00000000	0.0
172	0x00000000	0.0
173	0x00000000	0.0
174	0x00000000	0.0
175	0x37ab723f	2.0437988e-05
176	0x37a2729c	1.9365274e-05
177	0x3683efaa	3.932005e-06
178	0x36019cd7	1.931379e-06
179	0x2eb05599	8.0187586e-11
180	0x37ab723f	2.0437988e-05
181	0x339912f8	7.128068e-08
182	0x34f070ab	4.478546e-07
183	0x33a9e67a	7.911599e-08
184	0x2f7d508f	2.3038836e-10
185	0x37ab723f	2.0437988e-05
186	0x35241874	6.1130345e-07
187	0x35126c3c	5.454674e-07
188	0x339f56b0	7.419783e-08
189	0x2f005e4a	1.167503e-10
190	0x37ab723f	2.0437988e-05
191	0x35e90828	1.7362227e-06
192	0x35301c6f	6.5606486e-07
193	0x33a0fcd6	7.496571e-08
194	0x2ede433c	1.01073344e-10
195	0x37ab723f	2.0437988e-05
196	0x36634931	3.386824e-06
197	0x34e24729	4.2147556e-07
198	0x33b23c91	8.299788e-08
199	0x2f95e3bb	2.7264754e-10
200	0x37ea63a9	2.7941382e-05
201	0x37dce58a	2.6332931e-05
202	0x36ac2621	5.1304382e-06
203	0x362e9d7c	2.6019688e-06
204	0x2ecf8b09	9.437968e-11
205	0x37ea63a9	2.7941382e-05
206	0x34001517	1.1928601e-07
207	0x35730904	9.0537674e-07
208	0x33e6ffd7	1.07567466e-07
209	0x2f43340a	1.7753635e-10
210	0x37ea63a9	2.7941382e-05
211	0x3576374d	9.1722615e-07
212	0x354b65e9	7.577169e-07
213	0x33bacaae	8.698167e-08
214	0x2f685277	2.1129574e-10
215	0x37ea63a9	2.7941382e-05
216	0x3624e30a	2.4570058e-06
217	0x3563635c	8.4708677e-07
218	0x33ca7655	9.4278825e-08
219	0x2efd0cbc	1.150737e-10
220	0x37ea63a9	2.7941382e-05
221	0x369f8131	4.753609e-06
222	0x351f966b	5.9451e-07
223	0x33ebd605	1.098197e-07
224	0x2fa50b24	3.002124e-10
225	0x391b0c4f	0.00014786537
226	0x3911e40f	0.00013913236
227	0x37f0dd8d	2.8713397e-05
228	0x3768cd74	1.3876113e-05
229	0x2fc16c80	3.518359e-10
230	0x391b0c4f	0.00014786537
231	0x351ceb6f	5.845713e-07
232	0x3687d2b5	4.047843e-06
233	0x351af5a4	5.7726925e-07
234	0x308a0fb0	1.004528e-09
235	0x391b0c4f	0.00014786537
236	0x36a0e505	4.795033e-06
237	0x366a7cfd	3.494147e-06
238	0x34f913d1	4.6394283e-07
239	0x302a3c42	6.193127e-10
240	0x391b0c4f	0.00014786537
241	0x37593d94	1.2948545e-05
242	0x3686631d	4.0050495e-06
243	0x3508fa26	5.102796e-07
244	0x2ff61fd7	4.4769763e-10
245	0x391b0c4f	0.00014786537
246	0x37d1cc9c	2.501002e-05
247	0x363487c0	2.6901107e-06
248	0x351733ec	5.632744e-07
249	0x30c2fe68	1.4187664e-09
250	0x362e217a	2.5947506e-06
251	0x362ce86b	2.5765282e-06
252	0x32b95cb9	2.1579e-08
253	0x3496f70c	2.8119427e-07
254	0x2e243eff	3.7345235e-11
255	0x362e217a	2.5947506e-06

exp_avg f4 [128]
0	0x236b28d3	1.274802e-17
1	0x00000000	0.0
2	0xbb069d7d	-0.0020540648
3	0xbb11c7fb	-0.0022244442
4	0xba64fe4a	-0.0008735402
5	0xb9dfb9e8	-0.00042672385
6	0x00000000	0.0
7	0xba3081fe	-0.00067332375
8	0x3941a5b8	0.0001846765
9	0xbaa7628b	-0.0012770457
10	0xb97ae234	-0.00023926125
11	0xb7f1bbc4	-2.8816874e-05
12	0xba4bdaaa	-0.0007776419
13	0xbb0848ca	-0.0020795339
14	0x2fdf98b1	4.0671957e-10
15	0xbab85c12	-0.0014065525
16	0xba4fd246	-0.00079277565
17	0xbae5505d	-0.0017495264
18	0x00000000	0.0
19	0x3a8d7321	0.0010791757
20	0xb9bb7055	-0.00035751113
21	0x00000000	0.0
22	0xba0ee81c	-0.0005451457
23	0xb97f8016	-0.00024366411
24	0xb9268ae4	-0.00015882734
25	0xba132660	-0.00056133233
26	0x00000000	0.0
27	0xbb086e6a	-0.0020817765
28	0x3af94c21	0.001901988
29	0xbac950c0	-0.0015359148
30	0x3997f89e	0.000289862
31	0x00000000	0.0
32	0xba953516	-0.0011383619
33	0x00000000	0.0
34	0x00000000	0.0
35	0xba431d05	-0.0007442984
36	0xb98f07c4	-0.0002728087
37	0xba91a380	-0.0011111349
38	0x00000000	0.0
39	0xba07109e	-0.00051523175
40	0xbaba6d26	-0.0014223203
41	0xb9968d02	-0.00028715288
42	0xb5dc4500	-1.6411359e-06
43	0x00000000	0.0
44	0xb952ad54	-0.0002009173
45	0x2d9fe20c	1.8176592e-11
46	0xb9932439	-0.00028065013
47	0x00000000	0.0
48	0xba95ab1d	-0.0011418794
49	0xb8c1bac0	-9.237742e-05
50	0xb401df0a	-1.2095202e-07
51	0x2890a5cd	1.6059116e-14
52	0x39e5ce7c	0.00043832127
53	0x00000000	0.0
54	0xba911781	-0.0011069627
55	0x3ac8be0a	0.0015315425
56	0x392fb3ae	0.00016756236
57	0xbaa76e49	-0.0012773956
58	0xba8de01e	-0.0010824238
59	0xba895ee3	-0.0010480549
60	0xbb73677e	-0.0037140544
61	0x3886db79	6.430498e-05
62	0x00000000	0.0
63	0xba7e34ed	-0.00096972176
64	0xba059426	-0.0005095623
65	0xba7b9afb	-0.0009597984
66	0xba621ec0	-0.0008625798
67	0xba7674d4	-0.0009401564
68	0xba31d414	-0.0006783616
69	0x3a3050ce	0.0006725908
70	0x33b2dd8e	8.3290715e-08
71	0x2786bdd5	3.7398288e-15
72	0x3a2a8afe	0.0006505697
73	0xba84890c	-0.0010111644
74	0xb7ffd960	-3.0499592e-05
75	0x00000000	0.0
76	0x39b4cde0	0.00034485664
77	0xba0283b9	-0.00049787347
78	0xb9fe9c56	-0.00048563135
79	0x00000000	0.0
80	0x00000000	0.0
81	0x39547c3c	0.00020264176
82	0x39644b58	0.00021771842
83	0x00000000	0.0
84	0xbae9e9f6	-0.0017846215
85	0x3a19cd6b	0.00058670965
86	0xba354097	-0.00069142267
87	0x00000000	0.0
88	0xb9782572	-0.00023665073
89	0xba0caac5	-0.0005366023
90	0xbac0199c	-0.001465607
91	0x2877fd9f	1.376625e-14
92	0xb903e380	-0.00012577884
93	0x00000000	0.0
94	0xb9453c34	-0.00018809811
95	0xbbb690c6	-0.0055714576
96	0xbb1650d2	-0.0022936356
97	0x25bd0507	3.278968e-16
98	0xbaad266c	-0.0013210303
99	0x00000000	0.0
100	0x3ad10ba8	0.0015948908
101	0xbac53c56	-0.0015047889
102	0xb90d0bf6	-0.00013451264
103	0xba424f1f	-0.00074123027
104	0xba800b50	-0.0009768996
105	0xba71807e	-0.0009212567
106	0xb9c1f474	-0.0003699396
107	0x3aaf8746	0.0013391755
108	0x00000000	0.0
109	0x00000000	0.0
110	0xba2092d3	-0.0006125394
111	0xba3dab86	-0.0007235337
112	0x3ab49f2b	0.0013780346
113	0xbac9f678	-0.0015408536
114	0x00000000	0.0
115	0xba57ce39	-0.00082323287
116	0x00000000	0.0
117	0x3a2e68a7	0.00066531677
118	0xbab1661e	-0.0013534462
119	0xba693561	-0.00088961987
120	0xbadc417b	-0.0016804183
121	0x39ecb1fa	0.0004514603
122	0xb95f4b8e	-0.00021295084
123	0x00000000	0.0
124	0x25b46cc1	3.1298717e-16
125	0x00000000	0.0
126	0x3ad8be04	0.0016536121
127	0x00000000	0.0

exp_avg_sq f4 [128]
0	0x254b78cb	1.764837e-16
1	0x00000000	0.0
2	0x38ba2497	8.8759865e-05
3	0x37252a9c	9.844687e-06
4	0x38e4e5d9	0.000109147
5	0x3894a371	7.087633e-05
6	0x00000000	0.0
7	0x37ab723d	2.0437985e-05
8	0x37ea63aa	2.7941383e-05
9	0x391b0c4f	0.00014786537
10	0x362e217a	2.5947506e-06
11	0x38554817	5.0850296e-05
12	0x37ef77eb	2.8546861e-05
13	0x37f0b2a6	2.869342e-05
14	0x329e6782	1.844069e-08
15	0x38a18b35	7.7030076e-05
16	0x39059885	0.00012740686
17	0x3894e33f	7.099518e-05
18	0x00000000	0.0
19	0x380d5f0a	3.370553e-05
20	0x37bf63f8	2.2815526e-05
21	0x00000000	0.0
22	0x38a9d6b2	8.098538e-05
23	0x388c1006	6.678705e-05
24	0x36a1da87	4.823614e-06
25	0x381ee801	3.7886206e-05
26	0x00000000	0.0
27	0x37e4b959	2.7266027e-05
28	0x38d53751	0.00010166935
29	0x38864e6c	6.404225e-05
30	0x36fb1940	7.4833224e-06
31	0x00000000	0.0
32	0x38e31ba3	0.00010829351
33	0x00000000	0.0
34	0x00000000	0.0
35	0x37a7ebe6	2.00178e-05
36	0x3895638a	7.123414e-05
37	0x381643d8	3.582597e-05
38	0x00000000	0.0
39	0x370931bb	8.177415e-06
40	0x385a5c9c	5.20615e-05
41	0x37bac151	2.2262948e-05
42	0x3608d9ce	2.0392358e-06
43	0x00000000	0.0
44	0x35df7b8d	1.6650753e-06
45	0x2b50c70c	7.417268e-13
46	0x3843a47d	4.6644815e-05
47	0x00000000	0.0
48	0x38918bd0	6.940181e-05
49	0x3702169c	7.753868e-06
50	0x33776b39	5.7606687e-08
51	0x33d50368	9.919205e-08
52	0x37e05c9c	2.6746005e-05
53	0x00000000	0.0
54	0x39008ff3	0.00012260657
55	0x374e738e	1.23054615e-05
56	0x3581fe3f	9.685244e-07
57	0x382434a1	3.914966e-05
58	0x3835cd38	4.3344888e-05
59	0x3709e611	8.219403e-06
60	0x37581a86	1.2880779e-05
61	0x36d79170	6.4244305e-06
62	0x00000000	0.0
63	0x37ea347c	2.7919414e-05
64	0x36726d46	3.6124416e-06
65	0x38a4f3f2	7.865568e-05
66	0x35b42397	1.3421403e-06
67	0x37abaeea	2.046624e-05
68	0x389e5cf5	7.551342e-05
69	0x37eaa9bf	2.7974018e-05
70	0x2a364caa	1.6191445e-13
71	0x3054de52	7.7441087e-10
72	0x36d7a51f	6.426722e-06
73	0x389b1db9	7.396512e-05
74	0x38d038fe	9.9288285e-05
75	0x00000000	0.0
76	0x37b1dc18	2.1202533e-05
77	0x37af2250	2.0877604e-05
78	0x382c530f	4.108535e-05
79	0x00000000	0.0
80	0x00000000	0.0
81	0x3890a811	6.89776e-05
82	0x38c901c6	9.584757e-05
83	0x00000000	0.0
84	0x38b891f7	8.800992e-05
85	0x385800ef	5.1499283e-05
86	0x387a9cdb	5.9750728e-05
87	0x00000000	0.0
88	0x37e11933	2.6833824e-05
89	0x38a12c9a	7.685386e-05
90	0x38e4925b	0.00010899148
91	0x2b2c94cd	6.131318e-13
92	0x3829dee9	4.050034e-05
93	0x00000000	0.0
94	0x389270c4	6.982827e-05
95	0x37c44fd8	2.34022e-05
96	0x37be0d89	2.2656068e-05
97	0x2b459cc6	7.0206026e-13
98	0x3850e705	4.9806218e-05
99	0x00000000	0.0
100	0x37d42bd4	2.5292778e-05
101	0x369645f2	4.478491e-06
102	0x3897651d	7.219075e-05
103	0x38950c31	7.1071445e-05
104	0x36a5b9a6	4.9389955e-06
105	0x369f9f78	4.757134e-06
106	0x38454f19	4.7042126e-05
107	0x3874e0f3	5.8383634e-05
108	0x00000000	0.0
109	0x00000000	0.0
110	0x370bdad3	8.335995e-06
111	0x378af074	1.6562852e-05
112	0x3804976a	3.1612268e-05
113	0x36883981	4.05981e-06
114	0x00000000	0.0
115	0x389c27e6	7.446091e-05
116	0x00000000	0.0
117	0x387d3dfa	6.037762e-05
118	0x34a166b3	3.006331e-07
119	0x38a81466	8.014664e-05
120	0x3883aa07	6.278237e-05
121	0x37832495	1.5633452e-05
122	0x345454a4	1.977483e-07
123	0x00000000	0.0
124	0x2ea37b8c	7.434328e-11
125	0x00000000	0.0
126	0x37e3c357	2.7151471e-05
127	0x00000000	0.0
