highway_ddqn/ddqn1/checkpoint-343.tar (torch, 253330 bytes, 18 tensors)

layers.0.weight f4 [128, 25]
0	0xbcf909c5	-0.030400166
1	0xbb9e2f59	-0.0048274216
2	0xbda589e9	-0.08082945
3	0x3df4a154	0.119448334
4	0x3d0428d5	0.032265503
5	0x3dee338b	0.11630925
6	0xbd127e84	-0.035765186
7	0xbc7f43a0	-0.015580088
8	0xbdc50f44	-0.09622052
9	0xbc953d14	-0.0182176
10	0xbdcd0b6b	-0.100119434
11	0xbe3a9f81	-0.18224908
12	0xbdfcd999	-0.12346191
13	0x3e5293ac	0.20564145
14	0xbcab4121	-0.02090508
15	0xbe36ba3f	-0.17844485
16	0xbe36a571	-0.17836548
17	0x3e09a0bb	0.1344022
18	0x3dac64b8	0.08417648
19	0xbdef8fe3	-0.11697366
20	0x3d742525	0.059605736
21	0x3d853bc8	0.06505543
22	0x3e111e30	0.14171672
23	0x3e069fba	0.13146868
24	0xbdfe8526	-0.1242774
25	0x3d3f4eb3	0.046705913
26	0x3e15d4dd	0.14631982
27	0x3a3a34cd	0.0007103205
28	0x3d751367	0.059832957
29	0x3e11ab40	0.14225483
30	0xbdd2aa4a	-0.10286386
31	0xbd9e24c0	-0.07721853
32	0xbd109ad3	-0.035303902
33	0xbe4153da	-0.18879643
34	0xbd50e3ed	-0.050998617
35	0x3d3f8507	0.046757724
36	0xbd4571c7	-0.04820421
37	0xbe1aec0d	-0.15129109
38	0xbde7bce0	-0.11315322
39	0x3e4704e5	0.19435461
40	0xbe21ee13	-0.15813474
41	0x3dee3173	0.116305254
42	0xbdbc4b77	-0.09194081
43	0xbb426ecd	-0.0029668093
44	0xbe06a408	-0.1314851
45	0xbdec8c23	-0.115501665
46	0xbe4527cd	-0.19253464
47	0x3e3d81d5	0.18506558
48	0xbde1a9aa	-0.11018689
49	0xbd99be1d	-0.07506964
50	0x3dd8a23d	0.105778195
51	0xbd9c8a71	-0.07643593
52	0xbe459d23	-0.19298224
53	0x3dae795a	0.0851924
54	0xbb9c1d55	-0.004764239
55	0x3e4ecad7	0.20194565
56	0xbe158fe1	-0.14605667
57	0xbdaa340f	-0.08310711
58	0x3e6eda74	0.23325521
59	0xbac88717	-0.0015299049
60	0x3da78a53	0.0818068
61	0x3ecb7377	0.3973653
62	0x3e2e8969	0.17044605
63	0x3e1b008d	0.15136929
64	0x3e20bf90	0.15698075
65	0xbd6daffb	-0.058029156
66	0x3eaf12b8	0.3419397
67	0x3e11f83e	0.14254853
68	0x3e7b2172	0.24524477
69	0x3e0a7b1c	0.13523525
70	0xbe22fddb	-0.1591715
71	0x3dbc86ff	0.09205436
72	0x3d61fc96	0.055172525
73	0x3e806ceb	0.25083098
74	0xbdf450d1	-0.11929477
75	0x3d5622b2	0.05227918
76	0x3d6ae1e3	0.05734433
77	0x3e15cbcd	0.14628525
78	0x3e33fdcb	0.17577283
79	0x3e813ca1	0.2524157
80	0xbdd7121b	-0.105015
81	0x3f2e8aef	0.68180746
82	0xbf3b3c51	-0.7313891
83	0x3e6c4f10	0.23077035
84	0xbecfbf9d	-0.40575877
85	0x3d72c17e	0.05926656
86	0x3c6d768c	0.014493596
87	0x3dd95970	0.10612762
88	0xbccdbfb2	-0.025115822
89	0xbe88a9bf	-0.26692006
90	0x3e6030a0	0.21893549
91	0x3e540e53	0.2070859
92	0x3d9a9f5f	0.07549929
93	0x3e3c26da	0.18374196
94	0xbe6c7a8d	-0.23093624
95	0xbe143192	-0.14472035
96	0xbcb0bacc	-0.021573447
97	0xbde613fe	-0.11234282
98	0x3e977a58	0.29585528
99	0xbe22416d	-0.1584527
100	0x3e3bb031	0.1832893
101	0x3dd8d75b	0.10587951
102	0x3dcba868	0.0994423
103	0xbd89c016	-0.067260906
104	0xbc6db1c2	-0.014507713
105	0xbd6ce9bd	-0.057840098
106	0xbe9db641	-0.3080311
107	0xbe84c66f	-0.25932643
108	0xbb89fe0d	-0.0042111934
109	0x3e2dc9bb	0.16971485
110	0x3d897bce	0.06713067
111	0x3ec13c9c	0.37741554
112	0xbddda584	-0.10822585
113	0x3e778326	0.24171123
114	0x3d6ffffd	0.05859374
115	0x3e4d1851	0.20028807
116	0x3e9f4891	0.3111005
117	0xbe30b07f	-0.17254828
118	0xbe03c3bc	-0.12867635
119	0xbe0c0213	-0.13672666
120	0x3e5b20b7	0.21399198
121	0x3e265519	0.162434
122	0x3e301332	0.17194822
123	0x3d991617	0.074749164
124	0x3d3b929f	0.045794126
125	0x3c40853d	0.0117505165
126	0x3bcdff3b	0.0062865294
127	0x3cd424de	0.025896486
128	0x3d47d83e	0.04879021
129	0x3e3d0329	0.18458237
130	0x3dbe623a	0.09296079
131	0xbea77959	-0.32709768
132	0xbe11d7de	-0.14242503
133	0xbda7fffc	-0.08203122
134	0x3db858b4	0.09001294
135	0xbd167187	-0.03672936
136	0x3e473c59	0.19456615
137	0x3e2881df	0.16455792
138	0x3e5c8c1b	0.21537821
139	0xbdddb1c8	-0.10824925
140	0x3e09e80b	0.13467424
141	0x3e5e2432	0.21693495
142	0x3c41ce36	0.01182895
143	0x3e523dec	0.20531434
144	0xbe73d2dc	-0.23810905
145	0x3e1e13d3	0.1543725
146	0xbc9518ab	-0.01820024
147	0xbe4440bb	-0.19165318
148	0x3e552799	0.20815887
149	0x3dc27bda	0.09496279
150	0xbe10781d	-0.1410832
151	0xbdd727bd	-0.10505626
152	0x3e3a528f	0.18195556
153	0x3e131ae5	0.14365728
154	0xbe06ea3a	-0.13175288
155	0xbd882280	-0.06647205
156	0x3ccf5bda	0.025312353
157	0xbdf1e853	-0.118118905
158	0x3e2f5d27	0.17125379
159	0x3e16883b	0.14700405
160	0xbdc3d20d	-0.095615484
161	0x3e3c073f	0.18362139
162	0xbc283ab3	-0.010267901
163	0xbdf5c627	-0.12000685
164	0x3af7a267	0.0018893004
165	0xbd754387	-0.059878852
166	0x3e4aa0cf	0.19787906
167	0x3d8ef94a	0.06981142
168	0xbde88bd3	-0.11354794
169	0xbe1a5460	-0.15071249
170	0xbdb3ee43	-0.08785679
171	0xbc019067	-0.007907963
172	0x3e133efb	0.14379494
173	0xbe23d2cb	-0.1599838
174	0x3bc3b8cd	0.0059729577
175	0x3df4dfa4	0.119567186
176	0x3c753a48	0.014967509
177	0x3c573031	0.013134048
178	0xbe54944f	-0.207597
179	0x3e89a246	0.26881617
180	0x3d4f1ef0	0.050566614
181	0xbe2470be	-0.16058633
182	0x3b85a80b	0.00407887
183	0x3e679c75	0.22618277
184	0x3d0758e2	0.03304375
185	0x3c82fc5d	0.015989477
186	0x3e66d334	0.22541505
187	0x3e2cc54c	0.16872138
188	0x3d0c7ba8	0.034297615
189	0x3d6de090	0.058075488
190	0x3ac269fe	0.0014832614
191	0xbc8d59fc	-0.017254822
192	0xbcb5fe01	-0.022215845
193	0x3e9d166c	0.3068117
194	0xbc964f72	-0.01834843
195	0xbd3af8f8	-0.04564759
196	0x3e0e90ee	0.13922474
197	0x3e16436b	0.14674155
198	0x3e866ca7	0.2625477
199	0x3dd7f41d	0.10544608
200	0xbe093154	-0.13397723
201	0x3e124805	0.14285286
202	0x3e523f8f	0.20532058
203	0xbe023614	-0.12715942
204	0x3dc45d9a	0.095881656
205	0xbd73cb24	-0.059519902
206	0xbd7ff4d5	-0.06248935
207	0x3dc14aac	0.09438071
208	0x3eb2ed79	0.34946802
209	0x3cc21050	0.023689419
210	0x3cde16ac	0.02711042
211	0x3e3b8d55	0.18315633
212	0x3d5e51a4	0.054277077
213	0x3e7b9bcb	0.24571149
214	0x3eb66d26	0.3563015
215	0x3d828ffa	0.063751176
216	0x3e2d4afb	0.16923134
217	0xbe49830b	-0.19678895
218	0x3d8fa298	0.07013434
219	0xbe513857	-0.20431648
220	0x3e24cd32	0.16093901
221	0x3e780dfc	0.24224085
222	0x3d52f01b	0.051498514
223	0x3e84467e	0.2583503
224	0xbd8360ab	-0.06414922
225	0x3e3d7af3	0.18503933
226	0x3e3dd726	0.18539104
227	0xbd94d576	-0.07267277
228	0xbe47b2c2	-0.19501784
229	0x3d25c3a9	0.0404698
230	0x3e16bb3f	0.14719866
231	0xbed19986	-0.40937442
232	0xbe0fdcbd	-0.14049049
233	0x3d498195	0.049195845
234	0x3d94a7d8	0.07258576
235	0x3dca1e05	0.09869007
236	0x3e885c87	0.26633093
237	0xbca61e97	-0.020278258
238	0x3e526b6b	0.20548789
239	0x3e868b1d	0.2627801
240	0x3c523785	0.01283062
241	0x3eb10ae2	0.34578615
242	0xbd66a0e8	-0.056305796
243	0xba988fe0	-0.0011639558
244	0x3e4a15c7	0.1973487
245	0x3da3bb45	0.07994703
246	0x3e8dea0b	0.27717623
247	0xbda9d131	-0.08291853
248	0x3dd163d3	0.10224118
249	0xbe00d429	-0.12580933
250	0xbd732f24	-0.05937113
251	0x3e1b1aa4	0.15146881
252	0x3e05934d	0.13044472
253	0x3e251bec	0.16123933
254	0xbd94a9c7	-0.07258945
255	0xbdc74d1c	-0.09731504

layers.0.bias f4 [128]
0	0xbdf6eb0b	-0.1205655
1	0xbe0280bf	-0.12744425
2	0x3e2fff2b	0.17187183
3	0xbd16f2ff	-0.036852833
4	0xbe361e78	-0.1778506
5	0x3e03b9f4	0.12863904
6	0xbe4773bb	-0.19477741
7	0xbc665462	-0.014058204
8	0xbd4731cf	-0.048631486
9	0x3e5b03fb	0.21388237
10	0x3c4fe0f2	0.0126879085
11	0x3e2b7fdc	0.16747993
12	0xbe280185	-0.1640683
13	0xbd33af14	-0.04386814
14	0xbe278020	-0.1635747
15	0xbe064c08	-0.13114941
16	0xbe2111ed	-0.15729494
17	0x3bf4559e	0.0074564954
18	0x3e0cd935	0.13754733
19	0x3e17153f	0.14754198
20	0x3d23f98e	0.040032916
21	0x3df4734a	0.11936052
22	0xbc15d9ed	-0.009146196
23	0xbda607bc	-0.08106944
24	0x3c43706e	0.011928661
25	0x3e461f67	0.19347917
26	0xbd5ebe1a	-0.054380514
27	0x3d0c0be2	0.03419102
28	0x3d3f3518	0.046681494
29	0x3d255b19	0.04037008
30	0x3c9eaf2e	0.019370642
31	0x3dd19545	0.10233549
32	0x3e5f5043	0.21807961
33	0xbd319973	-0.04335923
34	0xbde8bcda	-0.113641456
35	0x3d94c436	0.07263987
36	0x3d494f87	0.04914811
37	0xbd0f45a9	-0.034978542
38	0x3e1c0837	0.15237509
39	0x3c3d8435	0.011567165
40	0xbcb6f3c9	-0.022333043
41	0x3e2f2453	0.171037
42	0x3e4a692d	0.19766684
43	0xbe2f690a	-0.17129913
44	0x3e1cd126	0.15314159
45	0x3a41392f	0.0007370887
46	0x3d67e138	0.05661127
47	0xbd290500	-0.041264534
48	0x3d8bb5a3	0.06821754
49	0x3e01897e	0.12650105
50	0x3d68f458	0.05687365
51	0xbe08744b	-0.13325612
52	0xbcc633a3	-0.024194544
53	0xbe250425	-0.16114862
54	0xbdf8b2b3	-0.12143459
55	0xbc3b6cff	-0.011439561
56	0x3e1f3d40	0.15550709
57	0x3e2dfb40	0.16990376
58	0xbd8b304d	-0.06796322
59	0xbcf685fb	-0.030093184
60	0x3e263bc4	0.16233736
61	0x3b968fbc	0.004594771
62	0xbc30ad00	-0.010783434
63	0xbd0ecbdd	-0.034862388
64	0x3b641312	0.0034801406
65	0xbdb99d1d	-0.0906317
66	0x3e25bfaf	0.16186403
67	0x3e5a0b95	0.2129348
68	0x3dcfd973	0.10148897
69	0x3e3e81dc	0.18604225
70	0x3c30f4d1	0.010800556
71	0x3e28b43a	0.16475001
72	0x3dccefe3	0.10006692
73	0x3cc97d66	0.024595927
74	0x3db7388d	0.08946333
75	0xbc79c533	-0.01524477
76	0xbd5915b5	-0.052999217
77	0x3e2b3287	0.16718493
78	0xbe17963d	-0.14803405
79	0xbce88a33	-0.028386211
80	0x3c3c751a	0.011502529
81	0xbe34f626	-0.17672023
82	0xbcfad91d	-0.030621106
83	0xbdd9c730	-0.10633695
84	0xbd71ad67	-0.05900326
85	0x3e680e39	0.22661676
86	0x3e5bec3e	0.21476838
87	0xbd7eb0b3	-0.062180232
88	0x3e18c58e	0.14919111
89	0x3b090ccf	0.0020912176
90	0x3e177d11	0.14793803
91	0xbd967320	-0.07346177
92	0x3df9cf40	0.12197733
93	0xbc9efec0	-0.019408584
94	0xbe082774	-0.132963
95	0x3d3a5694	0.045492724
96	0x3c022fb9	0.007945948
97	0x3c477047	0.012172765
98	0x3dc3e3cb	0.095649324
99	0xbe45986a	-0.19296423
100	0x3d8f98b5	0.070115484
101	0x3e0c16d8	0.13680589
102	0x3d24d555	0.04024251
103	0xbaac85c1	-0.001316242
104	0xbdbd9335	-0.09256593
105	0xbda15ca7	-0.07879
106	0x3d6e6681	0.058203224
107	0x3d797767	0.060904887
108	0x3e29cc90	0.1658194
109	0x3dc0232d	0.09381709
110	0x3c39078c	0.011293303
111	0xbe1c8c99	-0.15288009
112	0xbb2327e9	-0.0024895614
113	0x3e0e4135	0.13892062
114	0xbe4ab8da	-0.19797078
115	0x3e2bcee5	0.16778143
116	0x3d99125a	0.074742034
117	0x3db3de66	0.087826535
118	0xbdbfd17a	-0.09366126
119	0x3e227912	0.15866497
120	0xbe02bd1d	-0.12767453
121	0x3d982a67	0.074299626
122	0x3dd67aed	0.10472665
123	0x3e085eb8	0.13317382
124	0x3d2579f3	0.040399503
125	0xbe294a88	-0.16532338
126	0x3d52b58b	0.051442664
127	0xbdff2040	-0.12457323

layers.1.weight f4 [128, 128]
0	0x3d4bde12	0.04977233
1	0xbb825ebb	-0.003978578
2	0xbba7d4c0	-0.0051217973
3	0xbc891dff	-0.016737936
4	0xbc34bbb5	-0.011031081
5	0xbc58f641	-0.013242305
6	0x3d852552	0.06501259
7	0xbd3f2329	-0.04666439
8	0x3ce719e2	0.028210584
9	0xbdb826d4	-0.08991781
10	0xbc71ca5c	-0.014757719
11	0x3b27bcf9	0.0025594814
12	0xbd38e601	-0.045141224
13	0x3a2d326c	0.000660694
14	0x3d5aaca3	0.053387295
15	0xbd8dbd24	-0.06920841
16	0x3cf3dde6	0.029768895
17	0x3d5f7ff3	0.05456538
18	0x3d2f2752	0.04276211
19	0xbdb4552a	-0.08805306
20	0x3cb10f2b	0.021613678
21	0x3d6c0de8	0.05763045
22	0xbcbd59c5	-0.023114095
23	0x3cfece94	0.031104364
24	0xbd41dbb7	-0.047328677
25	0xbda0eae4	-0.07857302
26	0xbce477a1	-0.027889075
27	0xbd742c03	-0.059612285
28	0xbc8df25f	-0.017327486
29	0xbd2f937a	-0.042865254
30	0x3d28fb09	0.04125503
31	0x3d8efd10	0.069818616
32	0xbd96ccd6	-0.07363288
33	0xbda5a8b9	-0.08088822
34	0xbd345952	-0.044030495
35	0xbdba15b8	-0.09086174
36	0x3d1f581c	0.038902387
37	0x3d1746a7	0.036932614
38	0x3d2da285	0.04239132
39	0x387f5a9b	6.088112e-05
40	0x3da526fa	0.08064075
41	0x3cb8672e	0.022510137
42	0x3cd6ae65	0.026206205
43	0x3d5dfa40	0.054193735
44	0xbd8154f4	-0.06315032
45	0xbd9c3cac	-0.0762876
46	0x3d640d3b	0.05567668
47	0x3d875d0f	0.066095464
48	0x3c6d6a38	0.014490657
49	0x3d66a7ca	0.05631236
50	0x3d92685b	0.071488105
51	0x3c6945a4	0.014237795
52	0xbcf8b40c	-0.03035929
53	0x3c7ca8c8	0.0154211
54	0xbcd92bc7	-0.026510132
55	0xbd891be6	-0.06694774
56	0x3d5ca85d	0.0538715
57	0xbd2740f3	-0.040833425
58	0x3c5e6703	0.013574365
59	0x3d3de09f	0.046356793
60	0xbd0af2e7	-0.033923056
61	0xbda88575	-0.0822858
62	0x3b54de6c	0.0032481207
63	0x3d850fef	0.0649718
64	0x3c92f3e3	0.01793856
65	0x3d2b75e1	0.041860465
66	0x3d1c6567	0.038182642
67	0x3da9e43d	0.08295486
68	0x3da23bf6	0.07921593
69	0x3d3f6f38	0.046736926
70	0x3c2a0885	0.010378008
71	0xba8253b9	-0.0009943164
72	0xbbfe4829	-0.007760067
73	0x3c1bcc0f	0.009509101
74	0x3d4a2d4d	0.04935961
75	0xbc510971	-0.012758599
76	0xbd4ba935	-0.049721915
77	0xbd3c353c	-0.045949206
78	0xbc9b1d34	-0.018934824
79	0x3aa7a79d	0.0012791042
80	0xbc650ac0	-0.013979614
81	0xbd7ea60d	-0.062170077
82	0x3ba2b93e	0.0049659302
83	0x3ccf5b75	0.025312165
84	0xbcaaf065	-0.020866582
85	0xbd767899	-0.060173605
86	0xbd7c43c7	-0.061588075
87	0xbc996cd2	-0.018728647
88	0xbd845b0b	-0.064626776
89	0x3d52ec6a	0.051494993
90	0x3d8472ea	0.064672306
91	0x3d5af0ad	0.053452183
92	0xbd89dfa3	-0.067321084
93	0x3d6460fe	0.05575656
94	0xbd6fb601	-0.05852318
95	0xbdba7a77	-0.091053896
96	0x3d8d21f5	0.068912424
97	0x3cd0c831	0.025486084
98	0xbc971aee	-0.018445458
99	0x3cfef5de	0.031123098
100	0x3d98a40d	0.07453165
101	0xbcff12d9	-0.031136917
102	0xbd6933c4	-0.056934133
103	0x3d612f8b	0.05497698
104	0x3d3e7210	0.046495497
105	0x3cb58be0	0.022161424
106	0x3d0e293a	0.034707285
107	0x3db094e3	0.08622148
108	0xbd5ed566	-0.05440273
109	0x3d66e7c0	0.056373358
110	0xbcd08b45	-0.025457034
111	0xbcaf14b3	-0.021372175
112	0xbcc63935	-0.0241972
113	0x3d697f4f	0.057006177
114	0x3d7b3f1e	0.06133949
115	0xbbd574b9	-0.0065141586
116	0x3d996cd2	0.07491459
117	0xbc4c23b3	-0.012459683
118	0xbcf81e95	-0.03028802
119	0x3d7563db	0.059909683
120	0xbda2aa8e	-0.07942687
121	0x3c6e7bb5	0.014555861
122	0xba6be2eb	-0.0008998352
123	0x3d72f867	0.059318926
124	0xbd3ca869	-0.046059046
125	0xbd149828	-0.03627792
126	0xbd055874	-0.03255506
127	0x3d987e06	0.07445912
128	0xbd414c54	-0.047191933
129	0xbc21559f	-0.009847074
130	0x3bddb81e	0.0067663332
131	0xbe7fe215	-0.24988587
132	0x3d19cb6d	0.037547518
133	0x3ca5c5e3	0.020235961
134	0xbd53e785	-0.051734466
135	0x3c6063a5	0.013695632
136	0x3d9b0aad	0.075703956
137	0x3df4a2d3	0.11945119
138	0x3e57c721	0.21072055
139	0x3e26e68d	0.16298886
140	0xbe668b9f	-0.22514199
141	0xbe4ea24f	-0.20179103
142	0x3db17fe0	0.08666968
143	0x3e05c769	0.1306435
144	0x3d9673b9	0.07346291
145	0x3e051785	0.12997253
146	0xbd58eb40	-0.052958727
147	0xbf0a76c6	-0.54087484
148	0xbd91455a	-0.07093306
149	0x3d389285	0.045061607
150	0xbc0dcfb2	-0.008655475
151	0x3d91a180	0.07110882
152	0x3e395ad6	0.18101057
153	0x3d163ae6	0.036677264
154	0xbd3bef04	-0.04588224
155	0x3bc0e6c8	0.0058868863
156	0x3bbfc77d	0.0058526383
157	0x3e03fff1	0.12890603
158	0xbeec360b	-0.46134982
159	0xbdd3e8b9	-0.10347123
160	0x3e086932	0.13321379
161	0x3d807f0a	0.06274231
162	0x3d9703f0	0.07373798
163	0xbdba2eae	-0.09090935
164	0x3c2cf83b	0.01055723
165	0x3e316254	0.17322665
166	0x3c029878	0.007970922
167	0x3e16e247	0.14734755
168	0x3c41a6bf	0.0118195405
169	0xbd21a265	-0.039461512
170	0xbd9b6977	-0.07588475
171	0xbc11d3b5	-0.008900573
172	0xbe198434	-0.14991838
173	0x3b4f2387	0.003160687
174	0xbe2652f8	-0.16242588
175	0x3d85579b	0.0651085
176	0x3e11ba26	0.14231166
177	0xbdf7a216	-0.12091462
178	0xbd810046	-0.0629888
179	0x3d470905	0.048592586
180	0x3d3680a0	0.04455626
181	0xbd9f8e02	-0.07790758
182	0x3d874e18	0.06606692
183	0xbe8c3b35	-0.2738892
184	0xbf25ab5a	-0.64714587
185	0xbd3ab602	-0.045583732
186	0x3d4ab9e9	0.049493704
187	0xbd4f34c1	-0.05058742
188	0xbc525643	-0.012837949
189	0xbeb2e43e	-0.3493976
190	0x3d0dcc82	0.034618862
191	0xbcdacee0	-0.026709974
192	0xbe303319	-0.17206992
193	0x3df2544e	0.11832486
194	0x3e806a66	0.25081176
195	0xbbecfe58	-0.0072324686
196	0xbec64f20	-0.38732243
197	0x3dcb6e62	0.09933163
198	0x3d83aba3	0.064292215
199	0xbf0fd8d5	-0.56190234
200	0xbe9451b1	-0.28968576
201	0x3dbf57c7	0.09342914
202	0xb7112200	-8.65059e-06
203	0x3d1b0fe4	0.03785695
204	0xbf5223e1	-0.82085997
205	0x3dfd45f0	0.12366855
206	0x3d0298e0	0.031884074
207	0xbcdb05db	-0.02673619
208	0x3d283aa8	0.041071564
209	0xbec52787	-0.3850672
210	0xbf0515eb	-0.5198657
211	0x3ca0b028	0.019615248
212	0x3e128d97	0.14311825
213	0x3d4abbeb	0.04949562
214	0x3e071b3d	0.13193984
215	0x3d8ba359	0.068182655
216	0xbf52a7a2	-0.8228704
217	0x3e028a87	0.12748156
218	0xbd018e5a	-0.031629898
219	0xbae10d4b	-0.0017170099
220	0x3cc4b50c	0.024012111
221	0xbd22d3bc	-0.039752707
222	0xbef12b3f	-0.47103307
223	0xbaa640a5	-0.001268406
224	0x3e32784f	0.17428707
225	0x3da505b1	0.08057726
226	0x3d6d52cb	0.057940286
227	0x3da20463	0.07910993
228	0xbe06d58b	-0.13167398
229	0x3c1d7f9d	0.009612945
230	0x3c3653bd	0.011128363
231	0x3c64df75	0.013969292
232	0xbf2ffda3	-0.68746394
233	0x3cb6a89d	0.022297198
234	0xbe9f48fc	-0.3111037
235	0xbf1ae724	-0.6050894
236	0x3d913ffe	0.07092284
237	0x3d3815e5	0.044942755
238	0xbe168653	-0.14699678
239	0xbdf39704	-0.11894038
240	0xbefb2e60	-0.4905882
241	0x3d2250f6	0.03962799
242	0x3d01d9e0	0.031701922
243	0x3e0c8ce7	0.13725625
244	0x3d5909fa	0.05298803
245	0xbf44b963	-0.7684538
246	0xbe869046	-0.26281947
247	0x3e0aa8d1	0.13540961
248	0x3e3ad7fa	0.18246451
249	0xbdb0f4ed	-0.08640466
250	0x3e532b0e	0.20621893
251	0x3d7cdf43	0.061736356
252	0xbd090d09	-0.033459697
253	0x3c085840	0.008321822
254	0xbf04b9e0	-0.5184612
255	0xbd1a012b	-0.03759877

layers.1.bias f4 [128]
0	0x3d5dba2f	0.054132637
1	0x3e2e7bda	0.17039433
2	0x3c4bee6d	0.012446982
3	0xbdd1ac49	-0.10237939
4	0xbd25042c	-0.04028718
5	0x3d296861	0.04135931
6	0x3ad28d00	0.001606375
7	0x3d680548	0.05664566
8	0x3e02a3d2	0.12757805
9	0xbbf4f099	-0.0074749705
10	0x3ddd8e4b	0.10818156
11	0x3b373b1b	0.0027958814
12	0x3c507100	0.012722254
13	0xbdb33351	-0.08750022
14	0xbc8d66b7	-0.017260892
15	0xbd6e1325	-0.058123726
16	0x3dd49324	0.10379627
17	0xbd6aa21d	-0.05728351
18	0x3d207613	0.039175104
19	0x3df0e3fb	0.11762234
20	0xbd22f4dc	-0.039784297
21	0x3db6751b	0.08909055
22	0x3d460248	0.04834202
23	0xbdb02806	-0.08601384
24	0x3dc5b9af	0.09654557
25	0xbd9bd7fb	-0.076095544
26	0xba3d90cf	-0.0007231356
27	0x3cc7fcb2	0.024412487
28	0x3d86be69	0.065792866
29	0xbda2b950	-0.07945502
30	0x3d4425ed	0.04788773
31	0x3d2a1e2c	0.04153268
32	0x3d3cc202	0.046083458
33	0xbd41bf9d	-0.047301877
34	0xbc5e3a52	-0.013563709
35	0x3d2178a5	0.039421696
36	0x3c5d38fa	0.013502354
37	0xbbc07d9a	-0.005874348
38	0x3d7ada42	0.061243303
39	0xbd389d67	-0.045071986
40	0x3cffff98	0.031249806
41	0x3d044113	0.032288622
42	0x3d939300	0.072057724
43	0x3c4f6ff9	0.012660974
44	0x3da3cab7	0.07997649
45	0xbd6bd83e	-0.05757927
46	0xbc9e5bae	-0.019330826
47	0x3d9d3def	0.076778285
48	0x3d949861	0.072556265
49	0xbd106584	-0.035253063
50	0x3e080333	0.1328247
51	0xbd30df62	-0.043181784
52	0x3dc472cb	0.095922075
53	0x3d20acf0	0.039227426
54	0xbdc7d0e3	-0.09756639
55	0xbd418f6d	-0.047255922
56	0xbdc26de9	-0.0949362
57	0xbd0a20c1	-0.033722643
58	0x3e346f5d	0.17620607
59	0xbd9832b3	-0.07431545
60	0x3a8a3c67	0.0010546566
61	0x3d550cf1	0.052014295
62	0x3d809481	0.06278325
63	0x3cd26ec3	0.02568758
64	0x3cc111d2	0.023568068
65	0xbd670754	-0.056403473
66	0xbd052f27	-0.03251567
67	0xbd6fbc26	-0.05852904
68	0xbd9b2826	-0.07576017
69	0xbd0803a1	-0.033206586
70	0xbc80acfb	-0.015707484
71	0x3d81b754	0.06333795
72	0x3e0cf0a0	0.13763666
73	0x3daeb8af	0.08531319
74	0xbd8fad1b	-0.07015439
75	0xbd660efa	-0.056166627
76	0xbcb87578	-0.022516951
77	0xbc1918d0	-0.009344295
78	0xbd8ecffc	-0.069732636
79	0xbd7e2f64	-0.062056914
80	0x3b171c57	0.0023057663
81	0xbd4c82bd	-0.04992937
82	0xbd1c6fa8	-0.03819242
83	0xbcd90029	-0.026489334
84	0x3d039623	0.032125603
85	0xbd2d4c4a	-0.042309083
86	0x3d86a49f	0.06574368
87	0x3cbc2072	0.02296469
88	0x3d5a5174	0.053300336
89	0xbd8304f7	-0.06397431
90	0x3b2b1909	0.0026107451
91	0x3d897e07	0.06713491
92	0x3cbf4833	0.023349857
93	0xbd59aeb5	-0.05314513
94	0x3b9473cf	0.004530407
95	0x3d85033b	0.06494757
96	0xbcfe9022	-0.031074587
97	0x3b904574	0.0044028107
98	0xbd90932e	-0.07059322
99	0xbdac0d43	-0.08400967
100	0xbdb0b01f	-0.086273424
101	0x3dcbb2ec	0.09946236
102	0xbcde13fb	-0.027109137
103	0x3b651353	0.0034954145
104	0x3d9685f9	0.07349772
105	0xbda69555	-0.081339516
106	0x3cbb546b	0.022867402
107	0x3d8d619e	0.069033846
108	0xbceadde4	-0.028670259
109	0x3dc492a0	0.09598279
110	0x3cc4b293	0.024010932
111	0x3dc9f2a9	0.09860737
112	0x3cb7c07f	0.022430656
113	0xbdb7ed6b	-0.08980831
114	0xbd610761	-0.054938678
115	0x3d879b7a	0.06621452
116	0x3c58d0d5	0.013233383
117	0xbd897864	-0.06712416
118	0xbd3e6c2c	-0.04648988
119	0xbd9348f0	-0.07191646
120	0xbdc74ade	-0.09731077
121	0xbdb20a8c	-0.08693418
122	0x3d730f3e	0.059340708
123	0xbdb4424c	-0.088017076
124	0x3d830b35	0.06398622
125	0xbdaa0e9c	-0.08303568
126	0xbd792456	-0.06082567
127	0xbdaa8663	-0.083264135

predict.weight f4 [5, 128]
0	0xbcac13ef	-0.021005599
1	0x3d53a597	0.05167159
2	0x3e075ed4	0.13219768
3	0xbd15da37	-0.03658506
4	0xbd8f5336	-0.06998293
5	0x3dbbd0c5	0.09170679
6	0x3bcc3335	0.0062316903
7	0x3dd49ae6	0.10381107
8	0x3eda1ace	0.42598575
9	0xbd2447ad	-0.040107418
10	0xbeea53c3	-0.4576703
11	0x3e82194c	0.25409925
12	0x3df4aea3	0.11947372
13	0x3cf473a8	0.029840305
14	0xbd3aa9cc	-0.045572087
15	0x3e1165e6	0.14199027
16	0x3c08c8f2	0.00834869
17	0xbcbf6cc6	-0.023367297
18	0x399c6815	0.00029832186
19	0x3d9e4069	0.07727129
20	0xbd8f3067	-0.06991654
21	0x3d8163c1	0.06317855
22	0x3e25393f	0.16135119
23	0x3bfdecf0	0.0077491924
24	0x3e55c71b	0.20876734
25	0x3d97e1f4	0.07416144
26	0xbe40106e	-0.18756267
27	0xbdae16b2	-0.085004225
28	0x3cbd0485	0.023073444
29	0xbc483538	-0.01221972
30	0x3e247cf8	0.16063297
31	0x379a6924	1.840719e-05
32	0xbd2b860e	-0.04187589
33	0x3e2be317	0.16785847
34	0x3d1593f4	0.036518052
35	0xbca1226d	-0.019669736
36	0xbd8f6fe6	-0.07003765
37	0x3c738a9c	0.01486459
38	0x3cea3eab	0.028594336
39	0x3d4c7b91	0.04992253
40	0xbda8524d	-0.08218823
41	0xbd5d4407	-0.054019954
42	0xbc9bc808	-0.01901628
43	0x3d504619	0.0508481
44	0x3d389b6a	0.04507009
45	0xbef9eac4	-0.48811924
46	0x3e00bdbf	0.12572382
47	0x3e25ade9	0.16179623
48	0x3d8e9ab2	0.069630995
49	0x3dc37da9	0.09545452
50	0x3e851e79	0.2599981
51	0x3e24611d	0.16052671
52	0x3bfc7ace	0.007705069
53	0xbd26b489	-0.040699515
54	0x3e931161	0.28724197
55	0x3e1a689c	0.15078968
56	0x3e69cc26	0.22831783
57	0xbcb8c6e0	-0.022555768
58	0x3eae96a3	0.34099302
59	0x3da64ff0	0.081207156
60	0x3c41a161	0.011818261
61	0xbe565856	-0.20932135
62	0x3dde3640	0.10850191
63	0x3e207b11	0.15671946
64	0x3c9b80d7	0.018982334
65	0xbd30c319	-0.04315481
66	0x3d27194c	0.04079561
67	0x3e261d0a	0.16222015
68	0xbd12faff	-0.0358839
69	0x3d37fe9a	0.04492054
70	0x3e3cebca	0.18449321
71	0x3e00d066	0.12579498
72	0x3d2cbb84	0.042171016
73	0xbc6d6f0b	-0.014491807
74	0x3e0ff972	0.1406
75	0xbda14f52	-0.07876457
76	0x3d9775b6	0.073954985
77	0x3cdecb4e	0.027196553
78	0xbbfa6872	-0.0076418454
79	0xbd173ce7	-0.036923315
80	0x3e13caff	0.14432906
81	0xbd2fd1a9	-0.042924557
82	0x3d420199	0.047364805
83	0x3d5c4863	0.05377997
84	0xbd945ea2	-0.07244612
85	0xbd326eb3	-0.043562602
86	0xbd082007	-0.03323367
87	0x3e40dc12	0.1883395
88	0x3cfb1681	0.03065038
89	0xbc9c153c	-0.019053094
90	0x3c2715a9	0.010198035
91	0xbd8df929	-0.06932289
92	0x3d9d550c	0.07682237
93	0xbd95ba53	-0.07310929
94	0xbe1ee64d	-0.1551754
95	0xbd09e013	-0.03366096
96	0x3e1e81ed	0.1547925
97	0x3d51b4d1	0.05119783
98	0x3d6f24e8	0.058384806
99	0x3dba063c	0.0908322
100	0xbcd922a8	-0.026505783
101	0xbed58a2c	-0.4170698
102	0x3ceb365d	0.028712446
103	0x3e34d62e	0.17659828
104	0x3d61ae59	0.05509791
105	0x3e4175e3	0.18892626
106	0xbdc8d6bb	-0.098065816
107	0x3d7a06be	0.061041586
108	0x3cfcdae1	0.030866088
109	0x3d9fd44d	0.07804165
110	0xbc854422	-0.01626784
111	0x3e0de8b4	0.138583
112	0x3e1ec5ce	0.15505144
113	0x3c89149b	0.016733458
114	0xbc9aaecc	-0.018882178
115	0x3d5df0a6	0.05418458
116	0xbc2b2680	-0.010446191
117	0xbd9d1016	-0.07669084
118	0xbcbe603b	-0.023239246
119	0x3d0f55f8	0.034994096
120	0x3dadf081	0.08493138
121	0xbce7eea5	-0.028312037
122	0xbd1408a3	-0.03614105
123	0xbbedb282	-0.007253946
124	0xb99b8d6d	-0.00029669274
125	0xbc132681	-0.008981348
126	0xbd00bdf4	-0.031431153
127	0xbd98125d	-0.074253775
128	0xbdafe6f6	-0.08588974
129	0xbe993535	-0.29923406
130	0x3d4f2627	0.050573494
131	0x3d071535	0.03297921
132	0xbc2c6e33	-0.01052432
133	0x3d7288e4	0.05921258
134	0x3d94a990	0.07258904
135	0x3e04367b	0.12911408
136	0xbe4312ef	-0.19050191
137	0x3dfb85d0	0.12281382
138	0xbebb8ef1	-0.36632493
139	0x3e116de5	0.14202078
140	0x3d22434c	0.03961496
141	0x3dece912	0.11567892
142	0xbc9a0751	-0.018802317
143	0x3dfdc2a6	0.12390642
144	0x3e17ade7	0.14812432
145	0xbd834c53	-0.06411042
146	0x3cd06155	0.025437037
147	0xbba2ab99	-0.0049643037
148	0x3d950fc6	0.07278399
149	0x3db04e02	0.08608629
150	0x3d8436fa	0.064557984
151	0xbd86ee40	-0.06588411
152	0x3f611abb	0.8793141
153	0x3b1fe513	0.0024398013
154	0xbc8e2544	-0.017351754
155	0xbb0de08a	-0.0021648728
156	0x3de42b48	0.11141068
157	0xbc69c35f	-0.0142677715
158	0x3ce53d53	0.027983343
159	0x3e07d8cc	0.13266295
160	0xbd9bd563	-0.0760906
161	0x3e211df6	0.15734085
162	0x3d07d9be	0.03316664
163	0x3d41d21f	0.047319528
164	0xbd0ff6a9	-0.035147343
165	0x3e31ebed	0.17375155
166	0x3d0ba2a7	0.034090664
167	0xbd3c0495	-0.045902807
168	0xbd902300	-0.07037926
169	0xbd867289	-0.065648146
170	0x3d58e96a	0.052956976
171	0xbc7f45a2	-0.015580567
172	0xbc92921d	-0.017891938
173	0xbe7a2c1a	-0.24430886
174	0x3e16712f	0.14691614
175	0x3e0bc262	0.1364837
176	0x3e0af46c	0.13569802
177	0x3dbf99cc	0.09355506
178	0x3f058a32	0.52163994
179	0x3d97a90a	0.074052885
180	0x3ded1d73	0.115778826
181	0x3d98aa20	0.07454324
182	0x3ded1e11	0.11578
183	0x3dc38b7a	0.095480874
184	0x3e637282	0.2221165
185	0xbd843784	-0.06455901
186	0xbe92e44d	-0.28689805
187	0xbc9704d8	-0.018434927
188	0xbd69d34e	-0.05708628
189	0xbd7a9c55	-0.061184246
190	0x3cc7e06a	0.024399001
191	0xbcd04855	-0.025425116
192	0x3d477c0b	0.04870228
193	0x3da90b60	0.08254123
194	0x3d651a96	0.055933557
195	0x3cbfa175	0.023392418
196	0xbd98d5ee	-0.07462679
197	0xbd5a8b8c	-0.05335574
198	0x3e3ab1b9	0.18231858
199	0x3e2cfe04	0.16893774
200	0x3e1a372c	0.15060109
201	0x3c5c2bea	0.013438204
202	0x3d9d5a97	0.07683294
203	0xbd0b701c	-0.034042463
204	0xbb527b55	-0.0032116969
205	0x3d3186a8	0.04334131
206	0xbca68b3d	-0.020330066
207	0x3d80ab7e	0.062827095
208	0x3d4a6446	0.049412034
209	0xbba79285	-0.005113902
210	0x38cf892d	9.89608e-05
211	0x3e13f03f	0.14447115
212	0xbcdfa669	-0.02730103
213	0x3d52f0c5	0.051499147
214	0xbba1900a	-0.004930501
215	0xbc7ecfe0	-0.015552491
216	0x3c429ea8	0.011878647
217	0xbd975b3e	-0.0739045
218	0x3d97e178	0.074160516
219	0x3c6a75ec	0.014310341
220	0x3db9b1cf	0.090671174
221	0x3d9e32d5	0.07724539
222	0x3e723045	0.23651226
223	0x3ceebbc1	0.029142262
224	0x3d437465	0.047718424
225	0x3e28a70d	0.16469975
226	0x3ad610c6	0.0016331903
227	0x3e113e3a	0.14183894
228	0x3d8db134	0.069185644
229	0x3e8cfe0f	0.2753758
230	0xbc295737	-0.010335735
231	0x3dea43d1	0.11438716
232	0x3e07cd66	0.13261947
233	0x3de0c265	0.10974578
234	0x3ccf3e68	0.025298312
235	0xbadb88d9	-0.0016749158
236	0xbd8f9799	-0.07011337
237	0x3defa3c1	0.117011555
238	0xbd33babb	-0.043879252
239	0x3ddc4824	0.10755947
240	0x3d63f1c6	0.055650495
241	0xbda1444f	-0.07874357
242	0x3d3c2c83	0.045940887
243	0x3d1bd26b	0.038042467
244	0x3d2ac776	0.041694127
245	0x3cd41bec	0.02589222
246	0xbb379fed	-0.0028018907
247	0xbca5677a	-0.020190943
248	0x3da7e923	0.08198764
249	0x3c2b49f2	0.010454642
250	0x3e2b5cf1	0.16734673
251	0xbd949efd	-0.07256887
252	0x3db3978c	0.0876914
253	0x3d92cfcf	0.071685426
254	0x3dc125fe	0.094310746
255	0xbdb436d4	-0.0879952

predict.bias f4 [5]
0	0xbcf10d9d	-0.029425437
1	0x3d43df48	0.04782036
2	0xbd1143d4	-0.035465077
3	0xbd1699bc	-0.036767706
4	0x3c071e23	0.008246931

exp_avg f4 [128, 25]
0	0x02190077	1.1240798e-37
1	0x02190077	1.1240798e-37
2	0x0212dabe	1.0789162e-37
3	0x021bd8e0	1.1449842e-37
4	0x821dafb0	-1.1584958e-37
5	0x02190077	1.1240798e-37
6	0x0211e229	1.0717822e-37
7	0x021243ff	1.07459e-37
8	0x8213b4d1	-1.0851746e-37
9	0x021dafb0	1.1584958e-37
10	0x02190077	1.1240798e-37
11	0x02134976	1.0820937e-37
12	0x8212dabe	-1.0789162e-37
13	0x8210541f	-1.0603591e-37
14	0x021dafb0	1.1584958e-37
15	0x02190077	1.1240798e-37
16	0x0212ed2f	1.0794454e-37
17	0x021b76e8	1.1421726e-37
18	0x8216619c	-1.1048272e-37
19	0x021dafb0	1.1584958e-37
20	0x02190077	1.1240798e-37
21	0x0212fda7	1.0799181e-37
22	0x021b76e8	1.1421726e-37
23	0x82137d04	-1.0835732e-37
24	0x021dafb0	1.1584958e-37
25	0x00000000	0.0
26	0x00000000	0.0
27	0x00000000	0.0
28	0x00000000	0.0
29	0x00000000	0.0
30	0x00000000	0.0
31	0x00000000	0.0
32	0x00000000	0.0
33	0x00000000	0.0
34	0x00000000	0.0
35	0x00000000	0.0
36	0x00000000	0.0
37	0x00000000	0.0
38	0x00000000	0.0
39	0x00000000	0.0
40	0x00000000	0.0
41	0x00000000	0.0
42	0x00000000	0.0
43	0x00000000	0.0
44	0x00000000	0.0
45	0x00000000	0.0
46	0x00000000	0.0
47	0x00000000	0.0
48	0x00000000	0.0
49	0x00000000	0.0
50	0x3d268e5d	0.040663112
51	0x3d224174	0.039613202
52	0x3ceeae1c	0.029135756
53	0x3c5a334e	0.013317896
54	0x392232df	0.00015468475
55	0x3d268e5d	0.040663112
56	0x3b21385d	0.0024600246
57	0xbb79df10	-0.003812734
58	0xbb745d34	-0.0037286999
59	0xba2763fa	-0.0006385442
60	0x3d268e5d	0.040663112
61	0x3b94223c	0.0045206826
62	0xbc8baa3e	-0.017048951
63	0xbb532334	-0.0032217028
64	0x39b666c0	0.000347903
65	0x3d268e5d	0.040663112
66	0x3c41ed96	0.01183643
67	0xbc733ef2	-0.01484655
68	0xbb82d26a	-0.0039923685
69	0x381083d2	3.4455043e-05
70	0x3d268e5d	0.040663112
71	0x3c884be2	0.016637746
72	0xbc31f9de	-0.010862796
73	0xbb5764c0	-0.0032866448
74	0xb94c878c	-0.00019505451
75	0x3d0ec4c0	0.034855604
76	0x3d139e8d	0.036039878
77	0x3cc4251a	0.023943473
78	0x3c32e390	0.010918513
79	0x3702f1a8	7.804869e-06
80	0x3d0ec4c0	0.034855604
81	0xba8dc757	-0.0010816854
82	0x3b9d2556	0.0047957106
83	0xbb9f0392	-0.0048527205
84	0x3a25db01	0.00063268846
85	0x3d0ec4c0	0.034855604
86	0x3b80e10a	0.0039330767
87	0x3bb956b4	0.005656088
88	0xbad02fe8	-0.0015883418
89	0x39b03acd	0.00033613146
90	0x3d0ec4c0	0.034855604
91	0x3c4ab292	0.012371676
92	0xbbbc3c3c	-0.005744485
93	0xbb525799	-0.003209567
94	0xb85ebea6	-5.310648e-05
95	0x3d0ec4c0	0.034855604
96	0x3c53e4c8	0.012932964
97	0xbce11bf7	-0.027479155
98	0xbb5308a6	-0.00322012
99	0xb9fe9b0f	-0.00048562183
100	0x3c45c025	0.012069737
101	0x3c3d1385	0.011540298
102	0x3c6e0209	0.014526852
103	0x3b85f2de	0.00408779
104	0x38f88c16	0.000118516546
105	0x3c45c025	0.012069737
106	0x3ab2dea0	0.001364667
107	0xbbb4bcc9	-0.005515669
108	0xba57b068	-0.00082278857
109	0xb9aa2062	-0.00032449054
110	0x3c45c025	0.012069737
111	0x3a2a3036	0.00064921693
112	0xbc7eee5f	-0.015559762
113	0xbaa70792	-0.0012743345
114	0x38330769	4.2683827e-05
115	0x3c45c025	0.012069737
116	0x3b6c820f	0.0036088263
117	0xbc313278	-0.010815255
118	0xbac85216	-0.0015283253
119	0xb705b788	-7.970149e-06
120	0x3c45c025	0.012069737
121	0x3ba380e4	0.00498973
122	0xbc1a5215	-0.009418984
123	0xbaa57b4b	-0.0012625245
124	0xb8a353b2	-7.788035e-05
125	0x3bdcb305	0.006735208
126	0x3bcd1a77	0.0062592584
127	0x3bfeeadc	0.0077794623
128	0x3b2d5a52	0.002645154
129	0x38b0a08f	8.42224e-05
130	0x3bdcb305	0.006735208
131	0x3aa5e58d	0.0012656912
132	0xbb5d5d07	-0.0033777372
133	0xba0e2008	-0.0005421643
134	0xb994af68	-0.00028359448
135	0x3bdcb305	0.006735208
136	0x39a3c566	0.00031236856
137	0xbc3b3acc	-0.0114275925
138	0xba8eaa23	-0.0010884445
139	0x37a5597e	1.9711206e-05
140	0x3bdcb305	0.006735208
141	0x3b23484a	0.0024914914
142	0xbbdb6b3b	-0.0066961325
143	0xbaa19142	-0.0012326615
144	0xb73d8d78	-1.1298216e-05
145	0x3bdcb305	0.006735208
146	0x3b3a158f	0.0028394198
147	0xbba88e88	-0.005143944
148	0xba83a889	-0.0010044734
149	0xb79eae92	-1.8916358e-05
150	0x00000000	0.0
151	0x00000000	0.0
152	0x00000000	0.0
153	0x00000000	0.0
154	0x00000000	0.0
155	0x00000000	0.0
156	0x00000000	0.0
157	0x00000000	0.0
158	0x00000000	0.0
159	0x00000000	0.0
160	0x00000000	0.0
161	0x00000000	0.0
162	0x00000000	0.0
163	0x00000000	0.0
164	0x00000000	0.0
165	0x00000000	0.0
166	0x00000000	0.0
167	0x00000000	0.0
168	0x00000000	0.0
169	0x00000000	0.0
170	0x00000000	0.0
171	0x00000000	0.0
172	0x00000000	0.0
173	0x00000000	0.0
174	0x00000000	0.0
175	0x3bdfc055	0.0068283477
176	0x3bd5d86d	0.006526044
177	0x3bb13864	0.0054083336
178	0x3b164d3c	0.002293422
179	0x3836b0eb	4.355695e-05
180	0x3bdfc055	0.0068283477
181	0x3a0b6706	0.0005317781
182	0xbac19403	-0.0014768842
183	0xba26c5ba	-0.0006361861
184	0xb9105786	-0.00013765515
185	0x3bdfc055	0.0068283477
186	0x3a588f1e	0.0008261072
187	0xbb23365e	-0.0024904232
188	0xba111b36	-0.0005535366
189	0x38d2ddfc	0.00010054928
190	0x3bdfc055	0.0068283477
191	0x3b28b940	0.0025745183
192	0xbba76843	-0.0051088645
193	0xba1f3a68	-0.0006074072
194	0xb88011af	-6.1068095e-05
195	0x3bdfc055	0.0068283477
196	0x3b3abc9c	0.0028493768
197	0xbb033bbe	-0.0020024623
198	0xba2751ab	-0.0006382714
199	0xb80bee65	-3.3362205e-05
200	0x3babf7b3	0.005248034
201	0x3b9e4217	0.004829656
202	0x3ba7080a	0.005097394
203	0x3b0f4fee	0.002186771
204	0x39554fec	0.00020343036
205	0x3babf7b3	0.005248034
206	0x3a6caba0	0.00090282597
207	0xbbbc75db	-0.005751354
208	0xba271d5c	-0.00063749193
209	0xb9a4aab0	-0.0003140769
210	0x3babf7b3	0.005248034
211	0x3ae9056b	0.0017778104
212	0xbbb2cd70	-0.005456619
213	0xba37c18b	-0.0007009736
214	0xb8b6222c	-8.684801e-05
215	0x3babf7b3	0.005248034
216	0x3b3653ce	0.0027820948
217	0xbb950da6	-0.004548746
218	0xba45f81b	-0.0007551924
219	0xb9782629	-0.00023665339
220	0x3babf7b3	0.005248034
221	0x3b1b3c7c	0.0023687175
222	0xbb31bf90	-0.0027122237
223	0xba832e33	-0.0010008275
224	0xb92494af	-0.00015695648
225	0x3cab37b8	0.020900592
226	0x3ca36b9e	0.019948777
227	0x3c9f9d5a	0.01948421
228	0x3bec5fdb	0.0072135753
229	0x392a61fa	0.00016248962
230	0x3cab37b8	0.020900592
231	0x3b0797d6	0.0020689867
232	0xbbe558d8	-0.0069991164
233	0xbae0495e	-0.0017111709
234	0xb9ffd99e	-0.00048799528
235	0x3cab37b8	0.020900592
236	0x3ad63e2f	0.0016345436
237	0xbca7ff31	-0.020507427
238	0xbb11bc4a	-0.0022237473
239	0x389e1e8b	7.539716e-05
240	0x3cab37b8	0.020900592
241	0x3bcc5f64	0.0062369574
242	0xbc5b6262	-0.0133901555
243	0xbb1f2413	-0.0024282977
244	0xb7c49ae8	-2.3437155e-05
245	0x3cab37b8	0.020900592
246	0x3c0ee360	0.008721203
247	0xbc0bfbcc	-0.00854392
248	0xbb058510	-0.00203735
249	0xb8d9c888	-0.00010384718
250	0xbd4d89f1	-0.05018038
251	0xbd4aa63e	-0.049474947
252	0xbd08f089	-0.033432517
253	0xbc89c7e0	-0.01681894
254	0xb9058dc7	-0.00012736685
255	0xbd4d89f1	-0.05018038

exp_avg_sq f4 [128, 25]
0	0x27c2ad45	5.4033676e-15
1	0x27c2ad45	5.4033676e-15
2	0x16637ab3	1.8375631e-25
3	0x261f1d77	5.520414e-16
4	0x159425ef	5.983657e-26
5	0x27c2ad45	5.4033676e-15
6	0x2303e2ca	7.149549e-18
7	0x262d272b	6.0074515e-16
8	0x239d0bb1	1.7026926e-17
9	0x159425ef	5.983657e-26
10	0x27c2ad45	5.4033676e-15
11	0x250212be	1.1282053e-16
12	0x201a859f	1.3088519e-19
13	0x23e48161	2.4774604e-17
14	0x159425ef	5.983657e-26
15	0x27c2ad45	5.4033676e-15
16	0x25965411	2.6077818e-16
17	0x272d0af7	2.4014517e-15
18	0x24b1e063	7.714164e-17
19	0x159425ef	5.983657e-26
20	0x27c2ad45	5.4033676e-15
21	0x2657c283	7.485672e-16
22	0x272d0af7	2.4014517e-15
23	0x23ee9fd1	2.5871697e-17
24	0x159425ef	5.983657e-26
25	0x00000000	0.0
26	0x00000000	0.0
27	0x00000000	0.0
28	0x00000000	0.0
29	0x00000000	0.0
30	0x00000000	0.0
31	0x00000000	0.0
32	0x00000000	0.0
33	0x00000000	0.0
34	0x00000000	0.0
35	0x00000000	0.0
36	0x00000000	0.0
37	0x00000000	0.0
38	0x00000000	0.0
39	0x00000000	0.0
40	0x00000000	0.0
41	0x00000000	0.0
42	0x00000000	0.0
43	0x00000000	0.0
44	0x00000000	0.0
45	0x00000000	0.0
46	0x00000000	0.0
47	0x00000000	0.0
48	0x00000000	0.0
49	0x00000000	0.0
50	0x3d055606	0.03255274
51	0x3d029eaf	0.031889614
52	0x3bbbde62	0.005733297
53	0x3b4afe84	0.0030974457
54	0x3575e197	9.159789e-07
55	0x3d055606	0.03255274
56	0x38ccdf5d	9.769083e-05
57	0x3b598522	0.0033190926
58	0x39465195	0.00018913143
59	0x362803cf	2.5036168e-06
60	0x3d055606	0.03255274
61	0x3a4fd7b2	0.00079285644
62	0x3b7ea802	0.0038857465
63	0x39303ef3	0.00016808118
64	0x364d8884	3.0626843e-06
65	0x3d055606	0.03255274
66	0x3b1a1252	0.0023509455
67	0x3b5dcb09	0.0033842942
68	0x39374a8f	0.00017480015
69	0x360a0ef8	2.0572315e-06
70	0x3d055606	0.03255274
71	0x3ba1ab85	0.004933777
72	0x3b660ac3	0.003510163
73	0x393b2fda	0.00017851536
74	0x35b95130	1.3807203e-06
75	0x3cf66842	0.03007901
76	0x3cf3615e	0.029709514
77	0x3bafed92	0.0053688968
78	0x3b3c26d1	0.002870966
79	0x3582abbe	9.735738e-07
80	0x3cf66842	0.03007901
81	0x38b5a52c	8.661518e-05
82	0x3b2be7b4	0.0026230635
83	0x394bca43	0.00019434937
84	0x36053266	1.984788e-06
85	0x3cf66842	0.03007901
86	0x3a42b5a6	0.00074275804
87	0x3bbbf797	0.005736302
88	0x392cd17e	0.0001648124
89	0x363bc615	2.798047e-06
90	0x3cf66842	0.03007901
91	0x3b145002	0.0022630696
92	0x3b8069e6	0.003918874
93	0x39384dca	0.00017576586
94	0x363dfff4	2.831218e-06
95	0x3cf66842	0.03007901
96	0x3b963612	0.0045840824
97	0x3b40e19a	0.0029431344
98	0x39456887	0.00018826324
99	0x36172c31	2.2526476e-06
100	0x3bfa98ae	0.0076475954
101	0x3bf464bf	0.007458299
102	0x3abc6d4f	0.0014375838
103	0x3a3ea618	0.00072726747
104	0x345cc249	2.0559777e-07
105	0x3bfa98ae	0.0076475954
106	0x37e54e46	2.7335376e-05
107	0x3a4526e3	0.0007520748
108	0x3836ddd2	4.3598768e-05
109	0x35468e29	7.396762e-07
110	0x3bfa98ae	0.0076475954
111	0x39428d21	0.00018553856
112	0x3a46d092	0.000758418
113	0x3827f968	4.004818e-05
114	0x353c514e	7.015377e-07
115	0x3bfa98ae	0.0076475954
116	0x3a132a09	0.00056138687
117	0x3a291f1b	0.00064514735
118	0x3824a227	3.9251663e-05
119	0x34ccad6f	3.812415e-07
120	0x3bfa98ae	0.0076475954
121	0x3a9acd56	0.0011810462
122	0x3a533f70	0.0008058464
123	0x382a5f81	4.0620103e-05
124	0x34a36b6f	3.0439284e-07
125	0x3b5fb28d	0.0034133524
126	0x3b5ae8a6	0.003340283
127	0x3a0bdb36	0.0005335094
128	0x39abcaeb	0.00032766847
129	0x33c8d363	9.351677e-08
130	0x3b5fb28d	0.0034133524
131	0x37429c32	1.1599668e-05
132	0x39d69aa4	0.00040932477
133	0x37a7dfd4	2.001218e-05
134	0x34a73436	3.1144162e-07
135	0x3b5fb28d	0.0034133524
136	0x389f5302	7.597172e-05
137	0x39ac4f58	0.00032865512
138	0x37a5fccb	1.9787249e-05
139	0x34caee85	3.7798978e-07
140	0x3b5fb28d	0.0034133524
141	0x397dd312	0.0002420659
142	0x399d4dad	0.00030003247
143	0x37990d44	1.8245199e-05
144	0x3433d2d5	1.6747374e-07
145	0x3b5fb28d	0.0034133524
146	0x3a061bf6	0.0005115861
147	0x39d04fbd	0.0003973226
148	0x379d9356	1.8784467e-05
149	0x340e1d6b	1.3235483e-07
150	0x00000000	0.0
151	0x00000000	0.0
152	0x00000000	0.0
153	0x00000000	0.0
154	0x00000000	0.0
155	0x00000000	0.0
156	0x00000000	0.0
157	0x00000000	0.0
158	0x00000000	0.0
159	0x00000000	0.0
160	0x00000000	0.0
161	0x00000000	0.0
162	0x00000000	0.0
163	0x00000000	0.0
164	0x00000000	0.0
165	0x00000000	0.0
166	0x00000000	0.0
167	0x00000000	0.0
168	0x00000000	0.0
169	0x00000000	0.0
170	0x00000000	0.0
171	0x00000000	0.0
172	0x00000000	0.0
173	0x00000000	0.0
174	0x00000000	0.0
175	0x3b225771	0.0024771357
176	0x3b1f8566	0.0024340986
177	0x39d89da4	0.00041316182
178	0x397958ec	0.00023779616
179	0x33957026	6.958753e-08
180	0x3b225771	0.0024771357
181	0x36f651f5	7.3409124e-06
182	0x3997495e	0.00028855627
183	0x37791661	1.4846767e-05
184	0x3457e2b6	2.0105912e-07
185	0x3b225771	0.0024771357
186	0x38793298	5.9413345e-05
187	0x399e7185	0.00030220687
188	0x37671267	1.3772958e-05
189	0x3494c8ee	2.7713344e-07
190	0x3b225771	0.0024771357
191	0x393652d1	0.00017387724
192	0x3997b8b5	0.00028938582
193	0x3768b727	1.3870921e-05
194	0x344565ce	1.8384091e-07
195	0x3b225771	0.0024771357
196	0x39c2ef2d	0.00037180763
197	0x3988a5e4	0.0002606354
198	0x3770a468	1.4343394e-05
199	0x33eea5f2	1.1112924e-07
200	0x3b46d981	0.0030342045
201	0x3b43b81a	0.0029864372
202	0x3a281281	0.00064114487
203	0x399754c3	0.00028864117
204	0x33d0e526	9.7274366e-08
205	0x3b46d981	0.0030342045
206	0x3725b095	9.87588e-06
207	0x39c9adea	0.00038467284
208	0x378d036c	1.6810103e-05
209	0x349ec7de	2.9575216e-07
210	0x3b46d981	0.0030342045
211	0x38953e4e	7.116479e-05
212	0x39cdac94	0.00039229228
213	0x3791fdc3	1.7403514e-05
214	0x34f37a25	4.535115e-07
215	0x3b46d981	0.0030342045
216	0x396336cb	0.00021668819
217	0x39b4d9f3	0.0003449466
218	0x37851e6d	1.5869004e-05
219	0x34122634	1.3611208e-07
220	0x3b46d981	0.0030342045
221	0x39f3db8a	0.0004651214
222	0x39c50e62	0.00037585484
223	0x3787cd04	1.6188722e-05
224	0x34060292	1.2480658e-07
225	0x3c554b8c	0.0130185
226	0x3c504e61	0.0127139995
227	0x3b24fcab	0.0025175016
228	0x3aa21789	0.0012366633
229	0x34c34b91	3.6376562e-07
230	0x3c554b8c	0.0130185
231	0x3837d300	4.382711e-05
232	0x3aa9cd0d	0.0012954787
233	0x38984380	7.260498e-05
234	0x35a78ae5	1.2482893e-06
235	0x3c554b8c	0.0130185
236	0x39a34aca	0.00031145505
237	0x3aaecad4	0.0013335594
238	0x388f14fd	6.822681e-05
239	0x35b2acf3	1.3312368e-06
240	0x3c554b8c	0.0130185
241	0x3a79771b	0.0009516344
242	0x3a95d94d	0.0011432559
243	0x38893b48	6.543711e-05
244	0x352511a7	6.149298e-07
245	0x3c554b8c	0.0130185
246	0x3b02b486	0.0019944026
247	0x3ab32869	0.0013668659
248	0x388c460f	6.68877e-05
249	0x35084dcb	5.077715e-07
250	0x3d4afd6a	0.04955808
251	0x3d4950c2	0.049149282
252	0x3bcbfa95	0.00622494
253	0x3b9bb95a	0.0047523202
254	0x35f66e20	1.8360479e-06
255	0x3d4afd6a	0.04955808

exp_avg f4 [128]
0	0x02190077	1.1240798e-37
1	0x00000000	0.0
2	0x3d268e5c	0.04066311
3	0x3d0ec4c0	0.034855604
4	0x3c45c01e	0.01206973
5	0x3bdcb2ff	0.006735205
6	0x00000000	0.0
7	0x3bdfc053	0.0068283468
8	0x3babf7b6	0.0052480353
9	0x3cab37b8	0.020900592
10	0xbd4d89f1	-0.05018038
11	0xbc1a4da2	-0.009417923
12	0x3c3d96c6	0.011571592
13	0x3db9da2c	0.09074816
14	0x021ba4e4	1.1434923e-37
15	0x3d15ae7b	0.03654335
16	0x3cbded54	0.023184456
17	0x3ce35991	0.02775267
18	0x00000000	0.0
19	0x3ad97e78	0.0016593477
20	0x3b7e8304	0.0038835416
21	0x00000000	0.0
22	0x3cb4fd0f	0.022093324
23	0xbbc28fcd	-0.0059375525
24	0xbdc8f25d	-0.09811852
25	0x3ab71d38	0.00139705
26	0x00000000	0.0
27	0x3d086c54	0.033306435
28	0x3cd18d89	0.025580185
29	0x3c7f702c	0.015590709
30	0x3dda8ddd	0.106715895
31	0x021225e3	1.0737259e-37
32	0x3baed008	0.005334858
33	0x00000000	0.0
34	0x00000000	0.0
35	0x3c835d47	0.016035689
36	0x3c1c03f0	0.009522423
37	0x3b171085	0.0023050618
38	0x021a1f53	1.1323123e-37
39	0x3c3731ba	0.011181289
40	0x3b9c4ae3	0.0047696694
41	0x3c2004f6	0.009766808
42	0xbcc83898	-0.024441049
43	0x2526f6c2	1.448181e-16
44	0x3dcd9d86	0.10039811
45	0x02156815	1.0976661e-37
46	0x3b64be82	0.003490359
47	0x00000000	0.0
48	0x3980f424	0.0002459596
49	0x3d375ea2	0.044767983
50	0x0213d850	1.0861933e-37
51	0xbd39acb6	-0.045330726
52	0x3cc6d1ac	0.024269901
53	0x00000000	0.0
54	0x3c7675c5	0.015042727
55	0xbd077064	-0.03306617
56	0x3d8b3f22	0.06799151
57	0x3d2fb75c	0.042899475
58	0x3c77bbf0	0.015120491
59	0xbbc2f43c	-0.005949525
60	0x3ca8b966	0.020596217
61	0x3e375a4e	0.17905542
62	0x00000000	0.0
63	0x3d78f2ca	0.060778417
64	0x3d35bb01	0.044367794
65	0xb9b5d048	-0.00034678192
66	0xbe2c3496	-0.16816935
67	0xbaa228a0	-0.0012371726
68	0x3c5dfdc1	0.013549269
69	0xba30d278	-0.00067452295
70	0x021592cd	1.0988921e-37
71	0x3e1e51da	0.15460911
72	0x3c5f2949	0.013620683
73	0x3ca96dea	0.020682294
74	0x3c8d4cbc	0.017248504
75	0x00000000	0.0
76	0x3d14da43	0.036340963
77	0xbb1faeea	-0.0024365732
78	0x3cf9ac78	0.030477747
79	0x00000000	0.0
80	0x00000000	0.0
81	0x3cf6f0be	0.030144092
82	0x3c0fd1d8	0.008778058
83	0x00000000	0.0
84	0x3cc0ea50	0.023549229
85	0xba6762f8	-0.0008826698
86	0xbb4e71b9	-0.003150089
87	0x00000000	0.0
88	0x3da46d6a	0.080286816
89	0x3b04ab5e	0.0020243744
90	0x3cc8724b	0.024468562
91	0x02124774	1.0746892e-37
92	0xbbd0ea58	-0.006375592
93	0x00000000	0.0
94	0x3c1f62c4	0.009728137
95	0x3c92746d	0.017877782
96	0x3cb5dcba	0.022199977
97	0x021aa890	1.1362508e-37
98	0x3d054610	0.03253752
99	0x00000000	0.0
100	0x3cd2c878	0.025730357
101	0xbd4d627f	-0.05014276
102	0x3bc08a6b	0.0058758757
103	0x3c803c32	0.015653703
104	0x3d944186	0.0723906
105	0x3d73484a	0.059395112
106	0x3a4cc932	0.0007811963
107	0xbd1f6e20	-0.038923383
108	0x00000000	0.0
109	0x00000000	0.0
110	0x3d43181c	0.047630414
111	0x3cca0d24	0.024664469
112	0x3cb57f3c	0.022155397
113	0x3c8e3471	0.01735899
114	0x0212bc1f	1.0780374e-37
115	0x3b516154	0.0031948881
116	0x00000000	0.0
117	0xbc49bce2	-0.0123131
118	0x3de42166	0.11139183
119	0x3c59bd8a	0.013289819
120	0xbc0b264f	-0.00849302
121	0x3bfb09ce	0.007661081
122	0xbbc1d140	-0.005914837
123	0x00000000	0.0
124	0x0213a03e	1.0845842e-37
125	0x00000000	0.0
126	0x3d0f3c41	0.034969572
127	0x00000000	0.0

exp_avg_sq f4 [128]
0	0x27c2ad45	5.4033676e-15
1	0x00000000	0.0
2	0x3d055605	0.032552738
3	0x3cf66842	0.03007901
4	0x3bfa98b1	0.0076475968
5	0x3b5fb28d	0.0034133524
6	0x00000000	0.0
7	0x3b225771	0.0024771357
8	0x3b46d984	0.0030342052
9	0x3c554b8c	0.0130185
10	0x3d4afd6a	0.04955808
11	0x3b8c1ed1	0.0042761345
12	0x3c53fde1	0.012938947
13	0x3e3f2132	0.18665007
14	0x3002e5bc	4.7620197e-10
15	0x3c9c795e	0.019100841
16	0x3c4758e2	0.012167187
17	0x3c73b5c8	0.014874883
18	0x00000000	0.0
19	0x3d77321d	0.060350526
20	0x3d14e1c4	0.03634812
21	0x00000000	0.0
22	0x3c3bf2d6	0.011471471
23	0x3b09d8d0	0.0021033771
24	0x3e22fde7	0.15917169
25	0x3af39ac3	0.0018585551
26	0x00000000	0.0
27	0x3d3d0537	0.04614755
28	0x3ca1a598	0.019732282
29	0x3bea15a0	0.007143691
30	0x3d893a7f	0.0670061
31	0x2e37af36	4.1765e-11
32	0x3b7dfb00	0.0038754344
33	0x00000000	0.0
34	0x00000000	0.0
35	0x3c14754b	0.009061168
36	0x3b8cb9e4	0.004294621
37	0x3b6d637e	0.0036222632
38	0x2f11a842	1.324745e-10
39	0x3d6e9757	0.058249798
40	0x3b57dcbf	0.0032937971
41	0x3c567b5d	0.013090936
42	0x3d84505f	0.06460642
43	0x2c4762f1	2.8334524e-12
44	0x3e6ec297	0.23316418
45	0x27b25eb4	4.95076e-15
46	0x3b68e189	0.003553482
47	0x00000000	0.0
48	0x3aa3367d	0.0012452152
49	0x3d41cb44	0.04731299
50	0x300ebf9d	5.19316e-10
51	0x3d7dadaa	0.061933197
52	0x3c37499d	0.011186984
53	0x00000000	0.0
54	0x3c058a4f	0.008150651
55	0x3cbda010	0.023147613
56	0x3e4a0f9b	0.19732516
57	0x3ce0e11b	0.027451089
58	0x3c17f12d	0.009273809
59	0x3c3f869e	0.01168981
60	0x3cf469ef	0.02983567
61	0x3dfe74c8	0.12424618
62	0x00000000	0.0
63	0x3d86590d	0.06559954
64	0x3da1990c	0.078905195
65	0x3b3adf9d	0.0028514632
66	0x3e0d3635	0.1379021
67	0x3d5b0770	0.05347389
68	0x3ce87ba1	0.028379263
69	0x3bbfc33c	0.005852131
70	0x269bbf8a	1.0807202e-15
71	0x3e2b4e16	0.16729006
72	0x3cec3428	0.028833464
73	0x3c0b5473	0.008504021
74	0x3bd3fdd0	0.006469466
75	0x00000000	0.0
76	0x3daa4c2f	0.08315312
77	0x3b4b4d41	0.0031021389
78	0x3c895ba7	0.016767336
79	0x00000000	0.0
80	0x00000000	0.0
81	0x3ce201b6	0.027588706
82	0x3d467166	0.04844799
83	0x00000000	0.0
84	0x3c5d3cc3	0.013503256
85	0x3b7573a4	0.003745296
86	0x3b5284a8	0.0032122526
87	0x00000000	0.0
88	0x3e73f76d	0.23824854
89	0x3b205903	0.0024467118
90	0x3c4059a9	0.011740127
91	0x27937202	4.0924304e-15
92	0x3aa578dc	0.001262452
93	0x00000000	0.0
94	0x3d8cd562	0.06876637
95	0x3cbc9e6a	0.023024756
96	0x3c5eb921	0.013593943
97	0x27a8d4bf	4.6860027e-15
98	0x3caa9383	0.020822292
99	0x00000000	0.0
100	0x3c552e77	0.013011566
101	0x3dafd849	0.08586175
102	0x3b2ab890	0.002604995
103	0x3bd16333	0.0063899993
104	0x3e09523f	0.1341028
105	0x3d37cea1	0.04487479
106	0x3b0a6da9	0.0021122491
107	0x3d558823	0.052131783
108	0x00000000	0.0
109	0x00000000	0.0
110	0x3d60b9ea	0.0548648
111	0x3cebc450	0.028780133
112	0x3d116e53	0.035505604
113	0x3d3ad18e	0.045610003
114	0x26d6cd00	1.4904798e-15
115	0x3baabb5d	0.0052103237
116	0x00000000	0.0
117	0x3d1c35ef	0.038137373
118	0x3e801c2c	0.25021493
119	0x3b86f1f6	0.0041181995
120	0x3bc329e8	0.0059559233
121	0x3b43ff2d	0.0029906735
122	0x3ddfacdb	0.109216414
123	0x00000000	0.0
124	0x2b0bac02	4.962143e-13
125	0x00000000	0.0
126	0x3dd0ab6f	0.10188948
127	0x00000000	0.0
