highway_ddqn/ddqn1/checkpoint-best.tar (torch, 253358 bytes, 18 tensors)

layers.0.weight f4 [128, 25]
00000000: c509 f9bc 592f 9ebb e989 a5bd 54a1 f43d
00000010: d528 043d 8b33 ee3d 847e 12bd a043 7fbc
00000020: 440f c5bd 143d 95bc 6b0b cdbd 819f 3abe
00000030: 99d9 fcbd ac93 523e 2141 abbc 3fba 36be
00000040: 71a5 36be bba0 093e b864 ac3d e38f efbd
00000050: 2525 743d c83b 853d 301e 113e ba9f 063e
00000060: 2685 febd b34e 3f3d ddd4 153e cd34 3a3a
00000070: 6713 753d 40ab 113e 4aaa d2bd c024 9ebd
00000080: d39a 10bd da53 41be ede3 50bd 0785 3f3d
00000090: c771 45bd 0dec 1abe e0bc e7bd e504 473e
000000a0: 13ee 21be 7331 ee3d 774b bcbd cd6e 42bb
000000b0: 08a4 06be 238c ecbd cd27 45be d581 3d3e
000000c0: aaa9 e1bd 1dbe 99bd e18c df3d 3598 a5bd
000000d0: a0ba 44be 1785 c53d 703b 05be fb3f 523e
000000e0: 8a45 e4be 33b3 01bc 4bfa 5f3d 9769 6fbe
000000f0: f774 ae3d fe7c 723e 5fb6 6c3e 6972 283e
00000100: faff b1bd 2bdb 5fbd a29c 6d3e 3781 813e
00000110: 523e 713e e075 cebc b788 1fbe 8ad8 103d
00000120: 9a57 103d 430c 773e f2bc 1dbe 747b 953d
00000130: 90f8 693d ff18 073e 3b86 4c3e cc80 613e
00000140: f0a7 acbd d9db b83f 72ea 81bf 3678 1a3f
00000150: 8d9b 97bf eeca a33d fd13 983c f842 2c3d
00000160: 2a4b 82bc 00e9 af3c 9e65 753e 0a07 0d3e
00000170: 6ad9 b23c 0d3d a3bd 56e3 a1be 1df9 fdbd
00000180: 2b5b 70bd 7d1b a03c af94 573e 319f 4abe
00000190: 837c 473e fa7b f63d 86a3 af3d faef 4dbd
000001a0: b0eb 6bbe c9b6 3dbd 7857 a2be 87c5 5bbe
000001b0: e6f7 72be ce22 363e 5815 a13d cac4 7d3e
000001c0: 9e20 04be 724a 9c3e 306f 58ba a3e4 583e
000001d0: 31e3 603e 8a5e 6abe ab5b b1bd f074 46be
000001e0: 09ed 663e 4ad9 303e 7d6a 543e 7e15 ec3d
000001f0: 4c91 bd3d 9bfe 173c 9b9d 2fbb 335f a73c
00000200: d5d4 163d fb23 f4bd 4451 b93d b5ad 4fbf
00000210: c4fc 5fbe 01d2 a6be a109 3f3e 1793 20bd
00000220: 926c 193e 75c3 953e 37a7 b93e 82b9 4ebe
00000230: a95f 073e 68cf e73d fd07 7f3d 3748 973e
00000240: 979e 20be 718b 1b3e 4b90 3fbd 8f4c 97bd
00000250: 5ef4 943e 0cd5 fb3d 1d78 10be bd27 d7bd
00000260: 8f52 3a3e e51a 133e 3aea 06be 8022 88bd
00000270: da5b cf3c 53e8 f1bd 275d 2f3e 3b88 163e
00000280: 0dd2 c3bd 3f07 3c3e b33a 28bc 27c6 f5bd
00000290: 67a2 f73a 8743 75bd cfa0 4a3e 4af9 8e3d
000002a0: d38b e8bd 6054 1abe 43ee b3bd 6790 01bc
000002b0: fb3e 133e cbd2 23be cdb8 c33b f8e2 fb3d
000002c0: 6724 133d 3b4d 63bd 2ced 8ebe ef1a c53e
000002d0: fa25 5d3d 9fa3 fbbd d6a4 2ebc a7a6 953e
000002e0: f0cd 333e a10a 9f3c dc66 dc3e 62d0 dabc
000002f0: fcac 943e a0e0 8dbe d8d2 a03b 3867 a43d
00000300: af6a 733d b9bb 1b3f b13e 153e eef1 2cbd
00000310: 87c8 693e 2802 8d3e dbd3 173f 0bd9 ab3d
00000320: 0394 13be 2fe7 043e 2932 583e f1ed 04be
00000330: f965 003d e8aa 8ebd e002 10be 19ed 1d3d
00000340: 7acf 873e 7fcc 353e b501 8b3c a912 ad3e
00000350: d417 143d 20f7 b43e 1a6f 0b3f c195 5b3d
00000360: 5d5b 3c3e 49fe 8abe 82cf 673d f94c 9bbd
00000370: 836a 1a3e f3d1 733e 9c58 ef3d ee89 563e
00000380: b80a 9f3d 5619 513e 3032 513e 474a 2cbd
00000390: 9e31 27be 7cf8 36be a259 2a3e f240 18bf
000003a0: 177d 03be 313b 50be b81e 563d 0b5b f13d
000003b0: 7e02 033e 043b 3c3d c3a8 543e 1fe5 123e
000003c0: d607 033d ea1c 7c3e d326 1abd 80f5 a9bc
000003d0: 40ca 923d 4bf8 ca3d c2f0 813e 34d4 aebc
000003e0: 1514 773d 8a01 9dbd 3fe8 8bbd ba7a 123e
000003f0: ff52 413e abdb 453e e6db 24be b19d d9bd
-0.030400166 -0.0048274216 -0.08082945 0.119448334 0.032265503 0.11630925 -0.035765186 -0.015580088
-0.09622052 -0.0182176 -0.100119434 -0.18224908 -0.12346191 0.20564145 -0.02090508 -0.17844485
-0.17836548 0.1344022 0.08417648 -0.11697366 0.059605736 0.06505543 0.14171672 0.13146868
-0.1242774 0.046705913 0.14631982 0.0007103205 0.059832957 0.14225483 -0.10286386 -0.07721853
-0.035303902 -0.18879643 -0.050998617 0.046757724 -0.04820421 -0.15129109 -0.11315322 0.19435461
-0.15813474 0.116305254 -0.09194081 -0.0029668093 -0.1314851 -0.115501665 -0.19253464 0.18506558
-0.11018689 -0.07506964 0.109155424 -0.08085672 -0.19211817 0.096445255 -0.13010955 0.20532219
-0.44584304 -0.00791626 0.054682057 -0.23380123 0.08518403 0.23680493 0.23116444 0.16449894
-0.08691402 -0.054652374 0.23204282 0.25293896 0.2355893 -0.025202692 -0.15579496 0.035362758
0.035239793 0.24125771 -0.15404108 0.072989374 0.057121813 0.13193129 0.1997308 0.22021788
-0.08430469 1.4442092 -1.0149672 0.6033968 -1.1844345 0.0799769 0.018564219 0.042056054
-0.015904982 0.021473408 0.23964545 0.13772216 0.021832187 -0.07970629 -0.31618756 -0.1240103
-0.058680695 0.019544357 0.21052812 -0.19787289 0.19481091 0.120353654 0.085761115 -0.050277688
-0.23039126 -0.046316896 -0.31707358 -0.2146207 -0.23727378 0.17786714 0.07865399 0.247821
-0.12903067 0.30525547 -0.00082563143 0.21180968 0.21961667 -0.22887626 -0.086600624 -0.19380546
0.22551359 0.17270389 0.20743747 0.11527537 0.09256229 0.009277011 -0.002679682 0.020431137
0.036824066 -0.11920925 0.09048703 -0.8112443 -0.21873766 -0.32582095 0.18656017 -0.039202776
0.14982823 0.29250684 0.36260387 -0.20187953 0.13220085 0.113188565 0.062263478 0.29547283
-0.15685497 0.15189911 -0.046768468 -0.07387649 0.29092687 0.12296495 -0.1410832 -0.10505626
0.18195556 0.14365728 -0.13175288 -0.06647205 0.025312353 -0.118118905 0.17125379 0.14700405
-0.095615484 0.18362139 -0.010267901 -0.12000685 0.0018893004 -0.059878852 0.19787906 0.06981142
-0.11354794 -0.15071249 -0.08785679 -0.007907963 0.14379494 -0.1599838 0.0059729577 0.1229915
0.035923388 -0.055493575 -0.27915323 0.3849711 0.053991295 -0.122870676 -0.010659417 0.29228708
0.17559028 0.019414248 0.43047225 -0.026710693 0.29038227 -0.27710438 0.004907947 0.080275
0.059427913 0.6083332 0.14574696 -0.04222291 0.22830401 0.27540708 0.5930764 0.08391007
-0.1441193 0.12978815 0.21112885 -0.12981392 0.03134725 -0.069661915 -0.14063597 0.038556192
0.2652548 0.1775379 0.016968587 0.338033 0.036155537 0.3534479 0.544664 0.053609613
0.18394227 -0.2714713 0.05659438 -0.07583041 0.15079693 0.23810558 0.11686823 0.20951054
0.07765716 0.20419821 0.20429301 -0.042063024 -0.16327521 -0.17868227 0.16635755 -0.594741
-0.12840687 -0.2033508 0.05227539 0.11784943 0.1279392 0.04595472 0.20767502 0.14345215
0.031989895 0.24620405 -0.037634682 -0.020746946 0.071674824 0.099106394 0.25378996 -0.02134142
0.060321886 -0.07666309 -0.06831407 0.14304629 0.18879317 0.19322078 -0.1609951 -0.106257804

layers.0.bias f4 [128]
00000000: 0beb f6bd bf80 02be 4c74 333e f33d 84bc
00000010: 2552 2abe 8131 013e bb73 47be fb37 2ebc
00000020: 73bc 70bd 56a2 6e3e 3070 753b 9bcf 4d3e
00000030: 71cc 22be ba54 38bd 2080 27be 0f0b eabd
00000040: 092e 09be 3b85 d63c 35d9 0c3e 1544 243e
00000050: 2797 de3c 4a73 f43d be3b 20bb d849 98bd
00000060: ce6c b1bb 19d4 3e3e 1abe 5ebd 8f9c e93c
00000070: f75f 2a3d c3e7 e93c af39 793c 4595 d13d
00000080: 267a 5c3e 7399 31bd dabc e8bd 63d4 c03d
00000090: 267f 683d 504d 903b 3708 1c3e 13f2 ed3c
000000a0: c049 13bd fbed 393e 7128 383e 0a69 2fbe
000000b0: 344b 283e 2f39 413a 045a 483d 0005 29bd
000000c0: c2a6 c13d a9a1 163e 58f4 683d 71bc 13be
000000d0: 2bab 67bc 2504 25be 901f b6bd 0428 c53b
000000e0: 5493 263e 9e70 413e cdf1 a3bd 548f d8bc
000000f0: e34f 183e 48d6 363c 00ad 30bc f288 00bd
00000100: bc08 553b c93a d8bd f750 003e 025d 593e
00000110: cd01 b43d bdb3 463e d1f4 303c 259a 1d3e
00000120: 9dcb f13d 46d2 8e3c 7f27 853d 33c5 79bc
00000130: e8f1 3cbd 96fd 4d3e 793c 0bbe 338a e8bc
00000140: 1a75 3c3c 0fef 34be 1e58 d2bc 30c7 d9bd
00000150: 7b9e 48bd 1c6b 843e 57ba 693e b3b0 7ebd
00000160: ad74 283e df34 ca3a 2361 003e 2073 96bd
00000170: 31d4 d63d c0fe 9ebc 8835 fabd 39fd 213d
00000180: 3acc 113c 4770 473c 276a 963d 6a98 45be
00000190: bdc7 763d c438 0b3e 19ea 223d 50f6 bbbc
000001a0: 4848 bebd ebad a9bd d7b6 1b3d 70b7 9c3d
000001b0: 90cc 293e 2d23 c03d 64c5 a93b 75e6 1abe
000001c0: 6e1f 3e3c 5a48 083e dab8 4abe 994d 373e
000001d0: 5a12 993d 9056 c23d 8908 c3bd fc55 113e
000001e0: 7960 dbbd 329d 863d 36fb c43d b85e 083e
000001f0: f379 253d 884a 29be 7b56 603d 4020 ffbd
-0.1205655 -0.12744425 0.17524832 -0.016142821 -0.16632898 0.1261654 -0.19477741 -0.010633464
-0.05877347 0.23304114 0.0037450902 0.20098726 -0.158983 -0.045002677 -0.1635747 -0.114278905
-0.13396467 0.026186576 0.13754733 0.16041596 0.027171684 0.11936052 -0.0024449672 -0.074359596
-0.005414582 0.18635596 -0.054380514 0.028517036 0.041595425 0.028552895 0.015211507 0.10233549
0.21530971 -0.04335923 -0.113641456 0.094155096 0.056761883 0.0044037476 0.15237509 0.029046094
-0.035959005 0.18157189 0.17984177 -0.17129913 0.16434938 0.0007370887 0.04891397 -0.041264534
0.09455635 0.14710106 0.05687365 -0.14427353 -0.014139931 -0.16114862 -0.08892739 0.006016733
0.16267139 0.18890616 -0.08005104 -0.026435532 0.14874224 0.011159487 -0.010783434 -0.0313806
0.0032506427 -0.105580874 0.12530886 0.21226886 0.08789406 0.19404502 0.010800556 0.15390833
0.11806414 0.01743425 0.06501674 -0.01524477 -0.046129137 0.20116267 -0.13597287 -0.028386211
0.011502529 -0.17669319 -0.025676783 -0.10633695 -0.048979264 0.25862968 0.2282499 -0.062180232
0.16450758 0.0015427134 0.12537055 -0.07346177 0.10489691 -0.019408584 -0.122172415 0.039548133
0.008898789 0.012172765 0.07344466 -0.19296423 0.06024908 0.13595873 0.039774034 -0.0229446
-0.0929113 -0.08285125 0.038016167 0.076521754 0.1658194 0.09381709 0.0051810015 -0.15126975
0.011604173 0.1330885 -0.19797078 0.17900695 0.074742034 0.09489167 -0.09523112 0.14192957
-0.1071176 0.065729514 0.09618227 0.13317382 0.040399503 -0.16532338 0.054769974 -0.12457323

layers.1.weight f4 [128, 128]
00000000: 12de 4b3d bb5e 82bb c0d4 a7bb ff1d 89bc
00000010: b5bb 34bc 41f6 58bc 5225 853d 2923 3fbd
00000020: e219 e73c d426 b8bd 5cca 71bc f9bc 273b
00000030: 01e6 38bd 6c32 2d3a a3ac 5a3d 24bd 8dbd
00000040: e6dd f33c f37f 5f3d 5227 2f3d 2a55 b4bd
00000050: 2b0f b13c e80d 6c3d c559 bdbc 94ce fe3c
00000060: b7db 41bd e4ea a0bd a177 e4bc 032c 74bd
00000070: 5ff2 8dbc 7a93 2fbd 09fb 283d 10fd 8e3d
00000080: d6cc 96bd b9a8 a5bd 5259 34bd b815 babd
00000090: 1c58 1f3d a746 173d 85a2 2d3d 9b5a 7f38
000000a0: fa26 a53d 2e67 b83c 65ae d63c 40fa 5d3d
000000b0: f454 81bd ac3c 9cbd 3b0d 643d 0f5d 873d
000000c0: 386a 6d3c caa7 663d 5b68 923d a445 693c
000000d0: 0cb4 f8bc c8a8 7c3c c72b d9bc e61b 89bd
000000e0: 5da8 5c3d f340 27bd 0367 5e3c 9fe0 3d3d
000000f0: e7f2 0abd 7585 a8bd 6cde 543b ef0f 853d
00000100: e3f3 923c e175 2b3d 6765 1c3d 3de4 a93d
00000110: f63b a23d 386f 3f3d 8508 2a3c b953 82ba
00000120: 2948 febb 0fcc 1b3c 4d2d 4a3d 7109 51bc
00000130: 35a9 4bbd 3c35 3cbd 341d 9bbc 9da7 a73a
00000140: c00a 65bc 0da6 7ebd 3eb9 a23b 755b cf3c
00000150: 65f0 aabc 9978 76bd c743 7cbd d26c 99bc
00000160: 0b5b 84bd 6aec 523d ea72 843d adf0 5a3d
00000170: a3df 89bd fe60 643d 01b6 6fbd 777a babd
00000180: f521 8d3d 31c8 d03c ee1a 97bc def5 fe3c
00000190: 0da4 983d d912 ffbc c433 69bd 8b2f 613d
000001a0: 1072 3e3d e08b b53c 3a29 0e3d e394 b03d
000001b0: 66d5 5ebd c0e7 663d 458b d0bc b314 afbc
000001c0: 3539 c6bc 4f7f 693d 1e3f 7b3d b974 d5bb
000001d0: d26c 993d b323 4cbc 951e f8bc db63 753d
000001e0: 8eaa a2bd b57b 6e3c ebe2 6bba 67f8 723d
000001f0: 69a8 3cbd 2898 14bd 7458 05bd 067e 983d
00000200: 544c 41bd 9f55 21bc 6740 c83c efe7 9cbe
00000210: 2951 d33d 8612 ae3d 85e7 53bd a10f 92bd
00000220: a021 f83d dea6 2c3e 5a9c 533e 3777 6a3e
00000230: d253 f0be 5f28 adbe e07f b13d 5ae5 303e
00000240: 4ed6 333e 8d5d 3c3e 40eb 58bd 1503 b5bf
00000250: 6e81 fabd 8592 383d 0fcb 463c 5db6 0e3e
00000260: 9396 333e aeac be3d 04ef 3bbd e19c 17be
00000270: 2fb9 e4bc 174b 273e e560 2fbf b9e8 d3bd
00000280: 2343 453e 0a7f 803d f003 973d 1a0a 0abe
00000290: aa9d 073d 2465 6a3e 7898 023c 474d 003e
000002a0: f674 833d 8aef 7bbe 9ae1 153e b5d3 11bc
000002b0: 6a27 89be 8723 4f3b 0d9b 1dbe 9b57 853d
000002c0: 5487 343e 1a81 3cbe 4600 81bd 9ec8 8f3d
000002d0: 83eb 013e 028e 9fbd 3cd5 fc3d dbe2 dbbe
000002e0: df6d 6dbf d06e bebd 5c6d 763d 6b45 da3d
000002f0: 59ae 17be fdd7 75bf 82cc 0d3d 9786 98bd
00000300: 4b7f b7be 3af4 213e bd99 a53e ac56 4bbe
00000310: ac1c 1abf 0f84 683e a3ab 833d 9e3b 9bbf
00000320: d04a 06bf 7e38 1a3e f917 633d e40f 1b3d
00000330: 6140 b4bf 7aab 3e3e 4e64 d83d db05 dbbc
00000340: a83a 283d 9c43 30bf 4056 41bf 28b0 a03c
00000350: b242 443e 3435 f83d 735c 473e 59a3 8b3d
00000360: 947a b3bf 5d42 293e 4a61 2cbb 4b0d e1ba
00000370: aab1 8dbd bcd3 22bd 642e 6dbf 9d4f dcbd
00000380: b31c 853e b105 a53d 2699 203d 6304 a23d
00000390: 1fee 67be 3425 203e dbe4 a03d 684f 2dbe
000003a0: 18fb 94bf e36f 563d 1078 1bbf 3379 c8bf
000003b0: fe3f 913d e515 383d 1896 cdbe 087c 96be
000003c0: 5766 80bf dc2d dfbd e0d9 013d 5b99 4b3e
000003d0: fa09 593d 6463 e6bf 5136 15bf da3d 343e
000003e0: fa8d 863e 65ba bdbe a677 1c3e 43df 7c3d
000003f0: 090d 09bd 4058 083c 71e3 70bf 2b01 1abd
0.04977233 -0.003978578 -0.0051217973 -0.016737936 -0.011031081 -0.013242305 0.06501259 -0.04666439
0.028210584 -0.08991781 -0.014757719 0.0025594814 -0.045141224 0.000660694 0.053387295 -0.06920841
0.029768895 0.05456538 0.04276211 -0.08805306 0.021613678 0.05763045 -0.023114095 0.031104364
-0.047328677 -0.07857302 -0.027889075 -0.059612285 -0.017327486 -0.042865254 0.04125503 0.069818616
-0.07363288 -0.08088822 -0.044030495 -0.09086174 0.038902387 0.036932614 0.04239132 6.088112e-05
0.08064075 0.022510137 0.026206205 0.054193735 -0.06315032 -0.0762876 0.05567668 0.066095464
0.014490657 0.05631236 0.071488105 0.014237795 -0.03035929 0.0154211 -0.026510132 -0.06694774
0.0538715 -0.040833425 0.013574365 0.046356793 -0.033923056 -0.0822858 0.0032481207 0.0649718
0.01793856 0.041860465 0.038182642 0.08295486 0.07921593 0.046736926 0.010378008 -0.0009943164
-0.007760067 0.009509101 0.04935961 -0.012758599 -0.049721915 -0.045949206 -0.018934824 0.0012791042
-0.013979614 -0.062170077 0.0049659302 0.025312165 -0.020866582 -0.060173605 -0.061588075 -0.018728647
-0.064626776 0.051494993 0.064672306 0.053452183 -0.067321084 0.05575656 -0.05852318 -0.091053896
0.068912424 0.025486084 -0.018445458 0.031123098 0.07453165 -0.031136917 -0.056934133 0.05497698
0.046495497 0.022161424 0.034707285 0.08622148 -0.05440273 0.056373358 -0.025457034 -0.021372175
-0.0241972 0.057006177 0.06133949 -0.0065141586 0.07491459 -0.012459683 -0.03028802 0.059909683
-0.07942687 0.014555861 -0.0008998352 0.059318926 -0.046059046 -0.03627792 -0.03255506 0.07445912
-0.047191933 -0.009847074 0.024444772 -0.306457 0.103182144 0.08499627 -0.051734466 -0.07131887
0.121157885 0.1686053 0.20665112 0.2289704 -0.4693895 -0.33819863 0.08666968 0.1727499
0.1756222 0.18395062 -0.052958727 -1.4141566 -0.12231718 0.045061607 0.012133374 0.13936754
0.17537908 0.0931028 -0.04588224 -0.14805938 -0.027920334 0.16337238 -0.68507224 -0.10347123
0.19263892 0.06274231 0.07373798 -0.13480416 0.033109345 0.22890145 0.007970922 0.12529479
0.06418793 -0.24603096 0.14636841 -0.008900573 -0.26787883 0.003160687 -0.15391178 0.0651085
0.17629749 -0.18408623 -0.0629888 0.070206866 0.12687497 -0.07790758 0.12345359 -0.42946514
-0.92745775 -0.092984796 0.060162887 0.10657772 -0.14812602 -0.96032697 0.034618862 -0.07447546
-0.35839304 0.15815821 0.32343856 -0.19857281 -0.602 0.22706626 0.064292215 -1.2127569
-0.52457905 0.15060613 0.055442784 0.03785695 -1.4082147 0.186201 0.105660066 -0.02673619
0.041071564 -0.68853164 -0.7552223 0.019615248 0.19166067 0.12119523 0.1946886 0.068182655
-1.4021783 0.16529222 -0.0026303106 -0.0017170099 -0.06918652 -0.039752707 -0.9264891 -0.107573725
0.25998458 0.08057726 0.039208554 0.07910993 -0.2264943 0.15639192 0.07856151 -0.16924822
-1.1639128 0.052352797 -0.60730076 -1.5661987 0.07092284 0.044942755 -0.40153575 -0.29391503
-1.0031232 -0.10897419 0.031701922 0.19882719 0.05298803 -1.7999082 -0.58286005 0.1760172
0.26280195 -0.3705627 0.15280017 0.061736356 -0.033459697 0.008321822 -0.9409705 -0.03759877

layers.1.bias f4 [128]
00000000: 2fba 5d3d 0faf 4c3e b6a0 983c 49ac d1bd
00000010: 2c04 25bd 8beb 813d 730a e53c b4aa ac3d
00000020: c313 063e 31bb 243d 1229 af3d afb7 343d
00000030: 43c6 163d 2874 99bd b766 8dbc 0a45 1cbd
00000040: dbab 153e 1da2 6abd 3710 443d 10c3 033e
00000050: dcf4 22bd 3bac e43d fd1e 6b3d 0628 b0bd
00000060: 7b99 ef3d fbd7 9bbd 9ec7 d53c b2fc c73c
00000070: 1b9a cc3d bdcf b2bd 0076 903d 1471 703d
00000080: 02c2 3c3d 64fb 62bc 523a 5ebc a578 213d
00000090: fa38 5d3c d969 013d 2113 913d 679d 38bd
000000a0: 98ff ff3c 1341 043d 3961 c23d 5d81 cb3b
000000b0: 894b 833d a1e2 b2bd 4919 a7bb 0315 da3d
000000c0: fffb e53d e874 a7bc b643 303e c547 59bd
000000d0: b717 f53d d560 913d dbc8 c9bd c1f1 10bd
000000e0: 1a1a d5bd c120 0abd b95a 5c3e b332 98bd
000000f0: 673c 8a3a 99af 973d 0497 673d acfa 733c
00000100: 4440 433d 5407 67bd 272f 05bd 879e 51bd
00000110: 2628 9bbd 1601 2bbd a4b9 f73c ed3d d03d
00000120: c066 3b3e 6b18 e63d ce86 79bd fa0e 66bd
00000130: 7875 b8bc e056 313c fccf 8ebd 642f 7ebd
00000140: a30a a63c 5af9 19bd a86f 1cbd cf5d bf3b
00000150: 2396 033d c206 36bd b882 833d 10fb 0f3d
00000160: 7451 5a3d f704 83bd 0919 2b3b 9765 903d
00000170: 947c 5e3d b5ae 59bd 9904 953d 3b03 853d
00000180: 6c4f 05bd 06be 2a3d 2e93 90bd d5a6 cabd
00000190: 1fb0 b0bd b6f7 0e3e 97ca 2fbd 56d6 e73c
000001a0: bbd7 cd3d b295 9dbd 6b45 d23d 9e61 8d3d
000001b0: e4dd eabc ed9c e93d 93b2 c43c 4156 e93d
000001c0: 891f 793c 6bed b7bd 6107 61bd 1907 9b3d
000001d0: d5d0 583c 6478 89bd 2c6c 3ebd f048 93bd
000001e0: de4a c7bd 8c0a b2bd 8d55 d23d 4c42 b4bd
000001f0: 350b 833d 10d0 c4bd 5624 79bd 6386 aabd
0.054132637 0.19988655 0.01863132 -0.10237939 -0.04028718 0.063437544 0.027959084 0.084309965
0.13093476 0.040217582 0.085527554 0.044120487 0.03681017 -0.07492858 -0.017260892 -0.03815178
0.14616339 -0.05728351 0.047867026 0.12867379 -0.039784297 0.11165663 0.0574026 -0.08601384
0.11699196 -0.076095544 0.026096161 0.024412487 0.09990331 -0.08731029 0.07053757 0.05870159
0.046083458 -0.0138538815 -0.013563709 0.039421696 0.013502354 0.031595085 0.07083727 -0.045071986
0.031249806 0.032288622 0.094912 0.0062104897 0.064108916 -0.08734632 -0.00509945 0.10648539
0.11229705 -0.020441487 0.1721333 -0.05304696 0.11967414 0.07098547 -0.09852763 -0.035386804
-0.10405369 -0.033722643 0.21518983 -0.07431545 0.0010546566 0.074065395 0.056540504 0.014891308
0.04766871 -0.056403473 -0.03251567 -0.051176574 -0.07576017 -0.041749083 0.030239888 0.101680614
0.18300915 0.11235126 -0.060919575 -0.056166627 -0.022516951 0.010823935 -0.069732636 -0.062056914
0.020268744 -0.037591316 -0.03819242 0.0058400403 0.032125603 -0.04444004 0.06421417 0.03515154
0.053300336 -0.06397431 0.0026107451 0.07050627 0.054318026 -0.05314513 0.072762676 0.06494757
-0.032546446 0.041685127 -0.07059322 -0.09895102 -0.086273424 0.13961682 -0.042917814 0.028300446
0.10050913 -0.07694568 0.10267147 0.069033846 -0.028670259 0.11406884 0.024010932 0.11393405
0.0152052725 -0.08980831 -0.054938678 0.07569713 0.013233383 -0.06712416 -0.04648988 -0.07191646
-0.09731077 -0.08693418 0.10270224 -0.088017076 0.06398622 -0.09609997 -0.06082567 -0.083264135

predict.weight f4 [5, 128]
00000000: ef13 acbc 2c84 fbbd e4ff 073e 37da 15bd
00000010: 3653 8fbd 481a c13d afc4 123c 7bf7 ce3d
00000020: d101 ee3e d7f3 9fbd 36a2 27bf 18be 913e
00000030: 59a2 643d ebc3 603d cca9 3abd fb05 293e
00000040: 361e 39bc c66c bfbc 497a c8bc 2545 993d
00000050: 6730 8fbd 704f 8f3d 7a16 253e f0ec fd3b
00000060: a4c7 b53e f4e1 973d 7df0 44be b216 aebd
00000070: 610b 9d3c 1ae1 4e3c e0b5 6d3e 0e2b 603d
00000080: 0e86 2bbd c8e1 523e f493 153d 6d22 a1bc
00000090: e66f 8fbd e14f 163b a47d e73c 917b 4c3d
000000a0: 4d52 a8bd 0744 5dbd e7e5 bdbc 9742 da3c
000000b0: ea42 f03c eac1 11bf b5f9 063e f338 433e
000000c0: 3114 983d f526 f73d 43cd c1bd 473a 3d3e
000000d0: 1f1a e5bb 5df2 52bd f1b3 9d3e 7b6e 223e
000000e0: ad18 863e e0c6 b8bc c399 003f f04f a63d
000000f0: 61a1 413c 0964 fdbd c8fe 103e e131 2e3e
00000100: f7ef bd3c 19c3 30bd 4c19 273d 756a 313e
00000110: fffa 12bd 00f1 8b3d 93bb ff3d 90a6 193e
00000120: 1290 2b3d 6a6f febc 6b4f ff3d 524f a1bd
00000130: b675 973d 08b9 043d 7268 fabb e73c 17bd
00000140: 5fb8 363e 6677 fbbc 9901 423d 73d1 823d
00000150: a25e 94bd cf92 32bd b3d6 06bd d930 323e
00000160: 8116 fb3c 3c15 9cbc a915 273c 71f7 4abd
00000170: 961a 973d 53ba 95bd 8928 88be 13e0 09bd
00000180: df96 2b3e acbd 423d e824 6f3d 163f 3e3e
00000190: a822 d9bc e2be 80bf 5d36 eb3c 3aae 4e3e
000001a0: 43f8 7b3d e5e0 523e 5fe8 c9be be06 7a3d
000001b0: e1da fc3c 0753 9e3d 2244 85bc ca45 283e
000001c0: 5ee4 263e 9b14 893c ccae 9abc 6eb9 573d
000001d0: 8026 2bbc 1610 9dbd 3b60 bebc f855 0f3d
000001e0: 81f0 ad3d a5ee e7bc 6ebd 98bc 82b2 edbb
000001f0: 6d8d 9bb9 5f47 e3bc f4bd 00bd 5d12 98bd
00000200: f6e6 afbd 3ac7 53bf e788 5a3d 3515 073d
00000210: 336e 2cbc c8cf 9d3d 7ae1 ac3d 863d 113e
00000220: 180f 09bf 8879 2d3e 4010 f0be 397f 7e3e
00000230: a4bc 853d 22b0 e53d 5107 9abc 808e db3d
00000240: 79ea 343e 534c 83bd 6b86 383c 08a1 c03c
00000250: c60f 953d e801 a83d 931d 493d 40ee 86bd
00000260: 3655 9b3f 13e5 1f3b d555 50bd 8ae0 0dbb
00000270: a604 023e 257d 21bd e8e0 c63c 05dd 073e
00000280: 63d5 9bbd ef2e 273e bed9 073d 1fd2 413d
00000290: a9f6 0fbd 3387 443e 5adb 2b3d 9504 3cbd
000002a0: 0023 90bd 8972 86bd fb9c 8a3d 4544 7fbd
000002b0: 1d92 92bc 1460 cfbe 264e ef3d 21e0 0e3e
000002c0: 6113 113e 0e50 b23d fddf 193f e35b 703d
000002d0: 03aa 083e 74db db3d e58b a03d b720 af3d
000002e0: 89ab 6b3e 8437 84bd b85a dcbe d804 97bc
000002f0: 4ed3 69bd dc62 b0bd 6bea 6c3c f482 1bbd
00000300: afcd 8e3d 600b a93d 961a 653d 89f7 863c
00000310: eed5 98bd 6214 0ebd 1625 453e b843 383e
00000320: 8457 3d3e 804c 093d 5d6c 903d 1c70 0bbd
00000330: 557b 52bb bfe2 5d3d 3d8b a6bc 7eab 803d
00000340: b5ce 6e3d c6c1 403d 2d89 cf38 43d7 163e
00000350: 69a6 dfbc 35bd 513d 0a90 a1bb fe33 25bb
00000360: a89e 423c 3e5b 97bd 78e1 973d 7349 b03b
00000370: b987 d43d d532 9e3d 5175 453e c1bb ee3c
00000380: 744b c43c 4533 353e c610 d63a 904e dd3d
00000390: 34b1 8d3d 08c0 a73e 3757 29bc c5a2 f33d
000003a0: 7d20 133e 03ab c23d 70cc 5a3e d988 dbba
000003b0: 9997 8fbd 5130 da3d bbba 33bd 7112 c33d
000003c0: d4f9 353d 4f44 a1bd 832c 3c3d ab82 0e3d
000003d0: 76c7 2a3d ec1b d43c ed9f 37bb 7a67 a5bc
000003e0: 23e9 a73d f249 2b3c 7077 483e fd9e 94bd
000003f0: 8c97 b33d b18f 703d fe25 c13d d436 b4bd
-0.021005599 -0.12281069 0.13281208 -0.03658506 -0.06998293 0.09428841 0.008958026 0.10105797
0.4648576 -0.07810181 -0.6548189 0.28465343 0.05581889 0.054874342 -0.045572087 0.16506188
-0.011298707 -0.023367297 -0.024472373 0.074838914 -0.06991654 0.069975734 0.16121855 0.0077491924
0.35503876 0.07416144 -0.19232364 -0.085004225 0.019170465 0.012626911 0.23213911 0.05472856
-0.04187589 0.20593941 0.036518052 -0.019669736 -0.07003765 0.0022935795 0.028258152 0.04992253
-0.08218823 -0.054019954 -0.023180915 0.02664308 0.029328782 -0.56936514 0.13181193 0.19064693
0.07425726 0.12067977 -0.09462979 0.18479262 -0.0069916393 -0.051500667 0.30801347 0.15862457
0.261907 -0.022555768 0.5023462 0.081207156 0.011818261 -0.12372596 0.14159691 0.17011215
0.023185713 -0.04315481 0.04079561 0.17325766 -0.0358839 0.068330765 0.12486949 0.15004945
0.041885443 -0.031058986 0.1246632 -0.07876457 0.073954985 0.032403022 -0.0076418454 -0.036923315
0.1784377 -0.030696582 0.047364805 0.063876055 -0.07244612 -0.04359704 -0.032919597 0.17401446
0.03065038 -0.019053094 0.010198035 -0.049552385 0.07378118 -0.07310929 -0.26593426 -0.03366096
0.16756772 0.047544166 0.058384806 0.18578753 -0.026505783 -1.0058253 0.028712446 0.2018365
0.061516058 0.20593603 -0.39435098 0.061041586 0.030866088 0.0773068 -0.01626784 0.16432872
0.16298053 0.016733458 -0.018882178 0.052667074 -0.010446191 -0.07669084 -0.023239246 0.034994096
0.08493138 -0.028312037 -0.018645015 -0.007253946 -0.00029669274 -0.027743993 -0.031431153 -0.074253775
-0.08588974 -0.8272587 0.053353216 0.03297921 -0.01052432 0.07705647 0.08441444 0.14183626
-0.53538656 0.16940892 -0.46887398 0.24853219 0.06530121 0.11215235 -0.018802317 0.10720539
0.17667569 -0.06411042 0.0112625165 0.023514286 0.07278399 0.082034886 0.04910047 -0.06588411
1.2135379 0.0024398013 -0.050863106 -0.0021648728 0.12697086 -0.039425988 0.024277166 0.13267906
-0.0760906 0.16326497 0.03316664 0.047319528 -0.035147343 0.191922 0.041957237 -0.045902807
-0.07037926 -0.065648146 0.06768223 -0.062320966 -0.017891938 -0.4050299 0.116848275 0.13952686
0.14167549 0.087066755 0.60107404 0.05868138 0.13346104 0.10735217 0.07839183 0.08551162
0.23014654 -0.06455901 -0.43037963 -0.018434927 -0.05708628 -0.08612606 0.0144601865 -0.037966684
0.06972825 0.08254123 0.055933557 0.016475456 -0.07462679 -0.034687407 0.19252428 0.17994583
0.18490416 0.03352022 0.07051919 -0.034042463 -0.0032116969 0.05417132 -0.020330066 0.062827095
0.0583026 0.047059797 9.89608e-05 0.14730553 -0.02730103 0.051205833 -0.004930501 -0.0025207992
0.011878647 -0.0739045 0.074160516 0.0053798496 0.103774495 0.07724539 0.19283034 0.029142262
0.02396176 0.17695339 0.0016331903 0.10806 0.069185644 0.32763696 -0.010335735 0.1189628
0.14367862 0.09505274 0.21367049 -0.0016749158 -0.07011337 0.10653747 -0.043879252 0.09525002
0.044427708 -0.07874357 0.045940887 0.034792583 0.041694127 0.02589222 -0.0028018907 -0.020190943
0.08198764 0.010454642 0.19576812 -0.07256887 0.0876914 0.058730785 0.094310746 -0.0879952

predict.bias f4 [5]
00000000: 544b f8bc 4a29 fa3d 9e4d fbbc 6fff d7bc
00000010: 8362 4a3d
-0.030309357 0.122149065 -0.03067666 -0.026366917 0.049410354

exp_avg f4 [128, 25]
00000000: 7700 1902 7700 1902 beda 1202 e0d8 1b02
00000010: b0af 1d82 7700 1902 29e2 1102 ff43 1202
00000020: d1b4 1382 b0af 1d02 7700 1902 7649 1302
00000030: beda 1282 1f54 1082 b0af 1d02 7700 1902
00000040: 2fed 1202 e876 1b02 9c61 1682 b0af 1d02
00000050: 7700 1902 a7fd 1202 e876 1b02 047d 1382
00000060: b0af 1d02 0000 0000 0000 0000 0000 0000
00000070: 0000 0000 0000 0000 0000 0000 0000 0000
00000080: 0000 0000 0000 0000 0000 0000 0000 0000
00000090: 0000 0000 0000 0000 0000 0000 0000 0000
000000a0: 0000 0000 0000 0000 0000 0000 0000 0000
000000b0: 0000 0000 0000 0000 0000 0000 0000 0000
000000c0: 0000 0000 0000 0000 5409 56bc 0a4c 50bc
000000d0: 9024 b0b9 ca59 39bb 5d47 c738 5409 56bc
000000e0: c339 ecba 90f9 05b9 ec2f 2bba a260 ba37
000000f0: 5409 56bc acf7 65bb 2067 32ba 5330 d5b9
00000100: ecda 68b9 5409 56bc 74c6 9dbb edf7 17bc
00000110: 71d8 42ba b9db e5b8 5409 56bc 00b4 c0bb
00000120: bf81 98bb 75cc 47ba b0c4 1bb8 c62a 753d
00000130: 7cfe 773d 4540 b43c 0647 6e3c ea9a 5e3a
00000140: c62a 753d 086b 2a3a 617e e53c da00 9fba
00000150: bdfe caba c62a 753d 6388 403c af0a 12bc
00000160: 771f bc39 c233 8aba c62a 753d 2633 853c
00000170: ac93 003c 09c6 9cba 91c0 50ba c62a 753d
00000180: 068d e33c 8140 a83c b0ff 033a dc65 6dba
00000190: d589 81bc 46c4 83bc 7b5f 09bb 35b9 72bb
000001a0: a88c 99b8 d589 81bc 5d94 a5ba b923 fbbb
000001b0: 007b fbb5 3f18 2839 d589 81bc 24ee 68bb
000001c0: 7e8a 6f3a 6453 92b9 9d5f 7638 d589 81bc
000001d0: b93d b1bb 8913 96bb 9e48 35b9 1305 3f38
000001e0: d589 81bc 839b d9bb 75ca 0dbc a80a a0b8
000001f0: f8e5 0439 fd35 89bc 1c92 88bc 3e87 75bb
00000200: 13eb 8fbb e9c5 b2b7 fd35 89bc 2d45 99ba
00000210: 31da 4ebb f028 7239 e7be df38 fd35 89bc
00000220: f360 59bb 0bcc 643a 592e 3a39 587c 9bb7
00000230: fd35 89bc 38e4 aabb 01ba 74bb 2b31 0d39
00000240: 2a17 c937 fd35 89bc b576 d8bb 7aa8 d0bb
00000250: 4823 1139 63b4 6638 0000 0000 0000 0000
00000260: 0000 0000 0000 0000 0000 0000 0000 0000
00000270: 0000 0000 0000 0000 0000 0000 0000 0000
00000280: 0000 0000 0000 0000 0000 0000 0000 0000
00000290: 0000 0000 0000 0000 0000 0000 0000 0000
000002a0: 0000 0000 0000 0000 0000 0000 0000 0000
000002b0: 0000 0000 0000 0000 0000 0000 2b68 3dbc
000002c0: 947c 43bc d0ee 5ebb f5cb 5cbb 6a73 ccb8
000002d0: 2b68 3dbc 0eed 0b3a a89b 36bc 9169 423a
000002e0: 94a9 1939 2b68 3dbc ac63 04bb 6491 353b
000002f0: c3f1 303a 2d6f 2839 2b68 3dbc aac9 25bb
00000300: e419 2b3b 14f8 0f3a 458b e038 2b68 3dbc
00000310: 1ba8 8abb 68dc d8bb 64ae f239 f404 8e38
00000320: b49e edbb e0fd f2bb ee93 7abb 15c9 39bb
00000330: cfe8 1db9 b49e edbb 8894 9d39 4051 6cbb
00000340: 6c42 a43a 8213 de38 b49e edbb 7c00 05ba
00000350: b43b e83a e881 813a c299 7b39 b49e edbb
00000360: 9e3d c6ba 6c17 693b d529 a33a 6b84 2b39
00000370: b49e edbb e0bd 0bbb f452 30bb 11fb b33a
00000380: d4f2 0c39 05f1 8cbc 0504 8ebc ac57 d6ba
00000390: 892d 68bb f49b 95b7 05f1 8cbc 5cb7 fcba
000003a0: 0d47 d1bb 53fe 20ba 7296 2539 05f1 8cbc
000003b0: 4da9 94bb 54fb a03a 1715 43ba 4b24 43b8
000003c0: 05f1 8cbc 2951 d2bb 1064 f6bb 080e 5bba
000003d0: b603 8eb7 05f1 8cbc dc95 f9bb 9794 1abc
000003e0: 45bb 34ba 58ec cc38 32ad e6bc 8cad e6bc
000003f0: 1578 45bc 47e7 27bc 79de 07b8 32ad e6bc
1.1240798e-37 1.1240798e-37 1.0789162e-37 1.1449842e-37 -1.1584958e-37 1.1240798e-37 1.0717822e-37 1.07459e-37
-1.0851746e-37 1.1584958e-37 1.1240798e-37 1.0820937e-37 -1.0789162e-37 -1.0603591e-37 1.1584958e-37 1.1240798e-37
1.0794454e-37 1.1421726e-37 -1.1048272e-37 1.1584958e-37 1.1240798e-37 1.0799181e-37 1.1421726e-37 -1.0835732e-37
1.1584958e-37 0.0 0.0 0.0 0.0 0.0 0.0 0.0
0.0 0.0 0.0 0.0 0.0 0.0 0.0 0.0
0.0 0.0 0.0 0.0 0.0 0.0 0.0 0.0
0.0 0.0 -0.013063747 -0.012713442 -0.00033596577 -0.0028282278 9.502352e-05 -0.013063747
-0.0018022585 -0.00012776838 -0.0006530273 2.2217926e-05 -0.013063747 -0.003509025 -0.0006805528 -0.0004066253
-0.00022206799 -0.013063747 -0.004814917 -0.009275419 -0.0007432765 -0.000109604975 -0.013063747 -0.0058808327
-0.004654139 -0.0007621714 -3.713806e-05 0.059855245 0.06054543 0.022003302 0.0145433005 0.0008491712
0.059855245 0.0006500934 0.028014364 -0.0012130991 -0.0015487295 0.059855245 0.011751267 -0.00891368
0.00035881597 -0.001054399 0.059855245 0.016259741 0.007847708 -0.0011960875 -0.0007963265 0.059855245
0.027777206 0.02053857 0.0005035354 -0.0009056011 -0.015812794 -0.016084801 -0.0020961452 -0.0037036662
-7.321808e-05 -0.015812794 -0.0012632717 -0.0076641706 -1.8736755e-06 0.00016030761 -0.015812794 -0.0035542333
0.00091377634 -0.0002790942 5.8740017e-05 -0.015812794 -0.0054089692 -0.0045799655 -0.00017288557 4.5542674e-05
-0.015812794 -0.006640853 -0.008654227 -7.6313794e-05 0.00012674171 -0.016749376 -0.016671233 -0.0037464644
-0.0043920367 -2.1311413e-05 -0.016749376 -0.001169359 -0.0031563158 0.00023094169 0.00010669027 -0.016749376
-0.0033169359 0.00087279145 0.00017755608 -1.8535342e-05 -0.016749376 -0.005215194 -0.0037342312 0.00013465124
2.3971854e-05 -0.016749376 -0.006605948 -0.00636774 0.00013841421 5.500427e-05 0.0 0.0
0.0 0.0 0.0 0.0 0.0 0.0 0.0 0.0
0.0 0.0 0.0 0.0 0.0 0.0 0.0 0.0
0.0 0.0 0.0 0.0 0.0 0.0 0.0 -0.01156048
-0.011931557 -0.0034016855 -0.0033690904 -9.7489756e-05 -0.01156048 0.0005337753 -0.01114551 0.00074162433
0.0001465439 -0.01156048 -0.002020101 0.0027705068 0.00067498925 0.00016063145 -0.01156048 -0.0025297203
0.0026107961 0.00054919836 0.00010707093 -0.01156048 -0.0042314655 -0.0066180713 0.00046287768 6.77201e-05
-0.007251585 -0.007415518 -0.0038235146 -0.0028348614 -0.00015059415 -0.007251585 0.00030056038 -0.003605917
0.0012532002 0.000105894185 -0.007251585 -0.00050736195 0.0017717988 0.0009880634 0.00023994505 -0.007251585
-0.0015124565 0.003556694 0.001244838 0.0001635716 -0.007251585 -0.002132289 -0.0026904913 0.001373144
0.00013441901 -0.01720477 -0.017335901 -0.0016353033 -0.0035427532 -1.7834805e-05 -0.01720477 -0.001928072
-0.0063866437 -0.0006141413 0.00015791671 -0.01720477 -0.004536784 0.0012281933 -0.00074418023 -4.6525423e-05
-0.01720477 -0.0064183665 -0.0075192526 -0.0008356278 -1.6929447e-05 -0.01720477 -0.0076167416 -0.009434841
-0.00068943604 9.7715005e-05 -0.028158758 -0.028158925 -0.012052556 -0.010248012 -3.2393702e-05 -0.028158758

exp_avg_sq f4 [128, 25]
00000000: 8a77 3f1e 8a77 3f1e 74ba df0c d67d 9c1c
00000010: 8fb4 110c 8a77 3f1e f6b5 8119 494c aa1c
00000020: a074 1a1a 8fb4 110c 8a77 3f1e 52db 7f1b
00000030: 3af9 9716 c2bc 601a 8fb4 110c 8a77 3f1e
00000040: 7fd9 131c 4c30 aa1d 81f1 2e1b 8fb4 110c
00000050: 8a77 3f1e 8c33 d41c 4c30 aa1d 55b0 6a1a
00000060: 8fb4 110c 0000 0000 0000 0000 0000 0000
00000070: 0000 0000 0000 0000 0000 0000 0000 0000
00000080: 0000 0000 0000 0000 0000 0000 0000 0000
00000090: 0000 0000 0000 0000 0000 0000 0000 0000
000000a0: 0000 0000 0000 0000 0000 0000 0000 0000
000000b0: 0000 0000 0000 0000 0000 0000 0000 0000
000000c0: 0000 0000 0000 0000 c02b 7d3b 943b 793b
000000d0: 62d1 253a 3916 a639 be5a f033 c02b 7d3b
000000e0: ef46 8637 33f9 d739 5f85 4b37 a1af 5c35
000000f0: c02b 7d3b 4d10 e338 d5ed a939 faa0 4237
00000100: 27bc 6e34 c02b 7d3b 77ae a839 9c6a 9d39
00000110: e94c 3d37 b50a de34 c02b 7d3b 1404 253a
00000120: 14d6 a339 a684 3e37 6ae5 3234 89b4 ab3c
00000130: ebf5 aa3c 9857 4b3b 69d7 d33a 98b0 8c35
00000140: 89b4 ab3c f234 2738 08aa ee3a 3b75 8938
00000150: 0a00 bc37 89b4 ab3c f1a5 373a 5d4a 843b
00000160: 1543 2a38 a6e6 5036 89b4 ab3c 951b e33a
00000170: f45c 173b 39f1 5f38 6045 c735 89b4 ab3c
00000180: 5856 5c3b f282 d73a 7b16 5b38 e78b bf35
00000190: 99d8 d33a c56c cf3a 4a73 9d39 5199 0a39
000001a0: ff17 0433 99d8 d33a 1ef7 f636 1926 6c39
000001b0: ff3f 9936 39e9 9634 99d8 d33a eacd 3f38
000001c0: f588 cd38 8835 a236 4be6 8233 99d8 d33a
000001d0: c487 0e39 dd8a ef38 9b81 9b36 664f c633
000001e0: 99d8 d33a 895d 8a39 7f3f 1739 2f8a 9236
000001f0: 30c9 bb33 d35b ba3a edfd b73a f191 6039
00000200: 53bb fc38 7f7e 1f33 d35b ba3a 9581 bc36
00000210: f968 2d39 c879 ab36 add4 c334 d35b ba3a
00000220: 08fd 1938 ac5b cd38 7749 af36 f882 a533
00000230: d35b ba3a c9f8 f238 1a0c 0239 9aba a536
00000240: f77a 6b34 d35b ba3a ec3f 6a39 2d9f ec38
00000250: 78f9 9c36 5a8f 6c33 0000 0000 0000 0000
00000260: 0000 0000 0000 0000 0000 0000 0000 0000
00000270: 0000 0000 0000 0000 0000 0000 0000 0000
00000280: 0000 0000 0000 0000 0000 0000 0000 0000
00000290: 0000 0000 0000 0000 0000 0000 0000 0000
000002a0: 0000 0000 0000 0000 0000 0000 0000 0000
000002b0: 0000 0000 0000 0000 0000 0000 164b 0e3b
000002c0: fd67 0d3b ff6c 9439 b533 3739 6ece ac33
000002d0: 164b 0e3b 4d03 ba36 e266 9f39 33d4 f136
000002e0: 0a62 1835 164b 0e3b 6d27 7538 4ca6 b139
000002f0: 9917 e836 7068 1c34 164b 0e3b 1c7a 3339
00000300: 78ce 8439 a2a4 d836 498e ee34 164b 0e3b
00000310: ef1b ae39 e091 6b39 5150 cd36 325d da33
00000320: b171 163b 12f0 143b 4d57 8d39 c2b0 4139
00000330: 522a b933 b171 163b 581c b336 e0d2 8d39
00000340: 6679 f036 2767 cd34 b171 163b bf21 8938
00000350: f3cb b239 7575 c936 c2df 1e34 b171 163b
00000360: b98c 3d39 99c1 6239 521a e736 a726 1a34
00000370: b171 163b db11 bd39 c62f 7b39 533a ea36
00000380: 0bb6 ec33 d9fb 5f3b 26b3 5a3b 9573 353a
00000390: 2479 9239 b990 9033 d9fb 5f3b 9283 9237
000003a0: ae33 d039 24c3 1e37 c8bf 6135 d9fb 5f3b
000003b0: 3b2a d038 123f 4339 3fbf 2637 7f83 2634
000003c0: d9fb 5f3b 0ccb 9939 6fd3 6539 6869 1e37
000003d0: 2a3d 8634 d9fb 5f3b 3ece 153a b4e4 8b39
000003e0: f404 1537 780e 3c34 a17c 6d3c 2459 6d3c
000003f0: 32c2 6c3b a505 c13a 3cca ab34 a17c 6d3c
1.0136176e-20 1.0136176e-20 3.4470808e-31 1.0355742e-21 1.1224729e-31 1.0136176e-20 1.3411781e-23 1.1269376e-21
3.1940663e-23 1.1224729e-31 1.0136176e-20 2.1163972e-22 2.455265e-25 4.6474592e-23 1.1224729e-31 1.0136176e-20
4.8919327e-22 4.5048563e-21 1.4470977e-22 1.1224729e-31 1.0136176e-20 1.4042308e-21 4.5048563e-21 4.8532506e-23
1.1224729e-31 0.0 0.0 0.0 0.0 0.0 0.0 0.0
0.0 0.0 0.0 0.0 0.0 0.0 0.0 0.0
0.0 0.0 0.0 0.0 0.0 0.0 0.0 0.0
0.0 0.0 0.0038630813 0.0038029896 0.0006325451 0.00031678544 1.1192377e-07 0.0038630813
1.6007076e-05 0.00041193663 1.2130796e-05 8.221196e-07 0.0038630813 0.0001082724 0.0003241139 1.1600781e-05
2.2233927e-07 0.0038630813 0.00032173443 0.00030024804 1.1283185e-05 4.1358513e-07 0.0038630813 0.0006294858
0.00031249283 1.1355767e-05 1.6661002e-07 0.02096011 0.020869216 0.0031027552 0.001616222 1.0482208e-06
0.02096011 3.9865212e-05 0.0018208632 6.554505e-05 2.2411365e-05 0.02096011 0.0007005623 0.004037185
4.0593633e-05 3.112867e-06 0.02096011 0.0017326946 0.0023096176 5.3392e-05 1.4846846e-06 0.02096011
0.00336208 0.0016442223 5.2234605e-05 1.4271326e-06 0.0016162574 0.0015825263 0.0003003127 0.0001321782
3.075547e-08 0.0016162574 7.3601395e-06 0.00022520906 4.5672055e-06 2.810937e-07 0.0016162574 4.572972e-05
9.800672e-05 4.834208e-06 6.095487e-08 0.0016162574 0.00013592752 0.000114222734 4.634448e-06 9.234536e-08
0.0016162574 0.000263911 0.00014424136 4.3672258e-06 8.744462e-08 0.001421804 0.0014037468 0.00021416672
0.00012051188 3.713512e-08 0.001421804 5.617922e-06 0.00016537671 5.1103743e-06 3.6476322e-07 0.001421804
3.6713696e-05 9.792237e-05 5.223959e-06 7.707234e-08 0.001421804 0.00011585799 0.00012402274 4.9391065e-06
2.1930815e-07 0.001421804 0.00022339792 0.00011283006 4.6782043e-06 5.507841e-08 0.0 0.0
0.0 0.0 0.0 0.0 0.0 0.0 0.0 0.0
0.0 0.0 0.0 0.0 0.0 0.0 0.0 0.0
0.0 0.0 0.0 0.0 0.0 0.0 0.0 0.0021712235
0.0021576874 0.00028309968 0.00017471502 8.0469235e-08 0.0021712235 5.543616e-06 0.00030403497 7.207063e-06
5.676708e-07 0.0021712235 5.844927e-05 0.00033883972 6.916886e-06 1.4566626e-07 0.0021712235 0.0001711626
0.00025330833 6.4564674e-06 4.443448e-07 0.0021712235 0.00033208678 0.00022465689 6.118826e-06 1.0168368e-07
0.002295595 0.00227261 0.0002695866 0.00018471762 8.622432e-08 0.002295595 5.3379154e-06 0.0002705073
7.16669e-06 3.825928e-07 0.002295595 6.538955e-05 0.0003410276 6.0039406e-06 1.47963e-07 0.002295595
0.00018076868 0.0002162516 6.8874006e-06 1.435643e-07 0.002295595 0.00036062193 0.00023955022 6.9805333e-06
1.102272e-07 0.0034177213 0.003337094 0.0006921825 0.00027937547 6.7318474e-08 0.0034177213 1.7465823e-05
0.00039711356 9.462969e-06 8.409811e-07 0.0034177213 9.926079e-05 0.00018620145 9.938899e-06 1.5507793e-07
0.0034177213 0.00029333716 0.00021917907 9.442076e-06 2.5003948e-07 0.0034177213 0.00057146314 0.00026682543
8.882245e-06 1.7514128e-07 0.014495046 0.014486585 0.0036126492 0.0014726414 3.1998377e-07 0.014495046

exp_avg f4 [128]
00000000: 7700 1902 0000 0000 5209 56bc c52a 753d
00000010: d589 81bc fd35 89bc 0000 0000 2b68 3dbc
00000020: b29e edbb 05f1 8cbc 33ad e6bc 6c0e 8dbc
00000030: 4a55 fc3d ca87 84bd e4a4 1b02 1c56 8fbb
00000040: d2fc eebb 2bbb 59bc 0000 0000 7d22 9ebc
00000050: da91 d2bc 0000 0000 9239 0cbc e270 92bc
00000060: 1ca0 d93a f313 5fbc 0000 0000 885e 0fbd
00000070: b7e2 ebbc b011 12bc 1c6c 873d e325 1202
00000080: 14fa 35bc 0000 0000 0000 0000 1ede 543d
00000090: 8e0e d9bb 6deb 4bbc 531f 1a02 d81d b7bc
000000a0: 9ee2 86bc 7c28 3ebc 4f8f 0dbc c6ad 1e02
000000b0: 42d0 7abc 1568 1502 c86b 07bc 0000 0000
000000c0: 60fb c8bb a64f 1a3c 50d8 1302 24ad db3b
000000d0: 2fcb c7bb 0000 0000 16b9 92bc df1a 163c
000000e0: 12e6 1bbd 5e30 89bb 7cc0 76bc 94a4 843d
000000f0: 52ba cabc a8f9 1c3d 0000 0000 7075 61bd
00000100: 4208 38bd 8bcc 0c3b 75b9 07bd a044 4dbd
00000110: 338d 6cbc aa6f c9bc cd92 1502 501b 903c
00000120: 633e 343d 37b8 a13a b0f6 0abc 0000 0000
00000130: 7d57 c93c f087 3fbc feea 053c 0000 0000
00000140: 0000 0000 22f9 3c3b 383e 8b3b 0000 0000
00000150: e147 65bc 7bac 92bc 4855 5ebc 0000 0000
00000160: dcc8 6ebd e0bf 34bc 9a53 27bc 7447 1202
00000170: 9151 d53b 0000 0000 aaed 543c 04a4 3a3c
00000180: 0197 08bc 90a8 1a02 1845 b03b 0000 0000
00000190: 3459 f2ba d898 76bd 9b88 16bc c323 d33c
000001a0: 5ad3 8b3c 5021 2f3b a0ef 91ba 4a54 1b3d
000001b0: 0000 0000 0000 0000 1cdc c13b a4b8 55bb
000001c0: c0c6 8fba 8d50 5bbd 1fbc 1202 ed3d b1bc
000001d0: 0000 0000 4137 813c 30e0 e6ba d95c 97bb
000001e0: f395 c4bc 3c53 0e3b 788d 453c 0000 0000
000001f0: 3ea0 1302 0000 0000 c33b afbb 0000 0000
1.1240798e-37 0.0 -0.013063746 0.05985524 -0.015812794 -0.016749376 0.0 -0.01156048
-0.007251584 -0.01720477 -0.02815876 -0.017218791 0.12320955 -0.06471212 1.1434923e-37 -0.0043742787
-0.007293322 -0.013289253 0.0 -0.019303555 -0.025704313 0.0 -0.008558648 -0.017876092
0.0016603502 -0.013615596 0.0 -0.03500226 -0.02879463 -0.00891535 0.06612417 1.0737259e-37
-0.011106987 0.0 0.0 0.05196964 -0.0066240495 -0.012446267 1.1323123e-37 -0.022353098
-0.016465481 -0.011606332 -0.008640124 1.1657877e-37 -0.015308442 1.0976661e-37 -0.008265443 0.0
-0.006133482 0.009418404 1.0861933e-37 0.0067039896 -0.0060972194 0.0 -0.017910521 0.00916168
-0.03806121 -0.004186674 -0.01506054 0.06476703 -0.024747048 0.03832403 0.0 -0.055043638
-0.04492975 0.0021484222 -0.03313585 -0.050114274 -0.014437961 -0.024589378 1.0988921e-37 0.017591149
0.04400481 0.0012338225 -0.008481666 0.0 0.02457785 -0.011690125 0.008173702 0.0
0.0 0.0028835018 0.0042493604 0.0 -0.013994188 -0.01790451 -0.013570137 0.0
-0.058297023 -0.011032075 -0.010212803 1.0746892e-37 0.0065099676 0.0 0.012996117 0.011391643
-0.008336783 1.1362508e-37 0.0053793304 0.0 -0.0018489719 -0.060204357 -0.009187843 0.025773888
0.017068554 0.0026722737 -0.0011134036 0.03792218 0.0 0.0 0.0059161317 -0.0032611275
-0.0010969266 -0.053543616 1.0780374e-37 -0.021635974 0.0 0.015773417 -0.001761442 -0.0046192226
-0.023997283 0.0021717092 0.012057655 0.0 1.0845842e-37 0.0 -0.0053477003 0.0

exp_avg_sq f4 [128]
00000000: 8a77 3f1e 0000 0000 c22b 7d3b 89b4 ab3c
00000010: 9dd8 d33a d35b ba3a 0000 0000 164b 0e3b
00000020: b371 163b d9fb 5f3b a17c 6d3c c428 273b
00000030: e618 4d3d de89 5a3d 1abd 8026 8896 3d3b
00000040: b41f 213b 22ae 163b 0000 0000 e970 6a3d
00000050: 1264 083c 0000 0000 69ea 313b 922f c33a
00000060: d871 b03c 7b1c a53a 0000 0000 fa3b 9f3c
00000070: fe1c 033c f8b4 543a 778f 593d f6a7 b424
00000080: 67ef a43a 0000 0000 0000 0000 a82c bf3c
00000090: 8663 1f3b ded9 f63a 5a41 8f25 bdf6 2d3d
000000a0: 5e09 e23a 7605 5c3c 4f6a de3c 4919 c422
000000b0: 1ad5 563d c96d 2f1e 547b 9d3b 0000 0000
000000c0: ddbb 8c3a b4b6 a03c 2365 8c26 d082 a43c
000000d0: 42b8 503a 0000 0000 e04a 383b 6eb5 a73c
000000e0: 3e26 373d b288 623c f19d 073b d32d 7b3c
000000f0: 1420 1f3c ca41 e23c 0000 0000 65f2 f03c
00000100: d5e7 593d 9869 fb3a 8610 e83c 7fe1 e33c
00000110: 89fd da3b 9ead 8e3b fe2d 191d 10f8 cc3d
00000120: 7930 4c3c 2b6a d739 5789 1e3a 0000 0000
00000130: 43d9 ff3c d5da 193b 1796 ae3b 0000 0000
00000140: 0000 0000 8aeb d33c bcbc 2f3c 0000 0000
00000150: a6fb a33a 9167 313b ea7e f43a 0000 0000
00000160: 7a2e db3d bb7f 753a f7bc 9f3a 7103 111e
00000170: 9c5a e83b 0000 0000 9255 063d 6d5e 883c
00000180: 00ff 573a fc0b 261e 688c 053c 0000 0000
00000190: 0d9f 0d3b c827 6c3d 1e68 803a b0d0 e93a
000001a0: cfa2 d33c 802c ca3a d3d6 3f3c 8389 993c
000001b0: 0000 0000 0000 0000 ea12 db3c c70e 7f3c
000001c0: cfc8 ef3c 4a07 bb3c 3c42 531d 41e5 1e3b
000001d0: 0000 0000 bd99 8c3c aa61 6e3d ee5c dd39
000001e0: 3d75 703b 0709 5f3c aaaf 873c 0000 0000
000001f0: 485e 8921 0000 0000 fdff c73c 0000 0000
1.0136176e-20 0.0 0.0038630818 0.02096011 0.0016162578 0.001421804 0.0 0.0021712235
0.0022955954 0.0034177213 0.014495046 0.0025506476 0.050072573 0.053354137 8.93304e-16 0.0028928835
0.0024585547 0.0022991975 0.0 0.057236586 0.00832464 0.0 0.0027147776 0.0014891496
0.02153866 0.0012596989 0.0 0.019437779 0.008002518 0.00081141246 0.053115334 7.8347093e-17
0.0012583554 0.0 0.0 0.023336723 0.0024320795 0.001883324 2.485083e-16 0.042471636
0.0017245223 0.013429036 0.027150301 5.315268e-18 0.052449323 9.287126e-21 0.0048059616 0.0
0.001073714 0.01961837 9.741865e-16 0.020081908 0.0007962027 0.0 0.00281208 0.020472255
0.044714205 0.013826536 0.0020693506 0.01533075 0.009712238 0.027619261 0.0 0.029412458
0.053199608 0.001918125 0.028328191 0.027817486 0.006683056 0.004354193 2.0273159e-21 0.10008252
0.012462729 0.00041087097 0.0006047687 0.0 0.031231528 0.0023476381 0.0053279507 0.0
0.0 0.02586915 0.01072615 0.0 0.001251091 0.0027069787 0.0018653546 0.0
0.10702224 0.00093650416 0.0012187053 7.676948e-21 0.0070908796 0.0 0.03279645 0.016646588
0.0008239597 8.790445e-21 0.008151151 0.0 0.0021609694 0.057655126 0.0009796654 0.0017838683
0.02583447 0.0015424639 0.011708933 0.018742329 0.0 0.0 0.026742417 0.015567488
0.029270558 0.022830624 2.795986e-21 0.0024245533 0.0 0.017163152 0.05819861 0.00042221643
0.0036690973 0.013612992 0.016563255 0.0 9.308437e-19 0.0 0.024414057 0.0

exp_avg f4 [128, 128]
00000000: 0000 0000 0000 0000 1a13 1502 0000 0000
00000010: 02fe 1902 b062 1202 0000 0000 9fb7 1d02
00000020: b1bb 1c02 55de 1e02 0000 0000 be1c 1a02
00000030: 0000 0000 0000 0000 0000 0000 6df3 1302
00000040: a582 1002 f339 1e02 0000 0000 9b73 1f02
00000050: 3695 1c02 0000 0000 896d 1102 4ab7 1902
00000060: 0000 0000 8115 1402 0000 0000 e97e 1502
00000070: 0000 0000 9b4c 1002 f009 1502 0000 0000
00000080: 3204 1c02 0000 0000 0000 0000 0478 1f02
00000090: af1c 1102 6b84 1202 0000 0000 0000 0000
000000a0: a1f2 1102 48d3 1402 0000 0000 0000 0000
000000b0: 0000 0000 0000 0000 52c0 1202 0000 0000
000000c0: a861 1402 e308 1a02 0000 0000 0000 0000
000000d0: 788b 1402 0000 0000 9af6 1c02 4265 1802
000000e0: 0000 0000 369b 1202 12cc 1402 9649 1502
000000f0: 8ce3 1c02 0000 0000 0000 0000 0000 0000
00000100: b6af 1302 694e 1702 0000 0000 4f60 1a02
00000110: 7b98 1302 1512 1702 0000 0000 e4b9 1f02
00000120: 0000 0000 9f1a 1302 2a51 1e02 0000 0000
00000130: 2293 1f02 decf 1f02 64ab 1702 0000 0000
00000140: 0000 0000 20c3 1802 8ec4 1702 0000 0000
00000150: b451 1002 1a50 1b02 09e9 1d02 0000 0000
00000160: 0000 0000 6346 1302 9855 1302 0000 0000
00000170: 2652 1a02 0000 0000 7dee 1702 af28 1102
00000180: 0000 0000 0000 0000 514c 1502 0000 0000
00000190: 0000 0000 e9eb 1402 42e7 1f02 8009 1102
000001a0: 0000 0000 0000 0000 0000 0000 0000 0000
000001b0: 0000 0000 0000 0000 0000 0000 39f6 1e02
000001c0: 0000 0000 023b 1502 0000 0000 286f 1402
000001d0: 0000 0000 0000 0000 0000 0000 ba1c 1502
000001e0: 0000 0000 19dd 1102 0000 0000 0000 0000
000001f0: 0000 0000 0000 0000 0000 0000 0000 0000
00000200: 8068 1002 0000 0000 5a0e a13b f46d dbba
00000210: 7841 2f3b 8105 323b 0000 0000 3fd4 a33b
00000220: 1b99 a43a b58e d03b a8d5 b2ba c985 9e3b
00000230: 70ef 8b3b 9efa 863b 0000 0000 9e92 6c3b
00000240: 74f0 e33a cc8c 883b 0000 0000 6ecf b83a
00000250: a0d5 b23b 0000 0000 79ff 933b 15a4 483b
00000260: 7c2f 6d39 63e4 923b 0000 0000 ea71 9e3b
00000270: 4f5a 933a ef76 623b aedc 6aba 5531 1802
00000280: 3849 d63a 0000 0000 0000 0000 1e09 ed3b
00000290: 1276 a53b f6a6 e53b 35a4 1582 c0e1 723b
000002a0: 7595 ce3a 5fe0 8e3b 62ea a5ba f079 1502
000002b0: c608 a43b 0000 0000 9025 e838 0000 0000
000002c0: 4108 833b 6bbb b73b 467a 1b02 5a49 5c3b
000002d0: c3be 043b 0000 0000 7cf5 ad3b e66f 36ba
000002e0: 39f5 9f3a 6e1e a33b d495 0c3b 4cc7 95ba
000002f0: 5a79 ab3b cd52 e239 0000 0000 f647 093b
00000300: f6ee b03a c94e 0039 4509 293a c73d 983b
00000310: 7532 a339 eeb8 96b9 74cf 1682 d0bb f53a
00000320: 48a7 ffb9 db21 663a fa5e 953a 0000 0000
00000330: 1aa4 613a 4889 9a3b 249f d03a 0000 0000
00000340: 0000 0000 2532 b139 85aa e239 0000 0000
00000350: 7d9f 143b dd08 763b 3801 5b3b 0000 0000
00000360: 7b9d dc39 b60d 913b fdf0 c03a 0000 0000
00000370: aec1 1e3b 0000 0000 60ea 593a df24 cb3b
00000380: 8929 ff39 0000 0000 260b 7c39 0000 0000
00000390: 3cdd 5838 ccdf 0dbb 28d9 aa3a 0adf 203b
000003a0: ee81 8d39 4e1a 343b 7631 8bb9 a2a0 6fb7
000003b0: 0000 0000 0000 0000 f0e7 663b 83be 9a3a
000003c0: b656 ed39 f8d7 253b 0000 0000 a374 883b
000003d0: 0000 0000 65fe 8938 6d82 c13a 7955 173a
000003e0: 7f85 173b b4cb d538 dfbe 123b 0000 0000
000003f0: 5b77 1282 0000 0000 98fe a139 0000 0000
0.0 0.0 1.0952273e-37 0.0 1.1313561e-37 1.0754708e-37 0.0 1.1587235e-37
1.1514935e-37 1.1671813e-37 0.0 1.1322382e-37 0.0 0.0 0.0 1.0869714e-37
1.0616942e-37 1.1624637e-37 0.0 1.1714652e-37 1.1503891e-37 0.0 1.0684353e-37 1.1293266e-37
0.0 1.0879494e-37 0.0 1.0983213e-37 0.0 1.0601434e-37 1.0949643e-37 0.0
1.1462274e-37 0.0 0.0 1.1715918e-37 1.0661149e-37 1.0764388e-37 0.0 0.0
1.0722549e-37 1.0933957e-37 0.0 0.0 0.0 0.0 1.0781579e-37 0.0
1.0901349e-37 1.1316683e-37 0.0 0.0 1.0913348e-37 0.0 1.1531841e-37 1.1196256e-37
0.0 1.0770929e-37 1.0931888e-37 1.0967909e-37 1.1526373e-37 0.0 0.0 0.0
1.0850281e-37 1.111623e-37 0.0 1.1341772e-37 1.0843614e-37 1.1098917e-37 0.0 1.1734823e-37
0.0 1.0807494e-37 1.16313e-37 0.0 1.17237e-37 1.174113e-37 1.1142915e-37 0.0
0.0 1.1223194e-37 1.1150136e-37 0.0 1.0602897e-37 1.141059e-37 1.1601416e-37 0.0
0.0 1.0820054e-37 1.0824419e-37 0.0 1.1337709e-37 0.0 1.1162171e-37 1.0664593e-37
0.0 0.0 1.0968693e-37 0.0 0.0 1.0941026e-37 1.1747843e-37 1.0655644e-37
0.0 0.0 0.0 0.0 0.0 0.0 0.0 1.1678669e-37
0.0 1.0963726e-37 0.0 1.0905223e-37 0.0 0.0 0.0 1.0955035e-37
0.0 1.071637e-37 0.0 0.0 0.0 0.0 0.0 0.0
1.0609439e-37 0.0 0.004915041 -0.0016741143 0.0026741903 0.0027163925 0.0 0.004999667
0.0012557836 0.0063646683 -0.0013643997 0.004837726 0.0042704865 0.0041192314 0.0 0.0036098133
0.0017390386 0.004167175 0.0 0.0014099905 0.005457595 0.0 0.0045165387 0.0030615379
0.0002261977 0.004482792 0.0 0.004835357 0.0011242124 0.0034555753 -0.00089592754 1.1181354e-37
0.0016348725 0.0 0.0 0.007233753 0.0050494755 0.0070084287 -1.0993916e-37 0.0037060827
0.0015761094 0.004360243 -0.0012658352 1.0981785e-37 0.0050059287 0.0 0.000110696186 0.0
0.0039987867 0.0056070588 1.1422692e-37 0.0033613057 0.0020255304 0.0 0.005308805 -0.0006959423
0.0012203819 0.0049779927 0.002145161 -0.0011427193 0.005232972 0.0004316777 0.0 0.0020947433
0.001349895 0.00012236381 0.00064482196 0.0046460363 0.00031127376 -0.00028748013 -1.1079796e-37 0.0018747989
-0.00048762024 0.00087788486 0.0011396103 0.0 0.0008607522 0.004716072 0.0015916568 0.0
0.0 0.0003379743 0.00043233126 0.0 0.002267807 0.0037541904 0.0033417474 0.0
0.00042079002 0.0044266833 0.0014720258 0.0 0.0024224329 0.0 0.00083128177 0.0061994637
0.00048668336 0.0 0.00024036746 0.0 5.1704454e-05 -0.0021648286 0.0013034688 0.0024547004
0.0002699042 0.00274815 -0.00026548997 -1.428291e-05 0.0 0.0 0.003523346 0.0011806044
0.00045268767 0.002530573 0.0 0.004164295 0.0 6.580054e-05 0.0014763601 0.0005772929
0.0023120341 0.00010194574 0.00223916 0.0 -1.0760639e-37 0.0 0.00030898 0.0
