highway_ddqn/ddqn_tuned/checkpoint-512.tar (torch, 892306 bytes, 18 tensors)

layers.0.weight f4 [256, 25]
0	0x3d30d793	0.043174338
1	0xbdd42230	-0.10358083
2	0xbda83d40	-0.082148075
3	0x3dc02427	0.093818955
4	0x3da2e500	0.079538345
5	0x3d61700d	0.0550385
6	0xbd853c9a	-0.065056995
7	0xbd918f9d	-0.0710747
8	0x3cf5378d	0.029933715
9	0xbe2f3d07	-0.17113124
10	0x3b497800	0.0030741692
11	0xbe05f42f	-0.1308143
12	0xbd7bc1a0	-0.061463952
13	0x3dc27fa7	0.09497004
14	0x3e3e698d	0.18594952
15	0xbe28a11d	-0.1646771
16	0x3b11ac00	0.0022227764
17	0x3e33f79b	0.17574923
18	0x3cdc9733	0.026927566
19	0xbcb5d900	-0.0221982
20	0x3dfbb6cd	0.12290726
21	0xbdaaa913	-0.083330296
22	0x3c8edd4d	0.017439509
23	0xbd392293	-0.04519899
24	0x3db47b37	0.08812564
25	0xbd074473	-0.033024263
26	0xbe23663b	-0.15956967
27	0x3d6620a7	0.056183483
28	0x3d0fb440	0.03508401
29	0xbcc95e00	-0.024580956
30	0xbe239e12	-0.15978268
31	0xbe2d642a	-0.16932741
32	0xbe472607	-0.194481
33	0xbe0ce4bf	-0.13759135
34	0x3c879540	0.01655066
35	0x3cf85f80	0.030318975
36	0xbe073b07	-0.13206111
37	0x3de62d8d	0.11239157
38	0x3dfc5380	0.12320614
39	0x3d291000	0.041275024
40	0x3e4cb05f	0.19989155
41	0x3c82a9e7	0.015950156
42	0x3d84c91a	0.064836696
43	0xbc238d33	-0.009982395
44	0xbe00e623	-0.1258779
45	0x3dce4b6d	0.1007298
46	0xbdd7b487	-0.1053248
47	0xbd26f087	-0.04075673
48	0xbdf8e5cd	-0.12153206
49	0x3d2d78fa	0.0423517
50	0x3ca680be	0.020325061
51	0xbd106f21	-0.03526223
52	0x3cc4f665	0.024043271
53	0xbcc7d7c3	-0.024394875
54	0xbb871624	-0.0041225124
55	0xbdd6302f	-0.10458409
56	0xbea282d4	-0.3174044
57	0xbdfcc179	-0.123415895
58	0xbecd8fd2	-0.4014879
59	0xbdd758c1	-0.10514975
60	0xbcfce19a	-0.030869294
61	0x3caaf9fa	0.020871151
62	0xbd2cb5bb	-0.0421655
63	0x3cff7826	0.03118522
64	0xbdb45937	-0.08806079
65	0xbe0d3ca8	-0.1379267
66	0x3e1302f9	0.14356603
67	0xbdd7cae1	-0.10536743
68	0x3e7c1c23	0.24620108
69	0xbcd6b9b6	-0.0262116
70	0x3cc9121e	0.024544772
71	0x3e10a4d7	0.14125381
72	0xbdaa8301	-0.08325768
73	0x3e49284f	0.19644283
74	0xbe4eed61	-0.2020774
75	0xbc4cdc6d	-0.0125037255
76	0xbe1c04ba	-0.15236178
77	0x3dd720ae	0.1050428
78	0xbd61206f	-0.05496257
79	0xbe3f519f	-0.1868348
80	0x3e14672f	0.14492486
81	0xbe0a974f	-0.13534282
82	0x3d536a6d	0.051615167
83	0x3d731d53	0.059354138
84	0xbd1d40c3	-0.03839184
85	0xbd94126b	-0.072300754
86	0x3c94141b	0.018075993
87	0xbe26b55a	-0.16280118
88	0xbd16bba4	-0.03680004
89	0x3dcee29c	0.10101816
90	0x3a0272da	0.00049762207
91	0x3ddaa5bf	0.10676145
92	0x3e24491e	0.16043517
93	0x3e304e6b	0.17217414
94	0x3d429c01	0.04751206
95	0xbe0ff396	-0.14057764
96	0xbdc869c3	-0.097857974
97	0x3b844cb5	0.0040374645
98	0x3e27cf3a	0.16387644
99	0x3e264084	0.16235548
100	0xbd6d869a	-0.057989694
101	0xbd422f0d	-0.047408152
102	0x3dcdc58a	0.10047443
103	0x3d998430	0.07495916
104	0xbe34b235	-0.17646106
105	0xbd9383dd	-0.07202885
106	0xbd944a47	-0.0724073
107	0x3e13844a	0.14405933
108	0xbd88d380	-0.066809654
109	0xbda90eca	-0.08254774
110	0x3ce6dff3	0.02818296
111	0xbe0d7b8a	-0.13816658
112	0xbe43fea3	-0.19140105
113	0x3dd4af50	0.10385001
114	0x3db3c120	0.0877707
115	0xbe32676f	-0.1742227
116	0x3ca410f3	0.020027613
117	0xbb97ae00	-0.0046288967
118	0x3e1a6eaf	0.15081285
119	0xbc8bde4d	-0.017073775
120	0x3e29b7ad	0.16573973
121	0xbe109635	-0.141198
122	0xbce89d27	-0.028395249
123	0xbe1130a2	-0.14178708
124	0xbe39e047	-0.18151961
125	0xbe06db8a	-0.13169685
126	0xbdb2f9d9	-0.08739061
127	0x3d90d6a5	0.0707219
128	0x3e95d474	0.2926365
129	0xbe2e05ab	-0.1699435
130	0x3db780a0	0.0896008
131	0xbe66e154	-0.22546893
132	0x3d034319	0.03204641
133	0xbf2a940b	-0.66632146
134	0xbe8e38f0	-0.27777815
135	0xbd498888	-0.049202472
136	0x3e83f772	0.25774723
137	0xbd793583	-0.06084205
138	0xbdcb62e1	-0.09930969
139	0xbd09b84e	-0.033623032
140	0x3ddc4dba	0.10757013
141	0x3e3ecea3	0.18633513
142	0xbe9936a6	-0.29924506
143	0xbe85ea4f	-0.26155326
144	0x3e7e7869	0.2485062
145	0x3e00a92a	0.12564531
146	0xbd52900a	-0.051406898
147	0xbe51472c	-0.20437306
148	0x3a926caf	0.0011171306
149	0xbe93ba67	-0.2885315
150	0x3d973a62	0.073841825
151	0xbd6a0aab	-0.05713908
152	0x3e2b82d3	0.16749124
153	0x3e07f247	0.13276015
154	0xbcc20b67	-0.023687078
155	0xbda16ab2	-0.07881679
156	0x3db2a85b	0.087235175
157	0x3d41e1c9	0.047334466
158	0x3e4be04c	0.19909781
159	0xbdded0af	-0.10879647
160	0x3d1f37c9	0.03887156
161	0x3d57366e	0.052542143
162	0xbe1a6abe	-0.15079781
163	0x3deb7164	0.11496237
164	0xbe29dc1c	-0.16587871
165	0xbe0062cd	-0.1253769
166	0xbd3e40ef	-0.046448644
167	0x3d900b51	0.070334084
168	0x3d707c11	0.05871207
169	0x3e098e58	0.13433206
170	0xbe59fed7	-0.2128862
171	0x3bfb22df	0.007664069
172	0x3d9e5715	0.07731453
173	0x3e4d9d0b	0.20079438
174	0xbc442067	-0.011970616
175	0xbe257fa7	-0.16161977
176	0xbe53e099	-0.20691146
177	0x3dc303da	0.09522219
178	0x3e0fae79	0.140314
179	0xbe2ed42b	-0.17073123
180	0x3dd850b2	0.105622664
181	0xbdd7af7e	-0.10531519
182	0xbe296f0b	-0.16546266
183	0x3d36f793	0.0446697
184	0x3e1dbe45	0.15404613
185	0xbc46f6ff	-0.012143849
186	0x3dd48228	0.10376388
187	0x3e1ccd60	0.1531272
188	0x3bf2e3e2	0.0074124197
189	0x3d86b99f	0.06578373
190	0xbdabccf5	-0.08388702
191	0xbe4b64e4	-0.19862705
192	0xbd7165b2	-0.058934875
193	0xbcef7084	-0.029228456
194	0x3c3ec06c	0.011642557
195	0x3e1b884b	0.1518871
196	0x3d0ecffc	0.034866318
197	0x3e3eaf37	0.18621527
198	0xbe1d8160	-0.15381384
199	0x3dfef9f5	0.12450019
200	0x3e93ad67	0.28843233
201	0xbd092342	-0.03348089
202	0x3c3c4fda	0.0114936475
203	0xbebdc001	-0.3706055
204	0x3f248fef	0.64282125
205	0x3e95d9f7	0.29267856
206	0x3f3ac2a5	0.72953254
207	0xbf3be3f2	-0.7339469
208	0x3ec15606	0.37760943
209	0xbf5402d0	-0.8281679
210	0x3e9265ac	0.28593194
211	0xbe204aac	-0.15653485
212	0x3c33e6b6	0.010980299
213	0x3daf206d	0.085511066
214	0xbf35d3cf	-0.7102632
215	0x3e01dfde	0.12683055
216	0x3d84e2b0	0.0648855
217	0xbdb8af96	-0.09017865
218	0x3ebb6ac4	0.36604893
219	0xbf0021e2	-0.500517
220	0x3d179f5b	0.037017208
221	0x3dc9dfa9	0.09857113
222	0xbecde0a4	-0.4021045
223	0x3e727dc5	0.2368079
224	0xbf3cd48f	-0.7376184
225	0xbe1d4c46	-0.15361127
226	0xbc2aef4e	-0.010433031
227	0x3e3901db	0.18067114
228	0x3e79a68d	0.2437994
229	0x3ec45ac4	0.383505
230	0x3d38b243	0.04509188
231	0xbd87f6e3	-0.06638887
232	0x3d8d53d0	0.069007516
233	0xbee64f1f	-0.4498224
234	0xbf4f2852	-0.809209
235	0xbe21838a	-0.15772834
236	0xbe32d1d2	-0.17462853
237	0x3e1a5b6d	0.15073939
238	0xbf172617	-0.59042495
239	0xbecb13d5	-0.39663568
240	0xbe6d6cb6	-0.23186001
241	0xbe3eb7f9	-0.18624867
242	0xbe303283	-0.17206769
243	0xbee4f566	-0.44718474
244	0xbe164227	-0.14673673
245	0x3d84f07d	0.06491182
246	0xbd7b9c45	-0.061428327
247	0x3e7f3649	0.24923052
248	0xbf07837b	-0.52935
249	0xbf298bdc	-0.66229033
250	0x3e0e0c24	0.13871819
251	0x3ed31d1c	0.41233146
252	0x3d949d4b	0.07256564
253	0xbea48b7a	-0.32137662
254	0xbe90370d	-0.28167
255	0x3ed92ad8	0.424155

layers.0.bias f4 [256]
0	0xbd8a47d7	-0.067519836
1	0xbe18e125	-0.14929636
2	0x3d0348c0	0.0320518
3	0xbd4a9805	-0.049461383
4	0xbdbbe3c0	-0.09174299
5	0x3e44bd2c	0.19212788
6	0x3a2aa22e	0.0006509152
7	0xbd9c4095	-0.076295055
8	0x3ec6d419	0.38833693
9	0xbe0afe11	-0.13573481
10	0x3eca1451	0.39468625
11	0x3dbd0cc6	0.09230952
12	0x3d9794ae	0.07401405
13	0x3e25718d	0.16156597
14	0xbc7884e7	-0.015168405
15	0xbe6c9b55	-0.2310613
16	0xbdb6e223	-0.08929851
17	0x3e6cbdf2	0.23119333
18	0xbe0e06e4	-0.13869816
19	0xbe4746d8	-0.19460618
20	0xbdef05c4	-0.116710216
21	0xbde45bf3	-0.111503504
22	0x3cf59370	0.02997753
23	0xbcc4263f	-0.023944018
24	0xbe0aa403	-0.13539128
25	0xba984f33	-0.0011620283
26	0x3e1271b9	0.14301194
27	0xbd22a87a	-0.039711453
28	0x3d0060b3	0.03134222
29	0x3e45b9a9	0.19309105
30	0x3e35000d	0.176758
31	0x3e81f96e	0.25385612
32	0xbe2c02bf	-0.16797923
33	0x3d800d4e	0.06252538
34	0x3e4ad85d	0.19809099
35	0xbe029920	-0.12753725
36	0xbd8e5246	-0.06949286
37	0xbd1d60d9	-0.03842244
38	0x3de97a4d	0.1140028
39	0x3c1da849	0.009622642
40	0xbe08ee23	-0.13372092
41	0x3c8fe681	0.017565968
42	0x3d4b4bdf	0.049632903
43	0x3dd6bbfa	0.104850724
44	0x3d811d43	0.06304409
45	0xbdbc9951	-0.0920893
46	0xbdc15e2d	-0.09441791
47	0xbcce7439	-0.025201904
48	0x3ec9d74f	0.3942208
49	0x3e0e00dd	0.13867517
50	0xbdfb49ad	-0.12269912
51	0x3e2834a5	0.16426332
52	0xba9d0a67	-0.001198125
53	0xbe3a512c	-0.18195027
54	0xbe186513	-0.14882307
55	0xbe3bc3f2	-0.18336466
56	0x3e87bca1	0.265111
57	0xbd4fa601	-0.050695423
58	0x3e9056f6	0.28191346
59	0xbe0d31e8	-0.13788569
60	0x3e440327	0.19141828
61	0xbdfeef1a	-0.12447949
62	0x3e758898	0.23977888
63	0xbbe694cc	-0.007036781
64	0x3e58e884	0.21182448
65	0x3ded1f3d	0.11578224
66	0x3dca7980	0.098864555
67	0xbcf566e7	-0.029956294
68	0x3de30eb6	0.1108679
69	0x3e4a5ff6	0.19763169
70	0xbe722edc	-0.23650688
71	0xbdf994ad	-0.12186561
72	0xbe3e188f	-0.18564056
73	0xbdcc7637	-0.09983485
74	0xbe1e1a1e	-0.1543965
75	0x3dc630c8	0.09677273
76	0xbda26d90	-0.07931054
77	0xbd766ffa	-0.060165383
78	0x3ddffb48	0.109366
79	0xbc9d9be3	-0.019239372
80	0x3eb2c14d	0.34913102
81	0xbe16829c	-0.14698261
82	0x3e21a88d	0.15786953
83	0x3da3f3d1	0.08005489
84	0xbe007e13	-0.12548093
85	0x3e802565	0.2502853
86	0xbdafe8d7	-0.085893326
87	0xbe0a5fc8	-0.135131
88	0xbe37e605	-0.17958839
89	0xbe315abf	-0.17319773
90	0xbe0d8159	-0.13818873
91	0xbc8f48b2	-0.017490719
92	0xbd82f6e3	-0.06394746
93	0xbdc675ef	-0.09690463
94	0xbd7fe220	-0.06247151
95	0x3be2a367	0.0069164517
96	0x3cb50fa9	0.022102194
97	0xbe125e7b	-0.14293854
98	0x3d3e44c9	0.046452317
99	0xbcc4abd3	-0.024007713
100	0x3e4ccccd	0.2
101	0x3d74e2b7	0.059786525
102	0x3c153b2a	0.009108344
103	0x3e0179f9	0.12644185
104	0xbe152bd3	-0.14567499
105	0x3da55543	0.08072903
106	0x3d28fbd7	0.0412558
107	0x3e11136f	0.1416757
108	0xbe2524b3	-0.16127281
109	0xbe2b1aaa	-0.1670939
110	0x3cd7c8f3	0.026340937
111	0x3e838a1d	0.2569131
112	0xbe495abf	-0.19663523
113	0xbdfd2a6c	-0.12361607
114	0xbe06dc12	-0.13169888
115	0x3e833224	0.25624192
116	0x3e5dd582	0.21663478
117	0xbe0d6d88	-0.13811314
118	0xbdd14a63	-0.10219266
119	0x3e16d592	0.14729908
120	0x3c4c666c	0.012475591
121	0x3d94ae91	0.072598584
122	0x3e14f611	0.14546992
123	0x3e4f6ae5	0.20255621
124	0x3dd087ea	0.101821736
125	0x3e2f2d28	0.1710707
126	0x3d62267c	0.055212483
127	0x3e0bcdee	0.13652775
128	0x3e250a8b	0.16117303
129	0x3e406b82	0.18791011
130	0x3e9f3aa3	0.31099424
131	0xbe732ea0	-0.23748255
132	0x3d486276	0.048922025
133	0xbd42de6a	-0.04757539
134	0x3ec1f7fb	0.37884507
135	0xbe1d03cb	-0.15333478
136	0x3d9e1481	0.077187546
137	0x3a106233	0.0005507797
138	0xbe104e13	-0.14092283
139	0xbe07d3e4	-0.13264424
140	0x3d27889a	0.040901758
141	0xbd840c63	-0.06447675
142	0x3d743900	0.059624672
143	0x3dec2757	0.11530941
144	0x3d55127a	0.052019574
145	0x3d1f3439	0.038868163
146	0xbe451d6f	-0.1924951
147	0xbdd39174	-0.10330477
148	0x3cc61d45	0.024183879
149	0x3d3d480c	0.046211287
150	0xbd6e3a98	-0.058161348
151	0x3d4d5de9	0.050138388
152	0x3e692970	0.22769713
153	0x3de57684	0.11204246
154	0xbdc62363	-0.09674718
155	0x3e6be9f0	0.23038459
156	0xbe2f0845	-0.17092998
157	0x3dbc8440	0.09204912
158	0x3dd4d80f	0.103927724
159	0xbd808cca	-0.062768534
160	0xbe7099a6	-0.23496112
161	0x3df02120	0.11725068
162	0x3e2c9daa	0.16857019
163	0xbdc2d85f	-0.09513926
164	0xbe1bcd32	-0.15214995
165	0x3ed73a90	0.42036867
166	0xbe359aa8	-0.17734778
167	0x3cc1acad	0.023641909
168	0x3ad7a48f	0.001645224
169	0xbd853018	-0.06503314
170	0xbcd7acc9	-0.026327508
171	0xbccbd84f	-0.024883417
172	0xbdb845e2	-0.08997704
173	0xbde01625	-0.10941724
174	0xbe1b11b0	-0.15143466
175	0xbd9ecb91	-0.07753671
176	0x3e2a4e61	0.16631462
177	0xbcb1242b	-0.021623692
178	0x3e1312dd	0.14362665
179	0xbe38a2c5	-0.18030842
180	0x3e69cc0f	0.22831748
181	0xbc58821a	-0.013214612
182	0xbe3417e4	-0.17587239
183	0xbe8417ea	-0.25799495
184	0xbb90a476	-0.0044141365
185	0xbe3caf97	-0.18426357
186	0xbe2d29c3	-0.16910462
187	0xbdcbcd8e	-0.09951316
188	0xbd855e90	-0.06512177
189	0xbd0324dd	-0.032017577
190	0xbc910a1a	-0.017705012
191	0xbbeedfc9	-0.007289861
192	0x3cb843da	0.022493292
193	0xbcb9e7cd	-0.022693539
194	0x3e089b5d	0.13340516
195	0x3c805bce	0.015668776
196	0x3e6bcf9e	0.23028418
197	0x3e5a2ab9	0.2130536
198	0x3e72ca25	0.23709925
199	0x3ed940c4	0.42432225
200	0xbd673e2c	-0.056455776
201	0x3c8e728b	0.017388603
202	0xbbc1be26	-0.00591256
203	0x3e46cd49	0.19414248
204	0x3d70887e	0.05872392
205	0x3da1b40f	0.078956716
206	0xbd5e545a	-0.054279663
207	0xbe321a0f	-0.17392753
208	0xbbf9c19a	-0.007621956
209	0xbda65e67	-0.081234746
210	0xbdbf8840	-0.093521595
211	0xbe269564	-0.16267926
212	0x3e2c082d	0.16799994
213	0x3d2bada6	0.04191365
214	0x3e5c7a99	0.21531142
215	0xbe4b19bb	-0.19834034
216	0x3e8fb608	0.28068566
217	0x3d97a72c	0.074049324
218	0xbe4c8530	-0.19972682
219	0x3b606267	0.003423834
220	0x3e88409c	0.26611793
221	0xbc4050e7	-0.011738039
222	0x3e2783a8	0.16358817
223	0xbdc280c8	-0.09497219
224	0xbd4d6834	-0.050148204
225	0xbdb17b06	-0.08666043
226	0xbdd2ee7d	-0.10299394
227	0xbd8d3aa6	-0.06895952
228	0x3e16df7e	0.14733693
229	0x3dd39b68	0.10332376
230	0x3da8952a	0.08231576
231	0x3b9dcb6f	0.004815511
232	0xbe1fb299	-0.15595473
233	0x3e814e45	0.25255027
234	0xbd6e92dd	-0.05824553
235	0xbda23659	-0.07920522
236	0x3deb6a24	0.11494854
237	0xbe06c167	-0.13159715
238	0x3db01b9a	0.085990146
239	0x3df91667	0.12162476
240	0xbdb1ebbd	-0.08687542
241	0xbbb15703	-0.005411984
242	0xbd6d5d7a	-0.057950474
243	0x3e306d9d	0.17229314
244	0xbd0b39db	-0.033990722
245	0x3db784a9	0.0896085
246	0x3e1d7288	0.15375721
247	0x3e0f2c30	0.139817
248	0x3da94bcf	0.082664125
249	0xbe27f395	-0.16401513
250	0xbe0a55b3	-0.13509254
251	0xbd1c986d	-0.038231302
252	0xbd8078df	-0.06273054
253	0xbdfec47d	-0.12439821
254	0xbb4704e3	-0.0030367903
255	0xbe418d18	-0.18901479

layers.1.weight f4 [256, 256]
0	0xbd5efaa8	-0.054438263
1	0xbbc46450	-0.0059934035
2	0x3cc8edf7	0.024527533
3	0x3ca9ff28	0.02075155
4	0xbce03bdc	-0.027372293
5	0x3cd9926a	0.026559073
6	0xbd409b58	-0.047023147
7	0x3d51e1a3	0.051240575
8	0xbc884777	-0.01663564
9	0x3d164cb0	0.03669423
10	0xbcde9d34	-0.02717457
11	0x3d46a5df	0.04849803
12	0xbd69a292	-0.057039805
13	0xbd60f07a	-0.054916836
14	0x3d5dfda0	0.054196954
15	0x3d4e1100	0.05030918
16	0x3cbad1d8	0.02280514
17	0x3d45d33e	0.04829716
18	0x3ca69254	0.020333447
19	0xbb732e00	-0.0037106276
20	0x3cd99cad	0.026563967
21	0xbd7cc7b4	-0.06171389
22	0x3d1cde20	0.038297772
23	0x3d573322	0.052539
24	0x3d547a14	0.051874235
25	0x3d5a0f32	0.053237148
26	0x3cc29b55	0.023755709
27	0x3d0e5610	0.034750044
28	0xbd483978	-0.04888293
29	0x3d50f65d	0.0510162
30	0xbce957d7	-0.028484268
31	0x3d491adf	0.049097892
32	0x3d2dedd2	0.04246313
33	0xbb3a9429	-0.0028469658
34	0x3cd02664	0.025408931
35	0x3c0a8020	0.008453399
36	0x3d55f47e	0.05223512
37	0x3c239d50	0.009986237
38	0x3d1948a2	0.037422784
39	0x398821dd	0.00025965172
40	0xbd5387a0	-0.051643014
41	0xbd29eabd	-0.04148363
42	0xbbdfca52	-0.0068295384
43	0x3d31e26d	0.043428827
44	0xbd2c5518	-0.04207334
45	0x3cd35281	0.025796177
46	0x3c3b46a9	0.011430421
47	0x3cbc98c8	0.02302207
48	0x3a39ef00	0.0007092804
49	0xbd3942e8	-0.045229822
50	0xbd5ca08c	-0.053864047
51	0xbc0143e6	-0.007889723
52	0xbd45d932	-0.048302837
53	0xbd4c7cfd	-0.049923886
54	0xbd4a20fa	-0.049347855
55	0xbbf68c45	-0.0075240456
56	0xbaf4f5da	-0.0018688992
57	0xbca44b56	-0.020055454
58	0xbbc8b186	-0.006124678
59	0xbca5bb50	-0.02023092
60	0xbd099a04	-0.033594146
61	0x3c5694a8	0.013096966
62	0x3d6233d9	0.055225227
63	0xbc8ef548	-0.017450944
64	0xbd5e1786	-0.054221652
65	0xbd2971ae	-0.04136818
66	0xbc2c7e49	-0.010528156
67	0xbd7745de	-0.060369365
68	0xbd223aa6	-0.039606713
69	0xbd5a8f12	-0.0533591
70	0x3b963950	0.004584469
71	0x3cacc55c	0.021090202
72	0x3ce06dd9	0.02739613
73	0xbc98a928	-0.018635347
74	0x3b024a62	0.0019880761
75	0x3cae7595	0.021296302
76	0x3d5adb66	0.05343189
77	0x3d19c675	0.03754278
78	0xbd245797	-0.040122595
79	0xbd65fadc	-0.05614744
80	0x3cd22502	0.025652412
81	0x3d512d2e	0.051068477
82	0xbd3c654e	-0.04599505
83	0xbc9c8b10	-0.019109279
84	0xbc9b8b90	-0.018987447
85	0xbc30d598	-0.010793112
86	0x3c9fbcf4	0.01949928
87	0xbd5970f9	-0.053086255
88	0x3cd0a9fc	0.02547168
89	0xbd20773e	-0.03917622
90	0x3d4b6974	0.049661115
91	0x3d328829	0.043586884
92	0xbd87b94f	-0.06627142
93	0xbcb7ee72	-0.022452567
94	0x3d52a868	0.051430136
95	0x3c619cd0	0.013770297
96	0x3c2b179a	0.010442639
97	0xbd7197e5	-0.05898275
98	0xbd0173cd	-0.031604577
99	0x3d3cde2b	0.046110313
100	0xbd5701af	-0.05249184
101	0x3d3fde77	0.04684302
102	0xbd63f74c	-0.055655763
103	0xba805d61	-0.0009793454
104	0xbd21c206	-0.039491676
105	0xbd49ec58	-0.04929766
106	0xbd637324	-0.05552973
107	0xbd8213c0	-0.06351423
108	0x3d46dbe6	0.048549555
109	0xbd28bebc	-0.041197523
110	0xbd1a6568	-0.037694365
111	0x3d5bb75e	0.05364167
112	0x3ba7a9e0	0.005116686
113	0xbd12ae58	-0.0358108
114	0x3c689f10	0.01419808
115	0x3d57001a	0.05249033
116	0xbd058652	-0.0325988
117	0x3ca2a06f	0.019851891
118	0x3d08ac4e	0.033367448
119	0xbd358fdc	-0.044326648
120	0xbd4297e8	-0.04750815
121	0x3d08deda	0.033415653
122	0x3ca64405	0.020296106
123	0xbcdb2efa	-0.026755799
124	0x3c9c7794	0.019099988
125	0xbd2f9f73	-0.042876672
126	0xbd6b3baa	-0.057429947
127	0xbb7d4a66	-0.0038649081
128	0x3d5bd9b7	0.053674426
129	0x3c958ae5	0.018254707
130	0x3d1893a6	0.037250184
131	0xbd384903	-0.044991504
132	0xbd38e719	-0.045142267
133	0xbd4a9dd1	-0.04946691
134	0xbd16d14d	-0.0368207
135	0xbad62b00	-0.0016339719
136	0x3c92c834	0.01791773
137	0xbd5596bf	-0.052145716
138	0xbd50d1be	-0.050981276
139	0xbc1b74ea	-0.009488324
140	0xbd3662ea	-0.044527926
141	0xbd5d647e	-0.054050915
142	0xbd2ed51b	-0.042683702
143	0xbd4cddf8	-0.050016373
144	0xbd1d0fd4	-0.038345173
145	0x3cae9d46	0.021315228
146	0x3b7f58d7	0.0038962865
147	0xbd5ab528	-0.05339542
148	0xbd0758f0	-0.0330438
149	0xbb6a2960	-0.0035730228
150	0x3a864bad	0.0010245942
151	0x3ccf1c7a	0.025282133
152	0x3d4948f7	0.04914185
153	0x3d5511e7	0.052019026
154	0xbc3ea310	-0.011635557
155	0x3c5339c3	0.012892189
156	0xbc691930	-0.014227197
157	0xbccdbb20	-0.025113642
158	0x3d1aa8cb	0.03775863
159	0x3d632526	0.05545535
160	0xbc3d3f9d	-0.011550811
161	0x3cb34fcc	0.021888636
162	0xbc9eb8f4	-0.019375302
163	0x3cbb6c0a	0.022878665
164	0x3d4ccdad	0.050000835
165	0xbd1a5a4d	-0.037683774
166	0x3d3aaa1e	0.045572393
167	0x3ce8dcec	0.028425656
168	0xbc8f6e98	-0.01750879
169	0x3b378595	0.0028003205
170	0x3cb4848e	0.022035863
171	0xbcca45ca	-0.024691481
172	0xbcbbade7	-0.022910072
173	0x3d140781	0.03613997
174	0xbd5cb6db	-0.053885322
175	0x3ce92362	0.028459255
176	0x3d3d088c	0.04615073
177	0x3c9d35d2	0.019190703
178	0x3b3a8775	0.0028462086
179	0xbd1cc9b0	-0.03827828
180	0xbac2e500	-0.0014869273
181	0xb5fd0000	-1.8849969e-06
182	0xbcf22669	-0.029559331
183	0xbd5f384f	-0.05449706
184	0xbd0a65d9	-0.033788536
185	0xbd73640c	-0.059421584
186	0x3d53b85a	0.051689483
187	0xbc3bb650	-0.011457041
188	0x3b880410	0.004150875
189	0xbd8417e9	-0.06449873
190	0xbcd87fb8	-0.026428089
191	0x3bfc4f00	0.007699847
192	0x3d599fb4	0.05313082
193	0x3c4d3f18	0.01252725
194	0xbcfde314	-0.030992068
195	0x3c7ea499	0.015542173
196	0x3cb5c4b6	0.022188526
197	0xbd207da3	-0.039182317
198	0xbcf3f2c4	-0.029778846
199	0xbd6fb0e5	-0.05851831
200	0xbd225d90	-0.03964001
201	0xbcb4f777	-0.022090657
202	0xbd48a405	-0.048984546
203	0xbcf88b2d	-0.030339802
204	0xbd40ba1a	-0.04705248
205	0xbd858fdb	-0.06521579
206	0xbc05af8d	-0.00815953
207	0x3d02b9d0	0.031915486
208	0xbd74c112	-0.05975444
209	0xbd7b9dee	-0.06142991
210	0x3caa12e4	0.02076096
211	0xbd73555d	-0.05940758
212	0xbd3479cb	-0.044061463
213	0x3caec5a2	0.021334473
214	0xbd45343e	-0.048145525
215	0xbd4221a5	-0.047395367
216	0xbbbf7527	-0.005842823
217	0x3cff6430	0.031175703
218	0xbd48a96a	-0.04898969
219	0xbd755168	-0.05989209
220	0xbd14468d	-0.036200095
221	0x3b1ce320	0.0023939088
222	0xbc249af1	-0.010046707
223	0xbccac566	-0.02475233
224	0x3d37ed04	0.04490377
225	0xbc07b622	-0.00828317
226	0xbd581e38	-0.052763194
227	0x3d2632f4	0.040575936
228	0xbd0b094b	-0.03394441
229	0x3cf7f7ae	0.03026947
230	0xb971ee60	-0.00023072353
231	0x3c943f24	0.018096514
232	0xbd50fa78	-0.051020116
233	0xbd13b1b2	-0.036058135
234	0xbd4002b4	-0.046877578
235	0xbb2887e7	-0.002571577
236	0xbc9431f7	-0.018090231
237	0x3d15bac0	0.03655505
238	0x3c5d5c0f	0.013510718
239	0xbd01bf32	-0.03167648
240	0xbcb70728	-0.02234228
241	0xbce8de07	-0.028426183
242	0xbd8441f0	-0.06457889
243	0x3ccefe68	0.025267795
244	0x3c019db0	0.007911131
245	0x3d4035d2	0.046926327
246	0xbd2c0f1f	-0.042006608
247	0x3c6d2869	0.014474967
248	0x3cbbddc6	0.022932898
249	0x3d027d9e	0.03185808
250	0xbd10442e	-0.03522127
251	0xbd353562	-0.044240363
252	0xbd392120	-0.045197606
253	0xbd33b00c	-0.043869063
254	0xbcbf5f44	-0.023360856
255	0xbc66e8c9	-0.014093586

layers.1.bias f4 [256]
0	0x3bfe6d2c	0.007764479
1	0xbd5b7093	-0.053574156
2	0xbd570900	-0.052498817
3	0xbd402ffa	-0.046920754
4	0xbd180e01	-0.03712273
5	0x3dc9bfa2	0.09851004
6	0xbd39670a	-0.04526428
7	0xbd33c191	-0.04388577
8	0xbd7281e9	-0.059205923
9	0xbc92c8fe	-0.017918106
10	0x3d2124a7	0.039341595
11	0xbdc76595	-0.09736172
12	0xbce10daf	-0.027472345
13	0xbdd92820	-0.10603356
14	0x3bdc4113	0.0067216246
15	0x3e76e58d	0.24111004
16	0x3cc818d4	0.024425901
17	0x3d2ab2c2	0.041674383
18	0xbcc33d64	-0.023832984
19	0x3d3a662f	0.045507606
20	0xbd67a8b8	-0.056557387
21	0xbe1ff3fb	-0.15620415
22	0xbd686200	-0.056734085
23	0xbcfad366	-0.03061838
24	0xbe108726	-0.14114055
25	0xbdffa75d	-0.12483094
26	0xbe029bb9	-0.12754716
27	0xbc19f2e3	-0.009396288
28	0x3c8f0383	0.01745773
29	0xbc15d509	-0.00914503
30	0x3c84eb4b	0.016225478
31	0x3c9f6f35	0.019462207
32	0x3ce356ed	0.02775141
33	0xbd10d92e	-0.03536337
34	0x3d22dbf5	0.03976055
35	0xbd36f2c3	-0.04466511
36	0xbc974a7e	-0.018468138
37	0x3cdc8c82	0.026922468
38	0xbc69ef40	-0.014278233
39	0x3b9541d9	0.004554969
40	0x3c96dacc	0.018414877
41	0x3cfdbb3a	0.030973066
42	0xbe15b9d9	-0.14621677
43	0x3d5172c4	0.05113484
44	0xbd82ca48	-0.06386238
45	0xbddf91d2	-0.10916485
46	0x3d835f0c	0.06414613
47	0x3a71e914	0.0009228152
48	0xb833a882	-4.283386e-05
49	0xbd81dbed	-0.06340776
50	0x3e0fc366	0.14039382
51	0x3d8acdff	0.06777572
52	0xbd29328f	-0.041307982
53	0xbe1c3312	-0.15253857
54	0xbda24dd7	-0.07925003
55	0x3d454212	0.048158713
56	0x3c87b692	0.016566548
57	0xbda95dec	-0.08269867
58	0xbcb55404	-0.022134788
59	0xbbe9d281	-0.0071356897
60	0xbd017c04	-0.03161241
61	0x3e62cad9	0.22147693
62	0xbd53b392	-0.051684923
63	0xbc03e1c8	-0.008049436
64	0x3cede7c8	0.029041186
65	0xbd81f4ad	-0.06345496
66	0xbc9fe49e	-0.019518193
67	0x3d01fc31	0.03173465
68	0x3c83fadb	0.016110828
69	0xbc7cfd93	-0.015441316
70	0x3d7412ba	0.05958817
71	0x3ca1d6b8	0.019755706
72	0xbd7805f4	-0.060552552
73	0xbc5b6f06	-0.013393169
74	0xbbf42e58	-0.0074518137
75	0xbc688f27	-0.014194286
76	0xbcddada1	-0.027060332
77	0xbd2ac183	-0.041688453
78	0xbd6619f9	-0.056177113
79	0xbd097e7b	-0.033567887
80	0x3cdb8d09	0.02680065
81	0x3d2c108c	0.042007968
82	0xbd4794a0	-0.048725724
83	0xbc36844d	-0.011139941
84	0xbd192bab	-0.03739516
85	0xbd4bef19	-0.04978857
86	0x3de63b02	0.112417236
87	0x3c8e483a	0.017368425
88	0xbd5d571f	-0.054038163
89	0xbd314b5d	-0.043284763
90	0x3d079f04	0.033110633
91	0x3d3a5954	0.045495346
92	0x3d72ccd4	0.05927737
93	0xbd45bd27	-0.048276093
94	0xbe0a4f73	-0.1350687
95	0xbbf2d281	-0.007410348
96	0xba3d85c3	-0.000722971
97	0xbd60345f	-0.054737445
98	0x3d223039	0.03959677
99	0x3d267617	0.040639963
100	0x3d26748f	0.040638503
101	0xbcdeb321	-0.027185025
102	0xbe133a60	-0.14377737
103	0x3cde5a50	0.027142674
104	0x3c81d010	0.015846282
105	0xbd012e83	-0.031538498
106	0xbc0e5e2f	-0.008689447
107	0xbd74b47f	-0.059742447
108	0xbd9255de	-0.07145284
109	0xbc161594	-0.009160418
110	0xbd626baa	-0.055278458
111	0xba4d8fd2	-0.00078415603
112	0xbd347337	-0.04405519
113	0x3d537652	0.05162651
114	0xbe2c23ff	-0.16810606
115	0xbd665340	-0.056231737
116	0x3ba46b07	0.0050176415
117	0xbd8f4ea9	-0.06997425
118	0x3b7a1b73	0.0038163334
119	0xbd04962a	-0.03236977
120	0xbd515118	-0.051102728
121	0xbd154b89	-0.03644899
122	0x3e4976b2	0.19674185
123	0xbdba016a	-0.09082301
124	0xbcc595cc	-0.02411928
125	0x3c61466d	0.013749701
126	0xbc45c1ab	-0.0120701
127	0x3d499b0a	0.049220122
128	0xbd225417	-0.039630976
129	0xbd327339	-0.043566916
130	0x3d573b56	0.05254682
131	0x3cb03219	0.021508263
132	0xbd634451	-0.055485073
133	0xbe32799b	-0.17429201
134	0xbd6428d3	-0.055702996
135	0x3ce5f447	0.028070582
136	0xbca15ff3	-0.019699072
137	0xbd9972ae	-0.074925765
138	0x3d27d361	0.04097307
139	0x3d3ec628	0.046575695
140	0xbd1b8efe	-0.037978165
141	0x3c2c605a	0.010521019
142	0x3b8281a2	0.0039827386
143	0xbd65e3a7	-0.05612531
144	0xbc626de8	-0.013820149
145	0xbd1bc9b0	-0.03803414
146	0x3d0d1fef	0.034454282
147	0xbd61fff5	-0.05517574
148	0x3c9e4ad6	0.019322794
149	0xbc0bee7e	-0.008540748
150	0xbd85c100	-0.065309525
151	0xbd4b1f68	-0.0495905
152	0x3d5f103d	0.054458845
153	0x3e77355f	0.24141453
154	0xbe456f7f	-0.19280814
155	0x3c4dee3d	0.012569007
156	0xbcdcb030	-0.026939481
157	0x3d249e72	0.040190168
158	0xbcd34afc	-0.025792591
159	0x3c9ac97f	0.018894909
160	0x3ba15c6e	0.0049243486
161	0xbd81a1c6	-0.06329684
162	0xbd86fdfa	-0.06591411
163	0xbd1b3fa1	-0.037902478
164	0xbc9cd7ae	-0.019145813
165	0xbc8007c8	-0.01562871
166	0x3dfd6aba	0.12373872
167	0xbc614a5c	-0.013750639
168	0x3d4f2a3e	0.050577395
169	0xbe036af3	-0.12833767
170	0xbcf9e322	-0.030503813
171	0xbe172cc8	-0.14763176
172	0x3ce94957	0.028477354
173	0xbd80de9c	-0.06292459
174	0x3cda3ab1	0.026639314
175	0x3d559c60	0.052151084
176	0x3bded59a	0.0068003656
177	0x3cc2d010	0.023780853
178	0x3cbdc2b3	0.023164129
179	0xbd460cce	-0.048352055
180	0xbcad6e50	-0.021170765
181	0xbd2fcaa5	-0.042917866
182	0xbe18bc22	-0.14915517
183	0x3e2d4d95	0.16924126
184	0xbb406ac5	-0.0029360515
185	0x3b8586f7	0.004074927
186	0xbd97c4fd	-0.074106194
187	0x3d525333	0.051348876
188	0xbd92d9c4	-0.07170442
189	0xbd9f9f8f	-0.07794105
190	0xbd298a20	-0.041391492
191	0x3bd0bf0e	0.0063704317
192	0x3d3d4966	0.046212576
193	0xbb1df680	-0.0024103224
194	0xbd88ca88	-0.06679255
195	0xbd66ce04	-0.056348816
196	0xbd46c5f7	-0.048528638
197	0xbda7b028	-0.08187896
198	0xbd5924ee	-0.053013735
199	0xbc7c634a	-0.015404532
200	0xbb43027e	-0.0029756124
201	0xbd27cf1c	-0.040969
202	0xbdc953a8	-0.09830409
203	0xbcc25fd0	-0.023727328
204	0x3c0fc9e8	0.008776166
205	0x3c056c57	0.008143506
206	0xbc4b34c0	-0.012402713
207	0xbd53bcb2	-0.051693626
208	0xbd33abc1	-0.04386497
209	0xbdb896d8	-0.09013146
210	0x3d36b4a0	0.04460585
211	0xbcad870f	-0.021182565
212	0xbe17ed81	-0.14836694
213	0x3e2df628	0.16988432
214	0xbdc54aea	-0.09633429
215	0xbce740fe	-0.028229233
216	0xbe008d1a	-0.12553826
217	0x3d1e825e	0.038698547
218	0x3c6842c6	0.014176076
219	0xbe04f0bf	-0.12982462
220	0xbd863b84	-0.065543205
221	0xbcd60727	-0.026126457
222	0xbd1f1f17	-0.03884801
223	0xbdea4733	-0.114393614
224	0xbdf4cf85	-0.11953644
225	0xbdae0d18	-0.08498591
226	0xbdbac3cb	-0.09119376
227	0xb79f3663	-1.8979603e-05
228	0xbcba4a88	-0.022740617
229	0xbd237046	-0.039901994
230	0xbdaef71b	-0.085432254
231	0x3d9f2ad6	0.07771842
232	0x3d479b57	0.048732128
233	0xbbd859fa	-0.006602523
234	0xbcd92c3a	-0.026510347
235	0xbd9778d1	-0.07396091
236	0xbd5e0ac6	-0.054209493
237	0xbdba37c2	-0.09092666
238	0xbd523b16	-0.05132588
239	0xbc9fee39	-0.019522773
240	0x3d147260	0.03624189
241	0x3d334fd8	0.043777317
242	0xbd636eb1	-0.055525485
243	0x3cc52d0c	0.024069332
244	0xbd5ab0fa	-0.053391434
245	0xbb78d235	-0.003796709
246	0xbdeb4454	-0.11487642
247	0xbba3d55c	-0.0049997997
248	0xbd0ea9b7	-0.03482982
249	0xbd2cdb98	-0.04220161
250	0xbe1bac1d	-0.15202375
251	0xbd88c9ab	-0.0667909
252	0xbdfc6b06	-0.123251006
253	0xbbf3ddd2	-0.0074422145
254	0xbd7a73e3	-0.061145674
255	0xbdfa0a6b	-0.12209018

predict.weight f4 [5, 256]
0	0x3c052be8	0.008128144
1	0x3f0e0249	0.55472237
2	0xbd78b500	-0.06071949
3	0x3f2c6c16	0.67352426
4	0xbc83c3ab	-0.016084513
5	0x3f5aa9b7	0.85415214
6	0x3e7bb320	0.2458005
7	0x3cd7d59e	0.026346978
8	0xbc88b292	-0.016686711
9	0x3ea83550	0.32853174
10	0x3d16d251	0.036821667
11	0x3e8a9943	0.27070054
12	0x3d78198d	0.060571242
13	0x3e8945a4	0.26810944
14	0xbd4854e1	-0.04890907
15	0x3ed405e4	0.41410744
16	0xbcb96140	-0.02262938
17	0x3d1e6b79	0.038676713
18	0x3e8a288b	0.26984057
19	0xbb81a6f0	-0.003956668
20	0x3d68b202	0.056810386
21	0x3ecd03fd	0.40042105
22	0xbd4dd356	-0.050250374
23	0xbc011364	-0.007878158
24	0x3e568e54	0.20952731
25	0x3e47ea11	0.19522883
26	0x3e6773e3	0.22602801
27	0x3cd15c10	0.025556594
28	0xbcb4a9f2	-0.022053692
29	0xbd391d2f	-0.045193847
30	0xbca86077	-0.02055381
31	0xbc9eb896	-0.019375127
32	0x3d08cdf9	0.033399556
33	0x3ca24b48	0.019811288
34	0xbd429283	-0.047503006
35	0x3e4c73c1	0.19966032
36	0x3d8548dd	0.06508038
37	0x3f5976da	0.8494698
38	0x3bfcfb10	0.0077203587
39	0xbcdf7634	-0.027278043
40	0x3d0ae932	0.0339138
41	0x3f29b811	0.6629649
42	0x3ebc8d63	0.3682662
43	0x384c2800	4.8674643e-05
44	0x3d7b0d45	0.06129195
45	0x3e470b78	0.19437969
46	0x3f0c9f82	0.5493089
47	0xbced75db	-0.028986862
48	0x3e985209	0.29750088
49	0xbcd06f0d	-0.025443578
50	0x3f2d6718	0.67735434
51	0x3da06c29	0.0783313
52	0x3cc09950	0.023510605
53	0x3ea32efd	0.31871787
54	0x3e86e8b5	0.26349416
55	0x3f1e34ab	0.61799115
56	0xbc5126c0	-0.012765586
57	0x3e6aa63b	0.22914974
58	0xbb321100	-0.0027170777
59	0x3ece7a0f	0.40327498
60	0x3c84b120	0.016197741
61	0x3e83c658	0.25737262
62	0x3d23602c	0.03988664
63	0xbcf80418	-0.03027539
64	0x3d18a004	0.037261978
65	0x3c8a2010	0.016860992
66	0xbd1d92ec	-0.038470194
67	0xbd6435b9	-0.055715296
68	0xbd222938	-0.03959009
69	0x3c44c6b6	0.012010267
70	0x3c3a03f8	0.011353485
71	0x3d702de8	0.05863753
72	0x3d033449	0.032032285
73	0xbc5ed8be	-0.01360148
74	0x3cf3fe69	0.029784398
75	0x3d45cd0a	0.048291244
76	0x3cdc6015	0.026901284
77	0x3f2f2ca6	0.68427503
78	0x3d01656c	0.031590864
79	0x3cfa6e57	0.030570192
80	0x3cf268bd	0.029590959
81	0xbd7005ec	-0.058599398
82	0x3e590f91	0.21197344
83	0xbcf5edcb	-0.030020615
84	0xbd2a6c8d	-0.04160743
85	0x3d1ac0a0	0.037781358
86	0x3f364f23	0.71214503
87	0x3c3759ad	0.011190814
88	0xbd218f02	-0.039443024
89	0xbd07d934	-0.033166125
90	0x3c9c63ce	0.01909056
91	0x3d6bb46f	0.05754512
92	0xbc3972b0	-0.011318848
93	0x3d33a274	0.0438561
94	0x3eb54c8e	0.3540997
95	0x3c913a16	0.017727893
96	0x3c8d134a	0.017221112
97	0xbca240d4	-0.019806303
98	0xbce46c98	-0.027883813
99	0x3d796dae	0.060895614
100	0x3c285462	0.010274025
101	0x3ecdeef2	0.40221363
102	0x3eadf0d2	0.33972794
103	0x3c9a9679	0.01887058
104	0x3cc2c2f8	0.023774609
105	0x3d3316c8	0.043722898
106	0x3f14a228	0.5805993
107	0x3e968796	0.2940032
108	0x3e60be4a	0.2194759
109	0x3d12f337	0.03587648
110	0x3e4c9336	0.19978032
111	0xbcf1dbeb	-0.02952381
112	0x3e62cceb	0.22148483
113	0x3ecde30c	0.40212286
114	0x3ea9696e	0.3308825
115	0x3d0fd760	0.035117507
116	0x3c2bf7d5	0.0104960995
117	0x3f1b2230	0.6059904
118	0x3f24d9e3	0.6439497
119	0x3d1237bc	0.035697684
120	0xbd3c8ffa	-0.046035744
121	0x3d4ca988	0.049966365
122	0x3eb22d00	0.34799957
123	0x3e60663d	0.21914001
124	0xbc0e9604	-0.008702759
125	0x3cd45f44	0.025924332
126	0x3d6fc88d	0.05854087
127	0xbcbfde2c	-0.02342137
128	0x3e4c1079	0.19928159
129	0xbd3baed7	-0.045821037
130	0x3cd9aa88	0.026570573
131	0x3d1ed9f5	0.03878208
132	0x3e74bc17	0.23899876
133	0x3e828217	0.25489876
134	0x3e39e1bc	0.18152517
135	0x3f1e35e4	0.6180098
136	0xbd7d18a4	-0.061791077
137	0x3ec15226	0.37757987
138	0xbc83c475	-0.016084889
139	0x3f3ef9a7	0.7459969
140	0xbc625c10	-0.013815895
141	0x3cbcf657	0.023066683
142	0xbca3225e	-0.019913848
143	0xbc55ea0b	-0.0130562885
144	0x3f49bae7	0.78800815
145	0xbd21188e	-0.039330058
146	0xbb8f5600	-0.0043742657
147	0x3d25a608	0.040441543
148	0xbd4174ef	-0.047230657
149	0x3f105064	0.56372666
150	0x3e3edcfa	0.18638983
151	0xbb6d48f5	-0.0036206816
152	0x3d27782e	0.040886097
153	0x3f44880c	0.7677009
154	0x3ea34a61	0.31892684
155	0x3cb8e912	0.022572074
156	0x3e823dec	0.25437868
157	0x3cca0d8b	0.02466466
158	0xbbfb864e	-0.0076759225
159	0xbba29539	-0.0049616364
160	0xbd43c0fe	-0.047791474
161	0x3c505405	0.012715344
162	0x3e6be383	0.23036008
163	0x3e4a1752	0.19735458
164	0xbcfcd424	-0.030862875
165	0x3c3a9aef	0.011389478
166	0x3f2eb2d2	0.6824161
167	0x3ec078d7	0.37592193
168	0xbccc02d2	-0.024903689
169	0x3e8135a6	0.25236243
170	0xbc145928	-0.00905446
171	0x3e42d4d6	0.19026503
172	0xbcbf6a54	-0.02336613
173	0x3d6acf1c	0.05732642
174	0x3b7a84a4	0.0038226033
175	0xbcea64bb	-0.028612485
176	0x3eb74146	0.35791987
177	0x3c846bb8	0.016164646
178	0x3d3092ce	0.043108754
179	0x3f5ff793	0.87487143
180	0x3c9d0a30	0.019169897
181	0x3e524643	0.20534615
182	0x3e8c2d6a	0.27378398
183	0x3f27d0de	0.6555308
184	0x3d309c70	0.04311794
185	0x3e572c3d	0.2101297
186	0xbbc09325	-0.005876916
187	0x3d0f8a7a	0.03504417
188	0x3f32b342	0.69804776
189	0xbd01f7f4	-0.031730607
190	0x3d8b5f72	0.06805314
191	0x3d25722a	0.04039208
192	0x3ce4165c	0.027842693
193	0x3d0bf19d	0.034165967
194	0x3d4493d0	0.047992527
195	0x3e5403c1	0.20704557
196	0x3d3823d4	0.044956043
197	0x3e80ae7b	0.25133118
198	0xbca0609c	-0.019577317
199	0x3d2f3789	0.04277757
200	0xbc49f0b3	-0.012325454
201	0xbcf5f968	-0.030026153
202	0x3e5afcac	0.21385449
203	0x3e484019	0.19555701
204	0x3d7f09d6	0.06226524
205	0x3bf6e559	0.0075346646
206	0x3d109772	0.03530068
207	0x3d1527c0	0.03641486
208	0x3e89ff8f	0.26952788
209	0x3e8c592c	0.27411783
210	0x3ea9c8d9	0.33161047
211	0xbcf0d20c	-0.029397033
212	0x3e6ff443	0.23433022
213	0x3f3d69de	0.73989666
214	0x3e552871	0.20816208
215	0x3e857318	0.26064372
216	0x3e67b8d6	0.22629103
217	0xbb83214c	-0.004001772
218	0x3cd81b8d	0.026380325
219	0x3e52c3a5	0.20582445
220	0x3e58b7c9	0.21163858
221	0xbafab630	-0.0019127782
222	0x3e9eaf52	0.30993134
223	0x3ea3409f	0.3188524
224	0x3e377d42	0.17918876
225	0xbc0a9d80	-0.0084604025
226	0x3eb03d36	0.344217
227	0xbd3b08ed	-0.04566281
228	0xbd5abd40	-0.05340314
229	0xbcd2b423	-0.025720662
230	0x3dcf40b1	0.10119761
231	0x3f453907	0.7704014
232	0x3b52168a	0.0032056891
233	0x3d36f558	0.04466757
234	0xbcc08736	-0.023501974
235	0x3c4f6386	0.012658006
236	0x3cbb0178	0.022827849
237	0x3ea45300	0.32094574
238	0xbcc6e3de	-0.024278577
239	0x3d7db346	0.061938547
240	0x3d85d97e	0.06535624
241	0xbc974d13	-0.018469369
242	0x3c9854c0	0.0185951
243	0x3cb7abf0	0.022420853
244	0x3cd2288c	0.0256541
245	0xbbb7a438	-0.005604293
246	0x3e9606f3	0.29302177
247	0xbcee8910	-0.02911809
248	0xbd272023	-0.040802132
249	0x3d4fd3b0	0.05073899
250	0x3e9c86d1	0.30571607
251	0x3c232d4b	0.009959529
252	0x3ece3dd9	0.4028156
253	0x3eecbea6	0.46239203
254	0xbc3ec4e8	-0.011643626
255	0x3e7f0c03	0.24906926

predict.bias f4 [5]
0	0x3d8cead1	0.06880725
1	0x3ed18e94	0.4092909
2	0x3e742e05	0.2384568
3	0x3db4d505	0.08829693
4	0x3f0df7a6	0.55456007

exp_avg f4 [256, 25]
0	0x00000000	0.0
1	0x00000000	0.0
2	0x00000000	0.0
3	0x00000000	0.0
4	0x00000000	0.0
5	0x00000000	0.0
6	0x00000000	0.0
7	0x00000000	0.0
8	0x00000000	0.0
9	0x00000000	0.0
10	0x00000000	0.0
11	0x00000000	0.0
12	0x00000000	0.0
13	0x00000000	0.0
14	0x00000000	0.0
15	0x00000000	0.0
16	0x00000000	0.0
17	0x00000000	0.0
18	0x00000000	0.0
19	0x00000000	0.0
20	0x00000000	0.0
21	0x00000000	0.0
22	0x00000000	0.0
23	0x00000000	0.0
24	0x00000000	0.0
25	0x00000000	0.0
26	0x00000000	0.0
27	0x00000000	0.0
28	0x00000000	0.0
29	0x00000000	0.0
30	0x00000000	0.0
31	0x00000000	0.0
32	0x00000000	0.0
33	0x00000000	0.0
34	0x00000000	0.0
35	0x00000000	0.0
36	0x00000000	0.0
37	0x00000000	0.0
38	0x00000000	0.0
39	0x00000000	0.0
40	0x00000000	0.0
41	0x00000000	0.0
42	0x00000000	0.0
43	0x00000000	0.0
44	0x00000000	0.0
45	0x00000000	0.0
46	0x00000000	0.0
47	0x00000000	0.0
48	0x00000000	0.0
49	0x00000000	0.0
50	0xbd0de596	-0.03464278
51	0xbd18e57b	-0.037328225
52	0xbcb9168d	-0.02259376
53	0xbc015f6a	-0.007896284
54	0xb96100d2	-0.00021457978
55	0xbd0de596	-0.03464278
56	0xba988c1e	-0.0011638438
57	0x3ccf0345	0.025270114
58	0x3a170b46	0.0005761873
59	0xb86a7181	-5.5895656e-05
60	0xbd0de596	-0.03464278
61	0xbbb6b9e2	-0.005576358
62	0x3c086791	0.008325473
63	0xb9eef76c	-0.0004557924
64	0x39468478	0.000189321
65	0xbd0de596	-0.03464278
66	0xbc3efa5c	-0.01165637
67	0x3cc4d829	0.024028854
68	0x39d40b3e	0.00040444167
69	0x3980c336	0.00024559506
70	0xbd0de596	-0.03464278
71	0xbc52a477	-0.012856594
72	0x3a677ba6	0.0008830376
73	0x390f0f1f	0.00013643176
74	0x39182cea	0.00014512581
75	0x02115201	1.0676452e-37
76	0x021c9cec	1.1506104e-37
77	0x0213a87c	1.0848207e-37
78	0x0212d9ec	1.0788926e-37
79	0x0212d857	1.0788472e-37
80	0x02115201	1.0676452e-37
81	0x021f640e	1.1710189e-37
82	0x82138fff	-1.0841179e-37
83	0x02191daf	1.1249184e-37
84	0x8212d971	-1.0788789e-37
85	0x02115201	1.0676452e-37
86	0x02146f02	1.090518e-37
87	0x8213472b	-1.0820279e-37
88	0x0213dcd3	1.0863228e-37
89	0x821ca709	-1.1509007e-37
90	0x02115201	1.0676452e-37
91	0x0218795d	1.1202026e-37
92	0x021117c4	1.0659738e-37
93	0x021ae50c	1.1379866e-37
94	0x8212d857	-1.0788472e-37
95	0x02115201	1.0676452e-37
96	0x021cd31f	1.1521659e-37
97	0x8211ff60	-1.0726207e-37
98	0x8213c499	-1.0856275e-37
99	0x8212d857	-1.0788472e-37
100	0x00000000	0.0
101	0x00000000	0.0
102	0x00000000	0.0
103	0x00000000	0.0
104	0x00000000	0.0
105	0x00000000	0.0
106	0x00000000	0.0
107	0x00000000	0.0
108	0x00000000	0.0
109	0x00000000	0.0
110	0x00000000	0.0
111	0x00000000	0.0
112	0x00000000	0.0
113	0x00000000	0.0
114	0x00000000	0.0
115	0x00000000	0.0
116	0x00000000	0.0
117	0x00000000	0.0
118	0x00000000	0.0
119	0x00000000	0.0
120	0x00000000	0.0
121	0x00000000	0.0
122	0x00000000	0.0
123	0x00000000	0.0
124	0x00000000	0.0
125	0xbdec4d8c	-0.115382284
126	0xbe06afd8	-0.13153017
127	0xbd87ab14	-0.066244274
128	0xbd4ceecf	-0.050032433
129	0xb9eba004	-0.00044941914
130	0xbdec4d8c	-0.115382284
131	0xbcde2ba7	-0.027120424
132	0x3c94e9a2	0.018177811
133	0x3aa95c8f	0.0012921261
134	0xb9fb559d	-0.00047938238
135	0xbdec4d8c	-0.115382284
136	0xbd29684e	-0.04135924
137	0x3d16cf45	0.03681876
138	0xbb2b693b	-0.0026155252
139	0xba8f66ce	-0.0010940672
140	0xbdec4d8c	-0.115382284
141	0xbd927258	-0.071507156
142	0xba044068	-0.00050449977
143	0x3b398fd2	0.0028314483
144	0x397b21e8	0.00023949856
145	0xbdec4d8c	-0.115382284
146	0xbdb823c9	-0.089912005
147	0xbd35a3b2	-0.044345565
148	0xbad6f904	-0.0016401117
149	0x3a3ca681	0.0007196442
150	0x021cad13	1.151074e-37
151	0x021cad13	1.151074e-37
152	0x021f3306	1.1696118e-37
153	0x021a1b5b	1.1321984e-37
154	0x00000000	0.0
155	0x021cad13	1.151074e-37
156	0x021fb8ea	1.1734543e-37
157	0x8215c7e2	-1.1004155e-37
158	0x0219f598	1.1311147e-37
159	0x821660bc	-1.1048021e-37
160	0x021cad13	1.151074e-37
161	0x021c7a29	1.1496128e-37
162	0x821f3306	-1.1696118e-37
163	0x02146d95	1.0904771e-37
164	0x821993bd	-1.1283064e-37
165	0x021cad13	1.151074e-37
166	0x021fb679	1.1733842e-37
167	0x8215cbeb	-1.1005313e-37
168	0x8211e183	-1.0717636e-37
169	0x00000000	0.0
170	0x021cad13	1.151074e-37
171	0x021924c2	1.1251214e-37
172	0x82175871	-1.1119109e-37
173	0x821014dc	-1.0585436e-37
174	0x00000000	0.0
175	0x0215875d	1.0985638e-37
176	0x021c7746	1.14953e-37
177	0x021ed4ca	1.1669074e-37
178	0x0214e780	1.093976e-37
179	0x821e39df	-1.1624615e-37
180	0x0215875d	1.0985638e-37
181	0x0219a942	1.1289239e-37
182	0x821ed4ca	-1.1669074e-37
183	0x821f1f67	-1.1690487e-37
184	0x021e39df	1.1624615e-37
185	0x0215875d	1.0985638e-37
186	0x021ada0b	1.1376708e-37
187	0x021ed4ca	1.1669074e-37
188	0x821e3414	-1.1622952e-37
189	0x021e39df	1.1624615e-37
190	0x0215875d	1.0985638e-37
191	0x0213cd24	1.0858727e-37
192	0x821ed4ca	-1.1669074e-37
193	0x8214b6ba	-1.0925763e-37
194	0x021e39df	1.1624615e-37
195	0x0215875d	1.0985638e-37
196	0x02142e41	1.0886597e-37
197	0x021ed4ca	1.1669074e-37
198	0x82152b54	-1.0959226e-37
199	0x021e39df	1.1624615e-37
200	0x3e0b307b	0.13592713
201	0x3e116e01	0.1420212
202	0x3d9fcee8	0.07803136
203	0x3d2c2008	0.042022735
204	0x3a03ad51	0.00050230796
205	0x3e0b307b	0.13592713
206	0x3c35bec0	0.011092842
207	0xbd87e550	-0.06635535
208	0xbb7bc526	-0.003841707
209	0x394b7a8b	0.0001940524
210	0x3e0b307b	0.13592713
211	0x3d022176	0.031770192
212	0xbd292926	-0.041299008
213	0x3b2b6eb4	0.0026158514
214	0x3a0fe8ab	0.00054896873
215	0x3e0b307b	0.13592713
216	0x3d5a7238	0.053331584
217	0xbd1cdb26	-0.038294934
218	0xbb45f526	-0.0030205934
219	0xb930eee8	-0.00016873667
220	0x3e0b307b	0.13592713
221	0x3d81e027	0.06341582
222	0xbb3820b8	-0.0028095674
223	0x36bdf200	5.6608114e-06
224	0xba04065f	-0.000503635
225	0x0212611e	1.0754257e-37
226	0x0212611e	1.0754257e-37
227	0x021da398	1.1581487e-37
228	0x021d6bf0	1.1565515e-37
229	0x8213b7d6	-1.0852613e-37
230	0x0212611e	1.0754257e-37
231	0x821d9f0d	-1.1580184e-37
232	0x021b59ad	1.1413337e-37
233	0x821d256c	-1.1545278e-37
234	0x0213b7d6	1.0852613e-37
235	0x0212611e	1.0754257e-37
236	0x821d38e3	-1.1550864e-37
237	0x0214ac0d	1.0922699e-37
238	0x8217c3a4	-1.1149874e-37
239	0x0213b7d6	1.0852613e-37
240	0x0212611e	1.0754257e-37
241	0x02151a50	1.0954342e-37
242	0x0210e2ed	1.0644574e-37
243	0x82192933	-1.1252488e-37
244	0x8219c374	-1.1296757e-37
245	0x0212611e	1.0754257e-37
246	0x0219c548	1.1297282e-37
247	0x0214a9f6	1.0922099e-37
248	0x82127e98	-1.0762717e-37
249	0x021f44b1	1.1701189e-37
250	0x3e03d738	0.12875068
251	0x3e0ebdae	0.13939545
252	0x3dccb7f9	0.099960275
253	0x3d5466f0	0.05185598
254	0x399f3581	0.00030366707
255	0x3e03d738	0.12875068

exp_avg_sq f4 [256, 25]
0	0x00000000	0.0
1	0x00000000	0.0
2	0x00000000	0.0
3	0x00000000	0.0
4	0x00000000	0.0
5	0x00000000	0.0
6	0x00000000	0.0
7	0x00000000	0.0
8	0x00000000	0.0
9	0x00000000	0.0
10	0x00000000	0.0
11	0x00000000	0.0
12	0x00000000	0.0
13	0x00000000	0.0
14	0x00000000	0.0
15	0x00000000	0.0
16	0x00000000	0.0
17	0x00000000	0.0
18	0x00000000	0.0
19	0x00000000	0.0
20	0x00000000	0.0
21	0x00000000	0.0
22	0x00000000	0.0
23	0x00000000	0.0
24	0x00000000	0.0
25	0x00000000	0.0
26	0x00000000	0.0
27	0x00000000	0.0
28	0x00000000	0.0
29	0x00000000	0.0
30	0x00000000	0.0
31	0x00000000	0.0
32	0x00000000	0.0
33	0x00000000	0.0
34	0x00000000	0.0
35	0x00000000	0.0
36	0x00000000	0.0
37	0x00000000	0.0
38	0x00000000	0.0
39	0x00000000	0.0
40	0x00000000	0.0
41	0x00000000	0.0
42	0x00000000	0.0
43	0x00000000	0.0
44	0x00000000	0.0
45	0x00000000	0.0
46	0x00000000	0.0
47	0x00000000	0.0
48	0x00000000	0.0
49	0x00000000	0.0
50	0x3e0ef57e	0.13960835
51	0x3e0bda7c	0.13657564
52	0x3d8ee5fb	0.06977459
53	0x3cb44cd4	0.02200929
54	0x35536168	7.874537e-07
55	0x3e0ef57e	0.13960835
56	0x3ae9b58b	0.0017830593
57	0x3d09d6f0	0.033652246
58	0x391fc0c2	0.0001523523
59	0x37440f53	1.1686078e-05
60	0x3e0ef57e	0.13960835
61	0x3c673f66	0.014114236
62	0x3d06582e	0.03279894
63	0x38942bd1	7.0653514e-05
64	0x3651799d	3.1214215e-06
65	0x3e0ef57e	0.13960835
66	0x3cfee8d0	0.031116873
67	0x3ce4e4d8	0.027941152
68	0x38bcfbf0	9.0114656e-05
69	0x35ea2b13	1.7446895e-06
70	0x3e0ef57e	0.13960835
71	0x3d411ba1	0.04714549
72	0x3cd1eae6	0.025624704
73	0x38c0fa73	9.201923e-05
74	0x35fb0e82	1.870518e-06
75	0x29327cb5	3.9632106e-14
76	0x292806bf	3.7309345e-14
77	0x289ea6db	1.7613886e-14
78	0x274075bf	2.6709183e-15
79	0x178a76e4	8.948053e-25
80	0x29327cb5	3.9632106e-14
81	0x26417866	6.7123496e-16
82	0x2795ea23	4.160966e-15
83	0x2302b52e	7.08568e-18
84	0x21b2c252	1.2113185e-18
85	0x29327cb5	3.9632106e-14
86	0x26bfd714	1.3311584e-15
87	0x289e2029	1.7555471e-14
88	0x2323b62b	8.874823e-18
89	0x1ec06f0a	2.0374715e-20
90	0x29327cb5	3.9632106e-14
91	0x28005902	7.124728e-15
92	0x18b660c3	4.71436e-24
93	0x22dca97e	5.9810576e-18
94	0x178a76e4	8.948053e-25
95	0x29327cb5	3.9632106e-14
96	0x281f5508	8.844711e-15
97	0x27de57e1	6.1712656e-15
98	0x237489d6	1.3256454e-17
99	0x178a76e4	8.948053e-25
100	0x00000000	0.0
101	0x00000000	0.0
102	0x00000000	0.0
103	0x00000000	0.0
104	0x00000000	0.0
105	0x00000000	0.0
106	0x00000000	0.0
107	0x00000000	0.0
108	0x00000000	0.0
109	0x00000000	0.0
110	0x00000000	0.0
111	0x00000000	0.0
112	0x00000000	0.0
113	0x00000000	0.0
114	0x00000000	0.0
115	0x00000000	0.0
116	0x00000000	0.0
117	0x00000000	0.0
118	0x00000000	0.0
119	0x00000000	0.0
120	0x00000000	0.0
121	0x00000000	0.0
122	0x00000000	0.0
123	0x00000000	0.0
124	0x00000000	0.0
125	0x3ed9be33	0.42527923
126	0x3ed6ee08	0.41978478
127	0x3df94f8e	0.12173377
128	0x3d8e0b7a	0.06935783
129	0x36d1de15	6.254539e-06
130	0x3ed9be33	0.42527923
131	0x3c08b8c2	0.008344831
132	0x3d944cf7	0.072412424
133	0x39d69c67	0.0004093379
134	0x38f6abe8	0.00011762214
135	0x3ed9be33	0.42527923
136	0x3d34ffd3	0.044189285
137	0x3da77dd5	0.081782974
138	0x39a30b8e	0.00031098392
139	0x378b18df	1.6581673e-05
140	0x3ed9be33	0.42527923
141	0x3dccf1c1	0.100070484
142	0x3d5b8a44	0.053598657
143	0x39dea03f	0.00042462532
144	0x37486f9f	1.1946918e-05
145	0x3ed9be33	0.42527923
146	0x3e2822aa	0.16419473
147	0x3d6ac042	0.057312258
148	0x398ac718	0.00026469748
149	0x372abe56	1.0177106e-05
150	0x280f574f	7.957027e-15
151	0x27fbe5d7	6.9915688e-15
152	0x277ed3a8	3.536432e-15
153	0x262be8c2	5.964299e-16
154	0x00000000	0.0
155	0x280f574f	7.957027e-15
156	0x252aa459	1.4800833e-16
157	0x2682a6c4	9.065764e-16
158	0x22bf8587	5.191203e-18
159	0x1a029f0b	2.7011844e-23
160	0x280f574f	7.957027e-15
161	0x260619fc	4.6525805e-16
162	0x277ed32d	3.536406e-15
163	0x2297bddf	4.1129666e-18
164	0x1856a96e	2.7744392e-24
165	0x280f574f	7.957027e-15
166	0x265bcb3f	7.625634e-16
167	0x26102c52	5.00201e-16
168	0x2391f93e	1.582649e-17
169	0x00000000	0.0
170	0x280f574f	7.957027e-15
171	0x26f7237c	1.7148686e-15
172	0x25df8b06	3.877854e-16
173	0x2288c7f1	3.707457e-18
174	0x00000000	0.0
175	0x29636dae	5.0499257e-14
176	0x2951eecc	4.6614446e-14
177	0x28337576	9.961966e-15
178	0x27c9effa	5.604889e-15
179	0x21aba666	1.1631456e-18
180	0x29636dae	5.0499257e-14
181	0x255504b4	1.8476398e-16
182	0x278665e3	3.7302937e-15
183	0x25aa74a0	2.9569327e-16
184	0x2212ab69	1.9877433e-18
185	0x29636dae	5.0499257e-14
186	0x26a914f3	1.1732409e-15
187	0x27877a28	3.760247e-15
188	0x26014da2	4.486108e-16
189	0x2325fa07	8.997613e-18
190	0x29636dae	5.0499257e-14
191	0x27908c08	4.011985e-15
192	0x27cc727e	5.6745507e-15
193	0x25eaa26e	4.0702596e-16
194	0x24f66cb4	1.06869644e-16
195	0x29636dae	5.0499257e-14
196	0x2822c428	9.035341e-15
197	0x27ab8d98	4.761555e-15
198	0x25c8177e	3.4710388e-16
199	0x21aba666	1.1631456e-18
200	0x3ea02192	0.31275612
201	0x3e9cfad1	0.30660108
202	0x3e1f818d	0.15576763
203	0x3d4ec2b7	0.050478663
204	0x36365452	2.7169194e-06
205	0x3ea02192	0.31275612
206	0x3b90ffbb	0.0044250167
207	0x3da1eca9	0.079064675
208	0x39fa7c1a	0.0004777618
209	0x38dd900c	0.00010564932
210	0x3ea02192	0.31275612
211	0x3cfd4269	0.030915456
212	0x3da5cdd7	0.080959015
213	0x3966a0ed	0.00021994459
214	0x370dda29	8.455049e-06
215	0x3ea02192	0.31275612
216	0x3d8ff4ee	0.070291385
217	0x3d5d2446	0.05398967
218	0x399953ad	0.00029244777
219	0x3703aea1	7.848867e-06
220	0x3ea02192	0.31275612
221	0x3de10139	0.10986561
222	0x3d656669	0.05600587
223	0x3978daab	0.00023732583
224	0x36ac338a	5.1319994e-06
225	0x392c2434	0.00016416685
226	0x392be253	0.00016392143
227	0x3872623c	5.7788784e-05
228	0x38a573bb	7.8893696e-05
229	0x32818a7d	1.5080554e-08
230	0x392c2434	0.00016416685
231	0x35e76276	1.7239497e-06
232	0x3898d08e	7.286771e-05
233	0x374359ca	1.1643811e-05
234	0x33bd58e4	8.8171674e-08
235	0x392c2434	0.00016416685
236	0x3770a6e7	1.4343975e-05
237	0x38979361	7.2276925e-05
238	0x3778a11c	1.4819463e-05
239	0x32a4d309	1.918808e-08
240	0x392c2434	0.00016416685
241	0x3852945d	5.0206076e-05
242	0x3894243a	7.063938e-05
243	0x374e32c4	1.2290377e-05
244	0x330a1c0e	3.2156144e-08
245	0x392c2434	0.00016416685
246	0x38a7f20c	8.008265e-05
247	0x389a3657	7.353414e-05
248	0x374d39b8	1.2232391e-05
249	0x33812c80	6.015125e-08
250	0x3ee07a93	0.43843517
251	0x3edd73e5	0.43252483
252	0x3e4ed9d3	0.20200281
253	0x3da799dc	0.08183643
254	0x37037168	7.834613e-06
255	0x3ee07a93	0.43843517
