highway_ddqn/ddqn_tuned/checkpoint-216.tar (torch, 892306 bytes, 18 tensors)

layers.0.weight f4 [256, 25]
0.043174338 -0.10358083 -0.082148075 0.093818955 0.079538345 0.0550385 -0.065056995 -0.0710747
0.029933715 -0.17113124 0.0030741692 -0.1308143 -0.061463952 0.09497004 0.18594952 -0.1646771
0.0022227764 0.17574923 0.026927566 -0.0221982 0.12290726 -0.083330296 0.017439509 -0.04519899
0.08812564 -0.033024263 -0.15956967 0.056183483 0.03508401 -0.024580956 -0.15978268 -0.16932741
-0.194481 -0.13759135 0.01655066 0.030318975 -0.13206111 0.11239157 0.12320614 0.041275024
0.19989155 0.015950156 0.064836696 -0.009982395 -0.1258779 0.1007298 -0.1053248 -0.04075673
-0.12153206 0.0423517 0.10446206 0.011809355 -0.03900151 -0.14387994 0.0851948 -0.020447448
0.05040507 -0.11926119 -0.13102356 -0.14410377 0.05326711 -0.05120842 -0.05018512 -0.053670205
-0.12225 -0.053789888 0.070641324 -0.04421667 0.19124036 -0.038135044 0.10868178 0.13089322
-0.10136788 0.18041177 -0.22227316 -0.0125037255 -0.15236178 0.1050428 -0.05496257 -0.1868348
0.14492486 -0.13534282 0.051615167 0.059354138 -0.03839184 -0.072300754 0.018075993 -0.16280118
-0.03680004 0.10101816 0.00049762207 0.10676145 0.16043517 0.17217414 0.04751206 -0.14057764
-0.097857974 0.0040374645 0.16387644 0.16235548 -0.057989694 -0.047408152 0.10047443 0.07495916
-0.17646106 -0.07202885 -0.0724073 0.14405933 -0.066809654 -0.08254774 0.02818296 -0.13816658
-0.19140105 0.10385001 0.0877707 -0.1742227 0.020027613 -0.0046288967 0.15081285 -0.017073775
0.16573973 -0.141198 -0.028395249 -0.14178708 -0.18151961 -0.120460644 -0.098583125 -0.048469298
0.14280596 -0.08169618 0.10083698 0.14957483 0.088804714 -0.250429 -0.23206726 -0.03796632
0.1816861 -0.03320966 -0.058034874 -0.061710242 0.11880618 0.08803222 -0.15959676 -0.22606012
0.2628541 0.1368818 -0.095298454 -0.14556687 0.08159245 -0.2328353 0.073841825 -0.05713908
0.16749124 0.13276015 -0.023687078 -0.07881679 0.087235175 0.047334466 0.19909781 -0.10879647
0.03887156 0.052542143 -0.15079781 0.11496237 -0.16587871 -0.1253769 -0.046448644 0.070334084
0.05871207 0.13433206 -0.2128862 0.007664069 0.07731453 0.20079438 -0.011970616 -0.16161977
-0.20691146 0.09522219 0.140314 -0.17073123 0.105622664 -0.10531519 -0.16546266 0.0446697
0.15404613 -0.012143849 0.10376388 0.1531272 0.0074124197 0.06578373 -0.08388702 -0.19862705
-0.058934875 -0.029228456 0.011642557 0.1518871 0.034866318 0.18621527 -0.15381384 0.12450019
0.11401449 -0.15344459 -0.08158669 -0.16600968 0.5065024 0.11826061 0.47005507 -0.5541012
0.08565197 -0.66630983 0.11151415 -0.061043967 0.06792478 0.1016156 -0.56164 -0.04758723
0.19302216 -0.018286547 0.3276626 -0.4043678 -0.13740073 0.10411376 -0.27303603 0.15206172
-0.5603608 -0.11402313 0.028988097 0.17480576 0.21033034 0.36998907 0.0846806 -0.08720937
0.03198635 -0.40922952 -0.823589 -0.1181402 -0.20609447 0.21491815 -0.5369612 -0.4124465
-0.19227163 -0.23047312 -0.14177696 -0.40396133 -0.14750041 0.10450045 -0.0879081 0.23562357
-0.4790556 -0.6165054 -0.10771361 0.21288754 0.0003212724 -0.16012357 -0.44919655 0.17772356
00000000: 93d7 303d 3022 d4bd 403d a8bd 2724 c03d
00000010: 00e5 a23d 0d70 613d 9a3c 85bd 9d8f 91bd
00000020: 8d37 f53c 073d 2fbe 0078 493b 2ff4 05be
00000030: a0c1 7bbd a77f c23d 8d69 3e3e 1da1 28be
00000040: 00ac 113b 9bf7 333e 3397 dc3c 00d9 b5bc
00000050: cdb6 fb3d 13a9 aabd 4ddd 8e3c 9322 39bd
00000060: 377b b43d 7344 07bd 3b66 23be a720 663d
00000070: 40b4 0f3d 005e c9bc 129e 23be 2a64 2dbe
00000080: 0726 47be bfe4 0cbe 4095 873c 805f f83c
00000090: 073b 07be 8d2d e63d 8053 fc3d 0010 293d
000000a0: 5fb0 4c3e e7a9 823c 1ac9 843d 338d 23bc
000000b0: 23e6 00be 6d4b ce3d 87b4 d7bd 87f0 26bd
000000c0: cde5 f8bd fa78 2d3d 34f0 d53d 067c 413c
000000d0: 0cc0 1fbd 4355 13be 9c7a ae3d 6881 a7bc
000000e0: 8c75 4e3d 363f f4bd 0a2b 06be f08f 13be
000000f0: 9d2e 5a3d ecbf 51bd ea8e 4dbd 4ad5 5bbd
00000100: 355e fabd c952 5cbd 66ac 903d 8a1c 35bd
00000110: 83d4 433e 7e33 1cbd 8e94 de3d df08 063e
00000120: f799 cfbd ddbd 383e 939b 63be 6ddc 4cbc
00000130: ba04 1cbe ae20 d73d 6f20 61bd 9f51 3fbe
00000140: 2f67 143e 4f97 0abe 6d6a 533d 531d 733d
00000150: c340 1dbd 6b12 94bd 1b14 943c 5ab5 26be
00000160: a4bb 16bd 9ce2 ce3d da72 023a bfa5 da3d
00000170: 1e49 243e 6b4e 303e 019c 423d 96f3 0fbe
00000180: c369 c8bd b54c 843b 3acf 273e 8440 263e
00000190: 9a86 6dbd 0d2f 42bd 8ac5 cd3d 3084 993d
000001a0: 35b2 34be dd83 93bd 474a 94bd 4a84 133e
000001b0: 80d3 88bd ca0e a9bd f3df e63c 8a7b 0dbe
000001c0: a3fe 43be 50af d43d 20c1 b33d 6f67 32be
000001d0: f310 a43c 00ae 97bb af6e 1a3e 4dde 8bbc
000001e0: adb7 293e 3596 10be 279d e8bc a230 11be
000001f0: 47e0 39be 12b4 f6bd f3e5 c9bd be87 46bd
00000200: ba3b 123e 5450 a7bd 9e83 ce3d 252a 193e
00000210: 3fdf b53d 3b38 80be 0aa3 6dbe 9282 1bbd
00000220: ec0b 3a3e da06 08bd fab5 6dbd e1c3 7cbd
00000230: a850 f33d 3d4a b43d 556d 23be 4e7c 67be
00000240: d094 863e be2a 0c3e d62b c3bd 7b0f 15be
00000250: f119 a73d 606c 6ebe 623a 973d ab0a 6abd
00000260: d382 2b3e 47f2 073e 670b c2bc b26a a1bd
00000270: 5ba8 b23d c9e1 413d 4ce0 4b3e afd0 debd
00000280: c937 1f3d 6e36 573d be6a 1abe 6471 eb3d
00000290: 1cdc 29be cd62 00be ef40 3ebd 510b 903d
000002a0: 117c 703d 588e 093e d7fe 59be df22 fb3b
000002b0: 1557 9e3d 0b9d 4d3e 6720 44bc a77f 25be
000002c0: 99e0 53be da03 c33d 79ae 0f3e 2bd4 2ebe
000002d0: b250 d83d 7eaf d7bd 0b6f 29be 93f7 363d
000002e0: 45be 1d3e fff6 46bc 2882 d43d 60cd 1c3e
000002f0: e2e3 f23b 9fb9 863d f5cc abbd e464 4bbe
00000300: b265 71bd 8470 efbc 6cc0 3e3c 4b88 1b3e
00000310: fccf 0e3d 37af 3e3e 6081 1dbe f5f9 fe3d
00000320: 6e80 e93d 9420 1dbe ec16 a7bd 71fe 29be
00000330: 24aa 013f 9e32 f23d 0fab f03e 94d9 0dbf
00000340: 4d6a af3d 4893 2abf 8861 e43d 3d09 7abd
00000350: 261c 8b3d d71b d03d a4c7 0fbf d4ea 42bd
00000360: 9aa7 453e abcd 95bc 64c3 a73e 4c09 cfbe
00000370: c7b2 0cbe 9839 d53d 61cb 8bbe 11b6 1b3e
00000380: ce73 0fbf f584 e9bd 7278 ed3c 4800 333e
00000390: d660 573e 356f bd3e 066d ad3d d49a b2bd
000003a0: 1e04 033d 8886 d1be bbd6 52bf 7df3 f1bd
000003b0: 6e0a 53be 8113 5c3e 4a76 09bf 302c d3be
000003c0: dbe2 44be 2501 6cbe fb2d 11be 05d4 cebe
000003d0: 590a 17be 5504 d63d 2909 b4bd 4e47 713e
000003e0: c746 f5be 4cd3 1dbf f498 dcbd 31ff 593e
000003f0: 7470 a839 6ff7 23be 17fd e5be 2afd 353e

layers.0.bias f4 [256]
-0.067519836 -0.14929636 0.11618882 -0.049461383 -0.09174299 0.20336436 0.0006509152 -0.076295055
0.21391913 -0.09614672 0.14825457 0.17308208 -0.061003268 0.21538457 -0.015168405 -0.14917867
-0.08929851 0.17922524 -0.13869816 -0.19460618 -0.09129206 -0.111503504 0.01704215 0.0030323104
-0.13539128 -0.0011620283 0.06196684 -0.039711453 0.03134222 0.047976963 0.025052032 0.1268981
-0.16797923 0.06252538 0.19809099 -0.12753725 0.014030441 0.016699871 0.1682358 0.009622642
-0.1241387 -0.013814827 0.10374527 0.16316704 -0.018766044 -0.043886013 -0.08173297 -0.10509087
0.25018427 0.014399776 -0.12269912 0.18180004 -0.001198125 -0.06984474 -0.14882307 -0.18336466
0.2209213 -0.101387866 0.17899317 -0.13788569 0.16073832 -0.12447949 0.22684541 -0.03817801
0.15076873 0.09960034 0.15553252 -0.029956294 -0.08726428 0.20190693 -0.11653045 -0.119671345
-0.10625814 -0.09983485 -0.060442798 -0.0540024 -0.12883635 0.04010074 0.15448837 -0.14436603
0.14574382 -0.17203665 0.13337834 -0.07256648 -0.12548093 0.14593361 -0.085893326 -0.17000327
-0.17958839 -0.17319773 -0.18621036 0.047822922 0.021264013 -0.10357195 -0.13952239 0.0069164517
0.09784441 -0.10377207 0.10282468 0.05231673 0.1485229 0.14185776 -0.021858215 0.09483888
-0.14567499 0.08072903 0.0412558 0.102103315 -0.16127281 -0.1670939 0.026340937 0.17928009
-0.19663523 -0.13071057 -0.13169888 0.20072979 0.1952279 -0.056295395 -0.10219266 0.14270186
0.030293243 0.15033983 0.21591212 0.15866736 -0.06355089 0.12796131 -0.06392865 0.15039566
0.1662659 0.16298641 0.15424883 -0.18704525 0.017945195 -0.00095454295 0.18018064 -0.15333478
0.15459636 0.016680997 -0.14092283 -0.14019771 0.026994817 -0.06447675 -0.033300858 0.12910053
0.052019574 0.12169911 -0.1053911 -0.12777235 0.009058468 0.046211287 -0.18078129 0.050138388
0.14596993 -0.0028109797 -0.09674718 0.16482228 -0.17092998 0.09204912 0.21603052 -0.062768534
-0.15301675 0.11725068 0.16018277 -0.008777312 -0.12616338 0.27197406 -0.17734778 0.061930146
0.015622739 0.0051210863 -0.014554677 -0.12058864 -0.029775372 -0.06355866 -0.161537 -0.10298265
0.17736833 -0.14122657 -0.025970869 -0.18030842 0.028584344 -0.013214612 -0.098290354 -0.15527338
0.10765189 -0.18426357 -0.13030452 -0.04183798 -0.06512177 0.035356414 -0.017705012 0.07809791
0.022493292 -0.022693539 0.13340516 0.103775114 0.16911034 0.11818966 0.20966557 0.22283302
-0.08060531 0.011244147 -0.0042619794 0.13715512 0.0983687 0.14659715 0.051024325 -0.17392753
-0.007621956 -0.081234746 -0.093521595 -0.11018788 -3.0208721e-05 0.13287951 0.2199498 -0.13150479
0.20328538 -0.07731993 -0.19972682 0.003423834 0.17406674 -0.011738039 -0.020920206 -0.08108174
-0.050148204 -0.03291209 -0.10299394 -0.16724423 0.19145659 0.10569595 0.14755517 0.06878684
-0.049168997 0.16430797 -0.05824553 -0.07016894 0.122153535 -0.13159715 0.16798876 0.12162476
-0.08687542 0.008575463 0.0065913736 0.1805711 -0.045631662 0.06483965 -0.05247919 0.17158529
0.13210268 -0.10246784 -0.047601085 -0.038231302 0.040495858 -0.07270897 -0.039972566 -0.10975126
00000000: d747 8abd 25e1 18be 67f4 ed3d 0598 4abd
00000010: c0e3 bbbd bf3e 503e 2ea2 2a3a 9540 9cbd
00000020: 9e0d 5b3e 92e8 c4bd 0cd0 173e 6e3c 313e
00000030: 90de 79bd c68d 5c3e e784 78bc 4bc2 18be
00000040: 23e2 b6bd d286 373e e406 0ebe d846 47be
00000050: 55f7 babd f35b e4bd fb9b 8b3c bab9 463b
00000060: 03a4 0abe 334f 98ba f1d0 7d3d 7aa8 22bd
00000070: b360 003d 7e83 443d eb39 cd3c 93f1 013e
00000080: bf02 2cbe 4e0d 803d 5dd8 4a3e 2099 02be
00000090: efdf 653c 2bce 883c 0146 2c3e 49a8 1d3c
000000a0: 6e3c febd 9657 62bc 6678 d43d 4315 273e
000000b0: 3fbb 99bc d2c1 33bd 9e63 a7bd e239 d7bd
000000c0: 2718 803e 0aed 6b3c ad49 fbbd ca29 3a3e
000000d0: 670a 9dba c20a 8fbd 1365 18be f2c3 3bbe
000000e0: 3139 623e 71a4 cfbd fc49 373e e831 0dbe
000000f0: 9698 243e 1aef febd 2a4a 683e 8c60 1cbd
00000100: 1e63 1a3e 43fb cb3d eb43 1f3e e766 f5bc
00000110: 9db7 b2bd b1c0 4e3e 84a7 eebd 4016 f5bd
00000120: de9d d9bd 3776 ccbd de92 77bd 9f31 5dbd
00000130: aded 03be ac40 243d 3332 1e3e b0d4 13be
00000140: de3d 153e 602a 30be 5594 083e bc9d 94bd
00000150: 137e 00be 9f6f 153e d7e8 afbd 5615 2ebe
00000160: 05e6 37be bf5a 31be eead 3ebe f8e1 433d
00000170: de31 ae3c 881d d4bd f5de 0ebe 67a3 e23b
00000180: a662 c83d 7386 d4bd bf95 d23d 114a 563d
00000190: 6316 183e 2943 113e 0010 b3bc e33a c23d
000001a0: d32b 15be 4355 a53d d7fb 283d 8b1b d13d
000001b0: b324 25be aa1a 2bbe f3c8 d73c 3395 373e
000001c0: bf5a 49be fed8 05be 12dc 06be 1c8c 4d3e
000001d0: d3e9 473e 0096 66bd 634a d1bd 7020 123e
000001e0: 8929 f83c aff2 193e 1118 5d3e b279 223e
000001f0: f826 82bd 4a08 033e 06ed 82bd 5201 1a3e
00000200: 9c41 2a3e e9e5 263e 68f3 1d3e ca88 3fbe
00000210: cd01 933c 4b3a 7aba 4681 383e cb03 1dbe
00000220: 824e 1e3e 96a6 883c 134e 10be fd8f 0fbe
00000230: 3c24 dd3c 630c 84bd 7b66 08bd ee32 043e
00000240: 7a12 553d 623d f93d 4ad7 d7bd c1d6 02be
00000250: f869 143c 0c48 3d3d bb1e 39be e95d 4d3d
00000260: 2479 153e 6a38 38bb 6323 c6bd 2cc7 283e
00000270: 4508 2fbe 4084 bc3d 1b37 5d3e ca8c 80bd
00000280: 6cb0 1cbe 2021 f03d f406 243e b7ce 0fbc
00000290: f930 01be 2f40 8b3e a89a 35be 77aa 7d3d
000002a0: 84f6 7f3c c9ce a73b bd76 6ebc 2df7 f6bd
000002b0: 7beb f3bc 0b2b 82bd f569 25be 91e8 d2bd
000002c0: 0ba0 353e b39d 10be dcc0 d4bc c5a2 38be
000002d0: b729 ea3c 1a82 58bc 744c c9bd fcff 1ebe
000002e0: 9878 dc3d 97af 3cbe 8c6e 05be 4d5e 2bbd
000002f0: 905e 85bd e3d1 103d 1a0a 91bc ccf1 9f3d
00000300: da43 b83c cde7 b9bc 5d9b 083e 0c88 d43d
00000310: 432b 2d3e 6c0d f23d 92b2 563e 572e 643e
00000320: 6614 a5bd 5f39 383c 13a8 8bbb 6472 0c3e
00000330: 8775 c93d 901d 163e e2fe 503d 0f1a 32be
00000340: 9ac1 f9bb 675e a6bd 4088 bfbd 2faa e1bd
00000350: bc68 fdb7 9111 083e 853a 613e 31a9 06be
00000360: 0b2a 503e e959 9ebd 3085 4cbe 6762 603b
00000370: 8d3e 323e e750 40bc da60 abbc 2f0e a6bd
00000380: 3468 4dbd d4ce 06bd 7dee d2bd 1242 2bbe
00000390: 320d 443e 1e77 d83d b418 173e 1de0 8c3d
000003a0: 6e65 49bd 5940 283e dd92 6ebd bcb4 8fbd
000003b0: a22b fa3d 67c1 06be 3f05 2c3e 6716 f93d
000003c0: bdeb b1bd 1980 0c3c 73fc d73b a1e7 383e
000003d0: 44e8 3abd a7ca 843d 6bf4 56bd 0eb4 2f3e
000003e0: ed45 073e a9da d1bd 5bf9 42bd 6d98 1cbd
000003f0: fcde 253d 71e8 94bd 46ba 23bd 45c5 e0bd

layers.1.weight f4 [256, 256]
-0.054438263 -0.0059934035 0.024527533 0.02075155 -0.027372293 0.026559073 -0.047023147 0.051240575
-0.01663564 0.03669423 -0.02717457 0.04849803 -0.057039805 -0.054916836 0.054196954 0.05030918
0.02280514 0.04829716 0.020333447 -0.0037106276 0.026563967 -0.06171389 0.038297772 0.052539
0.051874235 0.053237148 0.023755709 0.034750044 -0.04888293 0.0510162 -0.028484268 0.049097892
0.04246313 -0.0028469658 0.025408931 0.008453399 0.05223512 0.009986237 0.037422784 0.00025965172
-0.051643014 -0.04148363 -0.0068295384 0.043428827 -0.04207334 0.025796177 0.011430421 0.02302207
0.0007092804 -0.045229822 -0.053864047 -0.007889723 -0.048302837 -0.049923886 -0.049347855 -0.0075240456
-0.0018688992 -0.020055454 -0.006124678 -0.02023092 -0.033594146 0.013096966 0.055225227 -0.017450944
-0.054221652 -0.04136818 -0.010528156 -0.060369365 -0.039606713 -0.0533591 0.004584469 0.021090202
0.02739613 -0.018635347 0.0019880761 0.021296302 0.05343189 0.03754278 -0.040122595 -0.05614744
0.025652412 0.051068477 -0.04599505 -0.019109279 -0.018987447 -0.010793112 0.01949928 -0.053086255
0.02547168 -0.03917622 0.049661115 0.043586884 -0.06627142 -0.022452567 0.051430136 0.013770297
0.010442639 -0.05898275 -0.031604577 0.046110313 -0.05249184 0.04684302 -0.055655763 -0.0009793454
-0.039491676 -0.04929766 -0.05552973 -0.06351423 0.048549555 -0.041197523 -0.037694365 0.05364167
0.005116686 -0.0358108 0.01419808 0.05249033 -0.0325988 0.019851891 0.033367448 -0.044326648
-0.04750815 0.033415653 0.020296106 -0.026755799 0.019099988 -0.042876672 -0.057429947 -0.0038649081
0.053674426 0.018254707 0.037250184 -0.044991504 -0.045142267 -0.04946691 -0.0368207 -0.0016339719
0.01791773 -0.052145716 -0.050981276 -0.009488324 -0.044527926 -0.054050915 -0.042683702 -0.050016373
-0.038345173 0.021315228 0.0038962865 -0.05339542 -0.0330438 -0.0035730228 0.0010245942 0.025282133
0.04914185 0.052019026 -0.011635557 0.012892189 -0.014227197 -0.025113642 0.03775863 0.05545535
-0.011550811 0.021888636 -0.019375302 0.022878665 0.050000835 -0.037683774 0.045572393 0.028425656
-0.01750879 0.0028003205 0.022035863 -0.024691481 -0.022910072 0.03613997 -0.053885322 0.028459255
0.04615073 0.019190703 0.0028462086 -0.03827828 -0.0014869273 -1.8849969e-06 -0.029559331 -0.05449706
-0.033788536 -0.059421584 0.051689483 -0.011457041 0.004150875 -0.06449873 -0.026428089 0.007699847
0.05313082 0.01252725 -0.030992068 0.015542173 0.022188526 -0.039182317 -0.029778846 -0.05851831
-0.03964001 -0.022090657 -0.048984546 -0.030339802 -0.04705248 -0.06521579 -0.00815953 0.031915486
-0.05975444 -0.06142991 0.02076096 -0.05940758 -0.044061463 0.021334473 -0.048145525 -0.047395367
-0.005842823 0.031175703 -0.04898969 -0.05989209 -0.036200095 0.0023939088 -0.010046707 -0.02475233
0.04490377 -0.00828317 -0.052763194 0.040575936 -0.03394441 0.03026947 -0.00023072353 0.018096514
-0.051020116 -0.036058135 -0.046877578 -0.002571577 -0.018090231 0.03655505 0.013510718 -0.03167648
-0.02234228 -0.028426183 -0.06457889 0.025267795 0.007911131 0.046926327 -0.042006608 0.014474967
0.022932898 0.03185808 -0.03522127 -0.044240363 -0.045197606 -0.043869063 -0.023360856 -0.014093586
00000000: a8fa 5ebd 5064 c4bb f7ed c83c 28ff a93c
00000010: dc3b e0bc 6a92 d93c 589b 40bd a3e1 513d
00000020: 7747 88bc b04c 163d 349d debc dfa5 463d
00000030: 92a2 69bd 7af0 60bd a0fd 5d3d 0011 4e3d
00000040: d8d1 ba3c 3ed3 453d 5492 a63c 002e 73bb
00000050: ad9c d93c b4c7 7cbd 20de 1c3d 2233 573d
00000060: 147a 543d 320f 5a3d 559b c23c 1056 0e3d
00000070: 7839 48bd 5df6 503d d757 e9bc df1a 493d
00000080: d2ed 2d3d 2994 3abb 6426 d03c 2080 0a3c
00000090: 7ef4 553d 509d 233c a248 193d dd21 8839
000000a0: a087 53bd bdea 29bd 52ca dfbb 6de2 313d
000000b0: 1855 2cbd 8152 d33c a946 3b3c c898 bc3c
000000c0: 00ef 393a e842 39bd 8ca0 5cbd e643 01bc
000000d0: 32d9 45bd fd7c 4cbd fa20 4abd 458c f6bb
000000e0: daf5 f4ba 564b a4bc 86b1 c8bb 50bb a5bc
000000f0: 049a 09bd a894 563c d933 623d 48f5 8ebc
00000100: 8617 5ebd ae71 29bd 497e 2cbc de45 77bd
00000110: a63a 22bd 128f 5abd 5039 963b 5cc5 ac3c
00000120: d96d e03c 28a9 98bc 624a 023b 9575 ae3c
00000130: 66db 5a3d 75c6 193d 9757 24bd dcfa 65bd
00000140: 0225 d23c 2e2d 513d 4e65 3cbd 108b 9cbc
00000150: 908b 9bbc 98d5 30bc f4bc 9f3c f970 59bd
00000160: fca9 d03c 3e77 20bd 7469 4b3d 2988 323d
00000170: 4fb9 87bd 72ee b7bc 68a8 523d d09c 613c
00000180: 9a17 2b3c e597 71bd cd73 01bd 2bde 3c3d
00000190: af01 57bd 77de 3f3d 4cf7 63bd 615d 80ba
000001a0: 06c2 21bd 58ec 49bd 2473 63bd c013 82bd
000001b0: e6db 463d bcbe 28bd 6865 1abd 5eb7 5b3d
000001c0: e0a9 a73b 58ae 12bd 109f 683c 1a00 573d
000001d0: 5286 05bd 6fa0 a23c 4eac 083d dc8f 35bd
000001e0: e897 42bd dade 083d 0544 a63c fa2e dbbc
000001f0: 9477 9c3c 739f 2fbd aa3b 6bbd 664a 7dbb
00000200: b7d9 5b3d e58a 953c a693 183d 0349 38bd
00000210: 19e7 38bd d19d 4abd 4dd1 16bd 002b d6ba
00000220: 34c8 923c bf96 55bd bed1 50bd ea74 1bbc
00000230: ea62 36bd 7e64 5dbd 1bd5 2ebd f8dd 4cbd
00000240: d40f 1dbd 469d ae3c d758 7f3b 28b5 5abd
00000250: f058 07bd 6029 6abb ad4b 863a 7a1c cf3c
00000260: f748 493d e711 553d 10a3 3ebc c339 533c
00000270: 3019 69bc 20bb cdbc cba8 1a3d 2625 633d
00000280: 9d3f 3dbc cc4f b33c f4b8 9ebc 0a6c bb3c
00000290: adcd 4c3d 4d5a 1abd 1eaa 3a3d ecdc e83c
000002a0: 986e 8fbc 9585 373b 8e84 b43c ca45 cabc
000002b0: e7ad bbbc 8107 143d dbb6 5cbd 6223 e93c
000002c0: 8c08 3d3d d235 9d3c 7587 3a3b b0c9 1cbd
000002d0: 00e5 c2ba 0000 fdb5 6926 f2bc 4f38 5fbd
000002e0: d965 0abd 0c64 73bd 5ab8 533d 50b6 3bbc
000002f0: 1004 883b e917 84bd b87f d8bc 004f fc3b
00000300: b49f 593d 183f 4d3c 14e3 fdbc 99a4 7e3c
00000310: b6c4 b53c a37d 20bd c4f2 f3bc e5b0 6fbd
00000320: 905d 22bd 77f7 b4bc 05a4 48bd 2d8b f8bc
00000330: 1aba 40bd db8f 85bd 8daf 05bc d0b9 023d
00000340: 12c1 74bd ee9d 7bbd e412 aa3c 5d55 73bd
00000350: cb79 34bd a2c5 ae3c 3e34 45bd a521 42bd
00000360: 2775 bfbb 3064 ff3c 6aa9 48bd 6851 75bd
00000370: 8d46 14bd 20e3 1c3b f19a 24bc 66c5 cabc
00000380: 04ed 373d 22b6 07bc 381e 58bd f432 263d
00000390: 4b09 0bbd aef7 f73c 60ee 71b9 243f 943c
000003a0: 78fa 50bd b2b1 13bd b402 40bd e787 28bb
000003b0: f731 94bc c0ba 153d 0f5c 5d3c 32bf 01bd
000003c0: 2807 b7bc 07de e8bc f041 84bd 68fe ce3c
000003d0: b09d 013c d235 403d 1f0f 2cbd 6928 6d3c
000003e0: c6dd bb3c 9e7d 023d 2e44 10bd 6235 35bd
000003f0: 2021 39bd 0cb0 33bd 445f bfbc c9e8 66bc

layers.1.bias f4 [256]
0.007764479 0.06158843 -0.052498817 0.004631417 -0.036735807 0.12204267 0.036188643 -0.04388577
-0.059205923 0.072843604 0.039341595 -0.011281417 -0.027472345 -0.017276498 0.0067216246 0.16352317
0.024425901 0.041674383 0.07274988 0.045507606 -0.056557387 -0.046246618 -0.056734085 -0.03061838
-0.06777647 -0.046431907 -0.047559995 -0.009396288 0.029360604 -0.00914503 0.016225478 0.019462207
0.02775141 -0.03536337 0.03976055 0.053676546 -0.018468138 0.059275083 -0.014278233 0.004554969
0.018414877 0.055197686 -0.042589698 0.05113484 -0.06386238 -0.022551902 0.06822959 0.0009228152
0.07934712 -0.05443722 0.09956194 -0.0010135447 -0.035551462 -0.06245568 0.0030060343 0.08070488
0.032391235 -0.0027778388 -0.022134788 0.09116851 -0.03161241 0.14086793 -0.051684923 -0.008049436
0.029041186 -0.06345496 -0.019518193 0.03173465 0.016110828 -0.015441316 0.05958817 0.019755706
-0.04545885 -0.013393169 -0.0074518137 -0.014194286 -0.012740321 0.022676418 -0.056177113 -0.0113421455
0.02680065 0.042007968 0.03853657 -0.011139941 -0.03739516 -0.048399013 0.06285213 0.017368425
-0.03815986 -0.043284763 0.033110633 0.045495346 0.05927737 -0.038038753 -0.05634301 -0.007410348
0.004238261 -0.038863346 0.03959677 0.056506112 0.040638503 0.057491068 -0.044606835 0.027142674
0.015846282 -0.031538498 0.052813224 0.0036400761 0.0032799551 0.0013351811 0.020148724 0.020465896
0.025888639 0.07879889 -0.0698884 -0.056231737 0.0050176415 0.0251259 0.054534495 -0.016490936
-0.051102728 -0.03644899 0.12581684 -0.00046383543 -0.02411928 0.029565642 -0.0071999948 0.049220122
0.032725804 -0.043566916 0.05254682 0.021508263 0.022195438 -0.071743034 0.02389196 0.09563054
-0.0038506165 0.021128692 0.05172968 0.08671619 -0.037978165 0.010521019 0.012620517 -0.05612531
0.038561445 -0.03803414 0.050318174 -0.05517574 0.019322794 0.074743524 -9.879727e-05 -0.0495905
0.054458845 0.08887186 -0.0786102 0.01426416 0.062002245 0.040190168 -0.025792591 0.018894909
0.0049243486 -0.06329684 0.014167578 0.04299322 -0.019145813 -0.0020795688 0.08381732 0.07375196
0.050577395 -0.04469411 -0.018109655 -0.080879845 0.028477354 -0.06292459 0.026639314 0.052151084
0.08687656 0.023780853 0.023164129 -0.007297864 -0.021170765 0.03975528 -0.056530647 0.12714297
-0.0029360515 0.0781275 -0.074106194 0.051348876 0.014541434 -0.06205976 -0.0270859 0.0063704317
0.046212576 0.013417156 -0.06679255 0.011764989 -0.048528638 0.0040378207 -0.053013735 -0.015404532
-0.0029756124 -0.040969 -0.028930588 0.03453033 0.008776166 0.008143506 -0.012402713 -0.035834115
0.05393935 0.005559348 0.07562936 -0.021182565 -0.05772118 0.09381995 -9.350879e-05 0.05527245
-0.058140352 0.038698547 0.014176076 -0.038065888 0.025473107 -0.023447141 0.03532033 -0.011398414
-0.042840913 -0.06914227 0.017285325 -1.8979603e-05 -0.022740617 -0.039901994 -0.023870703 0.12239846
0.048732128 -0.006602523 -0.026510347 -0.058081765 -0.054209493 -0.00041142426 -0.05132588 -0.019522773
0.03624189 0.043777317 -0.055525485 0.024069332 -0.053391434 0.012071267 -0.040025737 0.010529234
-0.03482982 -0.04220161 -0.048403844 -0.05138032 -0.014285137 0.05414901 -0.061145674 -0.024887579
00000000: 2c6d fe3b 2644 7c3d 0009 57bd 24c3 973b
00000010: 4978 16bd 82f1 f93d 8b3a 143d 91c1 33bd
00000020: e981 72bd 072f 953d a724 213d b1d5 38bc
00000030: af0d e1bc 7187 8dbc 1341 dc3b 9e72 273e
00000040: d418 c83c c2b2 2a3d e4fd 943d 2f66 3a3d
00000050: b8a8 67bd 186d 3dbd 0062 68bd 66d3 fabc
00000060: 64ce 8abd 622f 3ebd 45ce 42bd e3f2 19bc
00000070: a685 f03c 09d5 15bc 4beb 843c 356f 9f3c
00000080: ed56 e33c 2ed9 10bd f5db 223d f0db 5b3d
00000090: 7e4a 97bc 6eca 723d 40ef 69bc d941 953b
000000a0: ccda 963c f816 623d 8972 2ebd c472 513d
000000b0: 48ca 82bd c4be b8bc f5bb 8b3d 14e9 713a
000000c0: be80 a23d 90f9 5ebd 21e7 cb3d ebd8 84ba
000000d0: 699e 11bd 87d1 7fbd e300 453b 9a48 a53d
000000e0: acac 043d 670c 36bb 0454 b5bc 8eb6 ba3d
000000f0: 047c 01bd af3f 103e 92b3 53bd c8e1 03bc
00000100: c8e7 ed3c adf4 81bd 9ee4 9fbc 31fc 013d
00000110: dbfa 833c 93fd 7cbc ba12 743d b8d6 a13c
00000120: 0f33 3abd 066f 5bbc 582e f4bb 278f 68bc
00000130: c8bc 50bc e5c3 b93c f919 66bd 68d4 39bc
00000140: 098d db3c 8c10 2c3d 86d8 1d3d 4d84 36bc
00000150: ab2b 19bd 0b3e 46bd 9eb8 803d 3a48 8e3c
00000160: 834d 1cbd 5d4b 31bd 049f 073d 5459 3a3d
00000170: d4cc 723d 86ce 1bbd eec7 66bd 81d2 f2bb
00000180: 1ce1 8a3b 2c2f 1fbd 3930 223d f472 673d
00000190: 8f74 263d c17b 6b3d a8b5 36bd 505a de3c
000001a0: 10d0 813c 832e 01bd ae52 583d 588e 6e3b
000001b0: 84f4 563b 3e01 af3a f00e a53c 18a8 a73c
000001c0: 6914 d43c 5061 a13d a621 8fbd 4053 66bd
000001d0: 076b a43b d5d4 cd3c 905f 5f3d 0018 87bc
000001e0: 1851 51bd 894b 15bd 21d6 003e f02e f3b9
000001f0: cc95 c5bc a533 f23c efed ebbb 0a9b 493d
00000200: 7e0b 063d 3973 32bd 563b 573d 1932 b03c
00000210: 35d3 b53c 03ee 92bd 12b9 c33c f2d9 c33d
00000220: a05a 7cbb 1416 ad3c 80e2 533d 4298 b13d
00000230: fe8e 1bbd 5a60 2c3c 49c6 4e3c a7e3 65bd
00000240: 9bf2 1d3d b0c9 1bbd 6e1a 4e3d f5ff 61bd
00000250: d64a 9e3c 2213 993d 6131 cfb8 681f 4bbd
00000260: 3d10 5f3d 7302 b63d 62fe a0bd 39b4 693c
00000270: 11f6 7d3d 729e 243d fc4a d3bc 7fc9 9a3c
00000280: 6e5c a13b c6a1 81bd 211f 683c a919 303d
00000290: aed7 9cbc 6049 08bb 6aa8 ab3d 450b 973d
000002a0: 3e2a 4f3d 2c11 37bd b35a 94bc 55a4 a5bd
000002b0: 5749 e93c 9cde 80bd b13a da3c 609c 553d
000002c0: 56ec b13d 10d0 c23c b3c2 bd3c ec22 efbb
000002d0: 506e adbc 6fd6 223d ae8c 67bd c431 023e
000002e0: c56a 40bb 5001 a03d fdc4 97bd 3353 523d
000002f0: 323f 6e3c 6032 7ebd 40e3 ddbc 0ebf d03b
00000300: 6649 3d3d a2d3 5b3c 88ca 88bd f1c1 403c
00000310: f7c5 46bd b24f 843b ee24 59bd 4a63 7cbc
00000320: 7e02 43bb 1ccf 27bd d7ff ecbc ad6f 0d3d
00000330: e8c9 0f3c 576c 053c c034 4bbc cbc6 12bd
00000340: 82ef 5c3d 312b b63b 91e3 9a3d 0f87 adbc
00000350: 0b6d 6cbd ad24 c03d 261a c4b8 5d65 623d
00000360: 9424 6ebd 5e82 1e3d c642 683c faea 1bbd
00000370: faac d03c 3814 c0bc 0dac 103d 6ac0 3abc
00000380: f479 2fbd 769a 8dbd f499 8d3c 6336 9fb7
00000390: 884a babc 4670 23bd 7e8c c3bc 0bac fa3d
000003a0: 579b 473d fa59 d8bb 3a2c d9bc 25e7 6dbd
000003b0: c60a 5ebd 6eb4 d7b9 163b 52bd 39ee 9fbc
000003c0: 6072 143d d84f 333d b16e 63bd 0c2d c53c
000003d0: fab0 5abd 90c6 453c 07f2 23bd cf82 2c3c
000003e0: b7a9 0ebd 98db 2cbd 1c43 46bd 2c74 52bd
000003f0: 350c 6abc 5acb 5d3d e373 7abd 09e1 cbbc

predict.weight f4 [5, 256]
0.008128144 0.25444162 -0.06071949 0.23886584 -0.016084513 0.22586197 0.1518566 0.026346978
-0.016686711 0.2715036 0.036821667 0.22345047 0.060571242 0.2441155 -0.04890907 0.028821267
-0.02262938 0.038676713 0.11728173 -0.003956668 0.056810386 0.19442396 -0.050250374 -0.007878158
0.14496791 0.13258643 0.19868897 0.025556594 -0.04403718 -0.045193847 -0.02055381 -0.019375127
0.033399556 0.019811288 -0.047503006 0.18645811 0.06508038 0.22474927 0.0077203587 -0.027278043
0.0339138 0.14136945 0.20138888 4.8674643e-05 0.06129195 0.17679666 -0.046679817 -0.028986862
0.24120079 -0.025443578 0.39052364 0.13139409 0.03379275 0.19508044 0.2249555 0.20495437
-0.012765586 0.20679687 -0.0027170777 0.25847474 0.016197741 0.045781247 0.03988664 -0.03027539
0.037261978 0.016860992 -0.038470194 -0.055715296 -0.03959009 0.012010267 0.011353485 0.05863753
0.03521734 -0.01360148 0.029784398 0.048291244 0.009455651 0.26051003 0.031590864 0.054087937
0.029590959 -0.058599398 0.13160497 -0.030020615 -0.04160743 -0.03707452 0.4518956 0.011190814
-0.039443024 -0.033166125 0.01909056 0.05754512 -0.011318848 0.0438561 0.16161114 0.017727893
-0.004956694 -0.019806303 -0.027883813 0.060895614 0.010274025 0.21793927 0.20676519 0.01887058
0.023774609 0.043722898 0.2738622 0.13444586 0.21630457 0.029281199 0.16408412 -0.034998924
0.17971207 0.09724605 0.16809322 0.035117507 0.0104960995 0.27640423 0.20998825 0.05150187
-0.046035744 0.049966365 0.07365521 0.20559964 -0.008702759 0.025924332 -0.056802683 -0.02342137
0.15916646 -0.045821037 0.026570573 0.03878208 0.16810372 0.14670369 0.15202631 0.25685433
-0.061791077 0.22964215 -0.032479476 0.21537817 -0.013815895 0.023066683 -0.019913848 -0.0130562885
0.2530084 -0.039330058 -0.0043742657 0.040441543 -0.047230657 0.2733257 0.18080206 -0.0036206816
0.040886097 0.32044956 0.15891983 0.009027278 0.20371404 0.02466466 -0.0076759225 -0.0049616364
-0.047791474 0.012715344 0.14654368 0.15381393 -0.030862875 0.025368087 0.37613547 0.24653462
-0.024903689 0.23685268 -0.00905446 0.16226302 -0.02336613 0.05732642 0.0038226033 -0.028612485
0.11100569 0.016164646 0.043108754 0.27103612 0.019169897 0.20863318 0.23973154 0.053787578
0.04311794 0.17560399 -0.005876916 0.03504417 0.25319624 -0.031730607 0.052174017 0.04039208
0.027842693 0.040475156 0.047992527 0.12156042 0.044956043 0.18611006 -0.019577317 0.04277757
-0.012325454 -0.030026153 0.10984572 0.067488454 0.06226524 0.0075346646 0.03530068 0.03641486
0.22961152 0.22214004 0.10788827 -0.029397033 0.22681534 0.47215995 0.17410198 0.15238158
0.187166 -0.004001772 0.026380325 0.14351317 0.21664539 -0.0019127782 0.052726883 0.255612
0.18493746 -0.0084604025 0.15187684 -0.04566281 -0.05340314 -0.025720662 0.08749112 0.14057826
0.0032056891 0.04466757 -0.023501974 0.028536592 0.022827849 0.067026936 -0.024278577 0.061938547
0.06535624 -0.018469369 0.0185951 0.022420853 0.0256541 -0.005604293 0.15319835 -0.02911809
-0.040802132 0.05073899 0.19411159 0.009959529 0.22228593 0.2395371 -0.011643626 0.14825837
00000000: e82b 053c 2c46 823e 00b5 78bd 3f99 743e
00000010: abc3 83bc 5c48 673e 4c80 1b3e 9ed5 d73c
00000020: 92b2 88bc 8502 8b3e 51d2 163d 33d0 643e
00000030: 8d19 783d 6af9 793e e154 48bd 941a ec3c
00000040: 4061 b9bc 796b 1e3d 6731 f03d f0a6 81bb
00000050: 02b2 683d 1317 473e 56d3 4dbd 6413 01bc
00000060: 7872 143e bdc4 073e 1f75 4b3e 105c d13c
00000070: 5460 34bd 2f1d 39bd 7760 a8bc 96b8 9ebc
00000080: f9cd 083d 484b a23c 8392 42bd e0ee 3e3e
00000090: dd48 853d ac24 663e 10fb fc3b 3476 dfbc
000000a0: 32e9 0a3d 27c3 103e e338 4e3e 0028 4c38
000000b0: 450d 7b3d 2f0a 353e 5633 3fbd db75 edbc
000000c0: 57fd 763e 0d6f d0bc b7f2 c73e 2c8c 063e
000000d0: 446a 0a3d 2bc3 473e bc5a 663e 8fdf 513e
000000e0: c026 51bc 8fc2 533e 0011 32bb cd56 843e
000000f0: 20b1 843c 1e85 3b3d 2c60 233d 1804 f8bc
00000100: 04a0 183d 1020 8a3c ec92 1dbd b935 64bd
00000110: 3829 22bd b6c6 443c f803 3a3c e82d 703d
00000120: 0f40 103d bed8 5ebc 69fe f33c 0acd 453d
00000130: e0eb 1a3c 9261 853e 6c65 013d 508b 5d3d
00000140: bd68 f23c ec05 70bd 74c3 063e cbed f5bc
00000150: 8d6c 2abd 74db 17bd dc5e e73e ad59 373c
00000160: 028f 21bd 34d9 07bd ce63 9c3c 6fb4 6b3d
00000170: b072 39bc 74a2 333d 647d 253e 163a 913c
00000180: c36b a2bb d440 a2bc 986c e4bc ae6d 793d
00000190: 6254 283c 792b 5f3e 41ba 533e 7996 9a3c
000001a0: f8c2 c23c c816 333d ab37 8c3e 2dac 093e
000001b0: f27e 5d3e 20df ef3c ab05 283e 085b 0fbd
000001c0: 7106 383e f028 c73d a120 2c3e 60d7 0f3d
000001d0: d5f7 2b3c db84 8d3e 2907 573e a0f3 523d
000001e0: fa8f 3cbd 88a9 4c3d 8bd8 963d b688 523e
000001f0: 0496 0ebc 445f d43c eea9 68bd 2cde bfbc
00000200: 88fc 223e d7ae 3bbd 88aa d93c f5d9 1e3d
00000210: 6223 2c3e 7e39 163e c9ac 1b3e 6982 833e
00000220: a418 7dbd 5027 6b3e 3309 05bd 188c 5c3e
00000230: 105c 62bc 57f6 bc3c 5e22 a3bc 0bea 55bc
00000240: 518a 813e 8e18 21bd 0056 8fbb 08a6 253d
00000250: ef74 41bd 59f1 8b3e 2d24 393e f548 6dbb
00000260: 2e78 273d f711 a43e e1bb 223e 26e7 133c
00000270: 6a9a 503e 8b0d ca3c 4e86 fbbb 3995 a2bb
00000280: fec0 43bd 0554 503c 8c0f 163e 6681 1d3e
00000290: 24d4 fcbc bcd0 cf3c d494 c03e 9273 7c3e
000002a0: d202 ccbc 8289 723e 2859 14bc 4728 263e
000002b0: 546a bfbc 1ccf 6a3d a484 7a3b bb64 eabc
000002c0: f456 e33d b86b 843c ce92 303d 3fc5 8a3e
000002d0: 300a 9d3c f0a3 553e 2f7c 753e 5d50 5c3d
000002e0: 709c 303d 88d1 333e 2593 c0bb 7a8a 0f3d
000002f0: f0a2 813e f4f7 01bd 6cb4 553d 2a72 253d
00000300: 5c16 e43c 47c9 253d d093 443d abf4 f83d
00000310: d423 383d a393 3e3e 9c60 a0bc 8937 2f3d
00000320: b3f0 49bc 68f9 f5bc cbf6 e03d 6337 8a3d
00000330: d609 7f3d 59e5 f63b 7297 103d c027 153d
00000340: 481f 6b3e ae78 633e 86f4 dc3d 0cd2 f0bc
00000350: 4842 683e f3be f13e ca47 323e eb09 1c3e
00000360: 72a8 3f3e 4c21 83bb 8d1b d83c 1ef5 123e
00000370: 4ad8 5d3e 30b6 faba 25f8 573d 93df 823e
00000380: 3f60 3d3e 809d 0abc 9a85 1b3e ed08 3bbd
00000390: 40bd 5abd 23b4 d2bc 8b2e b33d bff3 0f3e
000003a0: 8a16 523b 58f5 363d 3687 c0bc 92c5 e93c
000003b0: 7801 bb3c 6b45 893d dee3 c6bc 46b3 7d3d
000003c0: 7ed9 853d 134d 97bc c054 983c f0ab b73c
000003d0: 8c28 d23c 38a4 b7bb 07e0 1c3e 1089 eebc
000003e0: 2320 27bd b0d3 4f3d 30c5 463e 4b2d 233c
000003f0: ec9e 633e 3749 753e e8c4 3ebc 0bd1 173e

predict.bias f4 [5]
0.04817794 0.13492362 0.06373559 -0.04193984 0.24782935
00000000: 3b56 453d 6b29 0a3e ce87 823d 1cc9 2bbd
00000010: fac6 7d3e

exp_avg f4 [256, 25]
0.0 0.0 0.0 0.0 0.0 0.0 0.0 0.0
0.0 0.0 0.0 0.0 0.0 0.0 0.0 0.0
0.0 0.0 0.0 0.0 0.0 0.0 0.0 0.0
0.0 0.0 0.0 0.0 0.0 0.0 0.0 0.0
0.0 0.0 0.0 0.0 0.0 0.0 0.0 0.0
0.0 0.0 0.0 0.0 0.0 0.0 0.0 0.0
0.0 0.0 0.069839716 0.073318906 0.030170674 0.03468808 -3.1907635e-05 0.069839716
-0.0038905325 -0.0043870714 -0.010532806 -0.00010917582 0.069839716 -0.0066665364 -0.06878773 -0.009891732
-0.00011815061 0.069839716 0.016807746 0.06531334 -0.009829322 6.541707e-05 0.069839716 0.02139378
-0.030963074 -0.011693491 0.00012997497 1.0676452e-37 1.1506104e-37 1.0848207e-37 1.0788926e-37 1.0788472e-37
1.0676452e-37 1.1710189e-37 -1.0841179e-37 1.1249184e-37 -1.0788789e-37 1.0676452e-37 1.090518e-37 -1.0820279e-37
1.0863228e-37 -1.1509007e-37 1.0676452e-37 1.1202026e-37 1.0659738e-37 1.1379866e-37 -1.0788472e-37 1.0676452e-37
1.1521659e-37 -1.0726207e-37 -1.0856275e-37 -1.0788472e-37 0.0 0.0 0.0 0.0
0.0 0.0 0.0 0.0 0.0 0.0 0.0 0.0
0.0 0.0 0.0 0.0 0.0 0.0 0.0 0.0
0.0 0.0 0.0 0.0 0.0 0.11015685 0.11415598 0.056386635
0.04499839 -0.0001284754 0.11015685 0.0015259061 -0.021508494 -0.01197798 7.298797e-05 0.11015685
0.004703032 -0.06006696 -0.010299823 -2.4352048e-05 0.11015685 0.029509645 0.035964597 -0.010663971
0.00020841893 0.11015685 0.03886763 -0.03171132 -0.012530937 0.0002453644 1.151074e-37 1.151074e-37
1.1696118e-37 1.1321984e-37 0.0 1.151074e-37 1.1734543e-37 -1.1004155e-37 1.1311147e-37 -1.1048021e-37
1.151074e-37 1.1496128e-37 -1.1696118e-37 1.0904771e-37 -1.1283064e-37 1.151074e-37 1.1733842e-37 -1.1005313e-37
-1.0717636e-37 0.0 1.151074e-37 1.1251214e-37 -1.1119109e-37 -1.0585436e-37 0.0 1.0985638e-37
1.14953e-37 1.1669074e-37 1.093976e-37 -1.1624615e-37 1.0985638e-37 1.1289239e-37 -1.1669074e-37 -1.1690487e-37
1.1624615e-37 1.0985638e-37 1.1376708e-37 1.1669074e-37 -1.1622952e-37 1.1624615e-37 1.0985638e-37 1.0858727e-37
-1.1669074e-37 -1.0925763e-37 1.1624615e-37 1.0985638e-37 1.0886597e-37 1.1669074e-37 -1.0959226e-37 1.1624615e-37
0.148029 0.16356839 0.12862991 0.118084945 0.0005063351 0.148029 -0.015584499 0.051645182
-0.02509062 -0.0004843927 0.148029 0.019883923 -0.19721937 -0.018148566 -0.00053218775 0.148029
0.07980074 0.12710047 -0.022217577 -0.00083206774 0.148029 0.07955396 0.004485924 -0.023747632
-4.9998343e-05 0.036616445 0.036514614 -0.016144836 -0.01715144 -9.404381e-05 0.036616445 0.0026714618
-0.014255493 0.00999246 0.00027487587 0.036616445 0.0018687424 0.030029224 0.008580866 9.476144e-05
0.036616445 0.0007818755 0.030316563 0.0053594215 9.130518e-05 0.036616445 -0.00388312 0.019401398
0.008796646 0.00018651385 0.08312889 0.089063846 0.05144821 0.019743541 0.0006446915 0.08312889
00000000: 0000 0000 0000 0000 0000 0000 0000 0000
00000010: 0000 0000 0000 0000 0000 0000 0000 0000
00000020: 0000 0000 0000 0000 0000 0000 0000 0000
00000030: 0000 0000 0000 0000 0000 0000 0000 0000
00000040: 0000 0000 0000 0000 0000 0000 0000 0000
00000050: 0000 0000 0000 0000 0000 0000 0000 0000
00000060: 0000 0000 0000 0000 0000 0000 0000 0000
00000070: 0000 0000 0000 0000 0000 0000 0000 0000
00000080: 0000 0000 0000 0000 0000 0000 0000 0000
00000090: 0000 0000 0000 0000 0000 0000 0000 0000
000000a0: 0000 0000 0000 0000 0000 0000 0000 0000
000000b0: 0000 0000 0000 0000 0000 0000 0000 0000
000000c0: 0000 0000 0000 0000 2008 8f3d 3928 963d
000000d0: 7d28 f73c 1715 0e3d 90d4 05b8 2008 8f3d
000000e0: 4ef8 7ebb 6cc1 8fbb ca91 2cbc 52f5 e4b8
000000f0: 2008 8f3d f672 dabb 95e0 8cbd ee10 22bc
00000100: a0c7 f7b8 2008 8f3d 66b0 893c 00c3 853d
00000110: 2a0b 21bc 8630 8938 2008 8f3d 0242 af3c
00000120: 46a6 fdbc 0e96 3fbc e449 0839 0152 1102
00000130: ec9c 1c02 7ca8 1302 ecd9 1202 57d8 1202
00000140: 0152 1102 0e64 1f02 ff8f 1382 af1d 1902
00000150: 71d9 1282 0152 1102 026f 1402 2b47 1382
00000160: d3dc 1302 09a7 1c82 0152 1102 5d79 1802
00000170: c417 1102 0ce5 1a02 57d8 1282 0152 1102
00000180: 1fd3 1c02 60ff 1182 99c4 1382 57d8 1282
00000190: 0000 0000 0000 0000 0000 0000 0000 0000
000001a0: 0000 0000 0000 0000 0000 0000 0000 0000
000001b0: 0000 0000 0000 0000 0000 0000 0000 0000
000001c0: 0000 0000 0000 0000 0000 0000 0000 0000
000001d0: 0000 0000 0000 0000 0000 0000 0000 0000
000001e0: 0000 0000 0000 0000 0000 0000 0000 0000
000001f0: 0000 0000 ea99 e13d 9cca e93d acf5 663d
00000200: 3b50 383d 5ab7 06b9 ea99 e13d ea00 c83a
00000210: 9532 b0bc 4a3f 44bc 1e11 9938 ea99 e13d
00000220: e41b 9a3b c608 76bd 97c0 28bc a047 ccb7
00000230: ea99 e13d 36be f13c 9d4f 133d f0b7 2ebc
00000240: 088b 5a39 ea99 e13d aa33 1f3d bbe3 01bd
00000250: 8f4e 4dbc 41a4 8039 13ad 1c02 13ad 1c02
00000260: 0633 1f02 5b1b 1a02 0000 0000 13ad 1c02
00000270: eab8 1f02 e2c7 1582 98f5 1902 bc60 1682
00000280: 13ad 1c02 297a 1c02 0633 1f82 956d 1402
00000290: bd93 1982 13ad 1c02 79b6 1f02 ebcb 1582
000002a0: 83e1 1182 0000 0000 13ad 1c02 c224 1902
000002b0: 7158 1782 dc14 1082 0000 0000 5d87 1502
000002c0: 4677 1c02 cad4 1e02 80e7 1402 df39 1e82
000002d0: 5d87 1502 42a9 1902 cad4 1e82 671f 1f82
000002e0: df39 1e02 5d87 1502 0bda 1a02 cad4 1e02
000002f0: 1434 1e82 df39 1e02 5d87 1502 24cd 1302
00000300: cad4 1e82 bab6 1482 df39 1e02 5d87 1502
00000310: 412e 1402 cad4 1e02 542b 1582 df39 1e02
00000320: ea94 173e 797e 273e 8fb7 033e 85d6 f13d
00000330: 93bb 043a ea94 173e 2056 7fbc e689 533d
00000340: d88a cdbc 16f6 fdb9 ea94 173e 9ce3 a23c
00000350: e0f3 49be 4dac 94bc 8482 0bba ea94 173e
00000360: 926e a33d a026 023e a301 b6bc 1f1f 5aba
00000370: ea94 173e 30ed a23d a8fe 923b 658a c2bc
00000380: 50b5 51b8 20fb 153d 5990 153d 2d42 84bc
00000390: 2d81 8cbc 6339 c5b8 20fb 153d b113 2f3b
000003a0: df8f 69bc 6ab7 233c 371d 9039 20fb 153d
000003b0: 97f0 f43a d9ff f53c c396 0c3c a9ba c638
000003c0: 20fb 153d c7f6 4c3a 715a f83c 169e af3b
000003d0: 187b bf38 20fb 153d f17b 7ebb aeef 9e3c
000003e0: cf1f 103c ee92 4339 7b3f aa3d 1b67 b63d
000003f0: 5cbb 523d 35bd a13c 8400 293a 7b3f aa3d

exp_avg_sq f4 [256, 25]
0.0 0.0 0.0 0.0 0.0 0.0 0.0 0.0
0.0 0.0 0.0 0.0 0.0 0.0 0.0 0.0
0.0 0.0 0.0 0.0 0.0 0.0 0.0 0.0
0.0 0.0 0.0 0.0 0.0 0.0 0.0 0.0
0.0 0.0 0.0 0.0 0.0 0.0 0.0 0.0
0.0 0.0 0.0 0.0 0.0 0.0 0.0 0.0
0.0 0.0 0.2018078 0.19832206 0.045072313 0.019983925 3.897876e-06 0.2018078
0.00084458676 0.018649243 0.0010643114 2.4167355e-05 0.2018078 0.0060516903 0.02586502 0.0009769294
6.4427845e-06 0.2018078 0.019066308 0.024117857 0.000922132 5.76618e-06 0.2018078 0.037971303
0.02058656 0.00092592236 4.926201e-06 2.4546135e-10 2.3107456e-10 1.0909135e-10 1.6542325e-11 5.5419667e-21
2.4546135e-10 4.1572804e-12 2.577086e-11 4.38851e-14 7.50228e-15 2.4546135e-10 8.2445275e-12 1.08729706e-10
5.496605e-14 1.2619017e-16 2.4546135e-10 4.412689e-11 2.9198416e-20 3.704357e-14 5.5419667e-21 2.4546135e-10
5.477962e-11 3.822171e-11 8.210393e-14 5.5419667e-21 0.0 0.0 0.0 0.0
0.0 0.0 0.0 0.0 0.0 0.0 0.0 0.0
0.0 0.0 0.0 0.0 0.0 0.0 0.0 0.0
0.0 0.0 0.0 0.0 0.0 0.1275763 0.12497897 0.02640268
0.011894479 1.5664532e-06 0.1275763 0.0004997384 0.0095255235 0.00060855004 1.3175016e-05 0.1275763
0.0036140906 0.013993525 0.0005697773 3.4331918e-06 0.1275763 0.011028847 0.014374675 0.0005197729
2.924195e-06 0.1275763 0.022830607 0.011522091 0.0005260498 2.4066962e-06 4.928165e-11 4.3302188e-11
2.1902933e-11 3.693989e-12 0.0 4.928165e-11 9.166862e-13 5.6148853e-12 3.215163e-14 1.6729742e-19
4.928165e-11 2.8815676e-12 2.1902754e-11 2.5473643e-14 1.7183433e-20 4.928165e-11 4.7229174e-12 3.097995e-12
9.802097e-14 0.0 4.928165e-11 1.062102e-11 2.401751e-12 2.2962159e-14 0.0 3.127657e-10
2.887065e-10 6.169942e-11 3.471379e-11 7.203906e-15 3.127657e-10 1.1443302e-12 2.3103559e-11 1.8313786e-12
1.2311044e-14 3.127657e-10 7.2664743e-12 2.3289103e-11 2.7784717e-12 5.5726728e-14 3.127657e-10 2.4848198e-11
3.5145217e-11 2.52091e-12 6.6189746e-13 3.127657e-10 5.5960358e-11 2.9490584e-11 2.1497756e-12 7.203906e-15
0.54232246 0.5377705 0.30811283 0.12009167 2.6475847e-05 0.54232246 0.006124116 0.14190602
0.0059878146 6.8018846e-05 0.54232246 0.045281645 0.18365791 0.0052018324 3.924883e-05 0.54232246
0.122792415 0.16930613 0.004989698 3.1774925e-05 0.54232246 0.21375316 0.13436295 0.0051444997
3.326243e-05 0.53373134 0.53237057 0.18575755 0.22780105 7.557146e-05 0.53373134 0.005097615
0.21600491 0.026862932 0.0003106273 0.53373134 0.052443106 0.2486115 0.03161945 8.3111016e-05
0.53373134 0.14861205 0.23285058 0.02791313 0.0001077275 0.53373134 0.25527206 0.22141998
0.025901128 0.00012429502 0.56605345 0.56153977 0.29088467 0.1372431 3.351185e-05 0.56605345
00000000: 0000 0000 0000 0000 0000 0000 0000 0000
00000010: 0000 0000 0000 0000 0000 0000 0000 0000
00000020: 0000 0000 0000 0000 0000 0000 0000 0000
00000030: 0000 0000 0000 0000 0000 0000 0000 0000
00000040: 0000 0000 0000 0000 0000 0000 0000 0000
00000050: 0000 0000 0000 0000 0000 0000 0000 0000
00000060: 0000 0000 0000 0000 0000 0000 0000 0000
00000070: 0000 0000 0000 0000 0000 0000 0000 0000
00000080: 0000 0000 0000 0000 0000 0000 0000 0000
00000090: 0000 0000 0000 0000 0000 0000 0000 0000
000000a0: 0000 0000 0000 0000 0000 0000 0000 0000
000000b0: 0000 0000 0000 0000 0000 0000 0000 0000
000000c0: 0000 0000 0000 0000 b4a6 4e3e f014 4b3e
000000d0: bf9d 383d 54b5 a33c 80ca 8236 b4a6 4e3e
000000e0: 4267 5d3a 4cc6 983c 5d80 8b3a 00bb ca37
000000f0: b4a6 4e3e 424d c63b e1e2 d33c 500c 803a
00000100: 192f d836 b4a6 4e3e f230 9c3c d092 c53c
00000110: 3bbb 713a 1c7b c136 b4a6 4e3e cc87 1b3d
00000120: 25a5 a83c 99b9 723a bf4b a536 9df1 862f
00000130: b511 7e2f f8e4 ef2e 0182 912d 9d5e d11d
00000140: 9df1 862f 7445 922c d1ae e22d 13a4 4529
00000150: 2926 0728 9df1 862f 0d0a 112d 6219 ef2e
00000160: 8b8b 7729 c47c 1125 9df1 862f 7612 422e
00000170: b8e2 091f 54d4 2629 9d5e d11d 9df1 862f
00000180: 5eec 702e d219 282e b1e1 b829 9d5e d11d
00000190: 0000 0000 0000 0000 0000 0000 0000 0000
000001a0: 0000 0000 0000 0000 0000 0000 0000 0000
000001b0: 0000 0000 0000 0000 0000 0000 0000 0000
000001c0: 0000 0000 0000 0000 0000 0000 0000 0000
000001d0: 0000 0000 0000 0000 0000 0000 0000 0000
000001e0: 0000 0000 0000 0000 0000 0000 0000 0000
000001f0: 0000 0000 5da3 023e f9f4 ff3d 6f4a d83c
00000200: 10e1 423c ec3e d235 5da3 023e e000 033a
00000210: f110 1c3c 1a87 1f3a 430a 5d37 5da3 023e
00000220: 61da 6c3b 1945 653c 1b5d 153a c965 6636
00000230: 5da3 023e 56b2 343c c283 6b3c 5e41 083a
00000240: 4a3d 4436 5da3 023e 4107 bb3c 27c7 3c3c
00000250: 9be6 093a ba82 2136 35be 582e ee71 3e2e
00000260: 05a9 c02d 7ff8 812c 0000 0000 35be 582e
00000270: 1a03 812b 648e c52c 4ecc 1029 8b82 4520
00000280: 35be 582e b5c5 4a2c 9ea8 c02d 3972 e528
00000290: fe4a a21e 35be 582e 422c a62c 8400 5a2c
000002a0: 3eb9 dc29 0000 0000 35be 582e d2d8 3a2d
000002b0: 1a02 292c 22d3 ce28 0000 0000 dcf1 ab2f
000002c0: d4b7 9e2f b0ad 872e 41ac 182e 27c6 0128
000002d0: dcf1 ab2f d70c a12b 9738 cb2d 2fdf 002c
000002e0: abc6 5d28 dcf1 ab2f 95aa ff2c 66da cc2d
000002f0: 7f84 432c 8bf8 7a29 dcf1 ab2f 2b91 da2d
00000300: ff91 1a2e ad64 312c bd4e 3a2b dcf1 ab2f
00000310: c31d 762e 72b3 012e ea46 172c 27c6 0128
00000320: a5d5 0a3f 54ab 093f f7c0 9d3e 9ff2 f53d
00000330: 7318 de37 a5d5 0a3f cfac c83b d04f 113e
00000340: 6e35 c43b 57a5 8e38 a5d5 0a3f 3f79 393d
00000350: d210 3c3e 2274 aa3b 1c9f 2438 a5d5 0a3f
00000360: 977a fb3d 965e 2d3e 9f80 a33b 1146 0538
00000370: a5d5 0a3f 1ce2 5a3e 7196 093e 3193 a83b
00000380: 4383 0b38 9ea2 083f 7049 083f 3a37 3e3e
00000390: ae44 693e 1e7c 9e38 9ea2 083f e509 a73b
000003a0: 6430 5d3e a70f dc3c b1db a239 9ea2 083f
000003b0: 95ce 563d 0394 7e3e 6583 013d e34b ae38
000003c0: 9ea2 083f c22d 183e 6270 6e3e 14aa e43c
000003d0: c3eb e138 9ea2 083f 05b3 823e ebbb 623e
000003e0: 9a2e d43c 3155 0239 e1e8 103f 12c1 0f3f
000003f0: d6ee 943e 7589 0c3e 138f 0c38 e1e8 103f

exp_avg f4 [256]
0.0 0.0 0.06983973 1.0676452e-37 0.0 0.110156834 1.151074e-37 1.0985638e-37
0.14802897 0.036616445 0.0831289 0.034209967 0.09765543 0.10854377 0.0 0.030290656
0.0 0.085475616 1.0667814e-37 0.0 -0.019660339 0.0 -0.027314343 -0.017445114
0.0 0.0 0.067508966 0.0 0.0 0.090626225 0.10056748 0.081694975
0.0 1.1539963e-37 0.0 0.0 0.058648698 -0.102059685 0.07300085 1.1411463e-37
1.166523e-37 0.1540604 0.019610718 -0.017846966 0.11594169 -0.07824786 0.036908932 0.068883725
0.0799151 0.1432516 0.0 0.07546769 0.0 -0.036655463 0.0 1.1169586e-37
0.082094565 0.02907379 0.06456655 0.0 0.059027348 0.0 0.071820565 0.11670215
0.10737203 -0.042749204 0.060489118 0.0 0.013982207 0.06704709 0.07131674 0.0
-0.17066228 0.0 0.019363154 0.15149014 0.1153046 -0.09324371 -0.1210611 0.14012748
0.05885665 0.1435259 0.012943748 0.0030373037 0.0 0.02258657 0.0 0.009458773
0.0 0.0 0.060828596 -0.08270441 0.081192404 0.07633749 0.13512857 0.0
0.08065345 0.08478588 0.0020568017 -0.0062604845 0.09056967 0.08279103 0.11763215 0.091854125
1.1595147e-37 0.0 1.1525837e-37 0.08608709 0.0 0.0 0.0 0.041991167
0.0 0.1311661 0.0 0.08910178 0.06571874 0.045660995 0.0 0.09212333
-0.07988227 -0.04983093 0.04798434 -0.09906389 0.12602167 0.069278345 0.12008668 -0.14496346
0.19018695 0.09869594 0.045022912 -0.10457401 0.11398761 0.08873618 0.08002441 0.0
0.016844809 0.12760818 0.0 0.021146983 0.10706185 0.0 0.15700178 0.1149192
0.0 0.057904698 0.04797833 0.11238614 0.07706751 1.1664605e-37 0.080309756 1.0636606e-37
0.07300514 0.13363251 0.0 0.117128566 0.0 0.0 -0.048087284 0.0
0.06103302 0.0 0.104391344 0.021830669 0.055025205 0.050968945 0.0 0.04375194
0.0661953 -0.08184379 0.09990464 0.084308594 0.1469959 0.11343302 -0.29537624 0.17666987
0.09585765 -0.026360244 0.1899272 0.0 0.0581965 0.0 -0.21974292 -0.016738001
-0.076396614 0.0 0.013967343 0.011880904 0.0 -0.11967161 0.0 -0.023572488
0.0 0.0 0.0 -0.013959542 0.13146241 0.04177428 0.11804882 0.10119283
0.25814447 0.07051756 0.11569197 0.09145099 0.0054249763 -0.14404106 -0.03387791 0.0
0.0 0.0 0.0 -0.23168954 0.22081318 0.04981027 0.14306049 -0.032890655
0.06485944 0.014216535 0.0 0.0 0.090856284 0.0 0.076102614 0.16089855
1.1430814e-37 -0.15095358 0.0 0.25758675 -0.0027887076 -0.12432607 0.081062905 0.03392952
0.07519331 0.118818514 1.0847608e-37 1.0759971e-37 0.07544317 0.0 0.038994424 0.0
0.0 0.09313575 0.17168039 0.08613749 0.053321384 0.022627488 0.01005917 0.06000881
0.1688872 0.070774496 -0.09821204 0.0 0.045277733 -0.13247427 0.089703694 -0.03519579
00000000: 0000 0000 0000 0000 2208 8f3d 0152 1102
00000010: 0000 0000 e899 e13d 13ad 1c02 5d87 1502
00000020: e894 173e 20fb 153d 7c3f aa3d c01f 0c3d
00000030: 92ff c73d 324c de3d 0000 0000 1c24 f83c
00000040: 0000 0000 d70d af3d e833 1102 0000 0000
00000050: b80e a1bc 0000 0000 54c2 dfbc 0ee9 8ebc
00000060: 0000 0000 0000 0000 2442 8a3d 0000 0000
00000070: 0000 0000 3e9a b93d 53f6 cd3d b24f a73d
00000080: 0000 0000 e712 1d02 0000 0000 0000 0000
00000090: 9e39 703d ab04 d1bd 7881 953d 2553 1b02
000000a0: 65c7 1e02 02c2 1d3e a8a6 a03c cd33 92bc
000000b0: d672 ed3d 6a40 a0bd d22d 173d e912 8d3d
000000c0: 87aa a33d 8cb0 123e 0000 0000 ce8e 9a3d
000000d0: 0000 0000 0a24 16bd 0000 0000 5408 1802
000000e0: 3221 a83d 282c ee3c 783b 843d 0000 0000
000000f0: a9c6 713d 0000 0000 a916 933d 8901 ef3d
00000100: dee5 db3d ca19 2fbd 70c3 773d 0000 0000
00000110: a015 653c fc4f 893d 830e 923d 0000 0000
00000120: 18c2 2ebe 0000 0000 7a9f 9e3c 3b20 1b3e
00000130: d124 ec3d 8ff6 bebd e2ee f7bd 947d 0f3e
00000140: ac13 713d 74f8 123e 0412 543c 800d 473b
00000150: 0000 0000 7807 b93c 0000 0000 f8f8 1a3c
00000160: 0000 0000 0000 0000 6827 793d ee60 a9bd
00000170: 3448 a63d d456 9c3d 255f 0a3e 0000 0000
00000180: a32d a53d 38a4 ad3d 68cb 063b c024 cdbb
00000190: 977c b93d 588e a93d 20e9 f03d 041e bc3d
000001a0: 31d3 1d02 0000 0000 aee1 1c02 6e4e b03d
000001b0: 0000 0000 0000 0000 0000 0000 eefe 2b3d
000001c0: 0000 0000 6850 063e 0000 0000 fe7a b63d
000001d0: 8c97 863d 0607 3b3d 0000 0000 28ab bc3d
000001e0: 5199 a3bd 841b 4cbd 3a8b 443d 02e2 cabd
000001f0: d30b 013e cee1 8d3d 01f0 f53d 4d71 14be
00000200: 5ec0 423e 1921 ca3d f269 383d e62a d6bd
00000210: 5672 e93d 50bb b53d d6e3 a33d 0000 0000
00000220: 20fe 893c b8ab 023e 0000 0000 703c ad3c
00000230: 3e43 db3d 0000 0000 13c5 203e c25a eb3d
00000240: 0000 0000 7a2d 6d3d ed84 443d b42a e63d
00000250: 92d5 9d3d 37c5 1e02 7179 a43d 2ac7 1002
00000260: b883 953d f6d6 083e 0000 0000 1ae1 ef3d
00000270: 0000 0000 0000 0000 2cf7 44bd 0000 0000
00000280: c3fd 793d 0000 0000 21cb d53d 3bd6 b23c
00000290: 1c62 613d d0c4 503d 0000 0000 3c35 333d
000002a0: 6791 873d b89d a7bd ce9a cc3d fca9 ac3d
000002b0: 1886 163e 924f e83d 8e3b 97be f2e8 343e
000002c0: 0451 c43d 70f1 d7bc 477c 423e 0000 0000
000002d0: 745f 6e3d 0000 0000 4a04 61be 221e 89bc
000002e0: d475 9cbd 0000 0000 48d7 643c 20a8 423c
000002f0: 0000 0000 6416 f5bd 0000 0000 171b c1bc
00000300: 0000 0000 0000 0000 0000 0000 90b6 64bc
00000310: 159e 063e 821b 2b3d 94c3 f13d 303e cf3d
00000320: 832b 843e 836b 903d e9ef ec3d a84a bb3d
00000330: 00c4 b13b 807f 13be 90c3 0abd 0000 0000
00000340: 0000 0000 0000 0000 0000 0000 0640 6dbe
00000350: da1c 623e db05 4c3d 737e 123e 5ab8 06bd
00000360: 07d5 843d 78ec 683c 0000 0000 0000 0000
00000370: dc12 ba3d 0000 0000 b0db 9b3d 97c2 243e
00000380: 9396 1b02 9393 1abe 0000 0000 69e2 833e
00000390: c0c2 36bb ab9e febd 4f04 a63d aef9 0a3d
000003a0: f3fe 993d 1f57 f33d 66a6 1302 0775 1202
000003b0: f381 9a3d 0000 0000 9eb8 1f3d 0000 0000
000003c0: 0000 0000 f5bd be3d fccc 2f3e da68 b03d
000003d0: 8667 5a3d 485d b93c 38cf 243c cccb 753d
000003e0: c4f0 2c3e 38f2 903d 6523 c9bd 0000 0000
000003f0: 2575 393d 56a7 07be 92b6 b73d 7629 10bd
