highway_ddqn/ddqn_tuned/checkpoint-729.tar (torch, 892306 bytes, 18 tensors)

layers.0.weight f4 [256, 25]
000000 93 d7 30 3d 30 22 d4 bd 40 3d a8 bd 27 24 c0 3d
       0.043174338 -0.10358083 -0.082148075 0.093818955
000010 00 e5 a2 3d 0d 70 61 3d 9a 3c 85 bd 9d 8f 91 bd
       0.079538345 0.0550385 -0.065056995 -0.0710747
000020 8d 37 f5 3c 07 3d 2f be 00 78 49 3b 2f f4 05 be
       0.029933715 -0.17113124 0.0030741692 -0.1308143
000030 a0 c1 7b bd a7 7f c2 3d 8d 69 3e 3e 1d a1 28 be
       -0.061463952 0.09497004 0.18594952 -0.1646771
000040 00 ac 11 3b 9b f7 33 3e 33 97 dc 3c 00 d9 b5 bc
       0.0022227764 0.17574923 0.026927566 -0.0221982
000050 cd b6 fb 3d 13 a9 aa bd 4d dd 8e 3c 93 22 39 bd
       0.12290726 -0.083330296 0.017439509 -0.04519899
000060 37 7b b4 3d 73 44 07 bd 3b 66 23 be a7 20 66 3d
       0.08812564 -0.033024263 -0.15956967 0.056183483
000070 40 b4 0f 3d 00 5e c9 bc 12 9e 23 be 2a 64 2d be
       0.03508401 -0.024580956 -0.15978268 -0.16932741
000080 07 26 47 be bf e4 0c be 40 95 87 3c 80 5f f8 3c
       -0.194481 -0.13759135 0.01655066 0.030318975
000090 07 3b 07 be 8d 2d e6 3d 80 53 fc 3d 00 10 29 3d
       -0.13206111 0.11239157 0.12320614 0.041275024
0000a0 5f b0 4c 3e e7 a9 82 3c 1a c9 84 3d 33 8d 23 bc
       0.19989155 0.015950156 0.064836696 -0.009982395
0000b0 23 e6 00 be 6d 4b ce 3d 87 b4 d7 bd 87 f0 26 bd
       -0.1258779 0.1007298 -0.1053248 -0.04075673
0000c0 cd e5 f8 bd fa 78 2d 3d ef b6 80 bb 35 88 60 bd
       -0.12153206 0.0423517 -0.0039280574 -0.054817397
0000d0 4f 25 6e 3c 98 66 f1 bb cf f4 b8 3c d8 ed 03 be
       0.014535262 -0.0073669665 0.022577671 -0.12883699
0000e0 8e 45 a7 be 04 2c f6 bd cd e0 d2 be 78 40 de bd
       -0.32670254 -0.12020114 -0.41187134 -0.1085214
0000f0 e8 c7 61 bd 66 cb f8 3c cc 95 80 bd 3f df 44 3d
       -0.055122286 0.030370425 -0.062785715 0.048064467
000100 76 0f 84 bd 7c 12 26 be 2b 09 25 3e 0a 58 c4 bd
       -0.064482614 -0.16217989 0.16116779 -0.095871046
000110 32 62 46 3e 3a cf 02 bd 4a ea 98 39 cf 16 14 3e
       0.19373396 -0.031935908 0.00029166258 0.14461826
000120 c2 e9 f0 bd 59 64 6d 3e 15 7a 5a be 6d dc 4c bc
       -0.11763336 0.23182811 -0.21335633 -0.0125037255
000130 ba 04 1c be ae 20 d7 3d 6f 20 61 bd 9f 51 3f be
       -0.15236178 0.1050428 -0.05496257 -0.1868348
000140 2f 67 14 3e 4f 97 0a be 6d 6a 53 3d 53 1d 73 3d
       0.14492486 -0.13534282 0.051615167 0.059354138
000150 c3 40 1d bd 6b 12 94 bd 1b 14 94 3c 5a b5 26 be
       -0.03839184 -0.072300754 0.018075993 -0.16280118
000160 a4 bb 16 bd 9c e2 ce 3d da 72 02 3a bf a5 da 3d
       -0.03680004 0.10101816 0.00049762207 0.10676145
000170 1e 49 24 3e 6b 4e 30 3e 01 9c 42 3d 96 f3 0f be
       0.16043517 0.17217414 0.04751206 -0.14057764
000180 c3 69 c8 bd b5 4c 84 3b 3a cf 27 3e 84 40 26 3e
       -0.097857974 0.0040374645 0.16387644 0.16235548
000190 9a 86 6d bd 0d 2f 42 bd 8a c5 cd 3d 30 84 99 3d
       -0.057989694 -0.047408152 0.10047443 0.07495916
0001a0 35 b2 34 be dd 83 93 bd 47 4a 94 bd 4a 84 13 3e
       -0.17646106 -0.07202885 -0.0724073 0.14405933
0001b0 80 d3 88 bd ca 0e a9 bd f3 df e6 3c 8a 7b 0d be
       -0.066809654 -0.08254774 0.02818296 -0.13816658
0001c0 a3 fe 43 be 50 af d4 3d 20 c1 b3 3d 6f 67 32 be
       -0.19140105 0.10385001 0.0877707 -0.1742227
0001d0 f3 10 a4 3c 00 ae 97 bb af 6e 1a 3e 4d de 8b bc
       0.020027613 -0.0046288967 0.15081285 -0.017073775
0001e0 ad b7 29 3e 35 96 10 be 27 9d e8 bc a2 30 11 be
       0.16573973 -0.141198 -0.028395249 -0.14178708
0001f0 47 e0 39 be df 92 6f be 72 a9 1b be 91 ff 18 bd
       -0.18151961 -0.2339587 -0.15201357 -0.037353102
000200 db 3d b7 3e 58 3d 6f be b0 72 4f bc 4b f1 99 be
       0.3578938 -0.23363245 -0.012661621 -0.30066904
000210 ce 42 44 3d 80 81 3d bf ee 69 90 be 96 19 1b be
       0.047915272 -0.74025726 -0.28205818 -0.15146479
000220 0d c5 93 3e bf f2 6e 3c b1 9a 82 bd af a6 cf bc
       0.28861275 0.014584242 -0.06377161 -0.025348036
000230 24 ec ad 3b 5e a3 38 3e 62 b0 81 be 83 72 fe bd
       0.005307691 0.1803107 -0.25329882 -0.12424185
000240 e8 cb a7 3e 82 8d bf 3c 33 c3 cc bd 2d b0 2b be
       0.32772756 0.023382906 -0.09998169 -0.16766424
000250 02 bd 0c bd 5e ab 86 be 62 3a 97 3d ab 0a 6a bd
       -0.03435994 -0.26302618 0.073841825 -0.05713908
000260 d3 82 2b 3e 47 f2 07 3e 67 0b c2 bc b2 6a a1 bd
       0.16749124 0.13276015 -0.023687078 -0.07881679
000270 5b a8 b2 3d c9 e1 41 3d 4c e0 4b 3e af d0 de bd
       0.087235175 0.047334466 0.19909781 -0.10879647
000280 c9 37 1f 3d 6e 36 57 3d be 6a 1a be 64 71 eb 3d
       0.03887156 0.052542143 -0.15079781 0.11496237
000290 1c dc 29 be cd 62 00 be ef 40 3e bd 51 0b 90 3d
       -0.16587871 -0.1253769 -0.046448644 0.070334084
0002a0 11 7c 70 3d 58 8e 09 3e d7 fe 59 be df 22 fb 3b
       0.05871207 0.13433206 -0.2128862 0.007664069
0002b0 15 57 9e 3d 0b 9d 4d 3e 67 20 44 bc a7 7f 25 be
       0.07731453 0.20079438 -0.011970616 -0.16161977
0002c0 99 e0 53 be da 03 c3 3d 79 ae 0f 3e 2b d4 2e be
       -0.20691146 0.09522219 0.140314 -0.17073123
0002d0 b2 50 d8 3d 7e af d7 bd 0b 6f 29 be 93 f7 36 3d
       0.105622664 -0.10531519 -0.16546266 0.0446697
0002e0 45 be 1d 3e ff f6 46 bc 28 82 d4 3d 60 cd 1c 3e
       0.15404613 -0.012143849 0.10376388 0.1531272
0002f0 e2 e3 f2 3b 9f b9 86 3d f5 cc ab bd e4 64 4b be
       0.0074124197 0.06578373 -0.08388702 -0.19862705
000300 b2 65 71 bd 84 70 ef bc 6c c0 3e 3c 4b 88 1b 3e
       -0.058934875 -0.029228456 0.011642557 0.1518871
000310 fc cf 0e 3d 37 af 3e 3e 60 81 1d be f5 f9 fe 3d
       0.034866318 0.18621527 -0.15381384 0.12450019
000320 6c cd bb 3e a6 bc fd b8 42 c8 44 3d 46 32 21 bf
       0.36680162 -0.000120991186 0.048042543 -0.62967336
000330 d5 c9 34 3f fc f9 bd 3e 81 fd 56 3f 94 8a 47 bf
       0.7062047 0.37104785 0.83980566 -0.7794583
000340 65 0a 2a 3f f0 84 53 bf b0 85 ba 3e 56 35 a7 be
       0.6642211 -0.8262472 0.3643012 -0.3265788
000350 f0 7b fe bc f2 ac a6 bc dc 24 34 bf ee 1f 52 3e
       -0.031064957 -0.020346139 -0.7036874 0.20519993
000360 b8 da d5 bd 14 2d ac bd 12 33 88 3e 91 df 0d bf
       -0.10442108 -0.084070355 0.26601464 -0.5541926
000370 de 4f ec 3d b5 cd 4c bc 87 20 de be 49 00 32 3e
       0.11538671 -0.012500216 -0.4338419 0.17382921
000380 76 c0 50 bf 46 4c 1d be 4e ef 2a bc db 01 39 3e
       -0.8154367 -0.15361127 -0.010433031 0.18067114
000390 8d a6 79 3e c4 5a c4 3e 43 b2 38 3d e3 f6 87 bd
       0.2437994 0.383505 0.04509188 -0.06638887
0003a0 d0 53 8d 3d 1f 4f e6 be 52 28 4f bf 8a 83 21 be
       0.069007516 -0.4498224 -0.809209 -0.15772834
0003b0 d2 d1 32 be 6d 5b 1a 3e 17 26 17 bf d5 13 cb be
       -0.17462853 0.15073939 -0.59042495 -0.39663568
0003c0 b6 6c 6d be f9 b7 3e be 83 32 30 be 66 f5 e4 be
       -0.23186001 -0.18624867 -0.17206769 -0.44718474
0003d0 27 42 16 be 7d f0 84 3d 45 9c 7b bd 49 36 7f 3e
       -0.14673673 0.06491182 -0.061428327 0.24923052
0003e0 7b 83 07 bf dc 8b 29 bf ab dd 5a 3e fd 95 e3 3e
       -0.52935 -0.66229033 0.21373622 0.4445037
0003f0 ce ba 0a 3e 1b cd f3 be 7b f8 6f bd 9a 93 ff 3e
       0.13547823 -0.4761742 -0.05858658 0.499173

layers.0.bias f4 [256]
000000 d7 47 8a bd 25 e1 18 be 8e 8c ff 3b 05 98 4a bd
       -0.067519836 -0.14929636 0.007798738 -0.049461383
000010 c0 e3 bb bd a3 0b b8 3d 2e a2 2a 3a 95 40 9c bd
       -0.09174299 0.089865945 0.0006509152 -0.076295055
000020 1f f4 ee 3e 11 fe 0a be 10 7d f0 3e c0 7e 1d 3d
       0.46670625 -0.13573481 0.46970415 0.038450956
000030 42 a3 e5 3d c2 8a b0 3d e7 84 78 bc c8 a0 6d be
       0.112127796 0.08620216 -0.015168405 -0.23205864
000040 23 e2 b6 bd 75 cb 6d 3e e4 06 0e be d8 46 47 be
       -0.08929851 0.23222144 -0.13869816 -0.19460618
000050 06 d7 ea bd f3 5b e4 bd 9c 99 cb bc b3 35 27 bd
       -0.11466794 -0.111503504 -0.02485352 -0.040822696
000060 03 a4 0a be 33 4f 98 ba 53 a4 fb 3d 7a a8 22 bd
       -0.13539128 -0.0011620283 0.12287202 -0.039711453
000070 b3 60 00 3d 3c 3d 86 3e 91 9c 2a 3e 52 a0 a2 3e
       0.03134222 0.26218593 0.16661288 0.3176294
000080 bf 02 2c be 4e 0d 80 3d 5d d8 4a 3e 20 99 02 be
       -0.16797923 0.06252538 0.19809099 -0.12753725
000090 18 dd 19 be d8 f5 5e bd 59 7d 9d 3d 49 a8 1d 3c
       -0.15025747 -0.054433674 0.07689924 0.009622642
0000a0 23 ee 08 be aa 74 fd bb db c8 8f 3c c1 05 74 3d
       -0.13372092 -0.0077348547 0.01755183 0.0595758
0000b0 6b 4e d2 3d 51 99 bc bd 08 d5 ce bd 25 44 60 bd
       0.10268863 -0.0920893 -0.10099226 -0.054752488
0000c0 7e 5b e4 3e 47 bc 28 3e ad 49 fb bd 2c dc 1a 3e
       0.44601053 0.16478072 -0.12269912 0.15123051
0000d0 67 0a 9d ba 70 77 40 be 13 65 18 be f2 c3 3b be
       -0.001198125 -0.18795562 -0.14882307 -0.18336466
0000e0 a5 a4 83 3e 87 7f cf bd cf 0e a0 3e e8 31 0d be
       0.2571155 -0.10131746 0.31261298 -0.13788569
0000f0 b6 64 4b 3e 1a ef fe bd 15 f6 20 3e 61 f8 35 bc
       0.19862637 -0.12447949 0.15718873 -0.011106581
000100 49 91 bc 3e 68 08 6c 3c 86 77 46 3d e7 66 f5 bc
       0.36829594 0.014406301 0.04845383 -0.029956294
000110 62 de 1a 3e bc e9 76 3e 72 c0 75 be ad 94 f9 bd
       0.15123895 0.241126 -0.23999193 -0.12186561
000120 63 3a 42 be 37 76 cc bd be e9 28 be 1e 99 0f 3e
       -0.18967585 -0.09983485 -0.16495416 0.14023253
000130 ac 75 d7 39 28 4e a7 bd 6f 79 df 3d f9 1f d0 bc
       0.00041095668 -0.08169204 0.109118335 -0.02540587
000140 de ac da 3e b7 1a 9e bc 00 25 12 3e 14 88 1d 3e
       0.42710012 -0.019299848 0.14271927 0.15383941
000150 13 7e 00 be f4 6c 66 3e d7 e8 af bd 70 04 3c be
       -0.12548093 0.225025 -0.085893326 -0.18361068
000160 05 e6 37 be bf 5a 31 be fb 6c 0b be b2 48 8f bc
       -0.17958839 -0.17319773 -0.13615791 -0.017490719
000170 ff 57 b2 bd c9 16 3c be 8c c0 b1 bc 67 a3 e2 3b
       -0.0870819 -0.18368067 -0.021698259 0.0069164517
000180 b0 5a ed ba d3 77 76 be eb ba 3f 3d c0 ce b3 bd
       -0.0018108692 -0.24069147 0.04680912 -0.08779669
000190 b9 0b 32 3e 18 ec 23 3d 27 91 25 bd 5b 57 df 3d
       0.17387284 0.04002008 -0.04042163 0.109053336
0001a0 d3 2b 15 be 43 55 a5 3d d7 fb 28 3d 80 d5 e8 3d
       -0.14567499 0.08072903 0.0412558 0.11368847
0001b0 b3 24 25 be aa 1a 2b be f3 c8 d7 3c ac fd 58 3e
       -0.16127281 -0.1670939 0.026340937 0.21190518
0001c0 bf 5a 49 be e7 b5 1c be 12 dc 06 be c0 8c 6f 3e
       -0.19663523 -0.15303765 -0.13169888 0.23393536
0001d0 2f fe b6 3e 71 d7 33 be 63 4a d1 bd 86 fc 6d 3d
       0.35740802 -0.17562653 -0.10219266 0.058102153
0001e0 6c 66 4c 3c 09 c7 74 3d 04 8e c7 3d 3d 1d 14 3e
       0.012475591 0.059760127 0.09743884 0.14464279
0001f0 52 98 0a 3e eb 21 73 3e f2 55 9e 3c 64 8a 0c 3e
       0.13534668 0.23743407 0.019328091 0.13724667
000200 90 89 38 3e ca 6b 40 3e eb 82 b4 3e 93 d9 7f be
       0.18021226 0.18791118 0.35256132 -0.24985342
000210 64 e3 5a 3d 06 f1 06 be 32 20 ee 3e cb 03 1d be
       0.053439513 -0.1317788 0.46508938 -0.15333478
000220 fa 83 43 3d a5 35 99 bd 13 4e 10 be 7f 84 9f bd
       0.047733285 -0.07480935 -0.14092283 -0.077889435
000230 3b 20 ae bc 63 0c 84 bd 5a 84 23 3e 84 0a a9 3d
       -0.021255603 -0.06447675 0.15968457 0.08253959
000240 7a 12 55 3d 71 3b 33 ba e0 bc 51 be 75 69 3c be
       0.052019574 -0.00068371656 -0.20482206 -0.18399604
000250 4b 6f 5c 3d ba 73 f8 3c c3 62 83 3d e9 5d 4d 3d
       0.053817075 0.03032862 0.06415322 0.050138388
000260 05 fd 25 3e 94 cf 62 3e 63 23 c6 bd 0b 4c 5b 3e
       0.162098 0.22149497 -0.09674718 0.21415727
000270 45 08 2f be 40 84 bc 3d d4 71 a4 3d ca 8c 80 bd
       -0.17092998 0.09204912 0.080295235 -0.062768534
000280 5e b4 85 be 20 21 f0 3d 08 90 f2 3d 3f 0a ff bd
       -0.26114172 0.11725068 0.11843878 -0.12453126
000290 28 9c 6d be 96 24 f1 3e a8 9a 35 be 20 dc 03 3d
       -0.232041 0.47098225 -0.17734778 0.03219235
0002a0 59 a3 38 bd fd f4 8b bd 8e 1a 00 be d4 c8 16 bd
       -0.045077655 -0.06833837 -0.1251013 -0.03681262
0002b0 1d 51 1d be ad 2b 9e bd cc ac 2e be 86 5f 6a bd
       -0.15362974 -0.07723174 -0.17058104 -0.057220004
0002c0 5f 6e 4d 3e e8 72 3a bc ad 31 4b 3e c5 a2 38 be
       0.20061634 -0.011379935 0.19843169 -0.18030842
0002d0 74 8a 9b 3e 1a 82 58 bc e4 17 34 be 6b ef 8f be
       0.3037907 -0.013214612 -0.17587239 -0.2811235
0002e0 a7 9f ea bc 97 af 3c be 53 b9 fe bd cb c4 ec bd
       -0.028640581 -0.18426357 -0.124376915 -0.11560973
0002f0 90 5e 85 bd dd 24 03 bd 1a 0a 91 bc 82 58 bf bd
       -0.06512177 -0.032017577 -0.017705012 -0.093430534
000300 da 43 b8 3c cd e7 b9 bc 5d 9b 08 3e ce 5b 80 3c
       0.022493292 -0.022693539 0.13340516 0.015668776
000310 30 32 23 3e e7 1a 7a 3e 5d 9f 2f 3e 2b 94 02 3f
       0.15937114 0.24424325 0.17150636 0.51007336
000320 95 2d 04 bd e2 b7 26 3d aa d2 26 bd 68 26 1e 3e
       -0.032270033 0.040702708 -0.04072825 0.15444338
000330 43 3b 60 3a ec 91 92 3d 5a 6c ab bd 0f 1a 32 be
       0.00085537526 0.07156739 -0.08370276 -0.17392753
000340 9a c1 f9 bb 67 5e a6 bd 40 88 bf bd 64 95 26 be
       -0.007621956 -0.081234746 -0.093521595 -0.16267926
000350 3b 06 5b 3e ac f8 50 bc 5b a0 56 3e e0 66 4c be
       0.21389095 -0.0127546005 0.20959608 -0.19961119
000360 50 a7 49 3e 8c d4 a4 3d 30 85 4c be 67 62 60 3b
       0.19692731 0.080483526 -0.19972682 0.003423834
000370 84 fe 34 3e e7 50 40 bc 26 a5 65 3e c7 ff 89 bd
       0.17675215 -0.011738039 0.2242628 -0.06738239
000380 34 68 4d bd 06 7b b1 bd 7d ee d2 bd bf 19 5c 3d
       -0.050148204 -0.08666043 -0.10299394 0.05373549
000390 ad 6e 9d 3d 1a ab c5 3d 0b 23 b8 3c 6f cb 9d 3b
       0.07687125 0.09651776 0.022477647 0.004815511
0003a0 5c dc 2a be e1 ed 72 3e dd 92 6e bd 59 36 a2 bd
       -0.16685623 0.23723556 -0.05824553 -0.07920522
0003b0 9c bd f6 3d 67 c1 06 be 71 bc 81 3d 67 16 f9 3d
       0.12047884 -0.13159715 0.063347705 0.12162476
0003c0 bd eb b1 bd 42 4f 2a 3c 7a 5d 6d bd 9a 8e b6 3d
       -0.08687542 0.010394873 -0.057950474 0.08913918
0003d0 c1 da 02 be b2 0a 57 3c c9 76 4d 3e ef a4 9b 3d
       -0.1277876 0.013125109 0.20064844 0.07599818
0003e0 29 b5 ff 3d 95 f3 27 be 9a ed 49 be 6d 98 1c bd
       0.124857254 -0.16401513 -0.19719544 -0.038231302
0003f0 72 37 ac bd 80 e9 09 be 02 94 a9 bd da 66 62 be
       -0.08409013 -0.1346798 -0.082801834 -0.22109547

layers.1.weight f4 [256, 256]
000000 a8 fa 5e bd 50 64 c4 bb f7 ed c8 3c 28 ff a9 3c
       -0.054438263 -0.0059934035 0.024527533 0.02075155
000010 dc 3b e0 bc 6a 92 d9 3c 58 9b 40 bd a3 e1 51 3d
       -0.027372293 0.026559073 -0.047023147 0.051240575
000020 77 47 88 bc b0 4c 16 3d 34 9d de bc df a5 46 3d
       -0.01663564 0.03669423 -0.02717457 0.04849803
000030 92 a2 69 bd 7a f0 60 bd a0 fd 5d 3d 00 11 4e 3d
       -0.057039805 -0.054916836 0.054196954 0.05030918
000040 d8 d1 ba 3c 3e d3 45 3d 54 92 a6 3c 00 2e 73 bb
       0.02280514 0.04829716 0.020333447 -0.0037106276
000050 ad 9c d9 3c b4 c7 7c bd 20 de 1c 3d 22 33 57 3d
       0.026563967 -0.06171389 0.038297772 0.052539
000060 14 7a 54 3d 32 0f 5a 3d 55 9b c2 3c 10 56 0e 3d
       0.051874235 0.053237148 0.023755709 0.034750044
000070 78 39 48 bd 5d f6 50 3d d7 57 e9 bc df 1a 49 3d
       -0.04888293 0.0510162 -0.028484268 0.049097892
000080 d2 ed 2d 3d 29 94 3a bb 64 26 d0 3c 20 80 0a 3c
       0.04246313 -0.0028469658 0.025408931 0.008453399
000090 7e f4 55 3d 50 9d 23 3c a2 48 19 3d dd 21 88 39
       0.05223512 0.009986237 0.037422784 0.00025965172
0000a0 a0 87 53 bd bd ea 29 bd 52 ca df bb 6d e2 31 3d
       -0.051643014 -0.04148363 -0.0068295384 0.043428827
0000b0 18 55 2c bd 81 52 d3 3c a9 46 3b 3c c8 98 bc 3c
       -0.04207334 0.025796177 0.011430421 0.02302207
0000c0 00 ef 39 3a e8 42 39 bd 8c a0 5c bd e6 43 01 bc
       0.0007092804 -0.045229822 -0.053864047 -0.007889723
0000d0 32 d9 45 bd fd 7c 4c bd fa 20 4a bd 45 8c f6 bb
       -0.048302837 -0.049923886 -0.049347855 -0.0075240456
0000e0 da f5 f4 ba 56 4b a4 bc 86 b1 c8 bb 50 bb a5 bc
       -0.0018688992 -0.020055454 -0.006124678 -0.02023092
0000f0 04 9a 09 bd a8 94 56 3c d9 33 62 3d 48 f5 8e bc
       -0.033594146 0.013096966 0.055225227 -0.017450944
000100 86 17 5e bd ae 71 29 bd 49 7e 2c bc de 45 77 bd
       -0.054221652 -0.04136818 -0.010528156 -0.060369365
000110 a6 3a 22 bd 12 8f 5a bd 50 39 96 3b 5c c5 ac 3c
       -0.039606713 -0.0533591 0.004584469 0.021090202
000120 d9 6d e0 3c 28 a9 98 bc 62 4a 02 3b 95 75 ae 3c
       0.02739613 -0.018635347 0.0019880761 0.021296302
000130 66 db 5a 3d 75 c6 19 3d 97 57 24 bd dc fa 65 bd
       0.05343189 0.03754278 -0.040122595 -0.05614744
000140 02 25 d2 3c 2e 2d 51 3d 4e 65 3c bd 10 8b 9c bc
       0.025652412 0.051068477 -0.04599505 -0.019109279
000150 90 8b 9b bc 98 d5 30 bc f4 bc 9f 3c f9 70 59 bd
       -0.018987447 -0.010793112 0.01949928 -0.053086255
000160 fc a9 d0 3c 3e 77 20 bd 74 69 4b 3d 29 88 32 3d
       0.02547168 -0.03917622 0.049661115 0.043586884
000170 4f b9 87 bd 72 ee b7 bc 68 a8 52 3d d0 9c 61 3c
       -0.06627142 -0.022452567 0.051430136 0.013770297
000180 9a 17 2b 3c e5 97 71 bd cd 73 01 bd 2b de 3c 3d
       0.010442639 -0.05898275 -0.031604577 0.046110313
000190 af 01 57 bd 77 de 3f 3d 4c f7 63 bd 61 5d 80 ba
       -0.05249184 0.04684302 -0.055655763 -0.0009793454
0001a0 06 c2 21 bd 58 ec 49 bd 24 73 63 bd c0 13 82 bd
       -0.039491676 -0.04929766 -0.05552973 -0.06351423
0001b0 e6 db 46 3d bc be 28 bd 68 65 1a bd 5e b7 5b 3d
       0.048549555 -0.041197523 -0.037694365 0.05364167
0001c0 e0 a9 a7 3b 58 ae 12 bd 10 9f 68 3c 1a 00 57 3d
       0.005116686 -0.0358108 0.01419808 0.05249033
0001d0 52 86 05 bd 6f a0 a2 3c 4e ac 08 3d dc 8f 35 bd
       -0.0325988 0.019851891 0.033367448 -0.044326648
0001e0 e8 97 42 bd da de 08 3d 05 44 a6 3c fa 2e db bc
       -0.04750815 0.033415653 0.020296106 -0.026755799
0001f0 94 77 9c 3c 73 9f 2f bd aa 3b 6b bd 66 4a 7d bb
       0.019099988 -0.042876672 -0.057429947 -0.0038649081
000200 b7 d9 5b 3d e5 8a 95 3c a6 93 18 3d 03 49 38 bd
       0.053674426 0.018254707 0.037250184 -0.044991504
000210 19 e7 38 bd d1 9d 4a bd 4d d1 16 bd 00 2b d6 ba
       -0.045142267 -0.04946691 -0.0368207 -0.0016339719
000220 34 c8 92 3c bf 96 55 bd be d1 50 bd ea 74 1b bc
       0.01791773 -0.052145716 -0.050981276 -0.009488324
000230 ea 62 36 bd 7e 64 5d bd 1b d5 2e bd f8 dd 4c bd
       -0.044527926 -0.054050915 -0.042683702 -0.050016373
000240 d4 0f 1d bd 46 9d ae 3c d7 58 7f 3b 28 b5 5a bd
       -0.038345173 0.021315228 0.0038962865 -0.05339542
000250 f0 58 07 bd 60 29 6a bb ad 4b 86 3a 7a 1c cf 3c
       -0.0330438 -0.0035730228 0.0010245942 0.025282133
000260 f7 48 49 3d e7 11 55 3d 10 a3 3e bc c3 39 53 3c
       0.04914185 0.052019026 -0.011635557 0.012892189
000270 30 19 69 bc 20 bb cd bc cb a8 1a 3d 26 25 63 3d
       -0.014227197 -0.025113642 0.03775863 0.05545535
000280 9d 3f 3d bc cc 4f b3 3c f4 b8 9e bc 0a 6c bb 3c
       -0.011550811 0.021888636 -0.019375302 0.022878665
000290 ad cd 4c 3d 4d 5a 1a bd 1e aa 3a 3d ec dc e8 3c
       0.050000835 -0.037683774 0.045572393 0.028425656
0002a0 98 6e 8f bc 95 85 37 3b 8e 84 b4 3c ca 45 ca bc
       -0.01750879 0.0028003205 0.022035863 -0.024691481
0002b0 e7 ad bb bc 81 07 14 3d db b6 5c bd 62 23 e9 3c
       -0.022910072 0.03613997 -0.053885322 0.028459255
0002c0 8c 08 3d 3d d2 35 9d 3c 75 87 3a 3b b0 c9 1c bd
       0.04615073 0.019190703 0.0028462086 -0.03827828
0002d0 00 e5 c2 ba 00 00 fd b5 69 26 f2 bc 4f 38 5f bd
       -0.0014869273 -1.8849969e-06 -0.029559331 -0.05449706
0002e0 d9 65 0a bd 0c 64 73 bd 5a b8 53 3d 50 b6 3b bc
       -0.033788536 -0.059421584 0.051689483 -0.011457041
0002f0 10 04 88 3b e9 17 84 bd b8 7f d8 bc 00 4f fc 3b
       0.004150875 -0.06449873 -0.026428089 0.007699847
000300 b4 9f 59 3d 18 3f 4d 3c 14 e3 fd bc 99 a4 7e 3c
       0.05313082 0.01252725 -0.030992068 0.015542173
000310 b6 c4 b5 3c a3 7d 20 bd c4 f2 f3 bc e5 b0 6f bd
       0.022188526 -0.039182317 -0.029778846 -0.05851831
000320 90 5d 22 bd 77 f7 b4 bc 05 a4 48 bd 2d 8b f8 bc
       -0.03964001 -0.022090657 -0.048984546 -0.030339802
000330 1a ba 40 bd db 8f 85 bd 8d af 05 bc d0 b9 02 3d
       -0.04705248 -0.06521579 -0.00815953 0.031915486
000340 12 c1 74 bd ee 9d 7b bd e4 12 aa 3c 5d 55 73 bd
       -0.05975444 -0.06142991 0.02076096 -0.05940758
000350 cb 79 34 bd a2 c5 ae 3c 3e 34 45 bd a5 21 42 bd
       -0.044061463 0.021334473 -0.048145525 -0.047395367
000360 27 75 bf bb 30 64 ff 3c 6a a9 48 bd 68 51 75 bd
       -0.005842823 0.031175703 -0.04898969 -0.05989209
000370 8d 46 14 bd 20 e3 1c 3b f1 9a 24 bc 66 c5 ca bc
       -0.036200095 0.0023939088 -0.010046707 -0.02475233
000380 04 ed 37 3d 22 b6 07 bc 38 1e 58 bd f4 32 26 3d
       0.04490377 -0.00828317 -0.052763194 0.040575936
000390 4b 09 0b bd ae f7 f7 3c 60 ee 71 b9 24 3f 94 3c
       -0.03394441 0.03026947 -0.00023072353 0.018096514
0003a0 78 fa 50 bd b2 b1 13 bd b4 02 40 bd e7 87 28 bb
       -0.051020116 -0.036058135 -0.046877578 -0.002571577
0003b0 f7 31 94 bc c0 ba 15 3d 0f 5c 5d 3c 32 bf 01 bd
       -0.018090231 0.03655505 0.013510718 -0.03167648
0003c0 28 07 b7 bc 07 de e8 bc f0 41 84 bd 68 fe ce 3c
       -0.02234228 -0.028426183 -0.06457889 0.025267795
0003d0 b0 9d 01 3c d2 35 40 3d 1f 0f 2c bd 69 28 6d 3c
       0.007911131 0.046926327 -0.042006608 0.014474967
0003e0 c6 dd bb 3c 9e 7d 02 3d 2e 44 10 bd 62 35 35 bd
       0.022932898 0.03185808 -0.03522127 -0.044240363
0003f0 20 21 39 bd 0c b0 33 bd 44 5f bf bc c9 e8 66 bc
       -0.045197606 -0.043869063 -0.023360856 -0.014093586

layers.1.bias f4 [256]
000000 2c 6d fe 3b ca c8 b1 bd 00 09 57 bd b0 7a d8 bd
       0.007764479 -0.086808756 -0.052498817 -0.10570276
000010 01 0e 18 bd 0c e9 83 3d a4 05 80 bd 91 c1 33 bd
       -0.03712273 0.064409345 -0.06251076 -0.04388577
000020 e9 81 72 bd b3 43 71 bd a7 24 21 3d 7f 06 e9 bd
       -0.059205923 -0.058902454 0.039341595 -0.11378192
000030 af 0d e1 bc bd a2 1a be 13 41 dc 3b 3a 5c 88 3e
       -0.027472345 -0.15101142 0.0067216246 0.26632863
000040 d4 18 c8 3c c2 b2 2a 3d 5d 40 98 bd 2f 66 3a 3d
       0.024425901 0.041674383 -0.07434151 0.045507606
000050 b8 a8 67 bd fc e3 6b be 00 62 68 bd 66 d3 fa bc
       -0.056557387 -0.23036188 -0.056734085 -0.03061838
000060 97 9d 1b be 25 63 19 be 25 b3 16 be e3 f2 19 bc
       -0.15196835 -0.14979227 -0.14716776 -0.009396288
000070 83 03 8f 3c 09 d5 15 bc 4b eb 84 3c 35 6f 9f 3c
       0.01745773 -0.00914503 0.016225478 0.019462207
000080 ed 56 e3 3c 2e d9 10 bd fa 05 e7 3c 3c f3 6d bd
       0.02775141 -0.03536337 0.028201092 -0.058093295
000090 7e 4a 97 bc e9 51 43 bc 40 ef 69 bc d9 41 95 3b
       -0.018468138 -0.011921384 -0.014278233 0.004554969
0000a0 cc da 96 3c 9c c1 7b bc f6 f9 22 be 04 68 10 3d
       0.018414877 -0.015365984 -0.15915665 0.035255447
0000b0 48 ca 82 bd d3 6a eb bd db 1b 41 39 14 e9 71 3a
       -0.06386238 -0.114949845 0.00018416291 0.0009228152
0000c0 28 70 b4 bc ed db 81 bd ee e0 f2 3d 95 d8 7f 3d
       -0.022026137 -0.06340776 0.11859308 0.062462408
0000d0 8f 32 29 bd eb 93 28 be 59 0f a5 bd cb 13 19 ba
       -0.041307982 -0.16462676 -0.08059568 -0.0005839436
0000e0 92 b6 87 3c 76 6d e5 bd 04 54 b5 bc 5e a5 71 bc
       0.016566548 -0.11202519 -0.022134788 -0.014748899
0000f0 04 7c 01 bd 1e 10 47 3e 92 b3 53 bd c8 e1 03 bc
       -0.03161241 0.19439742 -0.051684923 -0.008049436
000100 c8 e7 ed 3c ad f4 81 bd 9e e4 9f bc 31 fc 01 3d
       0.029041186 -0.06345496 -0.019518193 0.03173465
000110 db fa 83 3c 93 fd 7c bc ba 12 74 3d 03 33 5b 3c
       0.016110828 -0.015441316 0.05958817 0.013378861
000120 f4 05 78 bd 06 6f 5b bc 58 2e f4 bb 27 8f 68 bc
       -0.060552552 -0.013393169 -0.0074518137 -0.014194286
000130 a1 ad dd bc 07 0d fc bd f9 19 66 bd 7b 7e 09 bd
       -0.027060332 -0.12307172 -0.056177113 -0.033567887
000140 09 8d db 3c 8c 10 2c 3d 12 6b 80 bd 4d 84 36 bc
       0.02680065 0.042007968 -0.06270422 -0.011139941
000150 ab 2b 19 bd 19 ef 4b bd 43 78 b3 3d 3a 48 8e 3c
       -0.03739516 -0.04978857 0.087631725 0.017368425
000160 1f 57 5d bd 5d 4b 31 bd 04 9f 07 3d 54 59 3a 3d
       -0.054038163 -0.043284763 0.033110633 0.045495346
000170 d4 cc 72 3d 27 bd 45 bd c3 24 40 be 81 d2 f2 bb
       0.05927737 -0.048276093 -0.18764023 -0.007410348
000180 c3 85 3d ba 5f 34 60 bd 39 30 22 3d 17 76 26 3d
       -0.000722971 -0.054737445 0.03959677 0.040639963
000190 8f 74 26 3d e0 0e dd bd e5 b9 50 be 50 5a de 3c
       0.040638503 -0.10793853 -0.20383413 0.027142674
0001a0 10 d0 81 3c 83 2e 01 bd e3 8a c1 bd fd 0f f6 bd
       0.015846282 -0.031538498 -0.09450319 -0.12014768
0001b0 33 dd f0 bd 94 15 16 bc 05 e2 a1 bd d2 8f 4d ba
       -0.117609404 -0.009160418 -0.07904438 -0.00078415603
0001c0 4c 6b c2 bd c0 3c 7e bc 40 0b 78 be 40 53 66 bd
       -0.094931215 -0.015517414 -0.24223042 -0.056231737
0001d0 07 6b a4 3b 74 64 1c be 2a e8 8c bd 2a 96 04 bd
       0.0050176415 -0.15272695 -0.06880219 -0.03236977
0001e0 18 51 51 bd 89 4b 15 bd 2c d2 69 3e 7a bf 0b be
       -0.051102728 -0.03644899 0.2283408 -0.13647261
0001f0 cc 95 c5 bc 6d 46 61 3c 0d b5 9c bb 0a 9b 49 3d
       -0.02411928 0.013749701 -0.004782325 0.049220122
000200 e8 38 02 bd 42 9e 5e bd 56 3b 57 3d 19 32 b0 3c
       -0.03179255 -0.054350145 0.05254682 0.021508263
000210 61 83 ec bd ec 50 38 be 68 a8 93 bd b4 68 4b bd
       -0.11548496 -0.17999619 -0.07209855 -0.0496604
000220 f3 5f a1 bc 05 bd 11 be 61 d3 27 3d 9b 86 ac bb
       -0.019699072 -0.14232261 0.04097307 -0.0052650697
000230 97 ff 59 bd 5a 60 2c 3c a2 81 82 3b a7 e3 65 bd
       -0.053222265 0.010521019 0.0039827386 -0.05612531
000240 f3 1a 8c bd b0 c9 1b bd ef 1f 0d 3d a7 85 91 bd
       -0.06841078 -0.03803414 0.034454282 -0.0710557
000250 d6 4a 9e 3c c5 b8 9b bd 1b 28 d4 bd 68 1f 4b bd
       0.019322794 -0.07603601 -0.10359212 -0.0495905
000260 3d 10 5f 3d 50 77 92 3e 0c e6 49 be 3d ee 4d 3c
       0.054458845 0.28606653 -0.19716662 0.012569007
000270 b9 18 fe bc 72 9e 24 3d fc 4a d3 bc 7f c9 9a 3c
       -0.031017648 0.040190168 -0.025792591 0.018894909
000280 6e 5c a1 3b c6 a1 81 bd 0b 1b bd bd 38 26 a0 bd
       0.0049243486 -0.06329684 -0.09233674 -0.0781979
000290 ae d7 9c bc c8 07 80 bc 25 70 04 3e b7 16 80 bd
       -0.019145813 -0.01562871 0.12933405 -0.062543325
0002a0 3e 2a 4f 3d 20 61 37 be 22 e3 f9 bc 1a 15 1b be
       0.050577395 -0.17908144 -0.030503813 -0.15144768
0002b0 57 49 e9 3c 9c de 80 bd b1 3a da 3c 60 9c 55 3d
       0.028477354 -0.06292459 0.026639314 0.052151084
0002c0 42 99 b6 bd be 09 4d 3d b3 c2 bd 3c 17 fd b5 bd
       -0.0891595 0.05005812 0.023164129 -0.08886164
0002d0 50 6e ad bc bb 4d f8 bd c1 86 46 be ce d1 13 3e
       -0.021170765 -0.12124201 -0.19387342 0.14435503
0002e0 c5 6a 40 bb ea c8 87 bd fd c4 97 bd 33 53 52 3d
       -0.0029360515 -0.06630118 -0.074106194 0.051348876
0002f0 58 5a 11 be 8f 9f 9f bd 20 8a 29 bd 0e bf d0 3b
       -0.1419462 -0.07794105 -0.041391492 0.0063704317
000300 66 49 3d 3d 80 f6 1d bb 88 ca 88 bd 39 f1 0d be
       0.046212576 -0.0024103224 -0.06679255 -0.1386155
000310 e2 8f 7c bd 87 fd a9 bd ee 24 59 bd 4a 63 7c bc
       -0.061660655 -0.0830031 -0.053013735 -0.015404532
000320 7e 02 43 bb 1c cf 27 bd 40 26 0c be 87 4f 91 bd
       -0.0029756124 -0.040969 -0.13686466 -0.07095247
000330 e8 c9 0f 3c 57 6c 05 3c c0 34 4b bc b2 bc 53 bd
       0.008776166 0.008143506 -0.012402713 -0.051693626
000340 d7 2f 96 bd 55 6d cd bd ba 94 2d bd 0f 87 ad bc
       -0.073333435 -0.10030619 -0.042378165 -0.021182565
000350 5d 7e 1c be ab 8d 26 3e 88 8d e3 bd b2 70 89 bd
       -0.15282579 0.1626498 -0.11110979 -0.06710948
000360 d7 71 14 be 5e 82 1e 3d c6 42 68 3c 62 60 12 be
       -0.14496551 0.038698547 0.014176076 -0.1429458
000370 ef dd bf bd 27 07 d6 bc 2b 75 da bd 38 aa 03 be
       -0.09368502 -0.026126457 -0.10666879 -0.12857902
000380 44 d4 0f be 18 0d ae bd 43 b3 25 be 63 36 9f b7
       -0.14045817 -0.08498591 -0.16181664 -1.8979603e-05
000390 88 4a ba bc 46 70 23 bd 68 47 27 be 95 74 a1 3c
       -0.022740617 -0.039901994 -0.16335833 0.019708911
0003a0 57 9b 47 3d fa 59 d8 bb 3a 2c d9 bc d1 78 97 bd
       0.048732128 -0.006602523 -0.026510347 -0.07396091
0003b0 c6 0a 5e bd 4b 74 0f be 16 3b 52 bd 39 ee 9f bc
       -0.054209493 -0.14009206 -0.05132588 -0.019522773
0003c0 60 72 14 3d d8 4f 33 3d b1 6e 63 bd 0c 2d c5 3c
       0.03624189 0.043777317 -0.055525485 0.024069332
0003d0 fa b0 5a bd 35 d2 78 bb 28 e7 1a be 5c d5 a3 bb
       -0.053391434 -0.003796709 -0.15127242 -0.0049997997
0003e0 b7 a9 0e bd 98 db 2c bd ff 34 24 be ab c9 88 bd
       -0.03482982 -0.04220161 -0.16035841 -0.0667909
0003f0 ab 37 07 be 09 00 ab bd e3 73 7a bd 95 ee 08 be
       -0.1320483 -0.08349616 -0.061145674 -0.13372262

predict.weight f4 [5, 256]
000000 e8 2b 05 3c 92 42 0c 3f 00 b5 78 bd 3c 52 40 3f
       0.008128144 0.5478908 -0.06071949 0.7512548
000010 ab c3 83 bc 01 d0 83 3f 7b 7c 62 3e 9e d5 d7 3c
       -0.016084513 1.0297853 0.22117798 0.026346978
000020 92 b2 88 bc b7 0b 94 3e 51 d2 16 3d 6d fa 85 3e
       -0.016686711 0.28915188 0.036821667 0.26167622
000030 8d 19 78 3d a1 bc 6d 3e e1 54 48 bd 16 fa 0f 3f
       0.060571242 0.23216487 -0.04890907 0.56240976
000040 40 61 b9 bc 79 6b 1e 3d 1a 9a ad 3e f0 a6 81 bb
       -0.02262938 0.038676713 0.33906633 -0.003956668
000050 02 b2 68 3d 96 6b b7 3e 56 d3 4d bd 64 13 01 bc
       0.056810386 0.3582427 -0.050250374 -0.007878158
000060 6e 79 69 3e 34 a3 59 3e 08 f7 46 3e 10 5c d1 3c
       0.22800228 0.21253663 0.19430172 0.025556594
000070 f2 a9 b4 bc 2f 1d 39 bd 77 60 a8 bc 96 b8 9e bc
       -0.022053692 -0.045193847 -0.02055381 -0.019375127
000080 f9 cd 08 3d 48 4b a2 3c ee cb 81 bd 3e 20 4d 3e
       0.033399556 0.019811288 -0.063377246 0.2003183
000090 dd 48 85 3d a8 d0 82 3f 10 fb fc 3b 34 76 df bc
       0.06508038 1.0219927 0.0077203587 -0.027278043
0000a0 32 e9 0a 3d 83 26 51 3f b4 b9 b8 3e 00 28 4c 38
       0.0339138 0.8169939 0.3607918 4.8674643e-05
0000b0 45 0d 7b 3d 7b 8c 44 3e 6c 0e 2e 3f db 75 ed bc
       0.06129195 0.19194214 0.67990756 -0.028986862
0000c0 06 a7 8f 3e 0d 6f d0 bc d5 d5 36 3f c7 52 a1 3d
       0.28057116 -0.025443578 0.7142003 0.07877117
0000d0 50 99 c0 3c 1a 59 a3 3e 2c 2f 87 3e 0e cc 3c 3f
       0.023510605 0.31903917 0.26403177 0.7374886
0000e0 c0 26 51 bc d0 69 52 3e 00 11 32 bb 36 2d ce 3e
       -0.012765586 0.20548177 -0.0027170777 0.40268868
0000f0 20 b1 84 3c 27 ae 9c 3e 2c 60 23 3d 18 04 f8 bc
       0.016197741 0.30601618 0.03988664 -0.03027539
000100 04 a0 18 3d 10 20 8a 3c ec 92 1d bd b9 35 64 bd
       0.037261978 0.016860992 -0.038470194 -0.055715296
000110 38 29 22 bd b6 c6 44 3c f8 03 3a 3c ab de 62 3d
       -0.03959009 0.012010267 0.011353485 0.055388134
000120 49 34 03 3d be d8 5e bc 69 fe f3 3c 0a cd 45 3d
       0.032032285 -0.01360148 0.029784398 0.048291244
000130 15 60 dc 3c 84 77 26 3f 6c 65 01 3d 57 6e fa 3c
       0.026901284 0.65026116 0.031590864 0.030570192
000140 bd 68 f2 3c ec 05 70 bd c2 9d 56 3e cb ed f5 bc
       0.029590959 -0.058599398 0.20958617 -0.030020615
000150 8d 6c 2a bd a0 c0 1a 3d 5e 83 3d 3f ad 59 37 3c
       -0.04160743 0.037781358 0.74028575 0.011190814
000160 02 8f 21 bd 34 d9 07 bd ce 63 9c 3c 6f b4 6b 3d
       -0.039443024 -0.033166125 0.01909056 0.05754512
000170 b0 72 39 bc 74 a2 33 3d 42 34 b4 3e 16 3a 91 3c
       -0.011318848 0.0438561 0.3519612 0.017727893
000180 4a 13 8d 3c d4 40 a2 bc 98 6c e4 bc ae 6d 79 3d
       0.017221112 -0.019806303 -0.027883813 0.060895614
000190 62 54 28 3c 06 e1 9a 3e c5 76 88 3e 79 96 9a 3c
       0.010274025 0.30249804 0.26653114 0.01887058
0001a0 f8 c2 c2 3c c8 16 33 3d f8 d1 0a 3f ef 23 46 3e
       0.023774609 0.043722898 0.54226637 0.19349645
0001b0 ba 4a 2e 3e 37 f3 12 3d 8b 41 3d 3e eb db f1 bc
       0.17020693 0.03587648 0.18482034 -0.02952381
0001c0 1f 15 61 3e 64 7d bf 3e 38 55 8d 3e 60 d7 0f 3d
       0.21980713 0.37400353 0.2760408 0.035117507
0001d0 d5 f7 2b 3c af 15 0d 3f b5 60 29 3f bc 37 12 3d
       0.0104960995 0.5511121 0.6616319 0.035697684
0001e0 fa 8f 3c bd 88 a9 4c 3d aa 9a fe 3e 7e e3 47 3e
       -0.046035744 0.049966365 0.49727374 0.19520375
0001f0 04 96 0e bc 44 5f d4 3c 77 28 09 bc 2c de bf bc
       -0.008702759 0.025924332 -0.008371464 -0.02342137
000200 9a e1 96 3e 04 c3 e8 bc 88 aa d9 3c f5 d9 1e 3d
       0.29468995 -0.028413303 0.026570573 0.03878208
000210 45 c2 5a 3e a8 c4 6c 3e 7e 90 20 3e 36 82 1e 3f
       0.2136317 0.23121893 0.1568012 0.61917436
000220 a4 18 7d bd 66 25 b5 3e 75 c4 83 bc d8 28 5f 3f
       -0.061791077 0.35380095 -0.016084889 0.871717
000230 8b 5f 1e bd 57 f6 bc 3c 5e 22 a3 bc 0b ea 55 bc
       -0.038665336 0.023066683 -0.019913848 -0.0130562885
000240 52 9f 6b 3f 8e 18 21 bd 00 56 8f bb c4 9f c9 3c
       0.9203998 -0.039330058 -0.0043742657 0.024612315
000250 ef 74 41 bd 0d 88 05 3f 68 66 18 3e f5 48 6d bb
       -0.047230657 0.5216072 0.14882815 -0.0036206816
000260 2e 78 27 3d ce c6 58 3f c4 fb a1 3e 12 e9 b8 3c
       0.040886097 0.8467835 0.31637394 0.022572074
000270 8f fa 81 3e 8b 0d ca 3c 4e 86 fb bb 39 95 a2 bb
       0.25386474 0.02466466 -0.0076759225 -0.0049616364
000280 fe c0 43 bd 05 54 50 3c 2a 88 4f 3e 8c 08 2e 3e
       -0.047791474 0.012715344 0.20266786 0.16995448
000290 24 d4 fc bc ef 9a 3a 3c 9a 97 3e 3f e8 b3 a1 3e
       -0.030862875 0.011389478 0.74450076 0.3158257
0002a0 d2 02 cc bc 55 be 73 3e 28 59 14 bc 56 33 84 3e
       -0.024903689 0.23803075 -0.00905446 0.25820416
0002b0 54 6a bf bc 1c cf 6a 3d a4 84 7a 3b bb 64 ea bc
       -0.02336613 0.05732642 0.0038226033 -0.028612485
0002c0 cf 3d a7 3e 2b 88 71 bb ce 92 30 3d f5 37 86 3f
       0.32664344 -0.0036854844 0.043108754 1.0485827
0002d0 30 0a 9d 3c f3 a5 22 3e d2 23 76 3e 8b 06 4e 3f
       0.019169897 0.15883617 0.24037102 0.80478734
0002e0 70 9c 30 3d 22 ea 4c 3e 25 93 c0 bb 7a 8a 0f 3d
       0.04311794 0.2001119 -0.005876916 0.03504417
0002f0 6b fe 25 3f f4 f7 01 bd 72 5f 8b 3d 2a 72 25 3d
       0.64841336 -0.031730607 0.06805314 0.04039208
000300 5c 16 e4 3c 9d f1 0b 3d d0 93 44 3d 33 23 50 3e
       0.027842693 0.034165967 0.047992527 0.20325927
000310 c1 37 ee 3c 7b ae 80 3e 9c 60 a0 bc 89 37 2f 3d
       0.02907932 0.25133118 -0.019577317 0.04277757
000320 b3 f0 49 bc 68 f9 f5 bc 5e c5 48 3e 89 5d f7 3d
       -0.012325454 -0.030026153 0.1960654 0.12078387
000330 d6 09 7f 3d 59 e5 f6 3b 72 97 10 3d c0 27 15 3d
       0.06226524 0.0075346646 0.03530068 0.03641486
000340 cf 71 62 3e d4 de 8d 3e fe f9 55 3e 0c d2 f0 bc
       0.22113727 0.27709067 0.20896146 -0.029397033
000350 d6 ab 6f 3e 70 10 51 3f 68 07 36 3e a0 b9 79 3e
       0.23405394 0.81665707 0.17776263 0.24387217
000360 63 df 65 3e 4c 21 83 bb 8d 1b d8 3c 1d cb 25 3e
       0.22448497 -0.004001772 0.026380325 0.16190763
000370 6c 98 93 3e 30 b6 fa ba bf 5b be 3d 6c a6 9d 3e
       0.28827226 -0.0019127782 0.09294843 0.30791032
000380 ad e7 23 3e 80 9d 0a bc 41 03 b1 3e ed 08 3b bd
       0.16006346 -0.0084604025 0.34572795 -0.04566281
000390 40 bd 5a bd 23 b4 d2 bc 1e 70 8e 3c eb 77 61 3f
       -0.05340314 -0.025720662 0.017387446 0.88073605
0003a0 8a 16 52 3b 58 f5 36 3d 36 87 c0 bc 86 63 4f 3c
       0.0032056891 0.04466757 -0.023501974 0.012658006
0003b0 78 01 bb 3c b2 07 cf 3e de e3 c6 bc 46 b3 7d 3d
       0.022827849 0.4043556 -0.024278577 0.061938547
0003c0 7e d9 85 3d 13 4d 97 bc c0 54 98 3c f0 ab b7 3c
       0.06535624 -0.018469369 0.0185951 0.022420853
0003d0 8c 28 d2 3c 38 a4 b7 bb 18 32 8f 3e 10 89 ee bc
       0.0256541 -0.005604293 0.27967906 -0.02911809
0003e0 23 20 27 bd b0 d3 4f 3d 0a 80 99 3e 4b 2d 23 3c
       -0.040802132 0.05073899 0.299805 0.009959529
0003f0 08 48 ce 3e e8 44 b0 3e e8 c4 3e bc 9a b7 7f 3e
       0.4028933 0.3442757 -0.011643626 0.24972382

predict.bias f4 [5]
000000 2d 58 14 3c 24 4f ed 3e 69 1b a7 3e dc 63 b6 3d
       0.009054226 0.46349442 0.326381 0.089057654
000010 db 2e 23 3f
       0.6374337

exp_avg f4 [256, 25]
000000 00 00 00 00 00 00 00 00 00 00 00 00 00 00 00 00
       0.0 0.0 0.0 0.0
000010 00 00 00 00 00 00 00 00 00 00 00 00 00 00 00 00
       0.0 0.0 0.0 0.0
000020 00 00 00 00 00 00 00 00 00 00 00 00 00 00 00 00
       0.0 0.0 0.0 0.0
000030 00 00 00 00 00 00 00 00 00 00 00 00 00 00 00 00
       0.0 0.0 0.0 0.0
000040 00 00 00 00 00 00 00 00 00 00 00 00 00 00 00 00
       0.0 0.0 0.0 0.0
000050 00 00 00 00 00 00 00 00 00 00 00 00 00 00 00 00
       0.0 0.0 0.0 0.0
000060 00 00 00 00 00 00 00 00 00 00 00 00 00 00 00 00
       0.0 0.0 0.0 0.0
000070 00 00 00 00 00 00 00 00 00 00 00 00 00 00 00 00
       0.0 0.0 0.0 0.0
000080 00 00 00 00 00 00 00 00 00 00 00 00 00 00 00 00
       0.0 0.0 0.0 0.0
000090 00 00 00 00 00 00 00 00 00 00 00 00 00 00 00 00
       0.0 0.0 0.0 0.0
0000a0 00 00 00 00 00 00 00 00 00 00 00 00 00 00 00 00
       0.0 0.0 0.0 0.0
0000b0 00 00 00 00 00 00 00 00 00 00 00 00 00 00 00 00
       0.0 0.0 0.0 0.0
0000c0 00 00 00 00 00 00 00 00 36 ad 17 02 36 ad 17 02
       0.0 0.0 1.1143437e-37 1.1143437e-37
0000d0 9c 1e 1a 02 ad 2d 15 02 63 9c 16 02 36 ad 17 02
       1.1322918e-37 1.09599e-37 1.106514e-37 1.1143437e-37
0000e0 82 6b 18 82 9c 1e 1a 82 f3 18 13 82 95 2c 17 02
       -1.119805e-37 -1.1322918e-37 -1.0807014e-37 1.1106522e-37
0000f0 36 ad 17 02 32 89 1d 02 68 00 11 82 d3 f8 14 82
       1.1143437e-37 1.1573911e-37 -1.0653034e-37 -1.0944732e-37
000100 d7 94 17 02 36 ad 17 02 be 6a 1c 02 9c 1e 1a 82
       1.1136443e-37 1.1143437e-37 1.1491703e-37 -1.1322918e-37
000110 c4 26 16 82 89 6f 10 82 36 ad 17 02 6e e4 15 02
       -1.1031385e-37 -1.0611458e-37 1.1143437e-37 1.1012347e-37
000120 9c 1e 1a 82 9f a5 1a 02 08 72 10 82 01 52 11 02
       -1.1322918e-37 1.1361664e-37 -1.0612175e-37 1.0676452e-37
000130 ec 9c 1c 02 7c a8 13 02 ec d9 12 02 57 d8 12 02
       1.1506104e-37 1.0848207e-37 1.0788926e-37 1.0788472e-37
000140 01 52 11 02 0e 64 1f 02 ff 8f 13 82 af 1d 19 02
       1.0676452e-37 1.1710189e-37 -1.0841179e-37 1.1249184e-37
000150 71 d9 12 82 01 52 11 02 02 6f 14 02 2b 47 13 82
       -1.0788789e-37 1.0676452e-37 1.090518e-37 -1.0820279e-37
000160 d3 dc 13 02 09 a7 1c 82 01 52 11 02 5d 79 18 02
       1.0863228e-37 -1.1509007e-37 1.0676452e-37 1.1202026e-37
000170 c4 17 11 02 0c e5 1a 02 57 d8 12 82 01 52 11 02
       1.0659738e-37 1.1379866e-37 -1.0788472e-37 1.0676452e-37
000180 1f d3 1c 02 60 ff 11 82 99 c4 13 82 57 d8 12 82
       1.1521659e-37 -1.0726207e-37 -1.0856275e-37 -1.0788472e-37
000190 00 00 00 00 00 00 00 00 00 00 00 00 00 00 00 00
       0.0 0.0 0.0 0.0
0001a0 00 00 00 00 00 00 00 00 00 00 00 00 00 00 00 00
       0.0 0.0 0.0 0.0
0001b0 00 00 00 00 00 00 00 00 00 00 00 00 00 00 00 00
       0.0 0.0 0.0 0.0
0001c0 00 00 00 00 00 00 00 00 00 00 00 00 00 00 00 00
       0.0 0.0 0.0 0.0
0001d0 00 00 00 00 00 00 00 00 00 00 00 00 00 00 00 00
       0.0 0.0 0.0 0.0
0001e0 00 00 00 00 00 00 00 00 00 00 00 00 00 00 00 00
       0.0 0.0 0.0 0.0
0001f0 00 00 00 00 cb c9 b8 3b 6d 30 98 3b 68 62 76 3b
       0.0 0.00563929 0.0046444447 0.0037595276
000200 85 0f d0 3a 38 0c 80 26 cb c9 b8 3b a8 9b 25 3a
       0.0015873766 8.885096e-16 0.00563929 0.0006317445
000210 be f0 42 bb 7f 4c 55 b9 a8 a3 55 b9 cb c9 b8 3b
       -0.0029745544 -0.0002034176 -0.0002037423 0.00563929
000220 53 6f b5 3a cc d6 0e bb 38 4f 70 35 38 0c 80 a6
       0.0013842381 -0.002179551 8.9522246e-07 -8.885096e-16
000230 cb c9 b8 3b b0 7d 01 3b 68 62 76 bb 91 a9 6a b9
       0.00563929 0.0019758753 -0.0037595276 -0.00022379147
000240 38 0c 80 a6 cb c9 b8 3b d2 ae 30 3b e3 e0 67 bb
       -8.885096e-16 0.00563929 0.002695967 -0.0035381846
000250 bf 6c a5 b8 38 0c 80 a6 13 ad 1c 02 13 ad 1c 02
       -7.888069e-05 -8.885096e-16 1.151074e-37 1.151074e-37
000260 06 33 1f 02 5b 1b 1a 02 00 00 00 00 13 ad 1c 02
       1.1696118e-37 1.1321984e-37 0.0 1.151074e-37
000270 ea b8 1f 02 e2 c7 15 82 98 f5 19 02 bc 60 16 82
       1.1734543e-37 -1.1004155e-37 1.1311147e-37 -1.1048021e-37
000280 13 ad 1c 02 29 7a 1c 02 06 33 1f 82 95 6d 14 02
       1.151074e-37 1.1496128e-37 -1.1696118e-37 1.0904771e-37
000290 bd 93 19 82 13 ad 1c 02 79 b6 1f 02 eb cb 15 82
       -1.1283064e-37 1.151074e-37 1.1733842e-37 -1.1005313e-37
0002a0 83 e1 11 82 00 00 00 00 13 ad 1c 02 c2 24 19 02
       -1.0717636e-37 0.0 1.151074e-37 1.1251214e-37
0002b0 71 58 17 82 dc 14 10 82 00 00 00 00 5d 87 15 02
       -1.1119109e-37 -1.0585436e-37 0.0 1.0985638e-37
0002c0 46 77 1c 02 ca d4 1e 02 80 e7 14 02 df 39 1e 82
       1.14953e-37 1.1669074e-37 1.093976e-37 -1.1624615e-37
0002d0 5d 87 15 02 42 a9 19 02 ca d4 1e 82 67 1f 1f 82
       1.0985638e-37 1.1289239e-37 -1.1669074e-37 -1.1690487e-37
0002e0 df 39 1e 02 5d 87 15 02 0b da 1a 02 ca d4 1e 02
       1.1624615e-37 1.0985638e-37 1.1376708e-37 1.1669074e-37
0002f0 14 34 1e 82 df 39 1e 02 5d 87 15 02 24 cd 13 02
       -1.1622952e-37 1.1624615e-37 1.0985638e-37 1.0858727e-37
000300 ca d4 1e 82 ba b6 14 82 df 39 1e 02 5d 87 15 02
       -1.1669074e-37 -1.0925763e-37 1.1624615e-37 1.0985638e-37
000310 41 2e 14 02 ca d4 1e 02 54 2b 15 82 df 39 1e 02
       1.0886597e-37 1.1669074e-37 -1.0959226e-37 1.1624615e-37
000320 2e c7 6e 3d aa d5 89 3d d9 a0 3f 3d 99 70 73 3c
       0.05829542 0.06730206 0.046784256 0.014858388
000330 98 7b ce 38 2e c7 6e 3d 98 7d b1 3b 2c 6a bb bc
       9.8458666e-05 0.05829542 0.0054165833 -0.022877775
000340 cf b2 21 ba bc 94 48 b8 2e c7 6e 3d c4 09 13 3c
       -0.0006168307 -4.7822236e-05 0.05829542 0.008974496
000350 04 ac 4d bc ae a2 80 3a 9b 41 9b b9 2e c7 6e 3d
       -0.012553219 0.0009814107 -0.00029612784 0.05829542
000360 ea 72 99 3c 31 dc 2f bc 50 b7 10 bb 8f 13 13 ba
       0.018731553 -0.01073365 -0.002208192 -0.00056105194
000370 2e c7 6e 3d 88 a1 e8 3c 84 43 02 3b 74 b4 98 39
       0.05829542 0.028397337 0.0019876668 0.00029126147
000380 34 4c 66 b7 1e 61 12 02 1e 61 12 02 98 a3 1d 02
       -1.3726811e-05 1.0754257e-37 1.0754257e-37 1.1581487e-37
000390 f0 6b 1d 02 d6 b7 13 82 1e 61 12 02 0d 9f 1d 82
       1.1565515e-37 -1.0852613e-37 1.0754257e-37 -1.1580184e-37
0003a0 ad 59 1b 02 6c 25 1d 82 d6 b7 13 02 1e 61 12 02
       1.1413337e-37 -1.1545278e-37 1.0852613e-37 1.0754257e-37
0003b0 e3 38 1d 82 0d ac 14 02 a4 c3 17 82 d6 b7 13 02
       -1.1550864e-37 1.0922699e-37 -1.1149874e-37 1.0852613e-37
0003c0 1e 61 12 02 50 1a 15 02 ed e2 10 02 33 29 19 82
       1.0754257e-37 1.0954342e-37 1.0644574e-37 -1.1252488e-37
0003d0 74 c3 19 82 1e 61 12 02 48 c5 19 02 f6 a9 14 02
       -1.1296757e-37 1.0754257e-37 1.1297282e-37 1.0922099e-37
0003e0 98 7e 12 82 b1 44 1f 02 6f a4 09 3d eb 42 37 3d
       -1.0762717e-37 1.1701189e-37 0.03360408 0.044741552
0003f0 e2 1a 66 3d 16 08 ab 3c 0b 82 bd 39 6f a4 09 3d
       0.05617798 0.02087788 0.0003614578 0.03360408

exp_avg_sq f4 [256, 25]
000000 00 00 00 00 00 00 00 00 00 00 00 00 00 00 00 00
       0.0 0.0 0.0 0.0
000010 00 00 00 00 00 00 00 00 00 00 00 00 00 00 00 00
       0.0 0.0 0.0 0.0
000020 00 00 00 00 00 00 00 00 00 00 00 00 00 00 00 00
       0.0 0.0 0.0 0.0
000030 00 00 00 00 00 00 00 00 00 00 00 00 00 00 00 00
       0.0 0.0 0.0 0.0
000040 00 00 00 00 00 00 00 00 00 00 00 00 00 00 00 00
       0.0 0.0 0.0 0.0
000050 00 00 00 00 00 00 00 00 00 00 00 00 00 00 00 00
       0.0 0.0 0.0 0.0
000060 00 00 00 00 00 00 00 00 00 00 00 00 00 00 00 00
       0.0 0.0 0.0 0.0
000070 00 00 00 00 00 00 00 00 00 00 00 00 00 00 00 00
       0.0 0.0 0.0 0.0
000080 00 00 00 00 00 00 00 00 00 00 00 00 00 00 00 00
       0.0 0.0 0.0 0.0
000090 00 00 00 00 00 00 00 00 00 00 00 00 00 00 00 00
       0.0 0.0 0.0 0.0
0000a0 00 00 00 00 00 00 00 00 00 00 00 00 00 00 00 00
       0.0 0.0 0.0 0.0
0000b0 00 00 00 00 00 00 00 00 00 00 00 00 00 00 00 00
       0.0 0.0 0.0 0.0
0000c0 00 00 00 00 00 00 00 00 1e 4a 03 3a 26 30 00 3a
       0.0 0.0 0.0005008298 0.0004889987
0000d0 ad c1 95 39 e4 c0 d5 38 48 ce 6f 31 1e 4a 03 3a
       0.00028563794 0.0001019256 3.4896335e-09 0.0005008298
0000e0 26 26 8c 36 b2 35 57 39 c4 28 ea 34 e7 9d 37 33
       4.176766e-06 0.00020524001 4.3615557e-07 4.275162e-08
0000f0 1e 4a 03 3a d4 00 81 38 53 d2 33 39 23 c8 42 34
       0.0005008298 6.1513536e-05 0.00017149122 1.8140467e-07
000100 d8 06 2c 32 1e 4a 03 3a f7 8a 1d 39 da a2 3d 39
       1.0013274e-08 0.0005008298 0.00015024455 0.00018085112
000110 a0 4e b5 34 8e f0 c6 31 1e 4a 03 3a e5 85 59 39
       3.3771084e-07 5.7899063e-09 0.0005008298 0.00020744612
000120 89 26 35 39 16 79 de 34 66 5c c8 31 89 2e 9e 24
       0.0001727586 4.1438824e-07 5.8312706e-09 6.860041e-17
000130 22 e9 94 24 52 9a 0c 24 87 90 aa 22 6a 6c f5 12
       6.457971e-17 3.0488375e-17 4.6231617e-18 1.54884e-27
000140 89 2e 9e 24 b2 75 ab 21 02 dc 04 23 e7 ac 67 1e
       6.860041e-17 1.1618564e-18 7.202323e-18 1.22647935e-20
000150 18 6c 1e 1d 89 2e 9e 24 f3 03 2a 22 fa 22 0c 24
       2.096701e-21 6.860041e-17 2.3041387e-18 3.0387287e-17
000160 41 16 91 1e 93 8a 2a 1a 89 2e 9e 24 fd 7d 63 23
       1.5361676e-20 3.5267115e-23 6.860041e-17 1.2332374e-17
000170 39 a1 21 14 ee 8e 43 1e 6a 6c f5 12 89 2e 9e 24
       8.160218e-27 1.0352771e-20 1.54884e-27 6.860041e-17
000180 b5 34 8d 23 61 0c 45 23 c0 b7 d8 1e 6a 6c f5 12
       1.5309573e-17 1.0682013e-17 2.2945887e-20 1.54884e-27
000190 00 00 00 00 00 00 00 00 00 00 00 00 00 00 00 00
       0.0 0.0 0.0 0.0
0001a0 00 00 00 00 00 00 00 00 00 00 00 00 00 00 00 00
       0.0 0.0 0.0 0.0
0001b0 00 00 00 00 00 00 00 00 00 00 00 00 00 00 00 00
       0.0 0.0 0.0 0.0
0001c0 00 00 00 00 00 00 00 00 00 00 00 00 00 00 00 00
       0.0 0.0 0.0 0.0
0001d0 00 00 00 00 00 00 00 00 00 00 00 00 00 00 00 00
       0.0 0.0 0.0 0.0
0001e0 00 00 00 00 00 00 00 00 00 00 00 00 00 00 00 00
       0.0 0.0 0.0 0.0
0001f0 00 00 00 00 79 14 c7 3d ab 5e c0 3d c9 b1 0d 3d
       0.0 0.09720702 0.093930565 0.034593377
000200 49 2e 89 3c f4 00 d8 35 79 14 c7 3d 39 df fc 3a
       0.016745703 1.6093531e-06 0.09720702 0.00192926
000210 21 bd 93 3c 5e 9c a9 38 ac 37 38 37 79 14 c7 3d
       0.01803452 8.0876736e-05 1.0980217e-05 0.09720702
000220 70 c2 4b 3c 84 c7 8b 3c 7a c7 72 38 2e 2d 78 36
       0.012436494 0.01706291 5.7883073e-05 3.6981178e-06
000230 79 14 c7 3d 3f 1d c7 3c 6b 17 64 3c d8 e9 95 38
       0.09720702 0.024305938 0.013921599 7.1484304e-05
000240 f9 3a 78 36 79 14 c7 3d 37 de 15 3d 21 e8 4b 3c
       3.6989206e-06 0.09720702 0.036588874 0.012445481
000250 a4 71 56 38 53 fe 3a 36 44 11 7e 23 aa 3d 5f 23
       5.1127412e-05 2.7864196e-06 1.3773024e-17 1.2101912e-17
000260 14 d6 e1 22 fb 59 98 21 00 00 00 00 44 11 7e 23
       6.1213036e-18 1.0323738e-18 0.0 1.3773024e-17
000270 86 3a 97 20 9a 93 e7 21 b8 bb 29 1e 92 85 67 15
       2.5619123e-19 1.5692239e-18 8.985605e-21 4.6755447e-26
000280 44 11 7e 23 bf b0 6d 21 ae d5 e1 22 a0 7a 06 1e
       1.3773024e-17 8.0532645e-19 6.1212614e-18 7.119259e-21
000290 91 3d be 13 44 11 7e 23 f6 c9 c2 21 cf 8a 7f 21
       4.8023452e-27 1.3773024e-17 1.319941e-18 8.658107e-19
0002a0 e2 5d 01 1f 00 00 00 00 44 11 7e 23 af 05 5b 22
       2.739447e-20 0.0 1.3773024e-17 2.9683043e-18
0002b0 cc 1c 46 21 af 70 f2 1d 00 00 00 00 00 8e c9 24
       6.712312e-19 6.417338e-21 0.0 8.741041e-17
0002c0 c2 0c ba 24 04 0b 9f 23 c3 f6 32 23 3a 1f 18 1d
       8.0686254e-17 1.724348e-17 9.701653e-18 2.0133176e-21
0002d0 00 8e c9 24 c2 c8 bc 20 86 37 ee 22 5a 10 17 21
       8.741041e-17 3.198129e-19 6.4568817e-18 5.118243e-19
0002e0 c8 fb 81 1d 00 8e c9 24 80 d8 15 22 ec 20 f0 22
       3.440635e-21 8.741041e-17 2.030788e-18 6.5086988e-18
0002f0 88 2f 65 21 23 18 93 1e 00 8e c9 24 4f 1a 00 23
       7.7651125e-19 1.5574213e-20 8.741041e-17 6.944465e-18
000300 2d 30 35 23 00 f1 4f 21 ea 63 5a 20 00 8e c9 24
       9.822231e-18 7.045329e-19 1.8498377e-19 8.741041e-17
000310 b6 3f 90 23 3b 09 18 23 fe 53 31 21 3a 1f 18 1d
       1.5639494e-17 8.241891e-18 6.0081095e-19 2.0133176e-21
000320 9c 23 57 3e f3 ef 4f 3e 51 d9 c0 3d 76 a5 28 3d
       0.21009678 0.20306377 0.0941645 0.04117342
000330 a9 24 f5 35 9c 23 57 3e ad b3 2a 3b 79 ee 59 3d
       1.8264592e-06 0.21009678 0.0026047037 0.05320594
000340 24 08 b4 39 1b 1d 78 37 9c 23 57 3e 90 10 db 3c
       0.0003433834 1.4788729e-05 0.21009678 0.026741296
000350 09 c8 60 3d 61 8e 07 39 e8 74 81 36 9c 23 57 3e
       0.05487827 0.00012927644 3.8581093e-06 0.21009678
000360 fc 34 51 3d 9f 60 01 3d 58 40 7a 39 24 f2 8e 36
       0.05107592 0.031586286 0.00023865828 4.2601187e-06
000370 9c 23 57 3e 5d 20 9c 3d 8a f3 1f 3d 77 35 9a 38
       0.21009678 0.0762336 0.039050616 7.353251e-05
000380 42 f2 84 36 b9 8e 98 34 59 54 98 34 1d cf d6 33
       3.962109e-06 2.841605e-07 2.8373577e-07 1.0002825e-07
000390 1e a1 12 34 6f 9b e5 2d b9 8e 98 34 b2 0f 4d 31
       1.3655924e-07 2.6103312e-11 2.841605e-07 2.9840348e-09
0003a0 0d 6e 07 34 76 20 ad 32 43 ce 27 2f b9 8e 98 34
       1.2612891e-07 2.0154612e-08 1.526184e-10 2.841605e-07
0003b0 34 46 d5 32 dd 54 06 34 fd 57 dc 32 a8 12 12 2e
       2.4828388e-08 1.2510596e-07 2.5651383e-08 3.3213127e-11
0003c0 b9 8e 98 34 68 9f ba 33 d4 49 03 34 7e bd b6 32
       2.841605e-07 8.690296e-08 1.2227184e-07 2.127376e-08
0003d0 63 cb 74 2e b9 8e 98 34 c1 d6 14 34 06 ab 08 34
       5.565982e-11 2.841605e-07 1.3861701e-07 1.2728205e-07
0003e0 b6 e0 b5 32 ce f4 e4 2e a9 dc f5 3e c2 7f f2 3e
       2.117336e-08 1.04117256e-10 0.48019913 0.47363096
0003f0 f8 20 06 3e 01 40 b5 3d d4 69 fe 36 a9 dc f5 3e
       0.13098514 0.088500984 7.58211e-06 0.48019913
