highway_ddqn/ddqn_tuned/checkpoint-1.tar (torch, 297914 bytes, 6 tensors)

layers.0.weight f4 [256, 25]
000000 93 d7 30 3d 30 22 d4 bd 40 3d a8 bd 27 24 c0 3d
       0.043174338 -0.10358083 -0.082148075 0.093818955
000010 00 e5 a2 3d 0d 70 61 3d 9a 3c 85 bd 9d 8f 91 bd
       0.079538345 0.0550385 -0.065056995 -0.0710747
000020 8d 37 f5 3c 07 3d 2f be 00 78 49 3b 2f f4 05 be
       0.029933715 -0.17113124 0.0030741692 -0.1308143
000030 a0 c1 7b bd a7 7f c2 3d 8d 69 3e 3e 1d a1 28 be
       -0.061463952 0.09497004 0.18594952 -0.1646771
000040 00 ac 11 3b 9b f7 33 3e 33 97 dc 3c 00 d9 b5 bc
       0.0022227764 0.17574923 0.026927566 -0.0221982
000050 cd b6 fb 3d 13 a9 aa bd 4d dd 8e 3c 93 22 39 bd
       0.12290726 -0.083330296 0.017439509 -0.04519899
000060 37 7b b4 3d 73 44 07 bd 3b 66 23 be a7 20 66 3d
       0.08812564 -0.033024263 -0.15956967 0.056183483
000070 40 b4 0f 3d 00 5e c9 bc 12 9e 23 be 2a 64 2d be
       0.03508401 -0.024580956 -0.15978268 -0.16932741
000080 07 26 47 be bf e4 0c be 40 95 87 3c 80 5f f8 3c
       -0.194481 -0.13759135 0.01655066 0.030318975
000090 07 3b 07 be 8d 2d e6 3d 80 53 fc 3d 00 10 29 3d
       -0.13206111 0.11239157 0.12320614 0.041275024
0000a0 5f b0 4c 3e e7 a9 82 3c 1a c9 84 3d 33 8d 23 bc
       0.19989155 0.015950156 0.064836696 -0.009982395
0000b0 23 e6 00 be 6d 4b ce 3d 87 b4 d7 bd 87 f0 26 bd
       -0.1258779 0.1007298 -0.1053248 -0.04075673
0000c0 cd e5 f8 bd fa 78 2d 3d 3a 80 b8 3d 0d 9b 84 3c
       -0.12153206 0.0423517 0.09008832 0.016187215
0000d0 b3 b4 8b bc a3 26 da bd 27 5a ed 3c a7 a0 0e bd
       -0.017053938 -0.106519006 0.028973652 -0.03482118
0000e0 a7 a2 da bc 10 b6 df bd 28 fb 27 be f0 64 24 be
       -0.026688887 -0.109233975 -0.16404402 -0.1605413
0000f0 a0 4e 1f 3d a7 71 2e be d3 c3 b8 bd a7 54 e6 bc
       0.038893342 -0.17035542 -0.090217255 -0.028116537
000100 40 b2 16 3d 63 99 8b bd 67 de 3f ba 33 dd 65 bc
       0.036791086 -0.068163656 -0.00073192123 -0.014029789
000110 2a e5 1e 3e 43 da a5 bd 93 24 c1 3d 80 fb 7d 3d
       0.15517107 -0.08098271 0.09430804 0.062007427
000120 07 9e 6f bd 2a 2e b1 3d b3 d4 a5 bd cd 2c 56 3a
       -0.058500316 0.08651383 -0.0809721 0.0008170128
000130 dd 8d 0c be 17 68 f2 3d 40 bb 31 bd 6a d5 3e be
       -0.13725992 0.1183626 -0.043391466 -0.18636099
000140 22 0b 22 3e e3 d8 f8 bd 4d d4 1d 3d 9a 8a 8d 3d
       0.1582456 -0.12150743 0.038532544 0.06911202
000150 e7 7c 58 bd 13 95 71 bd da 96 ec 3c aa 55 34 be
       -0.05285349 -0.05898006 0.028880525 -0.17610803
000160 b3 60 cc bc 67 94 b5 3d 67 66 62 3c bd 18 f8 3d
       -0.024948454 0.08866196 0.01381836 0.121140935
000170 e7 5a 25 3e a3 83 4a 3e 20 ab 40 3d a3 4f 02 be
       0.16147958 0.19776778 0.047038198 -0.12725691
000180 27 93 ad bd 00 c8 31 bb b3 c1 27 3e 4f c4 25 3e
       -0.08475333 -0.0027127266 0.16382484 0.16188167
000190 9a 86 6d bd 0d 2f 42 bd 8a c5 cd 3d 30 84 99 3d
       -0.057989694 -0.047408152 0.10047443 0.07495916
0001a0 35 b2 34 be dd 83 93 bd 47 4a 94 bd 4a 84 13 3e
       -0.17646106 -0.07202885 -0.0724073 0.14405933
0001b0 80 d3 88 bd ca 0e a9 bd f3 df e6 3c 8a 7b 0d be
       -0.066809654 -0.08254774 0.02818296 -0.13816658
0001c0 a3 fe 43 be 50 af d4 3d 20 c1 b3 3d 6f 67 32 be
       -0.19140105 0.10385001 0.0877707 -0.1742227
0001d0 f3 10 a4 3c 00 ae 97 bb af 6e 1a 3e 4d de 8b bc
       0.020027613 -0.0046288967 0.15081285 -0.017073775
0001e0 ad b7 29 3e 35 96 10 be 27 9d e8 bc a2 30 11 be
       0.16573973 -0.141198 -0.028395249 -0.14178708
0001f0 47 e0 39 be 50 e9 14 be 90 28 c4 bd fa 50 07 bd
       -0.18151961 -0.14542127 -0.09578049 -0.03303621
000200 63 97 09 3e b7 dd be bd 1d 65 9b 3d ba 03 61 3d
       0.13436656 -0.093196325 0.07587645 0.054935195
000210 1a 6d c4 3d 08 a5 0c be 3d 7b fc bd ad df 80 bd
       0.09591122 -0.1373483 -0.12328193 -0.06292663
000220 3a 17 21 3d b3 e5 4a bd e0 b8 9a 3d 77 3c 9a 3d
       0.03932879 -0.049535464 0.07554793 0.07531064
000230 27 32 c0 3d 00 11 55 bc 38 47 0f be a3 bc 13 be
       0.09384566 -0.013004541 -0.13992012 -0.14427428
000240 87 de d5 3d 1a 37 e5 3d f5 cb 38 be a2 c6 08 be
       0.10442834 0.111921504 -0.18046553 -0.13357022
000250 cf 5f 03 3e 2d ef a5 bd ad ca bb 3d ba 8c 1c bd
       0.12829517 -0.0810226 0.09169517 -0.038220145
000260 bf c9 3d 3e 1d 22 19 3e 67 0b c2 bc cd b4 79 bd
       0.18533991 0.1495442 -0.023687078 -0.06096344
000270 90 52 da 3d c0 2d ef 3c 95 9b 4c 3e 33 2d ea bd
       0.10660279 0.02919662 0.19981225 -0.11434402
000280 60 58 68 3d 30 9d 91 3d 6a b1 2c be b0 de e1 3d
       0.056724906 0.07110059 -0.16864553 0.110288024
000290 f5 af 2c be 57 35 dc bd f3 cc ef bc 5a 60 88 3d
       -0.16863997 -0.10752361 -0.029272532 0.066590026
0002a0 07 c9 23 3d 58 8e 09 3e b2 b6 47 be b3 99 cf 3c
       0.039986636 0.13433206 -0.19503286 0.025341844
0002b0 77 fc 8f 3d bf 82 40 3e 67 20 44 bc 92 3e 18 be
       0.07030576 0.18799876 -0.011970616 -0.14867619
0002c0 08 73 46 be 80 42 d9 3d d0 c4 1c 3e 4d e6 44 be
       -0.19379818 0.10608387 0.15309453 -0.19228478
0002d0 f7 d2 f2 3d e7 70 c4 bd 65 db 35 be 73 f0 07 3d
       0.118566446 -0.09591847 -0.17759474 0.033188295
0002e0 da 95 31 3e cd b4 51 3a 10 26 ea 3d c0 34 29 3e
       0.1734232 0.00079996587 0.11433041 0.16524029
0002f0 00 c2 05 bb 5a 6a 74 3d b0 4a 91 bd 95 e2 40 be
       -0.0020409822 0.059671737 -0.07094324 -0.18836434
000300 77 58 86 bd 33 29 23 bd 80 65 b7 3c 60 c9 28 3e
       -0.06559842 -0.039834213 0.022387266 0.16483068
000310 4d 25 44 3d 8f 68 4b 3e f7 a2 27 be 1b 8f 15 3e
       0.047887135 0.19864105 -0.1637076 0.14605372
000320 a3 4c 80 3d 0a 86 38 be fa 5c 56 bd 87 09 ac bd
       0.06264617 -0.18019882 -0.052334763 -0.08400255
000330 10 ad 8e 3d d3 fe 88 3d c0 fb 07 3e 1d 55 a8 bd
       0.06966603 0.06689229 0.13279629 -0.08219359
000340 d3 95 4d bd c0 7c a8 3d 7a 5b 76 3d ab 58 2a be
       -0.05019171 0.08226919 0.060145833 -0.16635387
000350 93 5b af 3d 5d 86 c1 3d 9a bf fb bd 2a a9 ca bd
       0.08562388 0.09449456 -0.122924045 -0.09895547
000360 73 c1 ff 3d 1a 15 9f bc e2 d3 08 3e 50 dd 2c be
       0.124880694 -0.019419242 0.13362077 -0.16881299
000370 af 4c 41 be 6d 0e 4a 3d cf 22 38 be 4d 3a 90 3c
       -0.18876909 0.049330164 -0.17982028 0.017605925
000380 d3 2d 48 be 83 19 a5 bd 5a ba 69 3d 93 54 01 3e
       -0.1954873 -0.080615066 0.057062484 0.12629919
000390 5a 86 94 bc c7 04 4d bd 47 d8 f1 3d 6a 38 2e be
       -0.01813047 -0.050053384 0.1180883 -0.17013708
0003a0 43 e0 8a bd 87 bf 25 be b0 9e 38 be 10 88 ad bd
       -0.06781056 -0.16186343 -0.18029284 -0.084732175
0003b0 b3 d7 0c be 53 ec 77 3d 32 32 49 be d3 ef 44 bd
       -0.13754158 0.06052811 -0.19648054 -0.048080277
0003c0 5d ad 22 be 18 f8 09 be da 9b 5d bd 47 28 a6 bd
       -0.15886445 -0.13473547 -0.05410371 -0.08113151
0003d0 27 0c 03 3e bb 37 0d 3e 6d 35 0a be ca 12 c8 3d
       0.12797605 0.1379079 -0.13496943 0.09769209
0003e0 7a 7f c2 bd e7 94 3f be fb f6 35 be 27 f3 1c 3e
       -0.094969705 -0.18709145 -0.17769997 0.1532713
0003f0 00 72 00 3c 33 67 8e bc f8 99 3e be 5d a5 dc 3d
       0.00783968 -0.017383194 -0.18613422 0.10773728

layers.0.bias f4 [256]
000000 d7 47 8a bd 25 e1 18 be 6d 84 d0 3d 3a 08 14 bd
       -0.067519836 -0.14929636 0.10181508 -0.036140658
000010 c0 e3 bb bd 92 af 36 3e 5a 96 97 3c 50 be 81 bd
       -0.09174299 0.17840412 0.01850431 -0.06335127
000020 b5 73 26 3e 3a 7d 80 bd f7 4a a0 3d 4f e2 3c 3e
       0.16255076 -0.06273885 0.078267984 0.18445705
000030 60 48 c8 bd b8 f3 3d 3e e7 84 78 bc 83 5f 12 be
       -0.097794294 0.18550003 -0.015168405 -0.14294247
000040 23 e2 b6 bd 70 be 33 3e 93 26 fe bd d8 46 47 be
       -0.08929851 0.17553115 -0.12409701 -0.19460618
000050 47 bb c5 bd f3 5b e4 bd 4d 45 53 3c 0d 84 b4 3c
       -0.09654861 -0.111503504 0.012894941 0.022035623
000060 03 a4 0a be 33 4f 98 ba 20 f7 7e 3d 7a a8 22 bd
       -0.13539128 -0.0011620283 0.062247396 -0.039711453
000070 b3 60 00 3d 8d 47 cf bc 67 ad a9 bb 00 c9 97 3d
       0.03134222 -0.025302673 -0.005178142 0.074113846
000080 bf 02 2c be 3d e4 99 3d 5d d8 4a 3e 20 99 02 be
       -0.16797923 0.07514236 0.19809099 -0.12753725
000090 5a 70 a2 3c 67 ec b6 bb b0 e8 38 3e e7 11 b6 3c
       0.019828964 -0.0055823806 0.18057513 0.022225333
0000a0 63 52 f2 bd 5a 45 64 bd fa 78 bb 3d 3d e2 2a 3e
       -0.1183212 -0.0557302 0.09153934 0.16687866
0000b0 fa 36 74 bd 80 b5 b2 bc e0 49 6e bd 07 e6 f9 bd
       -0.059622742 -0.021815062 -0.05817592 -0.12202077
0000c0 1a 1f 14 3e 5a de 8f bc ad 49 fb bd f3 67 36 3e
       0.1446499 -0.01756208 -0.12269912 0.17813091
0000d0 67 0a 9d ba 43 ce bc bd 13 65 18 be dd 77 35 be
       -0.001198125 -0.09219029 -0.14882307 -0.17721505
0000e0 a2 5a 3c 3e 6d 44 b9 bd 8d 50 08 3e e8 31 0d be
       0.18393949 -0.09046254 0.13311978 -0.13788569
0000f0 17 90 0e 3e 1a ef fe bd 38 cf 35 3e a7 37 89 bd
       0.13922153 -0.12447949 0.17754829 -0.06700068
000100 2d 0e ab 3d cd 07 5f 3d da 48 14 3e e7 66 f5 bc
       0.08352313 0.0544508 0.14480916 -0.029956294
000110 8d 4d 02 be d3 46 30 3e 25 1c 05 be 40 16 f5 bd
       -0.12724896 0.17214517 -0.12999018 -0.119671345
000120 da dd ff bd 37 76 cc bd 3a c2 4a bd 27 5c da bd
       -0.12493487 -0.09983485 -0.049501635 -0.10662108
000130 0f d7 1d be cd 9a 09 3d 7f 9c 1f 3e ca 13 42 be
       -0.1541407 0.033594895 0.15587042 -0.18952861
000140 33 01 b7 3d 7b 24 49 be 2a b8 06 3e a3 10 ac bd
       0.089357756 -0.19642822 0.1315619 -0.08401611
000150 13 7e 00 be 40 e3 bc 3d d7 e8 af bd 77 6b 3f be
       -0.12548093 0.09223032 -0.085893326 -0.18693338
000160 05 e6 37 be bf 5a 31 be bf e0 29 be 10 4c be 3d
       -0.17958839 -0.17319773 -0.1658964 0.092918515
000170 00 09 13 bc 23 a0 d9 bd 0d f1 11 be 67 a3 e2 3b
       -0.008974314 -0.10626247 -0.1425211 0.0069164517
000180 93 e7 78 3d 0f b8 02 be f0 64 f8 3d ad 1f 00 3d
       0.06076772 -0.12765525 0.12128627 0.03128021
000190 7a d6 fd 3d 6a 8a 10 3e fa e0 43 bd 17 12 8c 3d
       0.12394424 0.14115301 -0.047821976 0.06839388
0001a0 67 77 0c be 43 55 a5 3d 73 eb 53 3d c7 4e 8f 3d
       -0.13717423 0.08072903 0.051738214 0.069974475
0001b0 b3 24 25 be aa 1a 2b be f3 c8 d7 3c 7b 98 48 3e
       -0.16127281 -0.1670939 0.026340937 0.19589417
0001c0 bf 5a 49 be 47 8b 27 be 12 dc 06 be dd 7d 42 3e
       -0.19663523 -0.16361724 -0.13169888 0.18993326
0001d0 30 b6 40 3e 33 c7 87 bd 63 4a d1 bd 2d e5 c8 3d
       0.18819499 -0.06629791 -0.10219266 0.09809337
0001e0 37 81 a3 3d 6a 50 04 3e 8b f8 38 3e c3 b8 19 3e
       0.0798363 0.129213 0.18063562 0.15011887
0001f0 63 b4 06 be fa 18 01 3e e7 ce d3 bd e7 a6 05 3e
       -0.1315475 0.12607184 -0.10342198 0.1305195
000200 63 e6 1d 3e ab 2b 1d 3e 20 03 c9 3d cd e2 1a be
       0.15419917 0.1534869 0.09815049 -0.1512558
000210 33 a4 c7 bb a7 c2 c2 bc 20 cf 0d 3e cb 03 1d be
       -0.006092572 -0.023774458 0.13848543 -0.15333478
000220 6d 10 1f 3e 4d 68 0b bc 13 4e 10 be 0d af 0c be
       0.1553361 -0.008508754 -0.14092283 -0.13738652
000230 33 12 01 3c 63 0c 84 bd 60 55 c9 bd 57 f2 d1 3d
       0.007877874 -0.06447675 -0.09830737 0.10251301
000240 7a 12 55 3d 77 b4 ed 3d 27 c1 ec bd db c7 34 be
       0.052019574 0.116066866 -0.115602784 -0.17654364
000250 c0 2d bd 3c 8d c4 4f 3d 7d 8b 49 be 2a 0d 81 3d
       0.023093104 0.050724555 -0.19682117 0.06301339
000260 b0 b4 05 3e da 6b d6 bc 63 23 c6 bd 3a 34 0a 3e
       0.13057208 -0.026174475 -0.09674718 0.13496485
000270 45 08 2f be 40 84 bc 3d 87 84 49 3e ca 8c 80 bd
       -0.17092998 0.09204912 0.19679461 -0.062768534
000280 93 00 12 be 20 21 f0 3d df 39 19 3e 9a 49 8d bc
       -0.14258032 0.11725068 0.14963482 -0.01724701
000290 d0 7b 1a be da 37 45 3e a8 9a 35 be 60 a4 41 3d
       -0.15086293 0.19259587 -0.17734778 0.0472759
0002a0 cd ec 2f 3a 9a 7c b5 bb f3 a8 ad bc 47 e6 01 be
       0.0006711006 -0.0055385353 -0.021198725 -0.126855
0002b0 f3 3e 5d bd 73 16 d2 bd 22 c3 45 be 8a 37 02 be
       -0.05401511 -0.10258188 -0.19312719 -0.12716499
0002c0 18 53 10 3e 85 f1 3a be 9d b4 b4 bd c5 a2 38 be
       0.14094198 -0.18256195 -0.08823512 -0.18030842
0002d0 c0 ef b9 bc 1a 82 58 bc 70 77 a5 bd 95 2e 23 be
       -0.02269733 -0.013214612 -0.080794215 -0.15935738
0002e0 7a f5 ea 3d 97 af 3c be 80 f7 f0 bd 1a 57 3f bd
       0.11472602 -0.18426357 -0.11765957 -0.046713926
0002f0 90 5e 85 bd 3a e0 68 3d 1a 0a 91 bc b7 ac 81 3d
       -0.06512177 0.056854464 -0.017705012 0.06331771
000300 da 43 b8 3c cd e7 b9 bc 5d 9b 08 3e d3 e8 d4 3d
       0.022493292 -0.022693539 0.13340516 0.1039597
000310 d3 02 04 3e ad 52 d9 3d 02 0b 38 3e 3a 52 43 3e
       0.12891702 0.10611472 0.17972949 0.19074336
000320 cf 66 09 be 20 92 55 bd 9a de 39 bc 47 83 f8 3d
       -0.13418125 -0.05214131 -0.011344576 0.12134414
000330 8a 80 a5 3d 67 11 33 3e 9a 2d ea 3b 0f 1a 32 be
       0.080811575 0.17487107 0.0071465494 -0.17392753
000340 9a c1 f9 bb 67 5e a6 bd 40 88 bf bd 23 dd ed bd
       -0.007621956 -0.081234746 -0.093521595 -0.11614444
000350 e7 a1 d3 bc ad eb 01 3e eb c2 43 3e d8 c1 03 be
       -0.025834037 0.1268756 0.19117324 -0.12866914
000360 e0 d8 4b 3e ff 30 04 be 30 85 4c be 67 62 60 3b
       0.1990695 -0.12909316 -0.19972682 0.003423834
000370 6d bc 31 3e e7 50 40 bc 80 15 60 bd 6a 16 ae bd
       0.17357035 -0.011738039 -0.054708004 -0.08500369
000380 cd c0 2c bd 33 3b 97 3b 7d ee d2 bd 8a 63 44 be
       -0.042176057 0.0046152114 -0.10299394 -0.19178596
000390 e3 8a 1e 3e dd 25 c9 3d 75 aa 22 3e e3 12 8b 3d
       0.15482669 0.09821675 0.15885337 0.06790712
0003a0 00 7e fc bc f3 0f d1 3d da 0b 54 bd 2d e0 7c bd
       -0.0308218 0.1020812 -0.051769115 -0.06173723
0003b0 b8 f4 08 3e 67 c1 06 be a3 11 2b 3e 67 16 f9 3d
       0.13374603 -0.13159715 0.16705947 0.12162476
0003c0 bd eb b1 bd 00 b4 61 bb da 20 83 3c da 03 32 3e
       -0.08687542 -0.0034439564 0.016006876 0.17384282
0003d0 20 11 cf bd 20 10 9a 3d 30 20 d2 bd eb 6d 14 3e
       -0.10110688 0.07522607 -0.102600455 0.14495055
0003e0 3d e5 c7 3d bd 69 d8 bd 30 86 8f bd 6d 98 1c bd
       0.097605206 -0.10567043 -0.07008016 -0.038231302
0003f0 9a 6b e3 3c d3 65 2e bd 87 62 35 bd fa 0a 1b be
       0.02776127 -0.042577576 -0.044283416 -0.15140906

layers.1.weight f4 [256, 256]
000000 a8 fa 5e bd 50 64 c4 bb 78 e4 fe 3c 28 ff a9 3c
       -0.054438263 -0.0059934035 0.031114802 0.02075155
000010 dc 3b e0 bc e8 e5 08 3d 58 9b 40 bd 9a b0 66 3d
       -0.027372293 0.03342238 -0.047023147 0.056320764
000020 b0 96 b8 bc b0 4c 16 3d 34 9d de bc 68 0d 62 3d
       -0.02253279 0.03669423 -0.02717457 0.055188566
000030 c6 9e 4c bd fa 5c 44 bd a0 fd 5d 3d f4 ed 69 3d
       -0.049956106 -0.04794023 0.054196954 0.057111695
000040 d8 d1 ba 3c 40 96 61 3d 54 92 a6 3c 00 2e 73 bb
       0.02280514 0.05507493 0.020333447 -0.0037106276
000050 2e ca 0a 3d b4 c7 7c bd b2 c2 35 3d 54 d6 73 3d
       0.03388422 -0.06171389 0.04437513 0.05953057
000060 14 7a 54 3d 32 0f 5a 3d d4 bb f9 3c 10 56 0e 3d
       0.051874235 0.053237148 0.030485071 0.034750044
000070 78 39 48 bd b2 5b 6a 3d 8c 21 b2 bc 44 72 66 3d
       -0.04888293 0.057216354 -0.021744512 0.056261316
000080 d2 ed 2d 3d 80 6f 89 3b 64 26 d0 3c 20 80 0a 3c
       0.04246313 0.0041942 0.025408931 0.008453399
000090 9c 1a 71 3d 98 08 8d 3c a8 09 35 3d 60 54 42 bb
       0.058863267 0.017216012 0.044198662 -0.0029652342
0000a0 a0 87 53 bd f6 19 0d bd 00 f1 80 39 6c d0 4c 3d
       -0.051643014 -0.034448586 0.00024593621 0.050003454
0000b0 e4 a3 10 bd e4 e6 03 3d 40 35 90 3c c8 98 bc 3c
       -0.03531255 0.032202616 0.017603517 0.02302207
0000c0 00 ef 39 3a 26 a4 1b bd 8c a0 5c bd 80 19 80 ba
       0.0007092804 -0.03799834 -0.053864047 -0.0009773225
0000d0 32 d9 45 bd 16 ef 32 bd fa 20 4a bd 98 a7 36 bc
       -0.048302837 -0.04368504 -0.049347855 -0.011148356
0000e0 40 23 a2 3b f8 c7 59 bc 00 bc 17 3a 50 bb a5 bc
       0.00494805 -0.013292305 0.0005788207 -0.02023092
0000f0 d0 4b da bc a8 94 56 3c ac d2 7b 3d 18 14 2f bc
       -0.026647478 0.013096966 0.06148021 -0.010685943
000100 40 e7 41 bd ae 71 29 bd 40 5a 71 bb de 45 77 bd
       -0.047339678 -0.04136818 -0.0036827475 -0.060369365
000110 32 01 09 bd a6 72 3e bd 50 39 96 3b 5c c5 ac 3c
       -0.033448406 -0.046496056 0.004584469 0.021090202
000120 a6 05 07 3d 28 a9 98 bc 10 a0 0f 3c c8 07 81 3c
       0.03296437 -0.018635347 0.008766189 0.01575078
000130 90 86 78 3d 90 a5 35 3d 1a f6 07 bd 44 26 49 bd
       0.060675204 0.044347346 -0.033193685 -0.04910876
000140 44 c2 fd 3c 8e 91 6e 3d 42 8f 1e bd 18 de 4a bc
       0.030976422 0.05824428 -0.03871084 -0.012382053
000150 90 8b 9b bc 98 d5 30 bc f4 bc 9f 3c d8 77 41 bd
       -0.018987447 -0.010793112 0.01949928 -0.047233433
000160 fc a9 d0 3c 3e 77 20 bd 96 ce 67 3d 46 07 4f 3d
       0.02547168 -0.03917622 0.0565935 0.050544046
000170 78 a6 72 bd c8 e7 7f bc ee ec 70 3d d0 9c 61 3c
       -0.05924079 -0.015619226 0.058819704 0.013770297
000180 6c b4 8c 3c 7a 99 55 bd 10 bb cb bc aa c0 57 3d
       0.017175876 -0.05214832 -0.024869472 0.052673973
000190 be df 3a bd d6 15 5c 3d 66 05 48 bd 50 a9 c1 3b
       -0.045623533 0.053731762 -0.048833273 0.005910076
0001a0 06 c2 21 bd 58 ec 49 bd 24 73 63 bd a2 08 68 bd
       -0.039491676 -0.04929766 -0.05552973 -0.056648858
0001b0 e6 db 46 3d bc be 28 bd 68 65 1a bd 68 c8 77 3d
       0.048549555 -0.041197523 -0.037694365 0.060493857
0001c0 e0 a9 a7 3b 44 02 ec bc 10 9f 68 3c dc 09 74 3d
       0.005116686 -0.028809674 0.01419808 0.059579715
0001d0 00 64 d2 bc 74 d4 db 3c 4e ac 08 3d 94 96 22 bd
       -0.02568245 0.026834704 0.033367448 -0.039694384
0001e0 34 bf 24 bd 20 97 26 3d 54 7a df 3c 30 04 a9 bc
       -0.040221408 0.040671468 0.02728001 -0.02063188
0001f0 94 77 9c 3c d8 99 15 bd 50 c5 53 bd 20 15 2f 3b
       0.019099988 -0.03652367 -0.051701844 0.0026715472
000200 84 74 77 3d c8 29 cb 3c 10 b9 2a 3d 50 ba 42 bd
       0.060413852 0.024800196 0.041680396 -0.047540963
000210 f8 fc 19 bd b8 37 2f bd 34 5a fb bc 00 2b d6 ba
       -0.037594765 -0.042777747 -0.03068266 -0.0016339719
000220 50 c1 c9 3c ec 63 39 bd be d1 50 bd 00 8d 32 bb
       0.024628311 -0.04526131 -0.050981276 -0.0027244687
000230 c6 31 17 bd 7e 64 5d bd ee 93 3f bd c8 0f 31 bd
       -0.036912702 -0.054050915 -0.046771936 -0.04322794
000240 d4 0f 1d bd f8 42 e6 3c 38 f0 2c 3c a4 09 3d bd
       -0.038345173 0.028108105 0.0105553195 -0.046151772
000250 6c 45 d8 bc 60 29 6a bb 18 c8 08 3c f8 bd f1 3c
       -0.02640029 -0.0035730228 0.008348487 0.02950953
000260 ce 4b 65 3d 94 32 72 3d 10 a3 3e bc d4 d2 a3 3c
       0.055980496 0.059130266 -0.011635557 0.019997992
000270 30 19 69 bc 20 bb cd bc 2a 5c 33 3d 26 25 63 3d
       -0.014227197 -0.025113642 0.043789066 0.05545535
000280 d0 6d a7 bb cc 4f b3 3c b0 03 4d bc 44 5d f4 3c
       -0.005109526 0.021888636 -0.012513086 0.029829629
000290 80 79 68 3d e4 67 f7 bc 1e aa 3a 3d f8 e3 0d 3d
       0.056756496 -0.030200906 0.045572393 0.034641236
0002a0 d8 1c 2f bc 38 a3 1b 3c fc 27 ea 3c 1c b5 92 bc
       -0.010688029 0.009499364 0.02858352 -0.017908625
0002b0 1c 10 81 bc 4e c5 2e 3d be 4d 3f bd 50 89 0f 3d
       -0.015754752 0.042668633 -0.046705 0.03504306
0002c0 b8 e7 58 3d 94 70 d2 3c 70 55 22 3c b0 c9 1c bd
       0.05295536 0.025688447 0.009908065 -0.03827828
0002d0 00 e5 c2 ba 00 00 fd b5 04 06 b9 bc be ce 42 bd
       -0.0014869273 -1.8849969e-06 -0.022585876 -0.047560446
0002e0 f0 ab dd bc 0c 64 73 bd 94 20 6f 3d 50 b6 3b bc
       -0.027059525 -0.059421584 0.05838068 -0.011457041
0002f0 10 04 88 3b 92 94 6c bd b8 7f d8 bc d8 43 65 3c
       0.004150875 -0.057758875 -0.026428089 0.013993226
000300 b4 9f 59 3d 18 3f 4d 3c 14 e3 fd bc c4 f9 b2 3c
       0.05313082 0.01252725 -0.030992068 0.021847613
000310 38 0e ef 3c f0 b7 05 bd dc 44 c0 bc e6 ac 56 bd
       0.029181585 -0.03264612 -0.023470335 -0.052410983
000320 44 71 11 bd 10 51 77 bc 5a 3f 2a bd 60 7c c2 bc
       -0.03550841 -0.01509501 -0.041564323 -0.023740947
000330 b2 f5 25 bd d8 21 70 bd e0 a4 0e bb d0 b9 02 3d
       -0.040517516 -0.058626026 -0.0021765754 0.031915486
000340 12 c1 74 bd ee 9d 7b bd e4 12 aa 3c a4 fa 56 bd
       -0.05975444 -0.06142991 0.02076096 -0.052485123
000350 d2 2c 17 bd 5c 2c e6 3c f8 07 28 bd 00 8c 26 bd
       -0.03690798 0.028097324 -0.041023225 -0.04066086
000360 80 b5 74 3a 30 64 ff 3c 6a a9 48 bd 68 51 75 bd
       0.0009334907 0.031175703 -0.04898969 -0.05989209
000370 70 13 f0 bc 20 e3 1c 3b 60 cb ae bb 5c ad b3 bc
       -0.029306144 0.0023939088 -0.005334303 -0.02193325
000380 04 ed 37 3d 80 9a 66 ba 38 1e 58 bd a0 fa 3f 3d
       0.04490377 -0.0008796826 -0.052763194 0.046869874
000390 f0 33 e5 bc 2e 0f 19 3d 30 cd d9 3b f4 c7 d0 3c
       -0.027978867 0.037367992 0.0066467747 0.02548597
0003a0 7a dd 35 bd 08 5f ee bc b4 02 40 bd c0 a7 ac ba
       -0.04440067 -0.029098049 -0.046877578 -0.0013172552
0003b0 88 85 37 bc c0 ba 15 3d b8 21 a2 3c 32 bf 01 bd
       -0.01120127 0.03655505 0.019791469 -0.03167648
0003c0 28 07 b7 bc ca cd 0a bd d0 9b 6a bd 42 4d 03 3d
       -0.02234228 -0.033887662 -0.0572775 0.0320561
0003d0 50 2a 53 3c 0a fa 5a 3d ea 77 14 bd 10 de af 3c
       0.012888506 0.053461112 -0.03624717 0.021468192
0003e0 c8 dc f3 3c 9e 7d 02 3d b8 6b f3 bc 62 35 35 bd
       0.029768363 0.03185808 -0.02971445 -0.044240363
0003f0 c8 e6 1d bd 2a ff 15 bd 70 23 8e bc 0c 74 8b bc
       -0.03855017 -0.036620297 -0.017350882 -0.017023109

layers.1.bias f4 [256]
000000 a0 d9 6e 3c 66 c7 1e 3d f0 c1 1b bd b8 d2 30 bd
       0.014578253 0.03876438 -0.03802675 -0.043169707
000010 26 79 02 bd de 98 66 3d 6e 2f 6e 3d b8 2b cf bc
       -0.031853817 0.05629813 0.0581507 -0.025289401
000020 32 a0 59 bd d4 db 6b 3d 0c 16 51 3d ae f3 11 bd
       -0.05313129 0.05758269 0.051046416 -0.03563278
000030 88 54 bf bc 00 d9 a2 bc 68 69 6e 3c 7e 7c 33 3d
       -0.023355737 -0.019878864 0.014551498 0.043819897
000040 d4 18 c8 3c 14 5d 38 3d 5a 86 77 3d c6 7e 61 3d
       0.024425901 0.04501064 0.060430862 0.05505254
000050 8c f4 50 bd 48 82 f1 bc 78 89 42 bd 04 b0 97 bc
       -0.051014468 -0.029481068 -0.04749438 -0.018516548
000060 5a 2a 30 bd 3a f5 61 bd da da 23 bd c0 97 f7 3a
       -0.04300914 -0.055165507 -0.040003635 0.001888983
000070 58 8d 20 3d c0 30 c2 bb 2c b1 9c 3c d4 4d d4 3c
       0.039197296 -0.0059262216 0.01912745 0.025916018
000080 74 77 10 3d 2e d9 10 bd c0 43 36 3d 5e cc 74 3d
       0.03527017 -0.03536337 0.044498205 0.059765212
000090 50 bd 48 bc 80 df b2 bb 40 ef 69 bc 80 49 a7 3c
       -0.012252167 -0.005458772 -0.014278233 0.02042079
0000a0 cc da 96 3c 70 7e a8 3b 84 b6 c6 bc c4 72 51 3d
       0.018414877 0.0051420256 -0.024256952 0.05113484
0000b0 e6 ed 4c bd 30 a3 51 bc a8 f0 c6 3c 20 7d d4 3b
       -0.050031565 -0.012795255 0.024284676 0.0064846426
0000c0 ac 83 62 3d 22 b1 39 bd 40 cf 9a 3a c8 ed 05 bd
       0.055301353 -0.045334943 0.0011811033 -0.03269747
0000d0 04 46 ed bc 94 43 18 bd a0 5b 0c bb 34 eb e0 3c
       -0.02896405 -0.037173823 -0.0021416917 0.027455904
0000e0 ac ac 04 3d c0 ee a0 3b a8 cf 3f bc 74 7c 70 3d
       0.032391235 0.0049112737 -0.011707224 0.058712438
0000f0 04 7c 01 bd 88 e4 ca 3c 92 b3 53 bd c0 2b 7d bb
       -0.03161241 0.024767175 -0.051684923 -0.0038630813
000100 6c 77 1a 3d 1e 6b 67 bd d0 33 00 bc cc a4 0d 3d
       0.037711546 -0.05649864 -0.007824853 0.03458099
000110 ec 80 e1 3c 80 ec a4 ba ba 12 74 3d b8 d6 a1 3c
       0.027527295 -0.001258269 0.05958817 0.019755706
000120 32 14 1e bd c0 49 f7 bb b0 e1 c4 3b 90 ae 94 bb
       -0.03859348 -0.0075466335 0.0060083494 -0.004537411
000130 c8 bc 50 bc 08 85 d0 bc 60 28 2a bd 68 d4 39 bc
       -0.012740321 -0.02545406 -0.04154241 -0.0113421455
000140 4e 1f 03 3d 8c 10 2c 3d c6 90 6d 3d e0 29 52 bb
       0.032012276 0.042007968 0.057999395 -0.0032068416
000150 2a 74 0d bd 72 f1 39 bd 70 8d d5 3c 04 20 01 3d
       -0.03453461 -0.045396276 0.02606842 0.031524673
000160 c2 45 08 bd d8 2e 02 bd 3c eb 14 3d 44 63 54 3d
       -0.03326965 -0.031782955 0.03635715 0.05185248
000170 d4 cc 72 3d 6e 62 11 bd 96 17 7a bd 00 23 3f 3a
       0.05927737 -0.03549426 -0.06105765 0.0007291287
000180 b8 be 25 3c 04 98 06 bd 8c 8e 50 3d f4 72 67 3d
       0.010116272 -0.032859817 0.050917193 0.056506112
000190 62 d2 3f 3d dc df 95 3c e0 9c 02 bc 1e e2 05 3d
       0.046831496 0.018295221 -0.007971972 0.032686345
0001a0 34 69 9a 3c e4 c3 e9 bc 4c f1 db 3c 94 62 95 bc
       0.018848993 -0.02853579 0.026848458 -0.018235482
0001b0 00 97 24 bb c0 41 f3 3b 8c 3b f6 3c 18 a8 a7 3c
       -0.0025114417 0.0074236095 0.030057691 0.020465896
0001c0 e4 4c a2 3c 66 df 5a 3d 10 6d 39 bd 40 53 66 bd
       0.019812055 0.053435706 -0.045270026 -0.056231737
0001d0 88 7a db 3c 10 4e dc 3b 00 0b 49 ba 00 18 87 bc
       0.026791826 0.006723173 -0.00076691806 -0.016490936
0001e0 18 51 51 bd 58 87 cd bc 00 3e 0f 39 60 e2 bb bc
       -0.051102728 -0.025088951 0.0001366064 -0.022935092
0001f0 70 0d 1f bc 54 b7 1a 3d c0 1b 35 bb 0a 9b 49 3d
       -0.009707794 0.03777249 -0.0027634948 0.049220122
000200 28 e8 56 3d 10 4f ed bc 72 8d 64 3d 5e ee 09 3d
       0.052467495 -0.028968364 0.055798955 0.03367459
000210 68 9d f5 3c 98 99 3e bd cc a0 16 3d 8e f9 7f 3d
       0.029982284 -0.046533197 0.03677444 0.062493853
000220 a0 5a 7c bb 6c 2c bf bc 38 72 6d 3d 0c c8 fb 3c
       -0.0038506165 -0.023336612 0.057970256 0.030735038
000230 fe 8e 1b bd 94 42 9f 3c 60 30 96 3c a6 75 52 bd
       -0.037978165 0.019440927 0.018333614 -0.05138173
000240 e8 6b 81 bc b0 c9 1b bd 06 93 58 3d 34 fd 53 bd
       -0.015798524 -0.03803414 0.052874587 -0.051755145
000250 64 2e ec 3c 86 bb 4a 3d 70 f3 d7 3b 66 80 40 bd
       0.028830715 0.049495243 0.0065902993 -0.04699745
000260 82 69 7c 3d d8 6f 4c bd e8 1e 7f bd 44 46 a2 3c
       0.061624058 -0.04991135 -0.062285334 0.019808896
000270 ac 66 47 3d 44 0e 50 3d 7c ac aa bc 90 12 f6 3c
       0.0486819 0.050794855 -0.0208342 0.030038148
000280 d8 0f 6d 3c ca 38 51 bd c6 7c 6c 3d c4 c9 74 3d
       0.0144691095 -0.05107955 0.05773618 0.05976273
000290 60 84 69 bc 60 49 08 bb 26 bb 34 bd 50 eb 39 3d
       -0.014252752 -0.0020795688 -0.04412379 0.045390427
0002a0 b6 b7 74 3d 82 f8 2e bd 80 12 30 bc dc 16 44 bd
       0.059745513 -0.042717464 -0.010746598 -0.047873363
0002b0 14 95 1d 3d ca 1c 68 bd 40 e4 fb 3c 4c 96 70 3d
       0.03847225 -0.05666808 0.030748487 0.058737084
0002c0 fa 07 27 3d 10 d0 c2 3c 3c 61 1f 3d 12 43 49 bd
       0.04077909 0.023780853 0.03891109 -0.04913623
0002d0 50 6e ad bc c8 4d a6 3c c2 6b 61 bd ba 33 16 3d
       -0.021170765 0.02030076 -0.055034406 0.036670424
0002e0 c0 2c e8 3b 76 51 45 3d 14 33 6f bd 6a 08 71 3d
       0.0070854127 0.04817339 -0.05839832 0.058845915
0002f0 60 df a5 bc 60 32 7e bd 40 e3 dd bc 48 20 14 3c
       -0.020248115 -0.06205976 -0.0270859 0.0090409
000300 66 49 3d 3d c0 0b 98 3c e8 82 6d bd 80 6b 4f bb
       0.046212576 0.01856029 -0.05798617 -0.0031649768
000310 ac 32 38 bd e0 19 01 bb 28 9d 18 bd 20 7f 2a bc
       -0.0449702 -0.001969926 -0.03725925 -0.0104062855
000320 00 02 11 3b 1c cf 27 bd d8 d1 27 bc aa f5 38 3d
       0.0022126436 -0.040969 -0.010242902 0.04515616
000330 e8 c9 0f 3c 18 73 71 3c c0 34 4b bc c8 34 08 bd
       0.008776166 0.014736913 -0.012402713 -0.03325346
000340 56 ba 39 3d 50 5f 5e 3c fc 06 42 3d 80 21 70 bc
       0.04534372 0.013572529 0.047369942 -0.0146564245
000350 86 07 5b bd 20 74 69 3b 30 82 ad 3b 7e 28 7f 3d
       -0.05347397 0.0035622194 0.0052950606 0.062294476
000360 fe ae 29 bd 56 8b 27 3d 74 e9 95 3c 38 08 57 bd
       -0.04142665 0.040904365 0.018299796 -0.052498072
000370 30 be a8 3b 44 4e 98 bc c4 90 c9 bc 2c f7 00 bd
       0.0051496252 -0.018592007 -0.024605162 -0.03148572
000380 e6 4b 02 bd 8e e7 7f bd 28 3f 1a 3d d8 74 03 3c
       -0.031810664 -0.062476687 0.037657887 0.008023463
000390 88 4a ba bc de 62 10 bd 76 77 2a bd 26 35 70 3d
       -0.022740617 -0.035250537 -0.041617833 0.058644436
0003a0 08 9a 66 3d e0 2a 9c 3b a8 d7 b4 bc aa 9a 61 bd
       0.05629924 0.0047658533 -0.02207549 -0.05507914
0003b0 c6 0a 5e bd e8 21 5b bd a2 e7 00 bd 30 65 a0 bb
       -0.054209493 -0.053499132 -0.031470902 -0.004894875
0003c0 d4 90 30 3d aa 64 4d 3d 30 96 29 bd 0c 2d c5 3c
       0.04310687 0.05014483 -0.041402996 0.024069332
0003d0 32 32 3a bd 50 d1 a1 3c f0 67 eb bb e0 e7 a9 3c
       -0.045458026 0.019753128 -0.007184021 0.02074045
0003e0 5c 7c e7 bc 9c 2c 0b bd b8 02 9c bc b8 61 26 bd
       -0.028257541 -0.03397809 -0.019044265 -0.040620536
0003f0 30 4c 88 bc 5c cd 86 3c 28 da 4d bd 90 83 b2 bc
       -0.016637892 0.016455345 -0.05025688 -0.02179125

predict.weight f4 [5, 256]
000000 a0 a1 13 3b e4 85 3b bd 00 b5 78 bd dc 55 a1 bc
       0.0022526756 -0.045781985 -0.06071949 -0.019694261
000010 68 22 a7 bc 9e 96 61 bd 08 d8 2d bc f0 c3 7b 3c
       -0.020402148 -0.05507528 -0.010610588 0.015366539
000020 20 21 a1 bc f8 5c 3f 3d 38 62 dc 3c 08 7d 2a bc
       -0.019669116 0.04671952 0.026902303 -0.010405786
000030 f4 88 68 3d 84 c1 55 3d fc bb 66 bd 28 c0 c9 bc
       0.056771234 0.052186504 -0.05633162 -0.02462776
000040 40 61 b9 bc 98 5e 10 3d 50 e2 ab 3b f0 a6 81 bb
       -0.02262938 0.03524646 0.0052454844 -0.003956668
000050 30 51 56 3d 40 f0 12 bd 44 9b 6a bd 80 fa a6 bc
       0.05232352 -0.03587365 -0.05727698 -0.02038312
000060 8e 20 23 3d 60 ec 24 3b 9a b6 1f 3d 10 5c d1 3c
       0.03982597 0.0025165305 0.0389925 0.025556594
000070 54 60 34 bd 24 da 7a bd 78 11 d1 bc c4 aa c8 bc
       -0.04403718 -0.06124319 -0.025521025 -0.02449549
000080 00 65 d4 3c 48 4b a2 3c b0 63 51 bd 40 88 d9 bb
       0.025927067 0.019811288 -0.05112046 -0.0066385567
000090 82 d7 72 3d d6 d2 6c bd 10 fb fc 3b 34 76 df bc
       0.059287556 -0.057818256 0.0077203587 -0.027278043
0000a0 32 e9 0a 3d 90 1b ba bc 5c 0e 51 3d 00 28 4c 38
       0.0339138 -0.022718221 0.051039085 4.8674643e-05
0000b0 e0 97 3a 3d a8 17 c4 bc e0 6c 16 3c ce 3f 0a bd
       0.045554996 -0.023937061 0.009181231 -0.033752255
0000c0 94 a5 bd 3c a6 62 27 bd f4 04 1a 3d 0c a4 29 3d
       0.023150243 -0.040865563 0.03760238 0.041416213
0000d0 9c 6b e4 3c a6 9f 6c 3d 40 c3 07 bc 10 db de bb
       0.027883343 0.05776944 -0.008286297 -0.0068010166
0000e0 c0 26 51 bc 40 69 08 3b 00 11 32 bb a0 8d 97 bb
       -0.012765586 0.0020814687 -0.0027170777 -0.0046250373
0000f0 20 b1 84 3c 52 c9 59 bd 2c 60 23 3d 0c 3e 09 bd
       0.016197741 -0.05317051 0.03988664 -0.033506438
000100 1c 70 f7 3c 10 20 8a 3c 12 c0 47 bd 3e 82 70 bd
       0.030204825 0.016860992 -0.048767157 -0.05871796
000110 10 96 da bc 90 7f d6 3c f8 03 3a 3c e8 2d 70 3d
       -0.026682884 0.026183873 0.011353485 0.05863753
000120 30 3f eb 3c 2c 02 96 bc 86 d8 30 3d 4a 7a 71 3d
       0.028716654 -0.018311583 0.043175243 0.058954515
000130 e0 eb 1a 3c 8c a1 92 bc 6c 65 01 3d 50 8b 5d 3d
       0.009455651 -0.017899297 0.031590864 0.054087937
000140 68 cb d0 3c ec 05 70 bd 0c b9 ce 3c 68 b6 33 bd
       0.025487617 -0.058599398 0.025234722 -0.043875128
000150 88 50 1d bd 74 db 17 bd 60 3b e0 3c a0 bb 1f bb
       -0.03840688 -0.03707452 0.027372062 -0.0024373308
000160 b2 76 43 bd 5a 24 40 bd 90 bf 75 3c f2 f2 57 3d
       -0.04772062 -0.046909668 0.014999285 0.052721925
000170 b0 72 39 bc 60 d7 53 3d 90 8d 5a 3d c8 f2 2c 3c
       -0.011318848 0.05171907 0.05335766 0.01055593
000180 d8 36 1e bc 30 d8 ba bc 98 6c e4 bc ae 6d 79 3d
       -0.00965663 -0.022808164 -0.027883813 0.060895614
000190 80 56 99 3b 88 ed fb bc 98 62 53 3d 6e 36 1e 3d
       0.004679501 -0.030752912 0.0516077 0.038626127
0001a0 f8 c2 c2 3c 70 ca 26 3d 04 4d ee 3c 8a fb 0d 3d
       0.023774609 0.040720403 0.029089458 0.034663714
0001b0 8e 68 52 3d 44 cb 10 3d 8c a4 09 3d 08 5b 0f bd
       0.051369242 0.0353501 0.03360419 -0.034998924
0001c0 66 67 10 3d ba 04 41 3d 30 01 1b 3c 60 d7 0f 3d
       0.03525486 0.04712365 0.009460732 0.035117507
0001d0 ac 47 95 3c 50 94 98 bb 10 58 c1 bc a0 f3 52 3d
       0.018222652 -0.004656352 -0.023601562 0.05150187
0001e0 fa 8f 3c bd 88 a9 4c 3d bc cf d5 bc 50 88 09 bd
       -0.046035744 0.049966365 -0.026100032 -0.033577263
0001f0 20 5e 74 bc d4 e8 9b 3c 10 3f 7a bd 2c de bf bc
       -0.014915019 0.01903192 -0.061095297 -0.02342137
000200 a8 bd 27 3d 74 b1 e7 bc 88 aa d9 3c 04 00 c5 3c
       0.040952355 -0.028282858 0.026570573 0.024047859
000210 78 3f 32 3d 34 e9 cf 3c e0 84 c9 3b 00 e0 39 3b
       0.04351756 0.025379755 0.006149873 0.0028362274
000220 a4 18 7d bd c0 17 15 bd aa 35 1b bd 9a c5 27 bd
       -0.061791077 -0.036399603 -0.037892975 -0.040959932
000230 10 5c 62 bc 90 c9 85 3c 68 df cb bc 38 26 8b bc
       -0.013815895 0.016331464 -0.024886802 -0.016985998
000240 8c c8 2c bd 8e 18 21 bd 00 56 8f bb 08 a6 25 3d
       -0.042183444 -0.039330058 -0.0043742657 0.040441543
000250 00 ea 65 bd 88 2a c6 3c b2 11 78 3d 40 67 ca bb
       -0.056131363 0.024190202 0.06056375 -0.006176859
000260 44 93 08 3d f8 09 50 3c 9e 7a 0f bd 70 d5 9d 3b
       0.03334357 0.012697689 -0.035029046 0.0048167035
000270 30 e4 2d bd 90 a9 98 3c d0 04 46 3c b0 a1 c8 3b
       -0.042453945 0.018635541 0.012086108 0.0061227903
000280 fe c0 43 bd 38 ee 07 3c 8c 2f 33 3d 08 49 d5 3c
       -0.047791474 0.008296542 0.043746516 0.0260358
000290 24 d4 fc bc bc d0 cf 3c 78 21 5f 3d a0 f5 ff 3c
       -0.030862875 0.025368087 0.054475278 0.031245053
0002a0 9c 1a 06 bd 06 b0 5f 3d 98 37 86 bc a6 c4 70 3d
       -0.03274022 0.05461123 -0.016383931 0.05878129
0002b0 54 6a bf bc 1c cf 6a 3d 00 e1 26 3a 84 46 09 bd
       -0.02336613 0.05732642 0.0006365925 -0.033514515
0002c0 60 73 49 3b b8 6b 84 3c ce 92 30 3d 78 b7 3d bd
       0.0030738935 0.016164646 0.043108754 -0.046317548
0002d0 30 0a 9d 3c ee 2e 34 3d 2e 36 36 3d 9c 10 fe bc
       0.019169897 0.04399007 0.044485264 -0.03101378
0002e0 70 9c 30 3d 64 25 e0 3c 94 2d fa bc cc e9 e3 3c
       0.04311794 0.02736158 -0.030539311 0.027821444
0002f0 b0 69 51 bd f4 f7 01 bd 6c b4 55 3d 2a 72 25 3d
       -0.051126182 -0.031730607 0.052174017 0.04039208
000300 5c 16 e4 3c 54 1f 09 3d 60 75 b3 3c c6 50 08 3d
       0.027842693 0.033477142 0.021906555 0.033280157
000310 f2 b9 4f 3d aa 43 61 bd 9c 60 a0 bc 46 98 1a 3d
       0.05071444 -0.05499617 -0.019577317 0.037742876
000320 60 5d 8c bc 68 f9 f5 bc b0 2d df 3c 54 21 c4 3c
       -0.017134368 -0.030026153 0.027243465 0.023941673
000330 d6 09 7f 3d 00 4c 29 bb 72 97 10 3d c0 27 15 3d
       0.06226524 -0.0025832653 0.03530068 0.03641486
000340 80 e7 18 3a ec 59 a2 3c ba 0b 71 3d 0c d2 f0 bc
       0.0005832836 0.019818269 0.058849074 -0.029397033
000350 78 6a ac 3c 72 46 43 3d ca ac 07 3d 04 9a 06 3d
       0.021046862 0.047674604 0.03312377 0.032861724
000360 d2 a4 7b 3d c8 da 83 bc a4 82 bf 3c 12 61 2e 3d
       0.06143648 -0.016095534 0.023377724 0.042573042
000370 1c 04 4e bd 40 21 ef bb dc d2 65 bd 10 4d 98 3c
       -0.050296888 -0.007297665 -0.056109294 0.018591434
000380 d4 e5 03 3d 80 9d 0a bc 9a 80 3c bd c2 67 56 bd
       0.032201603 -0.0084604025 -0.04602108 -0.052345045
000390 40 bd 5a bd 60 d9 d4 bc dc b2 47 3d 98 bf 77 bd
       -0.05340314 -0.025982559 0.048754558 -0.060485452
0003a0 00 2b 5b bb 32 69 20 3d ac f7 da bc 8c 2e d1 3c
       -0.0033442378 0.039162822 -0.026729427 0.02553489
0003b0 78 01 bb 3c b8 bb 1d bd 48 6d 76 bd 46 b3 7d 3d
       0.022827849 -0.0385091 -0.060162812 0.061938547
0003c0 82 1d 5e 3d c0 17 08 bc c0 54 98 3c f0 ab b7 3c
       0.05422736 -0.008306444 0.0185951 0.022420853
0003d0 24 d3 82 3c f0 60 4c bc 50 e1 14 3d 8a 7b 19 bd
       0.01596982 -0.012474284 0.036347687 -0.03747133
0003e0 cc 12 71 bd 92 3f 71 3d 80 8a 6b 3d 80 45 e3 ba
       -0.058855817 0.058898516 0.05750513 -0.0017339438
0003f0 24 03 63 bd 80 f1 59 ba e8 c4 3e bc 98 5b 09 bd
       -0.055422917 -0.00083138794 -0.011643626 -0.033534616

predict.bias f4 [5]
000000 02 d5 65 3d 04 67 74 3d 20 68 74 bb ce f4 6e bd
       0.056111343 0.059668556 -0.0037293509 -0.058338933
000010 14 76 ce 3c
       0.025202788
