highway_ddqn/ddqn_tuned_reward_change/checkpoint-512.tar (torch, 892306 bytes, 18 tensors)

layers.0.weight f4 [256, 25]
00000000: db78 63be 244d 5e3d a67e 9e3d 4058 a6bd
00000010: 8b0b b33e ce29 dfbd 1733 153f f36c efbe
00000020: 6b24 c03e a843 22bf 923e 0abd 72fa 973e
00000030: 3c1c 673e 174c 5c3e 3939 6f3e ed2b 68bc
00000040: 407f 5d3d 7cba 05be 0f64 a93e 488f 0c3e
00000050: e118 003e 61e0 9fbd b4a1 b53d 331e b13e
00000060: 1210 2bbc 6dc4 0bbe 23df 09be 583f 2ebe
00000070: 3003 863d cd11 f33b ed33 d3bd ca53 98bd
00000080: 076f 3e3e 1a4b 0f3d 3328 ecbc 2788 2e3d
00000090: 87bf 6a3d 1010 1c3e fadc 01bd 7d1d 373e
000000a0: c55d 31be 403b 493d a7c2 90bc e526 2c3e
000000b0: a8b0 13be 00b0 7f3a 338f 6bbc 9729 8abd
000000c0: 0066 a3bc 7324 0abe daae 11bd fa53 18bd
000000d0: da9b cc3c 9aad 12bc 97c0 debd 838e a1bd
000000e0: 3309 32bd 4d53 bd3d f313 953d 1335 57bd
000000f0: 0dea 06bd 95a1 26be 9a97 513b 73c0 ebbc
00000100: d049 033e e078 6bbd daf8 673d 67ac 7bbd
00000110: 4bd8 07be 5fcd 17be aa94 13be 132f fb3d
00000120: 7d50 f7bd 1be2 033e 6df2 5abd 7b42 29be
00000130: e06e 883d c100 573e 3667 023e 29f3 a03e
00000140: d63b d73d 5a80 f0bb e61f 9a3e 79d0 5dbe
00000150: 2549 0c3f 9cfa a53d 5afb 5a3e 5b93 013e
00000160: 2f6e 4bbc 09d6 5bbe 7512 32be 338c 9a3c
00000170: 854b 8a3e b707 32be b8ab 75be d335 fe3d
00000180: 8c78 79bd 24d9 dbbd 47e4 0dbe c6ab 14be
00000190: cd6c 433b 0d95 05be e786 3cbe 55e8 2fbe
000001a0: d882 1d3e e0c1 87bd 4a38 4b3e b37c e4bd
000001b0: dd87 183e 4ae1 033e 7d7b 943d 9d41 c4bd
000001c0: 33a0 35bd 632c ccbd b3c5 eabd eaf4 0bbe
000001d0: c073 b8bd aa69 4c3e 8a4d 23be 4358 e3bd
000001e0: c8d0 33be 0088 06bd a033 d3bd 7739 843d
000001f0: 8092 cdbc 386e 0abe 93a6 1ebd ca38 94bd
00000200: 7007 c13d 0090 ddbd e352 a6bd 2bf2 023e
00000210: 00bc 1b3e 933e 4bbe 7de1 2e3e 339b 7fbb
00000220: fb2f 0dbe 5ac6 7cbd 87ae 35bd 735d ad3c
00000230: ed51 bd3d 8073 21be 274e e0bc 8226 0f3e
00000240: 055e 36be 0b59 32be d3d8 063d 8b10 333e
00000250: 4d0a 57bd d59b 093e d24c b13d 3e97 4ebd
00000260: 1d4e 1a3e ee6a 2a3d 5567 a03c 620c 9d3d
00000270: 4e97 03be 7cb7 423e fc39 0a3e 407f c53e
00000280: e294 083d 08b0 e0be 4a10 91be a474 99bd
00000290: bda6 7cbe c224 873d bc81 46be d0e0 2abe
000002a0: 18ee 17be d201 6c3d 16f9 163e 4bd3 b5bd
000002b0: 7d1c 01bd 2cf7 413d 4208 59bd bffe 123e
000002c0: 79d1 353e 5748 34be de15 e93d cd7b 9abe
000002d0: cb46 1cbe 87d1 ad3d c5ca acbe e38e bdbe
000002e0: 6f98 f23d f11d 8e3c 2557 20be 1175 c0bd
000002f0: 487b aabe 2c5e 0fbe d0b7 a0bc 56f5 68bd
00000300: 79b8 253d ffc5 fdbe d571 4f3e a2ec c9bd
00000310: 45c0 0fbd 79d6 a43d c8c6 96be d237 253e
00000320: 9219 163e f21a 0c3e 4c39 8abe 0cc9 063d
00000330: 7915 8fbe efef 7fbc fbe4 a1bd dcad 333e
00000340: 73a6 b4bb adbb 843e a6cd b53d 416e 093e
00000350: 3034 bc3b a0e1 1e3e 3fe7 07be 8b8c 0fbd
00000360: 57ec 5a3e ed6a e6bd 4669 6e3d b452 70bd
00000370: 60bb b13d e364 94bc 9b34 03be fbf3 bf3c
00000380: 158d 97be ed78 403d 7ab6 ebbd 8a4b 313e
00000390: 73d0 0fbe 3a28 693d 8dd6 f9bd 307f 06be
000003a0: dfdf 193e a7cc c6bd c751 a8bd 9a8c 0abc
000003b0: dd73 8ebd 0050 61ba ba64 73bd fa9b 33bd
000003c0: 0323 bbbd 4a68 c3bd e790 44bc 5f2c 4bbe
000003d0: d7d7 a5bd e790 96bc 60f0 8c3d 2a47 453e
000003e0: bdcc 3a3e 3d05 a43d 16ba c5bc 46f8 85bd
000003f0: 60ad cabc 5fb7 1dbe 8eed f1bb 56fa 0e3e
-0.22214071 0.054272786 0.07739 -0.08122301 0.34969744 -0.108966455 0.5828108 -0.4676281
0.37527785 -0.63384485 -0.033751078 0.29683262 0.22569364 0.21513401 0.23361672 -0.014170629
0.054076433 -0.1305942 0.3308415 0.13726532 0.1250949 -0.07806469 0.08868733 0.34593353
-0.010440843 -0.13649149 -0.13464026 -0.17016351 0.06543577 0.0074178935 -0.103126384 -0.074378565
0.18597041 0.03498373 -0.028827762 0.042610314 0.05731156 0.15240502 -0.03170488 0.17882343
-0.17320926 0.04912877 -0.017670942 0.16811712 -0.14422858 0.0009753704 -0.014377403 -0.06746214
-0.019946098 -0.13490467 -0.035567142 -0.03718946 0.02497666 -0.008952523 -0.10876577 -0.0788851
-0.043465804 0.09244404 0.07279196 -0.05254085 -0.032938052 -0.16272576 0.003198123 -0.02877829
0.12821126 -0.057488322 0.056633808 -0.061443713 -0.13266103 -0.14824437 -0.1441218 0.12264838
-0.12075899 0.12879221 -0.05345385 -0.16529267 0.06661773 0.20996381 0.12734684 0.31435516
0.1050946 -0.0073395194 0.30102462 -0.21661557 0.5479911 0.081044406 0.21384946 0.12653868
-0.012416407 -0.21468367 -0.17389853 0.01886568 0.27010742 -0.17385755 -0.23991287 0.1241261
-0.060905978 -0.10734776 -0.13856612 -0.14518651 0.002981949 -0.1304514 -0.18410836 -0.17178471
0.15381944 -0.066287756 0.19845691 -0.11156597 0.14895578 0.1287891 0.07250116 -0.09582827
-0.04434223 -0.099694036 -0.114634894 -0.13667646 -0.090064526 0.19962183 -0.15947548 -0.11100819
-0.17560112 -0.032844543 -0.10312581 0.06456273 -0.02509427 -0.13518608 -0.038733076 -0.07237394
0.09425247 -0.108184814 -0.08121278 0.12787692 0.15208435 -0.19848089 0.17078204 -0.0039002418
-0.13787834 -0.0617126 -0.044355895 0.021162724 0.09244142 -0.15766716 -0.027381016 0.13979533
-0.17809303 -0.1741678 0.032921623 0.1748678 -0.052500058 0.13438351 0.086572304 -0.050437205
0.1506886 0.041605882 0.019580523 0.076683775 -0.12850687 0.19015306 0.13498682 0.38573647
0.03334511 -0.438843 -0.2833274 -0.074929506 -0.2467298 0.06598808 -0.19385427 -0.16687322
-0.1483692 0.057618923 0.14743456 -0.088781916 -0.03152131 0.047354862 -0.05298639 0.1435499
0.17755689 -0.1760572 0.11381124 -0.30172578 -0.1526138 0.0848723 -0.3374845 -0.37023076
0.11845481 0.017348262 -0.15658243 -0.09397329 -0.3329718 -0.14000767 -0.019618899 -0.056874596
0.04045913 -0.49565122 0.20258267 -0.09859587 -0.035095472 0.0804872 -0.29448533 0.16134575
0.14658192 0.13682154 -0.2699684 0.032906577 -0.2794607 -0.0156211695 -0.07905003 0.17546791
-0.0055130064 0.25924435 0.08877115 0.13420965 0.005743526 0.15515757 -0.13271807 -0.03504614
0.21379219 -0.11250863 0.058205865 -0.05867262 0.08678317 -0.018114513 -0.12813036 0.023431769
-0.29599825 0.046990324 -0.11509414 0.17313972 -0.14044361 0.05692313 -0.121991254 -0.13134456
0.15026806 -0.09707003 -0.08218723 -0.008456374 -0.06955693 -0.000859499 -0.059422232 -0.043849923
-0.09137537 -0.09541376 -0.011997438 -0.19841145 -0.08097809 -0.018379642 0.068817854 0.19265428
0.18242164 0.080088116 -0.024136584 -0.06541495 -0.024740875 -0.15401982 -0.007383055 0.13962683

layers.0.bias f4 [256]
00000000: 5b7b ea3d c0e6 98bc 207c 373e 38c8 bcbd
00000010: 60de a23d 1df5 87bd ccea 03be 2b91 c63b
00000020: 2b03 d53d f050 8f3d 178f 02be 13be 5b3d
00000030: 14f1 2abe 861f 5bbe cd95 c83c 3968 043e
00000040: 8265 a13d 968b d6bd 694b 413d f381 873c
00000050: f4f3 08be 2757 2cbe 4440 5c3d 7e10 943b
00000060: adca 4b3c 25b5 8dbd 5318 c3bd 450f 12be
00000070: 60c3 46bd 57b3 0f3e f072 72bd cf40 2e3e
00000080: be3f 443e e572 f83c fbdf 423e db1c 1bbe
00000090: 2747 89bd f86f 1dbd 3369 e1bd 60f6 e4bd
000000a0: d80d c0bc f18a adbd 3f0b c6bd e7fe 26be
000000b0: dd13 1fbc a5c7 ffbd 34f3 57bc 0831 de3c
000000c0: ead2 223e 5aa7 4f3d 2120 0a3e ff26 14be
000000d0: 3c1d c6bd d232 e3bd 47ea 463e 70c7 e83d
000000e0: 122c 8dbb 103a fabd c422 cdbc cd15 2abe
000000f0: 002f 18bd 7aad 97bd 959f 72bb d8f5 b1bd
00000100: fb56 37be db43 8e3d 1a04 3fbe 313f 6b3d
00000110: 93d2 7ebd ab93 9ebc e4ef 393e 7599 bfbc
00000120: a817 d0bd ea1a c83d 4853 bc3d d2a9 2dbe
00000130: 2adf 41be f2e7 183d 30df 09be 34e6 32bd
00000140: 63aa ea3c 0a61 20bd 9677 3d3e b9a5 0cbe
00000150: 6075 443d c6a1 f9bc 7386 083e 0766 e43d
00000160: d70a 9bbd 25c9 8c3c 8c55 fd3d d6a8 c23d
00000170: 9a7b acbd 777c b23d 3944 e13b 7af7 ebbd
00000180: 0b81 1c3e 6945 b8bc 880c d1bd 7a82 80bd
00000190: 9a79 f83d 3f05 463e e7a4 12be f0ec bcbd
000001a0: 33d8 c0bb 6796 cfbb 91c3 dfbd a3f3 043e
000001b0: 7377 103d 0812 323e d400 49bd 6582 3a3e
000001c0: 9def bcbd 7761 a43d e5d7 7d3d cde3 a4bc
000001d0: db95 b6bc 07fe 90bd e588 e0bd 5d3c 4f3e
000001e0: 3cf6 103e 1274 0dbe 7a62 30bd 437f e13b
000001f0: 99e5 453e 1a35 0d3e c325 8cbd 362a 92bd
00000200: 5e85 cd3d 7398 443e 3167 763d 2a43 63bd
00000210: ca6e f6bd fde9 cbbc 5bc7 2e3e aa93 39bc
00000220: 4a29 10be 80f5 be3d dd33 52bd 158d 2cbe
00000230: 37d1 02be 83d8 383e 0475 8e3d 1361 0b3d
00000240: 3069 2a3e d348 21be 99c9 403d 8fd3 e43d
00000250: 1de6 9dbd 4ac3 22be 5de6 39be d22d 40be
00000260: 2da2 06be ba12 95bd 7ed9 d13d 53cd 4e3d
00000270: 3447 353e 0064 89bd 0077 ab3b 0e7d 223e
00000280: 699d e83d dbd2 063d 2248 173d 1949 473d
00000290: 3068 dc3d e8e3 4e3d 0256 e1bd 0047 8abd
000002a0: 8b22 973d a408 a8bd da18 c3bd cac2 21be
000002b0: 6b31 36be bd3c 88bd c986 233e 54c7 da3d
000002c0: eb7d 1bbe 568b 013e a6f1 11be 02ba 86bd
000002d0: 6a62 053e 8050 0d3c dfff b7bd 418a 35bc
000002e0: a32b f6bd 118f 213e 6b46 313e a1a3 b33d
000002f0: adf2 ebbd 7752 4f3e 5384 e63d 1cc8 b13d
00000300: 2ba1 163e 9a73 51bc 24ee ad3d f0b3 b8bc
00000310: 0b90 bb3a 656d 883d 3419 5bbe 7c04 43bd
00000320: 7bc7 0e3e 1c00 2e3e ecd2 fc3d abfb 43bc
00000330: 1424 acbc 31ed 24be a09c 8fbd bdc3 3bbe
00000340: 202e 393e 0852 1bbc 4bf9 d3bc 7da1 243e
00000350: 620d babd d8a4 aabd 9a1d 01be 39ef 10be
00000360: 13f4 fdbd ec36 db3c 4f7a 85bd e7fd 47be
00000370: 7ab9 44be 9965 e2bd 2adb 013e 28e2 57be
00000380: 5e4e d3bd c1e7 073e 2f50 4abe a632 eebd
00000390: c731 2a3e 4780 f03d 166b 493e 90db 3b3e
000003a0: 9cff 573e 7d74 e7bd 93c3 05bd bf5e 3fbe
000003b0: 9d25 d0bd 2503 95bd fbb9 2ebe a87b 54be
000003c0: 38ee 08be be0d db3c b81d be3d 89da 4abe
000003d0: 221b 063e e0ea 3ebd b6c3 343c a424 19bb
000003e0: ebe6 9f3d f071 883d 5471 313d b075 833c
000003f0: 8827 7c39 c790 b53d 8829 143e d8e3 29be
0.114493094 -0.018664718 0.17918444 -0.09217876 0.07952571 -0.066385485 -0.12882537 0.006059786
0.10400995 0.069978595 -0.12749897 0.053648066 -0.16693527 -0.21398744 0.024485493 0.12930383
0.07880689 -0.10475843 0.047191057 0.016541457 -0.1337431 -0.16830121 0.053772226 0.0045185676
0.012438458 -0.06919316 -0.09526124 -0.14263637 -0.048526168 0.14033256 -0.059191644 0.1701691
0.1916494 0.030328223 0.19030754 -0.15147726 -0.06703024 -0.03843686 -0.11006393 -0.11179805
-0.023444101 -0.084737666 -0.09670114 -0.16308175 -0.009709326 -0.12489251 -0.013180543 0.02712299
0.1590077 0.05069671 0.13488819 -0.14468001 -0.09673545 -0.110936776 0.19425307 0.11366165
-0.004308232 -0.12218106 -0.025040992 -0.16609879 -0.037154198 -0.07406135 -0.0037021388 -0.08689469
-0.17904274 0.06946536 -0.18653908 0.05743331 -0.062212538 -0.019357523 0.18157917 -0.023388604
-0.10160762 0.097707585 0.09195572 -0.16959313 -0.18932787 0.037330575 -0.13464046 -0.04367657
0.0286457 -0.039155044 0.1850265 -0.13735093 0.0479635 -0.030472647 0.13332538 0.11152273
-0.07570427 0.017185757 0.123698324 0.09504859 -0.084220126 0.08715146 0.006874588 -0.11521812
0.15283601 -0.022494035 -0.10207468 -0.062748864 0.12132569 0.19337939 -0.14320718 -0.0922488
-0.005885148 -0.006335068 -0.10925973 0.12983565 0.035270166 0.17389691 -0.049073055 0.18213804
-0.0922539 0.080264024 0.06197347 -0.020128155 -0.022288254 -0.07079702 -0.109636106 0.2023787
0.14156431 -0.13813809 -0.043062665 0.006881626 0.19325866 0.13789788 -0.0684314 -0.07136957
0.100352034 0.1919878 0.060157005 -0.055483975 -0.1203285 -0.024891848 0.17068236 -0.01132671
-0.1407825 0.09324169 -0.051318992 -0.16850694 -0.12775122 0.18051343 0.06955913 0.034028124
0.16641688 -0.15750436 0.04706726 0.11173164 -0.07709906 -0.1589481 -0.18154283 -0.18767479
-0.13147803 -0.072789624 0.102465615 0.05048878 0.17702943 -0.067085266 0.0052326918 0.15868017
0.113581486 0.03291593 0.036934026 0.048653696 0.1076206 0.050510317 -0.11002733 -0.067518234
0.073796354 -0.08204773 -0.095262244 -0.15796962 -0.17792289 -0.0665221 0.15969385 0.1068255
-0.15184753 0.12650809 -0.14252338 -0.06578447 0.13025823 0.00862515 -0.089843504 -0.011080326
-0.12020042 0.15777232 0.17312019 0.08771444 -0.11520896 0.20246302 0.112557076 0.08680746
0.14709918 -0.012783909 0.08492687 -0.022546738 0.0014309896 0.0666149 -0.21396333 -0.0476117
0.13943283 0.16992229 0.12344918 -0.011961858 -0.021013297 -0.16106106 -0.07012296 -0.18336387
0.18084002 -0.009480007 -0.025875708 0.16077228 -0.09084584 -0.08332223 -0.12608948 -0.14153756
-0.12400069 0.026759587 -0.06517469 -0.1953045 -0.19211379 -0.110545345 0.1268126 -0.21082366
-0.10317682 0.13272001 -0.1975715 -0.11630754 0.16620551 0.11743217 0.19669756 0.18345475
0.21093601 -0.11301515 -0.032657217 -0.18688487 -0.10163424 -0.072759904 -0.17063133 -0.20750296
-0.13372123 0.026739951 0.09283012 -0.19809927 0.13096288 -0.046610713 0.011032989 -0.0023367787
0.07807716 0.06662357 0.04332097 0.016047329 0.0002404732 0.08865505 0.14468968 -0.16590822

layers.1.weight f4 [256, 256]
00000000: efc2 a63d f6bf 5a3d 36a2 323d 692c 3f3d
00000010: 80dc 2e3a 126e 7ebd c938 613d 294a 57be
00000020: 8898 50ba 6ee2 753d 90dd 443e b670 63bd
00000030: 8f67 aa3e 4f4e 4d3e fefa 233e 4c81 e33d
00000040: 30fb a1be 8f3c 143d d547 773d 1cdb 1d3c
00000050: 2b32 c53d d8f6 70bd 64fc c5be c5b6 bfbe
00000060: 8319 ee3d 2937 8bbe 205b 8ebc cc89 a7bd
00000070: 0a01 593d 2589 b93d b26a 7d3e 82c0 0f3d
00000080: fd6c 243d 4975 613d 0433 893d 14ff 6a3d
00000090: 50de 7b3d 468a 143e 7a3c 233e 58ff 063d
000000a0: 41aa 4f3d 0795 cd3d fdd3 5bbe 6ca5 80bc
000000b0: 1e99 b5bc 9ac7 683d c6d5 15bd a506 223e
000000c0: 9b62 f73d 938c a53e ccab ea3b b29b 5abd
000000d0: 014c 1abf 06f9 aa3d 5092 963b 5d81 bf3d
000000e0: a5d2 ebbc 3496 51bd 9c1e 4e3c 6c81 33bd
000000f0: 0fb0 003e 9f96 aabe dd3b 0b3e 3e4a 03be
00000100: 38ac 823c e4c0 8c3e 38c0 0e3c d14e 803d
00000110: d377 0abe d607 663d 27e4 c0bd add7 7c3d
00000120: 09df 623b 402e 96bc 7fba 3a3d f04c 5a3d
00000130: 50fe ea3b f2dc 1e3d c22c 8dbe 8d7b 5b3d
00000140: bca7 193b c323 bebe 8e4a 923d 682d b63d
00000150: c439 bd3c 8d54 5fbe 2eff c73d 5818 69b8
00000160: 78c2 10bc 06e2 3f3e 1ad9 c73c aa09 313d
00000170: 4299 503d 3e61 1b3d 72f4 1dbe 86f6 5e3d
00000180: b45f 71bd af47 c2bd 0177 b13d 2e2f 153e
00000190: 0c2e 9fbc 8837 593d a9af 4dbe d879 26be
000001a0: a128 80bd 80ff c93b 5d63 f13c 2f4c 8c3d
000001b0: 886c 473d 6e55 0ebe 2ca6 d2bc 3277 273e
000001c0: 1242 35bd b21e 523d 53dd 9ebc 2012 163c
000001d0: 600a 9c3d 32db 0b3e 9712 ab3d c0a9 8e3b
000001e0: 53a5 cb3e eb07 40be 829d 713c d0a6 c7bd
000001f0: 312c e03d aaa6 003b 4899 83bc b930 00bf
00000200: b6c3 553e d242 69bd 419e 9abe a665 0abe
00000210: eb61 f83c f2ef d8bc 8725 d2bc 950a cf3c
00000220: 26fa 8e3d 9927 0dbe 7449 3e3c 244b 99be
00000230: 89af 703e bdb2 8d3e 92d2 fa3d 28cb 713d
00000240: 069d 883c 1279 0a3d 5745 d13d 1fb1 3d3e
00000250: 5808 acbc 9881 cdbc b416 0fbc 13ba 873d
00000260: 85bd 253e 0c33 eabd e3e6 8a3d 000d 9c39
00000270: 4e95 95be e366 013d 8e7e 0dbd 2b60 87bd
00000280: cc7b d6bd 2c49 993c df35 e6bd 3b65 3c3d
00000290: 56d1 afbc 98c8 e63c 9f53 50bd 7815 d33c
000002a0: a546 003e 80a9 30be b498 87bc 2aab 223e
000002b0: d9ba 63be 5c69 d33c 09e0 9b3c 4354 04bd
000002c0: ee89 9b3d 6899 1c3e bfde 623e fc59 abbb
000002d0: e862 363d 02ec 033d a2a0 913d a4a2 fa3d
000002e0: 5005 cd3b d85d bebe 534d e93d 367d 22be
000002f0: b866 0dbc 51ff 403d 3997 1d3e 533e b0be
00000300: 583a f0bc ec57 bc3c a661 8cbd c1a7 1ebd
00000310: c092 da3d b9c0 c33e 7adf c73d 7d2d 373d
00000320: 8966 1abd 1d55 0d3e 7f8b e4bd c129 8c3a
00000330: d388 093d 7cc6 1b3e a8de 473c b474 6ebd
00000340: de6e c1bb ed09 9bbd e09b 813b c744 063d
00000350: ba31 fc3b d57e 10bd ceb8 8a3e 6b3c 163e
00000360: 084e 65be 68db 25be a2c1 23bd f837 e9bc
00000370: 22ef 3b3d 827e 4dbe c67b f33d f246 e5be
00000380: 6a00 c8be c505 51be 3ce8 023d 2a85 2ebd
00000390: ad1e 0b3e e2bd fabd a763 1f3e d8e6 b03d
000003a0: 6623 bf3d 39f8 41bd f61e 75be 3598 183e
000003b0: 960b 20bd c920 f73c 34e2 a73c fe99 e1be
000003c0: 0e78 e6bd 4bbd 9bbe acde e7be d2e2 f4be
000003d0: 384f 22be 76ba 0c3d cb2f d93d 01ca 793c
000003e0: 0830 9e3e 5c3c 40bd 4ce1 a43a d991 31be
000003f0: 6d9f 2c3e 5b9c 0c3d f1cc 323e d203 0bbd
0.081426494 0.053405724 0.043611728 0.046673212 0.00066704303 -0.06211669 0.054985795 -0.21024384
-0.0007957299 0.060030393 0.19225144 -0.05552741 0.33282134 0.20049404 0.16013715 0.11108646
-0.31636953 0.036190566 0.06037124 0.009634759 0.096287094 -0.05882916 -0.3866912 -0.3744413
0.1162596 -0.2719052 -0.017377436 -0.081805795 0.052979507 0.09059361 0.24747732 0.0350957
0.040143 0.055043492 0.066991836 0.057372168 0.06149131 0.14505872 0.15941039 0.03295836
0.050699476 0.1003819 -0.21467586 -0.01570388 -0.022167739 0.05683098 -0.036580823 0.15822847
0.120793544 0.32333812 0.007161593 -0.05337114 -0.6027222 0.08348279 0.0045950785 0.09350846
-0.028786967 -0.051168635 0.01258054 -0.0438246 0.12567161 -0.3331804 0.13597055 -0.1282129
0.01595126 0.27490914 0.008712821 0.06265033 -0.13522272 0.056159817 -0.094185166 0.061729122
0.0034617803 -0.0183326 0.045588013 0.05329603 0.0071714297 0.03878493 -0.2757321 0.053584624
0.0023445925 -0.3713666 0.071431264 0.08895379 0.023098834 -0.21809597 0.097654685 -5.55742e-05
-0.008835427 0.18738565 0.024395514 0.043222107 0.050927408 0.037934534 -0.1542528 0.05443432
-0.05892916 -0.09486329 0.08665276 0.14568779 -0.019431137 0.053031474 -0.2008654 -0.16257417
-0.06257749 0.006164491 0.029466325 0.06850468 0.048687488 -0.13899776 -0.025714003 0.16354063
-0.044252463 0.051298805 -0.019392645 0.009159595 0.076191664 0.13657835 0.08353155 0.004353732
0.3977457 -0.1875302 0.014747025 -0.09748614 0.10945929 0.001963059 -0.016064301 -0.50074345
0.20875439 -0.05694849 -0.30198863 -0.13515338 0.030320128 -0.026481602 -0.02565266 0.0252736
0.06981306 -0.13784637 0.011614192 -0.2994014 0.23504461 0.2767543 0.12247194 0.059031636
0.016676437 0.033806868 0.10218304 0.18524598 -0.021000072 -0.02508621 -0.00873344 0.06627288
0.16185577 -0.11435518 0.067823194 0.00029764324 -0.29215473 0.03159226 -0.03454452 -0.066101395
-0.10472831 0.018711649 -0.11240744 0.04599498 -0.021462124 0.028171822 -0.050860997 0.025767073
0.12526949 -0.17252159 -0.016552307 0.15885606 -0.22239245 0.025807075 0.019027727 -0.03230692
0.075946674 0.15292895 0.22155283 -0.005229233 0.044527918 0.032207496 0.071107164 0.122380525
0.006256737 -0.37180972 0.113917015 -0.15868077 -0.008630447 0.04711849 0.15389718 -0.3442255
-0.029324695 0.022991143 -0.068545625 -0.0387342 0.106725216 0.38232973 0.09759422 0.044721115
-0.03769544 0.13802 -0.11159419 0.0010693596 0.03357775 0.15212435 0.0121990815 -0.058216766
-0.005903109 -0.075702526 0.0039553493 0.032780435 0.0076963576 -0.035277206 0.2709412 0.14671485
-0.22393048 -0.16196978 -0.039979585 -0.02846907 0.04588235 -0.2006779 0.11888842 -0.4478069
-0.39062816 -0.20412357 0.031959757 -0.042607464 0.1358592 -0.122432485 0.15565358 0.0863778
0.093329236 -0.047355864 -0.23937592 0.14901812 -0.03907355 0.030167 0.020493604 -0.440628
-0.11253367 -0.30417857 -0.45287073 -0.478293 -0.15850532 0.03435751 0.10604819 0.015245915
0.3089602 -0.046932563 0.0012579351 -0.17340793 0.16857691 0.0343288 0.17460991 -0.03393919

layers.1.bias f4 [256]
00000000: a7f1 643d 819c a03d d705 30bc 9953 e33c
00000010: 8218 cd3d 7cb4 9dbc cc8c e1bc f59e d9bc
00000020: cf2a e7ba a921 183d 77ff 4b3b 26a3 23bd
00000030: 3818 7ebd 129d 98bb 0a74 873d a9ed b23d
00000040: ef0a c93d 2691 14bd 7f13 4a3d 437f 023d
00000050: 08c9 11bc 12e8 8bbc c7e6 2b3d 38ca 6fbc
00000060: 69ed 3cbd 86f1 b23c 70ac c33c 15aa c33d
00000070: c893 2abd 9615 edbc 4b12 dfbc 6626 07bd
00000080: f0a7 8cbc ab53 b03d 0a4a bebc 8e22 55bc
00000090: de35 82bb 0106 49bd 3239 453d 4aba 713d
000000a0: 4be4 5e3b ed01 a03d 65a4 33bd 1532 8abb
000000b0: 5f8a d73c 3cb0 4a3d b218 2b3c 3b7f c33d
000000c0: 07b9 073d 2508 5dbd 941e 35bd 2812 20bb
000000d0: 90b7 f13b 070f 6f3c c28b 7f3d 68d3 b73c
000000e0: 86af ec3c c905 823c f907 78bb e965 243b
000000f0: 4ee0 ca3d c6d9 d6bd 5790 213d 236c 063c
00000100: 722d 9cbd 96d7 c63d 1749 0b3c fb6a d4bc
00000110: 29f9 953c 55cc cf3d 8f51 1abd d648 0b3e
00000120: d79c 0f3d bcd9 f23d d32a 43bd 2ead be3d
00000130: f140 e03c 7d07 36bd 0905 f13a b152 ba3d
00000140: 546a 3cb8 affd ad3c f3c6 773d e123 123d
00000150: b4ad c63d 7e75 c03c 9491 1cbd 93a6 d53d
00000160: acd4 06bd 4644 c3bb e0ba 3ebd 78fd 383c
00000170: 6a67 393c 81df f83b a954 04bd 2456 35bc
00000180: f449 4abd 2879 723d 98a4 d63d d63a e2bc
00000190: 8a52 663c 6d8e c93c f04b abbc d052 e23c
000001a0: f550 733d 9f0a 0a3d e21b 9f3d 5828 fa3c
000001b0: a0cb d93d dfb0 18bc 10c9 9c3d b8da 1d3b
000001c0: 8cb5 433d ff23 6f3c 6d16 3e3d b426 803c
000001d0: 851d 4abb 6d6c 62bd 70b3 7fbc 1c4d c33c
000001e0: e168 8cbc 95d8 b23d 9e8f 5d3d 4c06 15bc
000001f0: f7c4 793d 951f d4bc e6aa 543d 1865 653b
00000200: d9cf 8c3d 1518 a63c 3ce8 c7bd bad5 90bd
00000210: 0c12 c5bc 5ac0 72bd dfc9 1e3d 0613 3ebd
00000220: 7c9f afbc 5d58 3abd 9bd1 dabc 5c4c 2b3d
00000230: d615 a4bd 1377 783d d99a 813c ca79 c33c
00000240: 2741 2b3b 3194 85bc 4847 553d 0dbd 98bc
00000250: e7dc 9f3d 72a0 ec3b f575 b5bc ac71 d63d
00000260: a15c 2a3c 55ae 93bc bd69 8abd ea70 8f3d
00000270: f720 82bd 4d70 f5bc bc32 d43d 33ab 6b3c
00000280: 6133 11bd 251a febb e53c 5dbd b317 2b3b
00000290: 49ea c33d d5cb 90bd a819 5cbd 5f68 1f3b
000002a0: 65ca db3d f196 fc3d 0850 c93d 90da e13b
000002b0: fa2b 50bd 48c2 1cbd 3cb7 10bd dd76 26bc
000002c0: 2a30 14bb 518f 34bd 89ce 98ba 5e65 993d
000002d0: 933e 533d 336f f73b c4a6 41bd 4c03 18bd
000002e0: b4a2 29bd ce9e ac3d 3497 053d d613 af3d
000002f0: 0404 893c 2356 af3c b55e c13c d401 b53c
00000300: 6601 24b6 5017 ad3d 1a17 883d 9784 8b3c
00000310: 1ece a0bd 0c76 ef3c c0bb b53d cbff 64bc
00000320: 4128 83bc af21 8cbc e0b2 09bb b5b3 93bd
00000330: 8e0c 90bd 111d 38bd 79e0 d63d 2790 003c
00000340: 3f7c a93d 267f aabc 242b d7bc 5367 993d
00000350: db53 cb3d 644d 463d 714a f1bc c920 bb3c
00000360: b47c b03d 4d2b 8dbd 675f b53d 25a0 a93d
00000370: 960c c33d 4276 62bd 1802 79bc 0c81 bcbc
00000380: 24b8 de3c 7757 fc3c 76d9 b3bd 0f99 c83d
00000390: 0e3d a8bc 40dc cc3d 4b06 eb3d d4cb 6abc
000003a0: 513c 22bd 7f7e 7ebd c1a6 36bc a249 9a3c
000003b0: 8cb1 22bc 3799 413d 96c9 21bd 3528 d6bb
000003c0: 6d9a 053d 6a50 25bd 837e 7c3d a60c a73b
000003d0: 53ce 6d3c e204 69bd f940 b5bc bcc4 da3d
000003e0: c711 7bbd c84f 3a3d c667 cf3d 6abc 933d
000003f0: 0011 a03d 6f12 543d 02f3 073d 0176 27bc
0.05589452 0.07842351 -0.01074358 0.027749823 0.1001444 -0.0192511 -0.027532957 -0.026565054
-0.0017636659 0.037141476 0.003112761 -0.039950512 -0.062034816 -0.004657396 0.066139296 0.08736736
0.098165385 -0.036271237 0.049335 0.031859647 -0.008898027 -0.017078433 0.041968133 -0.014635615
-0.04612485 0.021843683 0.023885936 0.09553925 -0.04164484 -0.028940957 -0.027230402 -0.032995604
-0.017169923 0.086097084 -0.023228664 -0.013008727 -0.0039737066 -0.04907799 0.04815025 0.05901555
0.0034010585 0.07812867 -0.04385795 -0.004217396 0.026311098 0.049484476 0.0104429 0.09545752
0.03313544 -0.053962845 -0.044218615 -0.0024424884 0.0073766187 0.014590985 0.062389143 0.022439674
0.02889229 0.0158719 -0.003784655 0.0025085157 0.09906064 -0.10490756 0.039444294 0.008204493
-0.076258555 0.097090885 0.008501313 -0.025929919 0.018307285 0.10146395 -0.037675437 0.13602003
0.035061684 0.11857936 -0.047648262 0.09310375 0.027374716 -0.044440735 0.0018388341 0.090978034
-4.492172e-05 0.02123913 0.060492467 0.035678748 0.097011 0.023493525 -0.03822477 0.10432162
-0.032917663 -0.0059590666 -0.046564937 0.0112909 0.01131616 0.007595003 -0.0323073 -0.011067901
-0.049386933 0.059197575 0.104806125 -0.027615946 0.014057765 0.024604047 -0.020910233 0.027627379
0.05940338 0.033701535 0.0776899 0.030536816 0.106345415 -0.009319513 0.07655537 0.0024086665
0.04778056 0.0145959845 0.046408106 0.015643455 -0.003084035 -0.055279184 -0.015606746 0.02384048
-0.017139854 0.08732716 0.054092042 -0.00909574 0.060978856 -0.025893966 0.051920794 0.0035002884
0.06875581 0.020275155 -0.09761092 -0.07072015 -0.024056457 -0.059265472 0.038766738 -0.04640486
-0.021438353 -0.045494426 -0.026711276 0.04182087 -0.080119774 0.060660433 0.015820907 0.023861784
0.0026131363 -0.016306015 0.052069932 -0.018644834 0.07805806 0.007221275 -0.022150973 0.104709
0.010398061 -0.018027464 -0.06758449 0.070039585 -0.06353944 -0.029960776 0.10361239 0.014384079
-0.03544939 -0.0077545815 -0.05401315 0.0026106655 0.09566171 -0.07070128 -0.053735405 0.0024323685
0.10731963 0.12333477 0.09829718 0.0068925098 -0.05082319 -0.03827122 -0.035330996 -0.010160175
-0.0022611716 -0.04408199 -0.0011658232 0.074900374 0.051573347 0.007551098 -0.04727818 -0.03711252
-0.04141493 0.08428727 0.0326149 0.08548705 0.016725548 0.021403378 0.02360473 0.022095598
-2.4438718e-06 0.08451712 0.06645031 0.017030997 -0.07851814 0.029231094 0.08873701 -0.013977001
-0.016010405 -0.017105905 -0.0021011159 -0.07212011 -0.070336446 -0.044949595 0.104920335 0.007846869
0.08275651 -0.020812582 -0.026265688 0.07490411 0.099281035 0.04841365 -0.029454442 0.022842782
0.08617535 -0.068930246 0.08856087 0.08282498 0.09523885 -0.05528856 -0.015198253 -0.023010753
0.027187414 0.030803425 -0.08781712 0.097948186 -0.020536926 0.10002947 0.1147581 -0.014330823
-0.039608303 -0.062132355 -0.011148156 0.018833939 -0.009930026 0.047265258 -0.039498888 -0.006535555
0.032617975 -0.040359892 0.06164409 0.0050979434 0.014514524 -0.056889422 -0.022125708 0.10682055
-0.06129625 0.04548624 0.10127215 0.072136715 0.078157425 0.051775392 0.033190735 -0.010221005

predict.weight f4 [5, 256]
00000000: 650e bb3e b850 6a3e 9988 d4be 5a31 d23d
00000010: 27be b73d 2c4b 52bd c4f6 03bd 7358 8d3e
00000020: 7687 8a3e abf3 90bd c199 1bbd 2aa1 31bd
00000030: 80b4 dcba 69f8 8fbc c5a1 0a3c b47f 9e3d
00000040: 467d c5be b849 353c f04b 563e e990 f0bc
00000050: cf2a 36bd 658c d73d c575 db3b 62bb 353d
00000060: 6b27 85bd 737d 0a3e 8069 d73d e646 cf3b
00000070: 549e 51bd 3e79 13bd db19 b43c 8e9d 0d3e
00000080: 10a5 c0bc 3127 fdbe 8e56 183a c314 083e
00000090: bfa0 6c3c a02b 7b3b bbb0 1ebf 54a5 7c3d
000000a0: a905 cf3c 7ca6 013d 8409 c4bc 56d7 93bc
000000b0: cb41 16bd bea1 983e 1464 2a3e 8883 373e
000000c0: faf5 ccbc b006 983b ec0f e4bc b6c2 c93e
000000d0: d8e2 b63c 32ee 943e 33a3 c63c f462 c63d
000000e0: 618f 5cbd 87b1 3abd 7378 a5bc 9d39 fc3d
000000f0: 5abc b43e 7add 1dbe 3777 78bc a1af 903b
00000100: 9435 93be ec62 973d fafc 17bd feb2 403b
00000110: a889 2e3d de34 1dbf 0800 4c3c 43c5 903d
00000120: 71f7 c33d e879 3b3d 9eea 20bd 6e36 893c
00000130: 7ca0 0e3d 3a54 d8bc 86f7 933d ffa5 27be
00000140: 89a9 053d 0a3a ef3c 070d dcbe 001e 27be
00000150: 36b7 aa3c e5d9 8f3d 4a3d 953e b926 243d
00000160: 7a2e 2c3d 032e 6a3d 108f ee3c cee5 143d
00000170: 5057 21bd 2315 dc3d 3b05 28bd 51be 5fbe
00000180: 8811 d2bc bc2d e4bd dcbd cb3d 0a47 41bd
00000190: 53bf b5bc 432e 023d 512c 203d faa9 c03d
000001a0: 4f2e 983b 2fdb 843c e348 c839 38db 91bc
000001b0: 473b bf3c 1c74 df3c 49a7 db3e ec4f e03d
000001c0: e46a 01bf b387 57bd 5067 5fbc 70d8 b83e
000001d0: a879 cb3c 78c6 5bbe 6a81 d8bc b194 93bc
000001e0: d7f2 89bc 9e78 eb3d 3a4d ccbe 23d8 693e
000001f0: e313 ca3b 84ff ffbc 1eea ce3d d622 bc3d
00000200: 15f2 a6be ebb1 63bb 92e3 6f3e dd28 d3be
00000210: f63c 54bb 4f49 8abc 0364 48bd 1f38 21bc
00000220: 5a4b f2bc 7c54 fd3b a83c 9abc 6766 23bd
00000230: 2581 c93e 9000 d03e d30f 013e ca7c 063d
00000240: 84d8 ab3e 1841 3fbd 5124 ea3d 6939 383d
00000250: bca6 ad3e 5e55 413e 4ab8 2c3c f224 8d3e
00000260: 7c4e 16bd e032 59bc d000 a3bb 6a77 8b3e
00000270: ae06 123d d811 b2bc ddfa 7b3d 8c19 82bc
00000280: 00c1 8839 c02a 04bf 19eb 1139 d76c 183e
00000290: 5640 ff3c 9bec c13c 8d94 93bc aa00 1b3f
000002a0: 6f38 a5be 99cd 07be d929 ae3d a4b3 dd3c
000002b0: c37c 013c 1c8b 273c 3ef6 8f3e f563 d9ba
000002c0: 9f9f 06bf 7ad8 123d a435 8abc 8a7d 4b3e
000002d0: 3855 22bd 90fa 81bc 167c 42bd 1a9f 773d
000002e0: 5a16 7e3d d7b9 503d 356c b63d 9846 7e3d
000002f0: 388a ddbe b805 053d 4701 0dbe 3530 b43d
00000300: edf2 01bc be4e b43d bdc8 963b 4840 7d3d
00000310: aee0 ac3c 62fe 4abd 03f2 153e 99cf 973d
00000320: 2478 9cbd 4c7b 64bd 2c66 babc 78a9 06bd
00000330: 18c5 41bd c133 2ebd 9114 ad3e a518 303e
00000340: 037e cb3d 933e 1f3d a0a9 143d 3e4f e0be
00000350: 8464 a43c 240a 883e 8801 113c 85d7 9c3c
00000360: 6cfe f2bc 6541 d53c 9a65 eebe ac91 0dbd
00000370: ecc9 b4be 3729 453d 74e5 56bd 45cd 3a3d
00000380: 92d8 9cbb 42e3 da3d f449 c63e fa55 a5bd
00000390: 986a c8bc 4e24 9cbe 6a3d f53d a18c 1e3d
000003a0: 3f6c f03c ef3e a4bc 9fe9 db3d 744d 5bbb
000003b0: 143f 643c 3f81 cabe 6cbc 2b3d 5e73 043d
000003c0: 44d2 de3d 10bc 5ebd 6d06 543d 2f53 c73e
000003d0: b842 f6bb 54c8 113d c74a 09be c564 b13d
000003e0: fe27 d0bb 0af1 363d 1015 1e3d 1175 4bbd
000003f0: 7139 babc 4624 0a3e 4884 2f3e 9004 e93d
0.3653442 0.22882354 -0.41510466 0.10263319 0.089718156 -0.05134122 -0.032217756 0.27606544
0.27056473 -0.07077726 -0.037988428 -0.04336659 -0.0016838461 -0.017574506 0.00846142 0.07739201
-0.3857214 0.011064939 0.20927405 -0.029365974 -0.04447442 0.10524825 0.006697389 0.044368155
-0.06501659 0.13524418 0.105181694 0.0063255904 -0.051176384 -0.036004297 0.021984985 0.13829634
-0.023516208 -0.49443963 0.00058112375 0.1328917 0.014442622 0.0038325563 -0.6198842 0.061681107
0.025271254 0.031652912 -0.023930319 -0.018047016 -0.03668384 0.298109 0.1663974 0.17921269
-0.025019635 0.004639469 -0.027839623 0.39406365 0.022324964 0.2908798 0.024247741 0.096868426
-0.053847674 -0.04557946 -0.020199036 0.12315676 0.3529995 -0.15416518 -0.015165142 0.004415468
-0.28751814 0.07391915 -0.03710649 0.0029403563 0.042611748 -0.61408794 0.012451179 0.07068875
0.0956868 0.045770556 -0.03928625 0.016749587 0.03482102 -0.02640735 0.07224946 -0.16371916
0.032632384 0.02920248 -0.4297869 -0.16320038 0.020839315 0.07023982 0.29148322 0.04007599
0.04203651 0.057172786 0.029120952 0.03635197 -0.03938991 0.10746219 -0.041020613 -0.21849944
-0.025643125 -0.11141536 0.09948322 -0.04718689 -0.022185957 0.0317824 0.039104763 0.094074205
0.0046441923 0.016217796 0.00038201277 -0.017804727 0.023343695 0.027277045 0.42901066 0.10952744
-0.5055373 -0.052619647 -0.013635471 0.3610263 0.024838284 -0.21462429 -0.026428897 -0.018015238
-0.016839428 0.11497615 -0.3990267 0.22836356 0.0061669215 -0.031249769 0.10103248 0.09186332
-0.3260657 -0.0034743499 0.23426655 -0.41242114 -0.0032384968 -0.01688066 -0.048923504 -0.0098400405
-0.029576946 0.0077310186 -0.018827751 -0.03989258 0.39356342 0.4062543 0.12603693 0.032833852
0.33563626 -0.046692938 0.11432708 0.044976626 0.3391627 0.18880221 0.010541985 0.2756725
-0.036695942 -0.013256758 -0.004974462 0.27239543 0.0356509 -0.021737024 0.06151854 -0.015881322
0.00026083738 -0.5162773 0.00013915858 0.14885269 0.031158607 0.023672393 -0.01801517 0.6054789
-0.32269618 -0.13262023 0.085040756 0.027063198 0.007903281 0.010226037 0.28117555 -0.0016585576
-0.5258731 0.03585098 -0.016871281 0.19872108 -0.039632052 -0.015866548 -0.04748162 0.060454465
0.062033035 0.05095848 0.089073576 0.062079042 -0.43269515 0.032476157 -0.13770019 0.08798257
-0.007931453 0.088040814 0.0046015666 0.06182888 0.02110323 -0.049559005 0.14643101 0.07412643
-0.076401025 -0.055781648 -0.022753797 -0.03287646 -0.047307104 -0.042529825 0.33804753 0.17196901
0.09936144 0.038878035 0.03629458 -0.43810457 0.02006746 0.26570237 0.008850463 0.019145736
-0.029662333 0.02603216 -0.4656189 -0.03456275 -0.35310304 0.04813501 -0.052464917 0.045605917
-0.0047865594 0.10687877 0.38728297 -0.08073039 -0.02446489 -0.30496448 0.119746044 0.038708333
0.02934849 -0.02004954 0.10737919 -0.0033462914 0.013931055 -0.39551732 0.04192774 0.032336585
0.10879949 -0.05437857 0.05176394 0.38930652 -0.0075152777 0.03559144 -0.13407432 0.086617984
-0.0063524237 0.044663467 0.038594306 -0.04967219 -0.022732468 0.134904 0.17140305 0.11377823

predict.bias f4 [5]
00000000: f507 efbc 8778 853c 0b82 9e3d f26d 543d
00000010: 8373 d33c
-0.029178599 0.016292823 0.077396475 0.051862665 0.025811916

exp_avg f4 [256, 25]
00000000: 1e75 393b 9615 363b 6a94 2f3b 8055 8337
00000010: 5f9a 2fb9 1e75 393b 91ba 603a 2c09 b33a
00000020: ae74 463a a3ef 4939 1e75 393b bc66 a03a
00000030: 3c80 acbb a277 d239 f80d 18b8 1e75 393b
00000040: 80ca b1b8 8c71 8db9 1af9 463a ad35 1d39
00000050: 1e75 393b 3b7e 233b 94d8 daba 66d8 8d3a
00000060: 9ae0 4339 0000 0000 0000 0000 0000 0000
00000070: 0000 0000 0000 0000 0000 0000 0000 0000
00000080: 0000 0000 0000 0000 0000 0000 0000 0000
00000090: 0000 0000 0000 0000 0000 0000 0000 0000
000000a0: 0000 0000 0000 0000 0000 0000 0000 0000
000000b0: 0000 0000 0000 0000 0000 0000 0000 0000
000000c0: 0000 0000 0000 0000 0000 0000 0000 0000
000000d0: 0000 0000 0000 0000 0000 0000 0000 0000
000000e0: 0000 0000 0000 0000 0000 0000 0000 0000
000000f0: 0000 0000 0000 0000 0000 0000 0000 0000
00000100: 0000 0000 0000 0000 0000 0000 0000 0000
00000110: 0000 0000 0000 0000 0000 0000 0000 0000
00000120: 0000 0000 0000 0000 0000 0000 2157 00bc
00000130: 7b90 00bc 1348 64bb 74cf 54bb 6484 17b8
00000140: 2157 00bc afca 1a3a 4151 03ba 6782 ea3a
00000150: e691 7bb7 2157 00bc 6c3c 0cba c6d0 36bb
00000160: 6f39 a63a 4f37 98b8 2157 00bc 3dd8 99ba
00000170: b3ed a63a d99c aa3a 56f7 65b7 2157 00bc
00000180: ae14 0dbb 3f74 fb3a f2b2 8d3a a255 0238
00000190: 0000 0000 0000 0000 0000 0000 0000 0000
000001a0: 0000 0000 0000 0000 0000 0000 0000 0000
000001b0: 0000 0000 0000 0000 0000 0000 0000 0000
000001c0: 0000 0000 0000 0000 0000 0000 0000 0000
000001d0: 0000 0000 0000 0000 0000 0000 0000 0000
000001e0: 0000 0000 0000 0000 0000 0000 0000 0000
000001f0: 0000 0000 0000 0000 0000 0000 0000 0000
00000200: 0000 0000 0000 0000 0000 0000 0000 0000
00000210: 0000 0000 0000 0000 0000 0000 0000 0000
00000220: 0000 0000 0000 0000 0000 0000 0000 0000
00000230: 0000 0000 0000 0000 0000 0000 0000 0000
00000240: 0000 0000 0000 0000 0000 0000 0000 0000
00000250: 0000 0000 0000 0000 3c46 7a3c b973 733c
00000260: d46c 003c 0638 8d3b 7945 ba38 3c46 7a3c
00000270: c462 273a 5667 763b 74ff 4dba 5eba b7b9
00000280: 3c46 7a3c da9a f83a 09c0 b3bb b897 35ba
00000290: 8a7a 87b9 3c46 7a3c a6df 5a3a 97f3 843b
000002a0: c418 4fba 3044 1bb9 3c46 7a3c 1adb ad3b
000002b0: 5a64 0cbc b470 84b9 8abf 9db8 6a79 cfbb
000002c0: bb42 d0bb 1e95 afba 641a 13bb dcd7 4837
000002d0: 6a79 cfbb faaa b6b9 6479 beba 03a1 503a
000002e0: 725b 9738 6a79 cfbb c0ca abba f4a7 443b
000002f0: 61bb 2a3a 1a7d d038 6a79 cfbb aafa adba
00000300: b8fd 69ba d23e 373a ff6e 0738 6a79 cfbb
00000310: 54fd 0cbb 12bf dfba 1568 743a 0202 b3b7
00000320: c224 59bc 3b2a 45bc 1838 7abc 9678 3abb
00000330: 9c37 d837 c224 59bc 9a96 c1b9 b232 373c
00000340: c646 c4b9 f370 e338 c224 59bc fde8 11bb
00000350: 446e 893c 54f5 efb9 26dd 5639 c224 59bc
00000360: b47d 59ba f48a a83b dc89 b6b9 766f 9c38
00000370: c224 59bc cb19 aebb aa17 8f3c aaa6 b3ba
00000380: 36f4 86b8 0000 0000 0000 0000 0000 0000
00000390: 0000 0000 0000 0000 0000 0000 0000 0000
000003a0: 0000 0000 0000 0000 0000 0000 0000 0000
000003b0: 0000 0000 0000 0000 0000 0000 0000 0000
000003c0: 0000 0000 0000 0000 0000 0000 0000 0000
000003d0: 0000 0000 0000 0000 0000 0000 0000 0000
000003e0: 0000 0000 0000 0000 33a2 12bd 0c83 0dbd
000003f0: e816 89bc 5a5e 39bc 465b f7b8 33a2 12bd
0.0028298567 0.0027783862 0.0026791343 1.5656231e-05 -0.00016746808 0.0028298567 0.00085727224 0.001365935
0.0007570487 0.00019258125 0.0028298567 0.0012237648 -0.00526431 0.00040143455 -3.6252633e-05 0.0028298567
-8.477736e-05 -0.00026978215 0.00075902196 0.00014992683 0.0028298567 0.0024947065 -0.0016696625 0.0010821938
0.0001868032 0.0 0.0 0.0 0.0 0.0 0.0 0.0
0.0 0.0 0.0 0.0 0.0 0.0 0.0 0.0
0.0 0.0 0.0 0.0 0.0 0.0 0.0 0.0
0.0 0.0 0.0 0.0 0.0 0.0 0.0 0.0
0.0 0.0 0.0 0.0 0.0 0.0 0.0 0.0
0.0 0.0 0.0 0.0 0.0 0.0 0.0 0.0
0.0 0.0 0.0 -0.007833273 -0.007846947 -0.0034832999 -0.0032472285 -3.6124504e-05
-0.007833273 0.0005904836 -0.0005009361 0.0017891646 -1.49947355e-05 -0.007833273 -0.000534958 -0.0027895435
0.0012681911 -7.258227e-05 -0.007833273 -0.0011737418 0.0012735635 0.0013016715 -1.3707051e-05 -0.007833273
-0.0021527219 0.0019184424 0.0010810776 3.1074167e-05 0.0 0.0 0.0 0.0
0.0 0.0 0.0 0.0 0.0 0.0 0.0 0.0
0.0 0.0 0.0 0.0 0.0 0.0 0.0 0.0
0.0 0.0 0.0 0.0 0.0 0.0 0.0 0.0
0.0 0.0 0.0 0.0 0.0 0.0 0.0 0.0
0.0 0.0 0.0 0.0 0.0 0.0 0.0 0.0
0.0 0.0 0.0 0.0 0.0 0.0 0.015275534 0.014859133
0.007838447 0.004309657 8.8821114e-05 0.015275534 0.00063852617 0.0037598214 -0.0007858195 -0.00035043334
0.015275534 0.0018967048 -0.005485539 -0.000692721 -0.00025840505 0.015275534 0.0008349366 0.0040573585
-0.00079001137 -0.00014807354 0.015275534 0.00530566 -0.008568848 -0.00025260972 -7.52202e-05 -0.0063316124
-0.006355611 -0.0013395881 -0.002244615 1.1971188e-05 -0.0063316124 -0.00034841133 -0.0014532027 0.0007958563
7.217274e-05 -0.0063316124 -0.0013106689 0.0030007334 0.0006512907 9.941515e-05 -0.0063316124 -0.0013273556
-0.00089260517 0.0006990257 3.228988e-05 -0.0063316124 -0.00215133 -0.0017070493 0.0009323371 -2.1339398e-05
-0.013253393 -0.012033994 -0.015272163 -0.0028453222 2.5775102e-05 -0.013253393 -0.00036924036 0.01118152
-0.00037436764 0.00010845242 -0.013253393 -0.0022264116 0.016776212 -0.00045768416 0.00020491015 -0.013253393
-0.00082966243 0.0051435176 -0.00034816458 7.459421e-05 -0.013253393 -0.0053131334 0.017467339 -0.0013706286
-6.435106e-05 0.0 0.0 0.0 0.0 0.0 0.0 0.0
0.0 0.0 0.0 0.0 0.0 0.0 0.0 0.0
0.0 0.0 0.0 0.0 0.0 0.0 0.0 0.0
0.0 0.0 -0.035799216 -0.034548804 -0.016734555 -0.011313999 -0.00011794879 -0.035799216

exp_avg_sq f4 [256, 25]
00000000: d154 593c 88d8 553c b499 a83b a1ff 8f3a
00000010: 2d4d 9c34 d154 593c e287 fd37 d046 6a3b
00000020: 97b2 0e38 9f3f af35 d154 593c 24ad 8539
00000030: 2231 693a c0a8 0d38 d9ac 4135 d154 593c
00000040: b19e 523a c4c3 1f3b 0ea4 1538 7f9e 2235
00000050: d154 593c 4cf2 003b 1502 cf3a a2bb e737
00000060: 2417 2f35 0000 0000 0000 0000 0000 0000
00000070: 0000 0000 0000 0000 0000 0000 0000 0000
00000080: 0000 0000 0000 0000 0000 0000 0000 0000
00000090: 0000 0000 0000 0000 0000 0000 0000 0000
000000a0: 0000 0000 0000 0000 0000 0000 0000 0000
000000b0: 0000 0000 0000 0000 0000 0000 0000 0000
000000c0: 0000 0000 0000 0000 0000 0000 0000 0000
000000d0: 0000 0000 0000 0000 0000 0000 0000 0000
000000e0: 0000 0000 0000 0000 0000 0000 0000 0000
000000f0: 0000 0000 0000 0000 0000 0000 0000 0000
00000100: 0000 0000 0000 0000 0000 0000 0000 0000
00000110: 0000 0000 0000 0000 0000 0000 0000 0000
00000120: 0000 0000 0000 0000 0000 0000 42b4 263b
00000130: dd09 243b 7892 8639 0298 8e39 0fcd dc33
00000140: 42b4 263b 4f9e 0d37 6633 de39 3039 bf37
00000150: 2b33 f334 42b4 263b 42c5 5f38 6e3b b539
00000160: ff5d b037 cdf5 4334 42b4 263b 183a 3139
00000170: acec 9739 48c5 ac37 5e52 7c34 42b4 263b
00000180: fb5e bd39 0b85 b839 e63a b037 b023 3b34
00000190: 0000 0000 0000 0000 0000 0000 0000 0000
000001a0: 0000 0000 0000 0000 0000 0000 0000 0000
000001b0: 0000 0000 0000 0000 0000 0000 0000 0000
000001c0: 0000 0000 0000 0000 0000 0000 0000 0000
000001d0: 0000 0000 0000 0000 0000 0000 0000 0000
000001e0: 0000 0000 0000 0000 0000 0000 0000 0000
000001f0: 0000 0000 0000 0000 0000 0000 0000 0000
00000200: 0000 0000 0000 0000 0000 0000 0000 0000
00000210: 0000 0000 0000 0000 0000 0000 0000 0000
00000220: 0000 0000 0000 0000 0000 0000 0000 0000
00000230: 0000 0000 0000 0000 0000 0000 0000 0000
00000240: 0000 0000 0000 0000 0000 0000 0000 0000
00000250: 0000 0000 0000 0000 760c 4c3c fba5 4a3c
00000260: 872b 643b 5afe 983a e378 e834 760c 4c3c
00000270: d300 c937 e565 273b 30c3 8d38 39d2 a635
00000280: 760c 4c3c 7f59 3739 7eef 993a 526d 8e38
00000290: c3f0 2a35 760c 4c3c d4cd 333a f435 f63a
000002a0: ccac 8638 ee32 2735 760c 4c3c fa47 da3a
000002b0: bb6c d13a 1eca 8738 0e6d 1e35 427b 623b
000002c0: aef2 603b 1d19 063a daa2 c639 fbb8 d033
000002d0: 427b 623b 37fc b536 a54a 543a 8415 0338
000002e0: b11a c334 427b 623b 3c73 5138 c4d7 8339
000002f0: 9819 0338 0532 2734 427b 623b c226 4a39
00000300: 778a 423a 3a24 f737 ae4c 3134 427b 623b
00000310: db86 ea39 f5a7 063a 5a6b fd37 4893 0c34
00000320: 4ef8 593c eba6 523c b6f4 903b 6451 8d3a
00000330: edca 6834 4ef8 593c ac1d 6338 918c 153b
00000340: 99d4 fe37 f9f3 4935 4ef8 593c c8b9 a539
00000350: 11bf a43a 49a8 d637 c301 1535 4ef8 593c
00000360: acfc 7b3a e753 c13a ae00 f837 e0c3 1c35
00000370: 4ef8 593c bc14 073b 3ce5 c43a e870 e337
00000380: 5da4 fc34 0000 0000 0000 0000 0000 0000
00000390: 0000 0000 0000 0000 0000 0000 0000 0000
000003a0: 0000 0000 0000 0000 0000 0000 0000 0000
000003b0: 0000 0000 0000 0000 0000 0000 0000 0000
000003c0: 0000 0000 0000 0000 0000 0000 0000 0000
000003d0: 0000 0000 0000 0000 0000 0000 0000 0000
000003e0: 0000 0000 0000 0000 e229 c73c 47db c23c
000003f0: c4b7 d33b ae9c 083b 390f 2635 e229 c73c
0.013264851 0.013052113 0.005145276 0.0010986218 2.9113417e-07 0.013264851 3.0223226e-05 0.0035747774
3.4021763e-05 1.3057032e-06 0.013264851 0.00025496737 0.0008895566 3.377418e-05 7.214963e-07 0.013264851
0.0008034511 0.002437816 3.5677156e-05 6.0580345e-07 0.013264851 0.001967567 0.0015793467 2.762472e-05
6.5226254e-07 0.0 0.0 0.0 0.0 0.0 0.0 0.0
0.0 0.0 0.0 0.0 0.0 0.0 0.0 0.0
0.0 0.0 0.0 0.0 0.0 0.0 0.0 0.0
0.0 0.0 0.0 0.0 0.0 0.0 0.0 0.0
0.0 0.0 0.0 0.0 0.0 0.0 0.0 0.0
0.0 0.0 0.0 0.0 0.0 0.0 0.0 0.0
0.0 0.0 0.0 0.0025437032 0.0025030293 0.000256676 0.00027197605 1.0281848e-07
0.0025437032 8.441114e-06 0.00042381434 2.2795604e-05 4.5299507e-07 0.0025437032 5.3351054e-05 0.0003456729
2.1024605e-05 1.8250212e-07 0.0025437032 0.00016901677 0.000289773 2.0595864e-05 2.3499294e-07 0.0025437032
0.00036119655 0.0003519434 2.1008262e-05 1.7428715e-07 0.0 0.0 0.0 0.0
0.0 0.0 0.0 0.0 0.0 0.0 0.0 0.0
0.0 0.0 0.0 0.0 0.0 0.0 0.0 0.0
0.0 0.0 0.0 0.0 0.0 0.0 0.0 0.0
0.0 0.0 0.0 0.0 0.0 0.0 0.0 0.0
0.0 0.0 0.0 0.0 0.0 0.0 0.0 0.0
0.0 0.0 0.0 0.0 0.0 0.0 0.012454143 0.012368674
0.0034815983 0.0011672482 4.3301324e-07 0.012454143 2.3961451e-05 0.0025542912 6.7597604e-05 1.2429147e-06
0.012454143 0.0001748558 0.0011744348 6.79145e-05 6.368029e-07 0.012454143 0.0006858979 0.001878439
6.421804e-05 6.228646e-07 0.012454143 0.0016653531 0.0015977839 6.474949e-05 5.901828e-07 0.003455833
0.0034324336 0.00051154365 0.00037886837 9.7194025e-08 0.003455833 5.423582e-06 0.0008098281 3.1252872e-05
3.6341e-07 0.003455833 4.9936803e-05 0.00025147025 3.125667e-05 1.5571284e-07 0.003455833 0.0001927866
0.00074211456 2.9461564e-05 1.6512305e-07 0.003455833 0.00044732433 0.0005136722 3.020994e-05 1.3092097e-07
0.013303829 0.012857179 0.004423703 0.0010781703 2.1680508e-07 0.013303829 5.414865e-05 0.002281938
3.0378158e-05 7.523336e-07 0.013303829 0.0003160967 0.0012569149 2.5589152e-05 5.550939e-07 0.013303829
0.0009612541 0.0014749736 2.956422e-05 5.8399564e-07 0.013303829 0.0020611724 0.001502193 2.7113085e-05
4.7058248e-07 0.0 0.0 0.0 0.0 0.0 0.0 0.0
0.0 0.0 0.0 0.0 0.0 0.0 0.0 0.0
0.0 0.0 0.0 0.0 0.0 0.0 0.0 0.0
0.0 0.0 0.024311963 0.0237862 0.0064611156 0.0020845341 6.186197e-07 0.024311963

exp_avg f4 [256]
00000000: 2a75 393b 0000 0000 0000 0000 2057 00bc
00000010: 0000 0000 0000 0000 4246 7a3c 6a79 cfbb
00000020: bf24 59bc 0000 0000 33a2 12bd 0000 0000
00000030: 30c5 cfbb b856 303c 0fdc d2bc 1801 863c
00000040: ddf3 153b 5a47 1f02 ecc3 42bc 1b3c d3bc
00000050: 0121 81bc 0000 0000 c01e ab3d 7ee2 7abc
00000060: d4eb 4ebd 05af 933c 0000 0000 e48f 8dbc
00000070: 0000 0000 7852 86bb 78a7 6cbd 0000 0000
00000080: 0cf4 253c fb64 e0bc d0e8 d03c d435 bdbc
00000090: 0000 0000 aec8 b6bc 1a76 97bc 0000 0000
000000a0: 9de4 ec3b d4c4 8dbb c014 23bb 0000 0000
000000b0: c656 1602 5173 5cbc 347b 1bbd 6ce8 eabc
000000c0: 9951 b33a 3b42 50bc c93b 223c 0000 0000
000000d0: dc6f 85bc 160d 00bd 0000 0000 d42d 13bd
000000e0: 5503 83bc 0000 0000 a818 58ba 0000 0000
000000f0: cae6 00bd a9f9 9b3b 18ba ebbc a0e0 5f3b
00000100: 0000 0000 5b4f 3bbc 0000 0000 f62f b1bb
00000110: 080f cb3c eef9 953d f2a6 07bc ed3b 98bc
00000120: 74c7 85ba 0000 0000 382b 3cbb 0000 0000
00000130: 0000 0000 297b 61bd 9882 05bc 5094 06bb
00000140: d82b d83a ea53 8f3a 8c06 1502 2bea 74bc
00000150: 0000 0000 64b8 07bc 582e d9bc 7f95 f7bc
00000160: 0000 0000 6498 a6bc 285d 72bc 9b69 3dbc
00000170: 0000 0000 0000 0000 e647 95bc b232 cf3b
00000180: ba4c 203d 9f80 eebc 8c15 4cbc d633 eebb
00000190: 0000 0000 0000 0000 e3a0 0dbb e8eb 913b
000001a0: 2f3b 88bb 0000 0000 6de9 1802 d6eb e93c
000001b0: 0000 0000 6c0f 10bb 8c36 1e02 68c1 c6bb
000001c0: 0000 0000 0000 0000 3864 78bc 0000 0000
000001d0: 1114 48bc d9d4 ecbc 10d0 aebc a90f 99bc
000001e0: 06fd 78bc 9055 dabb 489e fdb9 4abe 043c
000001f0: 5f6f abbc d0e7 abbc 0000 0000 ce99 723d
00000200: 1e06 1bbd 0000 0000 c8b8 bcbb 3b7a 8abc
00000210: 864d 1702 dbcd 48bc cad0 6c3d 7ed5 c1bc
00000220: 7840 643c fe95 c83c be55 fc3c 871f 863d
00000230: c890 023c 1b36 65bc d6a2 90bc 824f 913c
00000240: 2507 74bd 0000 0000 c14c 47bc d69f fdbc
00000250: 0000 0000 0000 0000 f261 13bd 0a16 ed3c
00000260: 392a 60bc baac 93bc e85c e1bb 0000 0000
00000270: 9586 983c 566c 2b3c 0000 0000 f04f 7eb9
00000280: 8db1 983b 7297 1d02 0b48 05bc 8898 4aba
00000290: 72ea 3b3c c08e 923b a6cc 293c 0000 0000
000002a0: aab0 adbc 65fc 103b 0000 0000 c662 43bd
000002b0: 8032 dfbb 0000 0000 a429 2a3d 323c 86bc
000002c0: 3186 013c d6e3 553c 5e60 123c 3ca3 d8bc
000002d0: 3afd 0a3c 0000 0000 74f0 453d ca73 08bd
000002e0: 0000 0000 d64e e4bc bb60 abbc 3896 413c
000002f0: 0000 0000 a19f 9ebc 9fbe 8bbc 90ae a839
00000300: ba33 1e02 0000 0000 d08d 473c c834 b93a
00000310: 2ba9 673c 96fe 2dbc ac41 52bc 18cb 3a3c
00000320: 0c7d 54bc 6860 ba3b 98fc ad3c 34c1 cc3a
00000330: 3c5f f83b aee4 b13c 0000 0000 d0ed ca3b
00000340: 1094 573a 8add dd3c f9f8 1702 da3b 17bc
00000350: 1778 3dbc aa64 91bc 7af3 d63b 30cf 52ba
00000360: 3596 3cbd 20f3 803b 33c6 063d 0000 0000
00000370: 0000 0000 cda2 85bb 56d5 4dbc a8e0 4bbb
00000380: 9ae4 48bd 9d64 14bd 0000 0000 a61c 773c
00000390: 2c35 323d 8b82 fa3c c23f e7bb 00bf 063c
000003a0: 4636 0fbd c879 8ebc 61f2 283b ef86 edbc
000003b0: 0000 0000 246b 1002 0000 0000 b670 a9b9
000003c0: 262f cabc ec4d b1ba ec76 d53b 0ced 75bb
000003d0: 8c70 49bc 78b7 afba 8ec6 cebc f439 9f3c
000003e0: de1a b4bc 6cbc ec3b 1303 7cbc 60d1 09bd
000003f0: e9db 90bc 0cb2 52bc 765b 77bc 1809 02bb
0.0028298595 0.0 0.0 -0.007833272 0.0 0.0 0.01527554 -0.0063316124
-0.01325339 0.0 -0.035799216 0.0 -0.0063406453 0.010762863 -0.025739698 0.016357943
0.002288095 1.1701952e-37 -0.011887532 -0.025785496 -0.015762808 0.0 0.083554745 -0.015312789
-0.050517872 0.018027792 0.0 -0.017280526 0.0 -0.0040991865 -0.0577769 0.0
0.010128986 -0.027391901 0.025501639 -0.023096956 0.0 -0.022312488 -0.018488932 0.0
0.0072294013 -0.0043264423 -0.0024884194 0.0 1.1045162e-37 -0.013455228 -0.037959293 -0.02867528
0.0013680934 -0.012711103 0.009901949 0.0 -0.01628869 -0.03126248 0.0 -0.035932377
-0.0159928 0.0 -0.000824342 0.0 -0.031470098 0.0047599864 -0.02877526 0.0034160987
0.0 -0.011432494 0.0 -0.0054073287 0.02478744 0.07323061 -0.008279549 -0.018583262
-0.0010206536 0.0 -0.0028712284 0.0 0.0 -0.055049095 -0.008148812 -0.0020535178
0.0016492559 0.0010935043 1.094867e-37 -0.014948408 0.0 -0.008283708 -0.026511356 -0.030222652
0.0 -0.020336337 -0.014792718 -0.011560823 0.0 0.0 -0.01822276 0.006323182
0.039135672 -0.029114066 -0.012456309 -0.007269363 0.0 0.0 -0.0021610789 0.004453171
-0.004157446 0.0 1.1234186e-37 0.028554838 0.0 -0.0021981848 1.1623661e-37 -0.0060655363
0.0 0.0 -0.015160613 0.0 -0.012211815 -0.028910087 -0.021339446 -0.018684225
-0.015197044 -0.006663032 -0.0004837385 0.008102009 -0.02092713 -0.02098456 0.0 0.05922871
-0.03784763 0.0 -0.0057593323 -0.016903987 1.1115976e-37 -0.012256111 0.057816304 -0.023661371
0.013931386 0.024485584 0.030802604 0.06548982 0.007969089 -0.0139899505 -0.017655771 0.017738108
-0.059577126 0.0 -0.012164296 -0.030960005 0.0 0.0 -0.03598208 0.028941173
-0.013681942 -0.018026698 -0.0068775304 0.0 0.018618861 0.010462841 0.0 -0.00024253107
0.0046598376 1.1578001e-37 -0.008134852 -0.00077284174 0.01146947 0.0044725835 0.010363733 0.0
-0.021202404 0.0022123095 0.0 -0.04770162 -0.00681144 0.0 0.041543618 -0.016386125
0.007905529 0.013054809 0.008934109 -0.026445024 0.0084832255 0.0 0.048325017 -0.03331355
0.0 -0.027869623 -0.020920148 0.0118156 0.0 -0.019363226 -0.017058669 0.00032173516
1.1622852e-37 0.0 0.012179807 0.001413011 0.014139454 -0.01061978 -0.01283304 0.01140096
-0.012969267 0.005687762 0.02123861 0.0015621544 0.007579712 0.021715488 0.0 0.0061929002
0.0008223662 0.027083177 1.116518e-37 -0.009230578 -0.011564276 -0.017748196 0.0065597864 -0.00080417376
-0.046041686 0.0039352328 0.03290386 0.0 0.0 -0.0040782453 -0.01256307 -0.0031109247
-0.049046136 -0.036228765 0.0 0.015082514 0.04350774 0.030579826 -0.007057161 0.008224249
-0.03496387 -0.017392054 0.0025779235 -0.028995005 0.0 1.0610197e-37 0.0 -0.00032318168
-0.024680685 -0.0013527251 0.0065144207 -0.0037525324 -0.0122949 -0.0013406118 -0.025241163 0.019436814
-0.021985468 0.00722461 -0.015381592 -0.03364694 -0.017682986 -0.0128598325 -0.01509749 -0.0019841846
