highway_ddqn/ddqn_tuned_reward_change/checkpoint-8.tar (torch, 892250 bytes, 18 tensors)

layers.0.weight f4 [256, 25]
000000 8a c2 49 be 4c b5 c5 3d 28 36 a0 3d c9 24 34 ba
       -0.19703117 0.0965372 0.078228295 -0.00068719365
000010 b0 51 01 bd be bd ab bd 8c 39 2e 3e 3e 9a 3f be
       -0.031572044 -0.083858 0.1701414 -0.18711182
000020 00 82 de 3d 99 40 d0 3d 50 9a 0d bc 17 cd a6 3a
       0.10864639 0.10168571 -0.008642748 0.0012725916
000030 3d 15 ca 3d a7 ca 02 bd 48 48 36 3d e4 34 33 3c
       0.09867332 -0.031931546 0.044502527 0.010937903
000040 9d b9 a5 3c a2 f7 ea bd d4 47 be 3c c7 c3 cc 3d
       0.020230109 -0.114730135 0.02322761 0.09998279
000050 48 cf 19 3e 4e f4 a7 bd eb 5b 53 3d 43 82 ba 3c
       0.15020478 -0.08200894 0.05160133 0.022767192
000060 fa 82 c2 bd 6d c4 0b be 23 df 09 be 58 3f 2e be
       -0.09497638 -0.13649149 -0.13464026 -0.17016351
000070 30 03 86 3d cd 11 f3 3b ed 33 d3 bd ca 53 98 bd
       0.06543577 0.0074178935 -0.103126384 -0.074378565
000080 07 6f 3e 3e 1a 4b 0f 3d 33 28 ec bc 27 88 2e 3d
       0.18597041 0.03498373 -0.028827762 0.042610314
000090 87 bf 6a 3d 10 10 1c 3e fa dc 01 bd 7d 1d 37 3e
       0.05731156 0.15240502 -0.03170488 0.17882343
0000a0 c5 5d 31 be 40 3b 49 3d a7 c2 90 bc e5 26 2c 3e
       -0.17320926 0.04912877 -0.017670942 0.16811712
0000b0 a8 b0 13 be 00 b0 7f 3a 33 8f 6b bc 97 29 8a bd
       -0.14422858 0.0009753704 -0.014377403 -0.06746214
0000c0 00 66 a3 bc 73 24 0a be da ae 11 bd fa 53 18 bd
       -0.019946098 -0.13490467 -0.035567142 -0.03718946
0000d0 da 9b cc 3c 9a ad 12 bc 97 c0 de bd 83 8e a1 bd
       0.02497666 -0.008952523 -0.10876577 -0.0788851
0000e0 33 09 32 bd 4d 53 bd 3d f3 13 95 3d 13 35 57 bd
       -0.043465804 0.09244404 0.07279196 -0.05254085
0000f0 0d ea 06 bd 95 a1 26 be 9a 97 51 3b 73 c0 eb bc
       -0.032938052 -0.16272576 0.003198123 -0.02877829
000100 d0 49 03 3e e0 78 6b bd da f8 67 3d 67 ac 7b bd
       0.12821126 -0.057488322 0.056633808 -0.061443713
000110 4b d8 07 be 5f cd 17 be aa 94 13 be 13 2f fb 3d
       -0.13266103 -0.14824437 -0.1441218 0.12264838
000120 7d 50 f7 bd 1b e2 03 3e 6d f2 5a bd eb 61 f4 bd
       -0.12075899 0.12879221 -0.05345385 -0.11932739
000130 80 d0 da 3d a1 fe d4 3d 0d 8b 11 3e df 99 10 3e
       0.106842995 0.10400129 0.142132 0.14121197
000140 4b af 1a 3e e1 94 13 3d 49 b9 39 3e 8f de ec bd
       0.15105931 0.036030654 0.18137087 -0.11565887
000150 84 70 49 3d b2 0e 02 3e 5b 19 04 3e f5 70 24 3e
       0.04917957 0.12700918 0.12900297 0.16058715
000160 db 68 f4 3c 8f 59 ad bd f4 00 03 be d1 4a 9b 3d
       0.029835155 -0.084643476 -0.12793332 0.075826295
000170 a2 26 47 3e 18 95 0c be b2 2e 19 be 68 2c 2e 3e
       0.19448331 -0.1372875 -0.14959219 0.17009127
000180 b7 41 5c bd 11 02 61 bd db e6 6d bd a4 fb 0d bd
       -0.053773608 -0.05493361 -0.05808149 -0.03466381
000190 cd 6c 43 3b 0d 95 05 be e7 86 3c be 55 e8 2f be
       0.002981949 -0.1304514 -0.18410836 -0.17178471
0001a0 d8 82 1d 3e e0 c1 87 bd 4a 38 4b 3e b3 7c e4 bd
       0.15381944 -0.066287756 0.19845691 -0.11156597
0001b0 dd 87 18 3e 4a e1 03 3e 7d 7b 94 3d 9d 41 c4 bd
       0.14895578 0.1287891 0.07250116 -0.09582827
0001c0 33 a0 35 bd 63 2c cc bd b3 c5 ea bd ea f4 0b be
       -0.04434223 -0.099694036 -0.114634894 -0.13667646
0001d0 c0 73 b8 bd aa 69 4c 3e 8a 4d 23 be 43 58 e3 bd
       -0.090064526 0.19962183 -0.15947548 -0.11100819
0001e0 c8 d0 33 be 00 88 06 bd a0 33 d3 bd 77 39 84 3d
       -0.17560112 -0.032844543 -0.10312581 0.06456273
0001f0 80 92 cd bc 38 6e 0a be 93 a6 1e bd ca 38 94 bd
       -0.02509427 -0.13518608 -0.038733076 -0.07237394
000200 70 07 c1 3d 00 90 dd bd e3 52 a6 bd 2b f2 02 3e
       0.09425247 -0.108184814 -0.08121278 0.12787692
000210 00 bc 1b 3e 93 3e 4b be 7d e1 2e 3e 33 9b 7f bb
       0.15208435 -0.19848089 0.17078204 -0.0039002418
000220 fb 2f 0d be 5a c6 7c bd 87 ae 35 bd 73 5d ad 3c
       -0.13787834 -0.0617126 -0.044355895 0.021162724
000230 ed 51 bd 3d 80 73 21 be 27 4e e0 bc 82 26 0f 3e
       0.09244142 -0.15766716 -0.027381016 0.13979533
000240 05 5e 36 be 0b 59 32 be d3 d8 06 3d 8b 10 33 3e
       -0.17809303 -0.1741678 0.032921623 0.1748678
000250 4d 0a 57 bd d5 9b 09 3e 23 d9 6d 3d c3 8d ae bd
       -0.052500058 0.13438351 0.058068406 -0.08523133
000260 cb 90 4b 3d 3a d8 1e 3b 5b cc a8 3d 3d 58 45 3d
       0.049698632 0.0024237768 0.08242103 0.048179854
000270 17 0c 04 3d d4 34 17 3e d0 96 f8 3d f5 10 ae bc
       0.032238092 0.14766246 0.1213814 -0.02124832
000280 fc a2 9e 3b 13 16 e0 bd dd 5f 06 be 37 b2 30 3e
       0.0048412066 -0.1094171 -0.13122506 0.17255484
000290 c6 f4 3e bd ef 88 19 3d 8b a9 46 bd cc b7 99 bd
       -0.046620153 0.037484106 -0.048501533 -0.075057596
0002a0 67 7c a6 bc ef a1 e0 bc eb 91 f3 3d 99 3a 60 bd
       -0.020322992 -0.027420966 0.11893066 -0.054743383
0002b0 b8 7a 5f 3d 4e b4 27 3e cd eb 04 3e c7 e0 35 3e
       0.054560393 0.16377375 0.12980576 0.17761527
0002c0 73 51 4a 3e 05 79 9e 3d d1 b5 ab 3d 00 2b bd 3c
       0.19757633 0.077379264 0.08384288 0.023091793
0002d0 79 c9 f2 bd 85 d8 8d 3c 41 6d bc bd f6 9f f4 bd
       -0.11854834 0.017315159 -0.09200526 -0.11944573
0002e0 ca 9d df 3b 69 97 52 3d b7 91 97 3d dd e4 5f bd
       0.00682423 0.051413927 0.0740084 -0.05466162
0002f0 ce a3 1f be 52 c1 c1 bd 3f b2 6c 3c 25 b7 a6 3c
       -0.1558983 -0.09460701 0.014446794 0.020351002
000300 6c 1d 9a 3c 2c a4 40 be 75 6b cd 3d 49 28 84 bd
       0.018812858 -0.18812627 0.100302614 -0.06452996
000310 62 6d da 3c b5 ef 92 3d a1 2a 00 be 99 94 1c 3d
       0.026663486 0.07174627 -0.12516262 0.03822765
000320 f9 f1 34 3e 77 05 17 3e 6d 75 23 be b5 ff a9 3d
       0.1767043 0.14748178 -0.15962763 0.08300725
000330 9d 8d fb 3d 73 96 6d 3c 3f 45 f2 bd 99 14 e9 3d
       0.1228287 0.014501202 -0.11829614 0.11380882
000340 5f 70 45 3d 1b f6 25 3e 65 7e f3 3d 3e 27 07 3e
       0.04820287 0.16207163 0.11889342 0.13198563
000350 3c 1f 1e 3c 38 c1 ca 3c cd 78 c6 3c 52 58 a1 bb
       0.009651002 0.024750337 0.024227524 -0.0049238587
000360 19 fe 30 3e 34 cf b3 3c 30 2d 4a bd b3 20 3b 3e
       0.1728443 0.021949388 -0.0493595 0.18274193
000370 1e 6c ef 3d ba 2f 07 bd 0e f2 c6 bd 74 3a b8 3c
       0.116905436 -0.0330045 -0.09714137 0.02248881
000380 42 66 3c be ed 78 40 3d 7a b6 eb bd 8a 4b 31 3e
       -0.18398383 0.046990324 -0.11509414 0.17313972
000390 73 d0 0f be 3a 28 69 3d 8d d6 f9 bd 30 7f 06 be
       -0.14044361 0.05692313 -0.121991254 -0.13134456
0003a0 df df 19 3e a7 cc c6 bd c7 51 a8 bd 9a 8c 0a bc
       0.15026806 -0.09707003 -0.08218723 -0.008456374
0003b0 dd 73 8e bd 00 50 61 ba ba 64 73 bd fa 9b 33 bd
       -0.06955693 -0.000859499 -0.059422232 -0.043849923
0003c0 03 23 bb bd 4a 68 c3 bd e7 90 44 bc 5f 2c 4b be
       -0.09137537 -0.09541376 -0.011997438 -0.19841145
0003d0 d7 d7 a5 bd e7 90 96 bc 60 f0 8c 3d 2a 47 45 3e
       -0.08097809 -0.018379642 0.068817854 0.19265428
0003e0 bd cc 3a 3e 3d 05 a4 3d 6e 9e 0f bd b2 c8 b8 bd
       0.18242164 0.080088116 -0.0350632 -0.090226546
0003f0 b1 c2 18 3c a8 2b 0b be 6a 99 ff bd 0f ca 03 3e
       0.009323762 -0.13590872 -0.12480433 0.12870048

layers.0.bias f4 [256]
000000 be f3 0e 3e c0 e6 98 bc 20 7c 37 3e fe 4a 3d bd
       0.13960168 -0.018664718 0.17918444 -0.046214096
000010 60 de a2 3d 1d f5 87 bd ff 1a 21 be 89 5a 24 3d
       0.07952571 -0.066385485 -0.15732954 0.040125404
000020 f4 59 09 3e f0 50 8f 3d 63 bf 0d be 13 be 5b 3d
       0.1341322 0.069978595 -0.1384254 0.053648066
000030 45 05 37 be 47 bd 4f be d6 2c 05 3d 1c e3 09 3e
       -0.17873104 -0.20287047 0.032513462 0.13465542
000040 45 3f 09 3e 43 15 c6 bd d6 4d d5 3c 1d 93 4f 3c
       0.13403042 -0.09672024 0.026038092 0.012669352
000050 e0 5f f4 bd 27 57 2c be 00 65 f8 3c 00 e8 07 3d
       -0.11932349 -0.16830121 0.030321598 0.033180237
000060 d0 a8 05 3d 75 e8 98 bd 53 18 c3 bd 99 f9 0e be
       0.032631695 -0.07466213 -0.09526124 -0.13962401
000070 60 c3 46 bd 18 55 3b 3e e2 81 8e bd cf 40 2e 3e
       -0.048526168 0.1829418 -0.06958367 0.1701691
000080 3a f0 34 3e 7f 11 1b 3d 8e 21 3a 3e 72 d6 18 be
       0.17669764 0.037858482 0.18176863 -0.14925554
000090 27 47 89 bd f6 1b ec bc ea 76 ef bd 60 f6 e4 bd
       -0.06703024 -0.028821927 -0.11692603 -0.11179805
0000a0 10 67 55 bc 61 58 83 bd bd 78 d4 bd e7 fe 26 be
       -0.01302506 -0.06413341 -0.103745915 -0.16308175
0000b0 33 c3 d1 ba 46 69 f2 bd d4 cd e9 bc 9a a8 51 bc
       -0.0016003608 -0.118364856 -0.02854053 -0.012796545
0000c0 7e 0e 3d 3e f6 9d a5 3d a6 59 23 3e ff 26 14 be
       0.1846256 0.08086769 0.15952167 -0.14468001
0000d0 c3 c0 7b bd 3c 48 00 be 47 ea 46 3e e9 3d db 3d
       -0.06146313 -0.12527555 0.19425307 0.10705168
0000e0 e5 8a 89 3c 10 3a fa bd e8 fd 82 bc cd 15 2a be
       0.016789863 -0.12218106 -0.015990213 -0.16609879
0000f0 b2 14 3c bd 64 16 6c bd 88 1a 81 3c d8 86 7a bd
       -0.045918174 -0.05763854 0.015759721 -0.061163753
000100 fb 56 37 be 97 88 2c 3d 1a 04 3f be 37 f0 8e 3d
       -0.17904274 0.04212245 -0.18653908 0.06979411
000110 00 1e 9b bd 7a 60 38 bd af cd 30 3e a8 1d af bc
       -0.075740814 -0.045013882 0.17265962 -0.021376446
000120 10 67 91 bd ea 1a c8 3d ab 25 a9 3d d2 a9 2d be
       -0.07099736 0.097707585 0.08259138 -0.16959313
000130 2a df 41 be 5f 1b 09 3d b4 e1 eb bd 76 8d ae bc
       -0.18932787 0.03347337 -0.11517659 -0.021307688
000140 35 03 43 3b e9 00 fa bc d7 f2 4a 3e 79 6c e6 bd
       0.002975655 -0.030518012 0.19819199 -0.11251158
000150 60 75 44 3d 3b 3f a1 bc a1 03 08 3e c1 97 dd 3d
       0.0479635 -0.019683471 0.13282634 0.108199604
000160 d7 0a 9b bd 5c 2a 4a 3b c2 78 0b 3e 09 8b 09 3e
       -0.07570427 0.0030848002 0.13620284 0.13431944
000170 9a 7b ac bd 77 7c b2 3d 96 d4 b7 3b fc 9b bd bd
       -0.084220126 0.08715146 0.005610059 -0.09258267
000180 00 c8 18 3e 10 75 1f 3c d6 4d cf bd 38 14 e1 bc
       0.14920044 0.0097325 -0.10122268 -0.027475461
000190 9a 79 f8 3d 3f 05 46 3e d7 16 16 be 36 08 56 bd
       0.12132569 0.19337939 -0.1465715 -0.052253924
0001a0 67 7c 37 3d 67 96 cf bb 3a 47 dc bd 59 cf 1c 3e
       0.044796374 -0.006335068 -0.10755773 0.15313472
0001b0 73 77 10 3d d0 3e 2f 3e 20 f9 29 bd 7f a0 3f 3e
       0.035270166 0.17113805 -0.04149735 0.18713568
0001c0 9d ef bc bd 77 61 a4 3d 81 0a 82 3d cd e3 a4 bc
       -0.0922539 0.080264024 0.0634966 -0.020128155
0001d0 bc 6c f7 3b f1 63 15 bd 42 5a b7 bd 48 08 4f 3e
       0.007550804 -0.036472265 -0.08952762 0.20218003
0001e0 e7 f2 01 3e 00 99 fd bd 75 0a 48 bc 2a d5 d8 bc
       0.12690316 -0.12382698 -0.012209524 -0.026468832
0001f0 7f c6 42 3e 81 4e 06 3e c3 25 8c bd 67 fc a3 bd
       0.19021033 0.13115884 -0.0684314 -0.08007126
000200 ce 8c ac 3d 73 98 44 3e b6 cd 71 3d b7 cb da bc
       0.08425294 0.1919878 0.059034072 -0.026708467
000210 d7 10 d9 bd 9f de 0d bd 6d 92 1d 3e e2 c6 bf 3b
       -0.10598915 -0.034636136 0.15387888 0.005852566
000220 3b f0 aa bd 72 69 a4 3d 46 2c d8 bd 26 bc 38 be
       -0.083466016 0.080279246 -0.105553195 -0.18040523
000230 eb 1a f5 bd fa 47 44 3e 8e 92 f2 3d 77 91 02 3d
       -0.11968025 0.19168082 0.11844359 0.031877007
000240 41 63 42 3e d3 48 21 be ff 5a 6f 3d cb 86 c9 3d
       0.18983175 -0.15750436 0.05843639 0.09840163
000250 1d e6 9d bd 4a c3 22 be a6 cf 3c be e2 00 2f be
       -0.07709906 -0.1589481 -0.18438587 -0.1709018
000260 7b 0e 18 be 0c fb 2c bd ad 58 06 3e 53 cd 4e 3d
       -0.14849274 -0.042231604 0.13119765 0.05048878
000270 7c f4 41 3e 03 31 da bd 00 77 ab 3b a5 5b 1d 3e
       0.1894092 -0.106538795 0.0052326918 0.15366991
000280 23 85 f9 3d 5e b7 1e 3d ad b7 e0 3c 90 83 ac 3d
       0.12183597 0.03874909 0.027431333 0.08423531
000290 33 9e bd 3d 41 93 88 3d 4c 2f ee bd 00 47 8a bd
       0.0925869 0.066687115 -0.11630115 -0.067518234
0002a0 4f a4 c3 3d b6 f0 67 bd da 18 c3 bd 00 a8 3e be
       0.09552824 -0.056626044 -0.095262244 -0.18618774
0002b0 06 34 16 be bd 3c 88 bd b7 9e 0c 3e 5e df 07 3e
       -0.14668283 -0.0665221 0.1373242 0.13268802
0002c0 7b ab 14 be 72 ce 2b 3e 94 3c 2b be a4 72 c6 bd
       -0.1451854 0.16777971 -0.16722327 -0.09689835
0002d0 f7 75 0d 3e 80 50 0d 3c a5 a1 a6 bd a5 7f e1 bc
       0.13814531 0.00862515 -0.081363 -0.027526686
0002e0 a3 2b f6 bd 8e 5f 28 3e 10 19 14 3e 4b 75 cd 3d
       -0.12020042 0.16442701 0.14462686 0.100321375
0002f0 ad f2 eb bd b9 d2 42 3e 97 8e fd 3d 9e 63 b6 3d
       -0.11520896 0.19025697 0.123807125 0.08905719
000300 a8 d1 1c 3e 9a 73 51 bc 44 b4 18 3d 0b 22 c8 bc
       0.15314353 -0.012783909 0.03728129 -0.024430295
000310 aa 5e d5 bb 2a ad bb 3d b8 fe 45 be ee 96 21 bd
       -0.006511529 0.09163888 -0.19335449 -0.03945058
000320 fd 9a 35 3e 0a 73 31 3e 83 a3 14 3e e2 56 e1 bb
       0.17734905 0.1732904 0.145155 -0.0068768123
000330 00 9b 5a bc d7 47 35 be a0 9c 8f bd 54 18 2a be
       -0.013342619 -0.17703186 -0.07012296 -0.16610843
000340 49 aa 4d 3e 80 a2 a5 bc 00 d0 ab bb 85 bd 44 3e
       0.2008449 -0.020219088 -0.0052433014 0.19212921
000350 e2 eb c5 bd 20 48 f0 bd a5 ec 0c be 6d 34 cd bd
       -0.09664132 -0.11732507 -0.13762148 -0.10019765
000360 3f 62 cc bd 69 23 e1 3c fe 42 5b bd e7 fd 47 be
       -0.099796765 0.027482705 -0.053530686 -0.1953045
000370 7a b9 44 be 80 59 f0 bd 3a c9 2a 3e 70 4e 3a be
       -0.19211379 -0.11735821 0.16678324 -0.18193984
000380 91 58 c7 bd 78 49 06 3e 2f 50 4a be aa 5c b4 bd
       -0.097336896 0.13113964 -0.1975715 -0.08806737
000390 88 42 0d 3e 74 f7 93 3d 7b e4 47 3e 2c 43 37 3e
       0.13794911 0.07224932 0.19520752 0.17896718
0003a0 7c 3d 2c 3e 4d df e2 bd 8e c7 d5 3b 76 21 2f be
       0.1682033 -0.110777475 0.006524033 -0.17102608
0003b0 9d 25 d0 bd 4d 75 69 bd fb b9 2e be e3 88 40 be
       -0.10163424 -0.056996632 -0.17063133 -0.18802218
0003c0 c7 91 19 be bb 13 53 3d fd 78 cd 3d d7 7d 2f be
       -0.14997016 0.05153249 0.10032842 -0.17137848
0003d0 26 c5 19 3e 59 2e 09 bc ab 7f 43 3c a8 c1 03 bc
       0.15016612 -0.008372867 0.011932294 -0.008041777
0003e0 9c 57 cb 3d 88 3c 10 3d cb f3 b6 3d 11 96 94 3c
       0.099288195 0.035213977 0.089332186 0.018137963
0003f0 ac 06 e1 3a 36 77 d5 3d 6b 7a 0b 3e ed 35 20 be
       0.0017168126 0.10423128 0.13620917 -0.15645571

layers.1.weight f4 [256, 256]
000000 1e ad f2 3c f6 bf 5a 3d 36 a2 32 3d 1a b4 34 3b
       0.029623564 0.053405724 0.043611728 0.002757317
000010 80 dc 2e 3a 12 6e 7e bd a5 2d c8 3c 2d 42 22 bd
       0.00066704303 -0.06211669 0.024435828 -0.03961389
000020 e5 6b b1 bc 6e e2 75 3d 00 38 fb 3c b6 70 63 bd
       -0.021657893 0.060030393 0.030666351 -0.05552741
000030 c3 61 13 bd d3 75 20 bc a8 3e 14 bd 77 5c 8a 3d
       -0.035981905 -0.0097937165 -0.036192566 0.067559175
000040 12 6c 65 bd 6e 86 34 3d 3f 41 16 bc 09 ff 8a bc
       -0.056011267 0.044073515 -0.009170829 -0.016967313
000050 88 95 12 3d d8 f6 70 bd 68 13 30 bd 50 d8 0f bb
       0.035787135 -0.05882916 -0.042987257 -0.0021949
000060 55 01 4d 3b 77 b3 d3 bc 20 5b 8e bc 90 6d 59 3c
       0.0031281312 -0.025842411 -0.017377436 0.013270751
000070 0a 01 59 3d 0f bb fa 3c ad 90 5b 3c 82 c0 0f 3d
       0.052979507 0.030606775 0.013401193 0.0350957
000080 78 88 48 bd 07 6e 68 3d 74 cb 65 3d 7b c4 0c 3c
       -0.04895827 0.056745555 0.05610223 0.0085917665
000090 50 de 7b 3d 51 28 cb 3c a8 7b be 3b 58 ff 06 3d
       0.06149131 0.024799498 0.005813081 0.03295836
0000a0 8a 07 e9 bc d6 c0 04 bd f5 ec 8f 3b 6c a5 80 bc
       -0.028445978 -0.032410465 0.004392261 -0.01570388
0000b0 10 4a 77 bc 10 23 8b bc 9d e8 33 bc ee 52 70 3d
       -0.0150933415 -0.016984493 -0.010980752 0.058672838
0000c0 a8 f7 d4 3c d4 d8 84 3d 00 16 d7 bc b2 9b 5a bd
       0.025996998 0.06486669 -0.026255608 -0.05337114
0000d0 c0 0e 59 bd 7d 38 75 3d 50 92 96 3b a3 4e 13 bc
       -0.052992582 0.059868325 0.0045950785 -0.008990916
0000e0 f8 4e 3c 3d 34 96 51 bd bb 31 4c bd 6c 81 33 bd
       0.045973748 -0.051168635 -0.049852114 -0.0438246
0000f0 a6 0d c8 3c e1 a8 68 bd 8c 80 96 3c 51 58 32 bd
       0.02442057 -0.05680168 0.018371843 -0.043541256
000100 38 ac 82 3c c8 e4 5c 3d 38 c0 0e 3c 0f db 98 bc
       0.01595126 0.05392912 0.008712821 -0.018659143
000110 ea d5 e3 bb 68 1e 11 bd f0 89 78 bd c5 f4 66 3d
       -0.006952991 -0.03542939 -0.060678422 0.056385774
000120 75 f1 3d bb 40 2e 96 bc e7 86 17 bd f0 4c 5a 3d
       -0.002898303 -0.0183326 -0.036993887 0.05329603
000130 50 fe ea 3b 3c d4 51 3d 41 c7 80 bd a4 76 79 bc
       0.0071714297 0.051227793 -0.06288005 -0.01522604
000140 c0 4f 2b bd 04 0f 95 bc fa 88 56 3d 61 df 94 bc
       -0.041824102 -0.018195637 0.052376725 -0.018172922
000150 c4 39 bd 3c 62 ab 5a bd de 9d 87 3d 3b 8d 2d bd
       0.023098834 -0.0533861 0.06621908 -0.042371016
000160 78 c2 10 bc 4b 6d 01 bd 20 30 ca bc 20 8b 0d bd
       -0.008835427 -0.03159837 -0.02468115 -0.034556508
000170 42 99 50 3d 3e 61 1b 3d 3e 74 b0 ba 3c e6 0b 3c
       0.050927408 0.037934534 -0.0013462377 0.008538779
000180 24 af 41 3d 9d dd 53 bd 19 48 25 bc 9f e5 50 3d
       0.047286168 -0.05172502 -0.01008799 0.051000234
000190 0c 2e 9f bc 88 37 59 3d 5f d1 f2 3b 00 d7 ca 3c
       -0.019431137 0.053031474 0.007410213 0.024760723
0001a0 0c 03 e8 bc 80 ff c9 3b 4e 01 01 3d 93 01 35 3d
       -0.028321765 0.006164491 0.031495385 0.044190954
0001b0 88 6c 47 3d 52 a8 bc 3b 2c a6 d2 bc 81 42 82 3d
       0.048687488 0.00575737 -0.025714003 0.06360341
0001c0 12 42 35 bd b2 1e 52 3d 8e 06 16 bd 20 12 16 3c
       -0.044252463 0.051298805 -0.036627345 0.009159595
0001d0 57 72 d2 3c 1e db 9d bb 41 11 37 3d 70 fc 2d bd
       0.025689287 -0.0048173806 0.04469419 -0.04247707
0001e0 28 a3 fb 3c d6 d2 1f bd 18 bd 0f bc a0 58 8a bd
       0.030717447 -0.03901943 -0.008773111 -0.06755185
0001f0 08 4d 9e 3c ef ad 99 ba 48 99 83 bc c5 0f 5e bd
       0.01932384 -0.001172481 -0.016064301 -0.054214258
000200 e7 8f 08 bd d2 42 69 bd 0e df c4 3c 0c 3f 6b bd
       -0.03334036 -0.05694849 0.024032142 -0.057433173
000210 60 fc 06 3b 41 87 c5 3c 5c 5a 14 3d 4e 59 44 3c
       0.0020597205 0.024112346 0.036218986 0.0119841825
000220 0c 84 1b bd ff e8 33 3d e4 7a 5d 3d cb 73 16 3d
       -0.037967727 0.043923374 0.054072276 0.036731523
000230 e1 70 34 3c b1 fd 3c 3d 36 7f 73 bc c9 04 02 3c
       0.011013241 0.046140376 -0.014861872 0.007935711
000240 c6 ff c2 3c 12 79 0a 3d a2 09 22 3d 75 83 47 3d
       0.023803603 0.033806868 0.039559968 0.04870935
000250 58 08 ac bc 98 81 cd bc f5 bf 26 3d 88 af c9 3c
       -0.021000072 -0.02508621 0.04071041 0.024619833
000260 f9 dd 2c 3d 17 d5 2f bd 73 f2 0c 3d 00 0d 9c 39
       0.042203877 -0.042927828 0.034410905 0.00029764324
000270 9a 0c 62 bd a6 a1 4c 3d 8e 7e 0d bd 59 82 6a 3a
       -0.0551878 0.049958847 -0.03454452 0.0008945815
000280 81 cf 78 bd 57 a9 95 3c 87 ae dd bc d0 20 08 3d
       -0.060744766 0.018269224 -0.02706076 0.033234417
000290 58 12 30 3d 22 05 4a bc 7d 32 b1 bc 78 15 d3 3c
       0.042986244 -0.012330325 -0.02163052 0.025767073
0002a0 a0 8e bc bb f3 41 85 bc b4 98 87 bc 10 e4 1a 3d
       -0.005754307 -0.016266799 -0.016552307 0.037815154
0002b0 a4 3f 48 3d 5c 69 d3 3c 60 d7 03 bd 5c 35 1f bc
       0.048888817 0.025807075 -0.03218782 -0.009717312
0002c0 1e 5e 53 3d 7c 2e 3e 3d 34 c5 a0 bc 00 e3 97 ba
       0.05160343 0.04643105 -0.019625284 -0.0011588037
0002d0 0c c8 7c 3d 02 ec 03 3d ad 83 29 bc fb b1 e2 3a
       0.061714217 0.032207496 -0.010346335 0.0017295474
0002e0 50 05 cd 3b 65 e6 4e bd 37 bf db bc ef 9d 28 bd
       0.006256737 -0.05051269 -0.026824577 -0.041166242
0002f0 b8 66 0d bc 52 62 2a 3d 4e 97 02 3d d0 3a 8c 3c
       -0.008630447 0.04159767 0.031882577 0.017117888
000300 58 3a f0 bc ec 57 bc 3c 63 42 17 3b fb fd dc bc
       -0.029324695 0.022991143 0.002308034 -0.026976576
000310 d9 5f 23 3d 46 19 f1 3c d0 80 f6 3c 7f 32 27 bb
       0.03988633 0.029430997 0.03009072 -0.0025512276
000320 06 cf b9 bc 3a 51 e3 3c e0 52 20 bd 91 96 d1 b9
       -0.022681724 0.027748693 -0.039141536 -0.00039975767
000330 a3 d9 fe bc be c8 13 3c a8 de 47 3c 05 e2 ef 3c
       -0.031109637 0.009020029 0.0121990815 0.02928258
000340 67 c0 15 3d 38 b9 7f bc 70 51 9a 3c 88 f0 27 3d
       0.036560442 -0.015608124 0.01883766 0.041000873
000350 cf 5d ef 3c 76 56 7b bd 10 8e a1 3c 5c bc f5 3c
       0.029219536 -0.061361752 0.019721061 0.029997043
000360 e9 22 24 3d 75 b5 f7 bc bc 94 b6 bb f8 37 e9 bc
       0.040072355 -0.030237893 -0.0055719297 -0.02846907
000370 22 ef 3b 3d f8 94 a3 bc 7e db 79 3d 83 35 5a bd
       0.04588235 -0.019968495 0.06100034 -0.05327369
000380 13 df 5d bd 04 d2 ef 3c 3c e8 02 3d c9 09 61 3d
       -0.05416782 0.029274948 0.031959757 0.054940972
000390 f2 34 38 bd 62 08 8b bc e5 e5 53 3c 15 ad 8c 3c
       -0.044972368 -0.01697177 0.012933229 0.017172376
0003a0 54 0a 48 bd e7 82 05 bc 2d 38 3c bd c1 7e 70 3c
       -0.048837975 -0.008148885 -0.04595201 0.014678658
0003b0 96 0b 20 bd 5e 01 3b 3d 34 e2 a7 3c 1a 4f 46 bd
       -0.03907355 0.0456556 0.020493604 -0.04841528
0003c0 be ef 58 3d ad 72 4f bd bc 3b d2 3c 67 f2 cc bc
       0.05296301 -0.050646473 0.02566325 -0.02501793
0003d0 4d 6a 59 bd 63 f9 16 bc cd 6e 65 3d ea 7b 49 bd
       -0.053079892 -0.009214732 0.05601387 -0.04919044
0003e0 de 0f af 3c eb c5 0b 3d 65 e0 6b bc b9 20 b3 3b
       0.02136987 0.034124296 -0.014396762 0.0054665473
0003f0 c8 5d 4b bc 5f d7 2f bd 66 7d 5f 3d ac 43 65 bd
       -0.012412496 -0.042930003 0.05456295 -0.05597274

layers.1.bias f4 [256]
000000 cc 62 c1 3b 33 de 3b 3d 34 cd 66 bd d7 05 79 ba
       0.00590167 0.045866203 -0.05634804 -0.00094994664
000010 06 35 f7 3c 69 a2 8c bc cc 8c e1 bc e5 2a 15 bd
       0.03017665 -0.017167287 -0.027532957 -0.03641786
000020 c7 b3 4a bd 4b 57 7d bc 30 d3 eb bc 26 a3 23 bd
       -0.049487855 -0.015462707 -0.028787225 -0.039950512
000030 38 18 7e bd 40 9e e7 3a 58 a9 61 3d 08 9b da 3c
       -0.062034816 0.0017671064 0.05509314 0.026685253
000040 c8 2f 05 3d 26 91 14 bd e8 5d fc bb b4 b4 33 3d
       0.03251627 -0.036271237 -0.007701624 0.043873504
000050 00 62 d9 39 db a0 43 bd 6b f4 3a 3d 38 ca 6f bc
       0.0004146248 -0.047760826 0.04564325 -0.014635615
000060 17 c4 0a bd 5d 48 61 3c cd 72 df bc 4c 11 5c 3d
       -0.033878412 0.013750163 -0.027276421 0.053727433
000070 be 6c 1b bd 24 03 b4 bc 80 74 67 bc 24 17 63 bd
       -0.0379455 -0.021974154 -0.014126897 -0.05544199
000080 0f aa 25 bc dc 02 43 3d cc 69 bb bc c3 f1 5d bc
       -0.010111346 0.04761015 -0.022877596 -0.01354641
000090 f8 90 4f bb 9c fd 07 bd c9 5d 22 3d 91 77 11 3d
       -0.0031672101 -0.033200845 0.03964022 0.035514418
0000a0 34 36 a1 3c 8a 43 6d bc 22 ae 18 bd 51 27 44 bd
       0.019679166 -0.014481435 -0.03727544 -0.047889058
0000b0 6b be d8 bc 61 cd 41 3c 5b bf 5a 3d 00 f2 44 3d
       -0.026457986 0.011828751 0.053405147 0.04808235
0000c0 88 a0 61 3d de 23 47 bd 94 1e 35 bd f3 11 30 3d
       0.055084735 -0.04861819 -0.044218615 0.042985868
0000d0 90 b7 f1 3b 81 95 13 bc 12 d7 9d 3c ec ae d2 bc
       0.0073766187 -0.0090078125 0.019267593 -0.025718175
0000e0 e5 7f 31 3d df 86 88 3c 57 5a d0 3b 97 78 d0 3c
       0.04333486 0.016665874 0.0063584256 0.025448127
0000f0 b7 42 6b 3d c1 87 75 bd f4 d0 a5 bb 0b 60 b0 3c
       0.05743667 -0.05994392 -0.0050603095 0.021530172
000100 ac 13 55 bd 32 e5 13 3d b4 b8 73 bd 95 36 cc bc
       -0.052020714 0.03610725 -0.05950232 -0.02492837
000110 cc 40 fd bc a7 d5 dd 3c c4 9e e8 bc ee ba 48 3d
       -0.030914687 0.027079416 -0.028396018 0.049006395
000120 35 04 34 3c 57 b2 8b 3d 56 30 6c bd c5 a9 77 3d
       0.010987331 0.06821125 -0.057663284 0.06046464
000130 ea e7 41 bc 99 9b 01 bd 12 25 78 bd 80 5d 31 3d
       -0.011835078 -0.03164253 -0.060582228 0.04330206
000140 8f 22 1a 3a 3c f6 b2 3c 7a 4f 21 3d b8 a8 a0 3c
       0.00058797834 0.02184593 0.039382435 0.019611701
000150 a8 22 58 3d b6 dc 69 3a 38 39 94 bc 21 d4 22 3d
       0.052767426 0.0008921133 -0.01809369 0.039753083
000160 ac d4 06 bd 09 cd 1c bd 6e 64 1f bd 78 fd 38 3c
       -0.032917663 -0.038281474 -0.038914137 0.0112909
000170 20 ba 92 3c 69 39 04 bd da 2f 00 bd 30 66 7f bd
       0.017911017 -0.032281313 -0.031295635 -0.062353313
000180 f4 49 4a bd f2 f3 94 3c 66 f0 5c 3d 30 5f 93 bc
       -0.049386933 0.018182728 0.0539402 -0.017989725
000190 3b 86 c1 3c b7 49 02 3d 28 58 87 bc 2b 4c 1f bd
       0.023623576 0.03180858 -0.016521528 -0.038891
0001a0 84 bc 69 3c 62 ef 23 3d a5 39 7c 3d 28 0f 92 ba
       0.014266137 0.040023215 0.06157841 -0.0011143433
0001b0 f4 44 41 3d 30 53 d3 3b cc 8d 63 3c 47 83 5a bd
       0.0471849 0.0064491257 0.0138887875 -0.053347852
0001c0 bf f0 71 bb c0 d5 ba 3c 78 c9 f7 bb 7a b8 cc 3c
       -0.0036917177 0.022807002 -0.0075618587 0.024990309
0001d0 10 5d bc 3b a8 05 32 3c 9a f5 6f bc a2 3b bd bc
       0.0057483986 0.010865606 -0.014645958 -0.023099724
0001e0 14 e5 e2 bb df 82 82 3d bb dd 76 3b 12 36 24 bd
       -0.006924281 0.06372618 0.0037668783 -0.040090628
0001f0 4c e2 b4 3c 50 81 95 bc 77 dc a8 3b 4f fc 22 bd
       0.022080563 -0.018250138 0.0051532346 -0.0397914
000200 53 5d 53 3c 9c 92 fc 3c be ae 78 bd 4c bc 29 bd
       0.012900668 0.030831628 -0.060713522 -0.04143934
000210 5b a3 bd bc fb 73 14 bd ce 19 dc bb 80 a8 fa bc
       -0.023149183 -0.03624342 -0.0067169433 -0.030597925
000220 d0 eb f8 bb 33 32 1b bd 2e 90 93 bc 7f ff 7e 3d
       -0.0075964704 -0.03788967 -0.018013086 0.06225538
000230 4d 2d 29 bd ce 71 12 3c 14 56 23 bd b2 dc dc 3c
       -0.041302968 0.008938266 -0.039877012 0.026960704
000240 03 bb 31 bd 98 57 54 bc 8d 88 7f 3c 6a 71 4a bb
       -0.04339124 -0.012960337 0.015596521 -0.0030890354
000250 28 0f 63 3d 0d e6 61 bc 80 22 34 bc a6 43 7a 3d
       0.055434376 -0.013787759 -0.010994554 0.06109967
000260 64 2a a6 3c f0 44 69 bc 0c a0 6d bd bd 7f 61 3d
       0.020283885 -0.014237627 -0.05801396 0.05505346
000270 14 86 4f bd 60 ba 84 bc 24 30 51 3d 8c c9 a7 3c
       -0.050664976 -0.016202152 0.0510713 0.020481847
000280 9c 57 a9 bc e7 98 5e bd 85 f0 5a bd d8 10 7f bc
       -0.020671658 -0.054345038 -0.053452034 -0.015567981
000290 9b b5 65 3d 56 6e 3c bd ee f6 3d bd 96 fd 0b ba
       0.056081396 -0.046003662 -0.04637807 -0.00053402164
0002a0 9d 34 65 3d 15 bb 80 3d ec 7e 2c 3d 90 da e1 3b
       0.05595838 0.06285683 0.04211323 0.0068925098
0002b0 bf 5a 0c bd 52 62 19 bd 8e be 70 bd a0 7c 58 bb
       -0.03426623 -0.03744728 -0.058775477 -0.0033033267
0002c0 1e c1 f2 bc ff 2a 0c bd d8 00 3e 3a 74 b4 70 3d
       -0.029633101 -0.03422069 0.00072480505 0.058765844
0002d0 d2 e0 79 3d 50 2a 6d 3c c4 a6 41 bd 42 5f 05 bd
       0.06100542 0.01447542 -0.04727818 -0.032561548
0002e0 b4 a2 29 bd a7 c4 10 3d 8b de 25 bc 78 eb 16 bc
       -0.04141493 0.035343792 -0.010123859 -0.009211414
0002f0 6e 5f 4b 3d ee 92 5f bc ef 11 d5 bc 39 30 0e 3c
       0.049651556 -0.013645871 -0.026009528 0.008678489
000300 aa d7 64 3a 7b 67 ad 3c 06 ca 9b 3c 97 f1 d7 3c
       0.0008729646 0.021167507 0.01901723 0.026360316
000310 40 38 6e bd 1c 7f 07 bd c4 b3 7f 3d c7 04 67 bd
       -0.058159113 -0.033080205 0.062427297 -0.05640104
000320 cd 38 19 bd 63 83 7d bc e0 b2 09 bb 0e d4 79 bd
       -0.037407685 -0.01547322 -0.0021011159 -0.060993247
000330 30 80 42 bd 06 d1 16 bd 31 da f4 3c 48 b4 54 bc
       -0.04748553 -0.036820434 0.029889198 -0.0129824355
000340 e0 83 41 3d a0 ee 0c bc 24 2b d7 bc 50 36 d0 3b
       0.047244906 -0.0086018145 -0.026265688 0.006354131
000350 1c 46 84 3d 10 da 50 bc b0 1f 65 bc 76 76 d5 bc
       0.06458685 -0.012747303 -0.013984606 -0.026057463
000360 fd 70 21 bc 9e 57 59 bd 81 37 b3 3c 89 60 ce 3c
       -0.009853599 -0.053062074 0.021877052 0.025192516
000370 d2 c3 46 3d 72 d2 6b bd 0a 56 6c bc 00 bf eb bb
       0.048526593 -0.057573743 -0.01442481 -0.0071944
000380 5c 8b 01 3d 2b e6 80 bc e5 f4 b0 bc 94 fd cd 3c
       0.031627044 -0.015734753 -0.02160115 0.02514533
000390 f0 10 9a bb 6b 85 16 3d fa 2e 6b 3d 00 ee 33 3a
       -0.004701726 0.03674833 0.057417847 0.0006863773
0003a0 2f b1 0b bd 76 98 55 bd 21 0f 48 bc 34 d6 a6 3c
       -0.034104522 -0.05214735 -0.012210638 0.020365812
0003b0 00 63 82 ba c8 c1 49 bc 10 3b 8e bc bc 81 70 bb
       -0.0009947717 -0.012314267 -0.017362148 -0.0036698421
0003c0 7a 7e 20 3c 6a 50 25 bd f2 b7 c2 3c d1 27 47 bd
       0.009795779 -0.040359892 0.023769353 -0.048621956
0003d0 5e d6 79 3c 4c 4b 38 bd 67 26 fc b9 3e 15 81 3d
       0.015248863 -0.044993684 -0.00048093798 0.0630288
0003e0 ed d0 58 bd 16 9d 2e bb 4d 65 1f 3d 04 b9 52 3d
       -0.052933622 -0.0026643923 0.038914967 0.051445976
0003f0 b4 56 01 3d 3f dd f7 3c b0 5e da 3a 98 ac 8d bc
       0.031576827 0.030256866 0.0016660299 -0.017294213

predict.weight f4 [5, 256]
000000 ed e6 55 3d ba 3c ca 3c 2b c1 1e bd 1e 7b e8 3c
       0.05222218 0.02468716 -0.038758438 0.02837902
000010 52 f2 7f bc 2c 4b 52 bd c4 f6 03 bd 1b 3a 73 3d
       -0.0156217385 -0.05134122 -0.032217756 0.059381586
000020 56 04 d5 3c 5c 7b 0c bd 06 46 93 bc 2a a1 31 bd
       0.026003044 -0.034297332 -0.017977726 -0.04336659
000030 80 b4 dc ba 18 56 c4 bc 24 50 98 bc 75 59 c9 3c
       -0.0016838461 -0.023966834 -0.018592902 0.02457879
000040 36 5e 3a bd b8 49 35 3c 6d 00 9b bb 25 f3 a6 bc
       -0.045500003 0.011064939 -0.0047302754 -0.020379612
000050 1c e3 0d bd 9c 2e 5c 3c f0 5a da 3b 62 bb 35 3d
       -0.034640417 0.013438847 0.0066636726 0.044368155
000060 4d 37 4f bd 45 a9 70 3d 22 33 40 3d f6 2f 2c bd
       -0.05058985 0.058755178 0.046923764 -0.042037927
000070 54 f5 62 bd 14 ad 2f bd 14 e2 09 3d 48 c4 5c 3d
       -0.055409744 -0.04288967 0.03366287 0.053898126
000080 f7 7f fa bc d2 72 c1 bc ba 50 71 39 cc 2a 0e 3d
       -0.030578597 -0.02361432 0.00023013624 0.034708783
000090 b5 a1 61 3c a0 2b 7b 3b 57 0e 4d bd 97 cd c0 3c
       0.013771464 0.0038325563 -0.050062504 0.023535533
0000a0 af a8 25 3d 8c ad c9 bb 84 09 c4 bc 7d 48 a0 bc
       0.040444072 -0.0061547216 -0.023930319 -0.019565815
0000b0 3e 58 50 bd 4a 8b 5c 3d 3a a3 00 bd 4f 19 d2 3c
       -0.050865404 0.053843774 -0.031405665 0.025646834
0000c0 78 a9 df bc b0 06 98 3b ec 0f e4 bc 0b 31 63 3d
       -0.027302489 0.004639469 -0.027839623 0.055466693
0000d0 d8 e2 b6 3c b2 11 12 3d cf d7 06 3d a5 57 4f 3d
       0.022324964 0.035661407 0.032920655 0.050620694
0000e0 87 20 62 bd c6 4e 3d bd d8 bb 71 bc 08 00 5e 3d
       -0.0552068 -0.046217702 -0.014754258 0.05419925
0000f0 40 43 87 3d fe 9d a1 3c 57 89 a3 bc 9b 9d 87 3c
       0.06604624 0.019728657 -0.01996295 0.016554644
000100 ec ef 17 bd a6 04 e3 3c d7 78 80 bb 4d 78 0c 3b
       -0.03709404 0.027712177 -0.003920655 0.002143401
000110 40 18 3e bc d9 62 68 bd 08 00 4c 3c f7 41 ee bc
       -0.011602461 -0.056734893 0.012451179 -0.029084189
000120 6c d4 a0 bb 12 25 03 bc 28 93 e1 bc 20 42 34 bc
       -0.004908135 -0.008004444 -0.02753599 -0.011002094
000130 6e 52 86 bd b0 d8 51 bd 6c 74 d8 3c 3b 49 25 bd
       -0.06558691 -0.05123204 0.026422702 -0.04035304
000140 7a 39 04 3d ff 11 ec 3c 54 0b 50 bd c8 16 66 bd
       0.032281376 0.028817175 -0.050792053 -0.05617407
000150 c3 54 47 bc fd 56 42 3b a8 b6 e6 3c 27 91 f9 3b
       -0.012166205 0.00296539 0.02816327 0.0076161805
000160 7a 2e 2c 3d a8 92 c6 3b 6c 7e 16 3d ce e5 14 3d
       0.04203651 0.0060599633 0.03674166 0.03635197
000170 a0 3d ff bc f3 7d c5 3c 7f d9 25 bd a0 62 cd bc
       -0.031157315 0.024107909 -0.040490624 -0.025071442
000180 88 11 d2 bc 6a ec 1a bd 02 f4 ea 3c 0a 47 41 bd
       -0.025643125 -0.03782312 0.028680805 -0.04718689
000190 4d d4 fa bc 86 c9 16 3d 38 bf ff 3c aa 57 4c 3c
       -0.030618811 0.03681328 0.03121911 0.012472073
0001a0 ab fc 29 bd dc 5d 7b 3c bc 75 e8 bc 39 75 80 bd
       -0.04150073 0.015342202 -0.028376453 -0.062723584
0001b0 5e 82 17 3b 1c 74 df 3c 24 df e2 bc 09 bf 4d 3d
       0.0023118476 0.027277045 -0.027694292 0.050231013
0001c0 84 a7 8e bc 12 96 54 bd 42 02 36 bc 89 1a eb 3c
       -0.017413862 -0.05190093 -0.011108937 0.028699176
0001d0 9a f6 11 3d b0 1f c7 3a a6 37 d7 bc 61 c7 b5 bc
       0.03563557 0.0015191939 -0.026271652 -0.022189798
0001e0 70 44 a2 bb 00 3f 75 3d 0e 0c 3c bd 6a f5 d7 3a
       -0.004952006 0.059874535 -0.045909934 0.0016476337
0001f0 0f d5 1a bd 84 ff ff bc b1 31 0e 3d 08 cf a6 3c
       -0.037800845 -0.031249769 0.03471536 0.020362392
000200 1c 92 28 bd a0 c2 fd 3b ad 4e 12 3d 58 96 e3 bc
       -0.041154966 0.0077441484 0.035719562 -0.02778165
000210 55 98 7e bb 8a 3c 86 bc 48 d4 dc bc 20 46 8a 3b
       -0.0038848121 -0.01638629 -0.026956692 0.0042197853
000220 3c 15 63 bd 29 f5 e8 3b fe d9 cb bc 1a 6f 16 bd
       -0.055440173 0.0071093035 -0.02488422 -0.03672705
000230 bf 9b 68 3d 0d f2 4a 3c 4b 31 3f 3d c2 08 05 3d
       0.056789156 0.012386811 0.04667787 0.032479055
000240 1c 4c 8d 3c b1 41 44 bd c3 53 82 3d af 82 31 3d
       0.017248206 -0.04791421 0.063636325 0.04333752
000250 7b 6f 32 3d 9c 4c 4c 3d 1d 69 e7 3b ab bd 2f 3d
       0.043563347 0.049877748 0.007062091 0.04290549
000260 94 39 57 bd e0 32 59 bc d0 00 a3 bb 6b 8c 26 3d
       -0.052545145 -0.013256758 -0.004974462 0.040661257
000270 ae 06 12 3d d8 11 b2 bc 68 4f 0f 3c 8c 19 82 bc
       0.0356509 -0.021737024 0.008746959 -0.015881322
000280 00 c1 88 39 19 17 30 bd 0e 7d 98 b8 48 8b 9e 3c
       0.00026083738 -0.042990778 -7.271218e-05 0.019353524
000290 40 11 5d bc 30 1d d6 3c d0 2e ad bc 5b ca 3d 3d
       -0.013492882 0.026136965 -0.021140486 0.04633556
0002a0 a0 5b ec bc 7c 39 38 bd 75 be e4 3c a4 b3 dd 3c
       -0.028852284 -0.044976696 0.027922848 0.027063198
0002b0 42 e9 f2 3b 63 59 1e 3c 4a 99 6a 3d 00 c9 a0 3b
       0.0074130604 0.009664866 0.057275094 0.0049067736
0002c0 5e e5 6a bd ba d0 0f 3d 66 93 92 bc 91 d7 2f 3d
       -0.057347648 0.035111167 -0.01789255 0.04293019
0002d0 04 ec 48 bd 90 fa 81 bc 16 7c 42 bd 1a 9f 77 3d
       -0.049053207 -0.015866548 -0.04748162 0.060454465
0002e0 5a 16 7e 3d 0b e6 31 3c f3 10 33 3d a8 77 40 bc
       0.062033035 0.010858069 0.043717336 -0.011747278
0002f0 e7 49 81 bc ce 01 00 bb 6e 74 64 bd 61 d3 d7 3b
       -0.01578231 -0.0019532326 -0.0557751 0.0065864776
000300 65 62 11 bc 67 45 87 3c 8b dc 33 bc 47 d0 7b 3d
       -0.008873557 0.016512586 -0.0109778745 0.061477926
000310 ae 8e 04 3d 51 b2 62 bd b2 5b 41 3d 91 9d c3 3b
       0.032362632 -0.055345837 0.047206588 0.005969711
000320 a0 3a b4 bc fc 04 67 bd 2c 66 ba bc d2 68 6b bd
       -0.02200061 -0.056401238 -0.022753797 -0.05747301
000330 3e 4f 69 bd 6d 8b 44 bd ab 3e 59 bb b2 40 28 3d
       -0.056960337 -0.04798453 -0.0033148925 0.041077323
000340 8c 8e b4 3c 1a 44 50 3d a0 a9 14 3d f9 23 34 bd
       0.022040628 0.050846197 0.03629458 -0.04397962
000350 1e 92 82 bc 44 fc 8d 3c 88 01 11 3c 9d bb bb 3b
       -0.015938815 0.017332204 0.008850463 0.0057291524
000360 1f f1 37 3c 36 54 2b 3d e6 6b 26 bd b3 2f 14 bd
       0.011226921 0.041828357 -0.040630244 -0.036178302
000370 8f 0b 57 bd e4 e6 d8 bc fd 12 59 bd 74 d7 7a 3d
       -0.052501258 -0.026477285 -0.052996624 0.06124063
000380 e0 39 7d bc be 60 a5 3c 33 19 85 3d 12 d2 22 bd
       -0.015455693 0.020187732 0.06498947 -0.03975112
000390 98 6a c8 bc 10 f2 c4 3c 57 f2 ea bc d0 62 fa 3b
       -0.02446489 0.024041206 -0.02868001 0.007641174
0003a0 49 71 f1 3c b5 2c b2 bc 04 38 31 3d 98 a2 76 bb
       0.029472964 -0.021749834 0.04326631 -0.0037633535
0003b0 00 c0 d8 3c a2 a8 5d bd b0 fb 45 3d 4c af 04 3d
       0.02645874 -0.0541159 0.04833573 0.03239374
0003c0 bd e8 d9 3c 10 bc 5e bd 8e a0 89 3c 33 f8 d9 3b
       0.026600236 -0.05437857 0.016800191 0.006651902
0003d0 f9 34 03 bc 54 c8 11 3d 60 4c 2b bd 5f ba a2 3c
       -0.008008235 0.03559144 -0.041820884 0.01986426
0003e0 1b 29 1a bc c4 28 3c bb 07 ef 9f 3c 43 06 3f bd
       -0.009409214 -0.0028710822 0.019523157 -0.04663683
0003f0 60 7d 28 bb 95 1b 09 bd 15 9a 30 3d 93 5c 1c 3d
       -0.0025709495 -0.03347357 0.043115694 0.038174223

predict.bias f4 [5]
000000 ac 96 5d bd 47 fe ec bc 00 23 11 3d e8 63 d8 3c
       -0.05409877 -0.028929843 0.03543377 0.026414827
000010 ea f2 54 bd
       -0.051989473

exp_avg f4 [256, 25]
000000 f4 79 b1 3a c4 ae ab 3a 54 f9 3e 3a 9e bb ab 39
       0.0013540373 0.0013098349 0.00072850776 0.00032755447
000010 92 18 02 b7 f4 79 b1 3a d2 91 8b b6 1c bc 54 39
       -7.7543245e-06 0.0013540373 -4.1594985e-06 0.00020287972
000020 12 2f c4 b8 57 c8 fa 37 f4 79 b1 3a c5 96 8b 39
       -9.354776e-05 2.9895613e-05 0.0013540373 0.00026624478
000030 48 d3 5d ba 8c 85 6d 38 be a4 59 b5 f4 79 b1 3a
       -0.00084619643 5.662958e-05 -8.107853e-07 0.0013540373
000040 94 07 d9 39 10 05 27 ba 52 c9 d2 b7 64 a1 ba 36
       0.00041395111 -0.0006371299 -2.5127698e-05 5.5620203e-06
000050 f4 79 b1 3a 1d 4d 1b 3a db ed 69 39 b5 64 12 b8
       0.0013540373 0.00059242715 0.0002230922 -3.4902903e-05
000060 ce 6c 00 37 00 00 00 00 00 00 00 00 00 00 00 00
       7.654728e-06 0.0 0.0 0.0
000070 00 00 00 00 00 00 00 00 00 00 00 00 00 00 00 00
       0.0 0.0 0.0 0.0
000080 00 00 00 00 00 00 00 00 00 00 00 00 00 00 00 00
       0.0 0.0 0.0 0.0
000090 00 00 00 00 00 00 00 00 00 00 00 00 00 00 00 00
       0.0 0.0 0.0 0.0
0000a0 00 00 00 00 00 00 00 00 00 00 00 00 00 00 00 00
       0.0 0.0 0.0 0.0
0000b0 00 00 00 00 00 00 00 00 00 00 00 00 00 00 00 00
       0.0 0.0 0.0 0.0
0000c0 00 00 00 00 00 00 00 00 00 00 00 00 00 00 00 00
       0.0 0.0 0.0 0.0
0000d0 00 00 00 00 00 00 00 00 00 00 00 00 00 00 00 00
       0.0 0.0 0.0 0.0
0000e0 00 00 00 00 00 00 00 00 00 00 00 00 00 00 00 00
       0.0 0.0 0.0 0.0
0000f0 00 00 00 00 00 00 00 00 00 00 00 00 00 00 00 00
       0.0 0.0 0.0 0.0
000100 00 00 00 00 00 00 00 00 00 00 00 00 00 00 00 00
       0.0 0.0 0.0 0.0
000110 00 00 00 00 00 00 00 00 00 00 00 00 00 00 00 00
       0.0 0.0 0.0 0.0
000120 00 00 00 00 00 00 00 00 00 00 00 00 bf 42 75 3a
       0.0 0.0 0.0 0.0009355954
000130 82 78 66 3a 0e 4e 31 39 c8 92 93 39 1f 50 4a 37
       0.0008791761 0.00016909113 0.00028147385 1.2058793e-05
000140 bf 42 75 3a c4 5d 6e 37 58 9e 12 3a 1c 85 f5 b8
       0.0009355954 1.4207737e-05 0.0005593053 -0.00011707304
000150 e8 59 bf b6 bf 42 75 3a 71 1d 59 39 5b c5 d9 b9
       -5.70271e-06 0.0009355954 0.000207057 -0.00041536507
000160 8a 6f e6 b7 fe 49 0d b7 bf 42 75 3a 35 84 be 39
       -2.7470076e-05 -8.421483e-06 0.0009355954 0.00036338126
000170 95 9a e4 38 37 8f a7 b8 ba e3 ae b7 bf 42 75 3a
       0.0001090068 -7.9898564e-05 -2.084846e-05 0.0009355954
000180 d1 04 eb 39 93 2f ea 39 0c 76 4e b8 ef 98 33 b7
       0.0004482628 0.00044667404 -4.9224167e-05 -1.0704839e-05
000190 00 00 00 00 00 00 00 00 00 00 00 00 00 00 00 00
       0.0 0.0 0.0 0.0
0001a0 00 00 00 00 00 00 00 00 00 00 00 00 00 00 00 00
       0.0 0.0 0.0 0.0
0001b0 00 00 00 00 00 00 00 00 00 00 00 00 00 00 00 00
       0.0 0.0 0.0 0.0
0001c0 00 00 00 00 00 00 00 00 00 00 00 00 00 00 00 00
       0.0 0.0 0.0 0.0
0001d0 00 00 00 00 00 00 00 00 00 00 00 00 00 00 00 00
       0.0 0.0 0.0 0.0
0001e0 00 00 00 00 00 00 00 00 00 00 00 00 00 00 00 00
       0.0 0.0 0.0 0.0
0001f0 00 00 00 00 00 00 00 00 00 00 00 00 00 00 00 00
       0.0 0.0 0.0 0.0
000200 00 00 00 00 00 00 00 00 00 00 00 00 00 00 00 00
       0.0 0.0 0.0 0.0
000210 00 00 00 00 00 00 00 00 00 00 00 00 00 00 00 00
       0.0 0.0 0.0 0.0
000220 00 00 00 00 00 00 00 00 00 00 00 00 00 00 00 00
       0.0 0.0 0.0 0.0
000230 00 00 00 00 00 00 00 00 00 00 00 00 00 00 00 00
       0.0 0.0 0.0 0.0
000240 00 00 00 00 00 00 00 00 00 00 00 00 00 00 00 00
       0.0 0.0 0.0 0.0
000250 00 00 00 00 00 00 00 00 34 4d ef b9 79 81 0a ba
       0.0 0.0 -0.00045643153 -0.0005283575
000260 00 b5 9d b9 44 d4 b1 b8 5a 8e 84 35 34 4d ef b9
       -0.0003008023 -8.479555e-05 9.876196e-07 -0.00045643153
000270 dd ec 94 37 18 b0 63 b9 86 ba 41 b7 6e 98 a8 36
       1.7753273e-05 -0.00021714007 -1.1547125e-05 5.0245353e-06
000280 34 4d ef b9 36 ff d4 b8 17 e3 9e 39 ca 6f 30 b8
       -0.00045643153 -0.000101564845 0.00030305304 -4.206578e-05
000290 b9 85 9a 36 34 4d ef b9 b6 6f 71 b8 d2 98 30 39
       4.605125e-06 -0.00045643153 -5.7562916e-05 0.00016841598
0002a0 f6 20 1a b7 9e 85 e6 b5 34 4d ef b9 99 f5 89 b8
       -9.18679e-06 -1.7175223e-06 -0.00045643153 -6.578415e-05
0002b0 f5 0a 41 b9 10 09 77 38 28 7d 0f b7 20 ea 0c 3a
       -0.00018409996 5.889783e-05 -8.552604e-06 0.00053754635
0002c0 76 08 15 3a 4d 98 d1 39 0b 03 02 39 9d 49 04 37
       0.00056851597 0.0003997706 0.000123989 7.8849525e-06
0002d0 20 ea 0c 3a 81 6c 25 38 7a 7c ab 39 e5 02 19 38
       0.00053754635 3.9440118e-05 0.00032708404 3.648074e-05
0002e0 07 29 b2 b7 20 ea 0c 3a 05 d1 fa 38 12 b3 e2 b9
       -2.1238358e-05 0.00053754635 0.00011959862 -0.00043239497
0002f0 a0 e5 32 37 e6 29 09 b7 20 ea 0c 3a ba fc d2 38
       1.06630905e-05 -8.175592e-06 0.00053754635 0.00010060654
000300 4a 65 67 b9 e4 09 e5 b6 ef f6 87 b6 20 ea 0c 3a
       -0.0002206761 -6.8258832e-06 -4.0520604e-06 0.00053754635
000310 ee e6 12 39 5a f5 83 38 ee 3e 0e b8 68 1c 15 33
       0.00014009673 6.292267e-05 -3.3914046e-05 3.47176e-08
000320 a0 f3 1f 3a 5e 9f 2b 3a 3b 12 df 39 cf 49 08 39
       0.00061016716 0.000654688 0.00042547457 0.00012997467
000330 e0 52 bd 35 a0 f3 1f 3a e3 a1 5d 38 84 82 b2 39
       1.4105717e-06 0.00061016716 5.2841275e-05 0.00034048047
000340 3a fc 0b 38 e4 52 6b b7 a0 f3 1f 3a cb e5 29 39
       3.3375087e-05 -1.4026391e-05 0.00061016716 0.000162027
000350 30 81 16 ba 50 90 fa 37 83 14 f3 b6 a0 f3 1f 3a
       -0.00057412963 2.9869523e-05 -7.244352e-06 0.00061016716
000360 4e df 35 39 f3 9c a1 38 23 54 08 36 3d fa 24 b6
       0.00017344693 7.706312e-05 2.0314553e-06 -2.4583562e-06
000370 a0 f3 1f 3a 9a 93 3e 39 36 77 54 b9 f3 18 85 b8
       0.00061016716 0.00018174798 -0.00020262305 -6.346581e-05
000380 9e 30 64 36 00 00 00 00 00 00 00 00 00 00 00 00
       3.4002946e-06 0.0 0.0 0.0
000390 00 00 00 00 00 00 00 00 00 00 00 00 00 00 00 00
       0.0 0.0 0.0 0.0
0003a0 00 00 00 00 00 00 00 00 00 00 00 00 00 00 00 00
       0.0 0.0 0.0 0.0
0003b0 00 00 00 00 00 00 00 00 00 00 00 00 00 00 00 00
       0.0 0.0 0.0 0.0
0003c0 00 00 00 00 00 00 00 00 00 00 00 00 00 00 00 00
       0.0 0.0 0.0 0.0
0003d0 00 00 00 00 00 00 00 00 00 00 00 00 00 00 00 00
       0.0 0.0 0.0 0.0
0003e0 00 00 00 00 00 00 00 00 40 ac b7 b9 a0 e1 ac b9
       0.0 0.0 -0.00035032816 -0.000329745
0003f0 68 2c 4f 39 1e 01 bb b8 e0 be 35 b7 40 ac b7 b9
       0.00019757601 -8.917063e-05 -1.0832882e-05 -0.00035032816

exp_avg_sq f4 [256, 25]
000000 ef ab e1 33 2f df ce 33 34 0b 1f 33 86 a2 25 32
       1.05086535e-07 9.6332194e-08 3.703026e-08 9.641218e-09
000010 81 f6 65 2c ef ab e1 33 cf f2 90 2f 3e f6 a3 32
       3.2679694e-12 1.05086535e-07 2.6365973e-10 1.9087675e-08
000020 db ae 39 30 fa 77 06 2e ef ab e1 33 3a b8 6e 31
       6.755109e-10 3.0574633e-11 1.05086535e-07 3.473828e-09
000030 b1 0b 02 33 4f 50 25 30 85 df 3e 2b ef ab e1 33
       3.0278617e-08 6.0140776e-10 6.7811756e-13 1.05086535e-07
000040 ef 3e 04 32 01 32 6d 32 76 bb 17 30 01 f2 82 2c
       7.697721e-09 1.3806585e-08 5.519988e-10 3.72169e-12
000050 ef ab e1 33 aa b0 9b 32 d2 61 8e 32 71 8f 27 30
       1.05086535e-07 1.8124712e-08 1.657546e-08 6.095809e-10
000060 20 28 13 2c 00 00 00 00 00 00 00 00 00 00 00 00
       2.091223e-12 0.0 0.0 0.0
000070 00 00 00 00 00 00 00 00 00 00 00 00 00 00 00 00
       0.0 0.0 0.0 0.0
000080 00 00 00 00 00 00 00 00 00 00 00 00 00 00 00 00
       0.0 0.0 0.0 0.0
000090 00 00 00 00 00 00 00 00 00 00 00 00 00 00 00 00
       0.0 0.0 0.0 0.0
0000a0 00 00 00 00 00 00 00 00 00 00 00 00 00 00 00 00
       0.0 0.0 0.0 0.0
0000b0 00 00 00 00 00 00 00 00 00 00 00 00 00 00 00 00
       0.0 0.0 0.0 0.0
0000c0 00 00 00 00 00 00 00 00 00 00 00 00 00 00 00 00
       0.0 0.0 0.0 0.0
0000d0 00 00 00 00 00 00 00 00 00 00 00 00 00 00 00 00
       0.0 0.0 0.0 0.0
0000e0 00 00 00 00 00 00 00 00 00 00 00 00 00 00 00 00
       0.0 0.0 0.0 0.0
0000f0 00 00 00 00 00 00 00 00 00 00 00 00 00 00 00 00
       0.0 0.0 0.0 0.0
000100 00 00 00 00 00 00 00 00 00 00 00 00 00 00 00 00
       0.0 0.0 0.0 0.0
000110 00 00 00 00 00 00 00 00 00 00 00 00 00 00 00 00
       0.0 0.0 0.0 0.0
000120 00 00 00 00 00 00 00 00 00 00 00 00 67 3d 58 33
       0.0 0.0 0.0 5.0347264e-08
000130 a2 78 43 33 90 43 e7 31 2b e3 c8 31 01 b6 17 2d
       4.551169e-08 6.730666e-09 5.846592e-09 8.623769e-12
000140 67 3d 58 33 1c a1 0c 2f fc 08 f1 32 c4 4c 75 30
       5.0347264e-08 1.2790163e-10 2.8060178e-08 8.923957e-10
000150 ee f7 39 2d 67 3d 58 33 42 ea 0f 31 14 78 79 32
       1.0571084e-11 5.0347264e-08 2.09424e-09 1.452101e-08
000160 d2 2f 08 30 8f fd 79 2c 67 3d 58 33 b9 e4 f4 31
       4.954447e-10 3.5525782e-12 5.0347264e-08 7.1273374e-09
000170 0a cb 1c 32 58 c8 49 30 7f 2f fe 2d 67 3d 58 33
       9.126561e-09 7.340808e-10 2.889755e-11 5.0347264e-08
000180 58 8a 33 32 1c 2d c4 32 7c 61 23 30 d8 22 9c 2c
       1.0450627e-08 2.2837916e-08 5.943759e-10 4.437655e-12
000190 00 00 00 00 00 00 00 00 00 00 00 00 00 00 00 00
       0.0 0.0 0.0 0.0
0001a0 00 00 00 00 00 00 00 00 00 00 00 00 00 00 00 00
       0.0 0.0 0.0 0.0
0001b0 00 00 00 00 00 00 00 00 00 00 00 00 00 00 00 00
       0.0 0.0 0.0 0.0
0001c0 00 00 00 00 00 00 00 00 00 00 00 00 00 00 00 00
       0.0 0.0 0.0 0.0
0001d0 00 00 00 00 00 00 00 00 00 00 00 00 00 00 00 00
       0.0 0.0 0.0 0.0
0001e0 00 00 00 00 00 00 00 00 00 00 00 00 00 00 00 00
       0.0 0.0 0.0 0.0
0001f0 00 00 00 00 00 00 00 00 00 00 00 00 00 00 00 00
       0.0 0.0 0.0 0.0
000200 00 00 00 00 00 00 00 00 00 00 00 00 00 00 00 00
       0.0 0.0 0.0 0.0
000210 00 00 00 00 00 00 00 00 00 00 00 00 00 00 00 00
       0.0 0.0 0.0 0.0
000220 00 00 00 00 00 00 00 00 00 00 00 00 00 00 00 00
       0.0 0.0 0.0 0.0
000230 00 00 00 00 00 00 00 00 00 00 00 00 00 00 00 00
       0.0 0.0 0.0 0.0
000240 00 00 00 00 00 00 00 00 00 00 00 00 00 00 00 00
       0.0 0.0 0.0 0.0
000250 00 00 00 00 00 00 00 00 27 f9 a4 32 1d a9 ad 32
       0.0 0.0 1.9205414e-08 2.0216754e-08
000260 f7 b1 05 32 1a 51 af 30 73 10 72 2a 27 f9 a4 32
       7.782083e-09 1.2755976e-09 2.1499625e-13 1.9205414e-08
000270 2a c1 10 2e a7 4d b5 30 c4 6c 31 2e d6 02 50 2b
       3.2913373e-11 1.3191553e-09 4.0341744e-11 7.390038e-13
000280 27 f9 a4 32 a8 f4 58 30 2f b8 05 32 9b 2b 80 2e
       1.9205414e-08 7.892802e-10 7.783497e-09 5.828512e-11
000290 d6 f8 79 2b 27 f9 a4 32 52 2d 82 30 c1 de 11 31
       8.88079e-13 1.9205414e-08 9.471626e-10 2.1226898e-09
0002a0 b0 f4 22 2e 87 8b d5 2a 27 f9 a4 32 12 01 f5 30
       3.705186e-11 3.7933217e-13 1.9205414e-08 1.78264e-09
0002b0 a6 67 97 30 47 a1 3f 2f cf dd 1c 2c d9 f2 b8 33
       1.1016155e-09 1.7428646e-10 2.2292062e-12 8.6123414e-08
0002c0 0f 96 a9 33 04 38 8a 32 65 72 2a 32 aa a9 1a 2c
       7.896971e-08 1.6090787e-08 9.921313e-09 2.1978899e-12
0002d0 d9 f2 b8 33 32 74 71 2f 43 fa 6e 31 ba ac 81 30
       8.6123414e-08 2.1960103e-10 3.4775816e-09 9.435077e-10
0002e0 9f 6b 4a 2d d9 f2 b8 33 5d 4e 1c 31 d7 cc 37 32
       1.1506267e-11 8.6123414e-08 2.2745532e-09 1.0698577e-08
0002f0 74 4f 63 30 5e ef 47 2c d9 f2 b8 33 d4 75 c2 31
       8.269503e-10 2.8412476e-12 8.6123414e-08 5.6595386e-09
000300 c2 3a 8c 31 d5 78 5d 30 00 37 8c 2b d9 f2 b8 33
       4.0812163e-09 8.0571044e-10 9.962864e-13 8.6123414e-08
000310 df 75 4f 32 65 40 b2 30 8d 2c 97 30 6e ff 27 2c
       1.2075787e-08 1.2969507e-09 1.0999358e-09 2.387392e-12
000320 41 86 16 33 d2 90 14 33 38 2c 76 32 9f 7e 4a 31
       3.50467e-08 3.459065e-08 1.4329139e-08 2.9466845e-09
000330 99 7a c5 2b 41 86 16 33 d8 a0 21 2f 26 61 9d 31
       1.403172e-12 3.50467e-08 1.4700008e-10 4.580346e-09
000340 3c 9e 53 2f 26 5c bf 2c 41 86 16 33 60 96 d8 30
       1.9246554e-10 5.438777e-12 3.50467e-08 1.5758808e-09
000350 d7 2a da 32 b0 59 3a 2f 9c a8 c6 2c 41 86 16 33
       2.5398021e-08 1.6948465e-10 5.646218e-12 3.50467e-08
000360 5d fc 2f 31 96 2e de 30 e8 5e 2e 2f 67 43 85 2c
       2.5609304e-09 1.6165866e-09 1.5858925e-10 3.7875705e-12
000370 41 86 16 33 b2 a8 91 31 5d 02 08 32 72 22 d6 2f
       3.50467e-08 4.239234e-09 7.916779e-09 3.8950848e-10
000380 59 40 01 2d 00 00 00 00 00 00 00 00 00 00 00 00
       7.347089e-12 0.0 0.0 0.0
000390 00 00 00 00 00 00 00 00 00 00 00 00 00 00 00 00
       0.0 0.0 0.0 0.0
0003a0 00 00 00 00 00 00 00 00 00 00 00 00 00 00 00 00
       0.0 0.0 0.0 0.0
0003b0 00 00 00 00 00 00 00 00 00 00 00 00 00 00 00 00
       0.0 0.0 0.0 0.0
0003c0 00 00 00 00 00 00 00 00 00 00 00 00 00 00 00 00
       0.0 0.0 0.0 0.0
0003d0 00 00 00 00 00 00 00 00 00 00 00 00 00 00 00 00
       0.0 0.0 0.0 0.0
0003e0 00 00 00 00 00 00 00 00 32 10 b1 33 fa a5 a3 33
       0.0 0.0 8.245151e-08 7.62047e-08
0003f0 ac cd 7d 32 64 e3 23 32 c6 cb ce 2c 32 10 b1 33
       1.4773303e-08 9.539551e-09 5.8774955e-12 8.245151e-08
