highway_ddqn/ddqn_tuned_reward_change/checkpoint-6000.tar (torch, 892334 bytes, 18 tensors)

layers.0.weight f4 [256, 25]
00000000: c1ad 83be ae87 833d 6c7b c73c 929e acbd
00000010: 930d 2c40 e076 13be 0c29 3240 0017 8ebf
00000020: c54f c13e e933 37c0 6fe3 8cbd 0fdf 153e
00000030: 4dca 14be 4b91 fcbe ac12 a0bf 6293 49bd
00000040: f273 c63e 250e 1dbe 358a ecbd 65a5 f6bf
00000050: dd6d b83d e344 2dbe 74f7 5bbe 5e26 a6bd
00000060: 473e 0ac0 6dc4 0bbe 23df 09be 583f 2ebe
00000070: 3003 863d cd11 f33b ed33 d3bd ca53 98bd
00000080: 076f 3e3e 1a4b 0f3d 3328 ecbc 2788 2e3d
00000090: 87bf 6a3d 1010 1c3e fadc 01bd 7d1d 373e
000000a0: c55d 31be 403b 493d a7c2 90bc e526 2c3e
000000b0: a8b0 13be 00b0 7f3a 338f 6bbc 9729 8abd
000000c0: 0066 a3bc 7324 0abe daae 11bd fa53 18bd
000000d0: da9b cc3c 9aad 12bc 97c0 debd 838e a1bd
000000e0: 3309 32bd 4d53 bd3d f313 953d 1335 57bd
000000f0: 0dea 06bd 95a1 26be 9a97 513b 73c0 ebbc
00000100: d049 033e e078 6bbd daf8 673d 67ac 7bbd
00000110: 4bd8 07be 5fcd 17be aa94 13be 132f fb3d
00000120: 7d50 f7bd 1be2 033e 6df2 5abd 8637 aebd
00000130: ce63 a03d c1ce 9fbe 706e ccbe 844c 733f
00000140: 2fc3 3d3e 9e8e 923e eda6 833e 005c f5bd
00000150: 5f07 ca3e 9722 253e 3ff9 31bf 34f1 e63d
00000160: 517f 1abe 52cb e5be 6ed7 bfbd 2767 8e3f
00000170: 11da 9a3f 787f 6c3e 0058 c1bd 2540 513e
00000180: eb1d 9bbe 2c6b 57bd 46e2 f03d 6d11 54be
00000190: cd6c 433b 0d95 05be e786 3cbe 55e8 2fbe
000001a0: d882 1d3e e0c1 87bd 4a38 4b3e b37c e4bd
000001b0: dd87 183e 4ae1 033e 7d7b 943d 9d41 c4bd
000001c0: 33a0 35bd 632c ccbd b3c5 eabd eaf4 0bbe
000001d0: c073 b8bd aa69 4c3e 8a4d 23be 4358 e3bd
000001e0: c8d0 33be 0088 06bd a033 d3bd 7739 843d
000001f0: 8092 cdbc 386e 0abe 93a6 1ebd ca38 94bd
00000200: 7007 c13d 0090 ddbd e352 a6bd 2bf2 023e
00000210: 00bc 1b3e 933e 4bbe 7de1 2e3e 339b 7fbb
00000220: fb2f 0dbe 5ac6 7cbd 87ae 35bd 735d ad3c
00000230: ed51 bd3d 8073 21be 274e e0bc 8226 0f3e
00000240: 055e 36be 0b59 32be d3d8 063d 8b10 333e
00000250: 4d0a 57bd d59b 093e 7f69 38be 27e3 a1be
00000260: 1495 523f bc99 633f 9d64 a33e c389 42be
00000270: 4b18 673e 0e20 c33e f8b2 0fbf 5100 b13e
00000280: c3ea 6ebe b245 5dbf b520 91be e0d6 23bf
00000290: 82f1 713e 9b7d 4dbe 0df7 a6bf 5247 93be
000002a0: 3f2d 9fbf 8b40 fb3d e82d f4bd fdfd 073f
000002b0: 1315 113f d7e6 7abf 8419 3bbf 6830 b23d
000002c0: 70f5 133e f6cc 09bf 680f bd3e 48e3 debe
000002d0: d62c 56be 0885 e8be 07ce 22bf ec43 24bf
000002e0: 172f f1be d78b 20bd 9101 86bf a97b 0cbc
000002f0: b543 f8be 97b4 0f3e d4fb 9bbd 755e 8cbd
00000300: a26b 40be 4471 43bf e231 6a3e 56dd 1ebe
00000310: e2b4 b7be a6e6 4e3f bed0 c0be b37b 033f
00000320: e136 3fbc a0f4 b8bb cc1d 033c 69e4 803f
00000330: 6ca5 b5ba 590c 32be 8243 77bf 632f ec3e
00000340: 39c7 5bbe 9b7c e03e 0c4d 8ebd fb3c 72bf
00000350: cd49 a1bd 7a7a 01bf cc3a f8be 45f0 45be
00000360: 8095 413f b75d 8cbe 5f91 9a3d cf4f c0be
00000370: 565f 92bd 17bb c13e d430 c6be 50d9 5e3c
00000380: cc0f 2fbf ed78 403d 7ab6 ebbd 8a4b 313e
00000390: 73d0 0fbe 3a28 693d 8dd6 f9bd 307f 06be
000003a0: dfdf 193e a7cc c6bd c751 a8bd 9a8c 0abc
000003b0: dd73 8ebd 0050 61ba ba64 73bd fa9b 33bd
000003c0: 0323 bbbd 4a68 c3bd e790 44bc 5f2c 4bbe
000003d0: d7d7 a5bd e790 96bc 60f0 8c3d 2a47 453e
000003e0: bdcc 3a3e 3d05 a43d e5f1 03bc 7a14 4abe
000003f0: 467f a5be d551 21be f8cc 99bf 8572 1f3e
-0.257185 0.06422363 0.024350844 -0.084286824 2.6883285 -0.14400816 2.7837553 -1.1100769
0.37756172 -2.8625433 -0.06879317 0.14635871 -0.14530297 -0.493296 -1.2505698 -0.04921282
0.38760334 -0.15337427 -0.115497984 -1.9269224 0.0900533 -0.1692081 -0.21481115 -0.08112787
-2.160051 -0.13649149 -0.13464026 -0.17016351 0.06543577 0.0074178935 -0.103126384 -0.074378565
0.18597041 0.03498373 -0.028827762 0.042610314 0.05731156 0.15240502 -0.03170488 0.17882343
-0.17320926 0.04912877 -0.017670942 0.16811712 -0.14422858 0.0009753704 -0.014377403 -0.06746214
-0.019946098 -0.13490467 -0.035567142 -0.03718946 0.02497666 -0.008952523 -0.10876577 -0.0788851
-0.043465804 0.09244404 0.07279196 -0.05254085 -0.032938052 -0.16272576 0.003198123 -0.02877829
0.12821126 -0.057488322 0.056633808 -0.061443713 -0.13266103 -0.14824437 -0.1441218 0.12264838
-0.12075899 0.12879221 -0.05345385 -0.08506684 0.07831536 -0.31212428 -0.39928007 0.9503863
0.18531488 0.28624433 0.25713292 -0.11980438 0.3945875 0.16126476 -0.69520944 0.112764746
-0.1508763 -0.44881684 -0.09367262 1.112523 1.2097799 0.230955 -0.09440613 0.20434625
-0.30296263 -0.05259244 0.11761908 -0.20709772 0.002981949 -0.1304514 -0.18410836 -0.17178471
0.15381944 -0.066287756 0.19845691 -0.11156597 0.14895578 0.1287891 0.07250116 -0.09582827
-0.04434223 -0.099694036 -0.114634894 -0.13667646 -0.090064526 0.19962183 -0.15947548 -0.11100819
-0.17560112 -0.032844543 -0.10312581 0.06456273 -0.02509427 -0.13518608 -0.038733076 -0.07237394
0.09425247 -0.108184814 -0.08121278 0.12787692 0.15208435 -0.19848089 0.17078204 -0.0039002418
-0.13787834 -0.0617126 -0.044355895 0.021162724 0.09244142 -0.15766716 -0.027381016 0.13979533
-0.17809303 -0.1741678 0.032921623 0.1748678 -0.052500058 0.13438351 -0.18008994 -0.31618616
0.82258725 0.88906455 0.319127 -0.18997864 0.22567861 0.38110393 -0.5613246 0.34570554
-0.23331742 -0.8643447 -0.28345266 -0.6399975 0.23627284 -0.20067446 -1.3044144 -0.2876535
-1.2435683 0.1226817 -0.119228184 0.5312193 0.5667278 -0.98008484 -0.7308581 0.08700639
0.14449096 -0.5382837 0.36925817 -0.43532777 -0.20915541 -0.45413995 -0.6359562 -0.6416614
-0.4710624 -0.03919586 -1.0469228 -0.008574405 -0.48489156 0.14033733 -0.07616392 -0.06853954
-0.18791059 -0.76344705 0.22870591 -0.1551412 -0.3588019 0.8082069 -0.37659258 0.51360625
-0.011670799 -0.005644396 0.00800271 1.0069705 -0.0013858504 -0.17387523 -0.96587384 0.46129903
-0.21462716 0.43845066 -0.06948289 -0.946243 -0.078754045 -0.5057751 -0.48482358 -0.19329937
0.75618744 -0.2741525 0.075472586 -0.3756089 -0.0714709 0.3783805 -0.38709128 0.013601616
-0.6838348 0.046990324 -0.11509414 0.17313972 -0.14044361 0.05692313 -0.121991254 -0.13134456
0.15026806 -0.09707003 -0.08218723 -0.008456374 -0.06955693 -0.000859499 -0.059422232 -0.043849923
-0.09137537 -0.09541376 -0.011997438 -0.19841145 -0.08097809 -0.018379642 0.068817854 0.19265428
0.18242164 0.080088116 -0.008053278 -0.19734374 -0.32323664 -0.15753873 -1.2015676 0.1557103

layers.0.bias f4 [256]
00000000: ffb6 a23d c0e6 98bc 207c 373e a3e7 43bc
00000010: 60de a23d 1df5 87bd b37d cabe 80c8 4ebd
00000020: af2d 5ebd f050 8f3d 422d e4bd 13be 5b3d
00000030: 92f7 45be 7833 af3d 68bf 7f3c 1444 373d
00000040: c134 3d3a 968b d6bd b526 093d ec68 da3c
00000050: 6afb 49be 2757 2cbe 9299 dabc 1c9f 27bd
00000060: cc11 cebd 92fe 37be 5318 c3bd 5fff aabd
00000070: 60c3 46bd 5949 44bd 2fa6 99bd cf40 2e3e
00000080: d7a5 4f3e 009d a4bc ec64 8a3d c12a a13b
00000090: 2747 89bd d7e4 273e 6eb8 1abe 60f6 e4bd
000000a0: a422 24be 01ca 80be aefb 4fbe e7fe 26be
000000b0: dd13 1fbc 3303 46be 719a 6abd 477c c43c
000000c0: 0131 4c3d e6c1 ed3c b972 babd ff26 14be
000000d0: 465f bfbd 5a20 76be 47ea 463e a349 f33d
000000e0: 244b a9bd 103a fabd e6b8 c6bd cd15 2abe
000000f0: eec1 7fbd 3189 42be 5d00 b1bd 691c 4ebd
00000100: 4c70 47be ce5e 8d3d 1a04 3fbe f976 35bb
00000110: 07f9 efbd b975 94bc 08dd b33d 90fe 85be
00000120: a6b4 4cbe ea1a c83d 71b3 d13d d2a9 2dbe
00000130: 2adf 41be 61a1 243d e95e 51be 2a26 e73d
00000140: e2e7 1a3c 1446 aabd 9677 3d3e c671 10be
00000150: 6075 443d 7b51 b7bd f816 103e fcdd d73d
00000160: d70a 9bbd b93c d43d 00e3 193e b064 62bd
00000170: 9a7b acbd 777c b23d 4e82 59bd ffd0 f3bd
00000180: cfc5 c8bc 6b09 e6bd 6337 11be f3e2 85bd
00000190: 85f3 d73d 3f05 463e 8bee 36be 0882 94be
000001a0: af7b d2bc 6796 cfbb 91c3 dfbd 1e49 2f3e
000001b0: 7377 103d 9ac4 4a3c d400 49bd 4edb 593e
000001c0: 9def bcbd 7761 a43d 9598 18be cde3 a4bc
000001d0: 3814 7bbe 3be8 02bd d5bf 81be 19f2 4a3e
000001e0: 051c f83d 4f17 84be 0e54 bfbd fb41 30be
000001f0: 2102 353e 441a 993d c325 8cbd d59c 50be
00000200: e198 9e3d 7398 443e 3e8a 34be c422 45be
00000210: ca6e f6bd 68d8 d0bd 4810 7a3c d4ec 833e
00000220: 3fcf adbe 9288 963c 2150 57be 562c 3bbe
00000230: 7d27 2cbe 6711 f43d bc8f 88bd c9b8 bd3c
00000240: 4487 0d3e d348 21be 4f85 c53d 7717 ca3c
00000250: 1de6 9dbd 4ac3 22be 9061 3fbe 71bb 3cbe
00000260: 0692 9abd f609 ecbd 944e 1bbd 53cd 4e3d
00000270: c8ba 8d3e 56d8 77be 0077 ab3b 2bf0 e9bb
00000280: aebe cd3d dbd2 063d 32e2 903d cdbe 49bc
00000290: c58f cb3d 148e 75bd 1e50 26be 0047 8abd
000002a0: 7c8e 613d 6cdc 8cbe da18 c3bd d2e7 83be
000002b0: 3b4e 3abe bd3c 88bd 7456 2b3e e797 c43e
000002c0: e7b3 20be 18a4 b13d 5dd2 22be 372e 54be
000002d0: 8091 cd3d 8050 0d3c e788 a9bd 6961 053b
000002e0: a32b f6bd 28e8 313e 64b0 273e 4f4d 00be
000002f0: adf2 ebbd 5aac 703d 7bff 8d3d e268 9f3b
00000300: 2ba1 163e 9a73 51bc 6e4b 143d 9aca 8cbc
00000310: 1bca 36be b348 8ebd 4c6c 3bbe 92a0 18be
00000320: 5f86 f8bc 52f5 593e ca21 c9bc 3943 81bd
00000330: 06b6 d0bd ddc7 6dbe a09c 8fbd 9ed2 6fbe
00000340: 73c3 b33d 410d a73f 4bf9 d3bc 8f3b ec3d
00000350: 5823 4bbe 216a 05bd 9c34 e3bd 832f 27be
00000360: e915 8abe 438f 14be 5d99 2fbe e7fd 47be
00000370: 7ab9 44be 74e2 9bbd 652a 6d3e e493 a3be
00000380: 72ee b9bd 4b46 623d 2f50 4abe 6476 10be
00000390: 2ec1 013e 692d 0f3e 23a0 473e 90ba 463e
000003a0: aba3 c53e 6b84 30bd c1b6 2ebe c2e1 52be
000003b0: 9d25 d0bd 2503 95bd fbb9 2ebe f131 c5be
000003c0: 80fe 48be 6337 843d c4fc e3bb 9fdb 68be
000003d0: 238a 46bd 173b 09bd 8015 bf3c fb67 83bd
000003e0: b637 353d 2c13 fb3d 36ff 3dbd 60aa 51bd
000003f0: d3d8 2bbe a9be db3d cb3a 293d d4e1 21be
0.0794506 -0.018664718 0.17918444 -0.011957082 0.07952571 -0.066385485 -0.39549026 -0.05048418
-0.054242786 0.069978595 -0.11141445 0.053648066 -0.19332722 0.08554739 0.0156096 0.04474266
0.0007217639 -0.10475843 0.03348418 0.026661359 -0.19724813 -0.16830121 -0.026684556 -0.040923223
-0.10061988 -0.17968205 -0.09526124 -0.083494894 -0.048526168 -0.047921512 -0.075024 0.1701691
0.20278107 -0.020094395 0.067575306 0.0049184267 -0.06703024 0.16395889 -0.15109417 -0.11179805
-0.1602884 -0.25154117 -0.20310852 -0.16308175 -0.009709326 -0.19337158 -0.057276193 0.023985041
0.04985142 0.029023122 -0.09103913 -0.14468001 -0.09344344 -0.24035779 0.19425307 0.118792795
-0.08266285 -0.12218106 -0.09703235 -0.16609879 -0.062440805 -0.18997647 -0.086426474 -0.050320063
-0.19476432 0.06902848 -0.18653908 -0.0027689321 -0.1171742 -0.01812254 0.08782393 -0.26170778
-0.19990787 0.097707585 0.10239304 -0.16959313 -0.18932787 0.040192965 -0.20446362 0.11286576
0.009454699 -0.083141476 0.1850265 -0.14105901 0.0479635 -0.08951088 0.14071262 0.10540387
-0.07570427 0.103631444 0.15028 -0.055271804 -0.084220126 0.08715146 -0.053102784 -0.11905097
-0.024508385 -0.11232265 -0.14181285 -0.06537428 0.105444945 0.19337939 -0.17864434 -0.29005456
-0.025693743 -0.006335068 -0.10925973 0.17117736 0.035270166 0.012375975 -0.049073055 0.21275064
-0.0922539 0.080264024 -0.14901955 -0.020128155 -0.24519432 -0.031959753 -0.2534167 0.19818915
0.12114719 -0.25799033 -0.09342204 -0.1721267 0.17676593 0.07475713 -0.0684314 -0.20372327
0.07744003 0.1919878 -0.1763086 -0.19251543 -0.1203285 -0.10197526 0.015262671 0.25766623
-0.3394718 0.018375669 -0.2102666 -0.18278632 -0.16811939 0.11917382 -0.0666804 0.023159401
0.13821131 -0.15750436 0.09644567 0.024669392 -0.07709906 -0.1589481 -0.18689561 -0.18430878
-0.07547383 -0.115253374 -0.037916735 0.05048878 0.27681565 -0.2420362 0.0052326918 -0.007139226
0.10046135 0.03291593 0.07074393 -0.012313557 0.09939531 -0.05994995 -0.162415 -0.067518234
0.055067524 -0.2751192 -0.095262244 -0.25762802 -0.18193905 -0.0665221 0.16732198 0.38397142
-0.15693627 0.086738765 -0.1590056 -0.20720755 0.100375175 0.00862515 -0.08278065 0.002035225
-0.12020042 0.17373717 0.16375881 -0.12529491 -0.11520896 0.058758117 0.06933495 0.004864798
0.14709918 -0.012783909 0.036204748 -0.017186452 -0.17850535 -0.0694746 -0.1830303 -0.14905003
-0.03033751 0.21284989 -0.024552245 -0.0631165 -0.10190968 -0.23220773 -0.07012296 -0.23420188
0.08777513 1.305092 -0.025875708 0.115347974 -0.19837701 -0.032571916 -0.11094019 -0.16326718
-0.2696984 -0.14507775 -0.17148347 -0.1953045 -0.19211379 -0.07611552 0.23160703 -0.3194877
-0.09078683 0.055242818 -0.1975715 -0.14107662 0.12671348 0.13982166 0.19494681 0.19407105
0.3860143 -0.043095034 -0.17061903 -0.20593932 -0.10163424 -0.072759904 -0.17063133 -0.38514665
-0.19628334 0.06455877 -0.0069576222 -0.22740029 -0.04847158 -0.033503618 0.023325682 -0.06416317
0.044242583 0.12259516 -0.046385966 -0.051187873 -0.1678193 0.10729725 0.041315835 -0.15808803

layers.1.weight f4 [256, 256]
00000000: aea6 71bd f6bf 5a3d 36a2 323d 6190 fdbd
00000010: 80dc 2e3a 126e 7ebd 879e 9a3d 1f5a b2be
00000020: adb1 9dbe 6ee2 753d 8cd6 853e b670 63bd
00000030: 308f 013f 92b3 a2be ae17 8d3d 1e24 89be
00000040: 76ae 2abf 8f3c 143d 37a2 ed3d fb81 ec3d
00000050: a8a4 633e d8f6 70bd 3976 8abe 3a33 a5be
00000060: 1d93 d5be b6ad 20bf 205b 8ebc 244f 7dbe
00000070: 0a01 593d b6f8 553f 8d84 013e 82c0 0f3d
00000080: 8269 b73e 0e64 183e 5d7f 1c3f c932 2cbe
00000090: 50de 7b3d 2b88 d8bd ce8b 04bf 58ff 063d
000000a0: c4e3 2dbf ddb1 bdbd b4c5 b5be 6ca5 80bc
000000b0: 1e99 b5bc a9cd c33d bcc8 4fbe 3a4d 613e
000000c0: b055 9abd 6c7c f3be 5f91 02bf b29b 5abd
000000d0: 5397 15bf 48ab c8bc 5092 963b 7f93 e23d
000000e0: 5cc6 c0bc 3496 51bd 4651 39be 6c81 33bd
000000f0: f4dc b8be 914e 923e ed51 7ebf 36a8 c6be
00000100: 03e1 de39 a8f7 963e 38c0 0e3c 5b74 823e
00000110: 083b 333d 168e 913d 8e6c c6be 5c11 00bd
00000120: 930c 02bf 402e 96bc b282 8dbd f04c 5a3d
00000130: 50fe ea3b 0a03 36be 87bc 0dbf d178 993e
00000140: 0a6e babe 2266 dbbf 8e4a 923d c5b5 01be
00000150: c439 bd3c da52 04bf 5706 b83e 844d 9ebe
00000160: 78c2 10bc 31d9 733e 9d58 8cbd 1773 43be
00000170: 4299 503d 3e61 1b3d 2a45 f3be 3baf 023e
00000180: 3f3b 72bf 611b bfbe f0dc 84bf 0c78 54be
00000190: 3537 88bb 8837 593d 2449 c2be bda5 35bf
000001a0: e54b bbbe 80ff c93b 5d63 f13c 685d 37bc
000001b0: 886c 473d c5a2 08c0 2ca6 d2bc e5fd 813c
000001c0: 1242 35bd b21e 523d 05c0 3fbf 2012 163c
000001d0: 9246 10be 8177 633c 85a5 a0be 3e48 58bf
000001e0: b7e4 bf3e ea99 1cbf d86a b03c 04d0 38bf
000001f0: a551 a2be 7f48 aa3d 4899 83bc 71d5 c2be
00000200: 834a 19be d242 69bd 51f3 5abe 8cb7 b2bf
00000210: eb61 f83c 2c80 a9be 015a ae3d e6d6 5a3c
00000220: 828c 1ebf 847f 24c0 3f1f 8ebc 019e 0cbf
00000230: 263c 1f3f cd1b 823e ee99 aebe edb6 273e
00000240: 3a1c b9bd 1279 0a3d 9522 99bd 068c 0bbd
00000250: 5808 acbc 9881 cdbc c8c3 69bf 137e 55be
00000260: 2d1a bebd 7e0b 553d 89ae 85bf 000d 9c39
00000270: c15b d1bf 17ba 2cbe 8e7e 0dbd 0a9c 0f3e
00000280: a8e6 a5be 2c49 993c 16b8 3abf 08db fd3e
00000290: dc34 05be a1d8 0cbf d4ef 08be 7815 d33c
000002a0: a275 4f3e 6db8 31bf b498 87bc e655 563e
000002b0: c4ce cdbe 5c69 d33c 1dd8 9fbe 5b34 06be
000002c0: 3e85 09bf d030 ec3e 41dc 26bd f8cb 893d
000002d0: c31c 5abe 02ec 033d d1dc 78be 2cfe 4d3b
000002e0: 5005 cd3b e9e8 86be f670 10bd 132a 53bf
000002f0: b866 0dbc 8cbb b3be 198d f6bd a955 37bf
00000300: 583a f0bc ec57 bc3c 6fdf cdbe 15be 56be
00000310: 115f 0ebd 2625 923e 8cee 8c3e 8fa2 2abe
00000320: 9f27 9abf 934c f739 1b65 aabe 8bc5 70be
00000330: 157c dabe e5e4 11be a8de 473c 578a 05be
00000340: 99b1 67bf 3486 5a3f e09b 813b 8ea1 ef3e
00000350: a523 edbd f7b6 42bd fdf0 943e 9b4e 6a3e
00000360: 8db0 60bd 679e 76be 9320 22bf f837 e9bc
00000370: 22ef 3b3d 62b6 8dbe 8500 f0bd ae86 babf
00000380: 9d9e 99bf 102b 36be 3ce8 023d d7d2 42be
00000390: b25e 473d be16 4cbd 6777 c6bd 7268 52be
000003a0: d6c1 4bbe 3663 20bf 9531 0cbf aff4 433e
000003b0: 960b 20bd c920 f73c 34e2 a73c d883 30bf
000003c0: dea4 01bf 87e7 88bf f037 67be 0788 6c3d
000003d0: d480 95bf 0843 b63d fae3 dabd 34f2 5b3e
000003e0: 09d9 be3e ebc7 a5bd 9d2b 423f 2272 88be
000003f0: 595e 163f 4332 a0bd 6503 52bf 4ba6 413e
-0.05899685 0.053405724 0.043611728 -0.12381054 0.00066704303 -0.06211669 0.07549768 -0.34834382
-0.30799618 0.060030393 0.2614025 -0.05552741 0.5060911 -0.31777626 0.06889282 -0.26785368
-0.66672456 0.036190566 0.11603206 0.11548229 0.2223078 -0.05882916 -0.27043322 -0.32265645
-0.417138 -0.6276506 -0.017377436 -0.24737221 0.052979507 0.8358263 0.1264822 0.0350957
0.35822684 0.14881918 0.6113184 -0.16816248 0.06149131 -0.10572847 -0.51775825 0.03295836
-0.6792567 -0.0926244 -0.35502398 -0.01570388 -0.022167739 0.09560711 -0.20291418 0.22002116
-0.07535875 -0.47555864 -0.5100307 -0.05337114 -0.5843403 -0.024495736 0.0045950785 0.11063289
-0.023532085 -0.051168635 -0.1809741 -0.0438246 -0.36106074 0.28575566 -0.9934376 -0.3880021
0.00042510786 0.29485822 0.008712821 0.25479397 0.04375747 0.07107179 -0.38754696 -0.031266555
-0.50800437 -0.0183326 -0.06909694 0.05329603 0.0071714297 -0.17774597 -0.55365795 0.29974988
-0.36412078 -1.7140543 0.071431264 -0.12666996 0.023098834 -0.5168892 0.35942337 -0.30918515
-0.008835427 0.2381332 -0.06852839 -0.19086872 0.050927408 0.037934534 -0.47513705 0.12762158
-0.9462165 -0.37325576 -1.0379925 -0.20748919 -0.004156972 0.053031474 -0.37946427 -0.7095602
-0.3658134 0.006164491 0.029466325 -0.011191703 0.048687488 -2.1349347 -0.025714003 0.015868137
-0.044252463 0.051298805 -0.74902374 0.009159595 -0.1408942 0.013883472 -0.3137628 -0.8448523
0.37479183 -0.61172354 0.021535322 -0.72192407 -0.31702915 0.08314609 -0.016064301 -0.38053468
-0.1496983 -0.05694849 -0.2138188 -1.3962264 0.030320128 -0.331056 0.08513261 0.0133569
-0.6193315 -2.570283 -0.017348884 -0.54928595 0.62201154 0.25411835 -0.34101814 0.16378374
-0.09038587 0.033806868 -0.07477299 -0.034069084 -0.021000072 -0.02508621 -0.91314363 -0.20848875
-0.092823364 0.052012913 -1.0443889 0.00029764324 -1.6356126 -0.16867863 -0.03454452 0.14024368
-0.3240254 0.018711649 -0.7293714 0.4958117 -0.13008446 -0.5501805 -0.13372737 0.025767073
0.20259717 -0.69422036 -0.016552307 0.20931205 -0.40196812 0.025807075 -0.3121957 -0.1310591
-0.53718936 0.4613099 -0.040737394 0.06728357 -0.21300034 0.032207496 -0.24302985 0.0031432016
0.006256737 -0.2634957 -0.035263978 -0.82486075 -0.008630447 -0.35104024 -0.12038631 -0.7161508
-0.029324695 0.022991143 -0.4020953 -0.20970948 -0.03475863 0.28543967 0.27525747 -0.16663574
-1.2043341 0.00047168563 -0.33280262 -0.23512857 -0.42672792 -0.14247473 0.0121990815 -0.13041054
-0.9050537 0.8536103 0.0039553493 0.46802944 -0.11579064 -0.04753777 0.2909011 0.22881548
-0.054855872 -0.24083863 -0.63330954 -0.02846907 0.04588235 -0.2767821 -0.11718849 -1.4572351
-1.200153 -0.17789865 0.031959757 -0.19025742 0.048674293 -0.049826376 -0.09690743 -0.20547655
-0.19898161 -0.62651384 -0.54763156 0.19136308 -0.03907355 0.030167 0.020493604 -0.6895118
-0.5064219 -1.0695657 -0.22579932 0.057746913 -1.167994 0.08899504 -0.10688014 0.21479112
0.3727496 -0.08094772 0.758478 -0.26649576 0.58737713 -0.07822087 -0.8203643 0.18911092

layers.1.bias f4 [256]
00000000: dd6b 14bf 6a49 f6be 9a64 293f 706d c3be
00000010: 29cb ac3e c6e1 0fbd c212 73bd 9992 f6be
00000020: 27aa 18bf 2b03 81be 0a11 13be 307b 44bd
00000030: 3dc6 96bd de3b a8bc 6237 46bf 158b 18bf
00000040: 49dd 3e3d 4a3a 55bd d185 b13d 437f 023d
00000050: 6981 26bd 3f4b 983e c7e6 2b3d ad40 f9bc
00000060: 69ed 3cbd 0dd0 ce3e 0c00 a93e 5a2b 113f
00000070: c893 2abd a096 37bd 6ded 21bd 7745 8fbe
00000080: 3b46 0bbd 453a 5b3f ef2e 20bd 8c64 12bf
00000090: de35 82bb 0106 49bd 5946 bf3e c04c 11bf
000000a0: 4be4 5e3b 2fe2 36bf 182f 93bd f7c8 f7bd
000000b0: b752 8cbe 23f0 81be fe3e cabd 70e7 a8be
000000c0: 8db6 073d de48 7bbd cb2a 76bd d42a 02bf
000000d0: e015 28ba 1a7a ecbe 865e 8e3f 421a 733e
000000e0: ea26 553c c905 823c 1a95 3cbe 1176 2f3f
000000f0: 1636 ddbe dbc3 8ebf a984 97be 236c 063c
00000100: 3dbe 3cbf 7271 913e e057 8f3e 7234 2bbd
00000110: ad35 9b3e 07fe 433e 8f51 1abd 4694 fa3d
00000120: d319 4dbe 2547 ee3e f72c 97bc 8773 fdbe
00000130: c829 d6ba d599 87bd ed18 69bd 6d54 963e
00000140: 546a 3cb8 e76d b13b 7892 ac3e 398d 723f
00000150: cc7e a13d 0fd7 0abf 2217 33bf 715b 82be
00000160: acd4 06bd ecb4 61be e0ba 3ebd a100 613a
00000170: abc3 913b 2560 cfbd d653 45bd ef25 d2be
00000180: 5043 8dbd f8a2 453e de50 91bd d63a e2bc
00000190: 8a52 663c 6d8e c93c 9e3b 23bd b4e9 d93d
000001a0: 2ba1 a7be 9f0a 0a3d 3a21 3fbf 99aa 0ebf
000001b0: 7127 463d dfb0 18bc 336c d8bc 7698 0bbf
000001c0: a6e9 8f3f 988e 403c baaa a8be d590 e4be
000001d0: 8d1b 7bbc 048f 73bf 14ba 00bd 2fbe bbbe
000001e0: e168 8cbc 0806 f8be f863 c03f 9cd6 2bbf
000001f0: 1c9f aebd b8da 0dbd bf9c 9d3e 39c1 89be
00000200: 9200 243f 3455 753c ae40 a5be 13a6 6d3e
00000210: 2f40 10bd 1cce 96bd 16af acbe 0613 3ebd
00000220: 7c9f afbc 5d58 3abd bb8c 32bd 9340 2dbe
00000230: d673 9d3c c2fc 5e3f cb04 3bbe ca5d 01bc
00000240: fd9a 083f 3194 85bc bed0 073f 0dbd 98bc
00000250: 8677 4ebe 6989 9fbc 01c9 1bbd afae 49be
00000260: a15c 2a3c a0b2 6d3e bd69 8abd cbb3 06bf
00000270: f720 82bd 4d70 f5bc 2654 093e 851d c4ba
00000280: f367 2abd fdcd 233e c2c4 9ebd 47e0 80bf
00000290: 8203 1bbf d249 b1bd a819 5cbd f510 e3be
000002a0: b125 293f abe5 d0be 8684 493e 90da e13b
000002b0: fa2b 50bd 72f4 53bd 6862 febe dd76 26bc
000002c0: ef00 3a3e 518f 34bd 89ce 98ba 9070 d63e
000002d0: 4993 0f3d b90c 08bc c4a6 41bd f487 54bd
000002e0: 8e9f 6abd 15b8 44be da62 a53e b204 5cbf
000002f0: 161d 153e 2142 9fbe 10e2 d93d 8cc4 01bf
00000300: 46e8 81bc 1dd4 a13e 838d b33e 6442 983a
00000310: 1ece a0bd 7d1e 5b3e 9831 d5be 386b 003f
00000320: db02 26bf 3218 07bd 034f 93bc 9a7b aabd
00000330: 8e0c 90bd 111d 38bd 4224 b83e 608d e3be
00000340: 0860 90bd 267f aabc d951 163f d2d8 143e
00000350: af17 0dbe f65f 503f 714a f1bc 9dc6 64bc
00000360: b5ca 67bf 3cad adbd f71c 143f c8e7 3dbe
00000370: be22 133f b431 cabe eb72 21bd 9dea fdbc
00000380: 24b8 de3c be39 893e c8a8 1cbe 53ae e1be
00000390: 0e3d a8bc 73c1 813e 584a d33e 6d36 d4bc
000003a0: 480e 3bbd 7f7e 7ebd 9015 57bd 2728 423b
000003b0: 8cb1 22bc bdd8 993d 96c9 21bd ca78 b7bc
000003c0: 122f b4be 145d 66bd 0abc 16be 3df6 e3bd
000003d0: ab63 5ebd e204 69bd 8e32 30bf 0734 d13e
000003e0: c711 7bbd 7c74 3bbd c2fa 02bd 67c2 30be
000003f0: a6d6 d9be 1c41 093d b732 c8be 2f08 06bf
-0.57977086 -0.48102885 0.6616913 -0.38169432 0.3374875 -0.035127424 -0.05934406 -0.4815872
-0.5963463 -0.2519773 -0.14361969 -0.047969043 -0.0736203 -0.02053636 -0.7742826 -0.5958722
0.046597753 -0.052057542 0.086681016 0.031859647 -0.04065076 0.29744908 0.041968133 -0.030426348
-0.04612485 0.40393105 0.33007848 0.56706774 -0.04164484 -0.04482138 -0.039533067 -0.27982685
-0.034002524 0.8563579 -0.03910726 -0.5718467 -0.0039737066 -0.04907799 0.37358359 -0.56757736
0.0034010585 -0.7143888 -0.07186717 -0.12098878 -0.27406856 -0.25378522 -0.09875296 -0.32989073
0.03313308 -0.06134879 -0.060099404 -0.508466 -0.0006411951 -0.46186906 1.1122596 0.23740485
0.013009766 0.0158719 -0.18416253 0.6853953 -0.43205327 -1.115352 -0.295934 0.008204493
-0.7372778 0.28406864 0.2799673 -0.041798063 0.3031439 0.19139872 -0.037675437 0.12235312
-0.20029382 0.46538654 -0.018454058 -0.49502203 -0.0016339356 -0.06621138 -0.056908537 0.29361287
-4.492172e-05 0.0054147127 0.33705497 0.9474674 0.07885513 -0.54234403 -0.6995717 -0.2546039
-0.032917663 -0.22041672 -0.046564937 0.00085831626 0.0044483743 -0.1012576 -0.048175655 -0.41044566
-0.068976045 0.19300449 -0.07095502 -0.027615946 0.014057765 0.024604047 -0.039851777 0.106402785
-0.3274015 0.033701535 -0.74660075 -0.5572906 0.048377458 -0.009319513 -0.02641878 -0.5452951
1.1243179 0.011752747 -0.32942754 -0.44641748 -0.015326393 -0.951401 -0.031427458 -0.36668536
-0.017139854 -0.484421 1.5030508 -0.6712434 -0.085264415 -0.034632415 0.3078365 -0.2690523
0.6406337 0.014973927 -0.3227591 0.23207884 -0.03521746 -0.07363531 -0.3372733 -0.04640486
-0.021438353 -0.045494426 -0.043591242 -0.16919164 0.019220274 0.8710443 -0.18263547 -0.007895896
0.53361493 -0.016306015 0.5305289 -0.018644834 -0.20162782 -0.019474702 -0.03803349 -0.19695543
0.010398061 0.23212671 -0.06758449 -0.5261809 -0.06353944 -0.029960776 0.13411006 -0.0014962411
-0.04160304 0.15996547 -0.07752372 -1.0068444 -0.6055223 -0.08656658 -0.053735405 -0.44348875
0.6607314 -0.40800223 0.1967946 0.0068925098 -0.05082319 -0.051746793 -0.49684453 -0.010160175
0.18164419 -0.04408199 -0.0011658232 0.41882753 0.03505257 -0.008303815 -0.04727818 -0.051887468
-0.05728107 -0.19210847 0.3230198 -0.85944664 0.14561877 -0.3110514 0.10638821 -0.5069053
-0.015857827 0.31607142 0.35068902 0.0011616466 -0.07851814 0.21398349 -0.416394 0.501636
-0.6484811 -0.03298206 -0.017982012 -0.083243564 -0.070336446 -0.044949595 0.35965163 -0.44443798
-0.070495665 -0.020812582 0.5871864 0.14535835 -0.13778566 0.81396425 -0.029454442 -0.013963369
-0.9054368 -0.084803075 0.57856697 -0.18545449 0.5747489 -0.39491045 -0.039416235 -0.030995661
0.027187414 0.26801866 -0.1529876 -0.4407831 -0.020536926 0.25342903 0.41267657 -0.025904858
-0.045667917 -0.062132355 -0.052510798 0.0029625983 -0.009930026 0.07512043 -0.039498888 -0.022396464
-0.35192162 -0.05624111 -0.14720169 -0.111309506 -0.05429427 -0.056889422 -0.6882714 0.40860006
-0.06129625 -0.045765385 -0.031977423 -0.17261659 -0.42546576 0.03350936 -0.39101192 -0.5235624

predict.weight f4 [5, 256]
00000000: d3b1 813f a7d7 4e3f 6db5 ccbf 4dca 703e
00000010: 5b21 4c3f b7f1 11bd c4f6 03bd 0b4f 0e3f
00000020: b4cf eb3e 0eaf c93c 6408 eb3d 7c30 35bb
00000030: 391d 50bc 69f8 8fbc 4dc0 83be a385 203e
00000040: c999 c3bf b849 353c de60 ac3e e990 f0bc
00000050: 8381 eabc c7b6 e4bd c575 db3b 62bb 353d
00000060: 6b27 85bd fafd 683f 22e9 53bd cddd a2bf
00000070: 549e 51bd 3e79 13bd db19 b43c 1306 273f
00000080: e135 00bf c519 bebf 8e56 183a 7d93 063f
00000090: bfa0 6c3c a02b 7b3b 5e76 a7bf 0598 813e
000000a0: a905 cf3c c0bf 833f dfd7 703c 19cd 86be
000000b0: 93d7 34be 18f6 a63e 3cbe ad3e ab60 e23c
000000c0: faf5 ccbc eeed a73c d92e 44bc 95c5 6f3f
000000d0: afb6 96bb 791e 0e3f 16b5 87bf c638 38be
000000e0: 618f 5cbd 87b1 3abd b698 e73e 41c2 cf3e
000000f0: 8dfb 113f b49a e6bd afb3 b9bd a1af 903b
00000100: eb56 0fbf 7abc 03be b7b4 11bc feb2 403b
00000110: 57fe d43e 9cdb 3fc0 0800 4c3c 91ec 863e
00000120: cf9e 01bf 4450 17bf 4320 57be 0e07 8e3f
00000130: 7956 043f 3a54 d8bc 0e4f ae3d 38c2 87bf
00000140: 89a9 053d 0a3a ef3c 67a8 f2be f285 b8bf
00000150: 7586 e8bd 5c93 b13e 27c5 afbe 29b9 38bd
00000160: 7a2e 2c3d 8d24 353e 108f ee3c 78b8 a73c
00000170: d5b1 a7bc 2589 fc3e 3b05 28bd 94d3 9ebe
00000180: 09ea 3ebd fad8 69be 3fd9 333e 0a47 41bd
00000190: 53bf b5bc 432e 023d 512c 203d f6a2 c7bd
000001a0: 1f80 aa3e 2fdb 843c 8f31 ce3e 3ee5 b73e
000001b0: 4ac3 583c 1c74 df3c 8e5c 2d3f 5f05 6f3e
000001c0: 24fb b7bf c39e 23bd 9500 913c 1c28 ac3e
000001d0: 6854 0c3b 6218 ad3e 6a81 d8bc 5e6d 00bf
000001e0: d7f2 89bc 4677 87be f124 22c0 31f5 313f
000001f0: 681a c03d 605a c5bc 8d35 af3d b248 a73d
00000200: bfc4 63bf 6a08 b8bc 0571 293f a2e5 aebe
00000210: 5614 0fbc 7fd5 82ba d635 f1bd 1f38 21bc
00000220: 5a4b f2bc 7c54 fd3b b943 e5bc e887 173f
00000230: 0b0e b13f 847b 07bf ca00 033f a61b 8b3c
00000240: ea9e 933e 1841 3fbd 5eaf e0be 6939 383d
00000250: c9a0 af3e 55d5 973e 4ab8 2c3c 5055 363f
00000260: 7c4e 16bd b02c b3bd d000 a3bb 587f 9d3f
00000270: ae06 123d d811 b2bc 28a7 163e 8c19 82bc
00000280: a8b3 aa3c ecfe ccbf 795e 62bc 47b2 4d3e
00000290: a1ea adbd 9bec c13c 8d94 93bc 754a 9c3f
000002a0: 56ef 31bf dff7 9cbe 5de9 cf3d a4b3 dd3c
000002b0: c37c 013c 180d b8bb b432 183f f563 d9ba
000002c0: 390f 33bf 7ad8 123d a435 8abc 7f06 0f3f
000002d0: 75a2 823b 90fa 81bc 167c 42bd 8ab0 363d
000002e0: 7a78 3f3d 3398 873d 0886 763d 88f6 613e
000002f0: e899 abbf 45de f63c 03d4 4bbf a0bf cb3e
00000300: 8e65 013c 184f 5fbd 7a1a 6d3e 9be0 3c3d
00000310: aee0 ac3c 6a3d bbbf 9f78 a83f 80a4 b53f
00000320: 36ef bdbc 4c7b 64bd 2c66 babc 1a33 2dbc
00000330: 18c5 41bd c133 2ebd dcf1 643f b3a6 593e
00000340: 4b92 09be 933e 1f3d c2fd 8ebd 4d6d f3bf
00000350: faf0 9b3d 2734 c03f 8801 113c 0232 c93b
00000360: 0578 d93d 6541 d53c 8c2d 92bf 750f 09be
00000370: 6014 23c0 50ee babe 43df 7abd 4f81 703d
00000380: 92d8 9cbb 0d10 1ebe 2bd8 1a3f 834a 8abe
00000390: 986a c8bc dbf6 03bf 97ee 5f3d d15c bc3c
000003a0: 342b 153d ef3e a4bc 3518 3abd e454 4d3c
000003b0: 143f 643c aab2 1cc0 6cbc 2b3d 5e73 043d
000003c0: 6efa b0bd 10bc 5ebd 752f 0ebf b845 7d3f
000003d0: 244c a4bf 54c8 113d 21d8 f8bf a00d 58be
000003e0: fe27 d0bb 6e92 c33d 6fa5 0a3c a13e 21bd
000003f0: c831 c8bf 184e 20bd 2db5 1bb9 7890 8b3e
1.0132393 0.8079781 -1.5992867 0.23514672 0.79738396 -0.035630908 -0.032217756 0.5558936
0.46056902 0.024619605 0.1147621 -0.0027647307 -0.01270228 -0.017574506 -0.2573265 0.15675978
-1.5281307 0.011064939 0.33667654 -0.029365974 -0.02862621 -0.111676745 0.006697389 0.044368155
-0.06501659 0.9101254 -0.051736005 -1.2723938 -0.051176384 -0.036004297 0.021984985 0.65243644
-0.5008221 -1.4851614 0.00058112375 0.525688 0.014442622 0.0038325563 -1.3082998 0.25311294
0.025271254 1.0292892 0.014699905 -0.26328352 -0.1766036 0.3260963 0.339342 0.027633986
-0.025019635 0.020499196 -0.01197406 0.9366086 -0.0045994143 0.5551525 -1.0602138 -0.17990407
-0.053847674 -0.04557946 0.45233697 0.4057789 0.5702446 -0.11259976 -0.09067475 0.004415468
-0.55992 -0.12864867 -0.008893183 0.0029403563 0.41600296 -2.997779 0.012451179 0.2635236
-0.5063295 -0.5910685 -0.210084 1.1095903 0.51694447 -0.02640735 0.08511172 -1.0606146
0.032632384 0.02920248 -0.47394106 -1.4415877 -0.11353771 0.3468274 -0.34330103 -0.045098457
0.04203651 0.17689724 0.029120952 0.020473704 -0.02047054 0.49323383 -0.041020613 -0.31020796
-0.046609912 -0.22836676 0.17563342 -0.04718689 -0.022185957 0.0317824 0.039104763 -0.09747879
0.33300874 0.016217796 0.40272185 0.35917085 0.013230154 0.027277045 0.6771935 0.23341893
-1.4373517 -0.03994633 0.017700473 0.3362435 0.0021412615 0.33807665 -0.026428897 -0.5016688
-0.016839428 -0.26458186 -2.5335047 0.6951476 0.093800366 -0.024090946 0.08555136 0.081681624
-0.88972086 -0.02246495 0.6618808 -0.3415957 -0.008732876 -0.000998184 -0.117778465 -0.0098400405
-0.029576946 0.0077310186 -0.027986394 0.5919175 1.383241 -0.52922845 0.5117308 0.016980957
0.2883218 -0.046692938 -0.43883795 0.044976626 0.34302357 0.29654947 0.010541985 0.71223927
-0.036695942 -0.08748758 -0.004974462 1.2304487 0.0356509 -0.021737024 0.14712203 -0.015881322
0.02083762 -1.6015296 -0.013816469 0.20087539 -0.084920175 0.023672393 -0.01801517 1.2210222
-0.6950582 -0.3065786 0.101519324 0.027063198 0.007903281 -0.0056167953 0.59452367 -0.0016585576
-0.699451 0.03585098 -0.016871281 0.5586929 0.0039866515 -0.015866548 -0.04748162 0.044601955
0.046745755 0.066208266 0.060186416 0.220667 -1.3406343 0.030135283 -0.7962038 0.39794636
0.007897748 -0.05451879 0.23154631 0.046112638 0.02110323 -1.4628117 1.3161811 1.4190826
-0.023185354 -0.055781648 -0.022753797 -0.010571266 -0.047307104 -0.042529825 0.8943155 0.21254997
-0.13434713 0.038878035 -0.06981994 -1.9017731 0.07614322 1.5015916 0.008850463 0.0061399946
0.10618595 0.02603216 -1.142015 -0.13384803 -2.5481186 -0.36509943 -0.061248075 0.05871707
-0.0047865594 -0.1543581 0.60486096 -0.27009973 -0.02446489 -0.51548547 0.054670896 0.022993477
0.036418155 -0.02004954 -0.045433242 0.0125324465 0.013931055 -2.4484048 0.04192774 0.032336585
-0.08641516 -0.05437857 -0.55541164 0.9893451 -1.2835736 0.03559144 -1.9440957 -0.21098948
-0.0063524237 0.095494136 0.008462294 -0.03936637 -1.5640192 -0.039136976 -0.00014849445 0.27258658

predict.bias f4 [5]
00000000: a15a eabe 8a5b 83be f104 02bf 732c c7be
00000010: e309 03bf
-0.4577227 -0.25655776 -0.5078879 -0.389011 -0.5118696

exp_avg f4 [256, 25]
00000000: 6aa4 f23c 89e7 ec3c 1aa5 0c3d 69cf 693c
00000010: 18e4 ac38 6aa4 f23c 5847 b4bb e624 03bb
00000020: 6dbb aebb 0c69 8cb8 6aa4 f23c d5bd 0d3c
00000030: 3057 45bd f631 cdbb b83c 40b8 6aa4 f23c
00000040: 0bef 193c 1b68 03bd ef6d efbb 42cc 0ab9
00000050: 6aa4 f23c bc5b af3c 32a5 fabc abd3 70bb
00000060: 33b9 a7b9 0000 0000 0000 0000 0000 0000
00000070: 0000 0000 0000 0000 0000 0000 0000 0000
00000080: 0000 0000 0000 0000 0000 0000 0000 0000
00000090: 0000 0000 0000 0000 0000 0000 0000 0000
000000a0: 0000 0000 0000 0000 0000 0000 0000 0000
000000b0: 0000 0000 0000 0000 0000 0000 0000 0000
000000c0: 0000 0000 0000 0000 0000 0000 0000 0000
000000d0: 0000 0000 0000 0000 0000 0000 0000 0000
000000e0: 0000 0000 0000 0000 0000 0000 0000 0000
000000f0: 0000 0000 0000 0000 0000 0000 0000 0000
00000100: 0000 0000 0000 0000 0000 0000 0000 0000
00000110: 0000 0000 0000 0000 0000 0000 0000 0000
00000120: 0000 0000 0000 0000 0000 0000 2073 82bd
00000130: 42c3 86bd c008 28bc c8aa a4bc b219 3439
00000140: 2073 82bd a9c3 acbb 581f db3b 4374 b13b
00000150: b2b8 14b9 2073 82bd 62a3 90bb f8c2 bdbc
00000160: de39 c03b 5e1e 01b9 2073 82bd b6fe 15bc
00000170: d7ca 47bc 4f68 753b dcb9 3fb9 2073 82bd
00000180: 549f 9fbc 9a9b c7bc 142c b73b 065e 40b9
00000190: 0000 0000 0000 0000 0000 0000 0000 0000
000001a0: 0000 0000 0000 0000 0000 0000 0000 0000
000001b0: 0000 0000 0000 0000 0000 0000 0000 0000
000001c0: 0000 0000 0000 0000 0000 0000 0000 0000
000001d0: 0000 0000 0000 0000 0000 0000 0000 0000
000001e0: 0000 0000 0000 0000 0000 0000 0000 0000
000001f0: 0000 0000 0000 0000 0000 0000 0000 0000
00000200: 0000 0000 0000 0000 0000 0000 0000 0000
00000210: 0000 0000 0000 0000 0000 0000 0000 0000
00000220: 0000 0000 0000 0000 0000 0000 0000 0000
00000230: 0000 0000 0000 0000 0000 0000 0000 0000
00000240: 0000 0000 0000 0000 0000 0000 0000 0000
00000250: 0000 0000 0000 0000 760f 1502 760f 1502
00000260: 2576 1702 4146 1002 3112 1b82 760f 1502
00000270: 74bc 1d82 bf55 1e82 ced2 1382 3112 1b02
00000280: 760f 1502 9f3a 1d82 2576 1782 68d2 1e82
00000290: 3112 1b02 760f 1502 49e3 1902 2576 1782
000002a0: 9c27 1682 3112 1b02 760f 1502 b530 1e02
000002b0: 8a8a 1b82 fe07 1482 3112 1b02 361b a33c
000002c0: f11a a33c f09c 1a3c 7f16 013c c2b8 b1b9
000002d0: 361b a33c 5074 ac3a 1f9b 39bc 68c7 2ebb
000002e0: 59f8 b339 361b a33c 4cf1 173b 1811 8e3b
000002f0: 4f06 68bb 6b3b b139 361b a33c b878 213b
00000300: 8616 edba 5829 2fbb 83a9 b239 361b a33c
00000310: c8c0 bf3b 8075 b138 d5c0 48bb c935 a639
00000320: 51fa 8a3d b171 893d 066d 533c b776 a43c
00000330: ef88 5638 51fa 8a3d 6e61 1e3b 141b 6f3b
00000340: 9c56 16bb b0fa 1b3a 51fa 8a3d a914 163c
00000350: 6b1f 103d b000 18ba c4ab 0038 51fa 8a3d
00000360: e610 c83c 9327 2e3d d48e 27bb 6e61 b239
00000370: 51fa 8a3d f848 bb3c c861 e0bc 1adc 7cbb
00000380: 14ff 39b7 0000 0000 0000 0000 0000 0000
00000390: 0000 0000 0000 0000 0000 0000 0000 0000
000003a0: 0000 0000 0000 0000 0000 0000 0000 0000
000003b0: 0000 0000 0000 0000 0000 0000 0000 0000
000003c0: 0000 0000 0000 0000 0000 0000 0000 0000
000003d0: 0000 0000 0000 0000 0000 0000 0000 0000
000003e0: 0000 0000 0000 0000 e1c4 1ebe 8d56 16be
000003f0: 5106 04bd a0b9 3dbd 25fe 173a e1c4 1ebe
0.029619414 0.028918998 0.03433714 0.014270642 8.244085e-05 0.029619414 -0.005501669 -0.0020011007
-0.0053324015 -6.695287e-05 0.029619414 0.0086512165 -0.04817885 -0.0062620593 -4.5832916e-05 0.029619414
0.009395371 -0.032081705 -0.0073068063 -0.00013236798 0.029619414 0.021406047 -0.03059635 -0.0036747258
-0.00031990706 0.0 0.0 0.0 0.0 0.0 0.0 0.0
0.0 0.0 0.0 0.0 0.0 0.0 0.0 0.0
0.0 0.0 0.0 0.0 0.0 0.0 0.0 0.0
0.0 0.0 0.0 0.0 0.0 0.0 0.0 0.0
0.0 0.0 0.0 0.0 0.0 0.0 0.0 0.0
0.0 0.0 0.0 0.0 0.0 0.0 0.0 0.0
0.0 0.0 0.0 -0.063696146 -0.06580211 -0.010255992 -0.020100966 0.0001717571
-0.063696146 -0.005272348 0.006687086 0.005415471 -0.00014183184 -0.063696146 -0.004414008 -0.023164257
0.0058662733 -0.00012313711 -0.063696146 -0.009154966 -0.012194357 0.0037446206 -0.00018284417 -0.063696146
-0.019485153 -0.024366189 0.0055899713 -0.00018345573 0.0 0.0 0.0 0.0
0.0 0.0 0.0 0.0 0.0 0.0 0.0 0.0
0.0 0.0 0.0 0.0 0.0 0.0 0.0 0.0
0.0 0.0 0.0 0.0 0.0 0.0 0.0 0.0
0.0 0.0 0.0 0.0 0.0 0.0 0.0 0.0
0.0 0.0 0.0 0.0 0.0 0.0 0.0 0.0
0.0 0.0 0.0 0.0 0.0 0.0 1.0951228e-37 1.0951228e-37
1.1127634e-37 1.0599611e-37 -1.1392822e-37 1.0951228e-37 -1.1588622e-37 -1.1632615e-37 -1.0860352e-37 1.1392822e-37
1.0951228e-37 -1.1551362e-37 -1.1127634e-37 -1.166839e-37 1.1392822e-37 1.0951228e-37 1.1305892e-37 -1.1127634e-37
-1.1031627e-37 1.1392822e-37 1.0951228e-37 1.1621985e-37 -1.142736e-37 -1.0875616e-37 1.1392822e-37 0.019910436
0.019910308 0.009436831 0.007878899 -0.00033897726 0.019910436 0.0013157222 -0.011328488 -0.0026669148
0.00034326574 0.019910436 0.0023184596 0.004335534 -0.003540415 0.0003380434 0.019910436 0.0024638604
-0.0018088378 -0.0026727524 0.00034077102 0.019910436 0.0058518387 8.461904e-05 -0.0030632515 0.0003170206
0.06786025 0.06711138 0.012904411 0.020076139 5.1149105e-05 0.06786025 0.002416696 0.0036484646
-0.0022939807 0.0005950136 0.06786025 0.009160199 0.035186213 -0.0005798442 3.0677547e-05 0.06786025
0.02442212 0.04251821 -0.002556731 0.00034023396 0.06786025 0.022861943 -0.027390376 -0.003858334
-1.1086249e-05 0.0 0.0 0.0 0.0 0.0 0.0 0.0
0.0 0.0 0.0 0.0 0.0 0.0 0.0 0.0
0.0 0.0 0.0 0.0 0.0 0.0 0.0 0.0
0.0 0.0 -0.15504791 -0.14681454 -0.032232586 -0.046319604 0.00057980634 -0.15504791

exp_avg_sq f4 [256, 25]
00000000: 7469 ac3d d9d9 aa3d 31cd e83c 5dfa 493c
00000010: 4ae8 f635 7469 ac3d 5f64 b839 993d 193c
00000020: 0115 953a 225f 5e36 7469 ac3d e233 c83a
00000030: d142 a83c 7806 9a3a b68a 0836 7469 ac3d
00000040: 8cdb bc3b 56ba 153c bf00 993a 9945 b036
00000050: 7469 ac3d 9326 5f3c 57a7 5d3c 4e2a 933a
00000060: d8bd 2536 0000 0000 0000 0000 0000 0000
00000070: 0000 0000 0000 0000 0000 0000 0000 0000
00000080: 0000 0000 0000 0000 0000 0000 0000 0000
00000090: 0000 0000 0000 0000 0000 0000 0000 0000
000000a0: 0000 0000 0000 0000 0000 0000 0000 0000
000000b0: 0000 0000 0000 0000 0000 0000 0000 0000
000000c0: 0000 0000 0000 0000 0000 0000 0000 0000
000000d0: 0000 0000 0000 0000 0000 0000 0000 0000
000000e0: 0000 0000 0000 0000 0000 0000 0000 0000
000000f0: 0000 0000 0000 0000 0000 0000 0000 0000
00000100: 0000 0000 0000 0000 0000 0000 0000 0000
00000110: 0000 0000 0000 0000 0000 0000 0000 0000
00000120: 0000 0000 0000 0000 0000 0000 3504 f13d
00000130: a72c f03d 7e39 333c 6400 853c 7ac5 4c36
00000140: 3504 f13d e908 4d39 54cb c63c 06f2 a83a
00000150: 1090 7436 3504 f13d a1e9 b23a 504a 4d3c
00000160: 336b ad3a c049 5636 3504 f13d 4bb6 a63b
00000170: 67ee 653c 3347 b43a 64ba 9336 3504 f13d
00000180: 599f 843c 87f3 8a3c 217e ac3a cfca 8f36
00000190: 0000 0000 0000 0000 0000 0000 0000 0000
000001a0: 0000 0000 0000 0000 0000 0000 0000 0000
000001b0: 0000 0000 0000 0000 0000 0000 0000 0000
000001c0: 0000 0000 0000 0000 0000 0000 0000 0000
000001d0: 0000 0000 0000 0000 0000 0000 0000 0000
000001e0: 0000 0000 0000 0000 0000 0000 0000 0000
000001f0: 0000 0000 0000 0000 0000 0000 0000 0000
00000200: 0000 0000 0000 0000 0000 0000 0000 0000
00000210: 0000 0000 0000 0000 0000 0000 0000 0000
00000220: 0000 0000 0000 0000 0000 0000 0000 0000
00000230: 0000 0000 0000 0000 0000 0000 0000 0000
00000240: 0000 0000 0000 0000 0000 0000 0000 0000
00000250: 0000 0000 0000 0000 30c7 9a20 30c7 9a20
00000260: 6b3f 2520 4336 2020 c7dc f617 30c7 9a20
00000270: a727 001c 3e9d 0d20 bfe9 0c1f b283 4019
00000280: 30c7 9a20 7adb cb1c afe6 2320 150e b41e
00000290: 895a 4519 30c7 9a20 7e75 581e 79a7 f61e
000002a0: 7368 ce1e 3885 4919 30c7 9a20 d3c2 ce1f
000002b0: f9d0 0420 ef59 141f fa18 1318 6aad 983c
000002c0: 20ad 983c 091b 323a 78dd 353b 7404 6934
000002d0: 6aad 983c fe99 ad37 15e7 313b 24a2 9039
000002e0: b1ba 7834 6aad 983c d15c f038 9947 b03b
000002f0: 5be9 9f39 6683 1035 6aad 983c 5d92 883a
00000300: 9e84 033b 9728 9339 41d4 d934 6aad 983c
00000310: 9d78 0e3b d1b7 af3b 7f21 9439 31b8 8d35
00000320: 58a4 2a3e cb0b 2a3e 85e1 7b3d c76b dc3c
00000330: 4b94 3136 58a4 2a3e 88a5 6939 8e70 133d
00000340: be33 343b 11d4 1837 58a4 2a3e 8fc0 013b
00000350: 6f15 f13c 4262 2f3b b67a 8b36 58a4 2a3e
00000360: 13ee 2a3c 787f 053d bef5 333b e48a e836
00000370: 58a4 2a3e af2d df3c feb5 0a3d 17b6 223b
00000380: bc16 5d36 0000 0000 0000 0000 0000 0000
00000390: 0000 0000 0000 0000 0000 0000 0000 0000
000003a0: 0000 0000 0000 0000 0000 0000 0000 0000
000003b0: 0000 0000 0000 0000 0000 0000 0000 0000
000003c0: 0000 0000 0000 0000 0000 0000 0000 0000
000003d0: 0000 0000 0000 0000 0000 0000 0000 0000
000003e0: 0000 0000 0000 0000 23d6 d13e e30d d03e
000003f0: 30ca d83d 65b5 ac3d 5150 6a37 23d6 d13e
0.08418551 0.083423324 0.028418155 0.012327758 1.8396033e-06 0.08418551 0.00035169997 0.009353065
0.0011374058 3.3135952e-06 0.08418551 0.0015274251 0.020539673 0.0011751195 2.034632e-06 0.08418551
0.0057634767 0.009138664 0.0011673196 5.253311e-06 0.08418551 0.013620037 0.013528666 0.0011227818
2.469742e-06 0.0 0.0 0.0 0.0 0.0 0.0 0.0
0.0 0.0 0.0 0.0 0.0 0.0 0.0 0.0
0.0 0.0 0.0 0.0 0.0 0.0 0.0 0.0
0.0 0.0 0.0 0.0 0.0 0.0 0.0 0.0
0.0 0.0 0.0 0.0 0.0 0.0 0.0 0.0
0.0 0.0 0.0 0.0 0.0 0.0 0.0 0.0
0.0 0.0 0.0 0.117683806 0.11727267 0.010939 0.016235538 3.0513315e-06
0.117683806 0.00019553643 0.024266876 0.0012889511 3.6442689e-06 0.117683806 0.0013649949 0.0125299245
0.00132308 3.1931413e-06 0.117683806 0.005087649 0.01403389 0.0013754129 4.40264e-06 0.117683806
0.016189264 0.016961826 0.0013160148 4.285342e-06 0.0 0.0 0.0 0.0
0.0 0.0 0.0 0.0 0.0 0.0 0.0 0.0
0.0 0.0 0.0 0.0 0.0 0.0 0.0 0.0
0.0 0.0 0.0 0.0 0.0 0.0 0.0 0.0
0.0 0.0 0.0 0.0 0.0 0.0 0.0 0.0
0.0 0.0 0.0 0.0 0.0 0.0 0.0 0.0
0.0 0.0 0.0 0.0 0.0 0.0 2.6220426e-19 2.6220426e-19
1.3997027e-19 1.3570481e-19 1.5953109e-24 2.6220426e-19 4.2402897e-22 1.1995192e-19 2.9839503e-20 9.952763e-24
2.6220426e-19 1.3490147e-21 1.3882964e-19 1.9064066e-20 1.0202945e-23 2.6220426e-19 1.1459242e-20 2.6115528e-20
2.1854298e-20 1.041836e-23 2.6220426e-19 8.75667e-20 1.1249978e-19 3.141461e-20 1.9011915e-24 0.018637378
0.01863724 0.00067941897 0.0027750414 2.1701436e-07 0.018637378 2.0694915e-05 0.0027145792 0.00027586624
2.3164718e-07 0.018637378 0.0001146138 0.005379629 0.00030500707 5.383539e-07 0.018637378 0.0010419596
0.002006806 0.00028068267 4.0573835e-07 0.018637378 0.0021739372 0.005362489 0.00028253716 1.0558925e-06
0.16664255 0.16606061 0.06149437 0.026906861 2.6461373e-06 0.16664255 0.00022282277 0.035996012
0.002749666 9.109282e-06 0.16664255 0.0019798612 0.029429166 0.0026761447 4.1568082e-06 0.16664255
0.010432738 0.032592267 0.0027459706 6.930308e-06 0.16664255 0.027243463 0.033864968 0.0024827772
3.29448e-06 0.0 0.0 0.0 0.0 0.0 0.0 0.0
0.0 0.0 0.0 0.0 0.0 0.0 0.0 0.0
0.0 0.0 0.0 0.0 0.0 0.0 0.0 0.0
0.0 0.0 0.40983686 0.40635595 0.10585439 0.08433036 1.3966187e-05 0.40983686

exp_avg f4 [256]
00000000: 68a4 f23c 0000 0000 0000 0000 2273 82bd
00000010: 0000 0000 0000 0000 760f 1502 371b a33c
00000020: 51fa 8a3d 0000 0000 e1c4 1ebe 0000 0000
00000030: 763b eb3b e0e4 633e aeaf b8bd 4d36 a13d
00000040: e990 35bd 5a47 1f02 fc36 9bbb 3286 2f3d
00000050: 82f4 14bc 0000 0000 c3f4 1602 75de 1c02
00000060: 6ede 0e3e 7a0a e73d 0000 0000 d8b0 f53d
00000070: 0000 0000 aa4d 4e3d 10f5 053b 0000 0000
00000080: e852 7bbc 83c3 0abe 9f3a 0dbe d085 0f3e
00000090: 0000 0000 144d c73d 26b1 6fbc 0000 0000
000000a0: bcae 9a3c 1f4d 033c 8a73 403d 0000 0000
000000b0: c656 1602 9637 0abd 4891 14bd 302b 1dbe
000000c0: 92aa 1102 d1b4 88bd 9492 20bc 0000 0000
000000d0: f03b 0e3c 73b2 fbbc 0000 0000 3f76 5fbd
000000e0: 1f0b 9bbc 0000 0000 10c9 403c 0000 0000
000000f0: e24a 363e 7c73 19bc 7524 9c3d 145e 6a3c
00000100: f0b6 1a02 a36a 4bbb 0000 0000 3db8 86bc
00000110: 423b 1b3e c377 033e 9f80 6f3d 9d67 1302
00000120: b8af d53c 0000 0000 882b efbc 0000 0000
00000130: 0000 0000 b0e0 02be 3ed3 a7bc 2e01 1b3d
00000140: e04a 82bc 3c5c d7bd 8c06 1502 6451 b3bb
00000150: 0000 0000 8efa 103e ded6 65bd 5fdb b33c
00000160: 0000 0000 c9df c3bd ed86 0cbe c891 1802
00000170: 0000 0000 0000 0000 ea81 183d 0f41 00be
00000180: 740a 1102 c719 3d3d 0877 fcbd e60e 3dbd
00000190: 7cfc 1a02 0000 0000 ef96 4abd 9d67 1302
000001a0: 08d7 e03b 0000 0000 6de9 1802 32f2 71bd
000001b0: 0000 0000 2c16 debc 8c36 1e02 f71b b83d
000001c0: 0000 0000 0000 0000 9d67 1302 0000 0000
000001d0: ce84 1302 ec73 0e3e 4e50 1f02 25b1 ddbd
000001e0: 1964 9ebd 50bc 943c 80ac 2ebb df71 1802
000001f0: 3418 cabc 09cd d53d 0000 0000 ecfb fdbc
00000200: 7666 ed3d 0000 0000 8b34 75bd 00ff e33c
00000210: 864d 1702 8a34 003d 9d67 1302 2abe 273d
00000220: d4ad 1d02 e899 92bd 9808 f7bc db26 16bd
00000230: d845 4fba f218 babd d827 d3bc ca84 eebd
00000240: 9ef0 3bbe 0000 0000 41ad a03d 13ab 343d
00000250: 0000 0000 0000 0000 4900 02bd 1522 af3d
00000260: 60be f73d 91ba 1502 8cb2 c93d 0000 0000
00000270: 7371 363e 7f18 2bba 0000 0000 bf4e 1c02
00000280: 671b 173d 7297 1d02 a6d1 afbd 1a2f 2f3d
00000290: b6db 913d 4226 bd3b 0005 71bd 0000 0000
000002a0: dd5e d5bc 3527 1b02 0000 0000 285d 5e3d
000002b0: b055 8e3c 0000 0000 8d42 b93d 1f57 623d
000002c0: 86a8 353e ca4f 36bc 5845 93bb 84c4 07bc
000002d0: 171b 1f3d 0000 0000 b1e7 a83d be13 1bbc
000002e0: 0000 0000 496b 09be a2b5 d43d a7c0 1a02
000002f0: 0000 0000 cbee 4f3e 43e8 803d abd4 44bd
00000300: ba33 1e02 0000 0000 6ce7 27bd cd23 0abe
00000310: 2ddd 1c02 8e1e 29ba b774 f1bd 5dde 6d3d
00000320: b8e9 1b3e eae8 283d e6de 1c02 20ba 58bd
00000330: 9e10 593c 4489 233d 0000 0000 6a10 003e
00000340: 7e57 bb3d f549 16be f9f8 1702 5ffc 02bd
00000350: 0adf 2abd 65e9 9cbd d110 3b3d 7868 a33b
00000360: 6641 d5bc d5ff ac3d c44b 213d 0000 0000
00000370: 0000 0000 1785 bf3d f437 253e 0ace bfbd
00000380: 5160 40be d8c6 1002 0000 0000 56be 143e
00000390: 90d6 283e dc03 a73b 98bf 273e 6799 cf3c
000003a0: 8dc4 083d 7964 2b3e 840a 1c3d 93e7 023e
000003b0: 0000 0000 246b 1002 0000 0000 0e02 1902
000003c0: 4075 91bc 1677 cf3d 59b6 1d02 6961 fb3d
000003d0: 1cc2 1d02 8b7c b53d 56b5 9cbc 34a8 c1bc
000003e0: 9042 1402 b425 3b3c 74da 273e 8a73 1c02
000003f0: d9da 1702 7677 97bd 6cfc 53bb 0202 9d3d
0.02961941 0.0 0.0 -0.06369616 0.0 0.0 1.0951228e-37 0.019910438
0.06786025 0.0 -0.15504791 0.0 0.007178719 0.22255278 -0.09017883 0.07871685
-0.04432765 1.1701952e-37 -0.0047367793 0.042852588 -0.009091498 0.0 1.1090503e-37 1.1524912e-37
0.13952038 0.11281295 0.0 0.11996621 0.0 0.050367035 0.0020440258 0.0
-0.015339591 -0.13551144 -0.13791893 0.14015889 0.0 0.09731498 -0.014629638 0.0
0.018882148 0.008013993 0.046985187 0.0 1.1045162e-37 -0.033744417 -0.036271363 -0.15348506
1.0701869e-37 -0.06675113 -0.009800572 0.0 0.008681282 -0.03072474 0.0 -0.054556128
-0.018926201 0.0 0.011766687 0.0 0.17802003 -0.0093659125 0.07624141 0.014304657
1.1366634e-37 -0.0031038902 0.0 -0.016445274 0.15159324 0.12838654 0.058472272 1.082959e-37
0.026084766 0.0 -0.029195562 0.0 0.0 -0.12781024 -0.02048647 0.037842922
-0.015904844 -0.10515639 1.094867e-37 -0.005472349 0.0 0.14158079 -0.056113116 0.02195519
0.0 -0.09564168 -0.13723345 1.1209033e-37 0.0 0.0 0.03723327 -0.12524818
1.0655917e-37 0.04616716 -0.12327391 -0.046156786 1.1386593e-37 0.0 -0.049460348 1.082959e-37
0.006861571 0.0 1.1234186e-37 -0.059068866 0.0 -0.027110182 1.1623661e-37 0.08989709
0.0 0.0 1.082959e-37 0.0 1.0837967e-37 0.13911408 1.1704521e-37 -0.10824803
-0.07733936 0.0181562 -0.002665311 1.1199876e-37 -0.024669744 0.10439498 0.0 -0.031003915
0.115918085 0.0 -0.059864562 0.027831554 1.1115976e-37 0.031300105 1.082959e-37 0.04095284
1.1584425e-37 -0.071582615 -0.030155465 -0.03665815 -0.0007906831 -0.09086789 -0.025775835 -0.11646421
-0.18353507 0.0 0.078455456 0.04410846 0.0 0.0 -0.031738553 0.085514225
0.12096858 1.1000333e-37 0.09848508 0.0 0.17816715 -0.00065267825 0.0 1.1483669e-37
0.036891367 1.1578001e-37 -0.08584909 0.04276953 0.07121985 0.005772383 -0.05884266 0.0
-0.02604621 1.1398853e-37 0.0 0.05428806 0.017374843 0.0 0.09045897 0.055258866
0.17740068 -0.011127422 -0.0044943504 -0.008286599 0.038844194 0.0 0.08247317 -0.009465156
0.0 -0.13419832 0.10386206 1.1369422e-37 0.0 0.20305936 0.062943004 -0.04805438
1.1622852e-37 0.0 -0.040992185 -0.1349022 1.1524544e-37 -0.00064513914 -0.1178984 0.05807339
0.15225875 0.04123775 1.1525039e-37 -0.052911878 0.013248591 0.03992583 0.0 0.12506261
0.09147547 -0.1467665 1.116518e-37 -0.03197896 -0.041716613 -0.07661704 0.045670334 0.004986819
-0.026032161 0.084472336 0.039378896 0.0 0.0 0.09351557 0.16134626 -0.09365471
-0.18786742 1.0636515e-37 0.0 0.14525732 0.16488099 0.0050968956 0.16381681 0.025341703
0.03339057 0.16737546 0.038095966 0.12783651 0.0 1.0610197e-37 0.0 1.1241254e-37
-0.017756104 0.10130136 1.158687e-37 0.12274439 1.1590245e-37 0.08861645 -0.019129436 -0.023639776
1.0892425e-37 0.011422563 0.16391927 1.1494228e-37 1.1156534e-37 -0.07395832 -0.00323465 0.076663986
