highway_ddqn/ddqn_tuned_reward_change/checkpoint-16000.tar (torch, 892362 bytes, 18 tensors)

layers.0.weight f4 [256, 25]
-0.37441579 0.03409447 0.47144276 0.23094007 2.9212987 -0.26123902 4.8339677 -2.396106
0.5801738 -5.93913 -0.18602681 0.84870213 0.18072401 -0.53637195 -0.5745147 -0.16644686
1.5044618 -0.015830839 -0.19239928 -3.257228 -0.027179973 0.39230338 -0.32616016 -0.33261776
-2.0643747 -0.13649149 -0.13464026 -0.17016351 0.06543577 0.0074178935 -0.103126384 -0.074378565
0.18597041 0.03498373 -0.028827762 0.042610314 0.05731156 0.15240502 -0.03170488 0.17882343
-0.17320926 0.04912877 -0.017670942 0.16811712 -0.14422858 0.0009753704 -0.014377403 -0.06746214
-0.019946098 -0.13490467 -0.035567142 -0.03718946 0.02497666 -0.008952523 -0.10876577 -0.0788851
-0.043465804 0.09244404 0.07279196 -0.05254085 -0.032938052 -0.16272576 0.003198123 -0.02877829
0.12821126 -0.057488322 0.056633808 -0.061443713 -0.13266103 -0.14824437 -0.1441218 0.12264838
-0.12075899 0.12879221 -0.05345385 -0.37375805 -0.17933631 1.5775795 1.4884319 -0.21909326
-0.10337609 -0.8406429 1.4515548 -0.16556628 1.2309194 -0.12742658 -0.81372845 0.20259634
-0.7609571 -0.68302333 -0.38236544 2.2106767 2.427356 0.44886872 0.407414 -0.08434369
1.2519833 -0.7469344 0.15858513 -0.047624487 0.002981949 -0.1304514 -0.18410836 -0.17178471
0.15381944 -0.066287756 0.19845691 -0.11156597 0.14895578 0.1287891 0.07250116 -0.09582827
-0.04434223 -0.099694036 -0.114634894 -0.13667646 -0.090064526 0.19962183 -0.15947548 -0.11100819
-0.17560112 -0.032844543 -0.10312581 0.06456273 -0.02509427 -0.13518608 -0.038733076 -0.07237394
0.09425247 -0.108184814 -0.08121278 0.12787692 0.15208435 -0.19848089 0.17078204 -0.0039002418
-0.13787834 -0.0617126 -0.044355895 0.021162724 0.09244142 -0.15766716 -0.027381016 0.13979533
-0.17809303 -0.1741678 0.032921623 0.1748678 -0.052500058 0.13438351 -0.19874169 -0.33483782
0.8036256 0.87020445 0.3079986 -0.2086304 0.23466899 0.3969871 -0.5419995 0.35687315
-0.2519691 -0.84497815 -0.26918542 -0.62378854 0.24740116 -0.21932621 -1.3122091 -0.26869166
-1.2257167 0.13381 -0.13787991 0.51194906 0.5697698 -0.96135426 -0.7197298 -0.0607613
0.0065650553 -0.4563776 0.6238682 -0.0818113 -0.35692003 -2.340318 -0.81571966 -0.5065739
-0.4551032 -0.1869637 -1.3148798 -0.16273405 -0.19771056 -0.4264393 -0.22393435 -0.24430951
-0.6683014 -0.88833725 -0.9856622 -0.30290774 -0.17757894 1.2651478 0.036561463 0.26445812
0.4456931 0.4991105 1.383088 2.2068937 -1.7623284 0.2834863 -1.0225497 0.015376339
-0.9492998 0.59033567 0.38787976 -0.7772967 -0.3338857 -1.3146889 -0.13589807 0.2640618
1.4125497 -1.4383458 -0.027222913 -0.041684754 0.38589188 1.3618978 -1.3757331 -0.31076443
0.10778341 0.046990324 -0.11509414 0.17313972 -0.14044361 0.05692313 -0.121991254 -0.13134456
0.15026806 -0.09707003 -0.08218723 -0.008456374 -0.06955693 -0.000859499 -0.059422232 -0.043849923
-0.09137537 -0.09541376 -0.011997438 -0.19841145 -0.08097809 -0.018379642 0.068817854 0.19265428
0.18242164 0.080088116 0.17266747 -0.12184388 -0.12403437 -0.42138472 -0.37639686 0.33643368
00000000: 6db3 bfbe a5a6 0b3d f260 f13e 8e7b 6c3e
00000010: 8ff6 3a40 1fc1 85be ddaf 9a40 cd59 19c0
00000020: 4586 143f 5a0d bec0 d07d 3ebe 8b44 593f
00000030: b70f 393e ac4f 09bf 6513 13bf 0c71 2abe
00000040: 3492 c03f adaf 81bc 5104 45be 6c76 50c0
00000050: 89a8 debc fddb c83e 77fe a6be e04c aabe
00000060: b71e 04c0 6dc4 0bbe 23df 09be 583f 2ebe
00000070: 3003 863d cd11 f33b ed33 d3bd ca53 98bd
00000080: 076f 3e3e 1a4b 0f3d 3328 ecbc 2788 2e3d
00000090: 87bf 6a3d 1010 1c3e fadc 01bd 7d1d 373e
000000a0: c55d 31be 403b 493d a7c2 90bc e526 2c3e
000000b0: a8b0 13be 00b0 7f3a 338f 6bbc 9729 8abd
000000c0: 0066 a3bc 7324 0abe daae 11bd fa53 18bd
000000d0: da9b cc3c 9aad 12bc 97c0 debd 838e a1bd
000000e0: 3309 32bd 4d53 bd3d f313 953d 1335 57bd
000000f0: 0dea 06bd 95a1 26be 9a97 513b 73c0 ebbc
00000100: d049 033e e078 6bbd daf8 673d 67ac 7bbd
00000110: 4bd8 07be 5fcd 17be aa94 13be 132f fb3d
00000120: 7d50 f7bd 1be2 033e 6df2 5abd 375d bfbe
00000130: f0a3 37be 20ee c93f f084 be3f fc59 60be
00000140: d8b6 d3bd 6034 57bf 8ccc b93f 358a 29be
00000150: c48e 9d3f 1d7c 02be 8250 50bf 6a75 4f3e
00000160: 16ce 42bf 9eda 2ebf 67c5 c3be ba7b 0d40
00000170: cd59 1b40 1fd2 e53e 9198 d03e 62bc acbd
00000180: fd40 a03f 1837 3fbf 2464 223e e511 43bd
00000190: cd6c 433b 0d95 05be e786 3cbe 55e8 2fbe
000001a0: d882 1d3e e0c1 87bd 4a38 4b3e b37c e4bd
000001b0: dd87 183e 4ae1 033e 7d7b 943d 9d41 c4bd
000001c0: 33a0 35bd 632c ccbd b3c5 eabd eaf4 0bbe
000001d0: c073 b8bd aa69 4c3e 8a4d 23be 4358 e3bd
000001e0: c8d0 33be 0088 06bd a033 d3bd 7739 843d
000001f0: 8092 cdbc 386e 0abe 93a6 1ebd ca38 94bd
00000200: 7007 c13d 0090 ddbd e352 a6bd 2bf2 023e
00000210: 00bc 1b3e 933e 4bbe 7de1 2e3e 339b 7fbb
00000220: fb2f 0dbe 5ac6 7cbd 87ae 35bd 735d ad3c
00000230: ed51 bd3d 8073 21be 274e e0bc 8226 0f3e
00000240: 055e 36be 0b59 32be d3d8 063d 8b10 333e
00000250: 4d0a 57bd d59b 093e f182 4bbe dd6f abbe
00000260: 68ba 4d3f b8c5 5e3f feb1 9d3e 35a3 55be
00000270: 114d 703e e541 cb3e 7bc0 0abf 14b8 b63e
00000280: 1802 81be 7d50 58bf acd2 89be 9bb0 1fbf
00000290: bb56 7d3e 0d97 60be 78f6 a7bf f491 89be
000002a0: 49e4 9cbf 7d05 093e 6430 0dbe 180f 033f
000002b0: 6fdc 113f 501b 76bf 3640 38bf d7e0 78bd
000002c0: ad1f d73b 53aa e9be d4b5 1f3f af8c a7bd
000002d0: 39be b6be c5c7 15c0 01d3 50bf d4ae 01bf
000002e0: 4903 e9be 6a73 3fbe fb4d a8bf c1a3 26be
000002f0: a374 4abe 4056 dabe 0c4f 65be 462c 7abe
00000300: cd15 2bbf 126a 63bf 5c54 7cbf b916 9bbe
00000310: 41d7 35be 5df0 a13f 79c1 153d 0e67 873e
00000320: e331 e43e 698b ff3e 0709 b13f bf3d 0d40
00000330: fa93 e1bf 1e25 913e e9e2 82bf 0aed 7b3c
00000340: 5005 73bf 3d20 173f 2d98 c63e ebfc 46bf
00000350: 11f3 aabe ba47 a8bf dd28 0bbe 1c33 873e
00000360: 6ece b43f b71b b8bf 9602 dfbc a2bd 2abd
00000370: 9f93 c53e ab52 ae3f 0618 b0bf 841c 9fbe
00000380: 8cbd dc3d ed78 403d 7ab6 ebbd 8a4b 313e
00000390: 73d0 0fbe 3a28 693d 8dd6 f9bd 307f 06be
000003a0: dfdf 193e a7cc c6bd c751 a8bd 9a8c 0abc
000003b0: dd73 8ebd 0050 61ba ba64 73bd fa9b 33bd
000003c0: 0323 bbbd 4a68 c3bd e790 44bc 5f2c 4bbe
000003d0: d7d7 a5bd e790 96bc 60f0 8c3d 2a47 453e
000003e0: bdcc 3a3e 3d05 a43d becf 303e 4989 f9bd
000003f0: bb05 febd bdbf d7be 17b7 c0be 0941 ac3e

layers.0.bias f4 [256]
-0.037784927 -0.018664718 0.17918444 -0.30064774 0.07952571 -0.066385485 -0.41414192 -0.19825268
0.40311983 0.069978595 0.06930693 0.053648066 -0.21828853 0.19797157 0.078911364 -0.033279646
-0.010204958 -0.10475843 -0.0042784372 -0.20090269 -0.3234134 -0.16830121 -0.1855336 -0.040923223
-0.16886404 -0.12956141 -0.09526124 -0.22701232 -0.048526168 -0.015261755 -0.30572557 0.1701691
0.06413375 0.11555893 -0.02971188 -0.0697082 -0.06703024 -0.10753426 -0.34801248 -0.11179805
-0.46221727 -0.27289894 -0.13664772 -0.16308175 -0.009709326 -0.32121578 -0.14828762 -0.069663286
0.04985142 -0.09614864 -0.009550186 -0.14468001 0.256836 -0.21701674 0.19425307 0.06682937
0.04908753 -0.12218106 -0.007349608 -0.16609879 -0.20763065 -0.05480812 -0.31008953 -0.09353011
-0.19476432 0.030900203 -0.18653908 -0.06449661 -0.16177917 -0.3163934 -0.09585213 -0.26170778
-0.14646804 0.097707585 0.18289727 -0.16959313 -0.18932787 -0.12236922 -0.05419325 -0.36327195
0.012064173 0.037978135 0.1850265 -0.31027955 0.0479635 -0.1817809 0.1681226 -0.014514841
-0.07570427 0.029022006 0.32208604 -0.062480647 -0.084220126 0.08715146 -0.05803707 -0.27076304
-0.024508385 -0.049754307 -0.1241683 -0.107568435 0.105444945 0.19337939 -0.20384201 -0.29005456
-0.030322501 -0.006335068 -0.10925973 -0.117794275 0.035270166 0.08766388 -0.049073055 -0.20823589
-0.0922539 0.06615256 -0.14901955 -0.020128155 -0.24519432 -0.16311318 -0.26929942 -0.092649266
0.14054057 -0.34926504 -0.008563608 -0.25119686 0.19117063 -0.12276886 -0.0684314 -0.3179443
-0.091620326 0.1919878 -0.048957735 -0.30953223 -0.1203285 -0.31544277 0.015262671 0.082454965
-0.3394718 0.05193359 -0.24462871 -0.056777954 -0.22537827 -0.10900356 -0.2417651 -0.2785432
0.05078374 -0.15750436 -0.33868444 0.28148305 -0.07709906 -0.1589481 -0.15571514 -0.5706639
-0.45074657 -0.115253374 -0.22241633 0.05048878 0.53104496 -0.4148398 0.0052326918 -0.007139226
0.20324689 0.03291593 -0.08976652 0.05819909 0.079115056 -0.07906549 -0.11514959 -0.067518234
-0.23575899 -0.2751192 -0.095262244 -0.43395516 -0.3679311 -0.0665221 -0.0075220903 -0.048701577
-0.46936512 -0.06507185 -0.24598002 -0.12323976 0.13870674 0.00862515 -0.102291174 -0.13900186
-0.12020042 0.18189314 0.056625314 -0.14117776 -0.11520896 -0.006220958 0.21760003 -0.13221824
0.14709918 -0.012783909 -0.15255386 -0.18773417 -0.17850535 -0.30617285 -0.298237 -0.32958877
-0.082159266 -0.0537309 -0.19618228 0.01620436 -0.042499166 -0.23449294 -0.07012296 -0.59097046
0.045221172 1.2081953 -0.025875708 0.1344123 -0.2132265 -0.04609818 -0.02009708 -0.45980862
-0.1976898 0.010656234 -0.15343967 -0.1953045 -0.19211379 -0.05107358 0.1946525 -0.23519959
-0.10401406 0.055242818 -0.1975715 -0.50362045 -0.0084047215 0.122608244 0.14959492 0.17771608
-0.020433532 0.05272163 -0.19634141 -0.3770974 -0.10163424 -0.072759904 -0.17063133 -0.41002584
-0.36701941 -0.057844352 -0.022840505 -0.47209552 -0.04847158 -0.3621347 -0.05052528 -0.17577045
0.044242583 0.013851816 -0.0016008753 -0.051187873 -0.18370214 0.25281864 0.28440684 -0.3353565
00000000: 5ec4 1abd c0e6 98bc 207c 373e 80ee 99be
00000010: 60de a23d 1df5 87bd 690a d4be c002 4bbe
00000020: b965 ce3e f050 8f3d cbf0 8d3d 13be 5b3d
00000030: 0787 5fbe 0fb9 4a3e 489c a13d 3d50 08bd
00000040: b232 27bc 968b d6bd 2232 8cbb 6fb9 4dbe
00000050: 7196 a5be 2757 2cbe 85fc 3dbe 1c9f 27bd
00000060: b2ea 2cbe bfab 04be 5318 c3bd eb75 68be
00000070: 60c3 46bd 710c 7abc 1088 9cbe cf40 2e3e
00000080: 8e58 833d 29aa ec3d 5466 f3bc 2cc3 8ebd
00000090: 2747 89bd ec3a dcbd b12e b2be 60f6 e4bd
000000a0: bea7 ecbe 69b9 8bbe 61ed 0bbe e7fe 26be
000000b0: dd13 1fbc 6576 a4be b6d8 17be a0ab 8ebd
000000c0: 0131 4c3d 94e9 c4bd 6278 1cbc ff26 14be
000000d0: 0280 833e a339 5ebe 47ea 463e d6dd 883d
000000e0: 0110 493d 103a fabd fbd4 f0bb cd15 2abe
000000f0: 219d 54be 7b7e 60bd 0ec4 9ebe b78c bfbd
00000100: 4c70 47be 6c22 fd3c 1a04 3fbe cc16 84bd
00000110: 70a9 25be 51fe a1be 1f4e c4bd 90fe 85be
00000120: b8fb 15be ea1a c83d 6c49 3b3e d2a9 2dbe
00000130: 2adf 41be b79c fabd bef9 5dbd c8fe b9be
00000140: cfa8 453c f68e 1b3d 9677 3d3e f6dc 9ebe
00000150: 6075 443d c624 3abe 5528 2c3e a8cf 6dbc
00000160: d70a 9bbd 8fbf ed3c 76e8 a43e b5eb 7fbd
00000170: 9a7b acbd 777c b23d 47b8 6dbd 74a1 8abe
00000180: cfc5 c8bc 2ccb 4bbd f34b febd d74c dcbd
00000190: 85f3 d73d 3f05 463e f6bb 50be 0882 94be
000001a0: e566 f8bc 6796 cfbb 91c3 dfbd 203e f1bd
000001b0: 7377 103d 1f89 b33d d400 49bd ca3b 55be
000001c0: 9def bcbd fe7a 873d 9598 18be cde3 a4bc
000001d0: 3814 7bbe 2407 27be 9de1 89be e6be bdbd
000001e0: dee9 0f3e ded2 b2be 604e 0cbc e09c 80be
000001f0: 3cc2 433e 3d6e fbbd c325 8cbd 98c9 a2be
00000200: 70a3 bbbd 7398 443e e887 48bd 027b 9ebe
00000210: ca6e f6bd b781 a1be 4810 7a3c 26de a83d
00000220: 3fcf adbe 51b8 543d f37f 7abe 0090 68bd
00000230: 90c9 66be 423d dfbd 4591 77be 379d 8ebe
00000240: 9c02 503d d348 21be 0c68 adbe 8c1e 903e
00000250: 1de6 9dbd 4ac3 22be ca73 1fbe 0817 12bf
00000260: 41c8 e6be f609 ecbd 1bc1 63be 53cd 4e3d
00000270: 90f2 073f e265 d4be 0077 ab3b 2bf0 e9bb
00000280: f41f 503e dbd2 063d 82d7 b7bd 2b62 6e3d
00000290: 1307 a23d 16ed a1bd 8cd3 ebbd 0047 8abd
000002a0: ce6a 71be 6cdc 8cbe da18 c3bd 5f2f debe
000002b0: 7761 bcbe bd3c 88bd de7b f6bb 4e7b 47bd
000002c0: a050 f0be 6444 85bd 30e2 7bbe 2165 fcbd
000002d0: 2409 0e3e 8050 0d3c 097e d1bd 8156 0ebe
000002e0: a32b f6bd 3242 3a3e f2ef 673d e790 10be
000002f0: adf2 ebbd 2ed9 cbbb 8bd2 5e3e 3864 07be
00000300: 2ba1 163e 9a73 51bc 1437 1cbe 633d 40be
00000310: 1bca 36be b0c2 9cbe 85b2 98be dcbf a8be
00000320: 1e43 a8bd ef14 5cbd 02e4 48be 02bf 843c
00000330: 9b13 2ebd eb1e 70be a09c 8fbd d749 17bf
00000340: d639 393d 25a6 9a3f 4bf9 d3bc 61a3 093e
00000350: 0c58 5abe 72d1 3cbd a2a2 a4bc 096c ebbe
00000360: 326f 4abe 7c97 2e3c 4a1f 1dbe e7fd 47be
00000370: 7ab9 44be 8832 51bd fc52 473e 29d8 70be
00000380: 5305 d5bd 4b46 623d 2f50 4abe 45ed 00bf
00000390: f5b3 09bc 081a fb3d 692f 193e 34fb 353e
000003a0: 3964 a7bc a3f2 573d b90d 49be e912 c1be
000003b0: 9d25 d0bd 2503 95bd fbb9 2ebe e8ee d1be
000003c0: f8e9 bbbe 33ee 6cbd 031c bbbc 81b6 f1be
000003d0: 238a 46bd b869 b9be 99f3 4ebd 2bfd 33be
000003e0: b637 353d baf2 623c 76d4 d1ba 60aa 51bd
000003f0: 6a1c 3cbe 7271 813e c69d 913e d9b3 abbe

layers.1.weight f4 [256, 256]
-0.12846236 0.053405724 0.043611728 -0.49091157 0.00066704303 -0.06211669 0.07549768 0.2259663
0.629639 0.060030393 -0.2568451 -0.05552741 0.37347698 -2.193351 -0.04514772 -1.1125258
-0.8392785 0.036190566 -0.054671645 0.25715253 -0.19057365 -0.05882916 1.1610125 -0.32265645
-0.49467063 0.581879 -0.017377436 -0.24330257 0.052979507 1.3709705 -0.04854667 0.0350957
-0.11409561 -0.019198678 0.33711067 -1.5461568 0.06149131 0.075373024 -0.6451736 0.03295836
-1.1755542 0.16145697 -0.53214884 -0.01570388 -0.022167739 -0.09818879 0.4366424 -0.47734272
-0.07535875 -0.2391621 -0.1681964 -0.05337114 -0.09850942 0.00081981864 0.0045950785 0.4691474
-0.9526318 -0.051168635 0.17455983 -0.0438246 -0.2440775 0.1996579 -1.1825079 -0.676517
0.00042510786 0.39510998 0.008712821 0.4190034 -0.1888765 -0.035004646 0.057085827 -0.031266555
-0.85526395 -0.0183326 -0.05998484 0.05329603 0.0071714297 -0.27594948 -1.5855347 0.1664755
-1.269708 -4.6366286 0.071431264 -0.08971435 0.023098834 -0.92411256 0.49771026 -1.556128
-0.008835427 0.10907358 -0.236213 -0.19086872 0.050927408 0.037934534 -0.5165767 -0.25803232
-0.9462165 -0.35047436 -2.390809 0.2610144 -0.004156972 0.053031474 -0.3583895 -0.7095602
-1.0175526 0.006164491 0.029466325 -0.6888929 0.048687488 -1.7624896 -0.025714003 0.07887036
-0.044252463 0.031496745 -0.74902374 0.009159595 -0.1408942 -0.27935755 -0.3137628 -0.8696871
0.20631221 -0.5797714 -1.2813764 -1.0391637 -1.8785638 0.09233023 -0.016064301 -0.68444157
0.25024205 -0.05694849 -0.06308754 -1.7544856 0.030320128 -0.23724733 0.08513261 -1.3825736
-0.6193315 -4.403325 0.74163204 -0.7858204 1.1124234 0.107574284 0.7239429 -0.6222038
0.14822152 0.033806868 -0.47077596 0.29933536 -0.021000072 -0.02508621 -1.0004317 -2.0526202
0.061363585 0.052012913 -0.4457066 0.00029764324 -3.2113445 -0.15681112 -0.03454452 0.14024368
-0.65387446 0.018711649 -1.424232 0.8796343 -0.9230074 -2.4208326 -0.21498892 0.025767073
0.1491631 -0.69422036 -0.016552307 0.15517768 -0.7471594 0.025807075 -0.50306666 -0.5016748
-0.7484988 0.43470412 0.46734044 1.0553609 -1.3736595 0.032207496 -0.2295725 0.01737528
0.006256737 -0.42832482 -0.48238876 -0.82486075 -0.008630447 -0.34319293 -0.2394027 -0.55201596
-0.029324695 0.022991143 -0.69314474 -1.0425993 -0.03475863 1.4097914 0.10052494 -0.35708222
-1.0674207 -0.37599766 -0.2689156 0.15843053 -0.37684786 -0.24668355 0.0121990815 1.5836132
-1.6049241 3.4617636 0.0039553493 0.9487311 0.07880307 -0.14765306 0.0910615 0.5818565
-0.4731493 -0.94137675 -1.7465057 -0.02846907 0.04588235 -0.5633475 -1.2487291 -1.9523607
-1.6281247 -0.17789865 0.031959757 0.84627235 0.25903144 -0.34155625 0.3522666 -0.68828297
-0.56449944 -1.4279724 0.28750312 -0.1759071 -0.03907355 0.030167 0.020493604 -0.6986003
0.0019898054 -1.8205227 -0.22579932 0.8464213 -1.167994 0.05641802 -0.08392775 -0.05996369
0.3727496 -0.69880384 -0.5396274 -0.26649576 0.603243 -0.53748065 -0.7923814 -0.005139285
00000000: a38b 03be f6bf 5a3d 36a2 323d c358 fbbe
00000010: 80dc 2e3a 126e 7ebd 879e 9a3d b663 673e
00000020: 0630 213f 6ee2 753d 3381 83be b670 63bd
00000030: 6038 bf3e dd5f 0cc0 d1ec 38bd 3f67 8ebf
00000040: f5da 56bf 8f3c 143d 60ef 5fbd 7fa9 833e
00000050: bd25 43be d8f6 70bd 0f9c 943f 3a33 a5be
00000060: 7845 fdbe 06f6 143f 205b 8ebc 4f24 79be
00000070: 0a01 593d f67b af3f dfd8 46bd 82c0 0f3d
00000080: f6aa e9bd 8c46 9dbc c599 ac3e 77e8 c5bf
00000090: 50de 7b3d 2c5d 9a3d 192a 25bf 58ff 063d
000000a0: 8f78 96bf fa54 253e e83a 08bf 6ca5 80bc
000000b0: 1e99 b5bc 3417 c9bd 988f df3e 4466 f4be
000000c0: b055 9abd e9e6 74be ad3b 2cbe b29b 5abd
000000d0: 4fbf c9bd 19e9 563a 5092 963b 1734 f03e
000000e0: addf 73bf 3496 51bd d0bf 323e 6c81 33bd
000000f0: 74ef 79be 1f73 4c3e 6b5c 97bf 3830 2dbf
00000100: 03e1 de39 db4b ca3e 38c0 0e3c 9d87 d63e
00000110: d768 41be 0861 0fbd d4d2 693d 5c11 00bd
00000120: 94f2 5abf 402e 96bc aab2 75bd f04c 5a3d
00000130: 50fe ea3b 4049 8dbe cdf2 cabf 8e78 2a3e
00000140: cb85 a2bf 435f 94c0 8e4a 923d 28bc b7bd
00000150: c439 bd3c a492 6cbf e1d3 fe3e 342f c7bf
00000160: 78c2 10bc f861 df3d d2e1 71be 1773 43be
00000170: 4299 503d 3e61 1b3d 5f3e 04bf d01c 84be
00000180: 3f3b 72bf 6071 b3be 0403 19c0 aea3 853e
00000190: 3537 88bb 8837 593d d47e b7be bda5 35bf
000001a0: 2a3f 82bf 80ff c93b 5d63 f13c 495b 30bf
000001b0: 886c 473d 4299 e1bf 2ca6 d2bc c986 a13d
000001c0: 1242 35bd bb02 013d 05c0 3fbf 2012 163c
000001d0: 9246 10be f407 8fbe 85a5 a0be d0a3 5ebf
000001e0: 8243 533e e66b 14bf 2404 a4bf 5103 85bf
000001f0: c774 f0bf a217 bd3d 4899 83bc 9037 2fbf
00000200: ba1f 803e d242 69bd 0a34 81bd fc92 e0bf
00000210: eb61 f83c f7f0 72be 015a ae3d 2cf8 b0bf
00000220: 828c 1ebf 0ae8 8cc0 99db 3d3f 872b 49bf
00000230: e463 8e3f e84f dc3d 5254 393f c048 1fbf
00000240: 62c7 173e 1279 0a3d 8c09 f1be 7c42 993e
00000250: 5808 acbc 9881 cdbc 250e 80bf 215e 03c0
00000260: 6258 7b3d 7e0b 553d a833 e4be 000d 9c39
00000270: ab86 4dc0 1893 20be 8e7e 0dbd 0a9c 0f3e
00000280: 5164 27bf 2c49 993c 3c4d b6bf b72f 613f
00000290: 374a 6cbf ecee 1ac0 0e26 5cbe 7815 d33c
000002a0: 36be 183e 6db8 31bf b498 87bc e6e6 1e3e
000002b0: d745 3fbf 5c69 d33c fac8 00bf c26d 00bf
000002c0: 9e9d 3fbf 8a91 de3e 3f47 ef3e 1116 873f
000002d0: 13d4 afbf 02ec 033d 0e15 6bbe 9a56 8e3c
000002e0: 5005 cd3b 644d dbbe a9fb f6be 132a 53bf
000002f0: b866 0dbc fcb6 afbe fb25 75be eb50 0dbf
00000300: 583a f0bc ec57 bc3c ef71 31bf e573 85bf
00000310: 115f 0ebd 0b74 b43f 05e0 cd3d 7bd3 b6be
00000320: 3ea1 88bf c482 c0be 4eaf 89be 9d3b 223e
00000330: 34f2 c0be 9d9a 7cbe a8de 473c d6b3 ca3f
00000340: 276e cdbf 898d 5d40 e09b 813b 0be0 723f
00000350: 8163 a13d 5d32 17be 747e ba3d 8cf4 143f
00000360: a040 f2be 11fe 70bf 808d dfbf f837 e9bc
00000370: 22ef 3b3d 8b37 10bf 5bd6 9fbf f5e6 f9bf
00000380: 6466 d0bf 102b 36be 3ce8 023d 4ea5 583f
00000390: c59f 843e 76e0 aebe 4a5c b43e 5033 30bf
000003a0: 0983 10bf cdc7 b6bf 9c33 933e fe20 34be
000003b0: 960b 20bd c920 f73c 34e2 a73c 78d7 32bf
000003c0: 6567 023b e306 e9bf f037 67be 11af 583f
000003d0: d480 95bf 9516 673d 50e2 abbd 7c9c 75bd
000003e0: 09d9 be3e cfe4 32bf 0525 0abf 2272 88be
000003f0: 226e 1a3f 5598 09bf 82d9 4abf 7267 a8bb

layers.1.bias f4 [256]
-2.0157087 -1.9222995 2.1970813 -0.86610645 0.28399304 -0.035127424 -0.05934406 -2.0878055
-1.1217959 -0.26439452 -0.7701199 -0.047969043 -0.0736203 -0.032794658 -1.821354 -0.57650435
0.046597753 -0.052057542 0.3162636 0.031859647 -0.04065076 0.498314 0.041968133 -0.030426348
-0.04612485 1.8070308 0.34637874 0.790561 -0.05750753 -0.04482138 -0.039533067 -0.7182129
-0.049885225 1.4292909 -0.03910726 -3.1516657 -0.0039737066 -0.04907799 0.32023573 -1.6548982
0.0034010585 -2.2055774 -0.07186717 0.74041736 -0.6728202 -1.8902628 -0.87502253 -1.1121306
0.017250799 -0.06134879 -0.060099404 -3.0253484 -0.01647563 -2.4776561 1.1881307 1.9285091
0.013009766 0.0158719 -1.5872513 0.8368261 -1.6665514 -1.1006246 -0.4540196 0.008204493
-2.4624245 0.71447295 0.2799673 -0.041798063 0.9373573 -0.06902001 -0.052672923 0.09505029
-0.2732869 1.3556397 -0.018454058 -1.4439846 -0.09252704 -0.06621138 -0.056908537 0.296516
-4.492172e-05 0.0054147127 0.35540313 2.4483917 3.0001214 -2.5664773 -0.717239 -0.5426269
-0.032917663 -1.4554833 -0.046564937 0.00085831626 0.0044483743 -0.14056168 -0.048175655 -0.8566213
-0.068976045 -0.32478285 -0.15010357 -0.027615946 0.014057765 0.024604047 -0.039851777 1.5609878
-0.9921716 0.033701535 -2.071618 -0.9937851 0.048377458 -0.009319513 -0.02641878 -2.285032
0.4045817 0.011752747 -0.7114729 -1.3668752 -0.015326393 -2.0624576 -0.031427458 -0.28340575
-0.017139854 -0.12218023 1.6260756 -0.7129134 -0.055847615 -0.034632415 0.9363834 -0.8767214
0.6406337 0.014973927 -2.0042021 -0.98969746 -0.03521746 -0.07363531 -0.5647066 -0.058809336
-0.021438353 -0.045494426 -0.043591242 -0.21683885 -0.80061746 1.5022572 -0.41621643 -0.007895896
0.59948784 -0.016306015 0.6424058 -0.018644834 0.061354667 -0.32197857 -0.087962545 -0.9486797
0.010398061 -0.027503157 -0.07593642 -2.5866892 -0.06353944 -0.029960776 0.79006 -0.0014962411
-0.04160304 0.26276308 -0.07752372 -1.6410372 -0.17324129 -0.08656658 -0.053735405 1.2094191
0.6519704 0.3292498 1.7689128 0.0068925098 -0.05082319 -0.051746793 -2.6282177 -0.010160175
0.18164419 -0.056207903 -0.0011658232 -0.24565771 0.03505257 -0.008303815 -0.06314692 -0.051887468
-0.06483261 -0.4709777 0.10723233 -0.39422858 0.18869098 -1.787989 0.09050876 -1.8309493
-0.015857827 0.62836945 0.35068902 0.0011616466 -0.07851814 -0.042965144 0.09430344 0.53932726
-1.3760847 -0.03298206 -0.017982012 -0.083243564 -0.070336446 -0.044949595 1.2067901 -0.79326594
-0.34860155 -0.029418759 1.4922107 0.04779944 -0.08943065 0.8566565 -0.029454442 -0.013963369
-0.95377004 -0.084803075 1.4679466 -0.71384007 0.4676689 -0.3746541 -0.039416235 -0.030995661
0.027187414 0.7034904 -0.7945576 -0.036164425 -0.020536926 0.25342903 0.41267657 -0.025904858
-0.045667917 -0.062132355 -0.052510798 0.0029625983 -0.009930026 0.6783533 -0.039498888 -0.022396464
-0.37181088 -0.06549478 -0.14720169 -0.111309506 0.6020084 -0.056889422 -1.0816804 1.4057944
-0.06129625 -0.045765385 -0.39079356 -1.9337814 -0.18207397 -0.47846052 -1.3357627 -1.6048443
00000000: 5f01 01c0 e90d f6bf fb9c 0c40 27b9 5dbf
00000010: 8967 913e c6e1 0fbd c212 73bd 9b9e 05c0
00000020: 0297 8fbf b85e 87be 9426 45bf 307b 44bd
00000030: 3dc6 96bd b153 06bd 2122 e9bf ca95 13bf
00000040: 49dd 3e3d 4a3a 55bd 4ded a13e 437f 023d
00000050: 6981 26bd 0323 ff3e c7e6 2b3d ad40 f9bc
00000060: 69ed 3cbd c94c e73f 8e58 b13e 3562 4a3f
00000070: 048d 6bbd a096 37bd 6ded 21bd cddc 37bf
00000080: 7354 4cbd 01f3 b63f ef2e 20bd e4b4 49c0
00000090: de35 82bb 0106 49bd f0f5 a33e b4d3 d3bf
000000a0: 4be4 5e3b 2e28 0dc0 182f 93bd fe8b 3d3f
000000b0: f23d 2cbf 22f4 f1bf 7a01 60bf 4c5a 8ebf
000000c0: 8c51 8d3c de48 7bbd cb2a 76bd 4f9f 41c0
000000d0: e7f7 86bc eb91 1ec0 ab14 983f 63d9 f63f
000000e0: ea26 553c c905 823c 0d2b cbbf 3c3a 563f
000000f0: 8e51 d5bf 44e1 8cbf 4275 e8be 236c 063c
00000100: 5d98 1dc0 b3e7 363f e057 8f3e 7234 2bbd
00000110: a6f6 6f3f 5d5a 8dbd 90bf 57bd baa9 c23d
00000120: 43ec 8bbe 9a85 ad3f f72c 97bc 7dd4 b8bf
00000130: d17e bdbd d599 87bd ed18 69bd f2d0 973e
00000140: 546a 3cb8 e76d b13b 66f7 b53e 73b2 1c40
00000150: fd01 4040 2a41 24c0 fa9c 37bf 99e9 0abf
00000160: acd4 06bd 474d babf e0ba 3ebd a100 613a
00000170: abc3 913b 67ef 0fbe d653 45bd 894b 5bbf
00000180: 5043 8dbd f049 a6be c0b4 19be d63a e2bc
00000190: 8a52 663c 6d8e c93c 9e3b 23bd 73ce c73f
000001a0: f5fe 7dbf 9f0a 0a3d 6495 04c0 b368 7ebf
000001b0: 7127 463d dfb0 18bc 336c d8bc f73d 12c0
000001c0: 5525 cf3e 988e 403c 1723 36bf c4f5 aebf
000001d0: 8d1b 7bbc 4eff 03c0 14ba 00bd 8f1a 91be
000001e0: e168 8cbc a139 fabd 3f23 d03f 7e81 36bf
000001f0: 78c0 64bd b8da 0dbd d3b6 6f3f d070 60bf
00000200: 9200 243f 3455 753c d944 00c0 d05c 7dbf
00000210: 2f40 10bd 1cce 96bd 9d90 10bf 0fe2 70bd
00000220: 7c9f afbc 5d58 3abd bb8c 32bd 010b 5ebe
00000230: 44f5 4cbf f749 c03f 521a d5be ca5d 01bc
00000240: 0978 193f 3194 85bc b574 243f 0dbd 98bc
00000250: 084f 7b3d 60da a4be b525 b4bd acdc 72bf
00000260: a15c 2a3c 4d4e e1bc 8e84 9bbd 518c 25c0
00000270: f720 82bd 4d70 f5bc 5f41 4a3f 851d c4ba
00000280: f367 2abd e288 863e c2c4 9ebd 820d d2bf
00000290: 2a66 31be d249 b1bd a819 5cbd 3fce 9a3f
000002a0: 88e7 263f 6e93 a83e bc6b e23f 90da e13b
000002b0: fa2b 50bd 72f4 53bd b834 28c0 dd76 26bc
000002c0: ef00 3a3e 423a 66bd 89ce 98ba b28d 7bbe
000002d0: 4993 0f3d b90c 08bc 2c53 81bd f487 54bd
000002e0: f6c6 84bd fd23 f1be a09c db3d 54d8 c9be
000002f0: 3538 413e d3dc e4bf a85c b93d 8c5c eabf
00000300: 46e8 81bc d2dc 203f 838d b33e 6442 983a
00000310: 1ece a0bd 38fc 2fbd 2922 c13d 5a11 0a3f
00000320: 8b23 b0bf 3218 07bd 034f 93bc 9a7b aabd
00000330: 8e0c 90bd 111d 38bd 1978 9a3f 7a13 4bbf
00000340: e77b b2be 9cff f0bc c300 bf3f 58c9 433d
00000350: 6b27 b7bd d74d 5b3f 714a f1bc 9dc6 64bc
00000360: 462a 74bf 3cad adbd ade5 bb3f 39be 36bf
00000370: 4c72 ef3e aad2 bfbe eb72 21bd 9dea fdbc
00000380: 24b8 de3c f217 343f 2068 4bbf 2621 14bd
00000390: 0e3d a8bc 73c1 813e 584a d33e 6d36 d4bc
000003a0: 480e 3bbd 7f7e 7ebd 9015 57bd 2728 423b
000003b0: 8cb1 22bc 90a8 2d3f 96c9 21bd ca78 b7bc
000003c0: ff5d bebe 2122 86bd 0abc 16be 3df6 e3bd
000003d0: 391d 1a3f e204 69bd 8174 8abf 12f1 b33f
000003e0: c711 7bbd 7c74 3bbd 1816 c8be 2686 f7bf
000003f0: 9971 3abe c7f8 f4be 46fa aabf 8a6b cdbf

predict.weight f4 [5, 256]
1.1009468 0.75748605 -0.68657583 0.72773165 0.684593 -0.035630908 -0.032217756 0.31611732
-0.12768038 0.008737252 0.56833655 -0.0027647307 -0.01270228 -0.017574506 -2.1775677 0.2500131
-1.5281307 0.011064939 -0.0598164 -0.029365974 -0.02862621 -0.3083227 0.006697389 0.044368155
-0.06501659 0.37311134 0.011737067 -1.26015 -0.051176384 -0.036004297 0.021984985 0.3459122
-0.5008221 -1.4183142 0.00058112375 0.6481021 0.014442622 0.0038325563 -1.156834 0.39735952
0.025271254 2.4225883 0.014699905 -0.5817006 -0.09045191 0.045222137 0.2777198 -0.26570392
-0.025019635 0.020499196 -0.01197406 0.9277891 -0.0045994143 0.63731605 -1.3448331 -0.5070681
-0.053847674 -0.04557946 0.25124684 0.98352 0.3718743 -0.17016482 -0.3857165 0.004415468
0.22646073 0.044144914 -0.008893183 0.0029403563 -0.14406927 -3.8173392 0.012451179 -0.12172626
-0.49044952 -0.38582882 -0.210084 2.5698218 0.37161493 -0.02640735 0.08511172 -2.2019434
0.032632384 0.02920248 -0.3752354 -1.5478481 -0.6176783 0.511281 -1.1467711 -0.37930447
0.04203651 0.79800004 0.029120952 0.020473704 -0.02047054 0.69640124 -0.041020613 -0.3221964
-0.046609912 0.7940495 -0.12059142 -0.04718689 -0.022185957 0.0317824 0.039104763 -0.05352242
-0.02170685 0.016217796 0.36326042 0.42238316 0.013230154 0.027277045 0.6771935 -0.4440857
-0.19681452 -0.03994633 -0.68352586 0.52966243 0.0021412615 0.08424504 -0.026428897 -0.11025438
-0.016839428 -1.6777003 -2.377323 0.75455356 -0.206695 -0.024090946 -0.5687574 -0.9033855
-0.88972086 -0.02246495 0.7486229 1.211951 -0.008732876 -0.000998184 -0.23414981 -0.02572218
-0.029576946 0.0077310186 -0.027986394 0.5919175 1.4889063 -0.7303214 0.84200126 0.016980957
0.0030116597 -0.046692938 0.739083 0.044976626 0.08256987 0.59588206 0.021818746 2.276522
-0.036695942 -0.46673924 0.01090433 2.0483627 0.0356509 -0.021737024 -0.13430439 -0.015881322
0.02083762 -1.7401074 -0.013816469 0.39502966 -0.1577577 0.023672393 -0.01801517 -0.8592345
-0.5440762 -1.6066617 -1.6070246 0.027063198 0.007903281 -0.0056167953 0.85284376 -0.0016585576
-0.699451 -0.017316384 -0.016871281 0.3176283 0.0039866515 -0.015866548 -0.04748162 0.044601955
0.046745755 -0.4909756 -0.03361727 0.2676589 -1.3529247 0.4769513 -0.7962038 -0.7988742
0.007897748 -0.28932247 0.23154631 0.046112638 0.02110323 -1.9080558 -0.6651942 1.5741513
-2.242561 -0.055781648 -0.022753797 -0.010571266 -0.047307104 -0.042529825 0.2608392 0.7089794
0.35847786 0.023004306 0.5018425 -2.0877233 0.026959911 1.0836141 0.008850463 0.0061399946
-0.29077327 0.02603216 -1.8804808 -0.35307348 -2.394089 -0.09004897 -0.061248075 0.05871707
-0.0047865594 -0.4762168 0.69654965 -0.11119903 -0.02446489 -0.51548547 0.054670896 0.022993477
0.036418155 -0.02004954 -0.045433242 0.0125324465 0.013931055 -2.1438897 0.04192774 0.032336585
-0.08641516 -0.064123735 -0.55541164 0.9893451 -1.1621015 0.03559144 -2.116029 0.67969805
-0.0063524237 0.095494136 -0.8416621 0.5895147 -2.2545078 0.31760013 -0.6491373 -0.2746908
00000000: d3eb 8c3f 9bea 413f 6fc3 2fbf 9f4c 3a3f
00000010: 7d41 2f3f b7f1 11bd c4f6 03bd 21da a13e
00000020: a5be 02be b126 0f3c 817e 113f 7c30 35bb
00000030: 391d 50bc 69f8 8fbc 455d 0bc0 b801 803e
00000040: c999 c3bf b849 353c 0b02 75bd e990 f0bc
00000050: 8381 eabc 79dc 9dbe c575 db3b 62bb 353d
00000060: 6b27 85bd 7308 bf3e d44c 403c 984c a1bf
00000070: 549e 51bd 3e79 13bd db19 b43c 671b b13e
00000080: e135 00bf 528b b5bf 8e56 183a 05ea 253f
00000090: bfa0 6c3c a02b 7b3b 2313 94bf b572 cb3e
000000a0: a905 cf3c b00b 1b40 dfd7 703c 55ea 14bf
000000b0: da3e b9bd d93a 393d 4a31 8e3e 580a 88be
000000c0: faf5 ccbc eeed a73c d92e 44bc 9683 6d3f
000000d0: afb6 96bb 2527 233f 7e23 acbf 37cf 01bf
000000e0: 618f 5cbd 87b1 3abd 6da3 803e f7c7 7b3f
000000f0: 4f66 be3e b03f 2ebe a27c c5be a1af 903b
00000100: 52e5 673e 4cd1 343d b7b4 11bc feb2 403b
00000110: e586 13be 494f 74c0 0800 4c3c 9e4b f9bd
00000120: 331c fbbe 5b8b c5be 4320 57be f677 2440
00000130: 5044 be3e 3a54 d8bc 0e4f ae3d a4ec 0cc0
00000140: 89a9 053d 0a3a ef3c db1e c0be e31f c6bf
00000150: 2a20 1ebf 50e3 023f 65c9 92bf 3234 c2be
00000160: 7a2e 2c3d bb49 4c3f 108f ee3c 78b8 a73c
00000170: d5b1 a7bc 5a47 323f 3b05 28bd edf6 a4be
00000180: 09ea 3ebd d446 4b3f a2f8 f6bd 0a47 41bd
00000190: 53bf b5bc 432e 023d 512c 203d 533a 5bbd
000001a0: 90d2 b1bc 2fdb 843c 45fd b93e 9b42 d83e
000001b0: 4ac3 583c 1c74 df3c 8e5c 2d3f 335f e3be
000001c0: bf89 49be c39e 23bd 8dfb 2ebf f597 073f
000001d0: 6854 0c3b aa88 ac3d 6a81 d8bc 0ccd e1bd
000001e0: d7f2 89bc e2be d6bf 0f26 18c0 6c2a 413f
000001f0: dba7 53be 605a c5bc 169a 11bf 4644 67bf
00000200: bfc4 63bf 6a08 b8bc c0a5 3f3f 3621 9b3f
00000210: 5614 0fbc 7fd5 82ba f8c4 6fbe 52b7 d2bc
00000220: 5a4b f2bc 7c54 fd3b b943 e5bc e887 173f
00000230: 7b94 be3f 58f6 3abf 658d 573f a61b 8b3c
00000240: 445f 453b 1841 3fbd 8b34 3d3f 6939 383d
00000250: 641a a93d ba8b 183f 3abd b23c 89b2 1140
00000260: 7c4e 16bd 72f8 eebe 13a8 323c 6018 0340
00000270: ae06 123d d811 b2bc 1787 09be 8c19 82bc
00000280: a8b3 aa3c d7bb debf 795e 62bc 5441 ca3e
00000290: 3c8b 21be 9bec c13c 8d94 93bc cbf6 5bbf
000002a0: 9448 0bbf 17a7 cdbf fbb2 cdbf a4b3 dd3c
000002b0: c37c 013c 180d b8bb f853 5a3f f563 d9ba
000002c0: 390f 33bf 17db 8dbc a435 8abc 2da0 a23e
000002d0: 75a2 823b 90fa 81bc 167c 42bd 8ab0 363d
000002e0: 7a78 3f3d 2761 fbbe 43b2 09bd 960a 893e
000002f0: a32c adbf f632 f43e 03d4 4bbf 0583 4cbf
00000300: 8e65 013c 1322 94be 7a1a 6d3e 9be0 3c3d
00000310: aee0 ac3c 2c3b f4bf 2b4a 2abf ca7d c93f
00000320: 1f86 0fc0 4c7b 64bd 2c66 babc 1a33 2dbc
00000330: 18c5 41bd c133 2ebd b78c 853e ad7f 353f
00000340: 698a b73e 8773 bc3c c078 003f 429d 05c0
00000350: 08db dc3c deb3 8a3f 8801 113c 0232 c93b
00000360: 3ce0 94be 6541 d53c 98b3 f0bf 0cc6 b4be
00000370: c138 19c0 986b b8bd 43df 7abd 4f81 703d
00000380: 92d8 9cbb b0d2 f3be 1451 323f 51bc e3bd
00000390: 986a c8bc dbf6 03bf 97ee 5f3d d15c bc3c
000003a0: 342b 153d ef3e a4bc 3518 3abd e454 4d3c
000003b0: 143f 643c 7d35 09c0 6cbc 2b3d 5e73 043d
000003c0: 6efa b0bd 4e53 83bd 752f 0ebf b845 7d3f
000003d0: bebf 94bf 54c8 113d 056d 07c0 b100 2e3f
000003e0: fe27 d0bb 6e92 c33d 2b77 57bf 6fea 163f
000003f0: db49 10c0 7c9c a23e dd2d 26bf 46a4 8cbe

predict.bias f4 [5]
-3.6789465 -1.7583379 -3.5829482 -1.5309262 -2.927523
00000000: dc73 6bc0 3711 e1bf 064f 65c0 64f5 c3bf
00000010: 895c 3bc0

exp_avg f4 [256, 25]
-0.056237403 -0.059527706 -0.049278878 -0.036329176 -9.479954e-06 -0.056237403 -0.0012044751 0.045468852
0.017945915 0.0006028 -0.056237403 0.004473757 0.03828031 0.019243209 9.997027e-05 -0.056237403
-0.007102341 0.066820055 0.021522315 4.1848543e-05 -0.056237403 -0.030792657 -0.03254015 0.018102402
-9.62957e-05 0.0 0.0 0.0 0.0 0.0 0.0 0.0
0.0 0.0 0.0 0.0 0.0 0.0 0.0 0.0
0.0 0.0 0.0 0.0 0.0 0.0 0.0 0.0
0.0 0.0 0.0 0.0 0.0 0.0 0.0 0.0
0.0 0.0 0.0 0.0 0.0 0.0 0.0 0.0
0.0 0.0 0.0 0.0 0.0 0.0 0.0 0.0
0.0 0.0 0.0 0.078098 0.076458365 0.047367834 0.025062306 -0.00037341844
0.078098 0.0007829603 -0.004878737 -0.005061268 0.00019912374 0.078098 0.011734779 -0.036718532
-0.004180934 0.00040544503 0.078098 0.023146043 -0.015215781 -0.0058865566 0.00038778014 0.078098
0.029834908 -0.032210547 -0.0052419193 0.0005351166 0.0 0.0 0.0 0.0
0.0 0.0 0.0 0.0 0.0 0.0 0.0 0.0
0.0 0.0 0.0 0.0 0.0 0.0 0.0 0.0
0.0 0.0 0.0 0.0 0.0 0.0 0.0 0.0
0.0 0.0 0.0 0.0 0.0 0.0 0.0 0.0
0.0 0.0 0.0 0.0 0.0 0.0 0.0 0.0
0.0 0.0 0.0 0.0 0.0 0.0 1.082959e-37 1.082959e-37
1.0785377e-37 1.1168932e-37 1.1514959e-37 1.082959e-37 1.0616645e-37 1.142426e-37 -1.1603205e-37 -1.151493e-37
1.082959e-37 -1.0871609e-37 -1.1274772e-37 -1.1498008e-37 -1.151493e-37 1.082959e-37 1.1707346e-37 -1.0785377e-37
-1.0992892e-37 -1.151493e-37 1.082959e-37 1.0984587e-37 1.1424485e-37 -1.085059e-37 -1.151493e-37 1.1656218e-37
1.1656218e-37 1.1143246e-37 1.1278233e-37 1.159234e-37 1.1656218e-37 -1.0625519e-37 -1.1131275e-37 -1.1018798e-37
-1.14078e-37 1.1656218e-37 -1.07272e-37 1.1143246e-37 -1.1513244e-37 -1.1138676e-37 1.1656218e-37 1.0619126e-37
-1.1134935e-37 -1.0852734e-37 -1.147817e-37 1.1656218e-37 1.1201269e-37 1.1141577e-37 -1.1365619e-37 1.1333683e-37
-0.082145065 -0.083170496 -0.09227328 -0.045732863 0.00029781123 -0.082145065 -0.005640923 0.022766726
0.00891093 0.0011150747 -0.082145065 0.017445728 -0.00022294931 0.014521315 -4.5925604e-05 -0.082145065
-0.012719527 0.12749746 0.012151864 -0.0003253421 -0.082145065 -0.034402356 0.020221809 0.016452966
-0.00037182902 0.0 0.0 0.0 0.0 0.0 0.0 0.0
0.0 0.0 0.0 0.0 0.0 0.0 0.0 0.0
0.0 0.0 0.0 0.0 0.0 0.0 0.0 0.0
0.0 0.0 -0.08618704 -0.08613869 -0.037036978 -0.023812074 -1.7066282e-05 -0.08618704
00000000: 3159 66bd 53d3 73bd a6d8 49bd e7cd 14bd
00000010: 180c 1fb7 3159 66bd 7adf 9dba 8c3d 3a3d
00000020: 5003 933c 3905 1e3a 3159 66bd 9898 923b
00000030: d0cb 1c3d efa3 9d3c 21a7 d138 3159 66bd
00000040: c1ba e8bb f4d8 883d 914f b03c 8886 2f38
00000050: 3159 66bd e240 fcbc d248 05bd 7d4b 943c
00000060: 5cf2 c9b8 0000 0000 0000 0000 0000 0000
00000070: 0000 0000 0000 0000 0000 0000 0000 0000
00000080: 0000 0000 0000 0000 0000 0000 0000 0000
00000090: 0000 0000 0000 0000 0000 0000 0000 0000
000000a0: 0000 0000 0000 0000 0000 0000 0000 0000
000000b0: 0000 0000 0000 0000 0000 0000 0000 0000
000000c0: 0000 0000 0000 0000 0000 0000 0000 0000
000000d0: 0000 0000 0000 0000 0000 0000 0000 0000
000000e0: 0000 0000 0000 0000 0000 0000 0000 0000
000000f0: 0000 0000 0000 0000 0000 0000 0000 0000
00000100: 0000 0000 0000 0000 0000 0000 0000 0000
00000110: 0000 0000 0000 0000 0000 0000 0000 0000
00000120: 0000 0000 0000 0000 0000 0000 d8f1 9f3d
00000130: 3496 9c3d c604 423d 774f cd3c 60c7 c3b9
00000140: d8f1 9f3d 943f 4d3a d0dd 9fbb fed8 a5bb
00000150: dfcb 5039 d8f1 9f3d 3b43 403c 2c66 16bd
00000160: 3700 89bb e991 d439 d8f1 9f3d c59c bd3c
00000170: 9c4b 79bc 04e4 c0bb f84e cb39 d8f1 9f3d
00000180: 5668 f43c 35ef 03bd 68c4 abbb 1147 0c3a
00000190: 0000 0000 0000 0000 0000 0000 0000 0000
000001a0: 0000 0000 0000 0000 0000 0000 0000 0000
000001b0: 0000 0000 0000 0000 0000 0000 0000 0000
000001c0: 0000 0000 0000 0000 0000 0000 0000 0000
000001d0: 0000 0000 0000 0000 0000 0000 0000 0000
000001e0: 0000 0000 0000 0000 0000 0000 0000 0000
000001f0: 0000 0000 0000 0000 0000 0000 0000 0000
00000200: 0000 0000 0000 0000 0000 0000 0000 0000
00000210: 0000 0000 0000 0000 0000 0000 0000 0000
00000220: 0000 0000 0000 0000 0000 0000 0000 0000
00000230: 0000 0000 0000 0000 0000 0000 0000 0000
00000240: 0000 0000 0000 0000 0000 0000 0000 0000
00000250: 0000 0000 0000 0000 9d67 1302 9d67 1302
00000260: 8ecd 1202 0c06 1802 c7bb 1c02 9d67 1302
00000270: 9c81 1002 bc7f 1b02 45ef 1d82 adbb 1c82
00000280: 9d67 1302 07fa 1382 d976 1982 b680 1c82
00000290: adbb 1c82 9d67 1302 265a 1f02 8ecd 1282
000002a0: a3a0 1582 adbb 1c82 9d67 1302 b383 1502
000002b0: 8580 1b02 cab0 1382 adbb 1c82 fea7 1e02
000002c0: fea7 1e02 8cac 1702 e882 1902 69c9 1d02
000002d0: fea7 1e02 88a0 1082 d582 1782 e8fa 1582
000002e0: 6246 1b82 fea7 1e02 d602 1282 8cac 1702
000002f0: cdb5 1c82 9f9c 1782 fea7 1e02 418a 1002
00000300: 968f 1782 42b8 1382 963b 1c82 fea7 1e02
00000310: ba76 1802 bba6 1702 67b3 1a82 1f44 1a02
00000320: ac3b a8bd 4b55 aabd c6f9 bcbd 6252 3bbd
00000330: 8c23 9c39 ac3b a8bd 7ed7 b8bb 4981 ba3c
00000340: 26ff 113c b327 923a ac3b a8bd 58ea 8e3c
00000350: 80c7 69b9 cfea 6d3c 3ea0 40b8 ac3b a8bd
00000360: 9065 50bc b28e 023e 9d18 473c ad92 aab9
00000370: ac3b a8bd 7ce9 0cbd 35a8 a53c 5fc8 863c
00000380: 0cf2 c2b9 0000 0000 0000 0000 0000 0000
00000390: 0000 0000 0000 0000 0000 0000 0000 0000
000003a0: 0000 0000 0000 0000 0000 0000 0000 0000
000003b0: 0000 0000 0000 0000 0000 0000 0000 0000
000003c0: 0000 0000 0000 0000 0000 0000 0000 0000
000003d0: 0000 0000 0000 0000 0000 0000 0000 0000
000003e0: 0000 0000 0000 0000 d582 b0bd 7b69 b0bd
000003f0: 16b4 17bd 8a11 c3bc 9029 8fb7 d582 b0bd

exp_avg_sq f4 [256, 25]
0.3920675 0.38782582 0.18905395 0.09611695 2.3116685e-05 0.3920675 0.0038743264 0.07399645
0.011732828 2.7098868e-05 0.3920675 0.020885868 0.08285557 0.010074647 0.00011121474 0.3920675
0.054543227 0.09280627 0.010728284 6.662542e-05 0.3920675 0.11533528 0.08722059 0.009871615
0.00023372998 0.0 0.0 0.0 0.0 0.0 0.0 0.0
0.0 0.0 0.0 0.0 0.0 0.0 0.0 0.0
0.0 0.0 0.0 0.0 0.0 0.0 0.0 0.0
0.0 0.0 0.0 0.0 0.0 0.0 0.0 0.0
0.0 0.0 0.0 0.0 0.0 0.0 0.0 0.0
0.0 0.0 0.0 0.0 0.0 0.0 0.0 0.0
0.0 0.0 0.0 0.21385382 0.21293606 0.03749163 0.039407488 5.418649e-06
0.21385382 0.00051021425 0.047787115 0.003928378 8.092783e-06 0.21385382 0.0032964633 0.031942595
0.0036722473 1.0088461e-05 0.21385382 0.012219311 0.03264042 0.004122937 7.687026e-06 0.21385382
0.04045529 0.045328826 0.0036688542 6.3318985e-06 0.0 0.0 0.0 0.0
0.0 0.0 0.0 0.0 0.0 0.0 0.0 0.0
0.0 0.0 0.0 0.0 0.0 0.0 0.0 0.0
0.0 0.0 0.0 0.0 0.0 0.0 0.0 0.0
0.0 0.0 0.0 0.0 0.0 0.0 0.0 0.0
0.0 0.0 0.0 0.0 0.0 0.0 0.0 0.0
0.0 0.0 0.0 0.0 0.0 0.0 0.0 0.0
0.0 0.0 0.0 0.0 0.0 0.0 0.0 0.0
0.0 0.0 0.0 0.0 0.0 0.0 0.0 0.0
0.0 0.0 0.0 0.0 0.0 0.0 0.0 7.456632e-14
7.456632e-14 8.70734e-15 1.0457597e-14 1.6603558e-19 7.456632e-14 4.8697985e-17 8.689578e-15 2.7584956e-15
1.6744361e-19 7.456632e-14 1.7765436e-16 8.063254e-15 1.3088578e-15 1.6640567e-19 7.456632e-14 1.5398797e-15
8.688582e-15 1.7732616e-15 1.7255003e-19 7.456632e-14 5.5965013e-15 8.1377056e-15 1.5626205e-15 1.661148e-19
0.29116818 0.28830186 0.07650584 0.055247165 9.94965e-06 0.29116818 0.0013052648 0.06658468
0.0044593904 1.8943107e-05 0.29116818 0.006860006 0.03675397 0.004618625 3.0001995e-05 0.29116818
0.0234406 0.048192486 0.0049786586 2.1746366e-05 0.29116818 0.0634691 0.055732254 0.0048064054
2.0489575e-05 0.0 0.0 0.0 0.0 0.0 0.0 0.0
0.0 0.0 0.0 0.0 0.0 0.0 0.0 0.0
0.0 0.0 0.0 0.0 0.0 0.0 0.0 0.0
0.0 0.0 0.45441127 0.45223853 0.184428 0.11449444 1.7520872e-05 0.45441127
00000000: 12bd c83e 1b91 c63e 5c97 413e f7d8 c43d
00000010: b4ea c137 12bd c83e 69e8 7d3b 738b 973d
00000020: 0c3b 403c 6052 e337 12bd c83e d718 ab3c
00000030: 2eb0 a93d 2210 253c f53b e938 12bd c83e
00000040: b868 5f3d 3711 be3d afc5 2f3c 40b9 8b38
00000050: 12bd c83e e734 ec3d b5a0 b23d 8ebc 213c
00000060: 6a15 7539 0000 0000 0000 0000 0000 0000
00000070: 0000 0000 0000 0000 0000 0000 0000 0000
00000080: 0000 0000 0000 0000 0000 0000 0000 0000
00000090: 0000 0000 0000 0000 0000 0000 0000 0000
000000a0: 0000 0000 0000 0000 0000 0000 0000 0000
000000b0: 0000 0000 0000 0000 0000 0000 0000 0000
000000c0: 0000 0000 0000 0000 0000 0000 0000 0000
000000d0: 0000 0000 0000 0000 0000 0000 0000 0000
000000e0: 0000 0000 0000 0000 0000 0000 0000 0000
000000f0: 0000 0000 0000 0000 0000 0000 0000 0000
00000100: 0000 0000 0000 0000 0000 0000 0000 0000
00000110: 0000 0000 0000 0000 0000 0000 0000 0000
00000120: 0000 0000 0000 0000 0000 0000 7ffc 5a3e
00000130: e90b 5a3e d390 193d bf69 213d d7d1 b536
00000140: 7ffc 5a3e e6bf 053a 6cbc 433d a0b9 803b
00000150: 3dc6 0737 7ffc 5a3e 7a09 583b 3dd6 023d
00000160: 16aa 703b 9c41 2937 7ffc 5a3e 8133 483c
00000170: f6b1 053d b419 873b 86f7 0037 7ffc 5a3e
00000180: 72b4 253d b8aa 393d 2971 703b 9876 d436
00000190: 0000 0000 0000 0000 0000 0000 0000 0000
000001a0: 0000 0000 0000 0000 0000 0000 0000 0000
000001b0: 0000 0000 0000 0000 0000 0000 0000 0000
000001c0: 0000 0000 0000 0000 0000 0000 0000 0000
000001d0: 0000 0000 0000 0000 0000 0000 0000 0000
000001e0: 0000 0000 0000 0000 0000 0000 0000 0000
000001f0: 0000 0000 0000 0000 0000 0000 0000 0000
00000200: 0000 0000 0000 0000 0000 0000 0000 0000
00000210: 0000 0000 0000 0000 0000 0000 0000 0000
00000220: 0000 0000 0000 0000 0000 0000 0000 0000
00000230: 0000 0000 0000 0000 0000 0000 0000 0000
00000240: 0000 0000 0000 0000 0000 0000 0000 0000
00000250: 0000 0000 0000 0000 0000 0000 0000 0000
00000260: 0000 0000 0000 0000 0000 0000 0000 0000
00000270: 0000 0000 0000 0000 0000 0000 0000 0000
00000280: 0000 0000 0000 0000 0000 0000 0000 0000
00000290: 0000 0000 0000 0000 0000 0000 0000 0000
000002a0: 0000 0000 0000 0000 0000 0000 0000 0000
000002b0: 0000 0000 0000 0000 0000 0000 8fe8 a729
000002c0: 8fe8 a729 85db 1c28 2763 3c28 2d05 4420
000002d0: 8fe8 a729 6f94 6024 9b89 1c28 43c5 4627
000002e0: baae 4520 8fe8 a729 50d2 4c25 3241 1128
000002f0: 54a0 bc26 0775 4420 8fe8 a729 89eb dd26
00000300: 0385 1c28 ce8d ff26 0cb6 4b20 8fe8 a729
00000310: 9da2 c927 8b98 1228 8532 e126 1e1d 4420
00000320: ff13 953e 4d9c 933e 18af 9c3d da4a 623d
00000330: 6ced 2637 ff13 953e 6b15 ab3a 8c5d 883d
00000340: 1420 923b 03e8 9e37 ff13 953e e7c9 e03b
00000350: 558b 163d d657 973b cbac fb37 ff13 953e
00000360: 8006 c03c 7c65 453d 0424 a33b f76b b637
00000370: ff13 953e 16fc 813d 8147 643d 0d7f 9d3b
00000380: 07e1 ab37 0000 0000 0000 0000 0000 0000
00000390: 0000 0000 0000 0000 0000 0000 0000 0000
000003a0: 0000 0000 0000 0000 0000 0000 0000 0000
000003b0: 0000 0000 0000 0000 0000 0000 0000 0000
000003c0: 0000 0000 0000 0000 0000 0000 0000 0000
000003d0: 0000 0000 0000 0000 0000 0000 0000 0000
000003e0: 0000 0000 0000 0000 98a8 e83e cf8b e73e
000003f0: b2da 3c3e 107c ea3d c9f9 9237 98a8 e83e

exp_avg f4 [256]
-0.05623739 0.0 0.0 0.078098 0.0 0.0 1.082959e-37 1.1656218e-37
-0.08214505 0.0 -0.08618704 0.0 -0.066199295 -0.0065522194 -0.099044435 0.073516965
0.034274187 1.1701952e-37 0.05271652 -0.010806929 0.07242234 0.0 0.045599744 1.1524912e-37
0.066328086 0.16348374 0.0 -0.024278816 0.0 -0.07245889 0.06708372 0.0
-0.16640157 -0.04689395 -0.079666145 0.06768012 0.0 -0.07118575 1.1626439e-37 0.0
1.1580378e-37 0.055733077 -0.043247025 0.0 1.1045162e-37 -0.07174077 -0.2997233 0.0012052921
1.0701869e-37 0.06830484 -0.0317282 0.0 0.1144946 -0.09479827 0.0 0.08162731
0.01898564 0.0 0.18067543 0.0 1.1409427e-37 -0.010678232 -0.11239439 0.07325266
1.1366634e-37 0.048661485 0.0 -0.11503383 0.01948925 0.060216956 0.019468125 1.082959e-37
-0.013842739 0.0 -0.05314581 0.0 0.0 0.07086549 0.077978484 1.173798e-37
-0.03760693 0.0070075914 1.094867e-37 0.03967542 0.0 0.064718544 -0.04153344 -0.021934886
0.0 -0.06676074 0.021559939 1.0824919e-37 0.0 0.0 -0.12927783 0.09041591
1.0655917e-37 -0.07210247 -0.007101165 0.07375041 1.1386593e-37 0.0 0.12099057 1.082959e-37
0.013147192 0.0 1.1234186e-37 0.09115176 0.0 -0.024725879 1.1623661e-37 1.0900886e-37
0.0 1.1327778e-37 1.082959e-37 0.0 1.0837967e-37 -0.009310424 1.1162254e-37 1.0838386e-37
-0.097335085 0.043115992 -0.026383692 1.0639319e-37 -0.049807556 0.032196432 0.0 1.1423154e-37
0.0053265076 0.0 1.1324682e-37 0.038910907 1.1115976e-37 0.007220448 1.082959e-37 0.041997753
1.1584425e-37 -0.022591207 0.06211825 0.07378856 -0.075334385 -0.06445855 1.075815e-37 -0.07772925
0.09284664 0.0 0.103208534 -0.005471034 0.0 0.0 0.08193397 -0.031162445
0.0038490463 1.1000333e-37 0.07974331 0.0 0.14584026 1.1076811e-37 0.0 1.1483669e-37
0.273357 1.1578001e-37 0.03385503 0.032188438 0.101056196 0.08157963 -0.103237025 0.0
-0.091625795 1.1398853e-37 0.0 -0.022003178 0.19502246 0.0 -0.10136773 -0.07034094
1.1708415e-37 -0.025330203 -0.021027293 -0.073739216 0.013246029 0.0 -0.017154474 0.074253865
0.0 -0.079722196 0.06801151 1.1367947e-37 0.0 1.1637191e-37 0.049705014 0.005810391
1.1622852e-37 0.0 1.1098092e-37 -0.08911518 1.1524544e-37 1.1330512e-37 0.08020414 -0.072890356
-0.005384911 -0.045628186 -0.09480443 0.12518218 -0.048565987 0.08060241 0.0 0.034507025
0.033675976 -0.050627783 1.116518e-37 -0.19523877 0.034696404 0.11351138 0.07727412 -0.02320172
-0.021128539 0.1306786 -0.010422445 0.0 0.0 0.041678544 -0.010045007 -0.00432882
0.02609137 1.0636515e-37 0.0 1.1189507e-37 -0.0033844057 0.041686054 -0.06362428 -0.1244902
-0.03715256 0.019310124 0.0357054 0.14552006 0.0 1.0610197e-37 0.0 1.1649751e-37
0.026158972 0.0734144 1.0630761e-37 1.0757342e-37 1.1590245e-37 -0.19280419 -0.058751777 0.062051713
1.0892425e-37 0.14828418 0.24423295 1.1494228e-37 1.092988e-37 0.03020509 0.013729237 0.03966257
00000000: 2d59 66bd 0000 0000 0000 0000 d8f1 9f3d
00000010: 0000 0000 0000 0000 9d67 1302 fea7 1e02
00000020: aa3b a8bd 0000 0000 d582 b0bd 0000 0000
00000030: 7f93 87bd 00b4 d6bb cfd7 cabd 1090 963d
00000040: 1763 0c3d 5a47 1f02 47ed 573d 8c0f 31bc
00000050: 2a52 943d 0000 0000 ccc6 3a3d 75de 1c02
00000060: 05d7 873d 4868 273e 0000 0000 5ee4 c6bc
00000070: 0000 0000 5465 94bd 3063 893d 0000 0000
00000080: 2c65 2abe df13 40bd 0128 a3bd e09b 8a3d
00000090: 0000 0000 d6c9 91bd 3a40 1e02 0000 0000
000000a0: ba9f 1d02 5e48 643d cb23 31bd 0000 0000
000000b0: c656 1602 d3ec 92bd 5575 99be e4fa 9d3a
000000c0: 92aa 1102 68e3 8b3d 6ef5 01bd 0000 0000
000000d0: 257c ea3d 9825 c2bd 0000 0000 382c a73d
000000e0: c687 9b3c 0000 0000 fb02 393e 0000 0000
000000f0: 0d4c 1b02 c0f3 2ebc 082f e6bd 7e05 963d
00000100: f0b6 1a02 4451 473d 0000 0000 db96 ebbd
00000110: eba7 9f3c 0ea6 763d 9e7b 9f3c 9d67 1302
00000120: a8cc 62bc 0000 0000 6caf 59bd 0000 0000
00000130: 0000 0000 ed21 913d 2fb3 9f3d e4c4 1f02
00000140: b909 1abd f09f e53b 8c06 1502 b182 223d
00000150: 0000 0000 288b 843d f81e 2abd cab0 b3bc
00000160: 0000 0000 dbb9 88bd 789e b03c 5657 1302
00000170: 0000 0000 0000 0000 6861 04be fa2b b93d
00000180: 740a 1102 76aa 93bd e4b0 e8bb 740a 973d
00000190: 7cfc 1a02 0000 0000 e7c9 f73d 9d67 1302
000001a0: 5267 573c 0000 0000 6de9 1802 c6ad ba3d
000001b0: 0000 0000 ed8d cabc 8c36 1e02 0b60 1402
000001c0: 0000 0000 8c2f 1a02 9d67 1302 0000 0000
000001d0: ce84 1302 c08a 18bc c7ee 1702 4386 1302
000001e0: 9e57 c7bd 659a 303d 9d22 d8bc 9ed0 1002
000001f0: 0203 4cbd 68e0 033d 0000 0000 e27b 1b02
00000200: fc89 ae3b 0000 0000 c224 1a02 0b61 1f3d
00000210: 864d 1702 8299 ec3b 9d67 1302 d605 2c3d
00000220: d4ad 1d02 3211 b9bc b56f 7e3d 751e 973d
00000230: ea48 9abd d802 84bd ae6e 1202 8330 9fbd
00000240: 6126 be3d 0000 0000 ff5e d33d 5c46 b3bb
00000250: 0000 0000 0000 0000 ffcc a73d 6248 ffbc
00000260: 4840 7c3b 91ba 1502 7650 a33d 0000 0000
00000270: 2657 153e 0ec5 1602 0000 0000 bf4e 1c02
00000280: 73f5 8b3e 7297 1d02 92ab 0a3d 06d8 033d
00000290: 8df6 ce3d 3913 a73d ef6d d3bd 0000 0000
000002a0: 4ea6 bbbd 3527 1b02 0000 0000 0240 b4bc
000002b0: f8b3 473e 0000 0000 e299 cfbd e90e 90bd
000002c0: df5d 1f02 4981 cfbc 6e41 acbc 9604 97bd
000002d0: df05 593c 0000 0000 8a87 8cbc 6912 983d
000002e0: 0000 0000 6445 a3bd 9e49 8b3d 84bb 1a02
000002f0: 0000 0000 b165 1e02 7c97 4b3d 1865 be3b
00000300: ba33 1e02 0000 0000 350f 1702 0582 b6bd
00000310: 2ddd 1c02 1239 1a02 1142 a43d 8a47 95bd
00000320: e873 b0bb 9fe4 3abd d328 c2bd c22f 003e
00000330: 21ed 46bd e012 a53d 0000 0000 3d57 0d3d
00000340: d2ef 093d 145f 4fbd f9f8 1702 acec 47be
00000350: d11d 0e3d a878 e83d e541 9e3d 8911 bebc
00000360: c215 adbc 9cd0 053e e7c2 2abc 0000 0000
00000370: 0000 0000 1fb7 2a3d d093 24bc c6d8 8dbb
00000380: 92bd d53c d8c6 1002 0000 0000 be4d 1802
00000390: e8cc 5dbb ffbe 2a3d 724d 82bd b8f4 febd
000003a0: 482d 18bd 4430 9e3c d33f 123d 3603 153e
000003b0: 0000 0000 246b 1002 0000 0000 7591 1e02
000003c0: 574b d63c 4a5a 963d ccb2 1002 de6b 1202
000003d0: 1cc2 1d02 766e 45be b4a5 70bd f029 7e3d
000003e0: 9042 1402 cfd7 173e 3418 7a3e 8a73 1c02
000003f0: 13c5 1402 aa70 f73c 98f0 603c 3875 223d
