highway_ddqn/ddqn_tuned_reward_change/checkpoint-1.tar (torch, 297914 bytes, 6 tensors)

layers.0.weight f4 [256, 25]
000000 f0 f1 4b be 03 69 c1 3d 8d c1 9a 3d 00 b2 6d bb
       -0.1991651 0.094438575 0.07556448 -0.0036269426
000010 3a 3d 25 bd 8d 1c b0 bd 7a b6 28 3e 85 b0 38 be
       -0.040341593 -0.08599196 0.1647586 -0.18036087
000020 47 f3 e1 3d ba 18 e4 3d b3 90 30 bc cd 0c d1 38
       0.110327296 0.11137529 -0.0107766865 9.968281e-05
000030 7a c2 c6 3d 1a 00 cf bc da 03 53 3d 80 3e 10 3c
       0.09705062 -0.025268603 0.051517345 0.008803964
000040 1a 9c 9b 3c 5a f5 ea bd 33 ee e3 3c dd 57 dd 3d
       0.018995333 -0.11472578 0.027823543 0.10807774
000050 e2 9f 17 3e 40 8f ab bd 9a 48 71 3d da 6d da 3c
       0.14807084 -0.08376932 0.05890713 0.02666371
000060 13 d7 af bd 6d c4 0b be 23 df 09 be 58 3f 2e be
       -0.08585944 -0.13649149 -0.13464026 -0.17016351
000070 30 03 86 3d cd 11 f3 3b ed 33 d3 bd ca 53 98 bd
       0.06543577 0.0074178935 -0.103126384 -0.074378565
000080 07 6f 3e 3e 1a 4b 0f 3d 33 28 ec bc 27 88 2e 3d
       0.18597041 0.03498373 -0.028827762 0.042610314
000090 87 bf 6a 3d 10 10 1c 3e fa dc 01 bd 7d 1d 37 3e
       0.05731156 0.15240502 -0.03170488 0.17882343
0000a0 c5 5d 31 be 40 3b 49 3d a7 c2 90 bc e5 26 2c 3e
       -0.17320926 0.04912877 -0.017670942 0.16811712
0000b0 a8 b0 13 be 00 b0 7f 3a 33 8f 6b bc 97 29 8a bd
       -0.14422858 0.0009753704 -0.014377403 -0.06746214
0000c0 00 66 a3 bc 73 24 0a be da ae 11 bd fa 53 18 bd
       -0.019946098 -0.13490467 -0.035567142 -0.03718946
0000d0 da 9b cc 3c 9a ad 12 bc 97 c0 de bd 83 8e a1 bd
       0.02497666 -0.008952523 -0.10876577 -0.0788851
0000e0 33 09 32 bd 4d 53 bd 3d f3 13 95 3d 13 35 57 bd
       -0.043465804 0.09244404 0.07279196 -0.05254085
0000f0 0d ea 06 bd 95 a1 26 be 9a 97 51 3b 73 c0 eb bc
       -0.032938052 -0.16272576 0.003198123 -0.02877829
000100 d0 49 03 3e e0 78 6b bd da f8 67 3d 67 ac 7b bd
       0.12821126 -0.057488322 0.056633808 -0.061443713
000110 4b d8 07 be 5f cd 17 be aa 94 13 be 13 2f fb 3d
       -0.13266103 -0.14824437 -0.1441218 0.12264838
000120 7d 50 f7 bd 1b e2 03 3e 6d f2 5a bd bd 72 e5 bd
       -0.12075899 0.12879221 -0.05345385 -0.11203525
000130 63 5d e9 3d d0 94 cf 3d 90 d4 18 3e cf 06 19 3e
       0.11394765 0.101358056 0.14924836 0.14944004
000140 e0 26 22 3e b3 de 2f 3d 7f 09 42 3e ca d1 fc bd
       0.15835142 0.042936992 0.18948935 -0.123447016
000150 3a 03 35 3d 47 86 09 3e ff cf 0c 3e e2 7c 26 3e
       0.04419253 0.13430129 0.13751219 0.16258577
000160 a7 e7 c2 3c a0 e1 be bd ba 12 f7 bd 53 4e ac 3d
       0.023792101 -0.09320378 -0.12064119 0.08413377
000170 fd 16 4c 3e aa 8d 13 be d5 81 21 be fd a3 35 3e
       0.19930644 -0.1440951 -0.15772183 0.17738338
000180 3a f9 3b bd 3a 1b 41 bd 4d 58 84 bd 20 19 32 bd
       -0.045891978 -0.047145106 -0.064621545 -0.043480992
000190 cd 6c 43 3b 0d 95 05 be e7 86 3c be 55 e8 2f be
       0.002981949 -0.1304514 -0.18410836 -0.17178471
0001a0 d8 82 1d 3e e0 c1 87 bd 4a 38 4b 3e b3 7c e4 bd
       0.15381944 -0.066287756 0.19845691 -0.11156597
0001b0 dd 87 18 3e 4a e1 03 3e 7d 7b 94 3d 9d 41 c4 bd
       0.14895578 0.1287891 0.07250116 -0.09582827
0001c0 33 a0 35 bd 63 2c cc bd b3 c5 ea bd ea f4 0b be
       -0.04434223 -0.099694036 -0.114634894 -0.13667646
0001d0 c0 73 b8 bd aa 69 4c 3e 8a 4d 23 be 43 58 e3 bd
       -0.090064526 0.19962183 -0.15947548 -0.11100819
0001e0 c8 d0 33 be 00 88 06 bd a0 33 d3 bd 77 39 84 3d
       -0.17560112 -0.032844543 -0.10312581 0.06456273
0001f0 80 92 cd bc 38 6e 0a be 93 a6 1e bd ca 38 94 bd
       -0.02509427 -0.13518608 -0.038733076 -0.07237394
000200 70 07 c1 3d 00 90 dd bd e3 52 a6 bd 2b f2 02 3e
       0.09425247 -0.108184814 -0.08121278 0.12787692
000210 00 bc 1b 3e 93 3e 4b be 7d e1 2e 3e 33 9b 7f bb
       0.15208435 -0.19848089 0.17078204 -0.0039002418
000220 fb 2f 0d be 5a c6 7c bd 87 ae 35 bd 73 5d ad 3c
       -0.13787834 -0.0617126 -0.044355895 0.021162724
000230 ed 51 bd 3d 80 73 21 be 27 4e e0 bc 82 26 0f 3e
       0.09244142 -0.15766716 -0.027381016 0.13979533
000240 05 5e 36 be 0b 59 32 be d3 d8 06 3d 8b 10 33 3e
       -0.17809303 -0.1741678 0.032921623 0.1748678
000250 4d 0a 57 bd d5 9b 09 3e 0d 12 53 3d 37 69 bd bd
       -0.052500058 0.13438351 0.051530886 -0.09248584
000260 07 b0 2f 3d 9a 27 42 bb ba 5f b7 3d 27 91 2a 3d
       0.042892482 -0.0029625655 0.08953805 0.041642334
000270 7a 76 18 3d 1b 08 14 3e e3 b2 f5 3d da d8 bd bc
       0.037222363 0.14456217 0.119970106 -0.023174692
000280 33 57 de ba 5d 48 ed bd 9d ce fe bd f8 64 26 3e
       -0.0016963243 -0.11586068 -0.12441752 0.16249454
000290 cd 6e 4f bd b3 83 fd 3c 6d cd 53 bd 67 7d 8a bd
       -0.050642777 0.030946588 -0.05170958 -0.067622
0002a0 da ac c5 bc 9a cb 0c bd 5d 2e e6 3d e7 3f 6c bd
       -0.024130274 -0.034373857 0.11239312 -0.05767813
0002b0 a7 c3 52 3d e0 64 30 3e d3 de f9 3d 53 0e 36 3e
       0.05145612 0.17225981 0.122007035 0.17778902
0002c0 1f a1 4a 3e e0 f5 a2 3d cd 4b aa 3d c0 39 f4 3c
       0.19788025 0.07957053 0.08315239 0.029812694
0002d0 60 6e f2 bd 0d 78 a9 3c 40 21 b3 bd fd 16 ed bd
       -0.118374586 0.020687127 -0.08746576 -0.1157665
0002e0 9a 51 21 ba 9a 4d 53 3d e3 49 9c 3d a7 18 81 bd
       -0.0006153822 0.05158768 0.0763128 -0.0630353
0002f0 25 cd 1c be bd 24 c6 bd 00 8b 6f 3c 80 57 a8 3c
       -0.15312631 -0.09674976 0.0146205425 0.020549536
000300 73 d6 85 3c f8 c1 3d be 8a 6c c5 3d 30 cd 83 bd
       0.016337609 -0.18531024 0.09639843 -0.06435621
000310 a7 8a d7 3c c0 ad 9d 3d 1d 86 fd bd d3 d2 1f 3d
       0.026311232 0.07699156 -0.12379096 0.039019417
000320 42 d1 39 3e 8d 7a 1c 3e ed 8c 1c be 47 62 b0 3d
       0.18146232 0.15281124 -0.15288134 0.08612495
000330 0b 7b 02 3e 80 c5 9d 3c 40 5e e7 bd 57 49 f9 3d
       0.1274225 0.019259214 -0.11297274 0.121721916
000340 0d 87 51 3d 3d c3 1c 3e fa 3c fd 3d ca 12 0d 3e
       0.051154185 0.15308852 0.12365146 0.13776699
000350 00 d0 0c 3b b3 e4 e2 3c a7 d4 92 3c 67 e6 2d b9
       0.0021486282 0.027696943 0.017923666 -0.00016584397
000360 30 02 36 3e 67 ad d5 3c c7 0d 44 bd b2 17 36 3e
       0.17774272 0.026083661 -0.0478647 0.17782477
000370 b3 2a f9 3d c0 d9 ec bc e7 06 d2 bd a7 33 96 3c
       0.12166347 -0.028912425 -0.10255223 0.018335177
000380 68 a9 40 be ed 78 40 3d 7a b6 eb bd 8a 4b 31 3e
       -0.18814623 0.046990324 -0.11509414 0.17313972
000390 73 d0 0f be 3a 28 69 3d 8d d6 f9 bd 30 7f 06 be
       -0.14044361 0.05692313 -0.121991254 -0.13134456
0003a0 df df 19 3e a7 cc c6 bd c7 51 a8 bd 9a 8c 0a bc
       0.15026806 -0.09707003 -0.08218723 -0.008456374
0003b0 dd 73 8e bd 00 50 61 ba ba 64 73 bd fa 9b 33 bd
       -0.06955693 -0.000859499 -0.059422232 -0.043849923
0003c0 03 23 bb bd 4a 68 c3 bd e7 90 44 bc 5f 2c 4b be
       -0.09137537 -0.09541376 -0.011997438 -0.19841145
0003d0 d7 d7 a5 bd e7 90 96 bc 60 f0 8c 3d 2a 47 45 3e
       -0.08097809 -0.018379642 0.068817854 0.19265428
0003e0 bd cc 3a 3e 3d 05 a4 3d d3 53 1a bd da 93 bf bd
       0.18242164 0.080088116 -0.037677597 -0.09354372
0003f0 00 4c 82 3b aa 96 0d be f7 24 08 be b5 1c 01 3e
       0.003976345 -0.13827005 -0.13295351 0.12608607

layers.0.bias f4 [256]
000000 58 c4 0c 3e c0 e6 98 bc 20 7c 37 3e a7 6c 1f bd
       0.13746774 -0.018664718 0.17918444 -0.03892198
000010 60 de a2 3d 1d f5 87 bd c5 cc 27 be ba 10 25 3d
       0.07952571 -0.066385485 -0.16386707 0.040299155
000020 3d 39 0e 3e f0 50 8f 3d bd 6c 10 be 13 be 5b 3d
       0.13889022 0.069978595 -0.1410398 0.053648066
000030 bd f0 3c be 38 ef 4b be 47 5f 0c 3d 70 e5 02 3e
       -0.1845121 -0.19915473 0.03427055 0.12782836
000040 e5 2c 04 3e 43 15 c6 bd f3 4b 92 3c 9a b0 12 3c
       0.12907751 -0.09672024 0.017858481 0.008953238
000050 2d 94 e8 bd 27 57 2c be 00 65 f8 3c ba 43 17 3d
       -0.11356387 -0.16830121 0.030321598 0.036929823
000060 33 d7 f3 3c 47 89 96 bd 53 18 c3 bd ab cc 15 be
       0.0297657 -0.07350402 -0.09526124 -0.14628856
000070 60 c3 46 bd a2 59 42 3e ca d0 84 bd cf 40 2e 3e
       -0.048526168 0.18979505 -0.06485136 0.1701691
000080 9f c6 3b 3e 53 ee 17 3d 4d d8 3f 3e 5b ca 1b be
       0.18337487 0.037092518 0.18734856 -0.15213911
000090 27 47 89 bd d3 41 01 bd 93 ed f2 bd 60 f6 e4 bd
       -0.06703024 -0.031556915 -0.1186172 -0.11179805
0000a0 4d c6 a2 bc d7 bb 90 bd 0a 85 dd bd e7 fe 26 be
       -0.019869948 -0.070670776 -0.10816391 -0.16308175
0000b0 33 c3 d1 ba ad 35 00 be da 62 f9 bc 9a a8 51 bc
       -0.0016003608 -0.12520476 -0.030442644 -0.012796545
0000c0 87 2c 43 3e 90 47 b1 3d 25 16 23 3e ff 26 14 be
       0.19059955 0.086562276 0.15926416 -0.14468001
0000d0 07 4e 8a bd 2d b6 f7 bd 47 ea 46 3e f7 b9 d4 3d
       -0.06753164 -0.12095294 0.19425307 0.103870325
0000e0 1a 81 a9 3c 10 3a fa bd 27 50 ad bc cd 15 2a be
       0.020691443 -0.12218106 -0.021156384 -0.16609879
0000f0 47 62 3d bd 33 49 5b bd 00 2f b8 3c e3 88 8c bd
       -0.046236303 -0.053536605 0.022483349 -0.068620466
000100 fb 56 37 be 7a b5 33 3d 1a 04 3f be ca 65 83 3d
       -0.17904274 0.04387424 -0.18653908 0.06415899
000110 d3 cf a0 bd 7a 60 38 bd e2 06 2e 3e f3 54 92 bc
       -0.07852139 -0.045013882 0.16994813 -0.017862773
000120 ad ac 93 bd ea 1a c8 3d 37 5a ba 3d d2 a9 2d be
       -0.0721067 0.097707585 0.09099238 -0.16959313
000130 2a df 41 be a0 2f 12 3d 4a 6c e9 bd 80 50 80 bc
       -0.18932787 0.03568995 -0.113976076 -0.015663385
000140 1a 86 0b 3c a7 26 1f bd d7 f2 4a 3e 2d c7 e8 bd
       0.008515859 -0.03885522 0.19819199 -0.11366115
000150 60 75 44 3d 9a d6 5a bc 3d 6e 0a 3e c3 46 e6 3d
       0.0479635 -0.013356829 0.13518615 0.112439655
000160 d7 0a 9b bd 00 84 89 3b 58 9d 07 3e 0d 32 07 3e
       -0.07570427 0.004196644 0.13243616 0.13202687
000170 9a 7b ac bd 77 7c b2 3d 9a 01 3d bb 5a 1b bf bd
       -0.084220126 0.08715146 -0.0028840066 -0.09331389
000180 05 8a 19 3e b3 92 37 3c 80 d5 c9 bd 53 81 04 bd
       0.14994057 0.011204409 -0.09855175 -0.032349896
000190 9a 79 f8 3d 3f 05 46 3e 9b 72 14 be a0 89 3f bd
       0.12132569 0.19337939 -0.14496844 -0.04676211
0001a0 9a 91 3a 3d 67 96 cf bb 3a 47 dc bd 05 de 18 3e
       0.045549013 -0.006335068 -0.10755773 0.14928444
0001b0 73 77 10 3d 7f 70 2b 3e 20 f9 29 bd 4a d3 43 3e
       0.035270166 0.16742133 -0.04149735 0.19123569
0001c0 9d ef bc bd 77 61 a4 3d ad 5f 67 3d cd e3 a4 bc
       -0.0922539 0.080264024 0.056487728 -0.020128155
0001d0 67 4b 45 3c 4d 28 19 bd 9d 0f c1 bd e8 ba 4b 3e
       0.012041903 -0.03739195 -0.09426806 0.19895518
0001e0 7b 74 04 3e e2 e6 05 be 1a 6a 85 bc 13 62 05 bd
       0.12935059 -0.13076356 -0.016285945 -0.032564234
0001f0 70 f8 3e 3e 5f 41 03 3e c3 25 8c bd 00 7b a6 bd
       0.18649459 0.12817906 -0.0684314 -0.08128929
000200 2a b2 ae 3d 73 98 44 3e f7 bf 85 3d 00 f9 c5 bc
       0.08530076 0.1919878 0.06530755 -0.024166584
000210 d7 10 d9 bd 27 4b 19 bd aa 82 19 3e cd f4 e4 3a
       -0.10598915 -0.037425186 0.1499125 0.0017467976
000220 ad ac aa bd 83 c0 9a 3d e0 d2 cd bd f0 cc 30 be
       -0.083337165 0.0755625 -0.10049987 -0.17265677
000230 40 94 fd bd 22 42 42 3e 6d c5 f7 3d 73 1f 20 3d
       -0.12381792 0.1897054 0.12098203 0.039092492
000240 20 b5 43 3e d3 48 21 be 27 bd 5c 3d 53 c3 be 3d
       0.19112062 -0.15750436 0.053891327 0.09314599
000250 1d e6 9d bd 4a c3 22 be 82 29 3d be 9d d8 31 be
       -0.07709906 -0.1589481 -0.18472865 -0.17367788
000260 a2 11 1d be a7 ef 2e bd eb 4d 08 3e 53 cd 4e 3d
       -0.15338758 -0.04270902 0.13310973 0.05048878
000270 4b 2b 3b 3e 8a b2 e5 bd 00 77 ab 3b 7a 3d 1a 3e
       0.18278234 -0.11215694 0.0052326918 0.15062514
000280 40 d5 f6 3d 13 7c 2b 3d 73 e8 bf 3c 6a bb b0 3d
       0.12052393 0.041866373 0.02342627 0.086294964
000290 dd aa c9 3d c7 0d 93 3d b0 93 f9 bd 00 47 8a bd
       0.09847043 0.07180362 -0.12186372 -0.067518234
0002a0 da 28 d3 3d 47 58 4c bd da 18 c3 bd c7 e1 43 be
       0.10310526 -0.049888875 -0.095262244 -0.19129096
0002b0 0f ca 17 be bd 3c 88 bd 80 7c 12 3e 2d 30 03 3e
       -0.14823173 -0.0665221 0.14305305 0.12811346
0002c0 3a fb 1c be 5d 2c 2c 3e 35 b2 2e be 73 22 c2 bd
       -0.1533021 0.16813798 -0.17060168 -0.09479227
0002d0 8b e7 07 3e 80 50 0d 3c 4d 65 b3 bd 40 85 e3 bc
       0.1327192 0.00862515 -0.08759556 -0.0277735
0002e0 a3 2b f6 bd a2 26 2f 3e 10 4a 19 3e a0 2b d2 3d
       -0.12020042 0.17104581 0.14969659 0.10262227
0002f0 ad f2 eb bd a2 98 47 3e 4a c5 f5 3d 63 d4 b3 3d
       -0.11520896 0.19491819 0.120005205 0.08780744
000300 a8 d1 1c 3e 9a 73 51 bc 3a fb 37 3d 33 9b ac bc
       0.15314353 -0.012783909 0.044917323 -0.021070099
000310 33 1c 23 bc 0a 58 b5 3d c7 dc 4a be 20 35 10 bd
       -0.009955454 0.08854683 -0.19810782 -0.035206914
000320 b5 84 3b 3e 02 3a 29 3e 9d da 0f 3e 33 37 b7 bb
       0.18312342 0.16526034 0.14048238 -0.005591297
000330 33 e4 42 bc 35 d2 2f be a0 9c 8f bd a5 1c 30 be
       -0.011895227 -0.17170031 -0.07012296 -0.17198427
000340 12 34 4a 3e 80 a2 a5 bc 00 d0 ab bb 5f b4 4a 3e
       0.19746426 -0.020219088 -0.0052433014 0.19795369
000350 a3 7c d2 bd 20 48 f0 bd 43 a8 12 be 53 e7 d6 bd
       -0.10277679 -0.11732507 -0.14321999 -0.1049334
000360 30 3b d1 bd d3 db 10 3d e7 3d 4d bd e7 fd 47 be
       -0.10216367 0.03536589 -0.050107863 -0.1953045
000370 7a b9 44 be 80 59 f0 bd e2 5c 28 3e 95 c6 35 be
       -0.19211379 -0.11735821 0.16441682 -0.17751534
000380 b7 e8 c2 bd 1b 42 03 3e 2f 50 4a be 8d fd a3 bd
       -0.09517043 0.12818186 -0.1975715 -0.08007345
000390 b5 65 10 3e 1a ed 9e 3d 80 e2 43 3e 55 e7 3d 3e
       0.14101298 0.07760067 0.19129372 0.18545277
0003a0 0f 48 33 3e 4a b3 e0 bd cd 6b 54 3c 0b 56 32 be
       0.17507957 -0.10971697 0.012965155 -0.17415635
0003b0 9d 25 d0 bd 4d 75 69 bd fb b9 2e be d2 48 48 be
       -0.10163424 -0.056996632 -0.17063133 -0.19559029
0003c0 92 92 21 be cd b9 67 3d 7d c2 c1 3d 73 5f 2d be
       -0.15778568 0.056573678 0.09460924 -0.16930942
0003d0 bd 4b 17 3e cd 58 c5 ba 9a c9 38 3c e7 55 4c bc
       0.14774986 -0.0015056372 0.011278534 -0.012471653
0003e0 47 8f c6 3d a7 7f 14 3d e0 c1 b1 3d 80 73 a4 3c
       0.09695297 0.03625455 0.08679557 0.020074606
0003f0 cd 2c dd 3b 20 29 cc 3d 58 db 11 3e 4a 07 20 be
       0.0067497254 0.099687815 0.14243829 -0.1562778

layers.1.weight f4 [256, 256]
000000 e6 e6 1a 3d f6 bf 5a 3d 36 a2 32 3d 00 f6 95 ba
       0.03781786 0.053405724 0.043611728 -0.0011441112
000010 80 dc 2e 3a 12 6e 7e bd a8 36 ff 3c a4 18 20 bd
       0.00066704303 -0.06211669 0.031153992 -0.039086
000020 64 ac be bc 6e e2 75 3d 78 1f 12 3d b6 70 63 bd
       -0.023275562 0.060030393 0.035674542 -0.05552741
000030 b4 50 23 bd f0 c3 74 bc e8 06 0e bd 44 f8 78 3d
       -0.039871886 -0.014939293 -0.034674555 0.06078364
000040 b4 bc 5f bd 6e 86 34 3d 60 19 3f bb 80 c0 87 bc
       -0.05462332 0.044073515 -0.0029159412 -0.016571283
000050 bc 37 0f 3d d8 f6 70 bd 68 13 30 bd 00 b2 23 bb
       0.03496526 -0.05882916 -0.042987257 -0.0024977922
000060 a0 27 99 3b 90 8f ec bc 20 5b 8e bc 90 6d 59 3c
       0.004673913 -0.02887705 -0.017377436 0.013270751
000070 0a 01 59 3d b0 3a f3 3c e0 45 e9 3b 82 c0 0f 3d
       0.052979507 0.02969107 0.0071189255 0.0350957
000080 dc 68 54 bd ea 4d 69 3d e4 36 48 3d c0 0f ec 3b
       -0.051857814 0.05695907 0.048880473 0.007204026
000090 50 de 7b 3d 04 e9 91 3c 88 32 0e 3c 58 ff 06 3d
       0.06149131 0.017811306 0.00867904 0.03295836
0000a0 a4 d7 08 bd fe 03 14 bd b0 12 59 3c 6c a5 80 bc
       -0.033408776 -0.03613662 0.013249084 -0.01570388
0000b0 10 4a 77 bc 18 38 7c bc 10 49 f2 bb ee 52 70 3d
       -0.0150933415 -0.015394233 -0.0073939636 0.058672838
0000c0 58 b5 f9 3c 98 1a 7e 3d 0a 3a 05 bd b2 9b 5a bd
       0.03048198 0.06203708 -0.032526053 -0.05337114
0000d0 64 c6 45 bd b0 57 67 3d 50 92 96 3b 80 b1 21 bc
       -0.048284903 0.05648011 0.0045950785 -0.009868979
0000e0 42 1c 3b 3d 34 96 51 bd 0c 52 5e bd 6c 81 33 bd
       0.045681246 -0.051168635 -0.054277465 -0.0438246
0000f0 90 d9 ed 3c a6 f9 57 bd 84 54 8c 3c d0 12 15 bd
       0.029034406 -0.052728318 0.017130144 -0.036394894
000100 38 ac 82 3c f0 5c 4b 3d 38 c0 0e 3c f0 36 75 bc
       0.01595126 0.04964918 0.008712821 -0.014966711
000110 80 b2 3e ba 68 1e 11 bd 9c 7d 56 bd 9c 0e 7a 3d
       -0.00072745234 -0.03542939 -0.052365884 0.06104909
000120 e0 ad df bb 40 2e 96 bc 56 2d 33 bd f0 4c 5a 3d
       -0.0068261474 -0.0183326 -0.043744408 0.05329603
000130 50 fe ea 3b 0c 28 67 3d c0 c7 71 bd 3c f5 82 bc
       0.0071714297 0.056434676 -0.059028387 -0.015986077
000140 94 33 49 bd 28 2d 21 bc fa 88 56 3d f8 22 9e bc
       -0.049121454 -0.009837426 0.052376725 -0.019303784
000150 c4 39 bd 3c 7a 5d 5e bd 06 56 6f 3d 26 21 4d bd
       0.023098834 -0.054288365 0.058431648 -0.05008044
000160 78 c2 10 bc e0 1b f4 bc 74 14 d8 bc 38 2e 0d bd
       -0.008835427 -0.029798448 -0.02637694 -0.034467906
000170 42 99 50 3d 3e 61 1b 3d c0 26 b6 3b 00 6e 72 3a
       0.050927408 0.037934534 0.0055588186 0.00092479587
000180 28 03 2a 3d d6 1d 43 bd 88 e8 2d bc 2a d6 61 3d
       0.041506916 -0.047635876 -0.010614522 0.055135883
000190 0c 2e 9f bc 88 37 59 3d e8 4a 56 3c 48 91 db 3c
       -0.019431137 0.053031474 0.0130793825 0.026802674
0001a0 58 8a ba bc 80 ff c9 3b 4e 01 01 3d 30 69 24 3d
       -0.022771046 0.006164491 0.031495385 0.040139377
0001b0 88 6c 47 3d 30 b9 f9 3b 2c a6 d2 bc ec 50 7f 3d
       0.048687488 0.007620953 -0.025714003 0.062333032
0001c0 12 42 35 bd b2 1e 52 3d 12 46 10 bd 20 12 16 3c
       -0.044252463 0.051298805 -0.035223074 0.009159595
0001d0 68 38 dc 3c 00 58 23 38 92 1a 3a 3d 4e 00 2a bd
       0.026882365 3.8944185e-05 0.045435496 -0.041504197
0001e0 fc d2 0d 3d a6 5e 12 bd 30 f5 25 bc 88 37 7e bd
       0.03462504 -0.035734795 -0.010129258 -0.062064677
0001f0 d8 5c 26 3c 00 d8 b6 3a 48 99 83 bc d8 cb 4b bd
       0.010153972 0.0013949871 -0.016064301 -0.049754947
000200 f2 37 11 bd d2 42 69 bd f8 61 e7 3c 86 07 6a bd
       -0.035453744 -0.05694849 0.028244957 -0.05713608
000210 60 fc 06 3b 90 4a be 3c cc 15 e4 3c 20 c0 42 3c
       0.0020597205 0.023228914 0.027842425 0.0118866265
000220 3a c3 19 bd f8 1c 1d 3d 30 ce 7c 3d cc 51 28 3d
       -0.0375397 0.038357705 0.061720073 0.041093633
000230 98 bf 12 3c 86 15 45 3d c4 20 8c bc 80 09 a7 3a
       0.008956812 0.04811623 -0.017105468 0.001274392
000240 70 2e f2 3c 12 79 0a 3d 7e 4e 2d 3d 3a bc 36 3d
       0.029563159 0.033806868 0.042311184 0.0446131
000250 58 08 ac bc 98 81 cd bc 2c d5 39 3d dc ca c9 3c
       -0.021000072 -0.02508621 0.045369312 0.024632864
000260 76 ba 07 3d aa 9c 33 bd 0a 10 0d 3d 00 0d 9c 39
       0.033136807 -0.04385058 0.034439124 0.00029764324
000270 82 3a 53 bd 5c cf 51 3d 8e 7e 0d bd 60 fc db 3b
       -0.05156947 0.051223144 -0.03454452 0.006713435
000280 da 1e 5d bd ac f6 84 3c 58 5a ae bc 72 6a 06 3d
       -0.0539845 0.016230904 -0.021283314 0.032816358
000290 60 87 30 3d 00 de 8e bc 70 bc d6 bc 78 15 d3 3c
       0.043097854 -0.017439842 -0.0262129 0.025767073
0002a0 10 2f 24 bc 08 a0 53 bc b4 98 87 bc b4 1d 27 3d
       -0.010020986 -0.012916572 -0.016552307 0.04079981
0002b0 94 04 68 3d 5c 69 d3 3c 52 cf 21 bd 48 63 0f bc
       0.05664499 0.025807075 -0.039504357 -0.008751698
0002c0 6c 9d 44 3d 42 ef 31 3d 4c 7a d0 bc 90 b9 b7 bb
       0.04800169 0.043441065 -0.02544894 -0.0056068376
0002d0 0e 8f 78 3d 02 ec 03 3d 18 de a1 bc 60 65 c9 3b
       0.060683303 0.032207496 -0.019759223 0.006146118
0002e0 50 05 cd 3b 42 a2 2c bd 10 94 0b bd f0 5a 20 bd
       0.006256737 -0.04214693 -0.03407675 -0.039149225
0002f0 b8 66 0d bc a0 61 3b 3d 74 82 12 3d dc ad bd 3c
       -0.008630447 0.0457474 0.03576894 0.023154192
000300 58 3a f0 bc ec 57 bc 3c 80 0e 51 ba 48 bf 03 bd
       -0.029324695 0.022991143 -0.0007974878 -0.032164842
000310 be 5e 25 3d c4 30 ef 3c 6c de ec 3c 88 26 2e bc
       0.040373556 0.029198058 0.028914653 -0.010629304
000320 bc 34 b3 bc 24 6f a5 3c c8 99 2b bd 58 9b 04 bc
       -0.021875732 0.020194598 -0.041894704 -0.008093677
000330 76 b1 22 bd 80 6e d3 3a a8 de 47 3c 20 b3 eb 3c
       -0.03972002 0.0016130954 0.0121990815 0.028771937
000340 ec 1a 10 3d 38 b9 7f bc 70 51 9a 3c fc 1f 1c 3d
       0.035181925 -0.015608124 0.01883766 0.03811644
000350 86 3e 09 3d 76 56 7b bd 68 14 d4 3c a4 47 f5 3c
       0.033506893 -0.061361752 0.025888637 0.029941387
000360 e8 6f 3c 3d 7e 48 04 bd 18 3f 36 bc f8 37 e9 bc
       0.04600516 -0.032295696 -0.011123441 -0.02846907
000370 22 ef 3b 3d f8 94 a3 bc 38 99 76 3d d4 c0 4f bd
       0.04588235 -0.019968495 0.060204715 -0.050721005
000380 7e f5 3f bd 08 84 0d 3d 3c e8 02 3d b0 1b 65 3d
       -0.04686498 0.034549743 0.031959757 0.055934608
000390 7e 93 2d bd 58 d5 be bc f8 2a 7f 3c b8 21 a9 3c
       -0.042376988 -0.02329509 0.015574209 0.020645961
0003a0 4a 10 62 bd c0 c2 0e bc b8 47 2f bd 08 c8 7f 3c
       -0.055191316 -0.008713424 -0.042793006 0.015611656
0003b0 96 0b 20 bd 5e 01 3b 3d 34 e2 a7 3c 56 35 2f bd
       -0.03907355 0.0456556 0.020493604 -0.042775474
0003c0 c6 25 6d 3d 30 df 43 bd f0 e4 b6 3c 18 5a 97 bc
       0.05789735 -0.04782027 0.022325963 -0.018475577
0003d0 64 b0 50 bd 68 27 19 bc 96 90 70 3d 34 ba 3d bd
       -0.05094947 -0.009347774 0.058731638 -0.046320155
0003e0 88 b5 4b 3c 84 4c ff 3c 88 c3 55 bc 80 f7 40 ba
       0.012433417 0.031164415 -0.013047107 -0.0007361099
0003f0 10 33 61 bc 2a 1d 41 bd 46 93 6b 3d ea 6b 72 bd
       -0.013745084 -0.047146954 0.057513498 -0.059184946

layers.1.bias f4 [256]
000000 80 7b b0 3b fe 36 29 3d 04 0e 61 bd b0 87 b9 bb
       0.005385816 0.04131221 -0.054945007 -0.005661927
000010 c8 9c 0d 3d 98 12 87 bc cc 8c e1 bc 86 6a 1b bd
       0.034573346 -0.016488358 -0.027532957 -0.037943386
000020 d8 70 53 bd 8c 17 a8 bc 24 53 f9 bc 26 a3 23 bd
       -0.051621288 -0.02051904 -0.030435152 -0.039950512
000030 38 18 7e bd 40 9e e7 3a 58 a9 61 3d 1c 11 d0 3c
       -0.062034816 0.0017671064 0.05509314 0.025398783
000040 30 5a 0d 3d 26 91 14 bd 38 ed 18 bc 08 e1 2f 3d
       0.034509838 -0.036271237 -0.009333901 0.042939216
000050 00 62 d9 39 90 54 5d bd c4 a3 57 3d 38 ca 6f bc
       0.0004146248 -0.054035723 0.052646413 -0.014635615
000060 70 ea e5 bc 3c c9 9b 3c 58 2f fb bc b8 7f 59 3d
       -0.02806589 0.019016854 -0.030662224 0.053100318
000070 be 6c 1b bd 24 03 b4 bc 80 74 67 bc 42 e7 69 bd
       -0.0379455 -0.021974154 -0.014126897 -0.05710531
000080 80 70 f4 bb d8 be 50 3d f0 b0 a5 bc 2c 81 9b bc
       -0.0074597 0.050963253 -0.020225972 -0.018982492
000090 00 87 f6 3a 9c fd 07 bd 3e 69 15 3d 3c 8f f2 3c
       0.0018808544 -0.033200845 0.03647732 0.029609315
0000a0 e8 43 bf 3c 10 4e 20 bc 22 ae 18 bd 7c 6d 4f bd
       0.02334781 -0.009784237 -0.03727544 -0.05064152
0000b0 de f1 07 bd e0 2b 2d 3c 76 0b 5d 3d a8 aa 3f 3d
       -0.033189647 0.010569543 0.053966008 0.04679361
0000c0 88 a0 61 3d de 23 47 bd 94 1e 35 bd d8 7f 3c 3d
       0.055084735 -0.04861819 -0.044218615 0.04602036
0000d0 90 b7 f1 3b 90 74 35 bc 48 cc d1 3c 58 84 c3 bc
       0.0073766187 -0.011075154 0.025610104 -0.023866817
0000e0 be 72 49 3d 38 67 b1 3c 98 9e 13 3c 98 f5 ca 3c
       0.049181692 0.021655664 0.00900998 0.024775311
0000f0 8e c3 6e 3d 84 5d 79 bd 90 8d 12 bc f4 60 d9 3c
       0.058291964 -0.0608802 -0.008944884 0.026535489
000100 8c 43 5d bd 24 9c f8 3c d8 f7 7e bd a0 35 9e bc
       -0.054019496 0.030347891 -0.06224808 -0.01931268
000110 b8 9c 1b bd fc 03 b3 3c c4 9e e8 bc 16 d4 4f 3d
       -0.037991256 0.021852486 -0.028396018 0.05073937
000120 78 77 21 3c 9a 03 7a 3d 56 30 6c bd ca cb 70 3d
       0.009855144 0.06103859 -0.057663284 0.0587881
000130 68 50 68 bc 48 7e ed bc 12 25 78 bd f6 e3 38 3d
       -0.014179327 -0.02899088 -0.060582228 0.045139275
000140 90 73 9d 3b 74 60 d4 3c 7a 4f 21 3d b8 a8 a0 3c
       0.004805036 0.025924899 0.039382435 0.019611701
000150 5e cd 40 3d 30 bb 8b bb 38 39 94 bc 44 8e 20 3d
       0.047070853 -0.004264258 -0.01809369 0.039198175
000160 ac d4 06 bd 06 b5 33 bd 6e 64 1f bd 78 fd 38 3c
       -0.032917663 -0.04387381 -0.038914137 0.0112909
000170 20 ba 92 3c 24 83 18 bd 14 0b d1 bc 30 66 7f bd
       0.017911017 -0.03723444 -0.025517978 -0.062353313
000180 f4 49 4a bd 68 65 9f 3c 14 bb 4e 3d 30 5f 93 bc
       -0.049386933 0.019457534 0.05047138 -0.017989725
000190 b4 e6 e4 3c fc 47 18 3d 28 58 87 bc e8 77 1d bd
       0.02794204 0.037178025 -0.016521528 -0.03844443
0001a0 a8 96 9c 3c 36 f8 37 3d 18 6f 65 3d a0 f0 ab bb
       0.019114807 0.044914447 0.05601415 -0.0052471906
0001b0 1e 21 3b 3d 30 53 d3 3b a4 7f 87 3c 38 6a 58 bd
       0.04568588 0.0064491257 0.016540356 -0.052835673
0001c0 80 a9 e0 ba c0 d5 ba 3c 98 08 2e bc b4 06 c1 3c
       -0.0017140359 0.022807002 -0.010622166 0.023562767
0001d0 10 5d bc 3b 68 4f 21 3c a0 ca 17 bc 48 b5 be bc
       0.0057483986 0.009845592 -0.009264618 -0.023279801
0001e0 80 e8 58 bb d6 d1 77 3d c0 77 0a 3b 1c 66 23 bd
       -0.0033097565 0.06050285 0.0021128505 -0.0398923
0001f0 dc 99 99 3c 50 81 95 bc 40 27 d2 3a 6c 26 2b bd
       0.018750124 -0.018250138 0.0016033426 -0.04178469
000200 e8 89 7b 3c 9c 92 fc 3c f8 db 79 bd 4c bc 29 bd
       0.015352704 0.030831628 -0.061000794 -0.04143934
000210 40 80 93 bc 02 65 1e bd 68 6f 14 bc 80 a8 fa bc
       -0.01800549 -0.038670547 -0.009059764 -0.030597925
000220 d0 eb f8 bb 60 b1 0c bd 90 98 4a bc 60 8d 64 3d
       -0.0075964704 -0.034348845 -0.012365475 0.05579889
000230 66 62 10 bd d0 39 0a 3c 38 fb 32 bd fc 7c ff 3c
       -0.03525009 0.008436635 -0.043696612 0.031187527
000240 08 24 33 bd 00 b0 fb bb d8 67 22 3c 00 40 52 38
       -0.043735534 -0.007680893 0.009912454 5.0127506e-05
000250 9a 4f 5f 3d a8 b0 91 bc 50 18 2c bc 04 d5 68 3d
       0.054519273 -0.017784432 -0.010503843 0.056843773
000260 64 2a a6 3c f0 44 69 bc 0c a0 6d bd 1e 8c 58 3d
       0.020283885 -0.014237627 -0.05801396 0.052868
000270 14 86 4f bd 60 ba 84 bc 24 30 51 3d 8c c9 a7 3c
       -0.050664976 -0.016202152 0.0510713 0.020481847
000280 9c 57 a9 bc 3a a9 5e bd 9e b1 52 bd d8 10 7f bc
       -0.020671658 -0.054360606 -0.05143892 -0.015567981
000290 f4 b0 51 3d f2 77 3d bd ce fc 2d bd a0 6d 01 bb
       0.051194146 -0.046256967 -0.04247742 -0.001974918
0002a0 42 2b 6d 3d 2c 63 71 3d 48 e0 1e 3d 90 da e1 3b
       0.057902582 0.05893247 0.03878811 0.0068925098
0002b0 78 47 f4 bc 2c cf 04 bd 9a af 7b bd a0 7c 58 bb
       -0.029819235 -0.032424137 -0.061446764 -0.0033033267
0002c0 3c 82 e5 bc 10 e2 f0 bc 60 1f eb 3b 92 f8 71 3d
       -0.028016202 -0.02940467 0.007175371 0.059074946
0002d0 d2 e0 79 3d 50 2a 6d 3c c4 a6 41 bd 42 5f 05 bd
       0.06100542 0.01447542 -0.04727818 -0.032561548
0002e0 b4 a2 29 bd de aa 00 3d 70 56 56 bc 78 eb 16 bc
       -0.04141493 0.03141295 -0.013082132 -0.009211414
0002f0 58 5d 46 3d 3c fc 92 bc b0 b4 ed bc f0 11 83 3b
       0.048428863 -0.01794254 -0.029016823 0.003999941
000300 10 49 d0 3b 1c b6 93 3c 60 a6 bd 3c e4 08 01 3d
       0.006356366 0.018031172 0.023150623 0.03150262
000310 32 21 57 bd 08 1d 19 bd ee 4d 7e 3d 1e b6 5f bd
       -0.052521892 -0.037381202 0.06208604 -0.05461704
000320 98 29 0a bd e8 79 35 bc e0 b2 09 bb 0e d4 79 bd
       -0.033731073 -0.011076428 -0.0021011159 -0.060993247
000330 30 80 42 bd 98 89 09 bd b2 78 04 3d c0 ea 17 bc
       -0.04748553 -0.033578485 0.032341667 -0.009272277
000340 da e6 3c 3d a0 ee 0c bc 24 2b d7 bc b0 11 ad 3b
       0.046118595 -0.0086018145 -0.026265688 0.0052816495
000350 08 d3 6a 3d 90 68 13 bc b0 1f 65 bc 44 a1 e5 bc
       0.05733016 -0.008997098 -0.013984606 -0.028030999
000360 88 e1 1d bc 9e 57 59 bd e4 ee d3 3c 0c f1 b1 3c
       -0.00963629 -0.053062074 0.025870748 0.021721385
000370 78 d7 2d 3d 72 d2 6b bd 38 28 1e bc 00 bf eb bb
       0.042441815 -0.057573743 -0.009653144 -0.0071944
000380 5c 8b 01 3d d4 d3 a9 bc 3c b4 99 bc 94 fd cd 3c
       0.031627044 -0.02073089 -0.0187627 0.02514533
000390 f0 10 9a bb ca dd 1f 3d 6c 6d 6d 3d 00 ee 33 3a
       -0.004701726 0.039029874 0.05796568 0.0006863773
0003a0 28 86 ed bc 7c 0f 41 bd 38 1c 44 bc b0 f4 cb 3c
       -0.028994635 -0.047133908 -0.0119696185 0.02489695
0003b0 00 63 82 ba c8 c1 49 bc 10 3b 8e bc 80 7e 87 3a
       -0.0009947717 -0.012314267 -0.017362148 0.0010337383
0003c0 e0 c7 46 3b 6a 50 25 bd 14 9e c1 3c 04 ab 36 bd
       0.0030331537 -0.040359892 0.023634948 -0.044596687
0003d0 54 a1 a3 3c 4c 4b 38 bd c0 a1 8d 3b 02 aa 74 3d
       0.019974388 -0.044993684 0.0043222606 0.059732445
0003e0 74 15 45 bd f0 9c e0 bb 5e df 40 3d f6 fb 42 3d
       -0.048116162 -0.006854646 0.04708802 0.04760357
0003f0 b4 56 01 3d 14 7d f7 3c 00 7c 2d b9 c0 60 a7 bc
       0.031576827 0.03021101 -0.0001654476 -0.020431876

predict.weight f4 [5, 256]
000000 68 ed 63 3d d8 48 b3 3c 9e fc 1d bd f0 11 d7 3c
       0.05564633 0.02188532 -0.038570993 0.02625367
000010 70 f3 a9 bc 2c 4b 52 bd c4 f6 03 bd 58 43 6a 3d
       -0.020745963 -0.05134122 -0.032217756 0.05719313
000020 94 43 9d 3c ac 6a 09 bd 30 41 48 bc 2a a1 31 bd
       0.019197263 -0.033548996 -0.012222573 -0.04336659
000030 80 b4 dc ba 18 56 c4 bc 24 50 98 bc d0 da b8 3c
       -0.0016838461 -0.023966834 -0.018592902 0.022565275
000040 48 9b 41 bd b8 49 35 3c 00 3a 31 b9 a8 af 59 bc
       -0.04726723 0.011064939 -0.00016901642 -0.013286509
000050 1c e3 0d bd 10 cc 58 3c d0 d5 88 3b 62 bb 35 3d
       -0.034640417 0.013232246 0.004175879 0.044368155
000060 5c 22 63 bd 00 50 5a 3d 8a 17 35 3d 66 d2 3a bd
       -0.05545269 0.05329895 0.0442119 -0.045610808
000070 54 f5 62 bd 14 ad 2f bd 14 e2 09 3d 08 73 36 3d
       -0.055409744 -0.04288967 0.03366287 0.044543296
000080 56 1c 08 bd 80 0c e5 bc 60 ad 1e bb d4 78 ff 3c
       -0.03323015 -0.027960062 -0.0024212226 0.031185545
000090 e8 4e 19 3c a0 2b 7b 3b 1e f0 51 bd 14 fc a5 3c
       0.009357192 0.0038325563 -0.051254384 0.020261802
0000a0 46 46 34 3d 80 af 19 bc 84 09 c4 bc 64 fd b6 bc
       0.04401233 -0.009380221 -0.023930319 -0.022337623
0000b0 f2 6e 39 bd 34 d7 4a 3d f2 2c 0e bd b4 f7 ae 3c
       -0.04527182 0.04952164 -0.034710832 0.021358348
0000c0 78 a9 df bc b0 06 98 3b ec 0f e4 bc ea 8b 50 3d
       -0.027302489 0.004639469 -0.027839623 0.050914682
0000d0 d8 e2 b6 3c d4 55 03 3d 28 a9 e7 3c 36 cb 3c 3d
       0.022324964 0.032064274 0.028278902 0.046092235
0000e0 c4 b5 79 bd 2a ae 4e bd d8 bb 71 bc 9a a4 4c 3d
       -0.06096436 -0.050459065 -0.014754258 0.049961664
0000f0 02 b0 71 3d d0 ee c5 3c 00 04 b1 bc e0 8b 7a 3c
       0.059005745 0.024161726 -0.021608353 0.015292138
000100 a0 1a 07 bd 86 9c 00 3d 80 ac c3 bb 20 70 32 bb
       -0.032984376 0.031399272 -0.0059714913 -0.0027227476
000110 f0 39 9a bb 46 7a 55 bd 08 00 4c 3c 90 91 fa bc
       -0.0047066137 -0.052118562 0.012451179 -0.030586988
000120 e0 09 13 bc f0 b8 26 bc 28 93 e1 bc 80 de 52 bc
       -0.008974522 -0.0101759285 -0.02753599 -0.012870431
000130 98 9c 75 bd c0 b4 5c bd 6c 74 d8 3c 58 22 36 bd
       -0.059963793 -0.053883314 0.026422702 -0.044466347
000140 64 ba f2 3c d0 a0 d4 3c 54 0b 50 bd c8 16 66 bd
       0.029629894 0.025955588 -0.050792053 -0.05617407
000150 e0 5a 66 bc 00 a0 3c 38 a8 b6 e6 3c 60 90 f4 3b
       -0.014059752 4.4971704e-05 0.02816327 0.0074635
000160 7a 2e 2c 3d 60 c9 27 3b 6c 7e 16 3d ce e5 14 3d
       0.04203651 0.0025602207 0.03674166 0.03635197
000170 a0 3d ff bc 1c 69 b1 3c 82 a3 16 bd a0 62 cd bc
       -0.031157315 0.021656565 -0.036777027 -0.025071442
000180 88 11 d2 bc 98 88 29 bd 10 68 d0 3c 0a 47 41 bd
       -0.025643125 -0.04139003 0.025440246 -0.04718689
000190 c8 c3 0d bd 40 c9 11 3d 38 bf ff 3c 50 42 e1 3b
       -0.03461054 0.035592318 0.03121911 0.00687436
0001a0 92 09 3d bd 80 49 26 3c f8 60 e5 bc 1c 2d 70 bd
       -0.046151705 0.01014936 -0.02800034 -0.05863677
0001b0 70 50 83 3b 1c 74 df 3c 24 df e2 bc 54 06 38 3d
       0.0040073916 0.027277045 -0.027694292 0.04492791
0001c0 e0 d2 99 bc 12 96 54 bd 98 6f 58 bc 78 b8 bf 3c
       -0.01877731 -0.05190093 -0.0132102 0.023403391
0001d0 9a f6 11 3d a0 ba 35 bb 3c fb ce bc 74 0d b1 bc
       0.03563557 -0.0027729645 -0.025266282 -0.02161286
0001e0 70 44 a2 bb 6e b9 62 3d b6 46 40 bd 80 72 e7 ba
       -0.004952006 0.05535262 -0.046942435 -0.0017658025
0001f0 fc 54 23 bd 84 ff ff bc 26 09 05 3d 14 12 97 3c
       -0.03987597 -0.031249769 0.032479428 0.018441238
000200 f0 5c 2e bd a0 c2 fd 3b 48 7f ed 3c 58 96 e3 bc
       -0.0425691 0.0077441484 0.028991356 -0.02778165
000210 f8 ec 05 bc e8 d5 7a bc ec da f6 bc 20 46 8a 3b
       -0.0081741735 -0.015309788 -0.030133687 0.0042197853
000220 3c 15 63 bd 20 35 43 3b 64 b6 f6 bc ac a6 f9 bc
       -0.055440173 0.0029786304 -0.030116268 -0.030474983
000230 6c 59 5a 3d 88 d6 77 3c 32 07 2f 3d 08 51 f4 3c
       0.053307936 0.015126832 0.04273147 0.029823795
000240 b8 fe 50 3c ae ad 5b bd 9a c9 78 3d 40 23 23 3d
       0.012756042 -0.05363243 0.060739137 0.03982854
000250 40 35 2f 3d 36 7e 5d 3d 10 50 b3 3b fc 0d 45 3d
       0.042775393 0.054075442 0.0054721907 0.04810904
000260 94 39 57 bd e0 32 59 bc d0 00 a3 bb 68 e8 13 3d
       -0.052545145 -0.013256758 -0.004974462 0.03611031
000270 ae 06 12 3d d8 11 b2 bc 68 4f 0f 3c 8c 19 82 bc
       0.0356509 -0.021737024 0.008746959 -0.015881322
000280 00 c1 88 39 ca 44 32 bd 00 8a 32 bb 48 8b 9e 3c
       0.00026083738 -0.043522634 -0.00272429 0.019353524
000290 88 9c 44 bc 30 1d d6 3c 30 ad cf bc 46 9c 38 3d
       -0.012000211 0.026136965 -0.025351137 0.04507091
0002a0 c8 17 0d bd 80 7b 46 bd 38 a5 b2 3c a4 b3 dd 3c
       -0.034446508 -0.048457623 0.021807298 0.027063198
0002b0 10 a1 81 3b 20 80 c3 3b 1c 2c 6a 3d 00 c9 a0 3b
       0.0039559677 0.0059662014 0.057170972 0.0049067736
0002c0 06 81 7e bd e8 2e fa 3c 7c 18 c1 bc ce 2b 23 3d
       -0.062134765 0.030539945 -0.023571245 0.039836697
0002d0 04 ec 48 bd 90 fa 81 bc 16 7c 42 bd 1a 9f 77 3d
       -0.049053207 -0.015866548 -0.04748162 0.060454465
0002e0 5a 16 7e 3d 08 4b 17 3c 3e 93 24 3d a8 77 40 bc
       0.062033035 0.009234197 0.040179484 -0.011747278
0002f0 34 a9 95 bc 20 d5 7a bb aa f6 58 bd 28 a6 0c 3c
       -0.018269159 -0.0038274005 -0.052969612 0.008584537
000300 60 62 68 bc b0 82 61 3c b8 ca 72 bc 24 f4 70 3d
       -0.014183611 0.0137640685 -0.01481884 0.05882658
000310 88 01 e5 3c 0e f1 61 bd 16 8b 31 3d e0 5b 23 3b
       0.027954832 -0.05516153 0.043345533 0.0024926588
000320 68 5c e4 bc 7a a6 77 bd 2c 66 ba bc d2 68 6b bd
       -0.027876094 -0.0604615 -0.022753797 -0.05747301
000330 3e 4f 69 bd c2 62 4f bd d0 0d e5 bb 36 e8 12 3d
       -0.056960337 -0.050631292 -0.006990172 0.035865985
000340 10 8b 87 3c 1a 44 50 3d a0 a9 14 3d d6 b2 43 bd
       0.016545802 0.050846197 0.03629458 -0.047777973
000350 98 f4 6f bc c8 f3 67 3c 88 01 11 3c 20 79 0b 3b
       -0.014645718 0.014157243 0.008850463 0.0021281913
000360 18 50 06 3c 36 54 2b 3d c0 a2 38 bd e4 0a 20 bd
       0.008197807 0.041828357 -0.045077085 -0.039072886
000370 3c f8 3d bd e4 e6 d8 bc 74 e7 67 bd 74 d7 7a 3d
       -0.046379313 -0.026477285 -0.056617215 0.06124063
000380 e0 39 7d bc b0 9c 92 3c 16 a5 71 3d 12 d2 22 bd
       -0.015455693 0.01789698 0.05899533 -0.03975112
000390 98 6a c8 bc b4 1b b2 3c d2 bf 00 bd d0 62 fa 3b
       -0.02446489 0.021741726 -0.031432934 0.007641174
0003a0 94 b2 f8 3c 28 31 c7 bc 56 4a 2d 3d 20 c1 e0 bb
       0.03035859 -0.024315432 0.04230722 -0.00685896
0003b0 00 c0 d8 3c a2 a8 5d bd b0 fb 45 3d f8 08 02 3d
       0.02645874 -0.0541159 0.04833573 0.031746835
0003c0 74 fb c4 3c 10 bc 5e bd 88 5b 74 3c a0 49 1c 3b
       0.024045683 -0.05437857 0.014914401 0.0023847595
0003d0 c8 ac 3c bc 54 c8 11 3d 82 6b 3f bd 44 d0 95 3c
       -0.011515804 0.03559144 -0.046733387 0.018287785
0003e0 48 51 46 bc a8 25 08 bc 30 1e 7e 3c 84 15 1c bd
       -0.01210434 -0.008309759 0.015510127 -0.038106456
0003f0 60 7d 28 bb 92 5e 1b bd be 34 20 3d ae 9f 0f 3d
       -0.0025709495 -0.037931986 0.0391128 0.03506439

predict.bias f4 [5]
000000 a2 9b 6a bd 96 46 19 bd 70 dd fb 3c 48 5e b6 3c
       -0.05727733 -0.03742083 0.030745238 0.022261754
000010 ea e5 65 bd
       -0.056127466
