highway_ddqn/ddqn_tuned_reward_change/checkpoint-best.tar (torch, 892334 bytes, 18 tensors)

layers.0.weight f4 [256, 25]
00000000: ceda c0be dd8f 013d e399 063f c868 983e
00000010: d5d0 3040 80e8 86be b599 9c40 5485 22c0
00000020: bc1b 143f bfdc bac0 44cc 40be 5eb1 6a3f
00000030: faca 853e d90c 17bf 76cf e4be 80bf 2cbe
00000040: b0c6 ca3f bb6d 99bc 9e9d 09be b71c 4ec0
00000050: 0d1e f1bc 42f6 f63e 88a4 d8be f92f 9fbe
00000060: 3f66 febf 6dc4 0bbe 23df 09be 583f 2ebe
00000070: 3003 863d cd11 f33b ed33 d3bd ca53 98bd
00000080: 076f 3e3e 1a4b 0f3d 3328 ecbc 2788 2e3d
00000090: 87bf 6a3d 1010 1c3e fadc 01bd 7d1d 373e
000000a0: c55d 31be 403b 493d a7c2 90bc e526 2c3e
000000b0: a8b0 13be 00b0 7f3a 338f 6bbc 9729 8abd
000000c0: 0066 a3bc 7324 0abe daae 11bd fa53 18bd
000000d0: da9b cc3c 9aad 12bc 97c0 debd 838e a1bd
000000e0: 3309 32bd 4d53 bd3d f313 953d 1335 57bd
000000f0: 0dea 06bd 95a1 26be 9a97 513b 73c0 ebbc
00000100: d049 033e e078 6bbd daf8 673d 67ac 7bbd
00000110: 4bd8 07be 5fcd 17be aa94 13be 132f fb3d
00000120: 7d50 f7bd 1be2 033e 6df2 5abd 9c6f d0be
00000130: 6ee2 5fbe 166b d93f 33c5 c23f 30bf cbbd
00000140: 4300 0cbe 7baf 58bf aaa7 c13f 67f8 54be
00000150: 64af 953f f9a0 24be 77f0 4abf 9879 55bd
00000160: 4226 49bf 5735 69bf ccd7 d4be 8453 0c40
00000170: 8c54 1c40 0458 e63e 6f12 a53e ea05 f1bd
00000180: ad46 9f3f 3051 3abf 42d2 393e 12dc 34be
00000190: cd6c 433b 0d95 05be e786 3cbe 55e8 2fbe
000001a0: d882 1d3e e0c1 87bd 4a38 4b3e b37c e4bd
000001b0: dd87 183e 4ae1 033e 7d7b 943d 9d41 c4bd
000001c0: 33a0 35bd 632c ccbd b3c5 eabd eaf4 0bbe
000001d0: c073 b8bd aa69 4c3e 8a4d 23be 4358 e3bd
000001e0: c8d0 33be 0088 06bd a033 d3bd 7739 843d
000001f0: 8092 cdbc 386e 0abe 93a6 1ebd ca38 94bd
00000200: 7007 c13d 0090 ddbd e352 a6bd 2bf2 023e
00000210: 00bc 1b3e 933e 4bbe 7de1 2e3e 339b 7fbb
00000220: fb2f 0dbe 5ac6 7cbd 87ae 35bd 735d ad3c
00000230: ed51 bd3d 8073 21be 274e e0bc 8226 0f3e
00000240: 055e 36be 0b59 32be d3d8 063d 8b10 333e
00000250: 4d0a 57bd d59b 093e f182 4bbe dd6f abbe
00000260: 68ba 4d3f b8c5 5e3f feb1 9d3e 35a3 55be
00000270: 114d 703e e541 cb3e 7bc0 0abf 14b8 b63e
00000280: 1802 81be 7d50 58bf acd2 89be 9bb0 1fbf
00000290: bb56 7d3e 0d97 60be 78f6 a7bf f491 89be
000002a0: 49e4 9cbf 7d05 093e 6430 0dbe 180f 033f
000002b0: 6fdc 113f 501b 76bf 3640 38bf d7e0 78bd
000002c0: ad1f d73b 53aa e9be d4b5 1f3f af8c a7bd
000002d0: 39be b6be c5c7 15c0 01d3 50bf d4ae 01bf
000002e0: 4903 e9be 6a73 3fbe fb4d a8bf c1a3 26be
000002f0: a374 4abe 4056 dabe 0c4f 65be 462c 7abe
00000300: cd15 2bbf 126a 63bf 5c54 7cbf b916 9bbe
00000310: 41d7 35be 5df0 a13f 79c1 153d 0e67 873e
00000320: 4249 093f fde0 163f 6716 ad3f 718a 0a40
00000330: 5e88 c9bf f485 bf3e dc5b 7ebf 7bcb 2cbd
00000340: 541c 65bf 1bd6 2c3f 03f9 f43e 1fe9 43bf
00000350: eb1d acbe 5836 a6bf 6312 70be f293 b53e
00000360: 1afb ad3f afca bebf 6750 06bd 3854 8dbe
00000370: 75f4 f33e 5181 a83f 0c94 a4bf 3ed3 95be
00000380: efd2 343d ed78 403d 7ab6 ebbd 8a4b 313e
00000390: 73d0 0fbe 3a28 693d 8dd6 f9bd 307f 06be
000003a0: dfdf 193e a7cc c6bd c751 a8bd 9a8c 0abc
000003b0: dd73 8ebd 0050 61ba ba64 73bd fa9b 33bd
000003c0: 0323 bbbd 4a68 c3bd e790 44bc 5f2c 4bbe
000003d0: d7d7 a5bd e790 96bc 60f0 8c3d 2a47 453e
000003e0: bdcc 3a3e 3d05 a43d 8080 1f3e 4208 13be
000003f0: 3f3b d1bb e308 a6be 34ae 03bf a599 a33e
-0.37666935 0.03163134 0.5257856 0.29767442 2.762746 -0.26349258 4.893763 -2.5393877
0.5785482 -5.8394465 -0.18827921 0.9167689 0.2613142 -0.5900398 -0.4468953 -0.16869926
1.5841885 -0.018729081 -0.13439032 -3.2205026 -0.029433275 0.48234755 -0.42313027 -0.31091288
-1.9874953 -0.13649149 -0.13464026 -0.17016351 0.06543577 0.0074178935 -0.103126384 -0.074378565
0.18597041 0.03498373 -0.028827762 0.042610314 0.05731156 0.15240502 -0.03170488 0.17882343
-0.17320926 0.04912877 -0.017670942 0.16811712 -0.14422858 0.0009753704 -0.014377403 -0.06746214
-0.019946098 -0.13490467 -0.035567142 -0.03718946 0.02497666 -0.008952523 -0.10876577 -0.0788851
-0.043465804 0.09244404 0.07279196 -0.05254085 -0.032938052 -0.16272576 0.003198123 -0.02877829
0.12821126 -0.057488322 0.056633808 -0.061443713 -0.13266103 -0.14824437 -0.1441218 0.12264838
-0.12075899 0.12879221 -0.05345385 -0.4071015 -0.2186372 1.6985805 1.521643 -0.099485755
-0.13671975 -0.8464276 1.5129292 -0.20797883 1.169415 -0.16077031 -0.7927317 -0.052117914
-0.78574 -0.91097015 -0.4157089 2.1925974 2.4426603 0.44989026 0.32240626 -0.11768706
1.2443444 -0.7278013 0.18146613 -0.17662075 0.002981949 -0.1304514 -0.18410836 -0.17178471
0.15381944 -0.066287756 0.19845691 -0.11156597 0.14895578 0.1287891 0.07250116 -0.09582827
-0.04434223 -0.099694036 -0.114634894 -0.13667646 -0.090064526 0.19962183 -0.15947548 -0.11100819
-0.17560112 -0.032844543 -0.10312581 0.06456273 -0.02509427 -0.13518608 -0.038733076 -0.07237394
0.09425247 -0.108184814 -0.08121278 0.12787692 0.15208435 -0.19848089 0.17078204 -0.0039002418
-0.13787834 -0.0617126 -0.044355895 0.021162724 0.09244142 -0.15766716 -0.027381016 0.13979533
-0.17809303 -0.1741678 0.032921623 0.1748678 -0.052500058 0.13438351 -0.19874169 -0.33483782
0.8036256 0.87020445 0.3079986 -0.2086304 0.23466899 0.3969871 -0.5419995 0.35687315
-0.2519691 -0.84497815 -0.26918542 -0.62378854 0.24740116 -0.21932621 -1.3122091 -0.26869166
-1.2257167 0.13381 -0.13787991 0.51194906 0.5697698 -0.96135426 -0.7197298 -0.0607613
0.0065650553 -0.4563776 0.6238682 -0.0818113 -0.35692003 -2.340318 -0.81571966 -0.5065739
-0.4551032 -0.1869637 -1.3148798 -0.16273405 -0.19771056 -0.4264393 -0.22393435 -0.24430951
-0.6683014 -0.88833725 -0.9856622 -0.30290774 -0.17757894 1.2651478 0.036561463 0.26445812
0.5362741 0.58937055 1.3522462 2.1646998 -1.5744741 0.37406886 -0.99358916 -0.04218624
-0.8949635 0.675142 0.4784623 -0.7652759 -0.33616576 -1.2985334 -0.23444514 0.35464436
1.3592255 -1.4905604 -0.03279152 -0.27603316 0.47647443 1.3164464 -1.285768 -0.29262727
0.044146474 0.046990324 -0.11509414 0.17313972 -0.14044361 0.05692313 -0.121991254 -0.13134456
0.15026806 -0.09707003 -0.08218723 -0.008456374 -0.06955693 -0.000859499 -0.059422232 -0.043849923
-0.09137537 -0.09541376 -0.011997438 -0.19841145 -0.08097809 -0.018379642 0.068817854 0.19265428
0.18242164 0.080088116 0.15576363 -0.14358619 -0.0063852365 -0.32428655 -0.5143769 0.3195316

layers.0.bias f4 [256]
00000000: 17ff 23bd c0e6 98bc 207c 373e e300 abbe
00000010: 60de a23d 1df5 87bd 690a d4be c002 4bbe
00000020: 8dc6 fc3e f050 8f3d 7ca5 563d 13be 5b3d
00000030: 8ae1 67be f461 423e f035 063e 22f3 23bd
00000040: 7119 cfbc 968b d6bd 54d7 2ebc 1319 41be
00000050: f84b 8abe 2757 2cbe 8e3f 40be 1c9f 27bd
00000060: dc95 35be eeb1 18be 5318 c3bd 739b 69be
00000070: 60c3 46bd 22e5 d93c 1cc2 9dbe cf40 2e3e
00000080: 75ac 7f3d c58c 7c3d 0afa 0cbd bcf4 07bd
00000090: 2747 89bd d83f ddbd b12e b2be 60f6 e4bd
000000a0: bea7 ecbe e04a 8dbe d15b 0bbe e7fe 26be
000000b0: dd13 1fbc db19 afbe 0046 35be 5cf9 84bd
000000c0: 0131 4c3d 9421 24be a80f 273d ff26 14be
000000d0: 12de 433e 36b2 4dbe 47ea 463e 7e6c 2f3d
000000e0: 6b82 f43c 103a fabd 314b 8f3c cd15 2abe
000000f0: 219d 54be 14c4 61bd 8aa6 a5be 34b8 0dbe
00000100: 4c70 47be d3db a2bc 1a04 3fbe cb98 23bd
00000110: 0672 6bbe dd34 acbe 321c b1bd 90fe 85be
00000120: a512 18be ea1a c83d 43fa 673e d2a9 2dbe
00000130: 2adf 41be bcfe fcbd 6f24 86bc c8fe b9be
00000140: c9cb 5abd 9539 1c3d 9677 3d3e 045e 8dbe
00000150: 6075 443d daec 5bbe 72e0 093e 378c f6bb
00000160: d70a 9bbd da17 c0bc 62e4 a83e b5eb 7fbd
00000170: 9a7b acbd 777c b23d 83a7 7d39 57ce 94be
00000180: cfc5 c8bc 6af9 12bc 07f7 f5bd 60ac b6bd
00000190: 85f3 d73d 3f05 463e 9a22 57be 0882 94be
000001a0: fe7c 43bd 6796 cfbb 91c3 dfbd 59ef 1ebe
000001b0: 7377 103d c289 5b3d d400 49bd ca3b 55be
000001c0: 9def bcbd fe7a 873d 9598 18be cde3 a4bc
000001d0: 3814 7bbe 60f8 10be 9de1 89be e6be bdbd
000001e0: 79ab 343e 0bd7 babe 389d 0abc e09c 80be
000001f0: 5c58 5d3e 07c1 17be c325 8cbd 98c9 a2be
00000200: 560d 21be 7398 443e e887 48bd 18ec b3be
00000210: ca6e f6bd 16b5 9fbe 4810 7a3c dc3e b53d
00000220: 3fcf adbe 86f5 303d 2f40 75be d05b ddbd
00000230: 0014 49be a0a0 1ebe 4591 77be b03c 92be
00000240: a028 713d d348 21be e459 a9be f245 8a3e
00000250: 1de6 9dbd 4ac3 22be 46aa 37be 1689 16bf
00000260: bfdb d9be f609 ecbd 881f 87be 53cd 4e3d
00000270: f73b 103f e265 d4be 0077 ab3b 2bf0 e9bb
00000280: 353f 613e dbd2 063d f638 e2bd 34b2 d4bc
00000290: 5db2 5d3d 7123 d8bd 9cef 15be 0047 8abd
000002a0: 6153 82be 6cdc 8cbe da18 c3bd 21b7 f5be
000002b0: 8434 bcbe bd3c 88bd c808 55bc 94e1 a2bd
000002c0: a050 f0be c59f a1bd 4788 63be 4e38 0bbe
000002d0: 58a9 013e 8050 0d3c b80c c5bd 2bc5 21be
000002e0: a32b f6bd 7908 4a3e b9b4 3c3d e790 10be
000002f0: adf2 ebbd d484 adbc 0b1e 773e cac4 26be
00000300: 2ba1 163e 9a73 51bc 1437 1cbe 1506 62be
00000310: 1bca 36be b0c2 9cbe 841c 92be 68fc a0be
00000320: 6971 f1bd 29a7 76bd 79cc 45be f7fb de3b
00000330: 2f77 e2bc 4fa2 71be a09c 8fbd 84c6 2bbf
00000340: 63e1 ccbc 5afc 943f 4bf9 d3bc 3929 e93d
00000350: fe45 7bbe 2a36 02be d4c7 0bbd 4d5e f8be
00000360: 2500 4abe ef4d b63c 0f43 19be e7fd 47be
00000370: 7ab9 44be 2ea7 9f3b 4f4d 473e 242f 76be
00000380: 808c f9bd 4b46 623d 2f50 4abe 45ed 00bf
00000390: 8882 85bd ddff 2b3e 40ad bd3d a638 2d3e
000003a0: 145b 25bd 8e4f 253d 8774 38be 3a20 c2be
000003b0: 9d25 d0bd 2503 95bd fbb9 2ebe e8ee d1be
000003c0: e4c6 b9be 422e c0bc 031c bbbc 42d8 f9be
000003d0: 238a 46bd ff90 cebe 02de fabc 127d 47be
000003e0: b637 353d 150f 4c3d d244 ecbb 60aa 51bd
000003f0: 6a1c 3cbe 8123 703e d5c8 8e3e 1978 afbe
-0.040038195 -0.018664718 0.17918444 -0.33399114 0.07952571 -0.066385485 -0.41414192 -0.19825268
0.49370232 0.069978595 0.052403912 0.053648066 -0.2264463 0.18982679 0.13106513 -0.04002679
-0.025280686 -0.10475843 -0.010671455 -0.18857221 -0.27011085 -0.16830121 -0.18774244 -0.040923223
-0.17732948 -0.14911625 -0.09526124 -0.22813205 -0.048526168 0.026598517 -0.30812156 0.1701691
0.062420327 0.061657686 -0.034418143 -0.03319238 -0.06703024 -0.10803193 -0.34801248 -0.11179805
-0.46221727 -0.27596188 -0.13609244 -0.16308175 -0.009709326 -0.34199414 -0.17702484 -0.06492874
0.04985142 -0.16028434 0.040786415 -0.14468001 0.19127682 -0.20087513 0.19425307 0.042828076
0.029847344 -0.12218106 0.017491909 -0.16609879 -0.20763065 -0.055118635 -0.32353622 -0.13839799
-0.19476432 -0.019880211 -0.18653908 -0.039940637 -0.22992715 -0.3363408 -0.08647956 -0.26170778
-0.14850862 0.097707585 0.22654061 -0.16959313 -0.18932787 -0.12353274 -0.016374795 -0.36327195
-0.053417 0.038140852 0.1850265 -0.2761079 0.0479635 -0.2147707 0.13464525 -0.007524039
-0.07570427 -0.023448873 0.32986742 -0.062480647 -0.084220126 0.08715146 0.00024190363 -0.29063675
-0.024508385 -0.008970598 -0.12010007 -0.08919597 0.105444945 0.19337939 -0.21009293 -0.29005456
-0.047726624 -0.006335068 -0.10925973 -0.15520991 0.035270166 0.053598173 -0.049073055 -0.20823589
-0.0922539 0.06615256 -0.14901955 -0.020128155 -0.24519432 -0.14157248 -0.26929942 -0.092649266
0.17643537 -0.3649219 -0.008460335 -0.25119686 0.21615738 -0.14819728 -0.0684314 -0.3179443
-0.15727744 0.1919878 -0.048957735 -0.35141063 -0.1203285 -0.31192845 0.015262671 0.0884988
-0.3394718 0.0432029 -0.23950265 -0.108085275 -0.19636536 -0.15490961 -0.2417651 -0.28561926
0.058876634 -0.15750436 -0.33076394 0.2700649 -0.07709906 -0.1589481 -0.17936048 -0.58802927
-0.42550465 -0.115253374 -0.26391244 0.05048878 0.563415 -0.4148398 0.0052326918 -0.007139226
0.21996768 0.03291593 -0.11046021 -0.02596388 0.05412518 -0.10553635 -0.14642185 -0.067518234
-0.25454238 -0.2751192 -0.095262244 -0.4799128 -0.36758816 -0.0665221 -0.013002582 -0.07953182
-0.46936512 -0.07891802 -0.22219954 -0.13595697 0.12662256 0.00862515 -0.096215665 -0.1579787
-0.12020042 0.19729795 0.046070788 -0.14117776 -0.11520896 -0.021181501 0.24132554 -0.16286007
0.14709918 -0.012783909 -0.15255386 -0.22072633 -0.17850535 -0.30617285 -0.2853738 -0.3144257
-0.117892094 -0.06021801 -0.19316281 0.006804939 -0.027644722 -0.23597072 -0.07012296 -0.67099786
-0.025009817 1.1639512 -0.025875708 0.11384816 -0.24538419 -0.12715974 -0.034126118 -0.48509446
-0.19726618 0.022253959 -0.14966987 -0.1953045 -0.19211379 0.0048722243 0.19463085 -0.2404142
-0.121850014 0.055242818 -0.1975715 -0.50362045 -0.065190375 0.16796823 0.092615604 0.16916141
-0.040370062 0.040359072 -0.18013202 -0.37915212 -0.10163424 -0.072759904 -0.17063133 -0.41002584
-0.36284554 -0.023459557 -0.022840505 -0.48797804 -0.04847158 -0.40344998 -0.03062344 -0.19481304
0.044242583 0.04981907 -0.0072103525 -0.051187873 -0.18370214 0.23451044 0.27887598 -0.34271315

layers.1.weight f4 [256, 256]
00000000: bd66 19be f6bf 5a3d 36a2 323d a4b7 ffbe
00000010: 80dc 2e3a 126e 7ebd 879e 9a3d b663 673e
00000020: 93b8 383f 6ee2 753d 416d 93be b670 63bd
00000030: 6aa5 b53e f954 12c0 35b4 18bd 1fee 90bf
00000040: a037 68bf 8f3c 143d 757e bfbd e40e 613e
00000050: ea55 28be d8f6 70bd 7079 9f3f 3a33 a5be
00000060: 7248 0dbf edc9 1e3f 205b 8ebc 8cef 6fbe
00000070: 0a01 593d b4a0 a83f a0cc 613c 82c0 0f3d
00000080: 6cd4 05be 1dd7 e9bd e641 c33e 5261 d3bf
00000090: 50de 7b3d b77b 583d 192a 25bf 58ff 063d
000000a0: 8f78 96bf dbd9 603e e2ff 1dbf 6ca5 80bc
000000b0: 1e99 b5bc 6fdf 00bd e58c c83e 744f f1be
000000c0: b055 9abd 9a2a d2be 9025 6bbd b29b 5abd
000000d0: b53b 13bd 967b 253c 5092 963b 7209 b63e
000000e0: f59e 8fbf 3496 51bd 006e 0e3e 6c81 33bd
000000f0: 74ef 79be 3e25 243e de01 96bf 33bf 47bf
00000100: 03e1 de39 c961 b83e 38c0 0e3c 4563 d23e
00000110: 8d34 4ebe b4b4 b3bb 3337 3a3d 5c11 00bd
00000120: e6c4 2cbf 402e 96bc 9590 10bd f04c 5a3d
00000130: 50fe ea3b 3088 8cbe 6e6a cdbf 8e78 2a3e
00000140: c1e3 a4bf 80f2 9ac0 8e4a 923d b0cb c0bd
00000150: c439 bd3c 7c2d 69bf 1d4d 043f 6219 d0bf
00000160: 78c2 10bc 7884 443d c889 5cbe 1773 43be
00000170: 4299 503d 3e61 1b3d f369 0dbf 97f7 5ebe
00000180: 3f3b 72bf 93f7 aebe 0744 24c0 39d5 923e
00000190: 3537 88bb 8837 593d c425 e8be bda5 35bf
000001a0: 0fc7 81bf 80ff c93b 5d63 f13c 1919 27bf
000001b0: 886c 473d 2876 e6bf 2ca6 d2bc c986 a13d
000001c0: 1242 35bd bb02 013d 05c0 3fbf 2012 163c
000001d0: 9246 10be 51bd 80be 85a5 a0be d0a3 5ebf
000001e0: dd75 4f3e 6e04 6ebe 98a6 a4bf 5103 85bf
000001f0: 72ce f4bf 763d 01bd 4899 83bc 9037 2fbf
00000200: db1f 7b3e d242 69bd 0a34 81bd 62ba edbf
00000210: eb61 f83c e746 d8bd 015a ae3d f23e babf
00000220: 828c 1ebf 05a1 92c0 c6bc 643f 5a13 51bf
00000230: f564 8d3f f26e 6e3d 5254 393f aff9 13bf
00000240: 92f2 7f3e 1279 0a3d 7716 09bf 063c be3e
00000250: 5808 acbc 9881 cdbc 62e3 83bf 4caa 01c0
00000260: a93b 6a3d 7e0b 553d 31a0 00bf 000d 9c39
00000270: 3c77 4ec0 1893 20be 8e7e 0dbd 0a9c 0f3e
00000280: 72a0 3ebf 2c49 993c 43a1 bbbf 812e 563f
00000290: e1df 80bf d4ba 25c0 e32b 54be 7815 d33c
000002a0: 08ba 363e 6db8 31bf b498 87bc 3384 313e
000002b0: e5c4 3dbf 5c69 d33c 6d6d 06bf 1189 15bf
000002c0: 9e9d 3fbf 7103 1b3f a0ab 093f 516a 843f
000002d0: 3bf9 acbf 02ec 033d 4566 a6be 6f12 fb3c
000002e0: 5005 cd3b d201 e6be 6dad fcbe 132a 53bf
000002f0: b866 0dbc fcb6 afbe c63b 97be 4e9a 1ebf
00000300: 583a f0bc ec57 bc3c ef71 31bf f091 81bf
00000310: 115f 0ebd 0b74 b43f f9f5 633d 5041 cabe
00000320: 22c2 7abf 37bc c0be 70bf dbbe 0107 c63e
00000330: 805e bfbe 4886 0dbe a8de 473c f843 af3f
00000340: 4051 c2bf 9186 6540 e09b 813b f594 853f
00000350: 17fc 8e3e 4bbe 3dbe d9ae c83c 8c66 113f
00000360: 1b3e febe 0c5e 8cbf a43e d5bf f837 e9bc
00000370: 22ef 3b3d dae5 0fbf f6f0 aabf 012c 03c0
00000380: dc9f d6bf 102b 36be 3ce8 023d 4ea5 583f
00000390: 3956 5e3e 4b5a 85be 5f16 6b3e 77d7 3cbf
000003a0: a9f9 1ebf 4e4d b2bf aa5d 3c3e 30fc 17be
000003b0: 960b 20bd c920 f73c 34e2 a73c 78d7 32bf
000003c0: c7c3 a63d a1a1 ebbf f037 67be 11af 583f
000003d0: d480 95bf 8069 ee36 18b2 2fbd a6dc 17bd
000003e0: 09d9 be3e f8f7 36bf 1871 26bf 2272 88be
000003f0: 226e 1a3f 8402 0cbf 05b5 52bf 3417 16bd
-0.14980598 0.053405724 0.043611728 -0.49944794 0.00066704303 -0.06211669 0.07549768 0.2259663
0.7215664 0.060030393 -0.28794292 -0.05552741 0.35477763 -2.2864363 -0.037281234 -1.1322669
-0.90709877 0.036190566 -0.09350292 0.21978337 -0.16439024 -0.05882916 1.2458935 -0.32265645
-0.5518867 0.62026864 -0.017377436 -0.23431224 0.052979507 1.3174043 0.013781697 0.0350957
-0.13069314 -0.11417983 0.38136214 -1.6514075 0.06149131 0.05285236 -0.6451736 0.03295836
-1.1755542 0.21958105 -0.6171857 -0.01570388 -0.022167739 -0.031463083 0.39169994 -0.4713093
-0.07535875 -0.41048127 -0.05740887 -0.05337114 -0.035945613 0.010100266 0.0045950785 0.3555408
-1.1220385 -0.051168635 0.13909149 -0.0438246 -0.2440775 0.16029832 -1.171932 -0.7802612
0.00042510786 0.36012104 0.008712821 0.41091362 -0.20137234 -0.005484188 0.0454628 -0.031266555
-0.67487943 -0.0183326 -0.035294134 0.05329603 0.0071714297 -0.27447653 -1.6048105 0.1664755
-1.2882005 -4.842102 0.071431264 -0.0941385 0.023098834 -0.9108503 0.51680166 -1.6257746
-0.008835427 0.047977895 -0.21536934 -0.19086872 0.050927408 0.037934534 -0.5523979 -0.21774136
-0.9462165 -0.3417326 -2.566652 0.286783 -0.004156972 0.053031474 -0.45341313 -0.7095602
-1.0138873 0.006164491 0.029466325 -0.6527267 0.048687488 -1.8004808 -0.025714003 0.07887036
-0.044252463 0.031496745 -0.74902374 0.009159595 -0.1408942 -0.25144437 -0.3137628 -0.8696871
0.20259805 -0.23243877 -1.286334 -1.0391637 -1.9125502 -0.031552754 -0.016064301 -0.68444157
0.2452387 -0.05694849 -0.06308754 -1.8572505 0.030320128 -0.105603985 0.08513261 -1.4550459
-0.6193315 -4.5821557 0.89350545 -0.81670153 1.1046435 0.058211274 0.7239429 -0.5780286
0.24994877 0.033806868 -0.53549904 0.3715517 -0.021000072 -0.02508621 -1.0303767 -2.026019
0.057185803 0.052012913 -0.5024443 0.00029764324 -3.2260275 -0.15681112 -0.03454452 0.14024368
-0.7446357 0.018711649 -1.4658588 0.8366471 -1.0068322 -2.589528 -0.20719866 0.025767073
0.17844403 -0.69422036 -0.016552307 0.17335586 -0.7412856 0.025807075 -0.5251072 -0.5841227
-0.7484988 0.60552126 0.53777504 1.0344945 -1.3513559 0.032207496 -0.324999 0.030648438
0.006256737 -0.44923264 -0.49351063 -0.82486075 -0.008630447 -0.34319293 -0.2953779 -0.619542
-0.029324695 0.022991143 -0.69314474 -1.0122662 -0.03475863 1.4097914 0.0556545 -0.39502954
-0.97952473 -0.37643597 -0.42919493 0.3867722 -0.37376785 -0.13820755 0.0121990815 1.3692617
-1.5181046 3.5863383 0.0039553493 1.0436083 0.27926704 -0.18529622 0.024497436 0.567971
-0.49656758 -1.0966201 -1.6659741 -0.02846907 0.04588235 -0.562101 -1.3354785 -2.0495608
-1.6767535 -0.17789865 0.031959757 0.84627235 0.21712579 -0.2604545 0.22957753 -0.73766273
-0.620997 -1.3929842 0.18395105 -0.14842296 -0.03907355 0.030167 0.020493604 -0.6986003
0.0814281 -1.84087 -0.22579932 0.8464213 -1.167994 7.1052345e-06 -0.042894453 -0.03707566
0.3727496 -0.7147212 -0.6501632 -0.26649576 0.603243 -0.5469134 -0.82307464 -0.036643222

layers.1.bias f4 [256]
00000000: 7a90 06c0 a99e 03c0 cb61 0f40 27b9 5dbf
00000010: 6936 863e c6e1 0fbd c212 73bd 0566 04c0
00000020: 2996 8dbf b85e 87be 8e77 4abf 307b 44bd
00000030: 3dc6 96bd b153 06bd 6fcf e3bf ca95 13bf
00000040: 49dd 3e3d 4a3a 55bd 53fb 9f3e 437f 023d
00000050: 6981 26bd b713 013f c7e6 2b3d ad40 f9bc
00000060: 69ed 3cbd 6a99 f03f 8e58 b13e 3562 4a3f
00000070: 048d 6bbd a096 37bd 6ded 21bd 3307 32bf
00000080: 7354 4cbd 01f3 b63f ef2e 20bd f199 4ec0
00000090: de35 82bb 0106 49bd f0f5 a33e 1878 d0bf
000000a0: 4be4 5e3b 46db 0cc0 182f 93bd fe8b 3d3f
000000b0: b8f1 2cbf 788f f2bf 1332 5ebf 8724 8dbf
000000c0: 8c51 8d3c de48 7bbd cb2a 76bd 3637 4ac0
000000d0: e7f7 86bc 1523 21c0 370c 963f fbc1 f63f
000000e0: 3788 38bb c905 823c 9bee d5bf 6a95 533f
000000f0: d85d dcbf 44e1 8cbf 4275 e8be 236c 063c
00000100: 5286 1bc0 63f5 303f e057 8f3e 7234 2bbd
00000110: 145e 6a3f 5d5a 8dbd 90bf 57bd baa9 c23d
00000120: 43ec 8bbe 9a85 ad3f f72c 97bc d38c bcbf
00000130: 4eb8 a6bd d599 87bd ed18 69bd a89d aa3e
00000140: 546a 3cb8 e76d b13b 66f7 b53e 3e9f 1e40
00000150: a463 4340 2a41 24c0 f6f3 3fbf 27b4 0cbf
00000160: acd4 06bd 3121 c5bf e0ba 3ebd a100 613a
00000170: abc3 913b 67ef 0fbe d653 45bd 82d2 5bbf
00000180: 5043 8dbd cb96 d6be db09 29be d63a e2bc
00000190: 8a52 663c 6d8e c93c 9e3b 23bd 08b2 ca3f
000001a0: a614 78bf 9f0a 0a3d b009 07c0 b368 7ebf
000001b0: 7127 463d dfb0 18bc 336c d8bc d549 0dc0
000001c0: b5e1 e53e 988e 403c b239 22bf d7bb b8bf
000001d0: 8d1b 7bbc 706a 00c0 14ba 00bd 8f1a 91be
000001e0: e168 8cbc f769 2ebd 3f23 d03f 57e3 3abf
000001f0: 4e6b 60bd b8da 0dbd d3b6 6f3f 8055 68bf
00000200: 9200 243f 3455 753c c92a 04c0 b135 85bf
00000210: 2f40 10bd 1cce 96bd e359 16bf 0fe2 70bd
00000220: 7c9f afbc 5d58 3abd bb8c 32bd 4603 4abe
00000230: 3992 5ebf f749 c03f 521a d5be ca5d 01bc
00000240: b317 1b3f 3194 85bc 48ac 243f 0dbd 98bc
00000250: 6b9e 92bc 60da a4be b525 b4bd e7fc 84bf
00000260: a15c 2a3c 1b44 e6bc 8e84 9bbd 605f 28c0
00000270: f720 82bd 4d70 f5bc 5f1f 5d3f 851d c4ba
00000280: f367 2abd e288 863e c2c4 9ebd 820d d2bf
00000290: 5eb3 45be d249 b1bd a819 5cbd e6ab 903f
000002a0: 88e7 263f 32e1 d33e 4863 e03f 90da e13b
000002b0: fa2b 50bd 72f4 53bd e1de 2cc0 dd76 26bc
000002c0: ef00 3a3e 423a 66bd 89ce 98ba 7beb 48be
000002d0: 4993 0f3d b90c 08bc 2c53 81bd f487 54bd
000002e0: f6c6 84bd 3c05 ecbe ee51 8f3d 696d cdbe
000002f0: 3538 413e 3be5 e6bf a85c b93d 8c5c eabf
00000300: 46e8 81bc b1f3 203f 838d b33e 6442 983a
00000310: 1ece a0bd 38fc 2fbd 4f1d d33c 5a11 0a3f
00000320: a467 b8bf 3218 07bd 034f 93bc 9a7b aabd
00000330: 8e0c 90bd 111d 38bd 608b 9f3f 34ab 5abf
00000340: e77b b2be 9cff f0bc 56f8 bc3f 58c9 433d
00000350: 6b27 b7bd d74d 5b3f 714a f1bc 9dc6 64bc
00000360: d917 67bf 3cad adbd b447 c03f a52c 3fbf
00000370: 4c72 ef3e eb93 cabe eb72 21bd 9dea fdbc
00000380: 24b8 de3c 40d2 2d3f 96ca 60bf e322 7abd
00000390: 0e3d a8bc 73c1 813e 584a d33e 6d36 d4bc
000003a0: 480e 3bbd 7f7e 7ebd 9015 57bd 2728 423b
000003b0: 8cb1 22bc b8a5 3b3f 96c9 21bd ca78 b7bc
000003c0: ff5d bebe 2122 86bd 0abc 16be 3df6 e3bd
000003d0: 763a 203f e204 69bd 8174 8abf 9986 a73f
000003e0: c711 7bbd e17c 5bbd 38ac 7dbe 3b5c 00c0
000003f0: c3e1 d6bd 6e27 13bf 0448 a0bf 0e42 d2bf
-2.1025681 -2.0565588 2.2403438 -0.86610645 0.26213387 -0.035127424 -0.05934406 -2.0687268
-1.106145 -0.26439452 -0.79088676 -0.047969043 -0.0736203 -0.032794658 -1.7797679 -0.57650435
0.046597753 -0.052057542 0.31246433 0.031859647 -0.04065076 0.5042071 0.041968133 -0.030426348
-0.04612485 1.8796818 0.34637874 0.790561 -0.05750753 -0.04482138 -0.039533067 -0.69542235
-0.049885225 1.4292909 -0.03910726 -3.2281458 -0.0039737066 -0.04907799 0.32023573 -1.628665
0.0034010585 -2.2008834 -0.07186717 0.74041736 -0.67556334 -1.8950033 -0.8679516 -1.1026772
0.017250799 -0.06134879 -0.060099404 -3.1596198 -0.01647563 -2.5177662 1.1722478 1.9277948
-0.0028157362 0.0158719 -1.6713442 0.8264986 -1.7216139 -1.1006246 -0.4540196 0.008204493
-2.4300733 0.6912443 0.2799673 -0.041798063 0.915498 -0.06902001 -0.052672923 0.09505029
-0.2732869 1.3556397 -0.018454058 -1.4730476 -0.08140622 -0.06621138 -0.056908537 0.33323407
-4.492172e-05 0.0054147127 0.35540313 2.4784694 3.0529566 -2.5664773 -0.7498163 -0.5496239
-0.032917663 -1.5400754 -0.046564937 0.00085831626 0.0044483743 -0.14056168 -0.048175655 -0.85868084
-0.068976045 -0.4191192 -0.16507666 -0.027615946 0.014057765 0.024604047 -0.039851777 1.5835581
-0.96906507 0.033701535 -2.1099663 -0.9937851 0.048377458 -0.009319513 -0.02641878 -2.2076313
0.44898763 0.011752747 -0.63369286 -1.4432324 -0.015326393 -2.0064964 -0.031427458 -0.28340575
-0.017139854 -0.042581525 1.6260756 -0.73003143 -0.054789834 -0.034632415 0.9363834 -0.9075546
0.6406337 0.014973927 -2.0651114 -1.040701 -0.03521746 -0.07363531 -0.58730906 -0.058809336
-0.021438353 -0.045494426 -0.043591242 -0.19727811 -0.8694187 1.5022572 -0.41621643 -0.007895896
0.6058304 -0.016306015 0.6432538 -0.018644834 -0.017897805 -0.32197857 -0.087962545 -1.038968
0.010398061 -0.028108647 -0.07593642 -2.6308212 -0.06353944 -0.029960776 0.86375993 -0.0014962411
-0.04160304 0.26276308 -0.07752372 -1.6410372 -0.19306704 -0.08656658 -0.053735405 1.1302459
0.6519704 0.41382748 1.7530298 0.0068925098 -0.05082319 -0.051746793 -2.7011034 -0.010160175
0.18164419 -0.056207903 -0.0011658232 -0.19621079 0.03505257 -0.008303815 -0.06314692 -0.051887468
-0.06483261 -0.46097744 0.06998049 -0.40122536 0.18869098 -1.8038706 0.09050876 -1.8309493
-0.015857827 0.62871844 0.35068902 0.0011616466 -0.07851814 -0.042965144 0.025770811 0.53932726
-1.4406629 -0.03298206 -0.017982012 -0.083243564 -0.070336446 -0.044949595 1.2464409 -0.85417485
-0.34860155 -0.029418759 1.4763286 0.04779944 -0.08943065 0.8566565 -0.029454442 -0.013963369
-0.90270764 -0.084803075 1.5021882 -0.746775 0.4676689 -0.39565977 -0.039416235 -0.030995661
0.027187414 0.6789894 -0.8780912 -0.061068427 -0.020536926 0.25342903 0.41267657 -0.025904858
-0.045667917 -0.062132355 -0.052510798 0.0029625983 -0.009930026 0.7329974 -0.039498888 -0.022396464
-0.37181088 -0.06549478 -0.14720169 -0.111309506 0.62589204 -0.056889422 -1.0816804 1.3087951
-0.06129625 -0.05358589 -0.24772727 -2.0056293 -0.104922794 -0.5748204 -1.2521977 -1.6426408

predict.weight f4 [5, 256]
00000000: 123f 8e3f 2d53 5e3f e7fa 2fbf 9f4c 3a3f
00000010: 1da6 393f b7f1 11bd c4f6 03bd 44ea 993e
00000020: a6e6 dcbd b126 0f3c ba35 313f 7c30 35bb
00000030: 391d 50bc 69f8 8fbc fcef 1cc0 b801 803e
00000040: c999 c3bf b849 353c 0308 c93c e990 f0bc
00000050: 8381 eabc 0977 d2be c575 db3b 62bb 353d
00000060: 6b27 85bd 842b 063f d44c 403c 984c a1bf
00000070: 549e 51bd 3e79 13bd db19 b43c 0a41 ac3e
00000080: e135 00bf 528b b5bf 8e56 183a 0970 123f
00000090: bfa0 6c3c a02b 7b3b 2313 94bf 9dcc d33e
000000a0: a905 cf3c 1f78 2440 dfd7 703c 55ea 14bf
000000b0: b2ac 20be 133d 9cbd afc1 ca3e 5696 8ebe
000000c0: faf5 ccbc eeed a73c d92e 44bc 0a96 703f
000000d0: afb6 96bb f0b2 193f 7e23 acbf 1789 e0be
000000e0: 618f 5cbd 87b1 3abd 3db9 c43e d8db 773f
000000f0: 92ed a63e b03f 2ebe a27c c5be a1af 903b
00000100: 2fde 693e 4c07 97bc b7b4 11bc feb2 403b
00000110: f9ef 10be 494f 74c0 0800 4c3c 9e4b f9bd
00000120: 331c fbbe 5b8b c5be 4320 57be 4e34 2740
00000130: 3b4e 813e 3a54 d8bc 0e4f ae3d 290e 0bc0
00000140: 89a9 053d 0a3a ef3c db1e c0be cf57 c4bf
00000150: e0a5 1abf 50e3 023f 3f35 83bf bd45 96be
00000160: 7a2e 2c3d b326 4b3f 108f ee3c 78b8 a73c
00000170: d5b1 a7bc 5a47 323f 3b05 28bd 3519 79be
00000180: 09ea 3ebd eb3a 563f a2f8 f6bd 0a47 41bd
00000190: 53bf b5bc 432e 023d 512c 203d c299 2e3e
000001a0: 2382 adbc 2fdb 843c 12ed c63e 9b42 d83e
000001b0: 4ac3 583c 1c74 df3c 8e5c 2d3f 84ee debe
000001c0: 3982 afbe c39e 23bd 12fa 26bf cfad 253f
000001d0: 6854 0c3b 55bd cf3d 6a81 d8bc 0ccd e1bd
000001e0: d7f2 89bc 8d86 dbbf 0f26 18c0 6c2a 413f
000001f0: 75ad dabd 605a c5bc 169a 11bf 63c3 66bf
00000200: bfc4 63bf 6a08 b8bc 4fc6 243f c936 9a3f
00000210: 5614 0fbc 7fd5 82ba 0042 27be 52b7 d2bc
00000220: 5a4b f2bc 7c54 fd3b b943 e5bc e887 173f
00000230: f345 be3f 58f6 3abf 658d 573f a61b 8b3c
00000240: 445f 453b 1841 3fbd 56bb 563f 6939 383d
00000250: 9e1a 273e ba8b 183f 3abd b23c af16 1740
00000260: 7c4e 16bd d9ee d5be 13a8 323c 0644 0440
00000270: ae06 123d d811 b2bc fee2 1abc 8c19 82bc
00000280: a8b3 aa3c d7bb debf 795e 62bc 5441 ca3e
00000290: 6200 033c 9bec c13c 8d94 93bc 7468 76bf
000002a0: 9448 0bbf e4c0 d6bf fbb2 cdbf a4b3 dd3c
000002b0: c37c 013c 180d b8bb 5170 573f f563 d9ba
000002c0: 390f 33bf 17db 8dbc a435 8abc d308 7f3e
000002d0: 75a2 823b 90fa 81bc 167c 42bd 8ab0 363d
000002e0: 7a78 3f3d 8422 34bf b785 c7bc 9c0c 943e
000002f0: a32c adbf f632 f43e 03d4 4bbf 0583 4cbf
00000300: 8e65 013c 977e a7be 7a1a 6d3e 9be0 3c3d
00000310: aee0 ac3c 2c3b f4bf 5bf0 3cbf ca7d c93f
00000320: 7e98 0dc0 4c7b 64bd 2c66 babc 1a33 2dbc
00000330: 18c5 41bd c133 2ebd ab86 953e fd9c 363f
00000340: 698a b73e 8773 bc3c c078 003f 429d 05c0
00000350: 08db dc3c deb3 8a3f 8801 113c 0232 c93b
00000360: acb8 8fbe 6541 d53c df5c debf 9bf0 a9be
00000370: c138 19c0 4976 bb3d 43df 7abd 4f81 703d
00000380: 92d8 9cbb 1b46 aabe fa00 4d3f 8ddb 393c
00000390: 986a c8bc dbf6 03bf 97ee 5f3d d15c bc3c
000003a0: 342b 153d ef3e a4bc 3518 3abd e454 4d3c
000003b0: 143f 643c 88f7 0dc0 6cbc 2b3d 5e73 043d
000003c0: 6efa b0bd 4e53 83bd 752f 0ebf b845 7d3f
000003d0: 8c12 9cbf 54c8 113d 056d 07c0 9cb3 263f
000003e0: fe27 d0bb 6e92 c33d 7d20 85bf adf0 053f
000003f0: b77a 22c0 8e3e ac3e 9b32 2bbf e551 8ebe
1.1112998 0.86845666 -0.6874222 0.72773165 0.72519094 -0.035630908 -0.032217756 0.30061543
-0.1078618 0.008737252 0.69222605 -0.0027647307 -0.01270228 -0.017574506 -2.4521475 0.2500131
-1.5281307 0.011064939 0.024539953 -0.029365974 -0.02862621 -0.41106442 0.006697389 0.044368155
-0.06501659 0.5241015 0.011737067 -1.26015 -0.051176384 -0.036004297 0.021984985 0.3364337
-0.5008221 -1.4183142 0.00058112375 0.572022 0.014442622 0.0038325563 -1.156834 0.41367045
0.025271254 2.5698316 0.014699905 -0.5817006 -0.15690878 -0.076288365 0.39600894 -0.27849072
-0.025019635 0.020499196 -0.01197406 0.9397894 -0.0045994143 0.6003866 -1.3448331 -0.4385459
-0.053847674 -0.04557946 0.38422576 0.9681983 0.32603127 -0.17016482 -0.3857165 0.004415468
0.22838663 -0.018436097 -0.008893183 0.0029403563 -0.14154042 -3.8173392 0.012451179 -0.12172626
-0.49044952 -0.38582882 -0.210084 2.6125674 0.25254998 -0.02640735 0.08511172 -2.1727393
0.032632384 0.02920248 -0.3752354 -1.5339297 -0.60409355 0.511281 -1.0250624 -0.2935008
0.04203651 0.79355925 0.029120952 0.020473704 -0.02047054 0.69640124 -0.041020613 -0.24326022
-0.046609912 0.8368365 -0.12059142 -0.04718689 -0.022185957 0.0317824 0.039104763 0.17050841
-0.021180218 0.016217796 0.38852745 0.42238316 0.013230154 0.027277045 0.6771935 -0.43541348
-0.3427904 -0.03994633 -0.65225327 0.64718336 0.0021412615 0.10143534 -0.026428897 -0.11025438
-0.016839428 -1.7150437 -2.377323 0.75455356 -0.106776156 -0.024090946 -0.5687574 -0.90141886
-0.88972086 -0.02246495 0.64365095 1.2047969 -0.008732876 -0.000998184 -0.16333771 -0.02572218
-0.029576946 0.0077310186 -0.027986394 0.5919175 1.4865097 -0.7303214 0.84200126 0.016980957
0.0030116597 -0.046692938 0.838796 0.044976626 0.16318747 0.59588206 0.021818746 2.3607595
-0.036695942 -0.4178379 0.01090433 2.0666518 0.0356509 -0.021737024 -0.009453533 -0.015881322
0.02083762 -1.7401074 -0.013816469 0.39502966 0.007995697 0.023672393 -0.01801517 -0.9625313
-0.5440762 -1.6777616 -1.6070246 0.027063198 0.007903281 -0.0056167953 0.84155756 -0.0016585576
-0.699451 -0.017316384 -0.016871281 0.2490571 0.0039866515 -0.015866548 -0.04748162 0.044601955
0.046745755 -0.70365167 -0.024355752 0.2891587 -1.3529247 0.4769513 -0.7962038 -0.7988742
0.007897748 -0.32713768 0.23154631 0.046112638 0.02110323 -1.9080558 -0.73804253 1.5741513
-2.2124324 -0.055781648 -0.022753797 -0.010571266 -0.047307104 -0.042529825 0.29204306 0.71333295
0.35847786 0.023004306 0.5018425 -2.0877233 0.026959911 1.0836141 0.008850463 0.0061399946
-0.2807058 0.02603216 -1.7372092 -0.3319138 -2.394089 0.091534205 -0.061248075 0.05871707
-0.0047865594 -0.3325661 0.80079615 0.011343849 -0.02446489 -0.51548547 0.054670896 0.022993477
0.036418155 -0.02004954 -0.045433242 0.0125324465 0.013931055 -2.218233 0.04192774 0.032336585
-0.08641516 -0.064123735 -0.55541164 0.9893451 -1.219316 0.03559144 -2.116029 0.6511781
-0.0063524237 0.095494136 -1.040054 0.5232037 -2.53874 0.33641475 -0.6687409 -0.27796856

predict.bias f4 [5]
00000000: 1211 76c0 f39f ecbf 98e8 6ec0 d60e cfbf
00000010: 7e44 39c0
-3.844792 -1.8486313 -3.7329464 -1.6176403 -2.8948054

exp_avg f4 [256, 25]
00000000: 4a45 09be 3d8f 0abe c646 86bd 514e 16bd
00000010: 0e2d 5c38 4a45 09be 88fd 45b9 600e 4aba
00000020: f378 1ebb f37a 8eb9 4a45 09be c8ef ccbb
00000030: ded8 0cbd c0f4 b039 519c 0039 4a45 09be
00000040: dc52 02bd cdb1 953d 345c b1ba af81 6839
00000050: 4a45 09be 6cf5 38bd 332c 2b3d 8879 5eba
00000060: 5f4d a0b9 0000 0000 0000 0000 0000 0000
00000070: 0000 0000 0000 0000 0000 0000 0000 0000
00000080: 0000 0000 0000 0000 0000 0000 0000 0000
00000090: 0000 0000 0000 0000 0000 0000 0000 0000
000000a0: 0000 0000 0000 0000 0000 0000 0000 0000
000000b0: 0000 0000 0000 0000 0000 0000 0000 0000
000000c0: 0000 0000 0000 0000 0000 0000 0000 0000
000000d0: 0000 0000 0000 0000 0000 0000 0000 0000
000000e0: 0000 0000 0000 0000 0000 0000 0000 0000
000000f0: 0000 0000 0000 0000 0000 0000 0000 0000
00000100: 0000 0000 0000 0000 0000 0000 0000 0000
00000110: 0000 0000 0000 0000 0000 0000 0000 0000
00000120: 0000 0000 0000 0000 0000 0000 866f 1e3d
00000130: a00c 1c3d f406 103c 62df 193c 3d48 95b9
00000140: 866f 1e3d c49c 843b 6088 1a3a 769c 87b9
00000150: 9120 8b39 866f 1e3d 028f 3e3a 95ef b2bc
00000160: 11b8 b83a ccda af39 866f 1e3d 166c a9bb
00000170: 46d4 473c bedf 82ba 9254 a139 866f 1e3d
00000180: 8eda 7f3c 4719 7e3c 006e b8b6 36ae 6139
00000190: 0000 0000 0000 0000 0000 0000 0000 0000
000001a0: 0000 0000 0000 0000 0000 0000 0000 0000
000001b0: 0000 0000 0000 0000 0000 0000 0000 0000
000001c0: 0000 0000 0000 0000 0000 0000 0000 0000
000001d0: 0000 0000 0000 0000 0000 0000 0000 0000
000001e0: 0000 0000 0000 0000 0000 0000 0000 0000
000001f0: 0000 0000 0000 0000 0000 0000 0000 0000
00000200: 0000 0000 0000 0000 0000 0000 0000 0000
00000210: 0000 0000 0000 0000 0000 0000 0000 0000
00000220: 0000 0000 0000 0000 0000 0000 0000 0000
00000230: 0000 0000 0000 0000 0000 0000 0000 0000
00000240: 0000 0000 0000 0000 0000 0000 0000 0000
00000250: 0000 0000 0000 0000 9d67 1302 9d67 1302
00000260: 8ecd 1202 0c06 1802 c7bb 1c02 9d67 1302
00000270: 9c81 1002 bc7f 1b02 45ef 1d82 adbb 1c82
00000280: 9d67 1302 07fa 1382 d976 1982 b680 1c82
00000290: adbb 1c82 9d67 1302 265a 1f02 8ecd 1282
000002a0: a3a0 1582 adbb 1c82 9d67 1302 b383 1502
000002b0: 8580 1b02 cab0 1382 adbb 1c82 fea7 1e02
000002c0: fea7 1e02 8cac 1702 e882 1902 69c9 1d02
000002d0: fea7 1e02 88a0 1082 d582 1782 e8fa 1582
000002e0: 6246 1b82 fea7 1e02 d602 1282 8cac 1702
000002f0: cdb5 1c82 9f9c 1782 fea7 1e02 418a 1002
00000300: 968f 1782 42b8 1382 963b 1c82 fea7 1e02
00000310: ba76 1802 bba6 1702 67b3 1a82 1f44 1a02
00000320: cafb 713e 16c6 6d3e 0472 b93d d192 943d
00000330: 0aec c439 cafb 713e 901d b43b 753c f2bc
00000340: 8e0a 6ebc ea6a eab9 cafb 713e 89f8 f43c
00000350: fa35 4e3b 59f5 1bbc a7ca b4ba cafb 713e
00000360: 0199 833d 0a9b 083d b922 43bc d296 ecb9
00000370: cafb 713e 8ffc a53d 8515 c4bd 6445 40bc
00000380: d48a 10b8 0000 0000 0000 0000 0000 0000
00000390: 0000 0000 0000 0000 0000 0000 0000 0000
000003a0: 0000 0000 0000 0000 0000 0000 0000 0000
000003b0: 0000 0000 0000 0000 0000 0000 0000 0000
000003c0: 0000 0000 0000 0000 0000 0000 0000 0000
000003d0: 0000 0000 0000 0000 0000 0000 0000 0000
000003e0: 0000 0000 0000 0000 bc65 23be 0dd6 24be
000003f0: 9f94 3dbd f56f 2ebd 024b f8b9 bc65 23be
-0.13405338 -0.13531204 -0.06556468 -0.036695782 5.2494048e-05 -0.13405338 -0.00018881832 -0.00077078305
-0.0024180978 -0.00027175955 -0.13405338 -0.00625417 -0.03438651 0.0003375169 0.00012265264 -0.13405338
-0.031817302 0.073093034 -0.0013531507 0.00022173555 -0.13405338 -0.045155928 0.0417902 -0.00084867375
-0.00030575224 0.0 0.0 0.0 0.0 0.0 0.0 0.0
0.0 0.0 0.0 0.0 0.0 0.0 0.0 0.0
0.0 0.0 0.0 0.0 0.0 0.0 0.0 0.0
0.0 0.0 0.0 0.0 0.0 0.0 0.0 0.0
0.0 0.0 0.0 0.0 0.0 0.0 0.0 0.0
0.0 0.0 0.0 0.0 0.0 0.0 0.0 0.0
0.0 0.0 0.0 0.038680576 0.038097978 0.00879072 0.0093916375 -0.00028473316
0.038680576 0.004047008 0.0005894955 -0.0002586578 0.0002653641 0.038680576 0.00072692346 -0.021842757
0.0014092942 0.00033541617 0.038680576 -0.0051703556 0.012196606 -0.0009984893 0.00030771323 0.038680576
0.015616072 0.015508956 -5.496433e-06 0.00021522571 0.0 0.0 0.0 0.0
0.0 0.0 0.0 0.0 0.0 0.0 0.0 0.0
0.0 0.0 0.0 0.0 0.0 0.0 0.0 0.0
0.0 0.0 0.0 0.0 0.0 0.0 0.0 0.0
0.0 0.0 0.0 0.0 0.0 0.0 0.0 0.0
0.0 0.0 0.0 0.0 0.0 0.0 0.0 0.0
0.0 0.0 0.0 0.0 0.0 0.0 1.082959e-37 1.082959e-37
1.0785377e-37 1.1168932e-37 1.1514959e-37 1.082959e-37 1.0616645e-37 1.142426e-37 -1.1603205e-37 -1.151493e-37
1.082959e-37 -1.0871609e-37 -1.1274772e-37 -1.1498008e-37 -1.151493e-37 1.082959e-37 1.1707346e-37 -1.0785377e-37
-1.0992892e-37 -1.151493e-37 1.082959e-37 1.0984587e-37 1.1424485e-37 -1.085059e-37 -1.151493e-37 1.1656218e-37
1.1656218e-37 1.1143246e-37 1.1278233e-37 1.159234e-37 1.1656218e-37 -1.0625519e-37 -1.1131275e-37 -1.1018798e-37
-1.14078e-37 1.1656218e-37 -1.07272e-37 1.1143246e-37 -1.1513244e-37 -1.1138676e-37 1.1656218e-37 1.0619126e-37
-1.1134935e-37 -1.0852734e-37 -1.147817e-37 1.1656218e-37 1.1201269e-37 1.1141577e-37 -1.1365619e-37 1.1333683e-37
0.23631206 0.23220095 0.0905495 0.072545655 0.00037559896 0.23631206 0.005496688 -0.029569844
-0.014528884 -0.00044711615 0.23631206 0.029903667 0.0031465278 -0.009518945 -0.0013793305 0.23631206
0.064256676 0.03335098 -0.011910134 -0.00045125798 0.23631206 0.08104812 -0.09574417 -0.011735294
-3.446157e-05 0.0 0.0 0.0 0.0 0.0 0.0 0.0
0.0 0.0 0.0 0.0 0.0 0.0 0.0 0.0
0.0 0.0 0.0 0.0 0.0 0.0 0.0 0.0
0.0 0.0 -0.15956777 -0.16097279 -0.046284314 -0.04258724 -0.0004735813 -0.15956777

exp_avg_sq f4 [256, 25]
00000000: a7cc c83e 7dff c63e 8f11 343e 7044 d33d
00000010: 9ff2 ff37 a7cc c83e 10e3 583b 373c af3d
00000020: 1335 2b3c 0ae6 ab38 a7cc c83e aa94 833c
00000030: 1b75 963d 92a6 403c 38f0 fd37 a7cc c83e
00000040: d99d 603d d6a9 cb3d 2e84 253c 695c 2c38
00000050: a7cc c83e a69b f03d d4e8 9b3d 7764 333c
00000060: c0ca 0d38 0000 0000 0000 0000 0000 0000
00000070: 0000 0000 0000 0000 0000 0000 0000 0000
00000080: 0000 0000 0000 0000 0000 0000 0000 0000
00000090: 0000 0000 0000 0000 0000 0000 0000 0000
000000a0: 0000 0000 0000 0000 0000 0000 0000 0000
000000b0: 0000 0000 0000 0000 0000 0000 0000 0000
000000c0: 0000 0000 0000 0000 0000 0000 0000 0000
000000d0: 0000 0000 0000 0000 0000 0000 0000 0000
000000e0: 0000 0000 0000 0000 0000 0000 0000 0000
000000f0: 0000 0000 0000 0000 0000 0000 0000 0000
00000100: 0000 0000 0000 0000 0000 0000 0000 0000
00000110: 0000 0000 0000 0000 0000 0000 0000 0000
00000120: 0000 0000 0000 0000 0000 0000 e476 d03d
00000130: c86b ce3d d06e 953c ac50 833c 8b42 1836
00000140: e476 d03d 8396 9839 75f7 8b3c dec9 bd3a
00000150: 4d22 8037 e476 d03d 6ad9 ce3a d7b8 803c
00000160: 40cc d93a 36cb 5536 e476 d03d d149 083c
00000170: 27fc 513c c900 d73a 5d48 2a36 e476 d03d
00000180: 3055 8f3c 04de 8d3c b76b d43a c0d5 5d36
00000190: 0000 0000 0000 0000 0000 0000 0000 0000
000001a0: 0000 0000 0000 0000 0000 0000 0000 0000
000001b0: 0000 0000 0000 0000 0000 0000 0000 0000
000001c0: 0000 0000 0000 0000 0000 0000 0000 0000
000001d0: 0000 0000 0000 0000 0000 0000 0000 0000
000001e0: 0000 0000 0000 0000 0000 0000 0000 0000
000001f0: 0000 0000 0000 0000 0000 0000 0000 0000
00000200: 0000 0000 0000 0000 0000 0000 0000 0000
00000210: 0000 0000 0000 0000 0000 0000 0000 0000
00000220: 0000 0000 0000 0000 0000 0000 0000 0000
00000230: 0000 0000 0000 0000 0000 0000 0000 0000
00000240: 0000 0000 0000 0000 0000 0000 0000 0000
00000250: 0000 0000 0000 0000 0000 0000 0000 0000
00000260: 0000 0000 0000 0000 0000 0000 0000 0000
00000270: 0000 0000 0000 0000 0000 0000 0000 0000
00000280: 0000 0000 0000 0000 0000 0000 0000 0000
00000290: 0000 0000 0000 0000 0000 0000 0000 0000
000002a0: 0000 0000 0000 0000 0000 0000 0000 0000
000002b0: 0000 0000 0000 0000 0000 0000 6cd6 1122
000002c0: 6cd6 1122 4c3d 8820 d69f a320 cf40 aa18
000002d0: 6cd6 1122 2c0f c31c e2f5 8720 99a4 ac1f
000002e0: 93b2 ab18 6cd6 1122 dee5 b11d ab52 7c20
000002f0: f8d4 231f 39a2 aa18 6cd6 1122 f3bf 401f
00000300: 14f2 8720 51f6 5d1f 3cef b018 6cd6 1122
00000310: 9921 2f20 0fa7 7e20 7a98 431f cf55 aa18
00000320: 0e33 ac3e 6297 aa3e 4b7b a53d 83ce 993d
00000330: 959b d437 0e33 ac3e 8d89 093b 6489 a23d
00000340: e1ea b43b 39ea 1d39 0e33 ac3e 2117 333c
00000350: 3c93 493d 84e6 bc3b 8726 1838 0e33 ac3e
00000360: 8a50 313d f218 803d e56e ab3b 8e6b ed37
00000370: 0e33 ac3e 17ce b13d 4bdc 673d 068d ae3b
00000380: 34b3 ee37 0000 0000 0000 0000 0000 0000
00000390: 0000 0000 0000 0000 0000 0000 0000 0000
000003a0: 0000 0000 0000 0000 0000 0000 0000 0000
000003b0: 0000 0000 0000 0000 0000 0000 0000 0000
000003c0: 0000 0000 0000 0000 0000 0000 0000 0000
000003d0: 0000 0000 0000 0000 0000 0000 0000 0000
000003e0: 0000 0000 0000 0000 979e da3e 30d0 d83e
000003f0: 0c82 1c3e b0cd c63d cc92 dd37 979e da3e
0.39218637 0.38866797 0.17584823 0.10315788 3.0511348e-05 0.39218637 0.0033094324 0.08556407
0.010449666 8.1967635e-05 0.39218637 0.0160621 0.07346555 0.011758463 3.027181e-05 0.39218637
0.054838035 0.09944503 0.010102315 4.109406e-05 0.39218637 0.117484376 0.07612768 0.010949246
3.3805845e-05 0.0 0.0 0.0 0.0 0.0 0.0 0.0
0.0 0.0 0.0 0.0 0.0 0.0 0.0 0.0
0.0 0.0 0.0 0.0 0.0 0.0 0.0 0.0
0.0 0.0 0.0 0.0 0.0 0.0 0.0 0.0
0.0 0.0 0.0 0.0 0.0 0.0 0.0 0.0
0.0 0.0 0.0 0.0 0.0 0.0 0.0 0.0
0.0 0.0 0.0 0.101789266 0.100791514 0.018241316 0.016029678 2.2688498e-06
0.101789266 0.0002910384 0.01708577 0.0014479717 1.5274762e-05 0.101789266 0.0015781347 0.015713139
0.0016616657 3.1857758e-06 0.101789266 0.00831838 0.012816465 0.0016403432 2.5374095e-06 0.101789266
0.017496675 0.01731778 0.0016206418 3.3055985e-06 0.0 0.0 0.0 0.0
0.0 0.0 0.0 0.0 0.0 0.0 0.0 0.0
0.0 0.0 0.0 0.0 0.0 0.0 0.0 0.0
0.0 0.0 0.0 0.0 0.0 0.0 0.0 0.0
0.0 0.0 0.0 0.0 0.0 0.0 0.0 0.0
0.0 0.0 0.0 0.0 0.0 0.0 0.0 0.0
0.0 0.0 0.0 0.0 0.0 0.0 0.0 0.0
0.0 0.0 0.0 0.0 0.0 0.0 0.0 0.0
0.0 0.0 0.0 0.0 0.0 0.0 0.0 0.0
0.0 0.0 0.0 0.0 0.0 0.0 0.0 1.9764678e-18
1.9764678e-18 2.307986e-19 2.7719045e-19 4.400941e-24 1.9764678e-18 1.2907939e-21 2.30326e-19 7.311714e-20
4.4382778e-24 1.9764678e-18 4.7089187e-21 2.1372583e-19 3.4692756e-20 4.4107773e-24 1.9764678e-18 4.0816358e-20
2.3030083e-19 4.700232e-20 4.57365e-24 1.9764678e-18 1.4834193e-19 2.1569912e-19 4.1418982e-20 4.4030615e-24
0.33632702 0.3331862 0.08080157 0.07510092 2.5344818e-05 0.33632702 0.0020986528 0.079363614
0.005521164 0.00015059942 0.33632702 0.010930807 0.04921268 0.0057647843 3.6275505e-05 0.33632702
0.0432897 0.06254758 0.0052317255 2.8302686e-05 0.33632702 0.08681887 0.056606572 0.00532687
2.8455259e-05 0.0 0.0 0.0 0.0 0.0 0.0 0.0
0.0 0.0 0.0 0.0 0.0 0.0 0.0 0.0
0.0 0.0 0.0 0.0 0.0 0.0 0.0 0.0
0.0 0.0 0.4269912 0.42346334 0.15283984 0.097072005 2.641361e-05 0.4269912

exp_avg f4 [256]
00000000: 4b45 09be 0000 0000 0000 0000 896f 1e3d
00000010: 0000 0000 0000 0000 9d67 1302 fea7 1e02
00000020: cafb 713e 0000 0000 bc65 23be 0000 0000
00000030: 5f1f 07be 222d 6dbe e81a 0cbe 1e61 33bd
00000040: 582c 78bd 5a47 1f02 c09f e6bb 9d37 813d
00000050: 4c48 19bc 0000 0000 8c8a 873d 75de 1c02
00000060: 0b3b 26be f272 f9bd 0000 0000 0448 d13d
00000070: 0000 0000 4adf 35be 3c9b 073d 0000 0000
00000080: 18c2 76bc 0c77 66bd 5a9a 08bd 95c4 0ebe
00000090: 0000 0000 2971 97bd 3a40 1e02 0000 0000
000000a0: ba9f 1d02 505c 0e3d a855 73bc 0000 0000
000000b0: c656 1602 b8a7 b13d d44d 663e b516 57bc
000000c0: 92aa 1102 664b cc3d ad31 313d 0000 0000
000000d0: d4e8 063e c019 a93d 0000 0000 c326 5cbd
000000e0: 151d 8c3d 0000 0000 f172 423e 0000 0000
000000f0: 0d4c 1b02 cdd5 87be 417f 603d a0a5 c2bd
00000100: f0b6 1a02 a572 033e 0000 0000 e07f 233e
00000110: 9747 75bd 5eb6 143d 648f d03c 9d67 1302
00000120: 590a d83c 0000 0000 c861 40bd 0000 0000
00000130: 0000 0000 a956 e3bc fc2d 9ebd e4c4 1f02
00000140: af1e 33be 52b4 973d 8c06 1502 9cf9 28bd
00000150: 0000 0000 dcb1 07bc 204c 9a3d 3a4a 4fbc
00000160: 0000 0000 5279 4bbe aecc 393c 5657 1302
00000170: 0000 0000 0000 0000 4d13 bbbd 1ead f33d
00000180: 740a 1102 82b1 c7bd 1474 c3bc 8a38 403e
00000190: 7cfc 1a02 0000 0000 7c4d 28bd 9d67 1302
000001a0: 9663 b03b 0000 0000 6de9 1802 fa9e f1bd
000001b0: 0000 0000 74c8 d3bc 8c36 1e02 0b60 1402
000001c0: 0000 0000 8c2f 1a02 9d67 1302 0000 0000
000001d0: ce84 1302 44a9 81bd c7ee 1702 4386 1302
000001e0: d06f eebd 2390 37bd 3008 7d3c 9ed0 1002
000001f0: 60c7 d0ba 5d07 933d 0000 0000 e27b 1b02
00000200: 7e2b 6a3c 0000 0000 c224 1a02 da88 92bc
00000210: 864d 1702 08e2 74bb 9d67 1302 c67d 2dbe
00000220: d4ad 1d02 aef6 08be 13d1 7abd 0cce 40be
00000230: 5dee 25bc 45cd 5cbd ae6e 1202 2ebc abbc
00000240: 111e 003e 0000 0000 938d 96bd b472 3e3d
00000250: 0000 0000 0000 0000 096d 6b3d be90 883c
00000260: e487 313c 91ba 1502 802b 94bd 0000 0000
00000270: d2d8 c6bd 0ec5 1602 0000 0000 bf4e 1c02
00000280: a848 52be 7297 1d02 7f3d b0bd 4cb3 06be
00000290: aec2 46be 45de 103c e216 b3bd 0000 0000
000002a0: 6153 653d 3527 1b02 0000 0000 3b5f 84bd
000002b0: a802 8c3c 0000 0000 f5f0 a2be 4014 97bd
000002c0: df5d 1f02 36ab 8c3c 0f06 c93d 1cb9 163d
000002d0: b68e c73c 0000 0000 340b d93d 333a 88bc
000002e0: 0000 0000 dd67 99bc c583 85be 84bb 1a02
000002f0: 0000 0000 67b3 1c02 ab1f 54bd fd54 c7bd
00000300: ba33 1e02 0000 0000 350f 1702 ecd9 c8bd
00000310: 2ddd 1c02 1239 1a02 4dd4 82bd 28c8 133d
00000320: 4c98 e1bd 9cfa 91bd 1eed 453c 50df 8dbb
00000330: 296c 0bbe 8b97 923d 0000 0000 0019 9a3b
00000340: 9c7f a9bb a078 68bb f9f8 1702 1d12 5d3d
00000350: e93d 28bc 77ea 003d b096 713d e47b 1bbb
00000360: fc93 d5bd 958b 33bd 677a 0fbd 0000 0000
00000370: 0000 0000 b6d8 8dbc 906a 2cbe 7263 3ebe
00000380: 0a18 0dbe d8c6 1002 0000 0000 be4d 1802
00000390: 760c c53d 6c02 e53c 99db b9bb a288 45be
000003a0: 68c7 65bd a17a adbd e022 853d 6057 4b3c
000003b0: 0000 0000 246b 1002 0000 0000 7591 1e02
000003c0: 346a d83d 364d 88bd ccb2 1002 a926 1f02
000003d0: 1cc2 1d02 fdcb f5bc 4cab 4cbd da02 54bd
000003e0: 9042 1402 6f1e 5a3e 294f f23d 8a73 1c02
000003f0: 13c5 1402 3b78 e9bd 5016 1b3e ba34 39bd
-0.1340534 0.0 0.0 0.038680587 0.0 0.0 1.082959e-37 1.1656218e-37
0.23631206 0.0 -0.15956777 0.0 -0.13195561 -0.23161748 -0.13682139 -0.04379379
-0.060589164 1.1701952e-37 -0.0070380867 0.063094355 -0.009355616 0.0 0.066182226 1.1524912e-37
-0.1623346 -0.12180127 0.0 0.10218814 0.0 -0.1776096 0.033107027 0.0
-0.015060924 -0.056265876 -0.033350326 -0.13942178 0.0 -0.073946305 1.1626439e-37 0.0
1.1580378e-37 0.034756005 -0.014851965 0.0 1.1045162e-37 0.08674568 0.22490627 -0.013127972
1.0701869e-37 0.099753186 0.043260265 0.0 0.13174754 0.082568645 0.0 -0.053747904
0.068414845 0.0 0.18989159 0.0 1.1409427e-37 -0.26530305 0.05480886 -0.09504247
1.1366634e-37 0.12836702 0.0 0.15966749 -0.059882727 0.03630673 0.025458999 1.082959e-37
0.026372122 0.0 -0.04696825 0.0 0.0 -0.027751284 -0.077236146 1.173798e-37
-0.17492174 0.0740744 1.094867e-37 -0.04125367 0.0 -0.008282151 0.07534051 -0.012651974
0.0 -0.19870499 0.011340303 1.0824919e-37 0.0 0.0 -0.09134541 0.11898254
1.0655917e-37 -0.09750654 -0.023859061 0.18771568 1.1386593e-37 0.0 -0.04108952 1.082959e-37
0.0053829653 0.0 1.1234186e-37 -0.117979005 0.0 -0.02585242 1.1623661e-37 1.0900886e-37
0.0 1.1327778e-37 1.082959e-37 0.0 1.0837967e-37 -0.06331113 1.1162254e-37 1.0838386e-37
-0.1164242 -0.044815194 0.015443847 1.0639319e-37 -0.0015928559 0.07179139 0.0 1.1423154e-37
0.014292596 0.0 1.1324682e-37 -0.017887522 1.1115976e-37 -0.003736617 1.082959e-37 -0.1694251
1.1584425e-37 -0.13375351 -0.061234545 -0.188286 -0.010127631 -0.053906698 1.075815e-37 -0.020963755
0.1251147 0.0 -0.07351222 0.04649611 0.0 0.0 0.05747703 0.016670581
0.0108356215 1.1000333e-37 -0.072348595 0.0 -0.09709324 1.1076811e-37 0.0 1.1483669e-37
-0.20535529 1.1578001e-37 -0.086054794 -0.13154334 -0.19410202 0.008842056 -0.08744599 0.0
0.05598772 1.1398853e-37 0.0 -0.06463476 0.01709111 0.0 -0.3182446 -0.07376909
1.1708415e-37 0.017171483 0.09815609 0.036797628 0.024360042 0.0 0.1059784 -0.016629314
0.0 -0.018726284 -0.26077095 1.1367947e-37 0.0 1.1512556e-37 -0.051788013 -0.09733007
1.1622852e-37 0.0 1.1098092e-37 -0.0980719 1.1524544e-37 1.1330512e-37 -0.063881494 0.036079556
-0.110153764 -0.07127878 0.012080459 -0.0043295994 -0.13615479 0.07157811 0.0 0.0047026873
-0.005172683 -0.0035472289 1.116518e-37 0.053972352 -0.010268667 0.031473603 0.058981597 -0.0023724968
-0.104286164 -0.043834288 -0.03502884 0.0 0.0 -0.01731525 -0.16837525 -0.18592623
-0.13778701 1.0636515e-37 0.0 1.1189507e-37 0.09621517 0.027955256 -0.00567193 -0.19290403
-0.05609837 -0.08470655 0.065007925 0.012410969 0.0 1.0610197e-37 0.0 1.1649751e-37
0.10567132 -0.06655352 1.0630761e-37 1.169257e-37 1.1590245e-37 -0.030004496 -0.04996805 -0.051760532
1.0892425e-37 0.21300672 0.11831505 1.1494228e-37 1.092988e-37 -0.11399885 0.1514523 -0.0452163
