highway_ddqn/ddqn_tuned_reward_change/checkpoint-8000.tar (torch, 892334 bytes, 18 tensors)

layers.0.weight f4 [256, 25]
0	0xbe802fcd	-0.2503647
1	0x3dfd1b7c	0.12358758
2	0xbd8b9054	-0.06814638
3	0xbeb6a6fc	-0.35674274
4	0x4036cf77	2.8564126
5	0xbe0c7acb	-0.13718717
6	0x4051be28	3.2772312
7	0xbf89af61	-1.0756646
8	0x3e9f8095	0.31152788
9	0xc088dfbe	-4.2773123
10	0xbd7dd6fb	-0.0619726
11	0x3d9174a5	0.07102326
12	0xbea314d3	-0.31851825
13	0xbeaa5d68	-0.33274388
14	0xbf1d569a	-0.6146027
15	0xbd2da350	-0.042392075
16	0x3ee0c3ee	0.43899482
17	0xbe0022a1	-0.1251321
18	0xbceebbeb	-0.02914234
19	0xc0070fee	-2.1103473
20	0x3dc6656f	0.09687316
21	0xbee3dc3e	-0.4450397
22	0xbd0c3754	-0.034232453
23	0xbe7af755	-0.24508412
24	0xc01742f4	-2.3634615
25	0xbe0bc46d	-0.13649149
26	0xbe09df23	-0.13464026
27	0xbe2e3f58	-0.17016351
28	0x3d860330	0.06543577
29	0x3bf311cd	0.0074178935
30	0xbdd333ed	-0.103126384
31	0xbd9853ca	-0.074378565
32	0x3e3e6f07	0.18597041
33	0x3d0f4b1a	0.03498373
34	0xbcec2833	-0.028827762
35	0x3d2e8827	0.042610314
36	0x3d6abf87	0.05731156
37	0x3e1c1010	0.15240502
38	0xbd01dcfa	-0.03170488
39	0x3e371d7d	0.17882343
40	0xbe315dc5	-0.17320926
41	0x3d493b40	0.04912877
42	0xbc90c2a7	-0.017670942
43	0x3e2c26e5	0.16811712
44	0xbe13b0a8	-0.14422858
45	0x3a7fb000	0.0009753704
46	0xbc6b8f33	-0.014377403
47	0xbd8a2997	-0.06746214
48	0xbca36600	-0.019946098
49	0xbe0a2473	-0.13490467
50	0xbd11aeda	-0.035567142
51	0xbd1853fa	-0.03718946
52	0x3ccc9bda	0.02497666
53	0xbc12ad9a	-0.008952523
54	0xbddec097	-0.10876577
55	0xbda18e83	-0.0788851
56	0xbd320933	-0.043465804
57	0x3dbd534d	0.09244404
58	0x3d9513f3	0.07279196
59	0xbd573513	-0.05254085
60	0xbd06ea0d	-0.032938052
61	0xbe26a195	-0.16272576
62	0x3b51979a	0.003198123
63	0xbcebc073	-0.02877829
64	0x3e0349d0	0.12821126
65	0xbd6b78e0	-0.057488322
66	0x3d67f8da	0.056633808
67	0xbd7bac67	-0.061443713
68	0xbe07d84b	-0.13266103
69	0xbe17cd5f	-0.14824437
70	0xbe1394aa	-0.1441218
71	0x3dfb2f13	0.12264838
72	0xbdf7507d	-0.12075899
73	0x3e03e21b	0.12879221
74	0xbd5af26d	-0.05345385
75	0xbddaac65	-0.10677413
76	0x3daecca6	0.08535127
77	0xbdf97e32	-0.12182273
78	0xbdc330da	-0.09530802
79	0x3f7a00c9	0.9765745
80	0x3e2788f1	0.16360833
81	0x3e2b217d	0.16711994
82	0x3ec6840c	0.3877262
83	0xbd756b7a	-0.05991695
84	0x3f4d30ff	0.8015289
85	0x3e0ee859	0.13955821
86	0xbf2fabb0	-0.6862135
87	0x3e360e51	0.17778899
88	0xbde71095	-0.1128246
89	0xbf4882c3	-0.78324527
90	0xbdec4c45	-0.11537985
91	0x3fa2fa9a	1.2732728
92	0x3fa876e5	1.3161284
93	0x3ec8a22d	0.3918623
94	0xbd4b6650	-0.04965812
95	0x3e3b05e7	0.1826397
96	0xbe0a2c68	-0.13493502
97	0xba96e34e	-0.0011511834
98	0x3e7b00b0	0.24511981
99	0xbe163d74	-0.1467188
100	0x3b436ccd	0.002981949
101	0xbe05950d	-0.1304514
102	0xbe3c86e7	-0.18410836
103	0xbe2fe855	-0.17178471
104	0x3e1d82d8	0.15381944
105	0xbd87c1e0	-0.066287756
106	0x3e4b384a	0.19845691
107	0xbde47cb3	-0.11156597
108	0x3e1887dd	0.14895578
109	0x3e03e14a	0.1287891
110	0x3d947b7d	0.07250116
111	0xbdc4419d	-0.09582827
112	0xbd35a033	-0.04434223
113	0xbdcc2c63	-0.099694036
114	0xbdeac5b3	-0.114634894
115	0xbe0bf4ea	-0.13667646
116	0xbdb873c0	-0.090064526
117	0x3e4c69aa	0.19962183
118	0xbe234d8a	-0.15947548
119	0xbde35843	-0.11100819
120	0xbe33d0c8	-0.17560112
121	0xbd068800	-0.032844543
122	0xbdd333a0	-0.10312581
123	0x3d843977	0.06456273
124	0xbccd9280	-0.02509427
125	0xbe0a6e38	-0.13518608
126	0xbd1ea693	-0.038733076
127	0xbd9438ca	-0.07237394
128	0x3dc10770	0.09425247
129	0xbddd9000	-0.108184814
130	0xbda652e3	-0.08121278
131	0x3e02f22b	0.12787692
132	0x3e1bbc00	0.15208435
133	0xbe4b3e93	-0.19848089
134	0x3e2ee17d	0.17078204
135	0xbb7f9b33	-0.0039002418
136	0xbe0d2ffb	-0.13787834
137	0xbd7cc65a	-0.0617126
138	0xbd35ae87	-0.044355895
139	0x3cad5d73	0.021162724
140	0x3dbd51ed	0.09244142
141	0xbe217380	-0.15766716
142	0xbce04e27	-0.027381016
143	0x3e0f2682	0.13979533
144	0xbe365e05	-0.17809303
145	0xbe32590b	-0.1741678
146	0x3d06d8d3	0.032921623
147	0x3e33108b	0.1748678
148	0xbd570a4d	-0.052500058
149	0x3e099bd5	0.13438351
150	0xbe4b82f1	-0.19874169
151	0xbeab6fdd	-0.33483782
152	0x3f4dba68	0.8036256
153	0x3f5ec5b8	0.87020445
154	0x3e9db1fe	0.3079986
155	0xbe55a335	-0.2086304
156	0x3e704d11	0.23466899
157	0x3ecb41e5	0.3969871
158	0xbf0ac07b	-0.5419995
159	0x3eb6b814	0.35687315
160	0xbe810218	-0.2519691
161	0xbf58507d	-0.84497815
162	0xbe89d2ac	-0.26918542
163	0xbf1fb09b	-0.62378854
164	0x3e7d56bb	0.24740116
165	0xbe60970d	-0.21932621
166	0xbfa7f678	-1.3122091
167	0xbe8991f4	-0.26869166
168	0xbf9ce449	-1.2257167
169	0x3e09057d	0.13381
170	0xbe0d3064	-0.13787991
171	0x3f030f18	0.51194906
172	0x3f11dc6f	0.5697698
173	0xbf761b50	-0.96135426
174	0xbf384036	-0.7197298
175	0x3d46dbbd	0.048549403
176	0x3dea7a49	0.11449105
177	0xbf058c37	-0.52167076
178	0x3f4b819a	0.7949463
179	0xbf01d561	-0.50716215
180	0xbe7d8e48	-0.24761307
181	0xbf5992d7	-0.84989685
182	0xbf28b518	-0.6590133
183	0xbf4f6af4	-0.8102257
184	0xbf8e4ce5	-1.1117216
185	0xbd9f0877	-0.077652864
186	0xbfaed944	-1.3660054
187	0x3e135675	0.1438845
188	0xbf4252e7	-0.7590775
189	0x3e12287d	0.14273258
190	0xbdeabedb	-0.11462184
191	0xbe2a8db4	-0.16655618
192	0xbe5e57c2	-0.21713164
193	0xbf509f8b	-0.81493443
194	0xbdafc802	-0.0858307
195	0xbe463edd	-0.19359918
196	0x3cb49986	0.022045862
197	0x3f87336a	1.0562565
198	0xbede1661	-0.4337645
199	0x3ef5b8b6	0.47992486
200	0xbd17c3a1	-0.0370518
201	0xbd0a8c05	-0.03382494
202	0x3d566e53	0.052351307
203	0x3f918988	1.1370096
204	0xbe06c607	-0.13161479
205	0xbe4c0a3d	-0.1992578
206	0xbf678a71	-0.9044562
207	0x3f31286c	0.69202304
208	0xbeaa70a6	-0.3328907
209	0x3ea96e14	0.33091795
210	0xbdc2484d	-0.094864465
211	0xbfa57fec	-1.2929664
212	0xbcecc156	-0.028900784
213	0xbf10616c	-0.56398654
214	0xbf363e1d	-0.7118853
215	0xbe5fee29	-0.21868195
216	0x3f608e6c	0.8771732
217	0xbeea2207	-0.45729086
218	0x3e44e5e5	0.19228323
219	0x3da13f8a	0.07873447
220	0xbdc65a89	-0.09685237
221	0x3f119050	0.5686083
222	0xbf093ba3	-0.53606623
223	0x3e4f85a3	0.20265822
224	0xbf553836	-0.83288896
225	0x3d4078ed	0.046990324
226	0xbdebb67a	-0.11509414
227	0x3e314b8a	0.17313972
228	0xbe0fd073	-0.14044361
229	0x3d69283a	0.05692313
230	0xbdf9d68d	-0.121991254
231	0xbe067f30	-0.13134456
232	0x3e19dfdf	0.15026806
233	0xbdc6cca7	-0.09707003
234	0xbda851c7	-0.08218723
235	0xbc0a8c9a	-0.008456374
236	0xbd8e73dd	-0.06955693
237	0xba615000	-0.000859499
238	0xbd7364ba	-0.059422232
239	0xbd339bfa	-0.043849923
240	0xbdbb2303	-0.09137537
241	0xbdc3684a	-0.09541376
242	0xbc4490e7	-0.011997438
243	0xbe4b2c5f	-0.19841145
244	0xbda5d7d7	-0.08097809
245	0xbc9690e7	-0.018379642
246	0x3d8cf060	0.068817854
247	0x3e45472a	0.19265428
248	0x3e3accbd	0.18242164
249	0x3da4053d	0.080088116
250	0x3d8fc8a5	0.07020692
251	0xbe3c9a43	-0.18418221
252	0xbf0afe45	-0.54294235
253	0xbf0d4221	-0.5517903
254	0xbf979e84	-1.184525
255	0x3e6f95c7	0.2339698

layers.0.bias f4 [256]
0	0x3db0ae98	0.08627051
1	0xbc98e6c0	-0.018664718
2	0x3e377c20	0.17918444
3	0xbd09e332	-0.033663936
4	0x3da2de60	0.07952571
5	0xbd87f51d	-0.066385485
6	0xbed40a69	-0.41414192
7	0xbdb626d2	-0.08894123
8	0xbda3126c	-0.07962498
9	0x3d8f50f0	0.069978595
10	0xbd07cc23	-0.033153664
11	0x3d5bbe13	0.053648066
12	0xbdcee263	-0.101017736
13	0x3d952100	0.07281685
14	0x3d81aaf5	0.063314356
15	0xbc946ec4	-0.018119223
16	0x3d1b2842	0.03788019
17	0xbdd68b96	-0.10475843
18	0x3ddb598c	0.10710439
19	0x3e1c1a69	0.1524445
20	0xbea01606	-0.31266803
21	0xbe2c5727	-0.16830121
22	0xbcda733f	-0.026666282
23	0xbd279f1c	-0.040923223
24	0xbdc20cec	-0.09475121
25	0xbe26cd0e	-0.1628916
26	0xbdc31853	-0.09526124
27	0xbdcebc7c	-0.10094544
28	0xbd46c360	-0.048526168
29	0x3a8aff34	0.0010604621
30	0xbd69674e	-0.056983285
31	0x3e2e40cf	0.1701691
32	0x3e4f00a7	0.20215093
33	0x3cbbfb55	0.022946993
34	0x3dde3cff	0.10851478
35	0xbe013b7d	-0.12620349
36	0xbd894727	-0.06703024
37	0x3d198c6e	0.03748744
38	0xbe15c5f2	-0.14626291
39	0xbde4f660	-0.11179805
40	0xbe94d7ea	-0.2907098
41	0xbea2a550	-0.31766748
42	0xbdf4d925	-0.119554795
43	0xbe26fee7	-0.16308175
44	0xbc1f13dd	-0.009709326
45	0xbe148893	-0.14505224
46	0xbe11dc52	-0.14244202
47	0x3d3787d4	0.04480727
48	0x3d4c3101	0.04985142
49	0x3ca3e8a0	0.020008385
50	0xbd3a4ecc	-0.045485303
51	0xbe1426ff	-0.14468001
52	0xbe0a2aaf	-0.13492845
53	0xbe6d6487	-0.2318288
54	0x3e46ea47	0.19425307
55	0x3e35a3cf	0.1773827
56	0xb9b08ea7	-0.0003367562
57	0xbdfa3a10	-0.12218106
58	0xbe09e136	-0.13464817
59	0xbe2a15cd	-0.16609879
60	0xbe2f943b	-0.17146389
61	0xbd98b2ef	-0.07456004
62	0xbe3595f1	-0.1773298
63	0xbd2bd128	-0.041947514
64	0xbe47704c	-0.19476432
65	0x3e34bfb6	0.17651257
66	0xbe3f041a	-0.18653908
67	0x3cb03ca1	0.021513285
68	0xbe1a58d5	-0.15072949
69	0xbd20f5d7	-0.03929695
70	0x3da1f6ec	0.07908425
71	0xbe85fe90	-0.26170778
72	0xbe685dba	-0.22692004
73	0x3dc81aea	0.097707585
74	0x3d86bf0a	0.065794066
75	0xbe2da9d2	-0.16959313
76	0xbe41df2a	-0.18932787
77	0x3d996288	0.074894965
78	0xbe1ff086	-0.15619096
79	0x3e31924e	0.17340967
80	0xbcb79dd8	-0.022414133
81	0xbca0da6f	-0.019635407
82	0x3e3d7796	0.1850265
83	0xbe2d06d9	-0.16897143
84	0x3d447560	0.0479635
85	0x3be014e6	0.006838429
86	0x3e3bf834	0.183564
87	0xbc3d9c90	-0.011572972
88	0xbd9b0ad7	-0.07570427
89	0x3ea5bea3	0.32372007
90	0x3e23d941	0.16000845
91	0xbd6264b0	-0.055271804
92	0xbdac7b9a	-0.084220126
93	0x3db27c77	0.08715146
94	0xbd987ebe	-0.07446049
95	0xbd87d106	-0.06631665
96	0xbcc8c5cf	-0.024508385
97	0xbe4434b9	-0.19160737
98	0xbe1656c3	-0.14681534
99	0xbdfff26a	-0.12497409
100	0x3dd7f385	0.105444945
101	0x3e46053f	0.19337939
102	0xbe0193b3	-0.12653999
103	0xbe948208	-0.29005456
104	0xbdb7863a	-0.089611486
105	0xbbcf9667	-0.006335068
106	0xbddfc391	-0.10925973
107	0x3e5715eb	0.21004455
108	0x3d107773	0.035270166
109	0xbc7ca713	-0.015420693
110	0xbd4900d4	-0.049073055
111	0x3e93a861	0.288394
112	0xbdbcef9d	-0.0922539
113	0x3da46177	0.080264024
114	0xbe189895	-0.14901955
115	0xbca4e3cd	-0.020128155
116	0xbe7b1438	-0.24519432
117	0xbd586a2c	-0.05283563
118	0xbe89e19d	-0.26929942
119	0x3e0dce4e	0.1384823
120	0x3e32fe31	0.17479779
121	0xbe4a98e4	-0.19784886
122	0xbdfe620d	-0.124210455
123	0xbe809ce0	-0.25119686
124	0x3e20f4f4	0.15718442
125	0xbe09cf28	-0.1345793
126	0xbd8c25c3	-0.0684314
127	0xbea2c998	-0.3179443
128	0x3dad202e	0.084534034
129	0x3e449873	0.1919878
130	0xbd52c689	-0.05145887
131	0xbe764ba3	-0.2405229
132	0xbdf66eca	-0.1203285
133	0xbd7de699	-0.061987493
134	0x3c7a1048	0.015262671
135	0xbc8d47e5	-0.017246196
136	0xbeadcf3f	-0.3394718
137	0xbd4cbefb	-0.04998682
138	0xbe74e77f	-0.23916434
139	0xbe035638	-0.12825859
140	0xbe6168a1	-0.22012569
141	0x3e2a58d7	0.16635452
142	0xbdde838d	-0.10864935
143	0x3db72cc5	0.08944086
144	0x3e273ac5	0.16331013
145	0xbe2148d3	-0.15750436
146	0x3d8a70da	0.06759806
147	0xbda3a3c4	-0.0799022
148	0xbd9de61d	-0.07709906
149	0xbe22c34a	-0.1589481
150	0xbdf52245	-0.11969427
151	0xbe9baa55	-0.3040339
152	0xbd880d1d	-0.06643126
153	0xbdec09f6	-0.115253374
154	0xbe049733	-0.12948303
155	0x3d4ecd53	0.05048878
156	0x3e90bd09	0.28269222
157	0xbeb8e580	-0.36112595
158	0x3bab7700	0.0052326918
159	0xbbe9f02b	-0.007139226
160	0x3e17a2b0	0.14808154
161	0x3d06d2db	0.03291593
162	0x3dbc28d6	0.09187476
163	0x3cf12d42	0.029440526
164	0x3dd0b409	0.10190589
165	0xbdc8ffce	-0.09814416
166	0xbe003ab0	-0.12522388
167	0xbd8a4700	-0.067518234
168	0x3c712954	0.014719326
169	0xbe8cdc6c	-0.2751192
170	0xbdc318da	-0.095262244
171	0xbe91451b	-0.28373036
172	0xbe0da50e	-0.13832495
173	0xbd883cbd	-0.0665221
174	0x3d8813f6	0.06644432
175	0x3ea0e997	0.31428215
176	0xbedb83a0	-0.4287386
177	0x3c1cd02e	0.009571118
178	0xbe5abb54	-0.21360523
179	0xbe2bba8a	-0.16770378
180	0x3c206ee5	0.009792064
181	0x3c0d5080	0.00862515
182	0xbde94dac	-0.11391768
183	0x3d651d6d	0.055936266
184	0xbdf62ba3	-0.12020042
185	0x3e4a112e	0.19733116
186	0x3e0992cd	0.13434906
187	0xbe1090e7	-0.14117776
188	0xbdebf2ad	-0.11520896
189	0xbbcbd92e	-0.006220958
190	0x3dcc70b4	0.09982434
191	0x3d0b03b4	0.03393908
192	0x3e16a12b	0.14709918
193	0xbc51739a	-0.012783909
194	0xbe1c3714	-0.15255386
195	0x3e04f1a1	0.12982799
196	0xbe36ca1b	-0.17850535
197	0xbd49df93	-0.049285483
198	0x3d17ad95	0.037030775
199	0xbe2f22dd	-0.17103143
200	0xbd2e575e	-0.04256379
201	0x3e0b696e	0.13614437
202	0x3da35208	0.079746306
203	0xbd7e8839	-0.06214163
204	0x3b6724cd	0.0035269738
205	0xbe7efafa	-0.24900427
206	0xbd8f9ca0	-0.07012296
207	0xbeb94eb8	-0.3619287
208	0x3c922946	0.017841946
209	0x3fb2cbc7	1.3968438
210	0xbcd3f94b	-0.025875708
211	0x3d9d44c6	0.07679133
212	0xbe425796	-0.18978724
213	0xba63b14f	-0.0008685784
214	0xbdbd3e92	-0.0924045
215	0xbe3e74f6	-0.18599305
216	0xbe84e9b6	-0.25959557
217	0xbe0377b0	-0.12838626
218	0xbe40c477	-0.18824945
219	0xbe47fde7	-0.1953045
220	0xbe44b97a	-0.19211379
221	0xbde949af	-0.11391007
222	0x3dd52bb4	0.10408726
223	0xbe6d5371	-0.23176362
224	0xbd8c1350	-0.06839621
225	0x3d62464b	0.055242818
226	0xbe4a502f	-0.1975715
227	0xbea35028	-0.31897092
228	0x3dd659b7	0.104663305
229	0x3e2bca18	0.16776311
230	0x3ca6ac94	0.020345964
231	0x3e298f5c	0.16558594
232	0x3f02b5d3	0.5105869
233	0xbd984f38	-0.07436985
234	0xbe42d5f6	-0.19026932
235	0xbe6b6cf8	-0.22990787
236	0xbdd0259d	-0.10163424
237	0xbd950325	-0.072759904
238	0xbe2eb9fb	-0.17063133
239	0xbed1eee8	-0.41002584
240	0xbe45cc9c	-0.19316334
241	0xbd96ac68	-0.07357103
242	0xbcbb1c03	-0.022840505
243	0xbeea2558	-0.45731616
244	0xbd468a23	-0.04847158
245	0xbe1329c6	-0.14371404
246	0xbd00797c	-0.031365857
247	0x3da21730	0.07914579
248	0x3d3537b6	0.044242583
249	0x3d80bba7	0.06285792
250	0xbd096d22	-0.033551343
251	0xbd51aa60	-0.051187873
252	0xbe2bd8d3	-0.1678193
253	0x3e10e0dc	0.14148277
254	0xbd6c36f0	-0.05766958
255	0xbe0ffbb7	-0.14060865

layers.1.weight f4 [256, 256]
0	0xbda15a11	-0.07878507
1	0x3d5abff6	0.053405724
2	0x3d32a236	0.043611728
3	0xbe987fae	-0.29784912
4	0x3a2edc80	0.00066704303
5	0xbd7e6e12	-0.06211669
6	0x3d9a9e87	0.07549768
7	0xbf1f5865	-0.62244254
8	0xbd9cc1f6	-0.076541826
9	0x3d75e26e	0.060030393
10	0x3d9b6dbe	0.07589291
11	0xbd6370b6	-0.05552741
12	0x3eb12b9b	0.3460358
13	0xbf761938	-0.9613223
14	0xbdd268bb	-0.10273882
15	0xbf263d4e	-0.64937294
16	0xbf3eb338	-0.74492216
17	0x3d143c8f	0.036190566
18	0xb9a3e40e	-0.00031259697
19	0x3c9c678d	0.019092346
20	0x3dd259ad	0.102710105
21	0xbd70f6d8	-0.05882916
22	0xbe32f117	-0.17474781
23	0xbea5333a	-0.32265645
24	0xbf06d448	-0.52667665
25	0xbeeaf7e4	-0.4589225
26	0xbc8e5b20	-0.017377436
27	0xbe9822c5	-0.29714027
28	0x3d59010a	0.052979507
29	0x3f76ab4a	0.96355116
30	0x3bf0da9d	0.0073502795
31	0x3d0fc082	0.0350957
32	0x3e67f9bd	0.22653861
33	0xbcf25a2b	-0.029584011
34	0x3e87652a	0.2644437
35	0xbf21e07e	-0.6323317
36	0x3d7bde50	0.06149131
37	0xbdd9bf5a	-0.106322005
38	0xbf41d4ca	-0.75715315
39	0x3d06ff58	0.03295836
40	0xbf99a1ac	-1.2002463
41	0xbe807064	-0.25085747
42	0xbf0256ff	-0.50913996
43	0xbc80a56c	-0.01570388
44	0xbcb5991e	-0.022167739
45	0xbde8ad50	-0.11361182
46	0xbd9ba0f1	-0.075990565
47	0x3cf78b8a	0.030217905
48	0xbd9a55b0	-0.07535875
49	0xbf63a67e	-0.8892592
50	0x3f37efb6	0.71850145
51	0xbd5a9bb2	-0.05337114
52	0xbf833d18	-1.0253019
53	0xbde99276	-0.11404888
54	0x3b969250	0.0045950785
55	0x3dabc508	0.0838719
56	0xbcbc1cab	-0.022962889
57	0xbd519634	-0.051168635
58	0xbe9f08af	-0.31061313
59	0xbd33816c	-0.0438246
60	0xbefb1573	-0.49039802
61	0x3e97a205	0.296158
62	0xbfc3f573	-1.530928
63	0xbef0c2db	-0.47023663
64	0x39dee103	0.00042510786
65	0x3cbc0ab3	0.02295432
66	0x3c0ec038	0.008712821
67	0x3e4fe285	0.20301254
68	0xbd8db0db	-0.06918498
69	0xbcd33837	-0.025783641
70	0x3cc07931	0.023495289
71	0xbd00115c	-0.031266555
72	0xbef76b3f	-0.4832401
73	0xbc962e40	-0.0183326
74	0xbd9a08cd	-0.0752121
75	0x3d5a4cf0	0.05329603
76	0x3beafe50	0.0071714297
77	0xbeafffa4	-0.34374726
78	0xbf98a17a	-1.1924279
79	0x3ed958de	0.42450613
80	0xbf7df27b	-0.9919812
81	0xbff867aa	-1.9406636
82	0x3d924a8e	0.071431264
83	0xbe591ea2	-0.21203092
84	0x3cbd39c4	0.023098834
85	0xbf4a307e	-0.78980243
86	0x3e2f5d76	0.17125496
87	0xbf0a1726	-0.5394157
88	0xbc10c278	-0.008835427
89	0x3ebed440	0.3727131
90	0xbe350a3d	-0.17679687
91	0xbe437317	-0.19086872
92	0x3d509942	0.050927408
93	0x3d1b613e	0.037934534
94	0xbedebfaa	-0.43505603
95	0xbe8c4bf9	-0.27401713
96	0xbf723b3f	-0.9462165
97	0xbee937b1	-0.45550302
98	0xbfda5313	-1.7056602
99	0xbdd4a509	-0.103830405
100	0xbb883735	-0.004156972
101	0x3d593788	0.053031474
102	0xbf0357a7	-0.5130562
103	0xbf35a5bd	-0.7095602
104	0xbef2b0ec	-0.47400606
105	0x3bc9ff80	0.006164491
106	0x3cf1635d	0.029466325
107	0xbea531ab	-0.32264456
108	0x3d476c88	0.048687488
109	0xc03e3d17	-2.9724786
110	0xbcd2a62c	-0.025714003
111	0x3c26fd27	0.010192192
112	0xbd354212	-0.044252463
113	0x3d521eb2	0.051298805
114	0xbf3fc005	-0.74902374
115	0x3c161220	0.009159595
116	0xbe104692	-0.1408942
117	0xbddff164	-0.109347135
118	0xbea0a585	-0.3137628
119	0xbf8d51f4	-1.1040635
120	0x3ea53aca	0.32271415
121	0xbf2aec73	-0.6676704
122	0xbe9b26d9	-0.30303076
123	0xbf850351	-1.0391637
124	0xbe66ad90	-0.22527146
125	0x3e073316	0.13203081
126	0xbc839948	-0.016064301
127	0xbf2f3790	-0.68444157
128	0xbe7fc4d1	-0.24977423
129	0xbd6942d2	-0.05694849
130	0xbed52354	-0.41628516
131	0xbfbdcdc4	-1.482842
132	0x3cf861eb	0.030320128
133	0xbdb06a9c	-0.08614084
134	0x3dae5a01	0.08513261
135	0xbedc155c	-0.42985046
136	0xbf1e8c82	-0.6193315
137	0xc045ac6d	-3.088649
138	0xbd13b369	-0.03605977
139	0xbed175ed	-0.40910283
140	0x3f0d4004	0.55175805
141	0x3e311564	0.17293316
142	0xbe5884fb	-0.21144478
143	0xbdfff45a	-0.12497778
144	0xbde43fce	-0.11144982
145	0x3d0a7912	0.033806868
146	0xbea45ccc	-0.32102048
147	0xbce6ab0a	-0.02815773
148	0xbcac0858	-0.021000072
149	0xbccd8198	-0.02508621
150	0xbf9cbbcb	-1.224481
151	0xbefbdc38	-0.4919145
152	0xbecd3778	-0.40081382
153	0x3d550b7e	0.052012913
154	0xbf8af5da	-1.0856278
155	0x399c0d00	0.00029764324
156	0xc010200e	-2.2519565
157	0xbe461542	-0.19344047
158	0xbd0d7e8e	-0.03454452
159	0x3e0f9c0a	0.14024368
160	0xbee2e13d	-0.44312468
161	0x3c99492c	0.018711649
162	0xbf7befb8	-0.98412657
163	0x3f727d01	0.9472199
164	0x3e5b3fbe	0.21411034
165	0xbf450451	-0.7695971
166	0x3d04a70e	0.03238588
167	0x3cd31578	0.025767073
168	0xbc762dc5	-0.015025561
169	0xbf31b86d	-0.69422036
170	0xbc8798b4	-0.016552307
171	0xbd7b0d1c	-0.0612918
172	0xbf198449	-0.59967476
173	0x3cd3695c	0.025807075
174	0xbf0a3368	-0.5398469
175	0x3d69cf68	0.057082564
176	0xbf476be6	-0.77899015
177	0x3f103dd5	0.5634435
178	0x3e01086b	0.12600867
179	0x3e3f31ad	0.18671294
180	0xbf58a9b7	-0.84633964
181	0x3d03ec02	0.032207496
182	0xbf01352f	-0.50471777
183	0xbe43e6d7	-0.19131027
184	0x3bcd0550	0.006256737
185	0xbec5b7f3	-0.38616905
186	0xbe75c9ab	-0.24002711
187	0xbf532a13	-0.82486075
188	0xbc0d66b8	-0.008630447
189	0xbeafb6fc	-0.34319293
190	0xbb98f21e	-0.0046675345
191	0xbf169669	-0.5882326
192	0xbcf03a58	-0.029324695
193	0x3cbc57ec	0.022991143
194	0xbf3171ef	-0.69314474
195	0xbf10302e	-0.56323516
196	0xbd0e5f11	-0.03475863
197	0xbd969e25	-0.073543824
198	0x3b8c0c17	0.004273902
199	0xbdc1c59e	-0.094615206
200	0xbfa7c50b	-1.3107008
201	0xbe926d5e	-0.28599066
202	0xbf11d3b1	-0.5696364
203	0xbec227e0	-0.37921047
204	0xbf0245ca	-0.5088774
205	0xbeeccd47	-0.46250364
206	0x3c47dea8	0.0121990815
207	0xbd086500	-0.033299446
208	0xbf861957	-1.0476483
209	0x3fc13284	1.5093541
210	0x3b819be0	0.0039553493
211	0x3efd37d1	0.49456647
212	0x3ec26a68	0.37971807
213	0xbe6372f4	-0.2221182
214	0x3e433601	0.1906357
215	0x3ea0f7cf	0.31439063
216	0xbeeb6198	-0.45972896
217	0xbe10920a	-0.1411821
218	0xbf24e7c5	-0.6441615
219	0xbce937f8	-0.02846907
220	0x3d3bef22	0.04588235
221	0xbeb8fc82	-0.36130148
222	0xbf20aa37	-0.6275973
223	0xbfd29a38	-1.6453314
224	0xbfd72cd5	-1.6810557
225	0xbe362b10	-0.17789865
226	0x3d02e83c	0.031959757
227	0xbe701a71	-0.23447587
228	0xbe6fccc2	-0.23417953
229	0xbeb50ae9	-0.35359886
230	0xbdf70739	-0.120619245
231	0xbe83b46e	-0.25723594
232	0x3c98f40e	0.018671062
233	0xbf883595	-1.0641352
234	0xbd8fc008	-0.07019049
235	0x3d210bbd	0.039317835
236	0xbd200b96	-0.03907355
237	0x3cf720c9	0.030167
238	0x3ca7e234	0.020493604
239	0xbf32d778	-0.6986003
240	0xbf3f05c4	-0.7461817
241	0xbfc275d4	-1.5192208
242	0xbe6737f0	-0.22579932
243	0x3f4fd473	0.81183547
244	0xbf9580d4	-1.167994
245	0xbb822f0f	-0.003972895
246	0xbe33652a	-0.1751906
247	0x3e1c1ed7	0.1524614
248	0x3ebed909	0.3727496
249	0xbebdfe26	-0.37107962
250	0x3eaded8c	0.33970296
251	0xbe887222	-0.26649576
252	0x3f165e59	0.58737713
253	0xbd964c2b	-0.07338747
254	0xbf332c30	-0.699893
255	0x3d2ef4d7	0.042713966

layers.1.bias f4 [256]
0	0xbf8cdccb	-1.1004881
1	0xbf70c75c	-0.940542
2	0x3f9b4494	1.2130303
3	0xbf2f7960	-0.6854458
4	0x3e5bc31f	0.21461152
5	0xbd0fe1c6	-0.035127424
6	0xbd7312c2	-0.05934406
7	0xbf8a2d05	-1.0794989
8	0xbf82b525	-1.0211531
9	0xbe875eb8	-0.26439452
10	0xbeddea5e	-0.4334287
11	0xbd447b30	-0.047969043
12	0xbd96c63d	-0.0736203
13	0xbca83bde	-0.02053636
14	0xbf94b849	-1.1618739
15	0xbf1395ca	-0.57650435
16	0x3d3edd49	0.046597753
17	0xbd553a4a	-0.052057542
18	0x3d8ffadf	0.07030272
19	0x3d027f43	0.031859647
20	0xbd268169	-0.04065076
21	0x3f16270b	0.58653325
22	0x3d2be6c7	0.041968133
23	0xbcf940ad	-0.030426348
24	0xbd3ced69	-0.04612485
25	0x3f09c43c	0.53815055
26	0x3ec5bb0c	0.38619268
27	0x3f5b3790	0.85631657
28	0xbd6b8d04	-0.05750753
29	0xbd3796a0	-0.04482138
30	0xbd21ed6d	-0.039533067
31	0xbf4157dc	-0.7552469
32	0xbd0b463b	-0.034002524
33	0x3f932804	1.1496587
34	0xbd202eef	-0.03910726
35	0xbf883463	-1.0640987
36	0xbb8235de	-0.0039737066
37	0xbd490601	-0.04907799
38	0x3ee87f72	0.45409733
39	0xbf7e8714	-0.9942486
40	0x3b5ee44b	0.0034010585
41	0xbf8d5327	-1.1041001
42	0xbd932f18	-0.07186717
43	0x3e7375ff	0.2377548
44	0xbee6a41a	-0.45047075
45	0xbf1ec6a2	-0.6202184
46	0xbe8db012	-0.27673393
47	0xbf1ac834	-0.60461736
48	0x3d07b68d	0.03313308
49	0xbd7b48de	-0.06134879
50	0xbd762acb	-0.060099404
51	0xbf88426e	-1.0645273
52	0xba2815e0	-0.0006411951
53	0xbf6f0329	-0.93364197
54	0x3f9e31e4	1.2358975
55	0x3f4dbff3	0.80371016
56	0x3c5526ea	0.013009766
57	0x3c8205c9	0.0158719
58	0xbee342e2	-0.44386965
59	0x3f59b97c	0.8504865
60	0xbf4d113a	-0.8010441
61	0xbf8ce144	-1.1006246
62	0xbed831cf	-0.422255
63	0x3c066c23	0.008204493
64	0xbf44e367	-0.7690949
65	0x3edb0a4c	0.42781293
66	0x3e8f57e0	0.2799673
67	0xbd2b3472	-0.041798063
68	0x3ef06c91	0.4695783
69	0x3cc3d349	0.02390446
70	0xbd1a518f	-0.037675437
71	0x3dd76d1a	0.10518856
72	0xbe4d19d3	-0.20029382
73	0x3fa1dbd0	1.2645206
74	0xbc972cf7	-0.018454058
75	0xbf63f33a	-0.8904301
76	0xbc0916c7	-0.008367247
77	0xbd8799d5	-0.06621138
78	0xbd6918ed	-0.056908537
79	0x3e99607d	0.29956427
80	0xb83c6a54	-4.492172e-05
81	0x3bb16de7	0.0054147127
82	0x3eb5f766	0.35540313
83	0x3fae836c	1.3633857
84	0x3f38658b	0.7202994
85	0xbf84a803	-1.0363773
86	0xbf096da7	-0.5368294
87	0xbf0d6879	-0.5523754
88	0xbd06d4ac	-0.032917663
89	0xbefd6f1e	-0.49498838
90	0xbd3ebae0	-0.046564937
91	0x3a6100a1	0.00085831626
92	0x3b91c3ab	0.0044483743
93	0xbe0fef67	-0.14056168
94	0xbd4553d6	-0.048175655
95	0xbf4867e1	-0.78283507
96	0xbd8d4350	-0.068976045
97	0xbd71ea80	-0.059061527
98	0xbd9150de	-0.07095502
99	0xbce23ad6	-0.027615946
100	0x3c66528a	0.014057765
101	0x3cc98e6d	0.024604047
102	0xbd233b9e	-0.039851777
103	0x3e8c0a15	0.27351442
104	0xbf0ac7b6	-0.54210985
105	0x3d0a0a9f	0.033701535
106	0xbf88f034	-1.0698304
107	0xbf557150	-0.83376026
108	0x3d462771	0.048377458
109	0xbc18b0df	-0.009319513
110	0xbcd86c33	-0.02641878
111	0xbf81bc15	-1.0135523
112	0x3f8380cd	1.0273682
113	0x3c408e98	0.011752747
114	0xbf235ce1	-0.63813597
115	0xbf25bcfe	-0.64741504
116	0xbc7b1b8d	-0.015326393
117	0xbfb317a5	-1.3991591
118	0xbd00ba14	-0.031427458
119	0xbe03f615	-0.12886842
120	0xbc8c68e1	-0.017139854
121	0xbf220c73	-0.63300246
122	0x3fcbdc31	1.5926572
123	0xbf2cfde5	-0.6757491
124	0xbe6668ea	-0.22500959
125	0xbd0ddab8	-0.034632415
126	0x3ef327c6	0.47491282
127	0xbf0cfd06	-0.55073583
128	0x3f240092	0.6406337
129	0x3c755534	0.014973927
130	0xbed524b2	-0.4162956
131	0x3e9d59b2	0.30732495
132	0xbd10402f	-0.03521746
133	0xbd96ce1c	-0.07363531
134	0xbf0aada2	-0.5417119
135	0xbd70e20f	-0.058809336
136	0xbcaf9f7c	-0.021438353
137	0xbd3a585d	-0.045494426
138	0xbd328cbb	-0.043591242
139	0xbe3d840f	-0.18507408
140	0xbe3337c8	-0.17501748
141	0x3f941fb6	1.1572177
142	0xbeccf889	-0.40033367
143	0xbc015dca	-0.007895896
144	0x3f23a5d7	0.63924927
145	0xbc859431	-0.016306015
146	0x3f1ab337	0.6042971
147	0xbc98bd0d	-0.018644834
148	0xbe70e7fa	-0.23525992
149	0xbe21a2e8	-0.157848
150	0xbd1bc901	-0.03803349
151	0xbea6ef2a	-0.32604343
152	0x3c2a5ca1	0.010398061
153	0x3eca1128	0.39466214
154	0xbd8a69bd	-0.06758449
155	0xbf81b19b	-1.0132326
156	0xbd8220f7	-0.06353944
157	0xbcf5704d	-0.029960776
158	0x3ec897b3	0.39178237
159	0xbac41d85	-0.0014962411
160	0xbd2a67f3	-0.04160304
161	0x3e945b79	0.28976038
162	0xbd9ec4c2	-0.07752372
163	0xbf988a6c	-1.1917243
164	0xbef4e2b8	-0.47829223
165	0xbdb149d2	-0.08656658
166	0xbd5c19a8	-0.053735405
167	0xbd847491	-0.06467546
168	0x3f2925b1	0.6607314
169	0xbea63687	-0.32463476
170	0x3f28f855	0.66003925
171	0x3be1da90	0.0068925098
172	0xbd502bfa	-0.05082319
173	0xbd53f472	-0.051746793
174	0xbf6ea7ed	-0.93224984
175	0xbc2676dd	-0.010160175
176	0x3e3a00ef	0.18164419
177	0xbd348f51	-0.04408199
178	0xba98ce89	-0.0011658232
179	0x3d8f630d	0.07001314
180	0x3d0f9349	0.03505257
181	0xbc080cb9	-0.008303815
182	0xbd41a6c4	-0.04727818
183	0xbd5487f4	-0.051887468
184	0xbd6a9f8e	-0.05728107
185	0xbec1d050	-0.37854242
186	0x3e27ad36	0.16374668
187	0xbf6cfc94	-0.92572904
188	0x3e52b60c	0.20577258
189	0xbf4e7597	-0.8064818
190	0x3db95ca8	0.09050876
191	0xbf7edfdb	-0.99560326
192	0xbc81e846	-0.015857827
193	0x3f15b5a9	0.58480316
194	0x3eb38d83	0.35068902
195	0x3a984264	0.0011616466
196	0xbda0ce1e	-0.07851814
197	0x3d429dca	0.04751376
198	0xbf0f3006	-0.5593265
199	0x3f1551f2	0.58328164
200	0xbf2ae44e	-0.66754615
201	0xbd071832	-0.03298206
202	0xbc934f03	-0.017982012
203	0xbdaa7b9a	-0.083243564
204	0xbd900c8e	-0.070336446
205	0xbd381d11	-0.044949595
206	0x3e4c4157	0.199468
207	0xbf1deda3	-0.6169073
208	0xbe080bd1	-0.13285758
209	0xbcaa7f26	-0.020812582
210	0x3fad8e1d	1.3558995
211	0x3df44f77	0.11929219
212	0xbdb7276b	-0.08943065
213	0x3f601229	0.8752771
214	0xbcf14a71	-0.029454442
215	0xbc64c69d	-0.013963369
216	0xbf936c9b	-1.1517519
217	0xbdadad3c	-0.084803075
218	0x3f8042fd	1.0020443
219	0xbeeb0b08	-0.45906854
220	0x3efb5a49	0.4909232
221	0xbe4f8c10	-0.20268273
222	0xbd2172eb	-0.039416235
223	0xbcfdea9d	-0.030995661
224	0x3cdeb824	0.027187414
225	0x3f0cf815	0.55066043
226	0xbe3babcb	-0.18327253
227	0xbf0a344c	-0.5398605
228	0xbca83d0e	-0.020536926
229	0x3e81c173	0.25342903
230	0x3ed34a58	0.41267657
231	0xbcd4366d	-0.025904858
232	0xbd3b0e48	-0.045667917
233	0xbd7e7e7f	-0.062132355
234	0xbd571590	-0.052510798
235	0x3b422827	0.0029625983
236	0xbc22b18c	-0.009930026
237	0x3d8369e3	0.06416681
238	0xbd21c996	-0.039498888
239	0xbcb778ca	-0.022396464
240	0xbeb42f12	-0.35192162
241	0xbd665d14	-0.05624111
242	0xbe16bc0a	-0.14720169
243	0xbde3f63d	-0.111309506
244	0xbd1302c0	-0.035891294
245	0xbd6904e2	-0.056889422
246	0xbf4f20b2	-0.80909264
247	0x3f325a5f	0.69669145
248	0xbd7b11c7	-0.06129625
249	0xbd3b747c	-0.045765385
250	0xbe837366	-0.2567398
251	0xbed7ae08	-0.42124963
252	0xbee7d7e2	-0.45281893
253	0xbcdf25e6	-0.027239751
254	0xbf41561e	-0.7552203
255	0xbf726fc8	-0.94701815

predict.weight f4 [5, 256]
0	0x3f85d432	1.0455382
1	0x3f5ac3b0	0.85454845
2	0xbfbbad5a	-1.4662278
3	0x3f2b9423	0.67022914
4	0x3f5e0ccf	0.86738294
5	0xbd11f1b7	-0.035630908
6	0xbd03f6c4	-0.032217756
7	0x3f168e37	0.5881075
8	0x3e5f22c7	0.2179061
9	0x3c0f26b1	0.008737252
10	0xbdb72fd5	-0.0894467
11	0xbb35307c	-0.0027647307
12	0xbc501d39	-0.01270228
13	0xbc8ff869	-0.017574506
14	0xbe431283	-0.1905003
15	0x3e8001b8	0.2500131
16	0xbfc399c9	-1.5281307
17	0x3c3549b8	0.011064939
18	0xbe492e53	-0.19646578
19	0xbcf090e9	-0.029365974
20	0xbcea8183	-0.02862621
21	0xbe1de169	-0.15418018
22	0x3bdb75c5	0.006697389
23	0x3d35bb62	0.044368155
24	0xbd85276b	-0.06501659
25	0x3f7aa8e8	0.9791398
26	0x3da7d010	0.08193982
27	0xbfa14c98	-1.26015
28	0xbd519e54	-0.051176384
29	0xbd13793e	-0.036004297
30	0x3cb419db	0.021984985
31	0x3f493848	0.78601503
32	0xbf0035e1	-0.5008221
33	0xbfbe5b0b	-1.4871534
34	0x3a18568e	0.00058112375
35	0x3f1bd8eb	0.60877866
36	0x3c6ca0bf	0.014442622
37	0x3b7b2ba0	0.0038325563
38	0xbfc71695	-1.5553766
39	0x3f1bb00f	0.6081552
40	0x3ccf05a9	0.025271254
41	0x3fad3849	1.3532802
42	0x3c70d7df	0.014699905
43	0xbf234b2a	-0.63786566
44	0xbe2a5915	-0.16635545
45	0x3e929dc9	0.28636006
46	0x3f05e349	0.52299935
47	0x3da62dde	0.08114217
48	0xbcccf5fa	-0.025019635
49	0x3ca7edee	0.020499196
50	0xbc442ed9	-0.01197406
51	0x3f89dffc	1.077148
52	0xbb96b6af	-0.0045994143
53	0x3f3e4202	0.7431947
54	0xbf9a1116	-1.2036464
55	0xbe6a77b4	-0.22897226
56	0xbd5c8f61	-0.053847674
57	0xbd3ab187	-0.04557946
58	0x3f05d43b	0.52276963
59	0x3f4daacf	0.8033876
60	0x3ecea2a2	0.40358454
61	0xbe2e3fb0	-0.17016482
62	0xbec57ca2	-0.3857165
63	0x3b90afa1	0.004415468
64	0xbf07163c	-0.527683
65	0xbed5330a	-0.41640502
66	0xbc11b4b7	-0.008893183
67	0x3b40b2fe	0.0029403563
68	0xbc59f0fd	-0.013302085
69	0xc05ae136	-3.4199958
70	0x3c4c0008	0.012451179
71	0x3e931fa7	0.28735086
72	0xbf019ecf	-0.5063295
73	0xbe50a8a5	-0.20376833
74	0xbe572043	-0.210084
75	0x3ff294f1	1.8951703
76	0x3f045679	0.51694447
77	0xbcd8543a	-0.02640735
78	0x3dae4f0e	0.08511172
79	0xbf9b7e26	-1.2147872
80	0x3d05a989	0.032632384
81	0x3cef3a0a	0.02920248
82	0xbec01edb	-0.3752354
83	0xbfbdadba	-1.4818642
84	0xbecc1894	-0.39862502
85	0x3eb84445	0.35989586
86	0xbe819020	-0.2530527
87	0xbe49e654	-0.1971677
88	0x3d2c2e7a	0.04203651
89	0x3e5ad7da	0.21371403
90	0x3cee8f10	0.029120952
91	0x3ca7b878	0.020473704
92	0xbca7b1d5	-0.02047054
93	0x3f32475a	0.69640124
94	0xbd28053b	-0.041020613
95	0xbeb5ba98	-0.35493922
96	0xbd3eea09	-0.046609912
97	0xbef7b794	-0.48382246
98	0x3e33d93f	0.17563342
99	0xbd41470a	-0.04718689
100	0xbcb5bf53	-0.022185957
101	0x3d022e43	0.0317824
102	0x3d202c51	0.039104763
103	0xbda35fe9	-0.07977278
104	0x3e5f63ca	0.2181541
105	0x3c84db2f	0.016217796
106	0x3f0989fd	0.5372618
107	0x3f30d755	0.6907857
108	0x3c58c34a	0.013230154
109	0x3cdf741c	0.027277045
110	0x3f2d5c8e	0.6771935
111	0x3e36e555	0.1786092
112	0xbfa969bb	-1.3235391
113	0xbd239ec3	-0.03994633
114	0xbe621865	-0.22079618
115	0x3ef6afa0	0.48180866
116	0x3b0c5468	0.0021412615
117	0x3ded0c97	0.11574667
118	0xbcd8816a	-0.026428897
119	0xbf128310	-0.57231236
120	0xbc89f2d7	-0.016839428
121	0xbf56b4b2	-0.8386947
122	0xc0192a45	-2.393205
123	0x3f31f531	0.6951476
124	0xbac80e92	-0.0015263131
125	0xbcc55a60	-0.024090946
126	0x3c0f08e3	0.008730146
127	0xbddd5232	-0.10806693
128	0xbf63c4bf	-0.88972086
129	0xbcb8086a	-0.02246495
130	0x3f06b604	0.52621484
131	0x3e84d951	0.2594705
132	0xbc0f1456	-0.008732876
133	0xba82d57f	-0.000998184
134	0xbdeaa563	-0.11457326
135	0xbcd2b752	-0.02572218
136	0xbcf24b5a	-0.029576946
137	0x3bfd547c	0.0077310186
138	0xbce543b9	-0.027986394
139	0x3f1787e8	0.5919175
140	0x3fb94555	1.4474283
141	0xbf213531	-0.6297179
142	0x3f5b9e47	0.8578839
143	0x3c8b1ba6	0.016980957
144	0x3dbf0d96	0.09328763
145	0xbd3f4118	-0.046692938
146	0xbe2a0109	-0.16601957
147	0x3d383969	0.044976626
148	0xbd8ff911	-0.070299275
149	0x3f34604d	0.70459443
150	0x3c2cb84a	0.010541985
151	0x3f8467cd	1.0344177
152	0xbd164e7c	-0.036695942
153	0xbd6a02e7	-0.057131674
154	0xbba300d0	-0.004974462
155	0x3fb6f933	1.42948
156	0x3d1206ae	0.0356509
157	0xbcb211d8	-0.021737024
158	0xbd84658a	-0.064646795
159	0xbc82198c	-0.015881322
160	0x3caab3a8	0.02083762
161	0xc0017175	-2.0225499
162	0xbc625e79	-0.013816469
163	0x3ee888a6	0.45416754
164	0xbc594abf	-0.01326245
165	0x3cc1ec9b	0.023672393
166	0xbc93948d	-0.01801517
167	0x3f05cb80	0.5226364
168	0xbf31ef56	-0.6950582
169	0xbf7e1404	-0.9924929
170	0xbefe5a93	-0.49678478
171	0x3cddb3a4	0.027063198
172	0x3c017cc3	0.007903281
173	0xbbb80d18	-0.0056167953
174	0x3f2462ed	0.6421345
175	0xbad963f5	-0.0016585576
176	0xbf330f39	-0.699451
177	0x3d12d87a	0.03585098
178	0xbc8a35a4	-0.016871281
179	0x3f5eea2b	0.8707606
180	0x3b82a275	0.0039866515
181	0xbc81fa90	-0.015866548
182	0xbd427c16	-0.04748162
183	0x3d36b08a	0.044601955
184	0x3d3f787a	0.046745755
185	0xbf04bf16	-0.51854074
186	0x3de7248c	0.11286268
187	0xbdec0508	-0.11524397
188	0xbfad2ca3	-1.3529247
189	0x3f1a6870	0.6031561
190	0xbf4bd403	-0.7962038
191	0x3e7ec403	0.2487946
192	0x3c01658e	0.007897748
193	0xbee60643	-0.44926652
194	0x3e6d1a7a	0.23154631
195	0x3d3ce09b	0.046112638
196	0x3cace0ae	0.02110323
197	0xbff43b2c	-1.9080558
198	0x3f9f4ea5	1.2445875
199	0x3fc6cf30	1.5531979
200	0xbf4dce50	-0.8039293
201	0xbd647b4c	-0.055781648
202	0xbcba662c	-0.022753797
203	0xbc2d331a	-0.010571266
204	0xbd41c518	-0.047307104
205	0xbd2e33c1	-0.042529825
206	0x3f24b7e8	0.6434312
207	0x3ed1e394	0.4099394
208	0xbdb2e91a	-0.08735867
209	0x3d1f3e93	0.038878035
210	0xbd9a8679	-0.0754518
211	0xc015b276	-2.3390174
212	0x3cdcdb08	0.026959911
213	0x3fae87c4	1.3635182
214	0x3c110188	0.008850463
215	0x3bc93202	0.0061399946
216	0xbe8dc229	-0.27687195
217	0x3cd54165	0.02603216
218	0xbfe02db4	-1.7513947
219	0xbda733d9	-0.08164186
220	0xc01938c1	-2.394089
221	0xbe583914	-0.21115524
222	0xbd7adf43	-0.061248075
223	0x3d70814f	0.05871707
224	0xbb9cd892	-0.0047865594
225	0xbcf70c9e	-0.030157384
226	0x3f1d34a2	0.61408436
227	0xbea3a0b1	-0.31958535
228	0xbcc86a98	-0.02446489
229	0xbf03f6db	-0.51548547
230	0x3d5fee97	0.054670896
231	0x3cbc5cd1	0.022993477
232	0x3d152b34	0.036418155
233	0xbca43eef	-0.02004954
234	0xbd3a1835	-0.045433242
235	0x3c4d54e4	0.0125324465
236	0x3c643f14	0.013931055
237	0xc01c9167	-2.4463747
238	0x3d2bbc6c	0.04192774
239	0x3d04735e	0.032336585
240	0xbdb0fa6e	-0.08641516
241	0xbd5ebc10	-0.05437857
242	0xbf0e2f75	-0.55541164
243	0x3f7d45b8	0.9893451
244	0xbfb74903	-1.4319156
245	0x3d11c854	0.03559144
246	0xc01a6918	-2.4126644
247	0x3e57b10f	0.21063636
248	0xbbd027fe	-0.0063524237
249	0x3dc3926e	0.095494136
250	0xbe248969	-0.16068043
251	0x3e57e61a	0.2108387
252	0xbfc831c8	-1.5640192
253	0xbd673bee	-0.056453638
254	0xbd84fccc	-0.0649353
255	0x3d98147d	0.07425783

predict.bias f4 [5]
0	0xbf83c918	-1.0295744
1	0xbef02b8a	-0.46908218
2	0xbf5ea3c5	-0.8696864
3	0xbf2ae631	-0.66757494
4	0xbf737fac	-0.95116687

exp_avg f4 [256, 25]
0	0xbd874808	-0.06605536
1	0xbd815bdf	-0.06316351
2	0xbd352415	-0.044223864
3	0xbcadcf6c	-0.02121707
4	0xb981bfc6	-0.0002474768
5	0xbd874808	-0.06605536
6	0xbc01005d	-0.007873622
7	0x3cbad6c2	0.022807483
8	0x3b3ec42c	0.0029108627
9	0x39aa2341	0.00032451193
10	0xbd874808	-0.06605536
11	0xbc1d97a5	-0.009618674
12	0x3cffcc78	0.031225428
13	0x3b76678e	0.0037598344
14	0x39840af4	0.00025185163
15	0xbd874808	-0.06605536
16	0xbc805ad6	-0.015668314
17	0x3bfe3a1e	0.007758393
18	0x3b9c7a54	0.004775325
19	0x391ff245	0.00015253674
20	0xbd874808	-0.06605536
21	0xbcedda36	-0.029034715
22	0x3ce08b2c	0.027410112
23	0x3b66050c	0.0035098223
24	0x393f2648	0.0001822944
25	0x00000000	0.0
26	0x00000000	0.0
27	0x00000000	0.0
28	0x00000000	0.0
29	0x00000000	0.0
30	0x00000000	0.0
31	0x00000000	0.0
32	0x00000000	0.0
33	0x00000000	0.0
34	0x00000000	0.0
35	0x00000000	0.0
36	0x00000000	0.0
37	0x00000000	0.0
38	0x00000000	0.0
39	0x00000000	0.0
40	0x00000000	0.0
41	0x00000000	0.0
42	0x00000000	0.0
43	0x00000000	0.0
44	0x00000000	0.0
45	0x00000000	0.0
46	0x00000000	0.0
47	0x00000000	0.0
48	0x00000000	0.0
49	0x00000000	0.0
50	0x00000000	0.0
51	0x00000000	0.0
52	0x00000000	0.0
53	0x00000000	0.0
54	0x00000000	0.0
55	0x00000000	0.0
56	0x00000000	0.0
57	0x00000000	0.0
58	0x00000000	0.0
59	0x00000000	0.0
60	0x00000000	0.0
61	0x00000000	0.0
62	0x00000000	0.0
63	0x00000000	0.0
64	0x00000000	0.0
65	0x00000000	0.0
66	0x00000000	0.0
67	0x00000000	0.0
68	0x00000000	0.0
69	0x00000000	0.0
70	0x00000000	0.0
71	0x00000000	0.0
72	0x00000000	0.0
73	0x00000000	0.0
74	0x00000000	0.0
75	0x3da97c43	0.08275654
76	0x3dac772c	0.08421168
77	0xbd5cf368	-0.053943068
78	0x3d167159	0.03672919
79	0x3969e7cc	0.00022306963
80	0x3da97c43	0.08275654
81	0xbc52dd6a	-0.012870172
82	0x3d5a4342	0.0532868
83	0xbc9d86db	-0.019229343
84	0x39292b22	0.00016133164
85	0x3da97c43	0.08275654
86	0xbce80dc0	-0.028326869
87	0x3d6d069a	0.057867624
88	0xbc46d6a8	-0.012136139
89	0x3843eec8	4.6714005e-05
90	0x3da97c43	0.08275654
91	0x3c4d092d	0.012514395
92	0x3b8cbd99	0.0042950627
93	0xbc6ea35a	-0.014565313
94	0xba95b447	-0.0011421525
95	0x3da97c43	0.08275654
96	0x3bf6df0e	0.0075339144
97	0x3c680078	0.014160268
98	0xbc71f8ca	-0.014768789
99	0xba690949	-0.0008889628
100	0x00000000	0.0
101	0x00000000	0.0
102	0x00000000	0.0
103	0x00000000	0.0
104	0x00000000	0.0
105	0x00000000	0.0
106	0x00000000	0.0
107	0x00000000	0.0
108	0x00000000	0.0
109	0x00000000	0.0
110	0x00000000	0.0
111	0x00000000	0.0
112	0x00000000	0.0
113	0x00000000	0.0
114	0x00000000	0.0
115	0x00000000	0.0
116	0x00000000	0.0
117	0x00000000	0.0
118	0x00000000	0.0
119	0x00000000	0.0
120	0x00000000	0.0
121	0x00000000	0.0
122	0x00000000	0.0
123	0x00000000	0.0
124	0x00000000	0.0
125	0x00000000	0.0
126	0x00000000	0.0
127	0x00000000	0.0
128	0x00000000	0.0
129	0x00000000	0.0
130	0x00000000	0.0
131	0x00000000	0.0
132	0x00000000	0.0
133	0x00000000	0.0
134	0x00000000	0.0
135	0x00000000	0.0
136	0x00000000	0.0
137	0x00000000	0.0
138	0x00000000	0.0
139	0x00000000	0.0
140	0x00000000	0.0
141	0x00000000	0.0
142	0x00000000	0.0
143	0x00000000	0.0
144	0x00000000	0.0
145	0x00000000	0.0
146	0x00000000	0.0
147	0x00000000	0.0
148	0x00000000	0.0
149	0x00000000	0.0
150	0x0213679d	1.082959e-37
151	0x0213679d	1.082959e-37
152	0x0212cd8e	1.0785377e-37
153	0x0218060c	1.1168932e-37
154	0x021cbbc7	1.1514959e-37
155	0x0213679d	1.082959e-37
156	0x0210819c	1.0616645e-37
157	0x021b7fbc	1.142426e-37
158	0x821def45	-1.1603205e-37
159	0x821cbbad	-1.151493e-37
160	0x0213679d	1.082959e-37
161	0x8213fa07	-1.0871609e-37
162	0x821976d9	-1.1274772e-37
163	0x821c80b6	-1.1498008e-37
164	0x821cbbad	-1.151493e-37
165	0x0213679d	1.082959e-37
166	0x021f5a26	1.1707346e-37
167	0x8212cd8e	-1.0785377e-37
168	0x8215a0a3	-1.0992892e-37
169	0x821cbbad	-1.151493e-37
170	0x0213679d	1.082959e-37
171	0x021583b3	1.0984587e-37
172	0x021b8085	1.1424485e-37
173	0x8213b0ca	-1.085059e-37
174	0x821cbbad	-1.151493e-37
175	0x3d784c2a	0.06061951
176	0x3d741acf	0.05959588
177	0x39c5d03c	0.00037729915
178	0x3d8a2fde	0.06747411
179	0xb8efc6ee	-0.000114334616
180	0x3d784c2a	0.06061951
181	0xba396ec2	-0.0007073694
182	0x3d8244fe	0.063608155
183	0xbd1347dc	-0.035957202
184	0x38f7e207	0.00011819979
185	0x3d784c2a	0.06061951
186	0xbb8f6adc	-0.0043767523
187	0x3d582ff9	0.052780125
188	0xbd2aecfe	-0.04172992
189	0x38e2105c	0.00010779567
190	0x3d784c2a	0.06061951
191	0x3d7a2369	0.061068926
192	0x3c1a4fe0	0.009418458
193	0xbd012851	-0.03153259
194	0x389a1d08	7.3487e-05
195	0x3d784c2a	0.06061951
196	0x3d93b890	0.07212937
197	0x3d8af4b5	0.067849554
198	0xbd267a4f	-0.040643986
199	0x3a29ba27	0.0006474577
200	0x3ddbceb4	0.10732785
201	0x3ddd103f	0.10794114
202	0x3c4240fa	0.011856312
203	0x3d120b4e	0.035655312
204	0xb921da05	-0.00015435375
205	0x3ddbceb4	0.10732785
206	0x3bd98bc0	0.006638974
207	0x3d3a6e00	0.04551506
208	0xbc63784c	-0.0138836615
209	0xba456e68	-0.00075314054
210	0x3ddbceb4	0.10732785
211	0x3c5ac6cc	0.013353061
212	0x3ce652ba	0.028115619
213	0xbc6fe0a6	-0.014640963
214	0x39223630	0.0001546971
215	0x3ddbceb4	0.10732785
216	0x3caf0c62	0.02136821
217	0x3bfdbcb8	0.0077434443
218	0xbc69a412	-0.014260309
219	0x399d8631	0.00030045354
220	0x3ddbceb4	0.10732785
221	0x3d042686	0.0322633
222	0xbc31175a	-0.01080879
223	0xbc6fa8ae	-0.014627619
224	0x39482779	0.00019088191
225	0x00000000	0.0
226	0x00000000	0.0
227	0x00000000	0.0
228	0x00000000	0.0
229	0x00000000	0.0
230	0x00000000	0.0
231	0x00000000	0.0
232	0x00000000	0.0
233	0x00000000	0.0
234	0x00000000	0.0
235	0x00000000	0.0
236	0x00000000	0.0
237	0x00000000	0.0
238	0x00000000	0.0
239	0x00000000	0.0
240	0x00000000	0.0
241	0x00000000	0.0
242	0x00000000	0.0
243	0x00000000	0.0
244	0x00000000	0.0
245	0x00000000	0.0
246	0x00000000	0.0
247	0x00000000	0.0
248	0x00000000	0.0
249	0x00000000	0.0
250	0xbc655618	-0.013997577
251	0xbc6e2490	-0.014535084
252	0xbab50380	-0.0013810247
253	0xbcaa1312	-0.020761047
254	0x36823f40	3.881665e-06
255	0xbc655618	-0.013997577

exp_avg_sq f4 [256, 25]
0	0x3dd589f8	0.10426706
1	0x3dd35ac7	0.10320049
2	0x3d546227	0.051851418
3	0x3cb0a843	0.021564608
4	0x35829d27	9.731492e-07
5	0x3dd589f8	0.10426706
6	0x39e3d3eb	0.00043454705
7	0x3c7dc68a	0.01548923
8	0x3b1b0d93	0.0023659214
9	0x35e9a283	1.740715e-06
10	0x3dd589f8	0.10426706
11	0x3b57d9c3	0.0032936193
12	0x3d1b3bd9	0.037898872
13	0x3b22010a	0.0024719858
14	0x35a7d7d1	1.250528e-06
15	0x3dd589f8	0.10426706
16	0x3c2c55e4	0.010518525
17	0x3c9eafcd	0.019370938
18	0x3b0ee6a3	0.002180495
19	0x35a52081	1.2302918e-06
20	0x3dd589f8	0.10426706
21	0x3cac0f5f	0.021003423
22	0x3cbd6eb1	0.02312407
23	0x3b25a396	0.0025274507
24	0x359bd459	1.1610201e-06
25	0x00000000	0.0
26	0x00000000	0.0
27	0x00000000	0.0
28	0x00000000	0.0
29	0x00000000	0.0
30	0x00000000	0.0
31	0x00000000	0.0
32	0x00000000	0.0
33	0x00000000	0.0
34	0x00000000	0.0
35	0x00000000	0.0
36	0x00000000	0.0
37	0x00000000	0.0
38	0x00000000	0.0
39	0x00000000	0.0
40	0x00000000	0.0
41	0x00000000	0.0
42	0x00000000	0.0
43	0x00000000	0.0
44	0x00000000	0.0
45	0x00000000	0.0
46	0x00000000	0.0
47	0x00000000	0.0
48	0x00000000	0.0
49	0x00000000	0.0
50	0x00000000	0.0
51	0x00000000	0.0
52	0x00000000	0.0
53	0x00000000	0.0
54	0x00000000	0.0
55	0x00000000	0.0
56	0x00000000	0.0
57	0x00000000	0.0
58	0x00000000	0.0
59	0x00000000	0.0
60	0x00000000	0.0
61	0x00000000	0.0
62	0x00000000	0.0
63	0x00000000	0.0
64	0x00000000	0.0
65	0x00000000	0.0
66	0x00000000	0.0
67	0x00000000	0.0
68	0x00000000	0.0
69	0x00000000	0.0
70	0x00000000	0.0
71	0x00000000	0.0
72	0x00000000	0.0
73	0x00000000	0.0
74	0x00000000	0.0
75	0x3ee179e5	0.4403831
76	0x3ee00795	0.43755785
77	0x3dcda2b4	0.10040799
78	0x3dc82201	0.09772111
79	0x37ab46c0	2.0417734e-05
80	0x3ee179e5	0.4403831
81	0x3ae6c6e5	0.0017606883
82	0x3dbff6b5	0.093732275
83	0x3bf7e9b2	0.0075657004
84	0x37ef016f	2.8491688e-05
85	0x3ee179e5	0.4403831
86	0x3c7444ef	0.014909013
87	0x3d7db442	0.061939485
88	0x3c0427c1	0.008066119
89	0x37d094c8	2.4864814e-05
90	0x3ee179e5	0.4403831
91	0x3d7738ac	0.06035678
92	0x3da22e41	0.079189785
93	0x3bf4d61a	0.007471812
94	0x37c51563	2.3494189e-05
95	0x3ee179e5	0.4403831
96	0x3df3eb0a	0.119100645
97	0x3da8297a	0.08211036
98	0x3bf5be23	0.0074994727
99	0x37db4b2f	2.6141845e-05
100	0x00000000	0.0
101	0x00000000	0.0
102	0x00000000	0.0
103	0x00000000	0.0
104	0x00000000	0.0
105	0x00000000	0.0
106	0x00000000	0.0
107	0x00000000	0.0
108	0x00000000	0.0
109	0x00000000	0.0
110	0x00000000	0.0
111	0x00000000	0.0
112	0x00000000	0.0
113	0x00000000	0.0
114	0x00000000	0.0
115	0x00000000	0.0
116	0x00000000	0.0
117	0x00000000	0.0
118	0x00000000	0.0
119	0x00000000	0.0
120	0x00000000	0.0
121	0x00000000	0.0
122	0x00000000	0.0
123	0x00000000	0.0
124	0x00000000	0.0
125	0x00000000	0.0
126	0x00000000	0.0
127	0x00000000	0.0
128	0x00000000	0.0
129	0x00000000	0.0
130	0x00000000	0.0
131	0x00000000	0.0
132	0x00000000	0.0
133	0x00000000	0.0
134	0x00000000	0.0
135	0x00000000	0.0
136	0x00000000	0.0
137	0x00000000	0.0
138	0x00000000	0.0
139	0x00000000	0.0
140	0x00000000	0.0
141	0x00000000	0.0
142	0x00000000	0.0
143	0x00000000	0.0
144	0x00000000	0.0
145	0x00000000	0.0
146	0x00000000	0.0
147	0x00000000	0.0
148	0x00000000	0.0
149	0x00000000	0.0
150	0x3899cf5d	7.334233e-05
151	0x3899cf5d	7.334233e-05
152	0x381ae9ed	3.693432e-05
153	0x373d0e20	1.1268567e-05
154	0x23c36608	2.1185154e-17
155	0x3899cf5d	7.334233e-05
156	0x33c4be96	9.1616286e-08
157	0x35eb631a	1.7537707e-06
158	0x359b8b63	1.1588967e-06
159	0x23c812a5	2.169194e-17
160	0x3899cf5d	7.334233e-05
161	0x33d68b12	9.990448e-08
162	0x37732f34	1.4494919e-05
163	0x35a06ec1	1.1953163e-06
164	0x23c36608	2.1185154e-17
165	0x3899cf5d	7.334233e-05
166	0x35215ccb	6.0112205e-07
167	0x381ae9ed	3.693432e-05
168	0x359bf0f1	1.1618523e-06
169	0x23c36608	2.1185154e-17
170	0x3899cf5d	7.334233e-05
171	0x370fdef3	8.575374e-06
172	0x20805ad6	2.1744154e-19
173	0x35af3479	1.3053788e-06
174	0x23c36608	2.1185154e-17
175	0x3d1118b6	0.035423957
176	0x3d10a376	0.03531214
177	0x3a921831	0.0011146126
178	0x3c007767	0.007840968
179	0x34d4acf0	3.9613906e-07
180	0x3d1118b6	0.035423957
181	0x3871b4cb	5.7627254e-05
182	0x3c0cb300	0.008587599
183	0x3b082004	0.0020771036
184	0x361a4304	2.2986796e-06
185	0x3d1118b6	0.035423957
186	0x39b95415	0.00035348596
187	0x3c3c81e8	0.011505581
188	0x3b2ac3ca	0.002605664
189	0x352f20d3	6.5240346e-07
190	0x3d1118b6	0.035423957
191	0x3ba3086e	0.00497537
192	0x3afb14a6	0.0019155934
193	0x3ade25c4	0.0016948511
194	0x35769d0d	9.187068e-07
195	0x3d1118b6	0.035423957
196	0x3bfa83df	0.007645115
197	0x3c3681b9	0.011139327
198	0x3b1dd7c2	0.00240849
199	0x3527aaa6	6.2460674e-07
200	0x3e1d069f	0.15334557
201	0x3e1c50e3	0.15265231
202	0x3d85b2d1	0.06528247
203	0x3cde1664	0.027110286
204	0x36978d0e	4.5165716e-06
205	0x3e1d069f	0.15334557
206	0x399cd435	0.00029912745
207	0x3cf58632	0.029971216
208	0x3b119040	0.0022211224
209	0x36d44906	6.3265934e-06
210	0x3e1d069f	0.15334557
211	0x3b2d20d3	0.002641727
212	0x3d306a67	0.043070223
213	0x3b30202c	0.0026874645
214	0x36da39d4	6.5036384e-06
215	0x3e1d069f	0.15334557
216	0x3c444830	0.0119801015
217	0x3ceb2576	0.028704386
218	0x3b0c2930	0.0021386854
219	0x36b0bc0a	5.2670994e-06
220	0x3e1d069f	0.15334557
221	0x3ce3e6ce	0.027820017
222	0x3d33a8c6	0.043862127
223	0x3b19fe9f	0.0023497713
224	0x36bde0b8	5.6587996e-06
225	0x00000000	0.0
226	0x00000000	0.0
227	0x00000000	0.0
228	0x00000000	0.0
229	0x00000000	0.0
230	0x00000000	0.0
231	0x00000000	0.0
232	0x00000000	0.0
233	0x00000000	0.0
234	0x00000000	0.0
235	0x00000000	0.0
236	0x00000000	0.0
237	0x00000000	0.0
238	0x00000000	0.0
239	0x00000000	0.0
240	0x00000000	0.0
241	0x00000000	0.0
242	0x00000000	0.0
243	0x00000000	0.0
244	0x00000000	0.0
245	0x00000000	0.0
246	0x00000000	0.0
247	0x00000000	0.0
248	0x00000000	0.0
249	0x00000000	0.0
250	0x3e96d1c6	0.2945692
251	0x3e9515aa	0.2911809
252	0x3dbc6a6d	0.091999866
253	0x3d46f554	0.048573807
254	0x368cd7f1	4.197464e-06
255	0x3e96d1c6	0.2945692
