highway_ddqn/ddqn_tuned_reward_change/checkpoint-7000.tar (torch, 892334 bytes, 18 tensors)

layers.0.weight f4 [256, 25]
00000000: ccb0 82be 40a2 d63d 168f edbb 6dc9 65be
00000010: 1ffe 4140 d57c 11be 6059 4840 c39c 84bf
00000020: 6044 ad3e f831 62c0 04f0 88bd 992e e03d
00000030: be9e bcbe 83d7 cabe 0a27 a8bf 2fac 41bd
00000040: e1c2 bb3e c9f8 e4bd 4092 81bd ca26 16c0
00000050: 4661 bc3d 4abd a8be 4714 87bd 5fa4 21be
00000060: 7ae1 16c0 6dc4 0bbe 23df 09be 583f 2ebe
00000070: 3003 863d cd11 f33b ed33 d3bd ca53 98bd
00000080: 076f 3e3e 1a4b 0f3d 3328 ecbc 2788 2e3d
00000090: 87bf 6a3d 1010 1c3e fadc 01bd 7d1d 373e
000000a0: c55d 31be 403b 493d a7c2 90bc e526 2c3e
000000b0: a8b0 13be 00b0 7f3a 338f 6bbc 9729 8abd
000000c0: 0066 a3bc 7324 0abe daae 11bd fa53 18bd
000000d0: da9b cc3c 9aad 12bc 97c0 debd 838e a1bd
000000e0: 3309 32bd 4d53 bd3d f313 953d 1335 57bd
000000f0: 0dea 06bd 95a1 26be 9a97 513b 73c0 ebbc
00000100: d049 033e e078 6bbd daf8 673d 67ac 7bbd
00000110: 4bd8 07be 5fcd 17be aa94 13be 132f fb3d
00000120: 7d50 f7bd 1be2 033e 6df2 5abd 7c2c 8bbd
00000130: 98a6 023e 3dc3 81be dd39 b7be 68b3 953f
00000140: 1349 4f3e a398 823d 8b57 9a3e d70a 7f3d
00000150: 1f88 f53e 7ba8 363e f11d 4fbf 38b1 763c
00000160: 2182 b83c 0382 42bf 66cc 9cbd 07e1 9a3f
00000170: 687a a63f 97ad 083f ca18 a8be 09c6 623e
00000180: f54c 88be 6366 c1bc c4f1 d43e 7adf 57be
00000190: cd6c 433b 0d95 05be e786 3cbe 55e8 2fbe
000001a0: d882 1d3e e0c1 87bd 4a38 4b3e b37c e4bd
000001b0: dd87 183e 4ae1 033e 7d7b 943d 9d41 c4bd
000001c0: 33a0 35bd 632c ccbd b3c5 eabd eaf4 0bbe
000001d0: c073 b8bd aa69 4c3e 8a4d 23be 4358 e3bd
000001e0: c8d0 33be 0088 06bd a033 d3bd 7739 843d
000001f0: 8092 cdbc 386e 0abe 93a6 1ebd ca38 94bd
00000200: 7007 c13d 0090 ddbd e352 a6bd 2bf2 023e
00000210: 00bc 1b3e 933e 4bbe 7de1 2e3e 339b 7fbb
00000220: fb2f 0dbe 5ac6 7cbd 87ae 35bd 735d ad3c
00000230: ed51 bd3d 8073 21be 274e e0bc 8226 0f3e
00000240: 055e 36be 0b59 32be d3d8 063d 8b10 333e
00000250: 4d0a 57bd d59b 093e 7f69 38be 27e3 a1be
00000260: 1495 523f bc99 633f 9d64 a33e c389 42be
00000270: 4b18 673e 0e20 c33e f8b2 0fbf 5100 b13e
00000280: c3ea 6ebe b245 5dbf b520 91be e0d6 23bf
00000290: 82f1 713e 9b7d 4dbe 0df7 a6bf 5247 93be
000002a0: 3f2d 9fbf 8b40 fb3d e82d f4bd fdfd 073f
000002b0: 1315 113f d7e6 7abf 8419 3bbf 3279 b43d
000002c0: 5014 1a3e b1a9 15bf 4aba 123f a147 ddbe
000002d0: 6708 55be 0816 3fbf 3289 26bf d072 36bf
000002e0: d22d 48bf 5dfa 1bbd d5fc 92bf a298 ca3d
000002f0: de32 26bf 5ca2 8b3e 47b3 99bd d821 1abe
00000300: ff8f a4be 113f 56bf 1ed3 253e f6b8 1dbe
00000310: bb5b 4cbe 1d3a 743f 9bc1 cebe c423 ba3e
00000320: bf27 f0bc 4ca3 bbbc 0986 3d3d 4cb0 973f
00000330: c06e 973e 121e 44be cfd1 8abf fe98 273f
00000340: 4c02 d5be 0b56 363e 3870 b2bd 9618 9abf
00000350: b00f 9bbd a83a 23bf feca 64bf fe01 58be
00000360: dce5 5c3f 3cfd 9bbe c3cf be3c dad2 6dbe
00000370: 7682 b6bd a8f2 053f 666d ccbe 52b7 c2bc
00000380: 1f53 89bf ed78 403d 7ab6 ebbd 8a4b 313e
00000390: 73d0 0fbe 3a28 693d 8dd6 f9bd 307f 06be
000003a0: dfdf 193e a7cc c6bd c751 a8bd 9a8c 0abc
000003b0: dd73 8ebd 0050 61ba ba64 73bd fa9b 33bd
000003c0: 0323 bbbd 4a68 c3bd e790 44bc 5f2c 4bbe
000003d0: d7d7 a5bd e790 96bc 60f0 8c3d 2a47 453e
000003e0: bdcc 3a3e 3d05 a43d ea20 893c cf34 5dbe
000003f0: 34c4 cdbe 0e5d a6be 3a09 a2bf bfd5 383e
-0.2552551 0.104801655 -0.007249723 -0.22440119 3.0311353 -0.14207776 3.130455 -1.036034
0.33841228 -3.5342999 -0.06686404 0.10946388 -0.3683986 -0.39617547 -1.3136914 -0.047283348
0.36672118 -0.111802645 -0.06326723 -2.3461175 0.09198241 -0.32956916 -0.065956645 -0.15785359
-2.357512 -0.13649149 -0.13464026 -0.17016351 0.06543577 0.0074178935 -0.103126384 -0.074378565
0.18597041 0.03498373 -0.028827762 0.042610314 0.05731156 0.15240502 -0.03170488 0.17882343
-0.17320926 0.04912877 -0.017670942 0.16811712 -0.14422858 0.0009753704 -0.014377403 -0.06746214
-0.019946098 -0.13490467 -0.035567142 -0.03718946 0.02497666 -0.008952523 -0.10876577 -0.0788851
-0.043465804 0.09244404 0.07279196 -0.05254085 -0.032938052 -0.16272576 0.003198123 -0.02877829
0.12821126 -0.057488322 0.056633808 -0.061443713 -0.13266103 -0.14824437 -0.1441218 0.12264838
-0.12075899 0.12879221 -0.05345385 -0.06795594 0.12758863 -0.25344267 -0.35786334 1.1695375
0.2024272 0.063767694 0.30144915 0.062266197 0.47955415 0.17837708 -0.8090506 0.015056901
0.022522988 -0.7597963 -0.076561734 1.2099923 1.3006105 0.5338988 -0.32831413 0.22145857
-0.26621214 -0.023608392 0.41590703 -0.21081343 0.002981949 -0.1304514 -0.18410836 -0.17178471
0.15381944 -0.066287756 0.19845691 -0.11156597 0.14895578 0.1287891 0.07250116 -0.09582827
-0.04434223 -0.099694036 -0.114634894 -0.13667646 -0.090064526 0.19962183 -0.15947548 -0.11100819
-0.17560112 -0.032844543 -0.10312581 0.06456273 -0.02509427 -0.13518608 -0.038733076 -0.07237394
0.09425247 -0.108184814 -0.08121278 0.12787692 0.15208435 -0.19848089 0.17078204 -0.0039002418
-0.13787834 -0.0617126 -0.044355895 0.021162724 0.09244142 -0.15766716 -0.027381016 0.13979533
-0.17809303 -0.1741678 0.032921623 0.1748678 -0.052500058 0.13438351 -0.18008994 -0.31618616
0.82258725 0.88906455 0.319127 -0.18997864 0.22567861 0.38110393 -0.5613246 0.34570554
-0.23331742 -0.8643447 -0.28345266 -0.6399975 0.23627284 -0.20067446 -1.3044144 -0.2876535
-1.2435683 0.1226817 -0.119228184 0.5312193 0.5667278 -0.98008484 -0.7308581 0.08812179
0.15046811 -0.58462054 0.57315505 -0.4321871 -0.20803986 -0.7464299 -0.65053093 -0.7126894
-0.78194916 -0.038080562 -1.1483408 0.09892394 -0.6492137 0.27272308 -0.075048976 -0.15051973
-0.3214111 -0.8368998 0.16193816 -0.15402588 -0.19956867 0.95401174 -0.40382084 0.36355412
-0.029315827 -0.022905014 0.046270404 1.1850677 0.29576683 -0.19152096 -1.0845279 0.6546782
-0.41603315 0.1780626 -0.0871281 -1.2038753 -0.075713515 -0.6376138 -0.8937224 -0.2109451
0.8628824 -0.3046664 0.023292428 -0.23224965 -0.08911602 0.5232339 -0.39927214 -0.023769055
-1.0728492 0.046990324 -0.11509414 0.17313972 -0.14044361 0.05692313 -0.121991254 -0.13134456
0.15026806 -0.09707003 -0.08218723 -0.008456374 -0.06955693 -0.000859499 -0.059422232 -0.043849923
-0.09137537 -0.09541376 -0.011997438 -0.19841145 -0.08097809 -0.018379642 0.068817854 0.19265428
0.18242164 0.080088116 0.016739327 -0.21602176 -0.40188754 -0.3249287 -1.2659066 0.18050288

layers.0.bias f4 [256]
00000000: 68aa a63d c0e6 98bc 207c 373e 13e3 a83b
00000010: 60de a23d 1df5 87bd b37d cabe 0537 4abd
00000020: 1d3a 93bd f050 8f3d a466 b1bd 13be 5b3d
00000030: c3b4 11be eeda 993d db70 853d 6d04 ae3c
00000040: 2d1b 1d3c 968b d6bd 0c68 9d3d 1f0a a83d
00000050: ac87 6abe 2757 2cbe 8522 d4bb 1c9f 27bd
00000060: c44e 65be 6610 58be 5318 c3bd 0272 b2bd
00000070: 60c3 46bd a0e9 fcbc 7fac ccbd cf40 2e3e
00000080: 0097 4b3e b190 553d 5563 0d3e 03d9 94bd
00000090: 2747 89bd bb06 de3d af33 1dbe 60f6 e4bd
000000a0: 397d 3ebe 6318 9dbe 0aad 36be e7fe 26be
000000b0: dd13 1fbc 7590 43be fb4b 06be 81c3 573d
000000c0: 0131 4c3d 7d77 323d 3ca6 cfbd ff26 14be
000000d0: 53b0 14be 4564 6ebe 47ea 463e 39e1 243e
000000e0: dd7e 42bd 103a fabd 9a35 14be cd15 2abe
000000f0: ec55 f1bd 39ac 05be c6f1 3cbe 3e7f 4abd
00000100: 4c70 47be 316e 2a3e 1a04 3fbe a197 303d
00000110: 2c59 27be 0a4e 45bd b046 ae3d 90fe 85be
00000120: 526e 57be ea1a c83d 1fec a23d d2a9 2dbe
00000130: 2adf 41be 5262 823d b837 33be de0e 393e
00000140: 7cee 933d 1af5 30bd 9677 3d3e c4b0 2fbe
00000150: 6075 443d 9f0b 21bd c1fa 173e 87c8 343d
00000160: d70a 9bbd 2af4 783e 88f8 163e b064 62bd
00000170: 9a7b acbd 777c b23d 8945 a9bd 3c53 b1bd
00000180: cfc5 c8bc 41ce 1bbe d87c 18be 473e cbbd
00000190: 85f3 d73d 3f05 463e 9525 37be 0882 94be
000001a0: 2e3d 84bd 6796 cfbb 91c3 dfbd 06bc 313e
000001b0: 7377 103d 741b e63c d400 49bd c71c 823e
000001c0: 9def bcbd 7761 a43d 9598 18be cde3 a4bc
000001d0: 3814 7bbe 1fe9 48bd d5bf 81be 3bbe 583e
000001e0: cd52 013e 300b 6bbe b8bf adbd 45d9 34be
000001f0: 9d66 353e d48c 92bc c325 8cbd 8c98 84be
00000200: 4d29 9f3d 7398 443e be19 c7bd 0471 4ebe
00000210: ca6e f6bd 2de7 b0bd 4810 7a3c 9024 ab3d
00000220: 3fcf adbe 3309 42ba 33c3 46be f779 1dbe
00000230: fee8 38be 318e 323e 9275 bfbd 4634 9e3d
00000240: 3d60 1a3e d348 21be 2a07 b93d e690 53bd
00000250: 1de6 9dbd 4ac3 22be 0682 04be 0208 5abe
00000260: 9b63 84bd f609 ecbd 6b97 34bd 53cd 4e3d
00000270: 1eb0 8d3e ff66 94be 0077 ab3b 2bf0 e9bb
00000280: 335c c03d dbd2 063d 6258 f43d 8a52 50bd
00000290: 1847 9e3d 0b6d f9bd 4784 0ebe 0047 8abd
000002a0: cdef 853d 6cdc 8cbe da18 c3bd 3e42 95be
000002b0: 4884 01be bd3c 88bd fe6a b93d bdd1 013f
000002c0: e3f5 67be fce9 633d 8aad 51be 8599 45be
000002d0: ebfa a83d 8050 0d3c cba8 c5bd 3d78 8a3d
000002e0: a32b f6bd 2508 213e eff2 293e 4f4d 00be
000002f0: adf2 ebbd 2ed9 cbbb 97e7 9e3d 0f6e 3e3b
00000300: 2ba1 163e 9a73 51bc 8a5e 43bd 1603 6d3c
00000310: 1bca 36be 2b8a 90bd f81f 0fbe 1c9f 44be
00000320: 7edf d0bb da19 3a3e ca21 c9bc c097 48bd
00000330: f637 90bd 92d4 22be a09c 8fbd ed0c 88be
00000340: 158b 123d 1031 ad3f 4bf9 d3bc bbcc 8f3d
00000350: 87ef 31be 2f5e b8bc 10f2 0cbe 06f8 48be
00000360: c19f 4dbe 3503 14be 20fc 3cbe e7fd 47be
00000370: 7ab9 44be 14e1 10be 1e6b 273e a13b 67be
00000380: 6a6d dfbc 4b46 623d 2f50 4abe 9335 82be
00000390: 5e0c d83d 8eb2 0b3e 3725 fb3d 1c6c 393e
000003a0: 5fc6 de3e 3ef1 99bd 89e4 30be e77c 5fbe
000003b0: 9d25 d0bd 2503 95bd fbb9 2ebe 9025 cbbe
000003c0: 2a76 34be 438a a13b c4fc e3bb 7960 9fbe
000003d0: 238a 46bd 2312 aabd e68f 9ebb 76df 24bb
000003e0: b637 353d 9c19 db3d 30de 0cbd 60aa 51bd
000003f0: d3d8 2bbe e60b f33d b8cd 1ebd 696a 1cbe
0.08137971 -0.018664718 0.17918444 0.0051540225 0.07952571 -0.066385485 -0.39549026 -0.049368877
-0.071888186 0.069978595 -0.08662155 0.053648066 -0.14229111 0.07512461 0.06515666 0.021242345
0.009588999 -0.10475843 0.07685861 0.082050554 -0.22903317 -0.16830121 -0.0064738416 -0.040923223
-0.22393328 -0.21100006 -0.09526124 -0.087131515 -0.048526168 -0.03087312 -0.099938385 0.1701691
0.1988182 0.05213994 0.13807423 -0.07267954 -0.06703024 0.108411275 -0.15351747 -0.11179805
-0.18602456 -0.30682668 -0.17839447 -0.16308175 -0.009709326 -0.19098075 -0.13114922 0.05267668
0.04985142 0.043570984 -0.101391286 -0.14468001 -0.14520387 -0.23280437 0.19425307 0.1610154
-0.047484268 -0.12218106 -0.14473572 -0.16609879 -0.117839664 -0.13053979 -0.18451604 -0.049437754
-0.19476432 0.16643597 -0.18653908 0.043113355 -0.1634261 -0.048170127 0.08509576 -0.26170778
-0.21038178 0.097707585 0.07955193 -0.16959313 -0.18932787 0.06366409 -0.17501724 0.18072078
0.07223222 -0.043202497 0.1850265 -0.17157274 0.0479635 -0.039317723 0.14841749 0.04413655
-0.07570427 0.24311891 0.14743245 -0.055271804 -0.084220126 0.08715146 -0.08265216 -0.08658454
-0.024508385 -0.15215398 -0.14891374 -0.09923988 0.105444945 0.19337939 -0.1788543 -0.29005456
-0.064569816 -0.006335068 -0.10925973 0.17356881 0.035270166 0.028089263 -0.049073055 0.2541258
-0.0922539 0.080264024 -0.14901955 -0.020128155 -0.24519432 -0.049050447 -0.2534167 0.21166317
0.12629242 -0.22953486 -0.08483833 -0.17661007 0.17714925 -0.017889418 -0.0684314 -0.25897634
0.077715494 0.1919878 -0.09721707 -0.201603 -0.1203285 -0.08637843 0.015262671 0.08356583
-0.3394718 -0.00074018835 -0.194104 -0.15378557 -0.1805763 0.17437054 -0.09348597 0.07724814
0.15075774 -0.15750436 0.090345696 -0.051651858 -0.07709906 -0.1589481 -0.12940225 -0.21292117
-0.06464311 -0.115253374 -0.044089716 0.05048878 0.2767343 -0.2898483 0.0052326918 -0.007139226
0.093925856 0.03291593 0.1193092 -0.050859965 0.07728404 -0.121790014 -0.13917647 -0.067518234
0.06539879 -0.2751192 -0.095262244 -0.291521 -0.12648118 -0.0665221 0.0905361 0.5071066
-0.22652392 0.055643067 -0.20476356 -0.19296844 0.08250984 0.00862515 -0.09651335 0.06761215
-0.12020042 0.15725763 0.16596578 -0.12529491 -0.11520896 -0.006220958 0.07759016 0.00290573
0.14709918 -0.012783909 -0.04769758 0.014466068 -0.17850535 -0.070576034 -0.13977039 -0.1920132
-0.0063742986 0.18173924 -0.024552245 -0.048972845 -0.07041924 -0.15901402 -0.07012296 -0.26572362
0.03577717 1.3530598 -0.025875708 0.07021471 -0.17376529 -0.022505848 -0.13764215 -0.19625863
-0.20080473 -0.14454348 -0.18455553 -0.1953045 -0.19211379 -0.1414836 0.16349456 -0.2258134
-0.027273852 0.055242818 -0.1975715 -0.254315 0.10549234 0.13642332 0.122629575 0.18107647
0.4351072 -0.075167164 -0.17274679 -0.2182499 -0.10163424 -0.072759904 -0.17063133 -0.39677095
-0.17623201 0.004929812 -0.0069576222 -0.3112829 -0.04847158 -0.083042406 -0.0048389314 -0.0025157607
0.044242583 0.10698244 -0.034391582 -0.051187873 -0.1678193 0.11867504 -0.038770407 -0.15274967

layers.1.weight f4 [256, 256]
00000000: 14e6 d9bd f6bf 5a3d 36a2 323d 9919 91be
00000010: 80dc 2e3a 126e 7ebd 879e 9a3d b3ad dcbe
00000020: a9b3 4abe 6ee2 753d cb11 3d3e b670 63bd
00000030: 4b5b 073f d26b 13bf a9f5 b0bc c5cb d6be
00000040: a743 4abf 8f3c 143d 4eca 9b3d 95e8 c53d
00000050: 428c ae3d d8f6 70bd fdd1 99be 3a33 a5be
00000060: 5a74 a3be 3dfb b4be 205b 8ebc 68dd 90be
00000070: 0a01 593d e367 743f bd17 333e 82c0 0f3d
00000080: c440 b63e 7b10 063d ad52 053f 7fff a2be
00000090: 50de 7b3d c6b3 a4bd a88b 32bf 58ff 063d
000000a0: 60fc 6dbf e634 7fbe 2b18 b5be 6ca5 80bc
000000b0: 1e99 b5bc 2aa0 843d 7d48 26bc 675a 093e
000000c0: b055 9abd 1068 2fbf 37cd 0a3e b29b 5abd
000000d0: 6c15 38bf 4fb0 dc3c 5092 963b 5741 b13d
000000e0: c60b 8ebd 3496 51bd 8ebc 95be 6c81 33bd
000000f0: 2e50 ddbe 1521 bc3e 1fb5 a2bf 6844 b7be
00000100: 03e1 de39 cf25 593e 38c0 0e3c 6234 553e
00000110: 739f 813d f572 a23d 362d e8bd 5c11 00bd
00000120: e309 ecbe 402e 96bc a25a b2bd f04c 5a3d
00000130: 50fe ea3b fc6d 8dbe ad53 57bf 7f9f b63e
00000140: 160b 36bf 0cb1 10c0 8e4a 923d f364 3cbe
00000150: c439 bd3c 69f8 1ebf 9c0d 8d3e e812 b9be
00000160: 78c2 10bc 4f3f 603e 9e45 3dbe 1773 43be
00000170: 4299 503d 3e61 1b3d 5698 dcbe d12d 1bb9
00000180: 3f3b 72bf 6300 c2be d296 ecbf 6449 32be
00000190: 3537 88bb 8837 593d 7dd6 f6be bda5 35bf
000001a0: 0cec 0cbf 80ff c93b 5d63 f13c 5c0f 0cbe
000001b0: 886c 473d 537e 0dc0 2ca6 d2bc 0e5c a7bb
000001c0: 1242 35bd b21e 523d 05c0 3fbf 2012 163c
000001d0: 9246 10be 02a8 913b 85a5 a0be 3988 8cbf
000001e0: a73c c93e 5635 efbe 4328 01be 0166 6ebf
000001f0: adcd adbe 10d9 1d3e 4899 83bc 4a0a 19bf
00000200: 3442 35be d242 69bd 5f9d b3be 94e6 bebf
00000210: eb61 f83c d8d1 cebd 015a ae3d 9cc2 b6bd
00000220: 828c 1ebf 494b 21c0 a47e 8f3e abb8 eebe
00000230: f18b 2e3f 121a 523e 5a0b 24be 5d36 ff3d
00000240: 9f6b 19bd 1279 0a3d 47be 35be 28c9 afbd
00000250: 5808 acbc 9881 cdbc bd37 96bf f5f6 93be
00000260: 233b 47be 7e0b 553d d2cb 8bbf 000d 9c39
00000270: 868f f2bf 5810 5dbd 8e7e 0dbd 0a9c 0f3e
00000280: b34b a6be 2c49 993c 9a6f 44bf bdb9 5b3f
00000290: 6d1e 623d d043 24bf c258 fa3d 7815 d33c
000002a0: f950 133e 6db8 31bf b498 87bc eae6 9e3d
000002b0: 6178 e5be 5c69 d33c 51b1 d6be 17d4 e2bc
000002c0: ccb4 2ebf 1fc9 163f 3840 683c 6f18 123e
000002d0: da68 f8be 02ec 033d dc13 e6be ba17 babd
000002e0: 5005 cd3b d4fb a3be 9421 21be 132a 53bf
000002f0: b866 0dbc fcb6 afbe d1b0 30be 59fc 2dbf
00000300: 583a f0bc ec57 bc3c 2c96 1abf 56de bfbe
00000310: 115f 0ebd fd6a f73d 4e18 363e e322 ddbc
00000320: 7927 91bf 09f8 dcbd 1b65 aabe 9c44 83be
00000330: a515 24bf e4eb 94be a8de 473c ca82 8fbb
00000340: feca 86bf 58a4 873f e09b 813b b4a6 f53e
00000350: 96ca 883e c9a8 0abe b70e 993e f03a 8e3e
00000360: 6c65 69be c645 4f3d c667 05bf f837 e9bc
00000370: 22ef 3b3d b393 8bbe 91c6 8dbe 50ab c2bf
00000380: 0e62 b2bf 102b 36be 3ce8 023d 0bcc 2cbe
00000390: acf0 a9bc 5935 69be e530 e9bd 963e aabe
000003a0: b10e 24be f812 52bf fcdf afbe f6ef 343e
000003b0: 960b 20bd c920 f73c 34e2 a73c 78d7 32bf
000003c0: 87e1 04bf 7220 9cbf f037 67be 5503 263f
000003d0: d480 95bf f41c a03d fd15 04be 2080 393e
000003e0: 09d9 be3e 1173 cbbe 1228 5b3f 2272 88be
000003f0: 595e 163f 4cee e0bd b6f8 8fbf 1b57 393e
-0.10639587 0.053405724 0.043611728 -0.28339842 0.00066704303 -0.06211669 0.07549768 -0.43101272
-0.19795097 0.060030393 0.18463819 -0.05552741 0.52873677 -0.57586396 -0.021601515 -0.4195234
-0.7900948 0.036190566 0.07606946 0.09663502 0.08522846 -0.05882916 -0.3004302 -0.32265645
-0.31924707 -0.3534793 -0.017377436 -0.2829392 0.052979507 0.9547102 0.17489524 0.0350957
0.35596287 0.03273056 0.5207928 -0.31835553 0.06149131 -0.080421016 -0.6974435 0.03295836
-0.9296322 -0.24922523 -0.3537 -0.01570388 -0.022167739 0.06475861 -0.0101491185 0.13413392
-0.07535875 -0.6851816 0.13554846 -0.05337114 -0.7190769 0.02693954 0.0045950785 0.08655041
-0.06935839 -0.051168635 -0.29245418 -0.0438246 -0.43225235 0.3674399 -1.2711524 -0.35794377
0.00042510786 0.21205829 0.008712821 0.20820764 0.06329241 0.079320826 -0.11336748 -0.031266555
-0.46101293 -0.0183326 -0.08708693 0.05329603 0.0071714297 -0.27622974 -0.84112054 0.3566856
-0.71110666 -2.260806 0.071431264 -0.18397884 0.023098834 -0.62097794 0.27549446 -0.36147237
-0.008835427 0.2189915 -0.18483588 -0.19086872 0.050927408 0.037934534 -0.43084973 -0.0001479902
-0.9462165 -0.3789092 -1.8483527 -0.17410809 -0.004156972 0.053031474 -0.48210517 -0.7095602
-0.5504768 0.006164491 0.029466325 -0.13677734 0.048687488 -2.2108352 -0.025714003 -0.0051074093
-0.044252463 0.051298805 -0.74902374 0.009159595 -0.1408942 0.004445077 -0.3137628 -1.0979072
0.39304087 -0.4672038 -0.12613015 -0.93124396 -0.3394598 0.15414834 -0.016064301 -0.59781325
-0.17701036 -0.05694849 -0.35081002 -1.4914117 0.030320128 -0.10098618 0.08513261 -0.089238375
-0.6193315 -2.52022 0.28026307 -0.46625265 0.68182284 0.20517758 -0.16019955 0.12461541
-0.03745615 0.033806868 -0.17748366 -0.085832894 -0.021000072 -0.02508621 -1.173576 -0.2889935
-0.19456153 0.052012913 -1.0921576 0.00029764324 -1.895005 -0.053970665 -0.03454452 0.14024368
-0.3247963 0.018711649 -0.7673279 0.8583029 0.055204798 -0.64165974 0.122239605 0.025767073
0.14386357 -0.69422036 -0.016552307 0.07758887 -0.44818404 0.025807075 -0.41932157 -0.027689023
-0.68244624 0.58900636 0.014175467 0.14267133 -0.48517495 0.032207496 -0.44937027 -0.09086557
0.006256737 -0.32028067 -0.15735465 -0.82486075 -0.008630447 -0.34319293 -0.1725495 -0.67963177
-0.029324695 0.022991143 -0.60385394 -0.37474316 -0.03475863 0.12080953 0.17782709 -0.026994174
-1.1340171 -0.107894965 -0.33280262 -0.25638282 -0.64095527 -0.2908622 0.0121990815 -0.004379605
-1.0530698 1.0597029 0.0039553493 0.47978747 0.2671706 -0.13540949 0.2989404 0.2777934
-0.22792596 0.05060365 -0.5211147 -0.02846907 0.04588235 -0.27261123 -0.27690557 -1.520853
-1.3936174 -0.17789865 0.031959757 -0.16874711 -0.020744644 -0.22774257 -0.11386279 -0.33250874
-0.1602123 -0.82060194 -0.34350574 0.17669663 -0.03907355 0.030167 0.020493604 -0.6986003
-0.5190663 -1.2197402 -0.22579932 0.64848834 -1.167994 0.07818022 -0.12899013 0.18115282
0.3727496 -0.39736226 0.8560802 -0.26649576 0.58737713 -0.109829515 -1.1247776 0.18099634

layers.1.bias f4 [256]
00000000: 3f68 47bf be3f 2bbf 79d7 7a3f 0bc3 0ebf
00000010: 7d63 903e c6e1 0fbd c212 73bd 8a1f 4ebf
00000020: 570b 56bf b85e 87be 359d 99be 307b 44bd
00000030: 3dc6 96bd de3b a8bc befb 86bf d29b 1cbf
00000040: 49dd 3e3d 4a3a 55bd ab2f 883d 437f 023d
00000050: 6981 26bd 939f 0b3f c7e6 2b3d ad40 f9bc
00000060: 69ed 3cbd c7c0 f53e dc91 ec3e 2249 583f
00000070: 048d 6bbd a096 37bd 6ded 21bd b5b6 f7be
00000080: 3b46 0bbd a3bb 803f ef2e 20bd 6fbd 4fbf
00000090: de35 82bb 0106 49bd 853f da3e 6cdf 45bf
000000a0: 4be4 5e3b ec2d 72bf 182f 93bd fae5 ad3c
000000b0: d0af c3be 0636 e4be ab67 18be db7e f6be
000000c0: 8db6 073d de48 7bbd cb2a 76bd 853b 61bf
000000d0: e015 28ba 373b 31bf 4f26 a33f f5d7 043f
000000e0: ea26 553c c905 823c 6b12 8dbe 0a70 503f
000000f0: f2eb 14bf 44e1 8cbf d9d5 b1be 236c 063c
00000100: deed 35bf b9ba 813e e057 8f3e 7234 2bbd
00000110: 8e61 643e 68c8 1f3e 8f51 1abd 51c3 223e
00000120: d319 4dbe 021c 4d3f f72c 97bc 2d21 36bf
00000130: c716 09bc d599 87bd ed18 69bd 63d5 ca3e
00000140: 546a 3cb8 e76d b13b 66f7 b53e 10cf 973f
00000150: e2de c43e 8d07 47bf 8974 1bbf 7b9b c8be
00000160: acd4 06bd 04dc a8be e0ba 3ebd a100 613a
00000170: abc3 913b bef7 05be d653 45bd afea 10bf
00000180: 5043 8dbd 44d8 c83d de50 91bd d63a e2bc
00000190: 8a52 663c 6d8e c93c 9e3b 23bd 5ac6 863e
000001a0: 8b8d f3be 9f0a 0a3d 5948 69bf bd4e 35bf
000001b0: 7127 463d dfb0 18bc 336c d8bc 1040 47bf
000001c0: cbcb 913f 988e 403c cdd6 f9be 82db 08bf
000001d0: 8d1b 7bbc 8a5c 94bf 14ba 00bd 7edf 28be
000001e0: e168 8cbc 8b5a 09bf a520 d03f e5fd 2cbf
000001f0: 5610 58be b8da 0dbd 2028 d33e cd84 e5be
00000200: 9200 243f 3455 753c a3a3 c7be e6a7 c63e
00000210: 2f40 10bd 1cce 96bd 50d2 dfbe 0613 3ebd
00000220: 7c9f afbc 5d58 3abd bb8c 32bd 0f84 3dbe
00000230: 1455 b1bd adf3 7e3f 5062 a9be ca5d 01bc
00000240: edb1 183f 3194 85bc 51bb 0b3f 0dbd 98bc
00000250: 7347 72be f42c 0bbd 01c9 1bbd 4cf2 82be
00000260: a15c 2a3c fe18 b03e bd69 8abd 7615 53bf
00000270: f720 82bd 4d70 f5bc 631d 1b3e 851d c4ba
00000280: f367 2abd 368d 593e c2c4 9ebd 8b23 8fbf
00000290: 97b9 28bf d249 b1bd a819 5cbd 2aa5 9ebe
000002a0: b125 293f 645f bfbe ee64 df3e 90da e13b
000002b0: fa2b 50bd 72f4 53bd 5464 35bf dd76 26bc
000002c0: ef00 3a3e 518f 34bd 89ce 98ba 170e 703e
000002d0: 4993 0f3d b90c 08bc c4a6 41bd f487 54bd
000002e0: 8e9f 6abd 69a6 bcbe 0fec 373e 51ef 71bf
000002f0: a790 403e 8b08 07bf a85c b93d ac70 48bf
00000300: 46e8 81bc c77a c23e 838d b33e 6442 983a
00000310: 1ece a0bd 570a 4b3e b993 f4be 835c 063f
00000320: 469d 2dbf 3218 07bd 034f 93bc 9a7b aabd
00000330: 8e0c 90bd 111d 38bd 6ba8 683e 8a22 f9be
00000340: d10b 08be 267f aabc 705e 7c3f 415a 133e
00000350: 87bb 50bd c77d 653f 714a f1bc 9dc6 64bc
00000360: b5f0 8abf 3cad adbd 44aa 3e3f 6a10 8bbe
00000370: 8bc7 083f 1084 a9be eb72 21bd 9dea fdbc
00000380: 24b8 de3c bf66 be3e e343 0dbe 81df 06bf
00000390: 0e3d a8bc 73c1 813e 584a d33e 6d36 d4bc
000003a0: 480e 3bbd 7f7e 7ebd 9015 57bd 2728 423b
000003b0: 8cb1 22bc e348 073e 96c9 21bd ca78 b7bc
000003c0: 122f b4be 145d 66bd 0abc 16be 3df6 e3bd
000003d0: fffc bebd e204 69bd ca61 31bf f795 293f
000003e0: c711 7bbd 7c74 3bbd 2a69 3ebe 5935 92be
000003f0: e2d7 e7be 0170 803c 4a6b 13bf 9a41 3bbf
-0.7789344 -0.6689414 0.97985035 -0.5576636 0.28200904 -0.035127424 -0.05934406 -0.80516875
-0.83611053 -0.26439452 -0.30002752 -0.047969043 -0.0736203 -0.02053636 -1.0545576 -0.6117526
0.046597753 -0.052057542 0.06649717 0.031859647 -0.04065076 0.54540366 0.041968133 -0.030426348
-0.04612485 0.4799864 0.46205032 0.8448659 -0.05750753 -0.04482138 -0.039533067 -0.48381582
-0.034002524 1.0057262 -0.03910726 -0.8114843 -0.0039737066 -0.04907799 0.42626587 -0.7729404
0.0034010585 -0.9460132 -0.07186717 0.021227825 -0.38220072 -0.44572467 -0.14883296 -0.48143658
0.03313308 -0.06134879 -0.060099404 -0.87981445 -0.0006411951 -0.6923098 1.2746066 0.51892024
0.013009766 0.0158719 -0.27553114 0.8142096 -0.58172524 -1.1006246 -0.34733465 0.008204493
-0.7106608 0.2533777 0.2799673 -0.041798063 0.22302839 0.15603793 -0.037675437 0.1589482
-0.20029382 0.8012086 -0.018454058 -0.7114437 -0.008367247 -0.06621138 -0.056908537 0.39615926
-4.492172e-05 0.0054147127 0.35540313 1.1860065 0.38451296 -0.77745897 -0.60724694 -0.39181122
-0.032917663 -0.3298036 -0.046564937 0.00085831626 0.0044483743 -0.13082787 -0.048175655 -0.566081
-0.068976045 0.098068744 -0.07095502 -0.027615946 0.014057765 0.024604047 -0.039851777 0.26323205
-0.47568926 0.033701535 -0.9112602 -0.7082327 0.048377458 -0.009319513 -0.02641878 -0.77832127
1.1390318 0.011752747 -0.48796692 -0.5345994 -0.015326393 -1.1590741 -0.031427458 -0.16491506
-0.017139854 -0.5365378 1.6259962 -0.6757491 -0.21099982 -0.034632415 0.4124155 -0.4482788
0.6406337 0.014973927 -0.38992032 0.3879997 -0.03521746 -0.07363531 -0.43715143 -0.04640486
-0.021438353 -0.045494426 -0.043591242 -0.18507408 -0.086588055 0.9959057 -0.3308282 -0.007895896
0.59646493 -0.016306015 0.545827 -0.018644834 -0.23660068 -0.033978418 -0.03803349 -0.25575483
0.010398061 0.34394068 -0.06758449 -0.8245462 -0.06353944 -0.029960776 0.15147929 -0.0014962411
-0.04160304 0.21245274 -0.07752372 -1.1182722 -0.6590819 -0.08656658 -0.053735405 -0.30985385
0.6607314 -0.37377465 0.4363169 0.0068925098 -0.05082319 -0.051746793 -0.70856214 -0.010160175
0.18164419 -0.04408199 -0.0011658232 0.23442875 0.03505257 -0.008303815 -0.04727818 -0.051887468
-0.05728107 -0.3684571 0.17961143 -0.9450579 0.1880518 -0.5274741 0.09050876 -0.78296924
-0.015857827 0.37984297 0.35068902 0.0011616466 -0.07851814 0.19828163 -0.47768953 0.5248491
-0.67818105 -0.03298206 -0.017982012 -0.083243564 -0.070336446 -0.044949595 0.22720496 -0.48659164
-0.13285758 -0.020812582 0.985816 0.14389898 -0.05096009 0.89645046 -0.029454442 -0.013963369
-1.0854708 -0.084803075 0.74478555 -0.2716096 0.5342948 -0.33108568 -0.039416235 -0.030995661
0.027187414 0.37187764 -0.13795428 -0.5268479 -0.020536926 0.25342903 0.41267657 -0.025904858
-0.045667917 -0.062132355 -0.052510798 0.0029625983 -0.009930026 0.13211398 -0.039498888 -0.022396464
-0.35192162 -0.05624111 -0.14720169 -0.111309506 -0.09325599 -0.056889422 -0.6928984 0.66244453
-0.06129625 -0.045765385 -0.18594804 -0.28556326 -0.45281893 0.015678408 -0.57585585 -0.73146975

predict.weight f4 [5, 256]
00000000: ffeb 843f c499 563f 9361 e5bf 0deb c33e
00000010: 2d0f 603f b7f1 11bd c4f6 03bd 8e5a 253f
00000020: cace db3e b126 0f3c ac71 7b3d 7c30 35bb
00000030: 391d 50bc 69f8 8fbc cad6 d2be a385 203e
00000040: c999 c3bf b849 353c 1fff 333e e990 f0bc
00000050: 8381 eabc 51a0 353b c575 db3b 62bb 353d
00000060: 6b27 85bd 2096 783f 4f66 ff3c 9854 a9bf
00000070: 549e 51bd 3e79 13bd db19 b43c 1628 553f
00000080: e135 00bf 0b5b bebf 8e56 183a f33d 0c3f
00000090: bfa0 6c3c a02b 7b3b 0201 a7bf 00f0 043f
000000a0: a905 cf3c 6832 a33f dfd7 703c 27e7 02bf
000000b0: 3b52 86bd c6a5 c83e 4bc3 c13e f55e bbbc
000000c0: faf5 ccbc eeed a73c d92e 44bc 0ab7 8e3f
000000d0: afb6 96bb dbe1 333f d45d 93bf 8e93 a4be
000000e0: 618f 5cbd 87b1 3abd 8bfc 273f f4dc 0c3f
000000f0: 2615 163f b03f 2ebe 59a1 b9be a1af 903b
00000100: d262 02bf 8eaf 71be b7b4 11bc feb2 403b
00000110: b027 c63e 9d6a 49c0 0800 4c3c 05a9 b93e
00000120: cf9e 01bf ce67 25bf 4320 57be 0fe6 bb3f
00000130: 7956 043f 3a54 d8bc 0e4f ae3d 3c6d 8ebf
00000140: 89a9 053d 0a3a ef3c db1e c0be 16bf d6bf
00000150: 98e9 60be e311 aa3e 7320 a2be 7a0b aabd
00000160: 7a2e 2c3d 74a0 563e 108f ee3c 78b8 a73c
00000170: d5b1 a7bc 26b2 3b3f 3b05 28bd 7cb8 58be
00000180: 09ea 3ebd 3a8d 41be 3fd9 333e 0a47 41bd
00000190: 53bf b5bc 432e 023d 512c 203d 5f0c 31bd
000001a0: f078 973e 2fdb 843c 281a be3e 186c c73e
000001b0: 4ac3 583c 1c74 df3c 8e5c 2d3f b219 6d3e
000001c0: 0151 a8bf c39e 23bd 390d d5bd d20d ac3e
000001d0: 6854 0c3b 029b a63e 6a81 d8bc 75ea 0fbf
000001e0: d7f2 89bc a876 14bf 452a 19c0 31f5 313f
000001f0: ce87 163e 605a c5bc dbc7 163e cc02 9e3c
00000200: bfc4 63bf 6a08 b8bc bb41 113f ba65 30be
00000210: 5614 0fbc 7fd5 82ba 7c53 37bd 1f38 21bc
00000220: 5a4b f2bc 7c54 fd3b b943 e5bc e887 173f
00000230: 135b c23f 1634 3dbf 751e 373f a61b 8b3c
00000240: e426 8a3d 1841 3fbd 529c d1be 6939 383d
00000250: e4b9 3f3e 5a40 ee3e 4ab8 2c3c e07a 433f
00000260: 7c4e 16bd 5ff1 6abd d000 a3bb 718b be3f
00000270: ae06 123d d811 b2bc a85c 803e 8c19 82bc
00000280: a8b3 aa3c a1bb e1bf 795e 62bc 1d34 563e
00000290: 930b a9bd 9bec c13c 8d94 93bc 0fa7 3b3f
000002a0: 56ef 31bf bff6 3cbf bfe1 8cbc a4b3 dd3c
000002b0: c37c 013c 180d b8bb 49b5 2b3f f563 d9ba
000002c0: 390f 33bf 7ad8 123d a435 8abc 180d 4c3f
000002d0: 75a2 823b 90fa 81bc 167c 42bd 8ab0 363d
000002e0: 7a78 3f3d c04b abbe 8c24 e73d c368 46bd
000002f0: a32c adbf ec22 d13e 03d4 4bbf 4a42 a23e
00000300: 8e65 013c f5df c3be 7a1a 6d3e 9be0 3c3d
00000310: aee0 ac3c 557b fcbf 2668 b83f 0d8e c23f
00000320: c4fe dfbe 4c7b 64bd 2c66 babc 1a33 2dbc
00000330: 18c5 41bd c133 2ebd 9e61 433f c923 853e
00000340: 1ae9 b2bd 933e 1f3d dde6 85be 354d f2bf
00000350: 880a ed3b 55ee 9e3f 8801 113c 0232 c93b
00000360: 5c8a 30be 6541 d53c ab24 bdbf 8420 c3bd
00000370: 5c7c 1cc0 9dc3 00bf 43df 7abd 4f81 703d
00000380: 92d8 9cbb 38f6 5cbd a948 373f 480b 9abe
00000390: 986a c8bc dbf6 03bf 97ee 5f3d d15c bc3c
000003a0: 342b 153d ef3e a4bc 3518 3abd e454 4d3c
000003b0: 143f 643c dc53 26c0 6cbc 2b3d 5e73 043d
000003c0: 6efa b0bd 10bc 5ebd 752f 0ebf b845 7d3f
000003d0: a059 b6bf 54c8 113d 9f54 1dc0 984d 9bbd
000003e0: fe27 d0bb 6e92 c33d ae03 163c fb1e 043e
000003f0: c831 c8bf 9190 05be 7376 f13c 1f7a 023e
1.038452 0.8382838 -1.7920402 0.38265267 0.87523156 -0.035630908 -0.032217756 0.645913
0.42931205 0.008737252 0.061387703 -0.0027647307 -0.01270228 -0.017574506 -0.41179496 0.15675978
-1.5281307 0.011064939 0.1757779 -0.029365974 -0.02862621 0.0027713964 0.006697389 0.044368155
-0.06501659 0.9710407 0.031176714 -1.3228941 -0.051176384 -0.036004297 0.021984985 0.8326429
-0.5008221 -1.4871534 0.00058112375 0.54782027 0.014442622 0.0038325563 -1.3047183 0.5192871
0.025271254 1.2749758 0.014699905 -0.5113396 -0.06558653 0.39188975 0.3784431 -0.022872427
-0.025019635 0.020499196 -0.01197406 1.1149609 -0.0045994143 0.70266503 -1.1513009 -0.32143825
-0.053847674 -0.04557946 0.65619725 0.5502465 0.5862602 -0.17016482 -0.3625591 0.004415468
-0.5093204 -0.23602125 -0.008893183 0.0029403563 0.38702154 -3.1471322 0.012451179 0.36261764
-0.5063295 -0.6461152 -0.210084 1.4679583 0.51694447 -0.02640735 0.08511172 -1.1127086
0.032632384 0.02920248 -0.3752354 -1.6777065 -0.21964109 0.3321677 -0.31665382 -0.0830297
0.04203651 0.20959646 0.029120952 0.020473704 -0.02047054 0.7331871 -0.041020613 -0.21164125
-0.046609912 -0.1890153 0.17563342 -0.04718689 -0.022185957 0.0317824 0.039104763 -0.04322469
0.29584455 0.016217796 0.3712933 0.38949656 0.013230154 0.027277045 0.6771935 0.23154333
-1.314972 -0.03994633 -0.10402913 0.33604294 0.0021412615 0.32540137 -0.026428897 -0.5621713
-0.016839428 -0.57993555 -2.393205 0.6951476 0.14700243 -0.024090946 0.14724676 0.019288443
-0.88972086 -0.02246495 0.5674092 -0.17226306 -0.008732876 -0.000998184 -0.04475735 -0.0098400405
-0.029576946 0.0077310186 -0.027986394 0.5919175 1.5184044 -0.739076 0.7153085 0.016980957
0.06745699 -0.046692938 -0.40939575 0.044976626 0.18723255 0.4653347 0.010541985 0.7635937
-0.036695942 -0.057359096 -0.004974462 1.4886304 0.0356509 -0.021737024 0.2507069 -0.015881322
0.02083762 -1.7635385 -0.013816469 0.20918317 -0.08254161 0.023672393 -0.01801517 0.73301786
-0.6950582 -0.73814005 -0.017197488 0.027063198 0.007903281 -0.0056167953 0.67073494 -0.0016585576
-0.699451 0.03585098 -0.016871281 0.7970748 0.0039866515 -0.015866548 -0.04748162 0.044601955
0.046745755 -0.3345623 0.11286268 -0.048439752 -1.3529247 0.40846956 -0.7962038 0.316912
0.007897748 -0.38256803 0.23154631 0.046112638 0.02110323 -1.9725138 1.4406784 1.51996
-0.43749058 -0.055781648 -0.022753797 -0.010571266 -0.047307104 -0.042529825 0.76320827 0.26003864
-0.08735867 0.038878035 -0.26152697 -1.8929812 0.0072339214 1.2416483 0.008850463 0.0061399946
-0.1724028 0.02603216 -1.4776815 -0.09527686 -2.4450903 -0.5029848 -0.061248075 0.05871707
-0.0047865594 -0.05394575 0.71595246 -0.30086732 -0.02446489 -0.51548547 0.054670896 0.022993477
0.036418155 -0.02004954 -0.045433242 0.0125324465 0.013931055 -2.5988684 0.04192774 0.032336585
-0.08641516 -0.05437857 -0.55541164 0.9893451 -1.4246101 0.03559144 -2.4582899 -0.07583159
-0.0063524237 0.095494136 0.009156151 0.12902443 -1.5640192 -0.13043429 0.029475426 0.12741898

predict.bias f4 [5]
00000000: ef18 36bf b1a1 9dbe 8424 2cbf 3cb5 12bf
00000010: bc76 31bf
-0.71131796 -0.30787423 -0.6724322 -0.5730779 -0.693218

exp_avg f4 [256, 25]
00000000: 6c6b 3fbd 2fdd 49bd 8af6 f1bc 5ff5 b4bc
00000010: 7cab 4bb9 6c6b 3fbd 80e4 a53b 50f0 fc3c
00000020: 7b81 473c b076 0539 6c6b 3fbd ee19 bc3a
00000030: ea26 ef3c 8292 133c 74c4 c8b8 6c6b 3fbd
00000040: bdcb c3bb ae52 34bc 6fda 2e3c c0d3 5739
00000050: 6c6b 3fbd 18a9 59bc 80e1 1d3d 3e87 2f3c
00000060: 6e93 b838 0000 0000 0000 0000 0000 0000
00000070: 0000 0000 0000 0000 0000 0000 0000 0000
00000080: 0000 0000 0000 0000 0000 0000 0000 0000
00000090: 0000 0000 0000 0000 0000 0000 0000 0000
000000a0: 0000 0000 0000 0000 0000 0000 0000 0000
000000b0: 0000 0000 0000 0000 0000 0000 0000 0000
000000c0: 0000 0000 0000 0000 0000 0000 0000 0000
000000d0: 0000 0000 0000 0000 0000 0000 0000 0000
000000e0: 0000 0000 0000 0000 0000 0000 0000 0000
000000f0: 0000 0000 0000 0000 0000 0000 0000 0000
00000100: 0000 0000 0000 0000 0000 0000 0000 0000
00000110: 0000 0000 0000 0000 0000 0000 0000 0000
00000120: 0000 0000 0000 0000 0000 0000 05d6 76bc
00000130: aabb 8abc e49e 883b 0652 89bc 8159 95ba
00000140: 05d6 76bc 0c8f 1cbb 318a 87bd 1fb7 57bb
00000150: 441b c93a 05d6 76bc 864e 5fbc ecae 55bd
00000160: 8014 0039 7780 953a 05d6 76bc 6310 9ebb
00000170: c881 5c3d 3a69 cbbb 37c3 933a 05d6 76bc
00000180: 6aad 60bc 7935 8abd 2cf0 00bb 3c31 7a3a
00000190: 0000 0000 0000 0000 0000 0000 0000 0000
000001a0: 0000 0000 0000 0000 0000 0000 0000 0000
000001b0: 0000 0000 0000 0000 0000 0000 0000 0000
000001c0: 0000 0000 0000 0000 0000 0000 0000 0000
000001d0: 0000 0000 0000 0000 0000 0000 0000 0000
000001e0: 0000 0000 0000 0000 0000 0000 0000 0000
000001f0: 0000 0000 0000 0000 0000 0000 0000 0000
00000200: 0000 0000 0000 0000 0000 0000 0000 0000
00000210: 0000 0000 0000 0000 0000 0000 0000 0000
00000220: 0000 0000 0000 0000 0000 0000 0000 0000
00000230: 0000 0000 0000 0000 0000 0000 0000 0000
00000240: 0000 0000 0000 0000 0000 0000 0000 0000
00000250: 0000 0000 0000 0000 760f 1502 760f 1502
00000260: 2576 1702 4146 1002 3112 1b82 760f 1502
00000270: 74bc 1d82 bf55 1e82 ced2 1382 3112 1b02
00000280: 760f 1502 9f3a 1d82 2576 1782 68d2 1e82
00000290: 3112 1b02 760f 1502 49e3 1902 2576 1782
000002a0: 9c27 1682 3112 1b02 760f 1502 b530 1e02
000002b0: 8a8a 1b82 fe07 1482 3112 1b02 38d4 e9bd
000002c0: a284 eabd 867e 873b 455f 17bd aa82 8938
000002d0: 38d4 e9bd ec8b 363b b1f3 4cbd c0e1 1e3c
000002e0: 66a2 ee39 38d4 e9bd ca98 92bc e2e3 83bd
000002f0: 2d8c 093c b8ce 62b8 38d4 e9bd 1875 e8bc
00000300: f6e3 c43c f8a2 f13b 1e39 83b8 38d4 e9bd
00000310: 3d5d 09bd 7649 53bd 9537 0c3c 145b 9339
00000320: 9e93 7fbc 2232 62bc f31d 813c 8806 a0bb
00000330: 9428 bd39 9e93 7fbc d232 c3bb ada7 3fbd
00000340: 9c12 b23a b8ae 30ba 9e93 7fbc 4552 33bb
00000350: 2544 e6bc 026d c03b ae61 b2b9 9e93 7fbc
00000360: cfaa 5dbc ced5 3fbd c608 913b 74e7 beb9
00000370: 9e93 7fbc 7da9 adbc 6c6a 07bb 70f4 70b9
00000380: 1100 01ba 0000 0000 0000 0000 0000 0000
00000390: 0000 0000 0000 0000 0000 0000 0000 0000
000003a0: 0000 0000 0000 0000 0000 0000 0000 0000
000003b0: 0000 0000 0000 0000 0000 0000 0000 0000
000003c0: 0000 0000 0000 0000 0000 0000 0000 0000
000003d0: 0000 0000 0000 0000 0000 0000 0000 0000
000003e0: 0000 0000 0000 0000 7a00 f1bd cb54 e7bd
000003f0: 92af b3bd 2242 45bd 9e33 b63a 7a00 f1bd
-0.046733305 -0.049283203 -0.029536504 -0.022089658 -0.00019423472 -0.046733305 0.0050626397 0.030876309
0.012176867 0.00012728083 -0.046733305 0.0014350989 0.02919336 0.009007098 -9.5733354e-05 -0.046733305
-0.005975215 -0.0110060405 0.010672196 0.00020582881 -0.046733305 -0.013284944 0.03854513 0.010713397
8.8012646e-05 0.0 0.0 0.0 0.0 0.0 0.0 0.0
0.0 0.0 0.0 0.0 0.0 0.0 0.0 0.0
0.0 0.0 0.0 0.0 0.0 0.0 0.0 0.0
0.0 0.0 0.0 0.0 0.0 0.0 0.0 0.0
0.0 0.0 0.0 0.0 0.0 0.0 0.0 0.0
0.0 0.0 0.0 0.0 0.0 0.0 0.0 0.0
0.0 0.0 0.0 -0.015065675 -0.016935188 0.004169332 -0.016762745 -0.0011394472
-0.015065675 -0.0023888974 -0.06618155 -0.0032915545 0.0015343209 -0.015065675 -0.013629561 -0.05216877
0.00012214668 0.0011406083 -0.015065675 -0.004823731 0.053834707 -0.0062076123 0.0011273389 -0.015065675
-0.01371322 -0.0674848 -0.0019674404 0.00095440797 0.0 0.0 0.0 0.0
0.0 0.0 0.0 0.0 0.0 0.0 0.0 0.0
0.0 0.0 0.0 0.0 0.0 0.0 0.0 0.0
0.0 0.0 0.0 0.0 0.0 0.0 0.0 0.0
0.0 0.0 0.0 0.0 0.0 0.0 0.0 0.0
0.0 0.0 0.0 0.0 0.0 0.0 0.0 0.0
0.0 0.0 0.0 0.0 0.0 0.0 1.0951228e-37 1.0951228e-37
1.1127634e-37 1.0599611e-37 -1.1392822e-37 1.0951228e-37 -1.1588622e-37 -1.1632615e-37 -1.0860352e-37 1.1392822e-37
1.0951228e-37 -1.1551362e-37 -1.1127634e-37 -1.166839e-37 1.1392822e-37 1.0951228e-37 1.1305892e-37 -1.1127634e-37
-1.1031627e-37 1.1392822e-37 1.0951228e-37 1.1621985e-37 -1.142736e-37 -1.0875616e-37 1.1392822e-37 -0.11417431
-0.11451079 0.004134956 -0.03695609 6.557007e-05 -0.11417431 0.0027854396 -0.05003709 0.009697378
0.00045515894 -0.11417431 -0.017895121 -0.064399496 0.008395237 -5.407512e-05 -0.11417431 -0.028376147
0.024034481 0.0073741637 -6.257206e-05 -0.11417431 -0.033536185 -0.05158373 0.008558174 0.00028105883
-0.0155991595 -0.013805898 0.015761351 -0.004883591 0.00036079122 -0.0155991595 -0.005956986 -0.046790767
0.0013585868 -0.00067399023 -0.0155991595 -0.002736227 -0.028108666 0.0058723697 -0.00034023583 -0.0155991595
-0.0135294935 -0.04683476 0.0044260947 -0.0003641207 -0.0155991595 -0.021198982 -0.0020662798 -0.00022979244
-0.00049209694 0.0 0.0 0.0 0.0 0.0 0.0 0.0
0.0 0.0 0.0 0.0 0.0 0.0 0.0 0.0
0.0 0.0 0.0 0.0 0.0 0.0 0.0 0.0
0.0 0.0 -0.11767669 -0.1129547 -0.08773722 -0.048158772 0.0013900881 -0.11767669

exp_avg_sq f4 [256, 25]
00000000: 3de1 fa3d 3ccb f73d 5327 663d 2e07 a73c
00000010: d910 8d36 3de1 fa3d 4cc7 103a 52f4 af3c
00000020: df91 d73a eeea a036 3de1 fa3d e776 123b
00000030: 4bdb db3c 1642 de3a 5255 a236 3de1 fa3d
00000040: 695a 1c3c 9cd6 d03c 80ea de3a 3d17 9436
00000050: 3de1 fa3d a390 b83c 4d8b c73c 91be d43a
00000060: 5077 ba36 0000 0000 0000 0000 0000 0000
00000070: 0000 0000 0000 0000 0000 0000 0000 0000
00000080: 0000 0000 0000 0000 0000 0000 0000 0000
00000090: 0000 0000 0000 0000 0000 0000 0000 0000
000000a0: 0000 0000 0000 0000 0000 0000 0000 0000
000000b0: 0000 0000 0000 0000 0000 0000 0000 0000
000000c0: 0000 0000 0000 0000 0000 0000 0000 0000
000000d0: 0000 0000 0000 0000 0000 0000 0000 0000
000000e0: 0000 0000 0000 0000 0000 0000 0000 0000
000000f0: 0000 0000 0000 0000 0000 0000 0000 0000
00000100: 0000 0000 0000 0000 0000 0000 0000 0000
00000110: 0000 0000 0000 0000 0000 0000 0000 0000
00000120: 0000 0000 0000 0000 0000 0000 67a7 b73e
00000130: c4cb b63e 6634 8b3d 864a 823d ad3c 6237
00000140: 67a7 b73e 4cf7 883a 3997 b43d 4855 813b
00000150: 2357 0538 67a7 b73e f8d2 0b3c c64e 213d
00000160: 04c3 a73b 6f50 8337 67a7 b73e dac9 073d
00000170: fe5e 7c3d ad01 913b fb63 7537 67a7 b73e
00000180: 7e85 983d b4b7 903d ad0d 9a3b 3e5e 0d38
00000190: 0000 0000 0000 0000 0000 0000 0000 0000
000001a0: 0000 0000 0000 0000 0000 0000 0000 0000
000001b0: 0000 0000 0000 0000 0000 0000 0000 0000
000001c0: 0000 0000 0000 0000 0000 0000 0000 0000
000001d0: 0000 0000 0000 0000 0000 0000 0000 0000
000001e0: 0000 0000 0000 0000 0000 0000 0000 0000
000001f0: 0000 0000 0000 0000 0000 0000 0000 0000
00000200: 0000 0000 0000 0000 0000 0000 0000 0000
00000210: 0000 0000 0000 0000 0000 0000 0000 0000
00000220: 0000 0000 0000 0000 0000 0000 0000 0000
00000230: 0000 0000 0000 0000 0000 0000 0000 0000
00000240: 0000 0000 0000 0000 0000 0000 0000 0000
00000250: 0000 0000 0000 0000 5e5f f30c 5e5f f30c
00000260: e1ea 810c 51ea 7b0c 3415 4204 5e5f f30c
00000270: c782 4908 21ac 5e0c 3892 5d0b d15a 9705
00000280: 5e5f f30c ad45 2009 dddb 800c 198f 0d0b
00000290: d128 9b05 5e5f f30c ef2d aa0a 4eeb 410b
000002a0: 1147 220b 506f 9e05 5e5f f30c 2b8e 220c
000002b0: 0cd7 500c 6244 690b cf4b 6704 a0cf 193e
000002c0: a8aa 193e 8135 293c 3c2c 013d de36 2036
000002d0: a0cf 193e 6933 8739 747b 693d 02ff 503b
000002e0: db78 ef36 a0cf 193e c9cf f93a 5246 e03c
000002f0: 71cc 553b a71f 7e36 a0cf 193e 09bd 253c
00000300: 8c74 263c e303 373b 3dd3 8336 a0cf 193e
00000310: bbe1 dc3c 49a8 6b3d 6a5a 623b 100e 8a36
00000320: 65f5 223e fe72 223e f1b8 1f3d f465 eb3c
00000330: 6050 5536 65f5 223e 72cb c739 e789 4e3d
00000340: 1ae7 393b ca00 cb36 65f5 223e fac7 2c3b
00000350: 6657 af3c 86c3 743b 36e5 7c36 65f5 223e
00000360: d35d 673c fd36 c03c a904 573b 329a d536
00000370: 65f5 223e 61e2 f33c 3bb5 263d ca39 5a3b
00000380: a15f 0e38 0000 0000 0000 0000 0000 0000
00000390: 0000 0000 0000 0000 0000 0000 0000 0000
000003a0: 0000 0000 0000 0000 0000 0000 0000 0000
000003b0: 0000 0000 0000 0000 0000 0000 0000 0000
000003c0: 0000 0000 0000 0000 0000 0000 0000 0000
000003d0: 0000 0000 0000 0000 0000 0000 0000 0000
000003e0: 0000 0000 0000 0000 3273 003f 7979 ff3e
000003f0: 18a0 303e 6c99 e53d fc40 8537 3273 003f
0.12249992 0.12099311 0.056189846 0.020389166 4.204089e-06 0.12249992 0.00055228616 0.021478806
0.0016446671 4.795721e-06 0.12249992 0.0022348703 0.026837965 0.0016956951 4.837909e-06 0.12249992
0.00954304 0.025492959 0.0017007142 4.413449e-06 0.12249992 0.022529906 0.024358416 0.001623111
5.5571218e-06 0.0 0.0 0.0 0.0 0.0 0.0 0.0
0.0 0.0 0.0 0.0 0.0 0.0 0.0 0.0
0.0 0.0 0.0 0.0 0.0 0.0 0.0 0.0
0.0 0.0 0.0 0.0 0.0 0.0 0.0 0.0
0.0 0.0 0.0 0.0 0.0 0.0 0.0 0.0
0.0 0.0 0.0 0.0 0.0 0.0 0.0 0.0
0.0 0.0 0.0 0.35869905 0.35702336 0.067971036 0.063618705 1.3484777e-05
0.35869905 0.0010449677 0.08817906 0.003946934 3.1790823e-05 0.35869905 0.008534186 0.039381765
0.005119683 1.5653872e-05 0.35869905 0.033151485 0.06161403 0.0044252486 1.46264165e-05 0.35869905
0.074473366 0.070662886 0.0047013373 3.370479e-05 0.0 0.0 0.0 0.0
0.0 0.0 0.0 0.0 0.0 0.0 0.0 0.0
0.0 0.0 0.0 0.0 0.0 0.0 0.0 0.0
0.0 0.0 0.0 0.0 0.0 0.0 0.0 0.0
0.0 0.0 0.0 0.0 0.0 0.0 0.0 0.0
0.0 0.0 0.0 0.0 0.0 0.0 0.0 0.0
0.0 0.0 0.0 0.0 0.0 0.0 3.7497475e-31 3.7497475e-31
2.001696e-31 1.9406849e-31 2.2814326e-36 3.7497475e-31 6.0639965e-34 1.7154056e-31 4.2673055e-32 1.4233332e-35
3.7497475e-31 1.929206e-33 1.9853848e-31 2.7263267e-32 1.4591124e-35 3.7497475e-31 1.6387683e-32 3.7347471e-32
3.125353e-32 1.4899138e-35 3.7497475e-31 1.2522808e-31 1.608845e-31 4.4925613e-32 2.7188729e-36 0.15020609
0.15006506 0.010327698 0.031536326 2.3873795e-06 0.15020609 0.0002578751 0.0570025 0.0031890278
7.1368245e-06 0.15020609 0.0019059117 0.027377281 0.0032623077 3.7867374e-06 0.15020609 0.01011587
0.010159623 0.00279259 3.9286956e-06 0.15020609 0.026963105 0.057533536 0.0034538754 4.1143576e-06
0.15913923 0.15864179 0.038994733 0.028735138 3.1786258e-06 0.15913923 0.00038107816 0.050424483
0.0028366507 6.0499633e-06 0.15913923 0.0026364313 0.02140398 0.0037347986 3.7684345e-06 0.15913923
0.0141214905 0.02346372 0.0032809174 6.3658454e-06 0.15913923 0.029771032 0.04070018 0.0033298605
3.39445e-05 0.0 0.0 0.0 0.0 0.0 0.0 0.0
0.0 0.0 0.0 0.0 0.0 0.0 0.0 0.0
0.0 0.0 0.0 0.0 0.0 0.0 0.0 0.0
0.0 0.0 0.50175774 0.49897364 0.17248571 0.112109035 1.5885096e-05 0.50175774

exp_avg f4 [256]
00000000: 6c6b 3fbd 0000 0000 0000 0000 0cd6 76bc
00000010: 0000 0000 0000 0000 760f 1502 38d4 e9bd
00000020: 9693 7fbc 0000 0000 7a00 f1bd 0000 0000
00000030: 6d49 61be d35b d13d 08ca 53bc 9606 d13c
00000040: 2417 98bd 5a47 1f02 b8d7 84bd dc5a 59bc
00000050: 0e40 32bc 0000 0000 939b 56bd 75de 1c02
00000060: d2ac 4cbc 4695 61bd 0000 0000 7a85 2c3e
00000070: 0000 0000 2b2d c6bd ee61 efbd 0000 0000
00000080: f1b6 06be d5a5 0dbd 66b2 36bd eeaf e93d
00000090: 0000 0000 0271 973d f87d 76bd 0000 0000
000000a0: 706f 263b cf45 1f02 ec4b e43c 0000 0000
000000b0: c656 1602 0078 62bd aa09 d43d 930b a5bd
000000c0: 92aa 1102 2b90 23be d38e cebd 0000 0000
000000d0: f155 e63d 84d5 6f3d 0000 0000 3425 673c
000000e0: 00a5 6cbd 0000 0000 7928 443d 0000 0000
000000f0: b0b7 ad3c 222b 43bd 8b0f 873d de82 cb3c
00000100: f0b6 1a02 3e4b 85bd 0000 0000 7cc7 a6bc
00000110: db80 103c e8a9 2abd 6252 1a3c 9d67 1302
00000120: f1ea 8e3d 0000 0000 428d 30be 0000 0000
00000130: 0000 0000 2486 19bd 06aa 333e d217 41bd
00000140: 978a 583e ce7a 533e 8c06 1502 bd75 173d
00000150: 0000 0000 a0f2 4a3b f28d 44bd 6cb6 313e
00000160: 0000 0000 48e3 0ebe 081b d23c c891 1802
00000170: 0000 0000 0000 0000 12c2 543d fc01 343e
00000180: 740a 1102 a399 e3bc c9df 863e ac38 2ebd
00000190: 7cfc 1a02 0000 0000 e622 b9bc 9d67 1302
000001a0: ebda ae3d 0000 0000 6de9 1802 ca1b f6bd
000001b0: 0000 0000 3838 253e 8c36 1e02 bae9 51bd
000001c0: 0000 0000 0000 0000 9d67 1302 0000 0000
000001d0: ce84 1302 5190 ff3c 4e50 1f02 b116 b13d
000001e0: 2429 ddbc 18e9 b63d 3931 dc3d 0ab1 2d3d
000001f0: 2e18 863d eeb7 bd3c 0000 0000 8511 a0bc
00000200: 06de b9bd 0000 0000 d08e 69bd bc75 3d3e
00000210: 864d 1702 3d8d 55be 9d67 1302 1f76 f13d
00000220: d4ad 1d02 e02e 1d3d c565 8c3b 96de edbc
00000230: d8b5 ab3d f1d6 f0bd da6e b13c 4df4 03be
00000240: 6448 b6bd 0000 0000 2073 863b 90ea 0cbd
00000250: 0000 0000 0000 0000 6c1a 263c ba67 453e
00000260: 5f1f 933d 91ba 1502 ad6d 82bd 0000 0000
00000270: 7c3d 263e 1147 af3d 0000 0000 bf4e 1c02
00000280: 073a 1e3d 7297 1d02 f422 d73d 6454 633b
00000290: 9523 94bd 14aa ae3c 436f 0abd 0000 0000
000002a0: 5518 a83d 3527 1b02 0000 0000 8e3c 38bc
000002b0: 4d0f b13d 0000 0000 849f 113e b8cd 71bc
000002c0: 6a4b 5b3d 791b 05bd 8910 e8bd 925a 98bd
000002d0: a1f0 013e 0000 0000 5b19 913e 708c 7c3c
000002e0: 0000 0000 84ae 5bbd 8678 663d a7c0 1a02
000002f0: 0000 0000 b165 1e02 7e97 f2bc 30ee 963d
00000300: ba33 1e02 0000 0000 dadc cebd 88bc 623c
00000310: 2ddd 1c02 8ba8 a93c a012 ba3b 8614 9cbd
00000320: d1ce 183e 82d4 a33d e6de 1c02 da45 de3c
00000330: 2524 703d ce83 2fbd 0000 0000 13e1 d4bc
00000340: 92ca 8bbd 2e96 a2bd f9f8 1702 da0d 20be
00000350: 61eb 4bbd b91d 123c 7ff7 72bd ba28 b9bd
00000360: 4ba3 1a3c 9a43 5dbe 9637 3fbc 0000 0000
00000370: 0000 0000 7e19 0a3e d4f3 e23d a0fb c03d
00000380: c492 ce3d d8c6 1002 0000 0000 e605 aa3d
00000390: 39e0 14bd 6a12 1cbd 4b57 903d d1a9 d43d
000003a0: 27a0 973c 2cbd 913d 7cbd 253d a2bf f0bc
000003b0: 0000 0000 246b 1002 0000 0000 9599 fa1f
000003c0: 0ce8 a5bd eb89 1b3e 59b6 1d02 7877 2c3c
000003d0: 1cc2 1d02 40fb ef3d 88d3 15be 5c58 97bd
000003e0: 9042 1402 e004 12bc e8e1 67bd 8a73 1c02
000003f0: d9da 1702 1490 f0bd 4407 963b a789 e03c
-0.046733305 0.0 0.0 -0.015065681 0.0 0.0 1.0951228e-37 -0.11417431
-0.015599152 0.0 -0.11767669 0.0 -0.22000666 0.10222592 -0.012926586 0.025515836
-0.07426289 1.1701952e-37 -0.064864576 -0.0132662915 -0.01087953 0.0 -0.05239446 1.1524912e-37
-0.012492375 -0.055074 0.0 0.16847792 0.0 -0.09676584 -0.116886005 0.0
-0.13155724 -0.034581978 -0.044603728 0.11410509 0.0 0.073946014 -0.060178727 0.0
0.0025396012 1.1701509e-37 0.027868234 0.0 1.1045162e-37 -0.055290222 0.10353406 -0.08058848
1.0701869e-37 -0.15972964 -0.10085835 0.0 0.11246861 0.058553234 0.0 0.014107991
-0.057774544 0.0 0.04789016 0.0 0.021205753 -0.047648557 0.065947615 0.024842676
1.1366634e-37 -0.06508492 0.0 -0.020358793 0.008819784 -0.04166594 0.009419056 1.082959e-37
0.06978405 0.0 -0.17241386 0.0 0.0 -0.037481442 0.17545328 -0.047141857
0.21146618 0.20652315 1.094867e-37 0.03697752 0.0 0.003096737 -0.047986932 0.17354745
0.0 -0.13953888 0.025647655 1.1209033e-37 0.0 0.0 0.051942892 0.17578882
1.0655917e-37 -0.02778322 0.2634261 -0.042534515 1.1386593e-37 0.0 -0.022599649 1.082959e-37
0.08537849 0.0 1.1234186e-37 -0.12017019 0.0 0.16134727 1.1623661e-37 -0.05124829
0.0 0.0 1.082959e-37 0.0 1.0837967e-37 0.031196745 1.1704521e-37 0.08646906
-0.026997156 0.08931178 0.10751576 0.042405166 0.06547581 0.023158994 0.0 -0.019539604
-0.09075551 0.0 -0.057020962 0.18501943 1.1115976e-37 -0.2085466 1.082959e-37 0.11790108
1.1584425e-37 0.03837478 0.004284593 -0.029036801 0.08384293 -0.11759747 0.021659303 -0.12886162
-0.08900526 0.0 0.0041030794 -0.034403384 0.0 0.0 0.010138135 0.1927785
0.07183718 1.1000333e-37 -0.06368575 0.0 0.16234392 0.08558477 0.0 1.1483669e-37
0.038629558 1.1578001e-37 0.10504714 0.0034687752 -0.07233349 0.021321334 -0.033797514 0.0
0.08207766 1.1398853e-37 0.0 -0.011244906 0.086454965 0.0 0.14221007 -0.01475852
0.053538717 -0.032496903 -0.11331279 -0.0743915 0.12689449 0.0 0.28339657 0.015414342
0.0 -0.053633228 0.056267284 1.1369422e-37 0.0 1.1637191e-37 -0.029613253 0.073696494
1.1622852e-37 0.0 -0.10100718 0.013838895 1.1524544e-37 0.02071025 0.00567849 -0.07621102
0.14922644 0.07999517 1.1525039e-37 0.027132917 0.05862822 -0.042850308 0.0 -0.02598623
-0.068257466 -0.07938801 1.116518e-37 -0.15630284 -0.04978502 0.008918219 -0.059318062 -0.09040971
0.009438346 -0.21607819 -0.011670968 0.0 0.0 0.13486287 0.11081663 0.09422994
0.10086587 1.0636515e-37 0.0 0.08301906 -0.036346648 -0.0381035 0.070479 0.103839524
0.018508984 0.0711616 0.04046391 -0.029388253 0.0 1.0610197e-37 0.0 1.061332e-19
-0.081009 0.1518933 1.158687e-37 0.01052653 1.1590245e-37 0.11717844 -0.14631474 -0.073899
1.0892425e-37 -0.008912295 -0.056611925 1.1494228e-37 1.1156534e-37 -0.11746231 0.004578503 0.027409388
