highway_ddqn/ddqn_tuned_reward_change/checkpoint-27.tar (torch, 892278 bytes, 18 tensors)

layers.0.weight f4 [256, 25]
0	0xbe5b911a	-0.2144207
1	0x3d9e84d9	0.077401824
2	0x3d805576	0.062663004
3	0xbc83fbe2	-0.016111318
4	0xbcb89ad4	-0.022534765
5	0xbdcf5acd	-0.10124741
6	0x3e513322	0.20429662
7	0xbe620ec8	-0.22075951
8	0x3e03255f	0.12807225
9	0x3d83a229	0.06427414
10	0xbcd5416e	-0.026032176
11	0xb89d6536	-7.5051954e-05
12	0x3debdbd1	0.11516536
13	0xbd331e90	-0.04373032
14	0x3de31460	0.110878706
15	0xbbd36749	-0.0064515215
16	0x3c5db291	0.013531343
17	0xbdce33d0	-0.10068476
18	0x3d338c22	0.043834813
19	0x3dc0700a	0.0939637
20	0x3e0800b8	0.13281524
21	0xbdc3256a	-0.095286205
22	0x3d846c20	0.06465936
23	0x3d166916	0.03672131
24	0xbd9214a1	-0.07132841
25	0xbe0bc46d	-0.13649149
26	0xbe09df23	-0.13464026
27	0xbe2e3f58	-0.17016351
28	0x3d860330	0.06543577
29	0x3bf311cd	0.0074178935
30	0xbdd333ed	-0.103126384
31	0xbd9853ca	-0.074378565
32	0x3e3e6f07	0.18597041
33	0x3d0f4b1a	0.03498373
34	0xbcec2833	-0.028827762
35	0x3d2e8827	0.042610314
36	0x3d6abf87	0.05731156
37	0x3e1c1010	0.15240502
38	0xbd01dcfa	-0.03170488
39	0x3e371d7d	0.17882343
40	0xbe315dc5	-0.17320926
41	0x3d493b40	0.04912877
42	0xbc90c2a7	-0.017670942
43	0x3e2c26e5	0.16811712
44	0xbe13b0a8	-0.14422858
45	0x3a7fb000	0.0009753704
46	0xbc6b8f33	-0.014377403
47	0xbd8a2997	-0.06746214
48	0xbca36600	-0.019946098
49	0xbe0a2473	-0.13490467
50	0xbd11aeda	-0.035567142
51	0xbd1853fa	-0.03718946
52	0x3ccc9bda	0.02497666
53	0xbc12ad9a	-0.008952523
54	0xbddec097	-0.10876577
55	0xbda18e83	-0.0788851
56	0xbd320933	-0.043465804
57	0x3dbd534d	0.09244404
58	0x3d9513f3	0.07279196
59	0xbd573513	-0.05254085
60	0xbd06ea0d	-0.032938052
61	0xbe26a195	-0.16272576
62	0x3b51979a	0.003198123
63	0xbcebc073	-0.02877829
64	0x3e0349d0	0.12821126
65	0xbd6b78e0	-0.057488322
66	0x3d67f8da	0.056633808
67	0xbd7bac67	-0.061443713
68	0xbe07d84b	-0.13266103
69	0xbe17cd5f	-0.14824437
70	0xbe1394aa	-0.1441218
71	0x3dfb2f13	0.12264838
72	0xbdf7507d	-0.12075899
73	0x3e03e21b	0.12879221
74	0xbd5af26d	-0.05345385
75	0xbe01143c	-0.12605375
76	0x3dc78cad	0.09743629
77	0x3dc78e5f	0.09743952
78	0x3e11898c	0.14212626
79	0x3e30cc2b	0.17265384
80	0x3e13cc09	0.14433302
81	0x3dcd9b1f	0.100393526
82	0x3e502d7f	0.20329855
83	0xbde9e4d3	-0.11420598
84	0x3cc30d9a	0.023810197
85	0x3df656d2	0.120282784
86	0x3e1512ad	0.14557905
87	0x3e23c070	0.15991378
88	0x3cd459a3	0.025921648
89	0xbe00dc69	-0.1258408
90	0xbe09e436	-0.13465962
91	0x3d98fcf9	0.07470126
92	0x3e5303b9	0.20606889
93	0xbe1f2059	-0.15539683
94	0xbe3bbb53	-0.18333177
95	0x3e274926	0.16336498
96	0xbd6033c7	-0.05473688
97	0xbda51f63	-0.08062627
98	0xbd854d50	-0.06508887
99	0xbd9fabd8	-0.077964485
100	0x3b436ccd	0.002981949
101	0xbe05950d	-0.1304514
102	0xbe3c86e7	-0.18410836
103	0xbe2fe855	-0.17178471
104	0x3e1d82d8	0.15381944
105	0xbd87c1e0	-0.066287756
106	0x3e4b384a	0.19845691
107	0xbde47cb3	-0.11156597
108	0x3e1887dd	0.14895578
109	0x3e03e14a	0.1287891
110	0x3d947b7d	0.07250116
111	0xbdc4419d	-0.09582827
112	0xbd35a033	-0.04434223
113	0xbdcc2c63	-0.099694036
114	0xbdeac5b3	-0.114634894
115	0xbe0bf4ea	-0.13667646
116	0xbdb873c0	-0.090064526
117	0x3e4c69aa	0.19962183
118	0xbe234d8a	-0.15947548
119	0xbde35843	-0.11100819
120	0xbe33d0c8	-0.17560112
121	0xbd068800	-0.032844543
122	0xbdd333a0	-0.10312581
123	0x3d843977	0.06456273
124	0xbccd9280	-0.02509427
125	0xbe0a6e38	-0.13518608
126	0xbd1ea693	-0.038733076
127	0xbd9438ca	-0.07237394
128	0x3dc10770	0.09425247
129	0xbddd9000	-0.108184814
130	0xbda652e3	-0.08121278
131	0x3e02f22b	0.12787692
132	0x3e1bbc00	0.15208435
133	0xbe4b3e93	-0.19848089
134	0x3e2ee17d	0.17078204
135	0xbb7f9b33	-0.0039002418
136	0xbe0d2ffb	-0.13787834
137	0xbd7cc65a	-0.0617126
138	0xbd35ae87	-0.044355895
139	0x3cad5d73	0.021162724
140	0x3dbd51ed	0.09244142
141	0xbe217380	-0.15766716
142	0xbce04e27	-0.027381016
143	0x3e0f2682	0.13979533
144	0xbe365e05	-0.17809303
145	0xbe32590b	-0.1741678
146	0x3d06d8d3	0.032921623
147	0x3e33108b	0.1748678
148	0xbd570a4d	-0.052500058
149	0x3e099bd5	0.13438351
150	0x3d6f8709	0.05847839
151	0xbda0b366	-0.078467175
152	0x3d8aee55	0.067837395
153	0xbbb1d873	-0.005427414
154	0x3cb49dd6	0.022047918
155	0x3d470621	0.04858983
156	0xbd512ad4	-0.051066235
157	0x3e1b3f79	0.15160932
158	0x3dfb6376	0.1227483
159	0x3b772e9f	0.0037716997
160	0x3bac1206	0.005251172
161	0xbe053d2e	-0.1301162
162	0xbe1d7f7c	-0.15380663
163	0x3e4e13a2	0.20124677
164	0xbcc85a9d	-0.02445727
165	0x3d1b36d3	0.03789408
166	0xbd9c1477	-0.07621091
167	0xbdd4d581	-0.10392285
168	0x3bd4ecc7	0.0064979526
169	0x3d2fabd2	0.04288847
170	0x3df468d4	0.11934057
171	0xbd8e3e8b	-0.06945523
172	0x3ce31227	0.027718617
173	0x3e23012c	0.15918416
174	0x3e083fb4	0.13305551
175	0x3e294575	0.16530402
176	0x3e3c744b	0.18403737
177	0x3d9dc769	0.0770405
178	0x3d9776b3	0.07395687
179	0xbb915991	-0.004435726
180	0xbe060014	-0.13085967
181	0xbb4ce3bf	-0.0031263677
182	0xbdff2c9c	-0.124596804
183	0xbe049abe	-0.12949654
184	0x3d0a27f6	0.033729516
185	0x3d202a0f	0.03910261
186	0x3d79142d	0.060810257
187	0xbd83f695	-0.06443516
188	0xbe13a410	-0.14418054
189	0xbd3f0271	-0.046633188
190	0x3b0bf399	0.0021354912
191	0x3bc70143	0.0060731485
192	0x3c63da7e	0.013907073
193	0xbe44f841	-0.19235326
194	0x3dff4ec6	0.12466197
195	0xbd9d5ef2	-0.07684125
196	0x3c904d31	0.017614933
197	0x3d665058	0.056228966
198	0xbdf51201	-0.119663246
199	0x3dab959c	0.08378145
200	0x3e2886e9	0.16457714
201	0x3e06da8c	0.13169307
202	0xbe293f49	-0.16528048
203	0x3d957f78	0.07299703
204	0x3e2d34bf	0.16914652
205	0x3b1b9639	0.0023740663
206	0xbdc35c3c	-0.09539077
207	0x3de34d2d	0.110987045
208	0x3d33b739	0.043875907
209	0x3e0cdf41	0.1375704
210	0x3ddaa849	0.10676629
211	0x3e11d0df	0.14239834
212	0x3b7299f4	0.0037018033
213	0x3d4067a9	0.046973858
214	0xbcb0a2d6	-0.021562021
215	0xbc8bae87	-0.017050995
216	0x3e32acc5	0.17448719
217	0x3ccafcfb	0.024778834
218	0xbd512b61	-0.05106676
219	0x3e0e1958	0.13876855
220	0x3dd69602	0.104778305
221	0xbd0e5686	-0.034750484
222	0xbdd5bb4b	-0.10436114
223	0x3d001c63	0.03127707
224	0xbe4730e1	-0.1945224
225	0x3d4078ed	0.046990324
226	0xbdebb67a	-0.11509414
227	0x3e314b8a	0.17313972
228	0xbe0fd073	-0.14044361
229	0x3d69283a	0.05692313
230	0xbdf9d68d	-0.121991254
231	0xbe067f30	-0.13134456
232	0x3e19dfdf	0.15026806
233	0xbdc6cca7	-0.09707003
234	0xbda851c7	-0.08218723
235	0xbc0a8c9a	-0.008456374
236	0xbd8e73dd	-0.06955693
237	0xba615000	-0.000859499
238	0xbd7364ba	-0.059422232
239	0xbd339bfa	-0.043849923
240	0xbdbb2303	-0.09137537
241	0xbdc3684a	-0.09541376
242	0xbc4490e7	-0.011997438
243	0xbe4b2c5f	-0.19841145
244	0xbda5d7d7	-0.08097809
245	0xbc9690e7	-0.018379642
246	0x3d8cf060	0.068817854
247	0x3e45472a	0.19265428
248	0x3e3accbd	0.18242164
249	0x3da4053d	0.080088116
250	0xbcf7b62e	-0.030238237
251	0xbdabed77	-0.08394902
252	0x3c1c5f7b	0.009544249
253	0xbe0cb3b8	-0.13740432
254	0xbe33c356	-0.17554983
255	0x3e08bae5	0.13352545

layers.0.bias f4 [256]
0	0x3dfa4a5f	0.122212164
1	0xbc98e6c0	-0.018664718
2	0x3e377c20	0.17918444
3	0xbd58d81a	-0.052940466
4	0x3da2de60	0.07952571
5	0xbd87f51d	-0.066385485
6	0xbe20af84	-0.15691954
7	0x3ce3da60	0.02781409
8	0x3df9ddca	0.12200506
9	0x3d8f50f0	0.069978595
10	0xbe08ce8d	-0.13360043
11	0x3d5bbe13	0.053648066
12	0xbe36c77f	-0.17849539
13	0xbe4dc824	-0.20095879
14	0x3ce88934	0.028385736
15	0x3e183cc5	0.14866932
16	0x3dede951	0.11616767
17	0xbdc61543	-0.09672024
18	0x3d12928c	0.03578429
19	0x3baaef7c	0.005216537
20	0xbdfb9f2b	-0.12286218
21	0xbe2c5727	-0.16830121
22	0x3d46c643	0.04852892
23	0x3ccb6653	0.024829065
24	0x3c69a97d	0.014261601
25	0xbd8b8ffb	-0.068145715
26	0xbdc31853	-0.09526124
27	0xbe08a7a9	-0.13345207
28	0xbd46c360	-0.048526168
29	0x3e315d34	0.1732071
30	0xbd7fe341	-0.062472586
31	0x3e2e40cf	0.1701691
32	0x3e3f8722	0.18703893
33	0x3ce4fae7	0.02795167
34	0x3e3bbfc6	0.18334875
35	0xbe21efbf	-0.15814112
36	0xbd894727	-0.06703024
37	0xbce5fe2a	-0.028075296
38	0xbdf82455	-0.12116305
39	0xbde4f660	-0.11179805
40	0xbc7466e4	-0.014917109
41	0xbd88000b	-0.06640633
42	0xbddf8a7e	-0.10915087
43	0xbe26fee7	-0.16308175
44	0xbad1c333	-0.0016003608
45	0xbdfd255e	-0.12360643
46	0xbcf599af	-0.029980509
47	0x3c13f1f5	0.009029855
48	0x3e3d1178	0.18463695
49	0x3d8c1884	0.068406135
50	0x3e1b5a53	0.15171175
51	0xbe1426ff	-0.14468001
52	0xbd8e48e7	-0.06947499
53	0xbe047555	-0.12935384
54	0x3e46ea47	0.19425307
55	0x3dd876f0	0.105695605
56	0x3b560d8d	0.0032661885
57	0xbdfa3a10	-0.12218106
58	0xbcb94252	-0.022614632
59	0xbe2a15cd	-0.16609879
60	0xbd57eb8a	-0.052714862
61	0xbd86cb4e	-0.06581746
62	0x3c62fef1	0.013854728
63	0xbd728c52	-0.05921585
64	0xbe3756fb	-0.17904274
65	0x3d60b7a0	0.05486262
66	0xbe3f041a	-0.18653908
67	0x3d76de5a	0.060270645
68	0xbda721b2	-0.08160724
69	0xbd38607a	-0.045013882
70	0x3e2c0bbe	0.16801354
71	0xbcbc755e	-0.023005184
72	0xbda0c98f	-0.07850944
73	0x3dc81aea	0.097707585
74	0x3da1d78b	0.0790244
75	0xbe2da9d2	-0.16959313
76	0xbe41df2a	-0.18932787
77	0x3d27b9a5	0.04094853
78	0xbdee8ed1	-0.11648334
79	0xbd0732e1	-0.033007506
80	0x3c39f714	0.011350412
81	0xbd0dade2	-0.034589656
82	0x3e44dd5f	0.19225071
83	0xbdf8691c	-0.12129423
84	0x3d447560	0.0479635
85	0xbcbfefc2	-0.023429755
86	0x3e0c4949	0.13699831
87	0x3de00c98	0.10939902
88	0xbd9b0ad7	-0.07570427
89	0x3c075d6c	0.00826202
90	0x3e04384d	0.12912102
91	0x3e07d082	0.13263133
92	0xbdac7b9a	-0.084220126
93	0x3db27c77	0.08715146
94	0x3a9bcfcc	0.001188749
95	0xbdc0acf4	-0.09407988
96	0x3e146a3c	0.1449365
97	0x3b4ddbf5	0.0031411622
98	0xbdc45f43	-0.09588482
99	0xbd1b6fd3	-0.03794844
100	0x3df8799a	0.12132569
101	0x3e46053f	0.19337939
102	0xbe070806	-0.13186654
103	0xbd68bf3e	-0.056823008
104	0x3d2bb36e	0.041919164
105	0xbbcf9667	-0.006335068
106	0xbddc473a	-0.10755773
107	0x3e114843	0.14187722
108	0x3d107773	0.035270166
109	0x3e29a41f	0.16566513
110	0xbd4900ae	-0.049072914
111	0x3e3bd72b	0.18343799
112	0xbdbcef9d	-0.0922539
113	0x3da46177	0.080264024
114	0x3d5ff07b	0.0546727
115	0xbca4e3cd	-0.020128155
116	0x388fbac5	6.85356e-05
117	0xbd1c08b5	-0.03809424
118	0xbdc92d8e	-0.09823142
119	0x3e463395	0.19355614
120	0x3dffecc5	0.12496332
121	0xbe091989	-0.13388647
122	0xbc73f9f6	-0.014891138
123	0xbc67c0da	-0.0141451005
124	0x3e567a21	0.20945026
125	0x3dfb4297	0.122685604
126	0xbd8c25c3	-0.0684314
127	0xbda881e4	-0.082279
128	0x3dadd8de	0.0848863
129	0x3e449873	0.1919878
130	0x3d51ce20	0.051221967
131	0xbd368b3a	-0.04456637
132	0xbde0658d	-0.10956869
133	0xbcf03ea3	-0.029326743
134	0x3e1ba41a	0.15199319
135	0xbb9bedff	-0.004758596
136	0xbdc59dfc	-0.09649274
137	0x3d8232a1	0.06357313
138	0xbdc6a86f	-0.09700095
139	0xbe3a404e	-0.18188593
140	0xbe00ba55	-0.1257108
141	0x3e4a46ee	0.1975362
142	0x3ddcbc53	0.107781075
143	0x3d00176d	0.03127234
144	0x3e42a704	0.19009024
145	0xbe2148d3	-0.15750436
146	0x3d3dcdd4	0.04633887
147	0x3dbd8dc1	0.09255553
148	0xbd9de61d	-0.07709906
149	0xbe22c34a	-0.1589481
150	0xbe35bb1a	-0.17747155
151	0xbe3a8a91	-0.18216921
152	0xbe02b6f2	-0.127651
153	0xbd5c8021	-0.05383313
154	0x3dfa3551	0.122172005
155	0x3d4ecd53	0.05048878
156	0x3e3f4478	0.18678463
157	0xbde20f89	-0.11038119
158	0x3bab7700	0.0052326918
159	0x3e18fc4d	0.14939995
160	0x3ded2a28	0.11580306
161	0x3d06d2ea	0.032915987
162	0x3cf42fb9	0.029807912
163	0x3d9703fc	0.07373807
164	0x3dba417b	0.09094521
165	0x3d96231e	0.07330917
166	0xbde70af4	-0.11281386
167	0xbd8a4700	-0.067518234
168	0x3dbd6cf4	0.09249297
169	0xbd769bc8	-0.06020716
170	0xbdc318da	-0.095262244
171	0xbe2e5599	-0.1702484
172	0xbe137464	-0.14399868
173	0xbd883cbd	-0.0665221
174	0x3e1e8406	0.1548005
175	0x3dfa4660	0.12220454
176	0xbe1d1e42	-0.15343574
177	0x3e2643e7	0.1623684
178	0xbe2c9d5d	-0.16856904
179	0xbdbc37b0	-0.09190309
180	0x3e146547	0.14491759
181	0x3c0d5080	0.00862515
182	0xbd9befa4	-0.07614067
183	0xbbd798d9	-0.0065795
184	0xbdf62ba3	-0.12020042
185	0x3e2cb176	0.16864571
186	0x3e20a70e	0.15688726
187	0x3db944e1	0.09046341
188	0xbdebf2ad	-0.11520896
189	0x3e38fc2f	0.1806495
190	0x3df4b879	0.11949248
191	0x3db35037	0.08755534
192	0x3e16b90f	0.14719032
193	0xbc51739a	-0.012783909
194	0x3cfc3f9c	0.03079205
195	0xbce5ee79	-0.028067814
196	0x3921b460	0.00015421351
197	0x3daa2a7a	0.08308883
198	0xbe4bda6e	-0.19907543
199	0xbd10d023	-0.035354745
200	0x3e27b796	0.16378626
201	0x3e3024fa	0.17201605
202	0x3e096dcd	0.13420792
203	0xba3b5c2e	-0.000714722
204	0x3ad26eb5	0.0016054722
205	0xbe183e4f	-0.14867519
206	0xbd8f9ca0	-0.07012296
207	0xbe34a4ae	-0.17640945
208	0x3e48c17a	0.19605055
209	0xbc52a852	-0.0128575135
210	0xbc2593a7	-0.010106004
211	0x3e3ef10d	0.18646641
212	0xbdcb68c6	-0.09932093
213	0xbdc96a28	-0.09834701
214	0xbe0c4c06	-0.13700876
215	0xbdeaa0be	-0.114564404
216	0xbddbf34d	-0.10739765
217	0x3ce1e1c5	0.027573476
218	0xbd69e91e	-0.057107083
219	0xbe47fde7	-0.1953045
220	0xbe44b97a	-0.19211379
221	0xbdf05980	-0.11735821
222	0x3e1dbe2c	0.15404576
223	0xbe45cd99	-0.1931671
224	0xbdb1ecf4	-0.08687773
225	0x3e090ece	0.13384554
226	0xbe4a502f	-0.1975715
227	0xbdd00e5b	-0.10158988
228	0x3e0ce909	0.13760771
229	0x3dc408fc	0.09572026
230	0x3e4d85f7	0.20070635
231	0x3e358b5c	0.17728943
232	0x3e4704ac	0.19435376
233	0xbde2074f	-0.1103655
234	0xbc131465	-0.00897703
235	0xbe36c62c	-0.17849034
236	0xbdd0259d	-0.10163424
237	0xbd69754d	-0.056996632
238	0xbe2eb9fb	-0.17063133
239	0xbe3e5bfb	-0.18589775
240	0xbe165247	-0.14679824
241	0x3d2bfe01	0.041990284
242	0x3dcb159b	0.0991623
243	0xbe353cd2	-0.17698982
244	0x3e167eb3	0.1469677
245	0xbc5e0d4f	-0.013552978
246	0x3b17c3a8	0.0023157392
247	0xbb9486bc	-0.004532663
248	0x3de5a79f	0.11213612
249	0x3d4bac91	0.04972512
250	0x3d9a33f4	0.075294405
251	0x3d1ec1a2	0.03875888
252	0xbb673169	-0.0035277253
253	0x3dd14e78	0.10220045
254	0x3e06f7c5	0.13180454
255	0xbe268b90	-0.16264176

layers.1.weight f4 [256, 256]
0	0x3bfec0be	0.0077744415
1	0x3d5abff6	0.053405724
2	0x3d32a236	0.043611728
3	0x3c0915b0	0.008366987
4	0x3a2edc80	0.00066704303
5	0xbd7e6e12	-0.06211669
6	0x3cca881b	0.024723103
7	0xbd3b5658	-0.04573664
8	0xbcad23d5	-0.02113525
9	0x3d75e26e	0.060030393
10	0x3d12b95d	0.035821307
11	0xbd6370b6	-0.05552741
12	0xbd3d9762	-0.046286948
13	0xba92102c	-0.0011143736
14	0xbcd68c7a	-0.026190031
15	0x3db92888	0.09040934
16	0xbd86ef0d	-0.06588564
17	0x3d34866e	0.044073515
18	0xbc48719e	-0.01223412
19	0xbd089295	-0.033342917
20	0x3d0ff726	0.03514781
21	0xbd70f6d8	-0.05882916
22	0xbda66b10	-0.08125889
23	0xba72a86a	-0.0009256663
24	0xba8b808e	-0.0010643171
25	0xbc796c85	-0.015223627
26	0xbc8e5b20	-0.017377436
27	0x3bd015a2	0.006350235
28	0x3d59010a	0.052979507
29	0x3d0078a5	0.031365056
30	0x3d8fb7b3	0.0701746
31	0x3d0fc082	0.0350957
32	0xbd39a479	-0.04532287
33	0x3d44a898	0.048012346
34	0x3db05220	0.08609414
35	0x3c185275	0.009297003
36	0x3d7bde50	0.06149131
37	0x3d56db45	0.052455205
38	0x3c45a9be	0.0120643955
39	0x3d06ff58	0.03295836
40	0xbc8355c2	-0.016032103
41	0xbc434f48	-0.011920758
42	0xbc9005cf	-0.017580895
43	0xbc80a56c	-0.01570388
44	0xbc774a10	-0.0150933415
45	0x39b00589	0.0003357346
46	0xbd1a12f9	-0.03761575
47	0x3d8165cc	0.06318244
48	0x3ca44dd4	0.020056643
49	0x3d7b3f6d	0.061339784
50	0xbbf9b3ea	-0.0076203244
51	0xbd5a9bb2	-0.05337114
52	0xbd850a02	-0.064960495
53	0x3da63514	0.081155926
54	0x3b969250	0.0045950785
55	0xbb00d3db	-0.0019657526
56	0x3d1da038	0.038482875
57	0xbd519634	-0.051168635
58	0xbd1e67e3	-0.038673293
59	0xbd33816c	-0.0438246
60	0x3cba310c	0.022728465
61	0xbdabe181	-0.08392621
62	0x3ca60b07	0.02026893
63	0xbd7f998e	-0.0624023
64	0x3c82ac38	0.01595126
65	0x3d80dbf7	0.06291955
66	0x3c0ec038	0.008712821
67	0xbc98d76c	-0.018657409
68	0xbc8b9d39	-0.017042743
69	0xbd111e68	-0.03542939
70	0xbdbe90a4	-0.09304932
71	0x3d4c92e4	0.049944773
72	0x3bcf5f91	0.006328531
73	0xbc962e40	-0.0183326
74	0xbd05ed08	-0.032696754
75	0x3d5a4cf0	0.05329603
76	0x3beafe50	0.0071714297
77	0x3d3fded2	0.046843357
78	0xbda4bc8a	-0.080437735
79	0xbcb361b7	-0.02189718
80	0xbd466c2d	-0.04844301
81	0xbd76f290	-0.06028992
82	0x3d32836a	0.043582357
83	0xbc8f2682	-0.017474417
84	0x3cbd39c4	0.023098834
85	0xbd8ab58e	-0.0677291
86	0x3db5665c	0.08857414
87	0xbc955901	-0.018230917
88	0xbc10c278	-0.008835427
89	0xbc927427	-0.017877651
90	0xbc8bd353	-0.01706854
91	0xbcf6b113	-0.030113732
92	0x3d509942	0.050927408
93	0x3d1b613e	0.037934534
94	0xbc52c525	-0.012864386
95	0x3c89226d	0.016740048
96	0x3d0bca02	0.034128197
97	0xbd6e6c81	-0.058208946
98	0x3bb80f86	0.005617085
99	0x3d2e17bd	0.042503107
100	0xbc9f2e0c	-0.019431137
101	0x3d593788	0.053031474
102	0xbc1db6a7	-0.009626067
103	0x3ba77749	0.0051106554
104	0xbd1f75c0	-0.038930655
105	0x3bc9ff80	0.006164491
106	0x3d01014e	0.031495385
107	0x3d69bdc7	0.05706575
108	0x3d476c88	0.048687488
109	0xbbdb121d	-0.006685509
110	0xbcd2a62c	-0.025714003
111	0x3da6cd8b	0.08144673
112	0xbd354212	-0.044252463
113	0x3d521eb2	0.051298805
114	0xbd463987	-0.048394706
115	0x3c161220	0.009159595
116	0x3c859f2f	0.016311256
117	0xbc505fa1	-0.012718112
118	0x3d1ed2ba	0.038775183
119	0xbd441566	-0.04787197
120	0x3d30e571	0.043187562
121	0xbd6bdbd4	-0.05758269
122	0x3be42bba	0.0069632204
123	0xbdda4992	-0.10658564
124	0x3d7b3d75	0.061337907
125	0xbc8b6f8e	-0.017020967
126	0xbc839948	-0.016064301
127	0xbd5e05dd	-0.05420481
128	0xbca01bc1	-0.019544484
129	0xbd6942d2	-0.05694849
130	0xb8de13c8	-0.000105894695
131	0xbd8258c7	-0.06364589
132	0x3b06fc60	0.0020597205
133	0x3c362389	0.011116871
134	0x3cbc8213	0.023011243
135	0x3b898808	0.0041971244
136	0xbd33bd9d	-0.043882
137	0x3d0960a5	0.033539433
138	0x3ca6bcb0	0.020353645
139	0x3d06c164	0.032899275
140	0x3cf1556a	0.029459674
141	0x3d8bef31	0.068327315
142	0xbc438a60	-0.011934847
143	0x3d6acbd4	0.057323292
144	0x3c5f5e4c	0.013633322
145	0x3d0a7912	0.033806868
146	0x3d113bbf	0.03545737
147	0x3d1e6864	0.038673773
148	0xbcac0858	-0.021000072
149	0xbccd8198	-0.02508621
150	0x3d14aeef	0.036299642
151	0x3d0ba29c	0.034090623
152	0x3d8a1084	0.06741431
153	0xbd5315d5	-0.051534493
154	0x3cfc3494	0.03078679
155	0x399c0d00	0.00029764324
156	0xbdba7326	-0.09103994
157	0x3d440c69	0.047863398
158	0xbd0d7e8e	-0.03454452
159	0xbd129569	-0.03578702
160	0xbdb2bddc	-0.08727619
161	0x3c99492c	0.018711649
162	0xbd49fa1a	-0.04931078
163	0x3cb52e62	0.022116844
164	0x3d1db134	0.038499072
165	0xb92899d2	-0.00016079031
166	0xbc5a901f	-0.013340025
167	0x3cd31578	0.025767073
168	0x3b9e0ec2	0.0048235366
169	0xbd0c5084	-0.034256473
170	0xbc8798b4	-0.016552307
171	0x3d13b803	0.03606416
172	0x3ce2d41a	0.027689029
173	0x3cd3695c	0.025807075
174	0x3cbfd9eb	0.023419341
175	0xbc77d616	-0.015126726
176	0x3d824d4d	0.063624
177	0x3d49fa91	0.049311224
178	0x3b79e6fa	0.0038132058
179	0xbcdff50b	-0.027338525
180	0x3d8bf041	0.06832934
181	0x3d03ec02	0.032207496
182	0x3d20a6b2	0.039221473
183	0x3c8e9d63	0.017409032
184	0x3bcd0550	0.006256737
185	0xbdd79865	-0.10527114
186	0xbcf3d173	-0.02976296
187	0xbd890de8	-0.066921055
188	0xbc0d66b8	-0.008630447
189	0x3d015ca7	0.0315825
190	0x3cd11a74	0.02552531
191	0xbc902e6e	-0.017600264
192	0xbcf03a58	-0.029324695
193	0x3cbc57ec	0.022991143
194	0xbaf73d22	-0.0018862823
195	0xbcbc29c3	-0.022969132
196	0x3d8b8598	0.0681259
197	0x3d361494	0.04445322
198	0x3d0e7b25	0.03478541
199	0x3cbb2409	0.022844331
200	0xbd1974fc	-0.03746508
201	0x3da1b893	0.07896533
202	0xbcf85329	-0.030313091
203	0x3cbb4637	0.02286063
204	0xbd035f9b	-0.0320736
205	0x3daa64c3	0.0832
206	0x3c47dea8	0.0121990815
207	0x3c96eff9	0.018424975
208	0x3d3644c4	0.044499174
209	0xbc0659f2	-0.008200156
210	0x3c9a5170	0.01883766
211	0x3d2fd5bd	0.042928446
212	0x3c3db151	0.01157792
213	0xbd21aafb	-0.0394697
214	0x3c222d33	0.009898472
215	0x3d24c298	0.04022464
216	0x3cfdd8b0	0.030987114
217	0xbcc2ba65	-0.02377052
218	0x3c112c33	0.008860636
219	0xbce937f8	-0.02846907
220	0x3d3bef22	0.04588235
221	0xbca394f8	-0.019968495
222	0x3d80ce91	0.062893994
223	0xbd8a9260	-0.067662
224	0xbd853c69	-0.06505663
225	0x3bc68421	0.0060582315
226	0x3d02e83c	0.031959757
227	0x3d3378d0	0.043816388
228	0xbd8343ed	-0.0640944
229	0xbd4be86f	-0.049782213
230	0x3c4712bb	0.012150462
231	0x3c449941	0.011999429
232	0xbc508916	-0.012727996
233	0x3a748e07	0.0009329025
234	0xbd89bff0	-0.06726062
235	0x3bd57cd2	0.006515124
236	0xbd200b96	-0.03907355
237	0x3d3b015e	0.0456556
238	0x3ca7e234	0.020493604
239	0xbd8f9c82	-0.07012273
240	0x3d387104	0.045029655
241	0xbd8d99f2	-0.06914128
242	0x3c4c1df4	0.012458313
243	0xbd30b078	-0.043137044
244	0xbd78007d	-0.06054734
245	0xbc526683	-0.0128418235
246	0x3d76d36b	0.060260218
247	0xbd22612f	-0.039643463
248	0x3ca44f84	0.020057447
249	0x3d583f57	0.05279478
250	0xbca870f8	-0.02056168
251	0x3c5b0fd7	0.013370476
252	0xb9f91c86	-0.00047514233
253	0xbd1f6b31	-0.038920585
254	0x3ce43149	0.027855532
255	0xbd6abb3a	-0.05730746

layers.1.bias f4 [256]
0	0x3b9120c9	0.004428957
1	0x3d2c29be	0.042031996
2	0xbd581d41	-0.052762274
3	0xbbba2e50	-0.0056817904
4	0x3d18af87	0.03727677
5	0xbc9db47c	-0.0192511
6	0xbce18ccc	-0.027532957
7	0xbd21a355	-0.039462406
8	0xbd62ddb0	-0.0553872
9	0xbca53ff8	-0.020172104
10	0xbcf0f545	-0.029413829
11	0xbd23a326	-0.039950512
12	0xbd7e1838	-0.062034816
13	0xbb751d5b	-0.003740153
14	0x3d8dfc86	0.06932931
15	0x3ce4c156	0.027924221
16	0x3d03d8e7	0.032189276
17	0xbd149126	-0.036271237
18	0xbbb6fbaf	-0.0055842022
19	0x3d21c997	0.03949889
20	0x39d96200	0.0004146248
21	0xbd50ed62	-0.051007636
22	0x3d347667	0.04405823
23	0xbc6fca38	-0.014635615
24	0xbd0ed329	-0.034869347
25	0x3c7655c4	0.015035097
26	0xbce1731a	-0.027520705
27	0x3d5c58fd	0.053795803
28	0xbd2a93c8	-0.04164484
29	0xbcb40324	-0.021974154
30	0xbc677480	-0.014126897
31	0xbd581697	-0.05275592
32	0xbc2b6a95	-0.010462423
33	0x3d4ffe7f	0.050779816
34	0xbcbe4a0a	-0.023228664
35	0xbc8952ba	-0.01676308
36	0xbb8235de	-0.0039737066
37	0xbd07fd9c	-0.033200845
38	0x3d1af7d9	0.037834022
39	0x3d0a0a3d	0.03370117
40	0x3c9d6610	0.019213706
41	0xbc7bb705	-0.0153634595
42	0xbd28ed0c	-0.04124169
43	0xbd5e5f4d	-0.054290105
44	0xbcec8985	-0.028874168
45	0x3c6a6a37	0.01430755
46	0x3d44b356	0.04802259
47	0x3d43e84f	0.04782897
48	0x3d61a088	0.055084735
49	0xbd5d0191	-0.053956572
50	0xbd351e94	-0.044218615
51	0x3d1e96b7	0.03871795
52	0x3bf1b790	0.0073766187
53	0xbc5cc185	-0.013473873
54	0x3c7d303d	0.015453395
55	0xbcbe2ab9	-0.023213731
56	0x3d27494d	0.04084139
57	0x3c8205c9	0.0158719
58	0x3b9c2a72	0.004765802
59	0x3ce7dc75	0.028303364
60	0x3d6cc4e4	0.057804957
61	0xbd7a6dd2	-0.06113989
62	0xbc412468	-0.011788465
63	0x3c9a3671	0.018824788
64	0xbd5e5639	-0.054281447
65	0x3d275144	0.040848985
66	0xbd84cb26	-0.0648406
67	0xbcd46afb	-0.025929919
68	0xbd04bbda	-0.03240571
69	0x3cbf176e	0.023326602
70	0xbce89ec4	-0.028396018
71	0x3d529ab7	0.05141708
72	0x3c30a2b7	0.010780982
73	0x3d89c574	0.06727114
74	0xbd6c3056	-0.057663284
75	0x3d6fed89	0.05857614
76	0xbc4f6183	-0.012657526
77	0xbd030bb6	-0.03199359
78	0xbd4fbcc9	-0.05071715
79	0x3d1f243b	0.03885291
80	0xb83c6a4e	-4.4921697e-05
81	0x3cadfdaf	0.02123913
82	0x3d214f7a	0.039382435
83	0x3ca0a8b8	0.019611701
84	0x3d5333c5	0.051563043
85	0xbb4029ac	-0.0029321713
86	0xbc943938	-0.01809369
87	0x3d33329e	0.043749444
88	0xbd06d4ac	-0.032917663
89	0xbd286371	-0.04111046
90	0xbd1f646e	-0.038914137
91	0x3c38fd78	0.0112909
92	0x3c54d1fa	0.012989515
93	0xbd1327f1	-0.035926763
94	0xbd0454a9	-0.0323073
95	0xbd7f6630	-0.062353313
96	0xbd4a49f4	-0.049386933
97	0x3c99ba9c	0.01876574
98	0x3d68fc48	0.05688122
99	0xbc935f30	-0.017989725
100	0x3cbbe162	0.02293462
101	0x3cfccaed	0.030858481
102	0xbc993b7c	-0.018705122
103	0xbcf636c1	-0.030055406
104	0x3c6f6251	0.014610843
105	0x3d205e20	0.039152265
106	0x3d7594ef	0.059956487
107	0xbb213a83	-0.0024601526
108	0x3d3c5ef1	0.04598898
109	0x3bd35330	0.0064491257
110	0x3c4f9383	0.012669447
111	0xbd390de6	-0.04517927
112	0xba12995e	-0.00055923115
113	0x3cbad5c0	0.022807002
114	0xbc3daa1a	-0.0115762
115	0x3cbcf7c9	0.023067372
116	0x3aa2c11d	0.0012417171
117	0x3c2948f1	0.010332332
118	0xbc7fb370	-0.015606746
119	0xbcdc2d04	-0.026876934
120	0xbbf38c15	-0.0074324706
121	0x3d7ccf76	0.061721288
122	0x3bc68b64	0.006059097
123	0xbd377010	-0.044784606
124	0x3c9b7387	0.018975986
125	0xbc958150	-0.018250138
126	0x3b192df6	0.0023373342
127	0xbd2a8610	-0.04163176
128	0x3c51a5e3	0.012795898
129	0x3ce08eef	0.027411906
130	0xbd640cda	-0.05567632
131	0xbd29bc4c	-0.04143934
132	0xbcc4659a	-0.023974229
133	0xbd2a3bb2	-0.041560836
134	0xbbc61048	-0.0060444213
135	0xbcfaa880	-0.030597925
136	0xbbf8ebd0	-0.0075964704
137	0xbd1d09d0	-0.038339436
138	0xbc9c38fc	-0.019070141
139	0x3d5e242c	0.054233715
140	0xbd26873c	-0.040656313
141	0x3c22406c	0.009903055
142	0xbd16e31a	-0.036837675
143	0x3cd7b1f6	0.026329976
144	0xbd2f755e	-0.04283654
145	0xbc7ef904	-0.0155623
146	0x3c80aa92	0.015706334
147	0xbb8ba13d	-0.0042611645
148	0x3d5220c7	0.05130079
149	0xbc9135f2	-0.017725918
150	0xbc5e0bee	-0.013552649
151	0x3d81a922	0.06331088
152	0x3ca62a64	0.020283885
153	0xbc93a87f	-0.018024681
154	0xbd6da00c	-0.05801396
155	0x3d585101	0.052811626
156	0xbd4f8614	-0.050664976
157	0xbc84ba60	-0.016202152
158	0x3d7394db	0.05946813
159	0x3c6db772	0.014509069
160	0xbca9579c	-0.020671658
161	0xbd671d4a	-0.056424417
162	0xbd5bf365	-0.053698916
163	0xbc7f10d8	-0.015567981
164	0x3d4cc063	0.04998816
165	0xbd4514fb	-0.04811571
166	0xbd404d61	-0.046948794
167	0xbb06a0cc	-0.002054262
168	0x3d643e21	0.055723313
169	0x3d714ba5	0.05891003
170	0x3d3a6b19	0.045512293
171	0x3be1da90	0.0068925098
172	0xbd0f2782	-0.034949787
173	0xbd1cc248	-0.03827122
174	0xbd6d6b81	-0.05796385
175	0xbb587ca0	-0.0033033267
176	0xbcf0801a	-0.029357959
177	0xbd0f5e34	-0.03500195
178	0xba0cb2aa	-0.0005367199
179	0x3d833a0c	0.06407556
180	0x3d79e0d2	0.06100542
181	0x3c6d2a50	0.01447542
182	0xbd41a6c4	-0.04727818
183	0xbd17ffdd	-0.037109245
184	0xbd29a2b4	-0.04141493
185	0x3d0e81f5	0.034791905
186	0xbc365ce1	-0.0111305425
187	0xbb916ab8	-0.0044377707
188	0x3d319886	0.04335835
189	0xbc90243c	-0.017595403
190	0xbcd1ff3c	-0.0256344
191	0x3b79c754	0.0038113194
192	0xb624009d	-2.4438261e-06
193	0x3ce2409c	0.027618699
194	0x3cb213fc	0.021738045
195	0x3cd1231e	0.02552944
196	0xbd72d858	-0.059288353
197	0xbd12ce05	-0.035841007
198	0x3d6d113a	0.057877757
199	0xbd6947b9	-0.056953166
200	0xbd1cf15a	-0.03831611
201	0xbc846f3d	-0.016166324
202	0xbb09b2e0	-0.0021011159
203	0xbd79d40e	-0.060993247
204	0xbd428030	-0.04748553
205	0xbd17c6be	-0.03705477
206	0x3ce4f6e5	0.02794976
207	0xbc66b381	-0.014080883
208	0x3d496357	0.049167003
209	0xbc0ceea0	-0.0086018145
210	0xbcd72b24	-0.026265688
211	0x3b132e36	0.0022457964
212	0x3d80ebde	0.06294988
213	0xbbf2d72c	-0.0074109044
214	0xbc651fb0	-0.013984606
215	0xbccaa77c	-0.024738066
216	0xbbb13928	-0.005408425
217	0xbd59579e	-0.053062074
218	0x3cac8812	0.021060977
219	0x3caef5ff	0.021357534
220	0x3d59612a	0.05307118
221	0xbd5e1301	-0.054217342
222	0xbc790218	-0.015198253
223	0xbbebbf00	-0.0071944
224	0x3d018b5c	0.031627044
225	0xbc9ff2bc	-0.019524924
226	0xbca67c1c	-0.020322852
227	0x3ccdfd94	0.02514533
228	0xbb9a10f0	-0.004701726
229	0x3d276ec2	0.04087711
230	0x3d591898	0.05300197
231	0x3a33ee00	0.0006863773
232	0xbd0f0b2b	-0.03492276
233	0xbd5f8e48	-0.05457905
234	0xbbd3bac0	-0.0064614713
235	0x3ca10c68	0.019659236
236	0xba826300	-0.0009947717
237	0xbc226ca0	-0.0099135935
238	0xbca09a25	-0.019604752
239	0xbb9059df	-0.0044052447
240	0x3be830a0	0.0070858747
241	0xbd25506a	-0.040359892
242	0x3cfb402c	0.030670248
243	0xbd4967fe	-0.04917144
244	0x3c6dce53	0.014514524
245	0xbd384b4c	-0.044993684
246	0xbab7ebc9	-0.0014032061
247	0x3d75391c	0.059868917
248	0xbd5c583b	-0.05379508
249	0xbaed4ce2	-0.0018104578
250	0x3d2ebd98	0.04266128
251	0x3d450714	0.048102453
252	0x3d0156b4	0.031576827
253	0x3cd8dafc	0.026471607
254	0x3b71ceaa	0.0036896863
255	0xbca66edf	-0.02031654

predict.weight f4 [5, 256]
0	0x3d9eef68	0.07760507
1	0x3d2ce247	0.042207982
2	0xbd5990ce	-0.053116612
3	0x3d264e28	0.04060188
4	0xbc027382	-0.0079621095
5	0xbd524b2c	-0.05134122
6	0xbd03f6c4	-0.032217756
7	0x3d89b6c6	0.067243144
8	0x3d61beed	0.05511372
9	0xbd499650	-0.049215615
10	0xbd0fca16	-0.035104834
11	0xbd31a12a	-0.04336659
12	0xbadcb480	-0.0016838461
13	0xbc9771d4	-0.018486895
14	0xbb0c3d0f	-0.0021398698
15	0x3d77d809	0.06050876
16	0xbd5e0f46	-0.054213785
17	0x3c3549b8	0.011064939
18	0x3adf4f86	0.001703725
19	0xbcf3feea	-0.029784638
20	0xbd0de31c	-0.034640417
21	0x3c8a0381	0.016847374
22	0x3bdb75c5	0.006697389
23	0x3d35bb62	0.044368155
24	0xbd4c5af1	-0.049891416
25	0x3d8a09c2	0.067401424
26	0x3d570bb8	0.05250141
27	0xbd209e6f	-0.039213594
28	0xbd519e54	-0.051176384
29	0xbd2fad14	-0.04288967
30	0x3d09e214	0.03366287
31	0x3db4cdd5	0.08828322
32	0xbcf79fc9	-0.030227559
33	0xbd1ff6da	-0.039053775
34	0x3a18568e	0.00058112375
35	0x3d2cccc9	0.042187486
36	0x3c6ca0bf	0.014442622
37	0x3b7b2ba0	0.0038325563
38	0xbd7db351	-0.061938588
39	0x3cc5ae36	0.024130922
40	0x3d23abac	0.03995864
41	0xbbbb20f2	-0.0057107145
42	0xbcc40984	-0.023930319
43	0xbcb55b04	-0.022138126
44	0xbd59abcd	-0.053142358
45	0x3d98dec7	0.074643664
46	0xbd01fead	-0.03173702
47	0x3d37a42c	0.0448343
48	0xbcdfa978	-0.027302489
49	0x3b9806b0	0.004639469
50	0xbce40fec	-0.027839623
51	0x3d90dc8e	0.070733175
52	0x3cb6e2d8	0.022324964
53	0x3d159299	0.03651676
54	0x3d1036e8	0.035208613
55	0x3d7d61fa	0.061861016
56	0xbd5c8f83	-0.0538478
57	0xbd3ab187	-0.04557946
58	0xbc71bbd8	-0.014754258
59	0x3d836020	0.06414819
60	0x3dc99c56	0.09844272
61	0x3c3073cc	0.010769796
62	0xbcc23206	-0.023705494
63	0x3c6ffc1c	0.01464751
64	0xbd2b6db6	-0.041852675
65	0x3d0c3ade	0.034235828
66	0xbbb4e382	-0.005520285
67	0x3b40b2fe	0.0029403563
68	0xbc609080	-0.0137063265
69	0xbd7bde25	-0.06149115
70	0x3c4c0008	0.012451179
71	0xbd2a6a53	-0.041605305
72	0x39969254	0.00028719252
73	0xbbaacb23	-0.005212204
74	0xbce19328	-0.02753599
75	0xbc8a8749	-0.016910212
76	0xbda43151	-0.08017219
77	0xbd5068b2	-0.050881095
78	0x3d01ff12	0.031737395
79	0xbd336612	-0.043798514
80	0x3d05a989	0.032632384
81	0x3cef3a0a	0.02920248
82	0xbd500b54	-0.050792053
83	0xbd6616c8	-0.05617407
84	0xbc08f9aa	-0.008360306
85	0x3c2f9ba5	0.010718261
86	0x3ce6b6a8	0.02816327
87	0x3ce384fb	0.027773371
88	0x3d2c2e7a	0.04203651
89	0x3be46ceb	0.006970992
90	0x3d167e6c	0.03674166
91	0x3d14e5ce	0.03635197
92	0xbd215750	-0.03938991
93	0x3cec3afc	0.02883672
94	0xbd28053b	-0.041020613
95	0xbccd62a0	-0.025071442
96	0xbcd21188	-0.025643125
97	0xbd4f4a99	-0.05060825
98	0x3d239130	0.039933383
99	0xbd41470a	-0.04718689
100	0xbcf5eb72	-0.030019496
101	0x3d18089c	0.037117586
102	0x3d20222f	0.0390951
103	0x3d07def5	0.033171613
104	0xbd2c2667	-0.04202881
105	0x3c84db2f	0.016217796
106	0xbd0b0cc7	-0.033947732
107	0xbd7fc52b	-0.062443893
108	0xbc5d52a5	-0.0135084735
109	0x3cdf741c	0.027277045
110	0xbcafc7b7	-0.021457536
111	0x3d831a8d	0.064015485
112	0xbd33556d	-0.04378264
113	0xbd549612	-0.05190093
114	0xbc8fb6f2	-0.01754329
115	0x3d579821	0.052635316
116	0x3cd25424	0.025674887
117	0x3c4558b2	0.012045072
118	0xbcd8816a	-0.026428897
119	0xbc99ce07	-0.018775
120	0xbba24470	-0.004952006
121	0x3d918302	0.07105066
122	0xbd84437b	-0.064581834
123	0x3b3ffcf7	0.0029295066
124	0xbcf884f6	-0.030336838
125	0xbcffff84	-0.031249769
126	0x3d286721	0.041113976
127	0x3d15a77d	0.036536682
128	0xbd7b837c	-0.06140469
129	0x3bfdc2a0	0.0077441484
130	0x3d4588c5	0.048226137
131	0xbce39658	-0.02778165
132	0xbb543cf6	-0.0032384968
133	0xbca8c486	-0.020601522
134	0xbd040259	-0.0322288
135	0x3b8a4620	0.0042197853
136	0xbd63153c	-0.055440173
137	0x3bfd547c	0.0077310186
138	0xbcc45b8b	-0.023969432
139	0xbd30ff22	-0.043212064
140	0x3d9e28dd	0.07722638
141	0xbb5142ca	-0.0031930679
142	0x3d804445	0.062630214
143	0x3d067cca	0.032833852
144	0x3ce9d8f4	0.028545834
145	0xbd3f44bd	-0.046696413
146	0x3d8616ec	0.06547341
147	0x3d340f03	0.04395963
148	0x3da74d80	0.08169079
149	0x3d6d4119	0.05792341
150	0x3c1af277	0.009457222
151	0x3d1ccb5e	0.038279884
152	0xbd573994	-0.052545145
153	0xbc5932e0	-0.013256758
154	0xbba300d0	-0.004974462
155	0x3d9cf781	0.07664395
156	0x3d1206ae	0.0356509
157	0xbcb211d8	-0.021737024
158	0x3c13c881	0.009019972
159	0xbc82198c	-0.015881322
160	0x3988c100	0.00026083738
161	0xbd68ac7e	-0.056805126
162	0x3991eef0	0.00027834577
163	0x3c9e8b48	0.019353524
164	0xbc904c42	-0.017614488
165	0x3cbb1c77	0.022840722
166	0xbca7e78b	-0.02049615
167	0x3d98b1e4	0.07455805
168	0xbd232df3	-0.039838742
169	0xbd31bbc1	-0.043391947
170	0x3d4df87f	0.050285812
171	0x3cddb3a4	0.027063198
172	0x3c017cc3	0.007903281
173	0x3c278b1c	0.010226037
174	0x3d8b402a	0.06799348
175	0x3ba0c900	0.0049067736
176	0xbd8f4f86	-0.0699759
177	0x3d12d87a	0.03585098
178	0xbc8a35a4	-0.016871281
179	0x3d8959c3	0.06706574
180	0xbd48ec04	-0.049053207
181	0xbc81fa90	-0.015866548
182	0xbd427c16	-0.04748162
183	0x3d779f1a	0.060454465
184	0x3d7e165a	0.062033035
185	0x3ca223b8	0.019792423
186	0x3d56b872	0.052421995
187	0x3c3f3885	0.01167119
188	0xbca3033a	-0.019899
189	0xb9d8ac48	-0.0004132709
190	0xbd840212	-0.064457074
191	0x3c33659e	0.01094952
192	0xbc01f2ed	-0.007931453
193	0x3ce047a7	0.027377916
194	0xbcbe9003	-0.02326203
195	0x3d7d4048	0.06182888
196	0x3d06c4dc	0.032902583
197	0xbd73c87f	-0.05951738
198	0x3d614937	0.055001464
199	0x3c153074	0.00910579
200	0xbcaa0361	-0.020753564
201	0xbd647b4c	-0.055781648
202	0xbcba662c	-0.022753797
203	0xbd6b68d2	-0.05747301
204	0xbd694f3e	-0.056960337
205	0xbd4398d2	-0.047753163
206	0xbc4e558d	-0.012593639
207	0x3d9eaca1	0.0774777
208	0x3d399456	0.04530748
209	0x3d50441a	0.050846197
210	0x3d14a9a0	0.03629458
211	0xbd4d9b24	-0.05019678
212	0xbc918a33	-0.017766094
213	0x3c2bdb85	0.010489349
214	0x3c110188	0.008850463
215	0xbb6c6163	-0.003606879
216	0x3c9269cc	0.017872714
217	0x3d2b5436	0.041828357
218	0xbd47d5da	-0.04878793
219	0xbd288a41	-0.041147474
220	0xbd75a1d4	-0.059968784
221	0x3cf5c0ca	0.029999156
222	0xbd56e574	-0.052464917
223	0x3d7ad774	0.06124063
224	0xbc7d39e0	-0.015455693
225	0x3cfc9ee2	0.03083748
226	0x3d9f91dc	0.07791492
227	0xbd22d212	-0.03975112
228	0xbcc86a98	-0.02446489
229	0x3b7e384f	0.0038790887
230	0xbd25055f	-0.040288325
231	0x3bfa62d0	0.007641174
232	0x3cf06c3f	0.02934849
233	0xbc9c4829	-0.019077377
234	0x3d4e32c8	0.050341398
235	0xbb5b4d74	-0.0033462914
236	0x3cd8c000	0.02645874
237	0xbd91c69b	-0.07117959
238	0x3d3d24d2	0.046177693
239	0x3d04735e	0.032336585
240	0x3d07221a	0.032991506
241	0xbd5ebc10	-0.05437857
242	0x3c6325ac	0.013863962
243	0x3bef7934	0.0073081497
244	0xbbf642b8	-0.0075152777
245	0x3d11c854	0.03559144
246	0xbd27e1b0	-0.040986717
247	0x3ce1ae95	0.027549068
248	0xbc16014c	-0.009155583
249	0x3c5f36d1	0.013623909
250	0x3cda1d98	0.02662544
251	0xbd6c025a	-0.05761943
252	0xbb287d60	-0.0025709495
253	0xbd0a8e7c	-0.03382729
254	0x3db2b7bd	0.087264515
255	0x3d2e801a	0.042602636

predict.bias f4 [5]
0	0xbd5a4522	-0.053288586
1	0xbcdcc719	-0.026950406
2	0x3d10eeb3	0.03538389
3	0x3cbccda8	0.023047283
4	0xbd43d99a	-0.047814943

exp_avg f4 [256, 25]
0	0x38448996	4.685818e-05
1	0x38db6605	0.000104617364
2	0x392daf33	0.00016563832
3	0x38b1f08a	8.4848216e-05
4	0x36aafe13	5.095973e-06
5	0x38448996	4.685818e-05
6	0xb8af2b08	-8.3526655e-05
7	0x39c2b40c	0.0003713671
8	0xb8b64a46	-8.692271e-05
9	0x35d47a34	1.5830797e-06
10	0x38448996	4.685818e-05
11	0xb9148f43	-0.00014167749
12	0xb969f8f0	-0.00022313348
13	0xb819ee8a	-3.67002e-05
14	0xb88d4c0c	-6.737569e-05
15	0x38448996	4.685818e-05
16	0xb9140056	-0.00014114505
17	0xb8d2d205	-0.000100526995
18	0xb8e8c33f	-0.000110989895
19	0xb6aaf375	-5.094737e-06
20	0x38448996	4.685818e-05
21	0xb88ef53c	-6.816766e-05
22	0xb9ad7171	-0.00033081652
23	0xb8a908d5	-8.060193e-05
24	0xb738cbd4	-1.1014712e-05
25	0x00000000	0.0
26	0x00000000	0.0
27	0x00000000	0.0
28	0x00000000	0.0
29	0x00000000	0.0
30	0x00000000	0.0
31	0x00000000	0.0
32	0x00000000	0.0
33	0x00000000	0.0
34	0x00000000	0.0
35	0x00000000	0.0
36	0x00000000	0.0
37	0x00000000	0.0
38	0x00000000	0.0
39	0x00000000	0.0
40	0x00000000	0.0
41	0x00000000	0.0
42	0x00000000	0.0
43	0x00000000	0.0
44	0x00000000	0.0
45	0x00000000	0.0
46	0x00000000	0.0
47	0x00000000	0.0
48	0x00000000	0.0
49	0x00000000	0.0
50	0x00000000	0.0
51	0x00000000	0.0
52	0x00000000	0.0
53	0x00000000	0.0
54	0x00000000	0.0
55	0x00000000	0.0
56	0x00000000	0.0
57	0x00000000	0.0
58	0x00000000	0.0
59	0x00000000	0.0
60	0x00000000	0.0
61	0x00000000	0.0
62	0x00000000	0.0
63	0x00000000	0.0
64	0x00000000	0.0
65	0x00000000	0.0
66	0x00000000	0.0
67	0x00000000	0.0
68	0x00000000	0.0
69	0x00000000	0.0
70	0x00000000	0.0
71	0x00000000	0.0
72	0x00000000	0.0
73	0x00000000	0.0
74	0x00000000	0.0
75	0xb98f1cdd	-0.0002729659
76	0xb89cab04	-7.470514e-05
77	0xb98418a9	-0.00025195375
78	0xb91e3db7	-0.00015091045
79	0xb7257dae	-9.8640285e-06
80	0xb98f1cdd	-0.0002729659
81	0xb9491404	-0.0001917631
82	0xb97feb7a	-0.00024406417
83	0x378d3aff	1.6835982e-05
84	0x3784bdd8	1.582403e-05
85	0xb98f1cdd	-0.0002729659
86	0xb928d106	-0.00016099596
87	0x38f03b68	0.00011455157
88	0x379b2f5d	1.8499495e-05
89	0x387a5349	5.968221e-05
90	0xb98f1cdd	-0.0002729659
91	0xb92a8b03	-0.0001626425
92	0x38965dfe	7.170065e-05
93	0x38a9f090	8.103356e-05
94	0x37510740	1.2459059e-05
95	0xb98f1cdd	-0.0002729659
96	0xb91531a1	-0.00014228236
97	0x3944c132	0.00018763987
98	0x389c3561	7.448602e-05
99	0x3604cd9a	1.9789209e-06
100	0x00000000	0.0
101	0x00000000	0.0
102	0x00000000	0.0
103	0x00000000	0.0
104	0x00000000	0.0
105	0x00000000	0.0
106	0x00000000	0.0
107	0x00000000	0.0
108	0x00000000	0.0
109	0x00000000	0.0
110	0x00000000	0.0
111	0x00000000	0.0
112	0x00000000	0.0
113	0x00000000	0.0
114	0x00000000	0.0
115	0x00000000	0.0
116	0x00000000	0.0
117	0x00000000	0.0
118	0x00000000	0.0
119	0x00000000	0.0
120	0x00000000	0.0
121	0x00000000	0.0
122	0x00000000	0.0
123	0x00000000	0.0
124	0x00000000	0.0
125	0x00000000	0.0
126	0x00000000	0.0
127	0x00000000	0.0
128	0x00000000	0.0
129	0x00000000	0.0
130	0x00000000	0.0
131	0x00000000	0.0
132	0x00000000	0.0
133	0x00000000	0.0
134	0x00000000	0.0
135	0x00000000	0.0
136	0x00000000	0.0
137	0x00000000	0.0
138	0x00000000	0.0
139	0x00000000	0.0
140	0x00000000	0.0
141	0x00000000	0.0
142	0x00000000	0.0
143	0x00000000	0.0
144	0x00000000	0.0
145	0x00000000	0.0
146	0x00000000	0.0
147	0x00000000	0.0
148	0x00000000	0.0
149	0x00000000	0.0
150	0x39baaa0b	0.00035603376
151	0xb804f8b0	-3.170286e-05
152	0xb8b3a07e	-8.565279e-05
153	0x39737fe8	0.00023221935
154	0x376e5d45	1.42076215e-05
155	0x39baaa0b	0.00035603376
156	0x39d46f3a	0.0004051866
157	0xb93b6754	-0.00017872202
158	0xb69a06a4	-4.5903307e-06
159	0xb745d093	-1.17906775e-05
160	0x39baaa0b	0.00035603376
161	0x39ea1fbb	0.000446556
162	0x39a19046	0.00030815805
163	0xb90e932d	-0.00013597003
164	0xb6643598	-3.4005843e-06
165	0x39baaa0b	0.00035603376
166	0x3a0eb4d3	0.0005443815
167	0xb760db08	-1.3402438e-05
168	0xb8f61630	-0.00011734327
169	0xb7adf0d8	-2.0735359e-05
170	0x39baaa0b	0.00035603376
171	0x39fc3d80	0.00048111007
172	0xb99e7b8c	-0.00030228158
173	0xb859772e	-5.1847826e-05
174	0x38065183	3.2024003e-05
175	0x37817320	1.5431608e-05
176	0x35d78944	1.6058698e-06
177	0x385413bc	5.0563118e-05
178	0xb7cd9419	-2.4506868e-05
179	0x371d9709	9.393095e-06
180	0x37817320	1.5431608e-05
181	0x37a72440	1.9924832e-05
182	0x394627bc	0.00018897554
183	0x3828bfe0	4.023302e-05
184	0xb70b8396	-8.315683e-06
185	0x37817320	1.5431608e-05
186	0xb63f3dd7	-2.8497213e-06
187	0xb92700cd	-0.0001592666
188	0x37d0ec88	2.4905676e-05
189	0xb79cde6b	-1.870022e-05
190	0x37817320	1.5431608e-05
191	0xb7104282	-8.598554e-06
192	0x3708bd0c	8.150248e-06
193	0x3827b7df	3.9987146e-05
194	0xb7239e78	-9.7524535e-06
195	0x37817320	1.5431608e-05
196	0xb62c9708	-2.571791e-06
197	0xb82e0d44	-4.1497187e-05
198	0x38125c2c	3.4894954e-05
199	0xb74fe5e7	-1.239169e-05
200	0x39e973f9	0.0004452763
201	0x3a184648	0.00058088126
202	0x38e41d85	0.00010877386
203	0x39107d33	0.0001377955
204	0xb5d07e84	-1.5534029e-06
205	0x39e973f9	0.0004452763
206	0xb8e9fcca	-0.000111573914
207	0x36231458	2.4300734e-06
208	0xb80ef452	-3.408298e-05
209	0x36b131e9	5.2808214e-06
210	0x39e973f9	0.0004452763
211	0xb90aca08	-0.00013235968
212	0xb7c2fac2	-2.324337e-05
213	0xb87f09bb	-6.08058e-05
214	0x377a0322	1.4901891e-05
215	0x39e973f9	0.0004452763
216	0xb912f1fc	-0.00014013791
217	0x394e8501	0.00019695239
218	0xb7e2ab13	-2.7020962e-05
219	0x362ee3ae	2.6060547e-06
220	0x39e973f9	0.0004452763
221	0xb6a3b870	-4.87925e-06
222	0x37bad4fc	2.2272106e-05
223	0xb7eedb8d	-2.8474047e-05
224	0xb7810b3d	-1.5383232e-05
225	0x00000000	0.0
226	0x00000000	0.0
227	0x00000000	0.0
228	0x00000000	0.0
229	0x00000000	0.0
230	0x00000000	0.0
231	0x00000000	0.0
232	0x00000000	0.0
233	0x00000000	0.0
234	0x00000000	0.0
235	0x00000000	0.0
236	0x00000000	0.0
237	0x00000000	0.0
238	0x00000000	0.0
239	0x00000000	0.0
240	0x00000000	0.0
241	0x00000000	0.0
242	0x00000000	0.0
243	0x00000000	0.0
244	0x00000000	0.0
245	0x00000000	0.0
246	0x00000000	0.0
247	0x00000000	0.0
248	0x00000000	0.0
249	0x00000000	0.0
250	0xba9ba580	-0.0011874884
251	0xba90cccd	-0.0011047364
252	0xb90465f7	-0.00012626486
253	0xb9b18db1	-0.0003386564
254	0x36e3e05e	6.791247e-06
255	0xba9ba580	-0.0011874884

exp_avg_sq f4 [256, 25]
0	0x3558da12	8.0783605e-07
1	0x355176c0	7.803137e-07
2	0x3458c1b8	2.0187042e-07
3	0x33b8aae3	8.599252e-08
4	0x2e4d63ee	4.670036e-11
5	0x3558da12	8.0783605e-07
6	0x312e3fba	2.5356557e-09
7	0x33e2b639	1.0557091e-07
8	0x31f495f9	7.1183845e-09
9	0x2f017f4c	1.1777707e-10
10	0x3558da12	8.0783605e-07
11	0x32a6af43	1.9404643e-08
12	0x341b2ad3	1.4451079e-07
13	0x31dc5f5e	6.4136847e-09
14	0x308af7d5	1.011126e-09
15	0x3558da12	8.0783605e-07
16	0x337dbf68	5.9080236e-08
17	0x33c90059	9.359855e-08
18	0x31e5e412	6.6907058e-09
19	0x2e52caca	4.7928585e-11
20	0x3558da12	8.0783605e-07
21	0x340710a9	1.2578916e-07
22	0x33ecad6f	1.1021154e-07
23	0x31e04b15	6.527794e-09
24	0x2ea3e21f	7.452549e-11
25	0x00000000	0.0
26	0x00000000	0.0
27	0x00000000	0.0
28	0x00000000	0.0
29	0x00000000	0.0
30	0x00000000	0.0
31	0x00000000	0.0
32	0x00000000	0.0
33	0x00000000	0.0
34	0x00000000	0.0
35	0x00000000	0.0
36	0x00000000	0.0
37	0x00000000	0.0
38	0x00000000	0.0
39	0x00000000	0.0
40	0x00000000	0.0
41	0x00000000	0.0
42	0x00000000	0.0
43	0x00000000	0.0
44	0x00000000	0.0
45	0x00000000	0.0
46	0x00000000	0.0
47	0x00000000	0.0
48	0x00000000	0.0
49	0x00000000	0.0
50	0x00000000	0.0
51	0x00000000	0.0
52	0x00000000	0.0
53	0x00000000	0.0
54	0x00000000	0.0
55	0x00000000	0.0
56	0x00000000	0.0
57	0x00000000	0.0
58	0x00000000	0.0
59	0x00000000	0.0
60	0x00000000	0.0
61	0x00000000	0.0
62	0x00000000	0.0
63	0x00000000	0.0
64	0x00000000	0.0
65	0x00000000	0.0
66	0x00000000	0.0
67	0x00000000	0.0
68	0x00000000	0.0
69	0x00000000	0.0
70	0x00000000	0.0
71	0x00000000	0.0
72	0x00000000	0.0
73	0x00000000	0.0
74	0x00000000	0.0
75	0x361f8cf0	2.3774883e-06
76	0x36195811	2.2850038e-06
77	0x34f9a4be	4.649973e-07
78	0x348f8361	2.6731416e-07
79	0x2f07dad3	1.235592e-10
80	0x361f8cf0	2.3774883e-06
81	0x324b3ac7	1.182952e-08
82	0x34a4d348	3.0701108e-07
83	0x32bcbc18	2.1971616e-08
84	0x2fee6f47	4.3371015e-10
85	0x361f8cf0	2.3774883e-06
86	0x338290a9	6.07991e-08
87	0x348dee04	2.6436476e-07
88	0x32d2efa1	2.4556188e-08
89	0x30e7debb	1.6870766e-09
90	0x361f8cf0	2.3774883e-06
91	0x343705ec	1.7045357e-07
92	0x347a5cc0	2.3316807e-07
93	0x32cd31c7	2.3887777e-08
94	0x2f2e31ce	1.5842902e-10
95	0x361f8cf0	2.3774883e-06
96	0x34b98ecc	3.4562834e-07
97	0x342ba0c6	1.5984105e-07
98	0x32cc026c	2.3749827e-08
99	0x2f29d08b	1.544455e-10
100	0x00000000	0.0
101	0x00000000	0.0
102	0x00000000	0.0
103	0x00000000	0.0
104	0x00000000	0.0
105	0x00000000	0.0
106	0x00000000	0.0
107	0x00000000	0.0
108	0x00000000	0.0
109	0x00000000	0.0
110	0x00000000	0.0
111	0x00000000	0.0
112	0x00000000	0.0
113	0x00000000	0.0
114	0x00000000	0.0
115	0x00000000	0.0
116	0x00000000	0.0
117	0x00000000	0.0
118	0x00000000	0.0
119	0x00000000	0.0
120	0x00000000	0.0
121	0x00000000	0.0
122	0x00000000	0.0
123	0x00000000	0.0
124	0x00000000	0.0
125	0x00000000	0.0
126	0x00000000	0.0
127	0x00000000	0.0
128	0x00000000	0.0
129	0x00000000	0.0
130	0x00000000	0.0
131	0x00000000	0.0
132	0x00000000	0.0
133	0x00000000	0.0
134	0x00000000	0.0
135	0x00000000	0.0
136	0x00000000	0.0
137	0x00000000	0.0
138	0x00000000	0.0
139	0x00000000	0.0
140	0x00000000	0.0
141	0x00000000	0.0
142	0x00000000	0.0
143	0x00000000	0.0
144	0x00000000	0.0
145	0x00000000	0.0
146	0x00000000	0.0
147	0x00000000	0.0
148	0x00000000	0.0
149	0x00000000	0.0
150	0x35d8b5ad	1.6146129e-06
151	0x35cd743e	1.5307521e-06
152	0x351cd60f	5.8426025e-07
153	0x342c2e3a	1.6035565e-07
154	0x2ec5b008	8.989792e-11
155	0x35d8b5ad	1.6146129e-06
156	0x3269a40c	1.3599685e-08
157	0x346aff08	2.1885728e-07
158	0x325a7363	1.2715506e-08
159	0x3001297f	4.6988896e-10
160	0x35d8b5ad	1.6146129e-06
161	0x3377b012	5.7669304e-08
162	0x350201cd	4.8431394e-07
163	0x328a2af7	1.6084853e-08
164	0x2ed17968	9.525786e-11
165	0x35d8b5ad	1.6146129e-06
166	0x33ff654e	1.189279e-07
167	0x348e5fbd	2.651922e-07
168	0x328b10a8	1.6189304e-08
169	0x2efb6053	1.1431269e-10
170	0x35d8b5ad	1.6146129e-06
171	0x34819b6a	2.41412e-07
172	0x33d65195	9.979991e-08
173	0x3284cf86	1.5461193e-08
174	0x2f8779ef	2.4642996e-10
175	0x34da949d	4.0713795e-07
176	0x34d40ae7	3.949601e-07
177	0x33a38f5d	7.6163566e-08
178	0x333a59b4	4.3388084e-08
179	0x2dce002f	2.341957e-11
180	0x34da949d	4.0713795e-07
181	0x30b4ad7c	1.3146031e-09
182	0x3323051f	3.7956053e-08
183	0x3160e9ad	3.272912e-09
184	0x2e8ba427	6.3501475e-11
185	0x34da949d	4.0713795e-07
186	0x3219f61f	8.961734e-09
187	0x33753261	5.7089327e-08
188	0x317ba6dd	3.6620158e-09
189	0x2ee50aed	1.0415655e-10
190	0x34da949d	4.0713795e-07
191	0x32e8b142	2.7088962e-08
192	0x330e3ea5	3.3118926e-08
193	0x3154d09d	3.0968643e-09
194	0x2dd19398	2.3826094e-11
195	0x34da949d	4.0713795e-07
196	0x337737ac	5.7559802e-08
197	0x3335489b	4.220838e-08
198	0x317072b4	3.4989798e-09
199	0x2e30a14b	4.0161024e-11
200	0x3535ff25	6.779904e-07
201	0x35346bf4	6.721232e-07
202	0x340e2165	1.323693e-07
203	0x338dc4e6	6.60164e-08
204	0x2e6e7d54	5.422625e-11
205	0x3535ff25	6.779904e-07
206	0x31323f3a	2.593835e-09
207	0x336e7cf3	5.5527334e-08
208	0x317c9f27	3.6761294e-09
209	0x2eb11520	8.052781e-11
210	0x3535ff25	6.779904e-07
211	0x328885c7	1.5893319e-08
212	0x33d3f060	9.869177e-08
213	0x31a02cb2	4.661694e-09
214	0x2f1f7a4a	1.4504412e-10
215	0x3535ff25	6.779904e-07
216	0x33344eec	4.1981295e-08
217	0x334c367e	4.754701e-08
218	0x31883688	3.9643204e-09
219	0x2e83cd4d	5.993659e-11
220	0x3535ff25	6.779904e-07
221	0x33bb67f5	8.726776e-08
222	0x338e7f5f	6.635559e-08
223	0x319a46e7	4.4900506e-09
224	0x2ea396e1	7.439183e-11
225	0x00000000	0.0
226	0x00000000	0.0
227	0x00000000	0.0
228	0x00000000	0.0
229	0x00000000	0.0
230	0x00000000	0.0
231	0x00000000	0.0
232	0x00000000	0.0
233	0x00000000	0.0
234	0x00000000	0.0
235	0x00000000	0.0
236	0x00000000	0.0
237	0x00000000	0.0
238	0x00000000	0.0
239	0x00000000	0.0
240	0x00000000	0.0
241	0x00000000	0.0
242	0x00000000	0.0
243	0x00000000	0.0
244	0x00000000	0.0
245	0x00000000	0.0
246	0x00000000	0.0
247	0x00000000	0.0
248	0x00000000	0.0
249	0x00000000	0.0
250	0x3649c97a	3.0068609e-06
251	0x36460c6e	2.9511534e-06
252	0x35611fcd	8.386531e-07
253	0x34bfa098	3.569337e-07
254	0x2f275567	1.5218903e-10
255	0x3649c97a	3.0068609e-06
