highway_ddqn/ddqn_tuned_reward_change/checkpoint-17000.tar (torch, 892362 bytes, 18 tensors)

layers.0.weight f4 [256, 25]
0	0xbec882eb	-0.39162382
1	0x3bde934b	0.006792461
2	0x3f1f0b6e	0.62126815
3	0x3eccbe48	0.39988923
4	0x402a72e4	2.6632624
5	0xbe8e909d	-0.27844706
6	0x409f3ab2	4.975915
7	0xc02e4972	-2.7232327
8	0x3f1750c0	0.5910759
9	0xc0b8a529	-5.770161
10	0xbe501c19	-0.20323218
11	0x3f871809	1.055421
12	0x3eabe514	0.3357321
13	0xbf1b03d2	-0.60552704
14	0xbeca16d5	-0.39470544
15	0xbe3c0f55	-0.18365224
16	0x3fd1c334	1.6387696
17	0xbe1029a8	-0.1407839
18	0xbe21f50e	-0.15816137
19	0xc03e0ee6	-2.9696593
20	0xbd35ce67	-0.044386294
21	0x3f175e6e	0.59128463
22	0xbee9c300	-0.45656586
23	0xbec23e4f	-0.37938163
24	0xbffb7b15	-1.9646937
25	0xbe0bc46d	-0.13649149
26	0xbe09df23	-0.13464026
27	0xbe2e3f58	-0.17016351
28	0x3d860330	0.06543577
29	0x3bf311cd	0.0074178935
30	0xbdd333ed	-0.103126384
31	0xbd9853ca	-0.074378565
32	0x3e3e6f07	0.18597041
33	0x3d0f4b1a	0.03498373
34	0xbcec2833	-0.028827762
35	0x3d2e8827	0.042610314
36	0x3d6abf87	0.05731156
37	0x3e1c1010	0.15240502
38	0xbd01dcfa	-0.03170488
39	0x3e371d7d	0.17882343
40	0xbe315dc5	-0.17320926
41	0x3d493b40	0.04912877
42	0xbc90c2a7	-0.017670942
43	0x3e2c26e5	0.16811712
44	0xbe13b0a8	-0.14422858
45	0x3a7fb000	0.0009753704
46	0xbc6b8f33	-0.014377403
47	0xbd8a2997	-0.06746214
48	0xbca36600	-0.019946098
49	0xbe0a2473	-0.13490467
50	0xbd11aeda	-0.035567142
51	0xbd1853fa	-0.03718946
52	0x3ccc9bda	0.02497666
53	0xbc12ad9a	-0.008952523
54	0xbddec097	-0.10876577
55	0xbda18e83	-0.0788851
56	0xbd320933	-0.043465804
57	0x3dbd534d	0.09244404
58	0x3d9513f3	0.07279196
59	0xbd573513	-0.05254085
60	0xbd06ea0d	-0.032938052
61	0xbe26a195	-0.16272576
62	0x3b51979a	0.003198123
63	0xbcebc073	-0.02877829
64	0x3e0349d0	0.12821126
65	0xbd6b78e0	-0.057488322
66	0x3d67f8da	0.056633808
67	0xbd7bac67	-0.061443713
68	0xbe07d84b	-0.13266103
69	0xbe17cd5f	-0.14824437
70	0xbe1394aa	-0.1441218
71	0x3dfb2f13	0.12264838
72	0xbdf7507d	-0.12075899
73	0x3e03e21b	0.12879221
74	0xbd5af26d	-0.05345385
75	0xbeca3eef	-0.3950114
76	0xbe5490c4	-0.20758349
77	0x3fd603f3	1.6719955
78	0x3fd1cf35	1.639136
79	0xbe96acde	-0.29428762
80	0xbdff3df0	-0.124629855
81	0xbf54f5e3	-0.83187693
82	0x3fe1d0ac	1.7641807
83	0xbe941854	-0.2892481
84	0x3f9887c8	1.1916437
85	0xbe183fa8	-0.14868033
86	0xbf0c2031	-0.5473662
87	0x3c3b42d4	0.011429507
88	0xbf80fbd5	-1.0076853
89	0xbf3719b6	-0.71523607
90	0xbecea71f	-0.40361878
91	0x4015a971	2.338467
92	0x40224063	2.5351799
93	0x3eb3ebfe	0.35140985
94	0x3ee945de	0.45561117
95	0xbdd843af	-0.105597846
96	0x3fa18614	1.2619042
97	0xbf3a1175	-0.7268289
98	0x3d72e0cd	0.059296418
99	0xbe562ada	-0.20914784
100	0x3b436ccd	0.002981949
101	0xbe05950d	-0.1304514
102	0xbe3c86e7	-0.18410836
103	0xbe2fe855	-0.17178471
104	0x3e1d82d8	0.15381944
105	0xbd87c1e0	-0.066287756
106	0x3e4b384a	0.19845691
107	0xbde47cb3	-0.11156597
108	0x3e1887dd	0.14895578
109	0x3e03e14a	0.1287891
110	0x3d947b7d	0.07250116
111	0xbdc4419d	-0.09582827
112	0xbd35a033	-0.04434223
113	0xbdcc2c63	-0.099694036
114	0xbdeac5b3	-0.114634894
115	0xbe0bf4ea	-0.13667646
116	0xbdb873c0	-0.090064526
117	0x3e4c69aa	0.19962183
118	0xbe234d8a	-0.15947548
119	0xbde35843	-0.11100819
120	0xbe33d0c8	-0.17560112
121	0xbd068800	-0.032844543
122	0xbdd333a0	-0.10312581
123	0x3d843977	0.06456273
124	0xbccd9280	-0.02509427
125	0xbe0a6e38	-0.13518608
126	0xbd1ea693	-0.038733076
127	0xbd9438ca	-0.07237394
128	0x3dc10770	0.09425247
129	0xbddd9000	-0.108184814
130	0xbda652e3	-0.08121278
131	0x3e02f22b	0.12787692
132	0x3e1bbc00	0.15208435
133	0xbe4b3e93	-0.19848089
134	0x3e2ee17d	0.17078204
135	0xbb7f9b33	-0.0039002418
136	0xbe0d2ffb	-0.13787834
137	0xbd7cc65a	-0.0617126
138	0xbd35ae87	-0.044355895
139	0x3cad5d73	0.021162724
140	0x3dbd51ed	0.09244142
141	0xbe217380	-0.15766716
142	0xbce04e27	-0.027381016
143	0x3e0f2682	0.13979533
144	0xbe365e05	-0.17809303
145	0xbe32590b	-0.1741678
146	0x3d06d8d3	0.032921623
147	0x3e33108b	0.1748678
148	0xbd570a4d	-0.052500058
149	0x3e099bd5	0.13438351
150	0xbe4b82f1	-0.19874169
151	0xbeab6fdd	-0.33483782
152	0x3f4dba68	0.8036256
153	0x3f5ec5b8	0.87020445
154	0x3e9db1fe	0.3079986
155	0xbe55a335	-0.2086304
156	0x3e704d11	0.23466899
157	0x3ecb41e5	0.3969871
158	0xbf0ac07b	-0.5419995
159	0x3eb6b814	0.35687315
160	0xbe810218	-0.2519691
161	0xbf58507d	-0.84497815
162	0xbe89d2ac	-0.26918542
163	0xbf1fb09b	-0.62378854
164	0x3e7d56bb	0.24740116
165	0xbe60970d	-0.21932621
166	0xbfa7f678	-1.3122091
167	0xbe8991f4	-0.26869166
168	0xbf9ce449	-1.2257167
169	0x3e09057d	0.13381
170	0xbe0d3064	-0.13787991
171	0x3f030f18	0.51194906
172	0x3f11dc6f	0.5697698
173	0xbf761b50	-0.96135426
174	0xbf384036	-0.7197298
175	0xbd78e0d7	-0.0607613
176	0x3bd71fad	0.0065650553
177	0xbee9aa53	-0.4563776
178	0x3f1fb5d4	0.6238682
179	0xbda78caf	-0.0818113
180	0xbeb6be39	-0.35692003
181	0xc015c7c5	-2.340318
182	0xbf50d301	-0.81571966
183	0xbf01aed4	-0.5065739
184	0xbee90349	-0.4551032
185	0xbe3f736a	-0.1869637
186	0xbfa84dfb	-1.3148798
187	0xbe26a3c1	-0.16273405
188	0xbe4a74a3	-0.19771056
189	0xbeda5640	-0.4264393
190	0xbe654f0c	-0.22393435
191	0xbe7a2c46	-0.24430951
192	0xbf2b15cd	-0.6683014
193	0xbf636a12	-0.88833725
194	0xbf7c545c	-0.9856622
195	0xbe9b16b9	-0.30290774
196	0xbe35d741	-0.17757894
197	0x3fa1f05d	1.2651478
198	0x3d15c179	0.036561463
199	0x3e87670e	0.26445812
200	0x3f1fad1d	0.62373525
201	0x3f2b0153	0.66798896
202	0x3f9a467e	1.2052763
203	0x40003f8a	2.003878
204	0xbf9c653b	-1.2218393
205	0x3eec4d8b	0.4615291
206	0xbf83d0f2	-1.029814
207	0xbdbc03f2	-0.0918044
208	0xbf74e2a5	-0.9565833
209	0x3e860145	0.26172844
210	0x3f10e055	0.56592304
211	0xbf50fcc5	-0.81635696
212	0xbec12913	-0.3772665
213	0xbfa66671	-1.3000013
214	0xbedcb058	-0.4310329
215	0x3ee25b89	0.4421046
216	0x3f9c2923	1.2200054
217	0xbfbcc72f	-1.4748286
218	0x3d11fae7	0.03563967
219	0xbee9b27f	-0.45643994
220	0x3f105e0b	0.563935
221	0x3f969a7c	1.1765895
222	0xbfa1222e	-1.2588556
223	0xbe23ee7a	-0.1600894
224	0xbcc07cf6	-0.023497086
225	0x3d4078ed	0.046990324
226	0xbdebb67a	-0.11509414
227	0x3e314b8a	0.17313972
228	0xbe0fd073	-0.14044361
229	0x3d69283a	0.05692313
230	0xbdf9d68d	-0.121991254
231	0xbe067f30	-0.13134456
232	0x3e19dfdf	0.15026806
233	0xbdc6cca7	-0.09707003
234	0xbda851c7	-0.08218723
235	0xbc0a8c9a	-0.008456374
236	0xbd8e73dd	-0.06955693
237	0xba615000	-0.000859499
238	0xbd7364ba	-0.059422232
239	0xbd339bfa	-0.043849923
240	0xbdbb2303	-0.09137537
241	0xbdc3684a	-0.09541376
242	0xbc4490e7	-0.011997438
243	0xbe4b2c5f	-0.19841145
244	0xbda5d7d7	-0.08097809
245	0xbc9690e7	-0.018379642
246	0x3d8cf060	0.068817854
247	0x3e45472a	0.19265428
248	0x3e3accbd	0.18242164
249	0x3da4053d	0.080088116
250	0x3e03fcbb	0.12889378
251	0xbe300815	-0.17190583
252	0x3dc0a09e	0.09405635
253	0xbe3cbc8f	-0.18431304
254	0xbef469d8	-0.47737002
255	0x3e95d786	0.29265994

layers.0.bias f4 [256]
0	0xbd613e60	-0.054991126
1	0xbc98e6c0	-0.018664718
2	0x3e377c20	0.17918444
3	0xbea4d037	-0.32190105
4	0x3da2de60	0.07952571
5	0xbd87f51d	-0.066385485
6	0xbed40a69	-0.41414192
7	0xbe4b02c0	-0.19825268
8	0x3f14c70e	0.58116233
9	0x3d8f50f0	0.069978595
10	0x3cd12c8a	0.025533933
11	0x3d5bbe13	0.053648066
12	0xbe6d1d5c	-0.23155731
13	0x3e44c749	0.19216646
14	0x3e107609	0.14107527
15	0xbdbee8de	-0.0932176
16	0xbd00d057	-0.03144869
17	0xbdd68b96	-0.10475843
18	0xbd153f38	-0.036437243
19	0xbe3a42d3	-0.18189554
20	0xbe9b3c78	-0.30319571
21	0xbe2c5727	-0.16830121
22	0xbe625dee	-0.22106144
23	0xbd279f1c	-0.040923223
24	0xbe4633b9	-0.19355668
25	0xbe18588f	-0.14877532
26	0xbdc31853	-0.09526124
27	0xbe6b55c3	-0.22981934
28	0xbd46c360	-0.048526168
29	0xbd7af53f	-0.06126904
30	0xbe9c9808	-0.3058474
31	0x3e2e40cf	0.1701691
32	0x3d35304d	0.044235516
33	0x3c848b8b	0.01617982
34	0xbd851d00	-0.06499672
35	0x3bacc26f	0.0052722017
36	0xbd894727	-0.06703024
37	0xbde8e129	-0.11371071
38	0xbeb22eb1	-0.34801248
39	0xbde4f660	-0.11179805
40	0xbeeca7be	-0.46221727
41	0xbe9ada3e	-0.3024463
42	0xbe26dc0f	-0.16294883
43	0xbe26fee7	-0.16308175
44	0xbc1f13dd	-0.009709326
45	0xbea8c2d1	-0.32961133
46	0xbe399caf	-0.18126176
47	0xbdbc0665	-0.09180907
48	0x3d4c3101	0.04985142
49	0xbe35c691	-0.17751528
50	0x3d630e26	0.055433415
51	0xbe1426ff	-0.14468001
52	0x3e280932	0.16409758
53	0xbe30af0c	-0.17254275
54	0x3e46ea47	0.19425307
55	0x3c3a09ae	0.011354847
56	0x3d34cbc7	0.04413965
57	0xbdfa3a10	-0.12218106
58	0x3d349fbc	0.044097647
59	0xbe2a15cd	-0.16609879
60	0xbe549d21	-0.20763065
61	0xbd80480a	-0.0626374
62	0xbeb64caa	-0.35605365
63	0xbe15c23b	-0.14624874
64	0xbe47704c	-0.19476432
65	0xbd9e1a4f	-0.07719862
66	0xbe3f041a	-0.18653908
67	0x3c54179d	0.012945083
68	0xbe8bef04	-0.27330792
69	0xbea6ba2d	-0.32563916
70	0xbdeee9a1	-0.11665655
71	0xbe85fe90	-0.26170778
72	0xbe14df9a	-0.14538422
73	0x3dc81aea	0.097707585
74	0x3e84ca99	0.2593582
75	0xbe2da9d2	-0.16959313
76	0xbe41df2a	-0.18932787
77	0xbdf15327	-0.11783438
78	0xb92cc675	-0.00016477129
79	0xbeb9fec8	-0.36327195
80	0xbddcc9b4	-0.10780659
81	0x3c87cdee	0.016577687
82	0x3e3d7796	0.1850265
83	0xbe948432	-0.29007107
84	0x3d447560	0.0479635
85	0xbe5a0dbf	-0.21294306
86	0x3db67a80	0.08910084
87	0xbab5126f	-0.0013814698
88	0xbd9b0ad7	-0.07570427
89	0xbda9d506	-0.08292584
90	0x3e871602	0.26383978
91	0xbd7febb5	-0.062480647
92	0xbdac7b9a	-0.084220126
93	0x3db27c77	0.08715146
94	0xbd4dadf1	-0.05021471
95	0xbea74fa6	-0.32677954
96	0xbcc8c5cf	-0.024508385
97	0xbd4722e5	-0.048617262
98	0xbdea0258	-0.11426228
99	0xbd5976db	-0.053091865
100	0x3dd7f385	0.105444945
101	0x3e46053f	0.19337939
102	0xbe477b75	-0.19480689
103	0xbe948208	-0.29005456
104	0x3c1e6a6a	0.009668926
105	0xbbcf9667	-0.006335068
106	0xbddfc391	-0.10925973
107	0xbe39698b	-0.18106668
108	0x3d107773	0.035270166
109	0x3da5aa96	0.08089177
110	0xbd4900d4	-0.049073055
111	0xbe553bca	-0.20823589
112	0xbdbcef9d	-0.0922539
113	0x3d877afe	0.06615256
114	0xbe189895	-0.14901955
115	0xbca4e3cd	-0.020128155
116	0xbe7b1438	-0.24519432
117	0xbe04c9fd	-0.12967677
118	0xbe89e19d	-0.26929942
119	0xbdbdbee6	-0.092649266
120	0x3e3c97fe	0.18417355
121	0xbeb4ed89	-0.35337475
122	0xba6ab03b	-0.0008952652
123	0xbe809ce0	-0.25119686
124	0x3e5dec6a	0.21672216
125	0xbe0c8d74	-0.13725835
126	0xbd8c25c3	-0.0684314
127	0xbea2c998	-0.3179443
128	0xbe7beac7	-0.24601279
129	0x3e449873	0.1919878
130	0xbd4887e8	-0.048957735
131	0xbe9fd46d	-0.31216756
132	0xbdf66eca	-0.1203285
133	0xbea0dd7a	-0.31418973
134	0x3c7a1048	0.015262671
135	0x3dcd7436	0.10031931
136	0xbeadcf3f	-0.3394718
137	0x3cbeca8b	0.02328994
138	0xbe83f258	-0.2577083
139	0xbe0d2de0	-0.13787031
140	0xbe5f0c04	-0.21781927
141	0xbe2302e5	-0.15919073
142	0xbe779145	-0.2417651
143	0xbe878421	-0.26467994
144	0x3d7adea7	0.061247494
145	0xbe2148d3	-0.15750436
146	0xbea09021	-0.31359962
147	0x3e8b7993	0.2724119
148	0xbd9de61d	-0.07709906
149	0xbe22c34a	-0.1589481
150	0xbe6da6c2	-0.23208144
151	0xbf1c727e	-0.611122
152	0xbec88b94	-0.3916899
153	0xbdec09f6	-0.115253374
154	0xbe903246	-0.28163356
155	0x3d4ecd53	0.05048878
156	0x3f1c3920	0.61024666
157	0xbed465e2	-0.4148398
158	0x3bab7700	0.0052326918
159	0xbbe9f02b	-0.007139226
160	0x3e73826f	0.23780225
161	0x3d06d2db	0.03291593
162	0xbe073389	-0.13203253
163	0xbd9a9d2e	-0.07549511
164	0x3da3c692	0.07996859
165	0xbe00a668	-0.12563479
166	0xbe519550	-0.20467114
167	0xbd8a4700	-0.067518234
168	0xbe925bb9	-0.28585604
169	0xbe8cdc6c	-0.2751192
170	0xbdc318da	-0.095262244
171	0xbf059cb6	-0.52192247
172	0xbec7dc82	-0.39035422
173	0xbd883cbd	-0.0665221
174	0xbcce89ca	-0.025212187
175	0xbde8aadb	-0.11360713
176	0xbef050a0	-0.46936512
177	0xbdeb3c9d	-0.114861704
178	0xbe478366	-0.19483718
179	0xbe13c5ad	-0.14430876
180	0x3e06caf2	0.13163355
181	0x3c0d5080	0.00862515
182	0xbdcfc918	-0.101457775
183	0xbdc29400	-0.09500885
184	0xbdf62ba3	-0.12020042
185	0x3e25586c	0.16147012
186	0x3ccd2520	0.025042117
187	0xbe1090e7	-0.14117776
188	0xbdebf2ad	-0.11520896
189	0xbcad84d4	-0.021181501
190	0x3e7da4e4	0.24769932
191	0xbe97ea51	-0.29670957
192	0x3e16a12b	0.14709918
193	0xbc51739a	-0.012783909
194	0xbe1c3714	-0.15255386
195	0xbe85eee2	-0.26158816
196	0xbe36ca1b	-0.17850535
197	0xbea4e469	-0.32205513
198	0xbea15c60	-0.3151579
199	0xbeacec6c	-0.33774126
200	0xbde48faa	-0.11160214
201	0xbd9037c0	-0.070418835
202	0xbe84c2e4	-0.2592994
203	0x3c671336	0.014103701
204	0xbd566585	-0.05234291
205	0xbe8272f0	-0.25478315
206	0xbd8f9ca0	-0.07012296
207	0xbf2cd5b0	-0.6751356
208	0xbdb568e9	-0.08857901
209	0x3f920c1c	1.1409945
210	0xbcd3f94b	-0.025875708
211	0x3dd67f28	0.10473472
212	0xbe69e501	-0.22841264
213	0xbe15142c	-0.14558476
214	0xbca03ce3	-0.019560283
215	0xbed017bc	-0.40643108
216	0xbe6040ad	-0.21899672
217	0x3d5ad079	0.05342147
218	0xbe2c988e	-0.1685507
219	0xbe47fde7	-0.1953045
220	0xbe44b97a	-0.19211379
221	0xbc0ac7b9	-0.008470469
222	0x3e5f3a02	0.21799472
223	0xbe68e9f1	-0.22745492
224	0xbe0720da	-0.13196126
225	0x3d62464b	0.055242818
226	0xbe4a502f	-0.1975715
227	0xbf00ed45	-0.50362045
228	0xbd8db130	-0.069185615
229	0x3e31e74c	0.17373389
230	0x3d32e83f	0.04367852
231	0x3e2ea7fd	0.1705627
232	0xbd522ad0	-0.05131036
233	0x3cb30386	0.021852266
234	0xbe4b1848	-0.19833481
235	0xbebe5316	-0.37172765
236	0xbdd0259d	-0.10163424
237	0xbd950325	-0.072759904
238	0xbe2eb9fb	-0.17063133
239	0xbed1eee8	-0.41002584
240	0xbeb817f7	-0.35955784
241	0xbd41292f	-0.047158416
242	0xbcbb1c03	-0.022840505
243	0xbef9d842	-0.48797804
244	0xbd468a23	-0.04847158
245	0xbecc6815	-0.39923158
246	0xbd688590	-0.056768
247	0xbe588769	-0.21145405
248	0x3d3537b6	0.044242583
249	0x3d0a9127	0.033829834
250	0x3bf3aef4	0.0074366275
251	0xbd51aa60	-0.051187873
252	0xbe3c1c6a	-0.18370214
253	0x3e828cfa	0.25498182
254	0x3e94286f	0.28937098
255	0xbeaff80c	-0.34368932

layers.1.weight f4 [256, 256]
0	0xbdf95a63	-0.12175443
1	0x3d5abff6	0.053405724
2	0x3d32a236	0.043611728
3	0xbef06447	-0.46951506
4	0x3a2edc80	0.00066704303
5	0xbd7e6e12	-0.06211669
6	0x3d9a9e87	0.07549768
7	0x3e6763b6	0.2259663
8	0x3f441555	0.7659505
9	0x3d75e26e	0.060030393
10	0xbe942893	-0.28937206
11	0xbd6370b6	-0.05552741
12	0x3eb0467a	0.3442877
13	0xc0158618	-2.3363094
14	0xbce3d4cb	-0.027811429
15	0xbfa46035	-1.284186
16	0xbf435515	-0.763017
17	0x3d143c8f	0.036190566
18	0xbdc4b40b	-0.09604653
19	0x3e7db545	0.2477618
20	0xbe3184ef	-0.17335866
21	0xbd70f6d8	-0.05882916
22	0x3f89e43e	1.0772779
23	0xbea5333a	-0.32265645
24	0xbf1bb67b	-0.6082532
25	0x3f0c7b19	0.5487533
26	0xbc8e5b20	-0.017377436
27	0xbe8f0359	-0.27932242
28	0x3d59010a	0.052979507
29	0x3faa7f69	1.3320132
30	0x3d323dce	0.043515973
31	0x3d0fc082	0.0350957
32	0xbe2a24d3	-0.1661561
33	0xbcdb7757	-0.026790304
34	0x3e9dddd5	0.30833307
35	0xbfd91309	-1.6958934
36	0x3d7bde50	0.06149131
37	0xbdf37d03	-0.118890785
38	0xbf252a19	-0.6451736
39	0x3d06ff58	0.03295836
40	0xbf96788f	-1.1755542
41	0x3e0f685a	0.1400465
42	0xbf0b40e3	-0.54395884
43	0xbc80a56c	-0.01570388
44	0xbcb5991e	-0.022167739
45	0x3c4c007b	0.012451286
46	0x3f19a31b	0.60014504
47	0xbf00b2e8	-0.5027299
48	0xbd9a55b0	-0.07535875
49	0xbee2e1d9	-0.44312933
50	0x3c9cf5b4	0.01916013
51	0xbd5a9bb2	-0.05337114
52	0xbbd03b45	-0.0063547217
53	0x3dcdcdd9	0.10049028
54	0x3b969250	0.0045950785
55	0x3ef05bba	0.46944982
56	0xbf627246	-0.8845562
57	0xbd519634	-0.051168635
58	0x3e04a287	0.12952624
59	0xbd33816c	-0.0438246
60	0xbe79ef74	-0.2440775
61	0x3e3c1714	0.18368179
62	0xbf8d7bf8	-1.1053457
63	0xbf31330d	-0.6921852
64	0x39dee103	0.00042510786
65	0x3eb20961	0.3477278
66	0x3c0ec038	0.008712821
67	0x3ee9a876	0.45636338
68	0xbe7826c8	-0.24233544
69	0x3c7f380b	0.0155773265
70	0x3df1bb26	0.11803274
71	0xbd00115c	-0.031266555
72	0xbf2669a7	-0.6500496
73	0xbc962e40	-0.0183326
74	0x3c225e14	0.009910125
75	0x3d5a4cf0	0.05329603
76	0x3beafe50	0.0071714297
77	0xbe84ab2a	-0.25911838
78	0xbfc89c30	-1.5672665
79	0x3e2a788e	0.1664755
80	0xbfa7c821	-1.310795
81	0xc09dd607	-4.9323764
82	0x3d924a8e	0.071431264
83	0xbdee73a0	-0.116431475
84	0x3cbd39c4	0.023098834
85	0xbf6ed375	-0.9329141
86	0x3f0d95b1	0.55306536
87	0xbfd9e62b	-1.7023367
88	0xbc10c278	-0.008835427
89	0x3add5005	0.001688481
90	0xbe29f31f	-0.1659665
91	0xbe437317	-0.19086872
92	0x3d509942	0.050927408
93	0x3d1b613e	0.037934534
94	0xbf07d7d6	-0.53063715
95	0xbe5bc8c1	-0.214633
96	0xbf723b3f	-0.9462165
97	0xbec68eef	-0.38780925
98	0xc0248744	-2.570756
99	0x3edd929e	0.43275923
100	0xbb883735	-0.004156972
101	0x3d593788	0.053031474
102	0xbeea0351	-0.45705655
103	0xbf35a5bd	-0.7095602
104	0xbf7e0405	-0.99224883
105	0x3bc9ff80	0.006164491
106	0x3cf1635d	0.029466325
107	0xbf2d2bb0	-0.67644787
108	0x3d476c88	0.048687488
109	0xbfcad3da	-1.5845902
110	0xbcd2a62c	-0.025714003
111	0x3da186c9	0.07887036
112	0xbd354212	-0.044252463
113	0x3d0102bb	0.031496745
114	0xbf3fc005	-0.74902374
115	0x3c161220	0.009159595
116	0xbe104692	-0.1408942
117	0xbe63be74	-0.22240621
118	0xbea0a585	-0.3137628
119	0xbf5ea3d0	-0.8696871
120	0x3e6ebab9	0.23313417
121	0xbe8a4a4e	-0.27009815
122	0xbf95b2d9	-1.1695205
123	0xbf850351	-1.0391637
124	0xbff83d94	-1.9393792
125	0xbe64f932	-0.22360685
126	0xbc839948	-0.016064301
127	0xbf2f3790	-0.68444157
128	0x3e832e0a	0.25621063
129	0xbd6942d2	-0.05694849
130	0xbd81340a	-0.06308754
131	0xbfeac2b8	-1.8340673
132	0x3cf861eb	0.030320128
133	0xbc6a1841	-0.014288009
134	0x3dae5a01	0.08513261
135	0xbfc0d0d4	-1.5063729
136	0xbf1e8c82	-0.6193315
137	0xc09c1f85	-4.8788476
138	0x3f843570	1.0328808
139	0xbf507af7	-0.8143763
140	0x3f8fe8c4	1.124291
141	0x3da9ed78	0.08297247
142	0x3f395452	0.7239429
143	0xbf1ee413	-0.62066764
144	0x3ee8ddc5	0.45481697
145	0x3d0a7912	0.033806868
146	0xbebf2153	-0.37330112
147	0x3ee1306e	0.4398226
148	0xbcac0858	-0.021000072
149	0xbccd8198	-0.02508621
150	0xbf822c7f	-1.0169829
151	0xbffeeca7	-1.991597
152	0x3daa430a	0.08313568
153	0x3d550b7e	0.052012913
154	0xbf0b3ceb	-0.5438983
155	0x399c0d00	0.00029764324
156	0xc04b9740	-3.1811066
157	0xbe209318	-0.15681112
158	0xbd0d7e8e	-0.03454452
159	0x3e0f9c0a	0.14024368
160	0xbf3a87d5	-0.72863513
161	0x3c99492c	0.018711649
162	0xbfbedc61	-1.4911004
163	0x3f4fc2cd	0.8115662
164	0xbf4e757c	-0.80648017
165	0xc01da848	-2.463396
166	0xbe8bec50	-0.2732873
167	0x3cd31578	0.025767073
168	0x3e460b77	0.19340311
169	0xbf31b86d	-0.69422036
170	0xbc8798b4	-0.016552307
171	0x3e46528d	0.19367428
172	0xbf3a6466	-0.72809446
173	0x3cd3695c	0.025807075
174	0xbf082523	-0.53181666
175	0xbf00a598	-0.50252676
176	0xbf3f9d9e	-0.7484988
177	0x3f29af1d	0.66282827
178	0x3f068f45	0.5256236
179	0x3f87edbf	1.0619429
180	0xbfb6653f	-1.4249648
181	0x3d03ec02	0.032207496
182	0xbeb5ccc6	-0.35507792
183	0x3cfc9897	0.03083448
184	0x3bcd0550	0.006256737
185	0xbed2d738	-0.41179824
186	0xbf0ddfe5	-0.5541976
187	0xbf532a13	-0.82486075
188	0xbc0d66b8	-0.008630447
189	0xbeafb6fc	-0.34319293
190	0xbe8a2908	-0.2698443
191	0xbf12b111	-0.5730143
192	0xbcf03a58	-0.029324695
193	0x3cbc57ec	0.022991143
194	0xbf3171ef	-0.69314474
195	0xbf818f9c	-1.0121951
196	0xbd0e5f11	-0.03475863
197	0x3fb4740b	1.4097914
198	0x3d5e83b1	0.05432481
199	0xbee9c868	-0.4566071
200	0xbf6daaaf	-0.9283857
201	0xbedc49fe	-0.43025202
202	0xbef24630	-0.47319174
203	0x3e7754c0	0.24153423
204	0xbeb466cb	-0.35234675
205	0xbdea6c70	-0.11446464
206	0x3c47dea8	0.0121990815
207	0x3fa837fe	1.3142087
208	0xbfd5d085	-1.670426
209	0x40680126	3.62507
210	0x3b819be0	0.0039553493
211	0x3f7a1637	0.9769015
212	0x3ed9223b	0.42408928
213	0xbe6fd3fd	-0.23420711
214	0x3d16407c	0.03668259
215	0x3f1495fb	0.5804135
216	0xbf0c0f09	-0.5471044
217	0xbf927591	-1.1442128
218	0xbfa2838b	-1.2696394
219	0xbce937f8	-0.02846907
220	0x3d3bef22	0.04588235
221	0xbf1dc0ab	-0.61622113
222	0xbfb0a80f	-1.3801287
223	0xc011c33c	-2.2775412
224	0xbfd3c4b8	-1.6544409
225	0xbe362b10	-0.17789865
226	0x3d02e83c	0.031959757
227	0x3f58a54e	0.84627235
228	0x3e3c2ff2	0.18377665
229	0xbe69c8e7	-0.22830544
230	0x3e89e0ff	0.2692947
231	0xbed63929	-0.41840485
232	0xbf386a0a	-0.720368
233	0xbfacef16	-1.3510463
234	0x3dc124f3	0.09430876
235	0xbda0fa06	-0.07860188
236	0xbd200b96	-0.03907355
237	0x3cf720c9	0.030167
238	0x3ca7e234	0.020493604
239	0xbf32d778	-0.6986003
240	0x3e43843b	0.1909341
241	0xbfe81cb5	-1.8133761
242	0xbe6737f0	-0.22579932
243	0x3f58af11	0.8464213
244	0xbf9580d4	-1.167994
245	0x3caad912	0.02085546
246	0x3c6ada1b	0.014334227
247	0x3cfe66fd	0.031054968
248	0x3ebed909	0.3727496
249	0xbf47cbc2	-0.78045285
250	0xbf0e7524	-0.5564749
251	0xbe887222	-0.26649576
252	0x3f1a6e22	0.603243
253	0xbf046f47	-0.51732296
254	0xbf56ef1a	-0.8395859
255	0xbd4f0e6a	-0.050550856

layers.1.bias f4 [256]
0	0xc009f9ce	-2.1558719
1	0xc00c8a8a	-2.1959558
2	0x40155259	2.333151
3	0xbf5db927	-0.86610645
4	0x3e8d1ed7	0.2756259
5	0xbd0fe1c6	-0.035127424
6	0xbd7312c2	-0.05934406
7	0xbff994a2	-1.9498484
8	0xbf948125	-1.1601912
9	0xbe875eb8	-0.26439452
10	0xbf46ff1f	-0.77733034
11	0xbd447b30	-0.047969043
12	0xbd96c63d	-0.0736203
13	0xbd0653b1	-0.032794658
14	0xbfee128a	-1.8599408
15	0xbf1395ca	-0.57650435
16	0x3d3edd49	0.046597753
17	0xbd553a4a	-0.052057542
18	0x3ea6c3cf	0.32571265
19	0x3d027f43	0.031859647
20	0xbd268169	-0.04065076
21	0x3f16adbd	0.58858854
22	0x3d2be6c7	0.041968133
23	0xbcf940ad	-0.030426348
24	0xbd3ced69	-0.04612485
25	0x3ff71182	1.9302218
26	0x3eb1588e	0.34637874
27	0x3f5befe6	0.8591293
28	0xbd6b8d04	-0.05750753
29	0xbd3796a0	-0.04482138
30	0xbd21ed6d	-0.039533067
31	0xbf381986	-0.71913946
32	0xbd4c5473	-0.049885225
33	0x3fb6f301	1.4292909
34	0xbd202eef	-0.03910726
35	0xc05510ed	-3.329158
36	0xbb8235de	-0.0039737066
37	0xbd490601	-0.04907799
38	0x3ea3f5f0	0.32023573
39	0xbfc5b30c	-1.5445266
40	0x3b5ee44b	0.0034010585
41	0xc00eb2fe	-2.2296748
42	0xbd932f18	-0.07186717
43	0x3f3d8bfe	0.74041736
44	0xbf2ea52b	-0.68220776
45	0xbff2765b	-1.8942369
46	0xbf5d2716	-0.86387765
47	0xbf916020	-1.135746
48	0x3c8d518c	0.017250799
49	0xbd7b48de	-0.06134879
50	0xbd762acb	-0.060099404
51	0xc0531bb3	-3.2985656
52	0xbc86f7e7	-0.01647563
53	0xc028741f	-2.6320875
54	0x3f9403d3	1.1563667
55	0x40043a6b	2.0660655
56	0xbb388837	-0.0028157362
57	0x3c8205c9	0.0158719
58	0xbfe79e50	-1.8095188
59	0x3f680dc3	0.90646
60	0xbfe4ff18	-1.7890348
61	0xbf8d0d3a	-1.1019661
62	0xbee87542	-0.4540196
63	0x3c066c23	0.008204493
64	0xc0251c54	-2.579854
65	0x3f23f59d	0.6404665
66	0x3e8f57e0	0.2799673
67	0xbd2b3472	-0.041798063
68	0x3f6b868f	0.92002195
69	0xbd8d5a5d	-0.06902001
70	0xbd57bf90	-0.052672923
71	0x3e9b085d	0.30279818
72	0xbe8bec43	-0.2732869
73	0x3fad859a	1.3556397
74	0xbc972cf7	-0.018454058
75	0xbfc2687f	-1.518814
76	0xbd712129	-0.058869515
77	0xbd8799d5	-0.06621138
78	0xbd6918ed	-0.056908537
79	0x3e8d9f67	0.27660677
80	0xb83c6a54	-4.492172e-05
81	0x3bb16de7	0.0054147127
82	0x3eb5f766	0.35540313
83	0x40274869	2.6137946
84	0x40467671	3.100979
85	0xc024412a	-2.5664773
86	0xbf3dcfcb	-0.7414519
87	0xbf1f80b5	-0.62305766
88	0xbd06d4ac	-0.032917663
89	0xbfcd5ddf	-1.6044272
90	0xbd3ebae0	-0.046564937
91	0x3a6100a1	0.00085831626
92	0x3b91c3ab	0.0044483743
93	0xbe18759e	-0.14888617
94	0xbd4553d6	-0.048175655
95	0xbf61f40d	-0.88263017
96	0xbd8d4350	-0.068976045
97	0xbf029c87	-0.5102009
98	0xbe393fad	-0.18090697
99	0xbce23ad6	-0.027615946
100	0x3c66528a	0.014057765
101	0x3cc98e6d	0.024604047
102	0xbd233b9e	-0.039851777
103	0x3fc0a514	1.5050378
104	0xbf8d85ea	-1.1056492
105	0x3d0a0a9f	0.033701535
106	0xc00d6f4f	-2.2099187
107	0xbf86e0a2	-1.0537302
108	0x3d462771	0.048377458
109	0xbc18b0df	-0.009319513
110	0xbcd86c33	-0.02641878
111	0xc004e266	-2.0763183
112	0x3f0b6618	0.5445266
113	0x3c408e98	0.011752747
114	0xbf227814	-0.63464475
115	0xbfc534e9	-1.5406772
116	0xbc7b1b8d	-0.015326393
117	0xc00006b1	-2.0004084
118	0xbd00ba14	-0.031427458
119	0xbe911a8f	-0.28340575
120	0xbc8c68e1	-0.017139854
121	0x3d298bf5	0.04139324
122	0x3fd0233f	1.6260756
123	0xbf3ef3ad	-0.7459057
124	0xbc9157bc	-0.01774203
125	0xbd0ddab8	-0.034632415
126	0x3f6fb6d3	0.9363834
127	0xbf6c0c60	-0.9220638
128	0x3f240092	0.6406337
129	0x3c755534	0.014973927
130	0xc00f10d7	-2.2354028
131	0xbf9364a9	-1.1515094
132	0xbd10402f	-0.03521746
133	0xbd96ce1c	-0.07363531
134	0xbf2bcf8b	-0.6711356
135	0xbd70e20f	-0.058809336
136	0xbcaf9f7c	-0.021438353
137	0xbd3a585d	-0.045494426
138	0xbd328cbb	-0.043591242
139	0xbe954819	-0.2915657
140	0xbf66299a	-0.8990723
141	0x3fc049f7	1.5022572
142	0xbed51a52	-0.41621643
143	0xbc015dca	-0.007895896
144	0x3f118ece	0.5685853
145	0xbc859431	-0.016306015
146	0x3f1c80d8	0.611341
147	0xbc98bd0d	-0.018644834
148	0xbe3dfc15	-0.18553193
149	0xbea4da60	-0.32197857
150	0xbd5d7f91	-0.054076735
151	0xbf934668	-1.1505861
152	0x3c2a5ca1	0.010398061
153	0xbd8893a3	-0.066687845
154	0xbd9b848e	-0.07593642
155	0xc0313b09	-2.7692282
156	0xbd8220f7	-0.06353944
157	0xbcf5704d	-0.029960776
158	0x3f67637d	0.9038618
159	0xbac41d85	-0.0014962411
160	0xbd2a67f3	-0.04160304
161	0x3e89d06b	0.26916823
162	0xbd9ec4c2	-0.07752372
163	0xbfd20d82	-1.6410372
164	0xbeea66d8	-0.4578159
165	0xbdb149d2	-0.08656658
166	0xbd5c19a8	-0.053735405
167	0x3f837677	1.0270528
168	0x3f26e788	0.6519704
169	0x3f145fb8	0.57958555
170	0x3fe06348	1.7530298
171	0x3be1da90	0.0068925098
172	0xbd502bfa	-0.05082319
173	0xbd53f472	-0.051746793
174	0xc0388b14	-2.8834887
175	0xbc2676dd	-0.010160175
176	0x3e3a00ef	0.18164419
177	0xbd663a42	-0.056207903
178	0xba98ce89	-0.0011658232
179	0x3daedaa9	0.085378
180	0x3d0f9349	0.03505257
181	0xbc080cb9	-0.008303815
182	0xbd81532c	-0.06314692
183	0xbd5487f4	-0.051887468
184	0xbd84c6f6	-0.06483261
185	0xbebb3477	-0.36563465
186	0x3d566560	0.052342772
187	0xbedddc7c	-0.4333228
188	0x3e413835	0.18869098
189	0xbfe8eda8	-1.8197527
190	0x3db95ca8	0.09050876
191	0xbfead9f2	-1.8347762
192	0xbc81e846	-0.015857827
193	0x3f1b106b	0.60571927
194	0x3eb38d83	0.35068902
195	0x3a984264	0.0011616466
196	0xbda0ce1e	-0.07851814
197	0xbd2ffc38	-0.042965144
198	0x3e51e1a9	0.20496239
199	0x3f0a115a	0.53932726
200	0xbfbb4098	-1.4629087
201	0xbd071832	-0.03298206
202	0xbc934f03	-0.017982012
203	0xbdaa7b9a	-0.083243564
204	0xbd900c8e	-0.070336446
205	0xbd381d11	-0.044949595
206	0x3fa6f0e0	1.3042259
207	0xbf5fcb08	-0.87419176
208	0xbeb27be7	-0.34860155
209	0xbcf0ff9c	-0.029418759
210	0x3fbb95f9	1.4655143
211	0x3d43c958	0.04779944
212	0xbdb7276b	-0.08943065
213	0x3f5b4dd7	0.8566565
214	0xbcf14a71	-0.029454442
215	0xbc64c69d	-0.013963369
216	0xbf6b007a	-0.917976
217	0xbdadad3c	-0.084803075
218	0x3fb296ee	1.395231
219	0xbf5b7c25	-0.85736305
220	0x3eef724c	0.4676689
221	0xbee95f98	-0.45580745
222	0xbd2172eb	-0.039416235
223	0xbcfdea9d	-0.030995661
224	0x3cdeb824	0.027187414
225	0x3f1508c4	0.582165
226	0xbf871a87	-1.055497
227	0xbcd595a4	-0.02607233
228	0xbca83d0e	-0.020536926
229	0x3e81c173	0.25342903
230	0x3ed34a58	0.41267657
231	0xbcd4366d	-0.025904858
232	0xbd3b0e48	-0.045667917
233	0xbd7e7e7f	-0.062132355
234	0xbd571590	-0.052510798
235	0x3b422827	0.0029625983
236	0xbc22b18c	-0.009930026
237	0x3f40e9c8	0.7535672
238	0xbd21c996	-0.039498888
239	0xbcb778ca	-0.022396464
240	0xbebe5dff	-0.37181088
241	0xbd862221	-0.06549478
242	0xbe16bc0a	-0.14720169
243	0xbde3f63d	-0.111309506
244	0x3f2ce5b0	0.67537975
245	0xbd6904e2	-0.056889422
246	0xbf8e5d0b	-1.1122144
247	0x3fa208fe	1.2658994
248	0xbd7b11c7	-0.06129625
249	0xbd5b7ce1	-0.05358589
250	0x3d41f737	0.047354903
251	0xc00a53ad	-2.1613572
252	0x3ccdb5dd	0.025111133
253	0xbf395530	-0.7239561
254	0xbf93944b	-1.152963
255	0xbfd62985	-1.6731421

predict.weight f4 [5, 256]
0	0x3f89c256	1.0762432
1	0x3f6111d5	0.87917835
2	0xbf607419	-0.8767715
3	0x3f3a4c9f	0.72773165
4	0x3f0d82fc	0.5527799
5	0xbd11f1b7	-0.035630908
6	0xbd03f6c4	-0.032217756
7	0x3e7c197e	0.246191
8	0xbe011ee1	-0.12609436
9	0x3c0f26b1	0.008737252
10	0x3f092362	0.53569615
11	0xbb35307c	-0.0027647307
12	0xbc501d39	-0.01270228
13	0xbc8ff869	-0.017574506
14	0xc02b20a9	-2.6738684
15	0x3e8001b8	0.2500131
16	0xbfc399c9	-1.5281307
17	0x3c3549b8	0.011064939
18	0x3e7c45bf	0.24635981
19	0xbcf090e9	-0.029365974
20	0xbcea8183	-0.02862621
21	0xbeb73a0e	-0.3578648
22	0x3bdb75c5	0.006697389
23	0x3d35bb62	0.044368155
24	0xbd85276b	-0.06501659
25	0x3f1796df	0.59214586
26	0x3c404cd4	0.011737067
27	0xbf89e406	-1.0772712
28	0xbd519e54	-0.051176384
29	0xbd13793e	-0.036004297
30	0x3cb419db	0.021984985
31	0x3f01ae72	0.5065681
32	0xbf0035e1	-0.5008221
33	0xbfb58b52	-1.4183142
34	0x3a18568e	0.00058112375
35	0x3ea288a9	0.31744888
36	0x3c6ca0bf	0.014442622
37	0x3b7b2ba0	0.0038325563
38	0xbf941323	-1.156834
39	0x3f0534c1	0.5203362
40	0x3ccf05a9	0.025271254
41	0x40288713	2.6332443
42	0x3c70d7df	0.014699905
43	0xbf14ea55	-0.5817006
44	0xbd520703	-0.05127622
45	0xbb1c9d8f	-0.0023897623
46	0x3eadc88f	0.33942077
47	0xbe6f66d5	-0.23379071
48	0xbcccf5fa	-0.025019635
49	0x3ca7edee	0.020499196
50	0xbc442ed9	-0.01197406
51	0x3f79fbf6	0.97650087
52	0xbb96b6af	-0.0045994143
53	0x3ef7a9e7	0.48371813
54	0xbfac237e	-1.3448331
55	0xbea754e2	-0.32681948
56	0xbd5c8f61	-0.053847674
57	0xbd3ab187	-0.04557946
58	0x3ef64256	0.48097485
59	0x3f3c9213	0.7366039
60	0x3eac5757	0.33660385
61	0xbde493fe	-0.1116104
62	0xbec57ca2	-0.3857165
63	0x3b90afa1	0.004415468
64	0x3e9df607	0.30851766
65	0xbdb17847	-0.08665519
66	0xbc11b4b7	-0.008893183
67	0x3b40b2fe	0.0029403563
68	0xbdf90e42	-0.121609226
69	0xc0744f49	-3.8173392
70	0x3c4c0008	0.012451179
71	0xbe0a7117	-0.13519703
72	0xbefb1c33	-0.49044952
73	0xbec58b5b	-0.38582882
74	0xbe572043	-0.210084
75	0x402bcbad	2.6843064
76	0x3eacb9f5	0.33735624
77	0xbcd8543a	-0.02640735
78	0x3dae4f0e	0.08511172
79	0xc0084354	-2.1291094
80	0x3d05a989	0.032632384
81	0x3cef3a0a	0.02920248
82	0xbec01edb	-0.3752354
83	0xbfc8d4bb	-1.568992
84	0xbf28af00	-0.6589203
85	0x3f02e350	0.511281
86	0xbf8cee8b	-1.1010298
87	0xbe723c7e	-0.23655888
88	0x3d2c2e7a	0.04203651
89	0x3f4c88ee	0.7989644
90	0x3cee8f10	0.029120952
91	0x3ca7b878	0.020473704
92	0xbca7b1d5	-0.02047054
93	0x3f32475a	0.69640124
94	0xbd28053b	-0.041020613
95	0xbe608041	-0.21923925
96	0xbd3eea09	-0.046609912
97	0x3f6102b2	0.8789474
98	0xbdf6f8a2	-0.12059142
99	0xbd41470a	-0.04718689
100	0xbcb5bf53	-0.022185957
101	0x3d022e43	0.0317824
102	0x3d202c51	0.039104763
103	0x3ecfbe6a	0.40574962
104	0xbd34ccec	-0.04414074
105	0x3c84db2f	0.016217796
106	0x3eab9ed4	0.33519614
107	0x3ef15119	0.47132185
108	0x3c58c34a	0.013230154
109	0x3cdf741c	0.027277045
110	0x3f2d5c8e	0.6771935
111	0xbedc9fb5	-0.43090597
112	0xbf01cfcc	-0.507077
113	0xbd239ec3	-0.03994633
114	0xbf1d7a04	-0.61514306
115	0x3f1136a0	0.56723976
116	0x3b0c5468	0.0021412615
117	0x3e86dc72	0.2634006
118	0xbcd8816a	-0.026428897
119	0xbde1cd0c	-0.11025438
120	0xbc89f2d7	-0.016839428
121	0xbfed6362	-1.8545954
122	0xc018260f	-2.377323
123	0x3f412a6c	0.75455356
124	0xbdff0981	-0.124529846
125	0xbcc55a60	-0.024090946
126	0xbf119a16	-0.5687574
127	0xbf5fd1d8	-0.8742957
128	0xbf63c4bf	-0.88972086
129	0xbcb8086a	-0.02246495
130	0x3f11fadd	0.5702341
131	0x3fa30098	1.2734556
132	0xbc0f1456	-0.008732876
133	0xba82d57f	-0.000998184
134	0xbe4bf0b9	-0.19916047
135	0xbcd2b752	-0.02572218
136	0xbcf24b5a	-0.029576946
137	0x3bfd547c	0.0077310186
138	0xbce543b9	-0.027986394
139	0x3f1d6b32	0.6149169
140	0x3fbaf28c	1.460527
141	0xbf3af658	-0.7303214
142	0x3f578d65	0.84200126
143	0x3c8b1ba6	0.016980957
144	0x3b455f44	0.0030116597
145	0xbd3f4118	-0.046692938
146	0x3f428228	0.7597985
147	0x3d383969	0.044976626
148	0x3e621178	0.22076976
149	0x3f188bba	0.59588206
150	0x3d9eb29a	0.07748909
151	0x40121614	2.2825975
152	0xbd164e7c	-0.036695942
153	0xbe7bb068	-0.24579012
154	0x3c32a813	0.01090433
155	0x4008e3c8	2.1389027
156	0x3d1206ae	0.0356509
157	0xbcb211d8	-0.021737024
158	0x3dc774a6	0.09739046
159	0xbc82198c	-0.015881322
160	0x3caab3a8	0.02083762
161	0xbfe9b3ef	-1.8258036
162	0xbc625e79	-0.013816469
163	0x3eca4154	0.39502966
164	0xbbe93886	-0.007117334
165	0x3cc1ec9b	0.023672393
166	0xbc93948d	-0.01801517
167	0xbf4cd1bc	-0.8000753
168	0xbf0b4894	-0.5440762
169	0xbfe86292	-1.8155081
170	0xbfcdb2fb	-1.6070246
171	0x3cddb3a4	0.027063198
172	0x3c017cc3	0.007903281
173	0xbbb80d18	-0.0056167953
174	0x3f34a292	0.7056056
175	0xbad963f5	-0.0016585576
176	0xbf330f39	-0.699451
177	0xbc8ddb17	-0.017316384
178	0xbc8a35a4	-0.016871281
179	0x3e8075d6	0.25089902
180	0x3b82a275	0.0039866515
181	0xbc81fa90	-0.015866548
182	0xbd427c16	-0.04748162
183	0x3d36b08a	0.044601955
184	0x3d3f787a	0.046745755
185	0xbf5d3297	-0.8640532
186	0x3d1aa6cf	0.037756737
187	0x3f14672d	0.57969934
188	0xbfad2ca3	-1.3529247
189	0x3ef432f6	0.4769513
190	0xbf4bd403	-0.7962038
191	0xbf4c8305	-0.7988742
192	0x3c01658e	0.007897748
193	0xbe9bc6bc	-0.3042506
194	0x3e6d1a7a	0.23154631
195	0x3d3ce09b	0.046112638
196	0x3cace0ae	0.02110323
197	0xbff43b2c	-1.9080558
198	0xbf2fb703	-0.6863863
199	0x3fc97dca	1.5741513
200	0xc00cc55b	-2.1995456
201	0xbd647b4c	-0.055781648
202	0xbcba662c	-0.022753797
203	0xbc2d331a	-0.010571266
204	0xbd41c518	-0.047307104
205	0xbd2e33c1	-0.042529825
206	0x3eb55d3e	0.354227
207	0x3f252b0a	0.645188
208	0x3eb78a69	0.35847786
209	0x3cbc7387	0.023004306
210	0x3f0078c0	0.5018425
211	0xc0059d42	-2.0877233
212	0x3cdcdb08	0.026959911
213	0x3f8ab3de	1.0836141
214	0x3c110188	0.008850463
215	0x3bc93202	0.0061399946
216	0xbe705aef	-0.23472188
217	0x3cd54165	0.02603216
218	0xbfe3cb83	-1.7796482
219	0xbe9b41af	-0.3032355
220	0xc01938c1	-2.394089
221	0x3e73bd3a	0.23802653
222	0xbd7adf43	-0.061248075
223	0x3d70814f	0.05871707
224	0xbb9cd892	-0.0047865594
225	0xbe56ad8c	-0.2096464
226	0x3f2b6f66	0.66966856
227	0x3dbcec49	0.09224755
228	0xbcc86a98	-0.02446489
229	0xbf03f6db	-0.51548547
230	0x3d5fee97	0.054670896
231	0x3cbc5cd1	0.022993477
232	0x3d152b34	0.036418155
233	0xbca43eef	-0.02004954
234	0xbd3a1835	-0.045433242
235	0x3c4d54e4	0.0125324465
236	0x3c643f14	0.013931055
237	0xc012c98a	-2.293551
238	0x3d2bbc6c	0.04192774
239	0x3d04735e	0.032336585
240	0xbdb0fa6e	-0.08641516
241	0xbd83534e	-0.064123735
242	0xbf0e2f75	-0.55541164
243	0x3f7d45b8	0.9893451
244	0xbfa3508f	-1.275896
245	0x3d11c854	0.03559144
246	0xc005363a	-2.0814347
247	0x3f26e51d	0.6519335
248	0xbbd027fe	-0.0063524237
249	0x3dc3926e	0.095494136
250	0xbf93d91d	-1.1550633
251	0x3f06078f	0.52355283
252	0xc032437e	-2.7853694
253	0x3e7813b7	0.2422627
254	0xbf2ed506	-0.682938
255	0xbed46f0a	-0.41490966

predict.bias f4 [5]
0	0xc082a17c	-4.0822124
1	0xbfff003c	-1.9921947
2	0xc081a6bb	-4.051603
3	0xbfd4bb4f	-1.6619662
4	0xc0435268	-3.0519047

exp_avg f4 [256, 25]
0	0x3b90c558	0.0044180565
1	0xba7703e0	-0.00094228797
2	0x3c110e94	0.008853573
3	0xbb82343c	-0.003973512
4	0xbaa64350	-0.0012684856
5	0x3b90c558	0.0044180565
6	0xbb59e11a	-0.0033245743
7	0x3d07f916	0.03319653
8	0x3a88ceb4	0.0010437579
9	0x3a99ffd4	0.0011749216
10	0x3b90c558	0.0044180565
11	0xbc12a85b	-0.008951272
12	0xbba6da02	-0.0050919065
13	0x3b8cb708	0.00429428
14	0x3a1971fe	0.0005853473
15	0x3b90c558	0.0044180565
16	0xbc741b00	-0.014899015
17	0xbc03dc64	-0.008048151
18	0x38840560	6.295252e-05
19	0x3a244f33	0.0006267905
20	0x3b90c558	0.0044180565
21	0xbc3dee75	-0.011592497
22	0xbd05e467	-0.032688525
23	0x3b429c92	0.0029695374
24	0xb84888d0	-4.7811132e-05
25	0x00000000	0.0
26	0x00000000	0.0
27	0x00000000	0.0
28	0x00000000	0.0
29	0x00000000	0.0
30	0x00000000	0.0
31	0x00000000	0.0
32	0x00000000	0.0
33	0x00000000	0.0
34	0x00000000	0.0
35	0x00000000	0.0
36	0x00000000	0.0
37	0x00000000	0.0
38	0x00000000	0.0
39	0x00000000	0.0
40	0x00000000	0.0
41	0x00000000	0.0
42	0x00000000	0.0
43	0x00000000	0.0
44	0x00000000	0.0
45	0x00000000	0.0
46	0x00000000	0.0
47	0x00000000	0.0
48	0x00000000	0.0
49	0x00000000	0.0
50	0x00000000	0.0
51	0x00000000	0.0
52	0x00000000	0.0
53	0x00000000	0.0
54	0x00000000	0.0
55	0x00000000	0.0
56	0x00000000	0.0
57	0x00000000	0.0
58	0x00000000	0.0
59	0x00000000	0.0
60	0x00000000	0.0
61	0x00000000	0.0
62	0x00000000	0.0
63	0x00000000	0.0
64	0x00000000	0.0
65	0x00000000	0.0
66	0x00000000	0.0
67	0x00000000	0.0
68	0x00000000	0.0
69	0x00000000	0.0
70	0x00000000	0.0
71	0x00000000	0.0
72	0x00000000	0.0
73	0x00000000	0.0
74	0x00000000	0.0
75	0x3ce3ba0a	0.027798671
76	0x3ce4e95e	0.02794331
77	0xbc760e68	-0.015018083
78	0x3c71fb12	0.0147693325
79	0xb966d2fa	-0.00022013104
80	0x3ce3ba0a	0.027798671
81	0x3b194aa5	0.002339044
82	0x3d03ae90	0.032148898
83	0xbbf12f44	-0.007360371
84	0x39d2fae4	0.0004024125
85	0x3ce3ba0a	0.027798671
86	0xbc18c3d2	-0.009324031
87	0x3d3a9905	0.045556087
88	0xbba9354b	-0.0051638237
89	0x39440640	0.00018694345
90	0x3ce3ba0a	0.027798671
91	0xbc2e639c	-0.010643866
92	0x3d09e908	0.0336695
93	0xbc14939d	-0.009068397
94	0xb90b212d	-0.00013268432
95	0x3ce3ba0a	0.027798671
96	0x3b975508	0.004618291
97	0x3cfcc4ed	0.03085562
98	0xbbe9a88e	-0.007130689
99	0x39cfc05b	0.00039625433
100	0x00000000	0.0
101	0x00000000	0.0
102	0x00000000	0.0
103	0x00000000	0.0
104	0x00000000	0.0
105	0x00000000	0.0
106	0x00000000	0.0
107	0x00000000	0.0
108	0x00000000	0.0
109	0x00000000	0.0
110	0x00000000	0.0
111	0x00000000	0.0
112	0x00000000	0.0
113	0x00000000	0.0
114	0x00000000	0.0
115	0x00000000	0.0
116	0x00000000	0.0
117	0x00000000	0.0
118	0x00000000	0.0
119	0x00000000	0.0
120	0x00000000	0.0
121	0x00000000	0.0
122	0x00000000	0.0
123	0x00000000	0.0
124	0x00000000	0.0
125	0x00000000	0.0
126	0x00000000	0.0
127	0x00000000	0.0
128	0x00000000	0.0
129	0x00000000	0.0
130	0x00000000	0.0
131	0x00000000	0.0
132	0x00000000	0.0
133	0x00000000	0.0
134	0x00000000	0.0
135	0x00000000	0.0
136	0x00000000	0.0
137	0x00000000	0.0
138	0x00000000	0.0
139	0x00000000	0.0
140	0x00000000	0.0
141	0x00000000	0.0
142	0x00000000	0.0
143	0x00000000	0.0
144	0x00000000	0.0
145	0x00000000	0.0
146	0x00000000	0.0
147	0x00000000	0.0
148	0x00000000	0.0
149	0x00000000	0.0
150	0x0213679d	1.082959e-37
151	0x0213679d	1.082959e-37
152	0x0212cd8e	1.0785377e-37
153	0x0218060c	1.1168932e-37
154	0x021cbbc7	1.1514959e-37
155	0x0213679d	1.082959e-37
156	0x0210819c	1.0616645e-37
157	0x021b7fbc	1.142426e-37
158	0x821def45	-1.1603205e-37
159	0x821cbbad	-1.151493e-37
160	0x0213679d	1.082959e-37
161	0x8213fa07	-1.0871609e-37
162	0x821976d9	-1.1274772e-37
163	0x821c80b6	-1.1498008e-37
164	0x821cbbad	-1.151493e-37
165	0x0213679d	1.082959e-37
166	0x021f5a26	1.1707346e-37
167	0x8212cd8e	-1.0785377e-37
168	0x8215a0a3	-1.0992892e-37
169	0x821cbbad	-1.151493e-37
170	0x0213679d	1.082959e-37
171	0x021583b3	1.0984587e-37
172	0x021b8085	1.1424485e-37
173	0x8213b0ca	-1.085059e-37
174	0x821cbbad	-1.151493e-37
175	0x021ea7fe	1.1656218e-37
176	0x021ea7fe	1.1656218e-37
177	0x0217ac8c	1.1143246e-37
178	0x021982e8	1.1278233e-37
179	0x021dc969	1.159234e-37
180	0x021ea7fe	1.1656218e-37
181	0x8210a088	-1.0625519e-37
182	0x821782d5	-1.1131275e-37
183	0x8215fae8	-1.1018798e-37
184	0x821b4662	-1.14078e-37
185	0x021ea7fe	1.1656218e-37
186	0x821202d6	-1.07272e-37
187	0x0217ac8c	1.1143246e-37
188	0x821cb5cd	-1.1513244e-37
189	0x82179c9f	-1.1138676e-37
190	0x021ea7fe	1.1656218e-37
191	0x02108a41	1.0619126e-37
192	0x82178f96	-1.1134935e-37
193	0x8213b842	-1.0852734e-37
194	0x821c3b96	-1.147817e-37
195	0x021ea7fe	1.1656218e-37
196	0x021876ba	1.1201269e-37
197	0x0217a6bb	1.1141577e-37
198	0x821ab367	-1.1365619e-37
199	0x021a441f	1.1333683e-37
200	0xbd56a462	-0.05240286
201	0xbd64d72e	-0.055869274
202	0xbdb2a786	-0.08723359
203	0x3bdcbe50	0.006736554
204	0xba41a658	-0.0007387153
205	0xbd56a462	-0.05240286
206	0xbb1e32b0	-0.0024139099
207	0x3dd3103c	0.10305831
208	0x3c274ec8	0.010211654
209	0x3ab9b006	0.0014166839
210	0xbd56a462	-0.05240286
211	0xbba49dc0	-0.005023688
212	0xbc9811c2	-0.018563155
213	0x3bda12f2	0.0066550905
214	0xb984bd26	-0.00025317929
215	0xbd56a462	-0.05240286
216	0x3c4559f8	0.012045376
217	0x3e043c32	0.12913588
218	0x3c45bfa2	0.012069615
219	0x396df3a9	0.00022692852
220	0xbd56a462	-0.05240286
221	0x3b3ac200	0.002849698
222	0x3d794190	0.06085354
223	0x3b95437c	0.004555164
224	0x3a3cce51	0.00072023744
225	0x00000000	0.0
226	0x00000000	0.0
227	0x00000000	0.0
228	0x00000000	0.0
229	0x00000000	0.0
230	0x00000000	0.0
231	0x00000000	0.0
232	0x00000000	0.0
233	0x00000000	0.0
234	0x00000000	0.0
235	0x00000000	0.0
236	0x00000000	0.0
237	0x00000000	0.0
238	0x00000000	0.0
239	0x00000000	0.0
240	0x00000000	0.0
241	0x00000000	0.0
242	0x00000000	0.0
243	0x00000000	0.0
244	0x00000000	0.0
245	0x00000000	0.0
246	0x00000000	0.0
247	0x00000000	0.0
248	0x00000000	0.0
249	0x00000000	0.0
250	0x3ce60252	0.028077278
251	0x3cdada0e	0.026715305
252	0xbd8ecf3d	-0.06973121
253	0xbd503e18	-0.050840467
254	0xbadce2fc	-0.0016852315
255	0x3ce60252	0.028077278

exp_avg_sq f4 [256, 25]
0	0x3eddc6d9	0.4331577
1	0x3edb9b88	0.42892098
2	0x3e6273a0	0.2211442
3	0x3e0aeec0	0.13567638
4	0x37b2fb4a	2.133627e-05
5	0x3eddc6d9	0.4331577
6	0x3b8eadd0	0.004354216
7	0x3dcf7497	0.101296596
8	0x3c8866e3	0.016650623
9	0x383f2cc9	4.5579658e-05
10	0x3eddc6d9	0.4331577
11	0x3cbf1119	0.023323582
12	0x3dc62d07	0.09676557
13	0x3c8a3473	0.016870713
14	0x37f22653	2.8866494e-05
15	0x3eddc6d9	0.4331577
16	0x3d952d20	0.072839975
17	0x3df16820	0.117874384
18	0x3c6ef578	0.0145848915
19	0x37f6103c	2.9333045e-05
20	0x3eddc6d9	0.4331577
21	0x3e13c496	0.1443046
22	0x3dd32536	0.10309832
23	0x3c912f0d	0.01772263
24	0x37e37c13	2.7118285e-05
25	0x00000000	0.0
26	0x00000000	0.0
27	0x00000000	0.0
28	0x00000000	0.0
29	0x00000000	0.0
30	0x00000000	0.0
31	0x00000000	0.0
32	0x00000000	0.0
33	0x00000000	0.0
34	0x00000000	0.0
35	0x00000000	0.0
36	0x00000000	0.0
37	0x00000000	0.0
38	0x00000000	0.0
39	0x00000000	0.0
40	0x00000000	0.0
41	0x00000000	0.0
42	0x00000000	0.0
43	0x00000000	0.0
44	0x00000000	0.0
45	0x00000000	0.0
46	0x00000000	0.0
47	0x00000000	0.0
48	0x00000000	0.0
49	0x00000000	0.0
50	0x00000000	0.0
51	0x00000000	0.0
52	0x00000000	0.0
53	0x00000000	0.0
54	0x00000000	0.0
55	0x00000000	0.0
56	0x00000000	0.0
57	0x00000000	0.0
58	0x00000000	0.0
59	0x00000000	0.0
60	0x00000000	0.0
61	0x00000000	0.0
62	0x00000000	0.0
63	0x00000000	0.0
64	0x00000000	0.0
65	0x00000000	0.0
66	0x00000000	0.0
67	0x00000000	0.0
68	0x00000000	0.0
69	0x00000000	0.0
70	0x00000000	0.0
71	0x00000000	0.0
72	0x00000000	0.0
73	0x00000000	0.0
74	0x00000000	0.0
75	0x3e1819e8	0.14853632
76	0x3e179dad	0.14806242
77	0x3cc574a5	0.024103472
78	0x3cf99741	0.030467631
79	0x3683b543	3.925206e-06
80	0x3e1819e8	0.14853632
81	0x395f40c9	0.00021291072
82	0x3d062afd	0.03275584
83	0x3b36496a	0.0027814754
84	0x376ad91d	1.39980375e-05
85	0x3e1819e8	0.14853632
86	0x3af53d58	0.0018710298
87	0x3cbfa4e6	0.02339406
88	0x3b408c15	0.002938037
89	0x3698c318	4.552665e-06
90	0x3e1819e8	0.14853632
91	0x3c1e0092	0.009643691
92	0x3cf9288c	0.030414842
93	0x3b355fd6	0.002767553
94	0x36947986	4.424891e-06
95	0x3e1819e8	0.14853632
96	0x3ce70315	0.028199712
97	0x3ccaa8dd	0.024738723
98	0x3b419c0b	0.0029542472
99	0x379cbf99	1.8685869e-05
100	0x00000000	0.0
101	0x00000000	0.0
102	0x00000000	0.0
103	0x00000000	0.0
104	0x00000000	0.0
105	0x00000000	0.0
106	0x00000000	0.0
107	0x00000000	0.0
108	0x00000000	0.0
109	0x00000000	0.0
110	0x00000000	0.0
111	0x00000000	0.0
112	0x00000000	0.0
113	0x00000000	0.0
114	0x00000000	0.0
115	0x00000000	0.0
116	0x00000000	0.0
117	0x00000000	0.0
118	0x00000000	0.0
119	0x00000000	0.0
120	0x00000000	0.0
121	0x00000000	0.0
122	0x00000000	0.0
123	0x00000000	0.0
124	0x00000000	0.0
125	0x00000000	0.0
126	0x00000000	0.0
127	0x00000000	0.0
128	0x00000000	0.0
129	0x00000000	0.0
130	0x00000000	0.0
131	0x00000000	0.0
132	0x00000000	0.0
133	0x00000000	0.0
134	0x00000000	0.0
135	0x00000000	0.0
136	0x00000000	0.0
137	0x00000000	0.0
138	0x00000000	0.0
139	0x00000000	0.0
140	0x00000000	0.0
141	0x00000000	0.0
142	0x00000000	0.0
143	0x00000000	0.0
144	0x00000000	0.0
145	0x00000000	0.0
146	0x00000000	0.0
147	0x00000000	0.0
148	0x00000000	0.0
149	0x00000000	0.0
150	0x00000000	0.0
151	0x00000000	0.0
152	0x00000000	0.0
153	0x00000000	0.0
154	0x00000000	0.0
155	0x00000000	0.0
156	0x00000000	0.0
157	0x00000000	0.0
158	0x00000000	0.0
159	0x00000000	0.0
160	0x00000000	0.0
161	0x00000000	0.0
162	0x00000000	0.0
163	0x00000000	0.0
164	0x00000000	0.0
165	0x00000000	0.0
166	0x00000000	0.0
167	0x00000000	0.0
168	0x00000000	0.0
169	0x00000000	0.0
170	0x00000000	0.0
171	0x00000000	0.0
172	0x00000000	0.0
173	0x00000000	0.0
174	0x00000000	0.0
175	0x16187762	1.2316133e-25
176	0x16187762	1.2316133e-25
177	0x148e6e8b	1.4381937e-26
178	0x14ab0fc4	1.7272806e-26
179	0x0cb1fdcd	2.7423919e-31
180	0x16187762	1.2316133e-25
181	0x10cbecbf	8.043415e-29
182	0x148e23ef	1.4352509e-26
183	0x13b47d6e	4.556207e-27
184	0x0cb38086	2.765667e-31
185	0x16187762	1.2316133e-25
186	0x11b9fbcd	2.9343038e-28
187	0x1483e55f	1.331809e-26
188	0x132b471d	2.1618296e-27
189	0x0cb263bf	2.7485275e-31
190	0x16187762	1.2316133e-25
191	0x134982c7	2.5434245e-27
192	0x148e1fed	1.4350928e-26
193	0x13680d12	2.9288961e-27
194	0x0cb8f9f0	2.8500114e-31
195	0x16187762	1.2316133e-25
196	0x1437176e	9.2437596e-27
197	0x14851d22	1.3441059e-26
198	0x134c7c74	2.580978e-27
199	0x0cb21384	2.7436988e-31
200	0x3eea12dc	0.45717514
201	0x3ee8226f	0.4533877
202	0x3dec3cfc	0.11535069
203	0x3de669c1	0.1125064
204	0x37eb1501	2.8023964e-05
205	0x3eea12dc	0.45717514
206	0x3b3d766b	0.0028909694
207	0x3e07c2d5	0.13257916
208	0x3c1f0000	0.00970459
209	0x389c6722	7.45787e-05
210	0x3eea12dc	0.45717514
211	0x3c892436	0.0167409
212	0x3d897c40	0.06713152
213	0x3c284d9b	0.010272409
214	0x38451d08	4.6995498e-05
215	0x3eea12dc	0.45717514
216	0x3d5c19da	0.05373559
217	0x3de2ba67	0.1107071
218	0x3c2237bf	0.009900986
219	0x380b08b0	3.3148273e-05
220	0x3eea12dc	0.45717514
221	0x3dfe77ed	0.12425218
222	0x3dbc95f3	0.09208288
223	0x3c2eb6ec	0.010663729
224	0x38a78b16	7.989087e-05
225	0x00000000	0.0
226	0x00000000	0.0
227	0x00000000	0.0
228	0x00000000	0.0
229	0x00000000	0.0
230	0x00000000	0.0
231	0x00000000	0.0
232	0x00000000	0.0
233	0x00000000	0.0
234	0x00000000	0.0
235	0x00000000	0.0
236	0x00000000	0.0
237	0x00000000	0.0
238	0x00000000	0.0
239	0x00000000	0.0
240	0x00000000	0.0
241	0x00000000	0.0
242	0x00000000	0.0
243	0x00000000	0.0
244	0x00000000	0.0
245	0x00000000	0.0
246	0x00000000	0.0
247	0x00000000	0.0
248	0x00000000	0.0
249	0x00000000	0.0
250	0x3f01ff04	0.5077975
251	0x3f011094	0.5041592
252	0x3e54ef44	0.20794398
253	0x3e14f1c0	0.14545345
254	0x381bc8c1	3.7141846e-05
255	0x3f01ff04	0.5077975
