highway_ddqn/ddqn_tuned_reward_change/checkpoint-9000.tar (torch, 892334 bytes, 18 tensors)

layers.0.weight f4 [256, 25]
-0.2502415 0.15415417 -0.111086756 -0.4251259 3.1805751 -0.13706364 3.6528244 -1.2362106
0.34135458 -5.250408 -0.06184983 0.12716687 -0.17651284 -0.28339514 -0.6278214 -0.042268984
0.40788952 -0.20650755 -0.18150042 -2.4215782 0.09699572 -0.42461944 0.077200316 -0.31397885
-2.391281 -0.13649149 -0.13464026 -0.17016351 0.06543577 0.0074178935 -0.103126384 -0.074378565
0.18597041 0.03498373 -0.028827762 0.042610314 0.05731156 0.15240502 -0.03170488 0.17882343
-0.17320926 0.04912877 -0.017670942 0.16811712 -0.14422858 0.0009753704 -0.014377403 -0.06746214
-0.019946098 -0.13490467 -0.035567142 -0.03718946 0.02497666 -0.008952523 -0.10876577 -0.0788851
-0.043465804 0.09244404 0.07279196 -0.05254085 -0.032938052 -0.16272576 0.003198123 -0.02877829
0.12821126 -0.057488322 0.056633808 -0.061443713 -0.13266103 -0.14824437 -0.1441218 0.12264838
-0.12075899 0.12879221 -0.05345385 -0.2222809 -0.0055262847 0.21252559 0.18779072 0.550464
0.048100963 -0.056299616 0.4995168 -0.066610806 1.0054556 0.024051413 -0.6539949 0.08850801
-0.18113679 -0.64909476 -0.23088609 1.3644875 1.3497515 0.24691863 0.23284046 0.067133084
0.06649169 -0.08263612 0.2879169 0.21803817 0.002981949 -0.1304514 -0.18410836 -0.17178471
0.15381944 -0.066287756 0.19845691 -0.11156597 0.14895578 0.1287891 0.07250116 -0.09582827
-0.04434223 -0.099694036 -0.114634894 -0.13667646 -0.090064526 0.19962183 -0.15947548 -0.11100819
-0.17560112 -0.032844543 -0.10312581 0.06456273 -0.02509427 -0.13518608 -0.038733076 -0.07237394
0.09425247 -0.108184814 -0.08121278 0.12787692 0.15208435 -0.19848089 0.17078204 -0.0039002418
-0.13787834 -0.0617126 -0.044355895 0.021162724 0.09244142 -0.15766716 -0.027381016 0.13979533
-0.17809303 -0.1741678 0.032921623 0.1748678 -0.052500058 0.13438351 -0.19874169 -0.33483782
0.8036256 0.87020445 0.3079986 -0.2086304 0.23466899 0.3969871 -0.5419995 0.35687315
-0.2519691 -0.84497815 -0.26918542 -0.62378854 0.24740116 -0.21932621 -1.3122091 -0.26869166
-1.2257167 0.13381 -0.13787991 0.51194906 0.5697698 -0.96135426 -0.7197298 0.048591025
0.11828827 -0.40278903 0.86754084 -1.1796726 -0.24757108 -1.2264138 -0.73379457 -0.8916977
-1.0581427 -0.07761225 -1.5224389 0.018531151 -0.7920229 0.7270483 -0.11458097 -0.126416
-0.588469 -0.84210443 0.1825098 -0.19355763 0.043540932 1.0439076 -0.37412062 0.9970226
-0.057010785 -0.048379607 0.18953693 1.2096988 0.13299844 -0.21921633 -0.88420093 0.65177816
-0.17795071 0.614321 -0.11482313 -1.3307254 -0.15165515 -0.54176104 -0.6245221 -0.23864047
0.95607686 -0.6530538 0.3666001 0.27883407 -0.11681104 0.6613289 -0.69952834 0.35179567
-0.79474837 0.046990324 -0.11509414 0.17313972 -0.14044361 0.05692313 -0.121991254 -0.13134456
0.15026806 -0.09707003 -0.08218723 -0.008456374 -0.06955693 -0.000859499 -0.059422232 -0.043849923
-0.09137537 -0.09541376 -0.011997438 -0.19841145 -0.08097809 -0.018379642 0.068817854 0.19265428
0.18242164 0.080088116 0.18109186 -0.09408271 -0.6296974 -0.54692155 -1.533292 0.3448536
00000000: a71f 80be 97da 1d3e 7481 e3bd 1aaa d9be
00000010: 8b8e 4b40 695a 0cbe e0c7 6940 263c 9ebf
00000020: 07c6 ae3e 5803 a8c0 3f56 7dbd 0838 023e
00000030: c8bf 34be 2b19 91be e7b8 20bf 3e22 2dbd
00000040: e5d6 d03e b776 53be 3fdb 39be 23fb 1ac0
00000050: b1a5 c63d b867 d9be 331b 9e3d d6c1 a0be
00000060: bf0a 19c0 6dc4 0bbe 23df 09be 583f 2ebe
00000070: 3003 863d cd11 f33b ed33 d3bd ca53 98bd
00000080: 076f 3e3e 1a4b 0f3d 3328 ecbc 2788 2e3d
00000090: 87bf 6a3d 1010 1c3e fadc 01bd 7d1d 373e
000000a0: c55d 31be 403b 493d a7c2 90bc e526 2c3e
000000b0: a8b0 13be 00b0 7f3a 338f 6bbc 9729 8abd
000000c0: 0066 a3bc 7324 0abe daae 11bd fa53 18bd
000000d0: da9b cc3c 9aad 12bc 97c0 debd 838e a1bd
000000e0: 3309 32bd 4d53 bd3d f313 953d 1335 57bd
000000f0: 0dea 06bd 95a1 26be 9a97 513b 73c0 ebbc
00000100: d049 033e e078 6bbd daf8 673d 67ac 7bbd
00000110: 4bd8 07be 5fcd 17be aa94 13be 132f fb3d
00000120: 7d50 f7bd 1be2 033e 6df2 5abd 9b9d 63be
00000130: d615 b5bb 4fa0 593e 364c 403e 35eb 0c3f
00000140: 8405 453d 6d9a 66bd aac0 ff3e 3f6b 88bd
00000150: c5b2 803f 7807 c53c 366c 27bf b043 b53d
00000160: ec7b 39be 132b 26bf 676d 6cbe 87a7 ae3f
00000170: a8c4 ac3f 3dd8 7c3e bb6d 6e3e 127d 893d
00000180: cc2c 883d 203d a9bd d869 933e 6645 5f3e
00000190: cd6c 433b 0d95 05be e786 3cbe 55e8 2fbe
000001a0: d882 1d3e e0c1 87bd 4a38 4b3e b37c e4bd
000001b0: dd87 183e 4ae1 033e 7d7b 943d 9d41 c4bd
000001c0: 33a0 35bd 632c ccbd b3c5 eabd eaf4 0bbe
000001d0: c073 b8bd aa69 4c3e 8a4d 23be 4358 e3bd
000001e0: c8d0 33be 0088 06bd a033 d3bd 7739 843d
000001f0: 8092 cdbc 386e 0abe 93a6 1ebd ca38 94bd
00000200: 7007 c13d 0090 ddbd e352 a6bd 2bf2 023e
00000210: 00bc 1b3e 933e 4bbe 7de1 2e3e 339b 7fbb
00000220: fb2f 0dbe 5ac6 7cbd 87ae 35bd 735d ad3c
00000230: ed51 bd3d 8073 21be 274e e0bc 8226 0f3e
00000240: 055e 36be 0b59 32be d3d8 063d 8b10 333e
00000250: 4d0a 57bd d59b 093e f182 4bbe dd6f abbe
00000260: 68ba 4d3f b8c5 5e3f feb1 9d3e 35a3 55be
00000270: 114d 703e e541 cb3e 7bc0 0abf 14b8 b63e
00000280: 1802 81be 7d50 58bf acd2 89be 9bb0 1fbf
00000290: bb56 7d3e 0d97 60be 78f6 a7bf f491 89be
000002a0: 49e4 9cbf 7d05 093e 6430 0dbe 180f 033f
000002b0: 6fdc 113f 501b 76bf 3640 38bf 6207 473d
000002c0: 1f41 f23d 5d3a cebe 2817 5e3f 83ff 96bf
000002d0: 4683 7dbe 21fb 9cbf f6d9 3bbf 4d46 64bf
000002e0: 3871 87bf 2cf3 9ebd 47df c2bf a4ce 973c
000002f0: 03c2 4abf d61f 3a3f 6da9 eabd 3273 01be
00000300: e8a5 16bf 2894 57bf d9e3 3a3e f933 46be
00000310: fa57 323d c49e 853f bd8c bfbe e03c 7f3f
00000320: 2484 69bd b229 46bd f815 423e 69d7 9a3f
00000330: be30 083e 3f7a 60be fe5a 62bf efda 263f
00000340: b638 36be 2444 1d3f 6428 ebbd 3655 aabf
00000350: 7d4b 1bbe dab0 0abf aee0 1fbf 2b5e 74be
00000360: 74c1 743f 892e 27bf 02b3 bb3e 57c3 8e3e
00000370: a03a efbd da4c 293f 4a14 33bf 901e b43e
00000380: a174 4bbf ed78 403d 7ab6 ebbd 8a4b 313e
00000390: 73d0 0fbe 3a28 693d 8dd6 f9bd 307f 06be
000003a0: dfdf 193e a7cc c6bd c751 a8bd 9a8c 0abc
000003b0: dd73 8ebd 0050 61ba ba64 73bd fa9b 33bd
000003c0: 0323 bbbd 4a68 c3bd e790 44bc 5f2c 4bbe
000003d0: d7d7 a5bd e790 96bc 60f0 8c3d 2a47 453e
000003e0: bdcc 3a3e 3d05 a43d 2570 393e 70ae c0bd
000003f0: d933 21bf 0d03 0cbf ea42 c4bf a790 b03e

layers.0.bias f4 [256]
0.08639309 -0.018664718 0.17918444 -0.14917055 0.07952571 -0.066385485 -0.41414192 -0.088900425
-0.09958375 0.069978595 0.07773156 0.053648066 -0.1420175 0.09154865 0.0707711 -0.034360655
0.07687763 -0.10475843 0.09582652 0.12824826 -0.22524159 -0.16830121 -0.08973337 -0.040923223
0.20965056 -0.15732558 -0.09526124 -0.122793764 -0.048526168 0.032627996 -0.15670219 0.1701691
0.21361315 0.0069297026 0.1017275 -0.15232524 -0.06703024 -0.06078919 -0.23472776 -0.11179805
-0.41205332 -0.31766748 -0.16920894 -0.16308175 -0.009709326 -0.24021213 -0.14583936 0.009992278
0.04985142 -0.07118021 -0.018790903 -0.14468001 -0.17805803 -0.27858862 0.19425307 0.16325101
0.0036883957 -0.12218106 -0.1047664 -0.16609879 -0.18096966 -0.0615727 -0.25451034 -0.038970847
-0.19476432 0.20502152 -0.18653908 0.00023953918 -0.1861321 -0.053614527 0.03202488 -0.26170778
-0.25375104 0.097707585 0.10375917 -0.16959313 -0.18932787 0.12052588 -0.124269255 0.059490588
-0.0952742 -0.042040646 0.1850265 -0.10259838 0.0479635 -0.023931421 0.29676232 -0.057928085
-0.07570427 0.10335804 0.22095263 -0.055271804 -0.084220126 0.08715146 -0.061608054 -0.13804916
-0.024508385 -0.21248493 -0.156375 -0.16651087 0.105444945 0.19337939 -0.08539535 -0.29005456
-0.17984235 -0.006335068 -0.10925973 0.16413163 0.035270166 0.05174759 -0.049073055 0.4057338
-0.0922539 0.06615256 -0.14901955 -0.020128155 -0.24519432 -0.04040425 -0.26929942 0.043922354
0.10200297 -0.118733846 -0.13656569 -0.25119686 0.15782596 -0.13950042 -0.0684314 -0.3179443
0.11937266 0.1919878 -0.017598249 -0.1969439 -0.1203285 -0.029268637 0.015262671 -0.060202386
-0.3394718 0.02135041 -0.26036993 -0.12777197 -0.1813992 0.15834463 -0.11708461 0.055723142
0.11134369 -0.15750436 0.054365408 -0.006703344 -0.07709906 -0.1589481 -0.10431118 -0.32662344
-0.054052293 -0.115253374 -0.10984526 0.05048878 0.31857717 -0.4148398 0.0052326918 -0.007139226
0.11568045 0.03291593 0.08076358 0.022281652 0.073329814 -0.09869247 -0.10143958 -0.067518234
-0.049321253 -0.2751192 -0.095262244 -0.21624409 -0.16390683 -0.0665221 0.05855557 0.28478205
-0.45348787 -0.029413668 -0.21855035 -0.16946326 0.015140383 0.00862515 -0.13257065 0.08438526
-0.12020042 0.19212577 0.118250966 -0.14117776 -0.11520896 -0.006220958 0.12286394 0.07539964
0.14709918 -0.012783909 -0.15255386 0.09072136 -0.17850535 0.00073079916 0.1791217 -0.22749396
-0.052679777 0.06724287 0.045077424 -0.08951132 0.034168113 -0.24924052 -0.07012296 -0.3808946
0.052984864 1.3877705 -0.025875708 0.12955128 -0.2549582 0.2592129 -0.10218424 -0.162155
-0.2560803 -0.13260618 -0.19114998 -0.1953045 -0.19211379 -0.15429051 0.08706797 -0.28973687
-0.20674975 0.055242818 -0.1975715 -0.38857663 0.10632351 0.106915176 0.0065752724 0.14007948
0.2608922 -0.060335267 -0.12572543 -0.24158186 -0.10163424 -0.072759904 -0.17063133 -0.41002584
-0.26453218 -0.2065221 -0.022840505 -0.43188944 -0.04847158 -0.121663086 -0.022115162 0.051817067
0.044242583 0.068617746 -0.028195415 -0.051187873 -0.1678193 0.21260256 -0.04373053 -0.16043796
00000000: dcee b03d c0e6 98bc 207c 373e 2ac0 18be
00000010: 60de a23d 1df5 87bd 690a d4be 6d11 b6bd
00000020: 91f2 cbbd f050 8f3d b931 9f3d 13be 5b3d
00000030: 096d 11be dc7d bb3d 70f0 903d c2bd 0cbd
00000040: 0572 9d3d 968b d6bd b240 c43d 8353 033e
00000050: bba5 66be 2757 2cbe 21c6 b7bd 1c9f 27bd
00000060: a3ae 563e f519 21be 5318 c3bd 4c7b fbbd
00000070: 60c3 46bd efa4 053d 8a76 20be cf40 2e3e
00000080: 68bd 5a3e 8f12 e33b 8256 d03d 26fb 1bbe
00000090: 2747 89bd 16fe 78bd 795c 70be 60f6 e4bd
000000a0: a7f8 d2be 50a5 a2be 1c45 2dbe e7fe 26be
000000b0: dd13 1fbc 2bfa 75be ea56 15be a7b6 233c
000000c0: 0131 4c3d eec6 91bd 61ef 99bc ff26 14be
000000d0: d854 36be 2ba3 8ebe 47ea 463e 462b 273e
000000e0: 03b9 713b 103a fabd c48f d6bd cd15 2abe
000000f0: 1c50 39be a833 7cbd 2e4f 82be e59f 1fbd
00000100: 4c70 47be 29f1 513e 1a04 3fbe cf2c 7b39
00000110: 6a99 3ebe e89a 5bbd 852c 033d 90fe 85be
00000120: a8eb 81be ea1a c83d b07f d43d d2a9 2dbe
00000130: 2adf 41be 46d6 f63d e180 febd 67ac 733d
00000140: 1f1f c3bd d032 2cbd 9677 3d3e 191f d2bd
00000150: 6075 443d d40b c4bc 3bf1 973e 0046 6dbd
00000160: d70a 9bbd 61ad d33d 6841 623e b064 62bd
00000170: 9a7b acbd 777c b23d ba58 7cbd c25c 0dbe
00000180: cfc5 c8bc a695 59be c520 20be d381 2abe
00000190: 85f3 d73d 3f05 463e c2e3 aebd 0882 94be
000001a0: 9828 38be 6796 cfbb 91c3 dfbd 1f12 283e
000001b0: 7377 103d 48f5 533d d400 49bd 57bc cf3e
000001c0: 9def bcbd fe7a 873d 9598 18be cde3 a4bc
000001d0: 3814 7bbe ed7e 25bd 9de1 89be ede7 333d
000001e0: efe6 d03d bb2a f3bd e0d7 0bbe e09c 80be
000001f0: 219d 213e 33d9 0ebe c325 8cbd 98c9 a2be
00000200: a779 f43d 7398 443e 342a 90bc a9ab 49be
00000210: ca6e f6bd c8c4 efbc 4810 7a3c c796 76bd
00000220: 3fcf adbe 0ee7 ae3c 354f 85be a8d6 02be
00000230: b6c0 39be 1825 223e 0eca efbd f33d 643d
00000240: 2908 e43d d348 21be 43ae 5e3d baa7 dbbb
00000250: 1de6 9dbd 4ac3 22be 1aa1 d5bd 303b a7be
00000260: f065 5dbd f609 ecbd 8df6 e0bd 53cd 4e3d
00000270: 8c1c a33e e265 d4be 0077 ab3b 2bf0 e9bb
00000280: dfe9 ec3d dbd2 063d 6067 a53d 0388 b63c
00000290: f12d 963d 471f cabd 8ebf cfbd 0047 8abd
000002a0: 1505 4abd 6cdc 8cbe da18 c3bd 176f 5dbe
000002b0: 31d7 27be bd3c 88bd f7d7 6f3d f4ce 913e
000002c0: 902f e8be eff4 f0bc aacb 5fbe c787 2dbe
000002d0: 5e0f 783c 8050 0d3c 9ac0 07be 2ed2 ac3d
000002e0: a32b f6bd 9ebc 443e 902d f23d e790 10be
000002f0: adf2 ebbd 2ed9 cbbb 17a0 fb3d 206b 9a3d
00000300: 2ba1 163e 9a73 51bc 1437 1cbe 1fcc b93d
00000310: 1bca 36be 1a93 3f3a ae6b 373e 2df4 68be
00000320: c0c6 57bd a1b6 893d 1ba3 383d b651 b7bd
00000330: ddf3 0b3d e838 7fbe a09c 8fbd 9e04 c3be
00000340: a806 593d 77a2 b13f 4bf9 d3bc 17a9 043e
00000350: e289 82be 8eb7 843e f945 d1bd f60b 26be
00000360: f51c 83be eac9 07be d2bc 43be e7fd 47be
00000370: 7ab9 44be 55fe 1dbe b150 b23d 6458 94be
00000380: 35b6 53be 4b46 623d 2f50 4abe 84f3 c6be
00000390: 24c0 d93d 58f6 da3d 6275 d73b ff70 0f3e
000003a0: aa93 853e 1d22 77bd 2bbe 00be 3c61 77be
000003b0: 9d25 d0bd 2503 95bd fbb9 2ebe e8ee d1be
000003c0: c370 87be 887a 53be 031c bbbc 9d20 ddbe
000003d0: 238a 46bd 7f2a f9bd db2a b5bc 223e 543d
000003e0: b637 353d 7687 8c3d 12fa e6bc 60aa 51bd
000003f0: d3d8 2bbe 7cb4 593e c91e 33bd d949 24be

layers.1.weight f4 [256, 256]
-0.08257209 0.053405724 0.043611728 -0.37280214 0.00066704303 -0.06211669 0.07549768 -0.17921348
0.036830623 0.060030393 -0.07031751 -0.05552741 0.25750872 -1.2825209 -0.08310663 -0.9588797
-0.67055285 0.036190566 0.035561748 0.07854996 0.12490474 -0.05882916 0.24825129 -0.32265645
-0.55191344 -0.06523142 -0.017377436 -0.25771812 0.052979507 0.95871186 -0.068812706 0.0350957
0.17503917 0.039830968 0.2488111 -0.92336893 0.06149131 -0.20041364 -0.5752583 0.03295836
-1.1755542 -0.25085747 -0.56551576 -0.01570388 -0.022167739 -0.212694 0.21019661 -0.030011239
-0.07535875 -0.9258806 0.44281307 -0.05337114 -0.7561024 -0.22677694 0.0045950785 0.07475518
0.15652041 -0.051168635 -0.46358207 -0.0438246 -0.51480246 0.57666755 -1.5205541 -0.3806172
0.00042510786 -0.053824294 0.008712821 0.24695633 -0.062876135 -0.10525178 0.032222204 -0.031266555
-0.7417987 -0.0183326 0.00072617165 0.05329603 0.0071714297 -0.36193043 -1.3225278 0.4213451
-0.82370156 -2.449472 0.071431264 -0.120798305 0.023098834 -0.88017905 0.09720792 -0.79990804
-0.008835427 0.3673087 -0.2727761 -0.19086872 0.050927408 0.037934534 -0.42380872 -0.49128222
-0.9462165 -0.3919058 -1.8795736 0.114965245 -0.004156972 0.053031474 -0.6211413 -0.7095602
-0.62028056 0.006164491 0.029466325 -0.53730077 0.048687488 -2.9337122 -0.025714003 0.20338033
-0.044252463 0.031496745 -0.74902374 0.009159595 -0.1408942 -0.14004563 -0.3137628 -1.0837443
0.28116965 -0.7686308 -0.59744585 -1.0391637 -0.43728033 0.13327746 -0.016064301 -0.68444157
-0.26208353 -0.05694849 -0.3411469 -1.6653433 0.030320128 -0.30005765 0.08513261 -0.7871323
-0.6193315 -2.8899891 0.17681469 -0.44692782 0.7072072 0.13673595 -0.14998451 -0.33097312
0.17318116 0.033806868 -0.39399347 -0.0020850424 -0.021000072 -0.02508621 -1.3944124 -0.7885236
-0.4937715 0.052012913 -1.0567051 0.00029764324 -2.6052759 -0.15681112 -0.03454452 0.14024368
-0.48921064 0.018711649 -1.1576085 0.97871953 0.28026277 -1.1624378 -0.1478471 0.025767073
0.016648712 -0.69422036 -0.016552307 -0.12122068 -0.6461443 0.025807075 -0.37474948 -0.15505338
-0.7484988 0.5380002 0.24192257 0.3864646 -0.75940365 0.032207496 -0.3328578 -0.20075628
0.006256737 -0.43331283 -0.23357357 -0.82486075 -0.008630447 -0.34319293 0.027240274 -0.7276114
-0.029324695 0.022991143 -0.69314474 -0.66570693 -0.03475863 0.08128984 0.21822762 -0.24679936
-1.3742023 -0.38968828 -0.81784904 -0.58426553 -0.62175965 -0.6233388 0.0121990815 0.10548348
-1.2486457 1.9625415 0.0039553493 0.6548242 0.34487724 -0.24093671 0.17405763 0.29040316
-0.42539743 -0.5734334 -0.62695426 -0.02846907 0.04588235 -0.29088217 -0.9271918 -1.6316097
-1.7094164 -0.17789865 0.031959757 0.14264306 -0.3789562 -0.23766464 0.05273392 -0.15964928
-0.006488905 -1.2820882 -0.25299913 -0.025423065 -0.03907355 0.030167 0.020493604 -0.6986003
-0.39858127 -1.6262823 -0.22579932 0.81183547 -1.167994 -0.03350094 -0.17740752 0.057813395
0.3727496 -0.44856513 0.432448 -0.26649576 0.58737713 -0.33211616 -0.78738487 0.010151691
00000000: 8e1b a9bd f6bf 5a3d 36a2 323d ecdf bebe
00000010: 80dc 2e3a 126e 7ebd 879e 9a3d bd83 37be
00000020: b5db 163d 6ee2 753d a002 90bd b670 63bd
00000030: 2fd8 833e a529 a4bf cf33 aabd 2479 75bf
00000040: 5aa9 2bbf 8f3c 143d 32a9 113d cdde a03d
00000050: 0ece ff3d d8f6 70bd 9635 7e3e 3a33 a5be
00000060: 334a 0dbf 0d98 85bd 205b 8ebc a1f3 83be
00000070: 0a01 593d 246e 753f aded 8cbd 82c0 0f3d
00000080: 783d 333e cc25 233d 56c8 7e3e e861 6cbf
00000090: 50de 7b3d 3c39 4dbe 2144 13bf 58ff 063d
000000a0: 8f78 96bf 6470 80be a4c5 10bf 6ca5 80bc
000000b0: 1e99 b5bc 75cc 59be c83d 573e 21da f5bc
000000c0: b055 9abd 8306 6dbf 65b8 e23e b29b 5abd
000000d0: ed8f 41bf 3738 68be 5092 963b 3e19 993d
000000e0: e346 203e 3496 51bd a15a edbe 6c81 33bd
000000f0: 18ca 03bf 7ca0 133f 84a1 c2bf 42e0 c2be
00000100: 03e1 de39 dd76 5cbd 38c0 0e3c 1fe2 7c3e
00000110: 34c5 80bd 3f8e d7bd 6efb 033d 5c11 00bd
00000120: 85e6 3dbf 402e 96bc 8e5c 3e3a f04c 5a3d
00000130: 50fe ea3b f24e b9be 9748 a9bf 8cba d73e
00000140: 1bde 52bf 26c4 1cc0 8e4a 923d 1a65 f7bd
00000150: c439 bd3c 6a53 61bf f214 c73d c6c6 4cbf
00000160: 78c2 10bc e30f bc3e 4fa9 8bbe 1773 43be
00000170: 4299 503d 3e61 1b3d 75fd d8be 5889 fbbe
00000180: 3f3b 72bf e1a7 c8be de95 f0bf e672 eb3d
00000190: 3537 88bb 8837 593d 1e03 1fbf bda5 35bf
000001a0: b5ca 1ebf 80ff c93b 5d63 f13c 8b8c 09bf
000001b0: 886c 473d f1c1 3bc0 2ca6 d2bc ef42 503e
000001c0: 1242 35bd bb02 013d 05c0 3fbf 2012 163c
000001d0: 9246 10be 1f68 0fbe 85a5 a0be 22b8 8abf
000001e0: 78f5 8f3e fdc4 44bf 36f2 18bf 5103 85bf
000001f0: 35e3 dfbe e379 083e 4899 83bc 9037 2fbf
00000200: d02f 86be d242 69bd ceaa aebe f829 d5bf
00000210: eb61 f83c 28a1 99be 015a ae3d 8181 49bf
00000220: 828c 1ebf 95f5 38c0 e90e 353e b9d3 e4be
00000230: 880b 353f 8204 0c3e 8a95 19be 4f75 a9be
00000240: 6756 313e 1279 0a3d 83b9 c9be 35a5 08bb
00000250: 5808 acbc 9881 cdbc 1b7c b2bf afdc 49bf
00000260: 9ecf fcbe 7e0b 553d 1d42 87bf 000d 9c39
00000270: d7bc 26c0 1893 20be 8e7e 0dbd 0a9c 0f3e
00000280: d179 fabe 2c49 993c 842c 94bf 5d8d 7a3f
00000290: 9a7e 8f3e c3ca 94bf 3b65 17be 7815 d33c
000002a0: e162 883c 6db8 31bf b498 87bc 8c42 f8bd
000002b0: b669 25bf 5c69 d33c 2adf bfbe 50c6 1ebe
000002c0: 9e9d 3fbf 62ba 093f 8dba 773e b0de c53e
000002d0: 4768 42bf 02ec 033d 566c aabe 0e93 4dbe
000002e0: 5005 cd3b 2edb ddbe e92d 6fbe 132a 53bf
000002f0: b866 0dbc fcb6 afbe ff26 df3c be44 3abf
00000300: 583a f0bc ec57 bc3c ef71 31bf c56b 2abf
00000310: 115f 0ebd 4a7b a63d 1077 5f3e f9b8 7cbe
00000320: dce5 afbf 3985 c7be 8e5e 51bf 6d92 15bf
00000330: a42b 1fbf 2293 1fbf a8de 473c b907 d83d
00000340: 9fd3 9fbf 8f34 fb3f e09b 813b 8fa2 273f
00000350: c093 b03e 1db8 76be 2a3c 323e b9af 943e
00000360: b1cd d9be 88cc 12bf 1380 20bf f837 e9bc
00000370: 22ef 3b3d 82ee 94be 715c 6dbf 96d8 d0bf
00000380: 28ce dabf 102b 36be 3ce8 023d 0611 123e
00000390: 8c06 c2be 5c5e 73be 86ff 573d 1a7b 23be
000003a0: e1a0 d4bb 771b a4bf 1a89 81be 0844 d0bc
000003b0: 960b 20bd c920 f73c 34e2 a73c 78d7 32bf
000003c0: d812 ccbe 052a d0bf f037 67be 73d4 4f3f
000003d0: d480 95bf 4838 09bd 51aa 35be bdcd 6c3d
000003e0: 09d9 be3e 54aa e5be d369 dd3e 2272 88be
000003f0: 595e 163f 210b aabe 0e92 49bf 4753 263c

layers.1.bias f4 [256]
-1.3667707 -1.1998385 1.4536247 -0.7861273 0.2175983 -0.035127424 -0.05934406 -1.2701006
-1.1024402 -0.26439452 -0.53577715 -0.047969043 -0.0736203 -0.02053636 -1.2818556 -0.57650435
0.046597753 -0.052057542 -0.0008975556 0.031859647 -0.04065076 0.54647 0.041968133 -0.030426348
-0.04612485 0.7157342 0.4608623 0.82647103 -0.05750753 -0.04482138 -0.039533067 -0.9816182
-0.034002524 1.2826325 -0.03910726 -1.3131132 -0.0039737066 -0.04907799 0.38461715 -1.2424903
0.0034010585 -1.2827833 -0.07186717 0.48909613 -0.5243795 -0.83876795 -0.46411297 -0.6623502
0.03313308 -0.06134879 -0.060099404 -1.3744498 -0.0006411951 -1.1775484 1.2057186 0.6784144
0.013009766 0.0158719 -0.5540527 0.82460177 -0.9372399 -1.1006246 -0.422255 0.008204493
-0.85199356 0.48177978 0.2799673 -0.041798063 0.5312659 0.031035297 -0.037675437 0.17589878
-0.20029382 1.3916926 -0.018454058 -1.0280268 -0.018600767 -0.06621138 -0.056908537 0.22260523
-4.492172e-05 0.0054147127 0.35540313 1.5657307 1.0485975 -1.3373859 -0.6313449 -0.7284058
-0.032917663 -0.66706795 -0.046564937 0.00085831626 0.0044483743 -0.14056168 -0.048175655 -0.953488
-0.068976045 -0.16883108 -0.07095502 -0.027615946 0.014057765 0.024604047 -0.039851777 0.2384571
-0.62853605 0.033701535 -1.2598822 -0.87362826 0.048377458 -0.009319513 -0.02641878 -1.2778591
1.1008155 0.011752747 -0.65118814 -0.71495724 -0.015326393 -1.5662743 -0.031427458 -0.13708213
-0.017139854 -0.5873817 1.5926572 -0.6757491 -0.29607108 -0.034632415 0.60584354 -0.6915587
0.6406337 0.014973927 -0.5078847 0.16562894 -0.03521746 -0.07363531 -0.6143733 -0.058809336
-0.021438353 -0.045494426 -0.043591242 -0.18507408 -0.32823408 1.303066 -0.40033367 -0.007895896
0.6229503 -0.016306015 0.6066552 -0.018644834 -0.16035575 -0.12272305 -0.005882696 -0.38420725
0.010398061 0.3925384 -0.06758449 -1.1844349 -0.06353944 -0.029960776 0.422186 -0.0014962411
-0.04160304 0.30910552 -0.07752372 -1.2189331 -0.56587404 -0.08656658 -0.053735405 0.2249326
0.6607314 -0.1371308 0.9207749 0.0068925098 -0.05082319 -0.051746793 -1.2225065 -0.010160175
0.18164419 -0.04408199 -0.0011658232 -0.14781958 0.03505257 -0.008303815 -0.04727818 -0.051887468
-0.06483261 -0.343435 0.16374668 -0.7807029 0.18869098 -1.0921087 0.09050876 -1.1684514
-0.015857827 0.5427585 0.35068902 0.0011616466 -0.07851814 0.030546146 -0.4883373 0.53932726
-0.52818584 -0.03298206 -0.017982012 -0.083243564 -0.070336446 -0.044949595 0.23103821 -0.60205305
-0.13285758 -0.029418759 1.6034707 0.015911 -0.08943065 0.9072453 -0.029454442 -0.013963369
-1.173291 -0.084803075 1.2438091 -0.51172715 0.48355126 -0.38010898 -0.039416235 -0.030995661
0.027187414 0.5029493 -0.15081194 -0.60673803 -0.020536926 0.25342903 0.41267657 -0.025904858
-0.045667917 -0.062132355 -0.052510798 0.0029625983 -0.009930026 0.123806454 -0.039498888 -0.022396464
-0.35192162 -0.05624111 -0.14720169 -0.111309506 0.06261721 -0.056889422 -0.93451107 0.7424737
-0.06129625 -0.045765385 -0.37871298 -0.5775621 -0.45281893 0.01750741 -0.9456768 -1.0666516
00000000: 58f2 aebf 4f94 99bf 6010 ba3f a43f 49bf
00000010: 17d2 5e3e c6e1 0fbd c212 73bd a892 a2bf
00000020: c31c 8dbf b85e 87be b128 09bf 307b 44bd
00000030: 3dc6 96bd de3b a8bc d813 a4bf ca95 13bf
00000040: 49dd 3e3d 4a3a 55bd f049 6bba 437f 023d
00000050: 6981 26bd 75e5 0b3f c7e6 2b3d ad40 f9bc
00000060: 69ed 3cbd 5b3a 373f 25f6 eb3e 9b93 533f
00000070: 048d 6bbd a096 37bd 6ded 21bd 554b 7bbf
00000080: 3b46 0bbd 4d2d a43f ef2e 20bd 1814 a8bf
00000090: de35 82bb 0106 49bd 8aec c43e ec09 9fbf
000000a0: 4be4 5e3b 3e32 a4bf 182f 93bd cf6a fa3e
000000b0: bc3d 06bf 7fb9 56bf 37a0 edbe c88f 29bf
000000c0: 8db6 073d de48 7bbd cb2a 76bd f9ed afbf
000000d0: e015 28ba e8b9 96bf fd54 9a3f 91ac 2d3f
000000e0: ea26 553c c905 823c 66d6 0dbf 1a19 533f
000000f0: f4ee 6fbf 44e1 8cbf cf31 d8be 236c 063c
00000100: 401c 5abf d7ab f63e e057 8f3e 7234 2bbd
00000110: 0b01 083f bc3d fe3c 8f51 1abd cf1e 343e
00000120: d319 4dbe fc22 b23f f72c 97bc 6296 83bf
00000130: a360 98bc d599 87bd ed18 69bd a0f2 633e
00000140: 546a 3cb8 e76d b13b 66f7 b53e dd69 c83f
00000150: 7138 863f 762f abbf d29f 21bf cd78 3abf
00000160: acd4 06bd f7c4 2abf e0ba 3ebd a100 613a
00000170: abc3 913b 67ef 0fbe d653 45bd ca17 74bf
00000180: 5043 8dbd 0ee2 2cbe de50 91bd d63a e2bc
00000190: 8a52 663c 6d8e c93c 9e3b 23bd 192e 743e
000001a0: bde7 20bf 9f0a 0a3d d243 a1bf 1aa6 5fbf
000001b0: 7127 463d dfb0 18bc 336c d8bc e390 a3bf
000001c0: 86e7 8c3f 988e 403c 44b4 26bf 7007 37bf
000001d0: 8d1b 7bbc ad7b c8bf 14ba 00bd 425f 0cbe
000001e0: e168 8cbc a65e 16bf 31dc cb3f e5fd 2cbf
000001f0: a196 97be b8da 0dbd 9018 1b3f fe09 31bf
00000200: 9200 243f 3455 753c bb04 02bf a29a 293e
00000210: 2f40 10bd 1cce 96bd 9247 1dbf 0fe2 70bd
00000220: 7c9f afbc 5d58 3abd bb8c 32bd 0f84 3dbe
00000230: 4c0e a8be deca a63f 89f8 ccbe ca5d 01bc
00000240: ac79 1f3f 3194 85bc c14d 1b3f 0dbd 98bc
00000250: 4c34 24be 3956 fbbd a1c3 c0bb d0b6 c4be
00000260: a15c 2a3c cbfa c83e bd69 8abd 909b 97bf
00000270: f720 82bd 4d70 f5bc c328 d83e 851d c4ba
00000280: f367 2abd 1443 9e3e c2c4 9ebd 0006 9cbf
00000290: 1fdd 10bf d249 b1bd a819 5cbd bb54 663e
000002a0: b125 293f 046c 0cbe e7b7 6b3f 90da e13b
000002b0: fa2b 50bd 72f4 53bd 187b 9cbf dd76 26bc
000002c0: ef00 3a3e 518f 34bd 89ce 98ba 045e 17be
000002d0: 4993 0f3d b90c 08bc c4a6 41bd f487 54bd
000002e0: f6c6 84bd b6d6 afbe 36ad 273e 25dc 47bf
000002f0: 3538 413e 38ca 8bbf a85c b93d d18f 95bf
00000300: 46e8 81bc 39f2 0a3f 838d b33e 6442 983a
00000310: 1ece a0bd e93b fa3c 5907 fabe 5a11 0a3f
00000320: 3037 07bf 3218 07bd 034f 93bc 9a7b aabd
00000330: 8e0c 90bd 111d 38bd 4895 6c3e 2620 1abf
00000340: d10b 08be 9cff f0bc 873e cd3f c957 823c
00000350: 6b27 b7bd 3a41 683f 714a f1bc 9dc6 64bc
00000360: 662e 96bf 3cad adbd 2335 9f3f 8d00 03bf
00000370: 0894 f73e a59d c2be eb72 21bd 9dea fdbc
00000380: 24b8 de3c 49c1 003f 726e 1abe 2f53 1bbf
00000390: 0e3d a8bc 73c1 813e 584a d33e 6d36 d4bc
000003a0: 480e 3bbd 7f7e 7ebd 9015 57bd 2728 423b
000003b0: 8cb1 22bc 3d8e fd3d 96c9 21bd ca78 b7bc
000003c0: 122f b4be 145d 66bd 0abc 16be 3df6 e3bd
000003d0: 743d 803d e204 69bd 1e3c 6fbf c212 3e3f
000003e0: c711 7bbd 7c74 3bbd abe6 c1be 1cdb 13bf
000003f0: e2d7 e7be b36b 8f3c e017 72bf 0a88 88bf

predict.weight f4 [5, 256]
1.027423 0.6908185 -1.570886 0.72773165 1.0789533 -0.035630908 -0.032217756 0.78987515
0.089881375 0.008737252 -0.18825236 -0.0027647307 -0.01270228 -0.017574506 -0.31057167 0.2500131
-1.5281307 0.011064939 -0.35843912 -0.029365974 -0.02862621 -0.5231372 0.006697389 0.044368155
-0.06501659 0.8808557 -0.09942748 -1.26015 -0.051176384 -0.036004297 0.021984985 0.4744922
-0.5008221 -1.4871534 0.00058112375 0.6204753 0.014442622 0.0038325563 -1.3027382 0.46328682
0.025271254 1.6519245 0.014699905 -0.76451194 -0.111547776 0.3734801 0.5889545 0.084090926
-0.025019635 0.020499196 -0.01197406 1.0954899 -0.0045994143 0.8775603 -1.3624762 -0.20672326
-0.053847674 -0.04557946 0.37070602 0.9011216 0.2651353 -0.17016482 -0.3857165 0.004415468
-0.38691315 -0.3008788 -0.008893183 0.0029403563 0.08033205 -3.7102518 0.012451179 0.14986137
-0.5063295 -0.41518778 -0.210084 2.1771066 0.51694447 -0.02640735 0.08511172 -1.2201849
0.032632384 0.02920248 -0.3752354 -1.5606927 -0.9242041 0.28045246 -0.24878554 -0.3591155
0.04203651 0.39436778 0.029120952 0.020473704 -0.02047054 0.69640124 -0.041020613 -0.44710782
-0.046609912 -0.2191833 0.17563342 -0.04718689 -0.022185957 0.0317824 0.039104763 -0.040427916
0.11348647 0.016217796 0.6611012 0.6123755 0.013230154 0.027277045 0.6771935 0.047174316
-1.5843358 -0.03994633 -0.47226924 0.522626 0.0021412615 0.18134148 -0.026428897 -0.44225097
-0.016839428 -0.9332612 -2.393205 0.6951476 -0.10494841 -0.024090946 -0.27099937 -0.049698506
-0.88972086 -0.02246495 0.60299164 0.4429789 -0.008732876 -0.000998184 -0.06620735 -0.02572218
-0.029576946 0.0077310186 -0.027986394 0.5919175 1.3869903 -0.592766 0.8578839 0.016980957
0.0030116597 -0.046692938 -0.02971153 0.044976626 -0.19673155 0.78823566 0.034191407 1.1193002
-0.036695942 -0.21686777 -0.004974462 1.4302064 0.0356509 -0.021737024 0.38026574 -0.015881322
0.02083762 -1.9759723 -0.013816469 0.56320095 0.119477406 0.023672393 -0.01801517 0.3580808
-0.6950582 -1.2958488 -0.98219925 0.027063198 0.007903281 -0.0056167953 0.7736903 -0.0016585576
-0.699451 0.03585098 -0.016871281 0.7986598 0.0039866515 -0.015866548 -0.04748162 0.044601955
0.046745755 -0.7064214 0.11286268 -0.20001206 -1.3529247 0.57651585 -0.7962038 0.13245238
0.007897748 -0.43342632 0.23154631 0.046112638 0.02110323 -1.9080558 1.2716404 1.5741513
-1.1979387 -0.055781648 -0.022753797 -0.010571266 -0.047307104 -0.042529825 0.57540536 0.34777293
-0.08735867 0.023004306 0.16430838 -2.209009 0.026959911 1.2467966 0.008850463 0.0061399946
-0.36350673 0.02603216 -2.08927 -0.2646189 -2.394089 -0.045116108 -0.061248075 0.05871707
-0.0047865594 0.0012287316 0.53178537 -0.3660515 -0.02446489 -0.51548547 0.054670896 0.022993477
0.036418155 -0.02004954 -0.045433242 0.0125324465 0.013931055 -2.5576904 0.04192774 0.032336585
-0.08641516 -0.05437857 -0.55541164 0.9893451 -1.3582975 0.03559144 -2.2509909 0.30745223
-0.0063524237 0.095494136 -0.13195045 0.23645452 -1.5640192 -0.0733911 -0.12496177 -0.2469413
00000000: 9982 833f 7bd9 303f cb12 c9bf 9f4c 3a3f
00000010: 241b 8a3f b7f1 11bd c4f6 03bd 4235 4a3f
00000020: ba13 b83d b126 0f3c 3ac5 40be 7c30 35bb
00000030: 391d 50bc 69f8 8fbc 4003 9fbe b801 803e
00000040: c999 c3bf b849 353c 5585 b7be e990 f0bc
00000050: 8381 eabc 52ec 05bf c575 db3b 62bb 353d
00000060: 6b27 85bd c27f 613f a2a0 cbbd 984c a1bf
00000070: 549e 51bd 3e79 13bd db19 b43c a4f0 f23e
00000080: e135 00bf 0b5b bebf 8e56 183a 78d7 1e3f
00000090: bfa0 6c3c a02b 7b3b 20c0 a6bf ee33 ed3e
000000a0: a905 cf3c 4372 d33f dfd7 703c 0eb7 43bf
000000b0: 2973 e4bd c938 bf3e b9c5 163f dd37 ac3d
000000c0: faf5 ccbc eeed a73c d92e 44bc 0339 8c3f
000000d0: afb6 96bb cba7 603f 9f65 aebf 43af 53be
000000e0: 618f 5cbd 87b1 3abd 2ecd bd3e e8af 663f
000000f0: d0bf 873e b03f 2ebe a27c c5be a1af 903b
00000100: 7b19 c6be c90c 9abe b7b4 11bc feb2 403b
00000110: 2185 a43d c474 6dc0 0800 4c3c 4275 193e
00000120: cf9e 01bf 7e93 d4be 4320 57be b755 0b40
00000130: 7956 043f 3a54 d8bc 0e4f ae3d 052f 9cbf
00000140: 89a9 053d 0a3a ef3c db1e c0be c7c4 c7bf
00000150: a498 6cbf 7797 8f3e a3c1 7ebe fddd b7be
00000160: 7a2e 2c3d 93ea c93e 108f ee3c 78b8 a73c
00000170: d5b1 a7bc 5a47 323f 3b05 28bd 51eb e4be
00000180: 09ea 3ebd 9671 60be 3fd9 333e 0a47 41bd
00000190: 53bf b5bc 432e 023d 512c 203d be97 25bd
000001a0: 986b e83d 2fdb 843c ee3d 293f a4c4 1c3f
000001b0: 4ac3 583c 1c74 df3c 8e5c 2d3f db39 413d
000001c0: 84cb cabf c39e 23bd 46cd f1be d1ca 053f
000001d0: 6854 0c3b 95b1 393e 6a81 d8bc b86e e2be
000001e0: d7f2 89bc 35ea 6ebf 452a 19c0 31f5 313f
000001f0: 31ef d6bd 605a c5bc 6ec0 8abe a990 4bbd
00000200: bfc4 63bf 6a08 b8bc a95d 1a3f 21ce e23e
00000210: 5614 0fbc 7fd5 82ba b897 87bd 52b7 d2bc
00000220: 5a4b f2bc 7c54 fd3b b943 e5bc e887 173f
00000230: e688 b13f 83bf 17bf 479e 5b3f a61b 8b3c
00000240: 445f 453b 1841 3fbd 9865 f3bc 6939 383d
00000250: ff73 49be d0c9 493f 4a0c 0c3d 3b45 8f3f
00000260: 7c4e 16bd 9612 5ebe d000 a3bb 0111 b73f
00000270: ae06 123d d811 b2bc 31b2 c23e 8c19 82bc
00000280: a8b3 aa3c a9ec fcbf 795e 62bc f02d 103f
00000290: 92b0 f43d 9bec c13c 8d94 93bc 5e56 b73e
000002a0: 56ef 31bf 60de a5bf 6971 7bbf a4b3 dd3c
000002b0: c37c 013c 180d b8bb 9110 463f f563 d9ba
000002c0: 390f 33bf 7ad8 123d a435 8abc f874 4c3f
000002d0: 75a2 823b 90fa 81bc 167c 42bd 8ab0 363d
000002e0: 7a78 3f3d 08d8 34bf 8c24 e73d f6cf 4cbe
000002f0: a32c adbf 8b96 133f 03d4 4bbf 99a1 073e
00000300: 8e65 013c 0eea ddbe 7a1a 6d3e 9be0 3c3d
00000310: aee0 ac3c 2c3b f4bf 1dc5 a23f ca7d c93f
00000320: 0e56 99bf 4c7b 64bd 2c66 babc 1a33 2dbc
00000330: 18c5 41bd c133 2ebd c44d 133f 4b0f b23e
00000340: 1ae9 b2bd 8773 bc3c 7540 283e 6760 0dc0
00000350: 08db dc3c 0897 9f3f 8801 113c 0232 c93b
00000360: 8e1d babe 6541 d53c 9ab6 05c0 217c 87be
00000370: c138 19c0 abcb 38bd 43df 7abd 4f81 703d
00000380: 92d8 9cbb 640d a13a 1623 083f 1a6b bbbe
00000390: 986a c8bc dbf6 03bf 97ee 5f3d d15c bc3c
000003a0: 342b 153d ef3e a4bc 3518 3abd e454 4d3c
000003b0: 143f 643c 33b1 23c0 6cbc 2b3d 5e73 043d
000003c0: 6efa b0bd 10bc 5ebd 752f 0ebf b845 7d3f
000003d0: b1dc adbf 54c8 113d 3c10 10c0 616a 9d3e
000003e0: fe27 d0bb 6e92 c33d 051e 07be 2221 723e
000003f0: c831 c8bf 134e 96bd f5eb ffbd 2ede 7cbe

predict.bias f4 [5]
-1.4593694 -0.48920876 -1.1302983 -0.8076659 -1.4532171
00000000: 9ecc babf 9279 fabe 9dad 90bf 31c3 4ebf
00000010: 0503 babf

exp_avg f4 [256, 25]
-0.06017837 -0.05507262 -0.053595953 -0.0055517047 -0.00022759502 -0.06017837 -0.011315509 0.014282636
-0.00838207 0.00022757302 -0.06017837 -0.012126851 0.053551003 -0.0056342427 3.2920183e-05 -0.06017837
-0.014683781 0.05581241 -0.004032662 0.00018436414 -0.06017837 -0.036941186 0.017991947 -0.0069142208
0.000107323816 0.0 0.0 0.0 0.0 0.0 0.0 0.0
0.0 0.0 0.0 0.0 0.0 0.0 0.0 0.0
0.0 0.0 0.0 0.0 0.0 0.0 0.0 0.0
0.0 0.0 0.0 0.0 0.0 0.0 0.0 0.0
0.0 0.0 0.0 0.0 0.0 0.0 0.0 0.0
0.0 0.0 0.0 0.0 0.0 0.0 0.0 0.0
0.0 0.0 0.0 -0.06908314 -0.06340332 -0.024782218 -0.032994185 0.00011205643
-0.06908314 0.0027638932 0.031150328 0.012694796 0.00035479505 -0.06908314 -0.009415943 -0.027988866
0.011088859 -2.2246273e-05 -0.06908314 -0.018047519 -0.014311506 0.010282721 -0.00015183445 -0.06908314
-0.013935498 0.0036479048 0.010897602 -9.251098e-05 0.0 0.0 0.0 0.0
0.0 0.0 0.0 0.0 0.0 0.0 0.0 0.0
0.0 0.0 0.0 0.0 0.0 0.0 0.0 0.0
0.0 0.0 0.0 0.0 0.0 0.0 0.0 0.0
0.0 0.0 0.0 0.0 0.0 0.0 0.0 0.0
0.0 0.0 0.0 0.0 0.0 0.0 0.0 0.0
0.0 0.0 0.0 0.0 0.0 0.0 1.082959e-37 1.082959e-37
1.0785377e-37 1.1168932e-37 1.1514959e-37 1.082959e-37 1.0616645e-37 1.142426e-37 -1.1603205e-37 -1.151493e-37
1.082959e-37 -1.0871609e-37 -1.1274772e-37 -1.1498008e-37 -1.151493e-37 1.082959e-37 1.1707346e-37 -1.0785377e-37
-1.0992892e-37 -1.151493e-37 1.082959e-37 1.0984587e-37 1.1424485e-37 -1.085059e-37 -1.151493e-37 -0.01782986
-0.017830685 0.0038591342 -0.005468569 9.807719e-05 -0.01782986 -0.00050850183 -0.011927713 0.000896611
-3.693542e-05 -0.01782986 -0.0013415482 -0.006844468 0.0012055123 -0.00011804637 -0.01782986 -0.004357823
-0.008317136 0.0017072208 0.00012071579 -0.01782986 -0.008092533 -0.013136231 0.0012547558 -0.00010890923
-0.04666775 -0.046515178 -0.026128208 -0.012435656 -0.00023163036 -0.04666775 -0.005541956 0.00045063393
0.002092794 0.00030430788 -0.04666775 -0.022857253 -0.0067405757 0.0040187174 0.00028192982 -0.04666775
-0.021686617 0.049460758 0.0009489716 0.00045778835 -0.04666775 -0.021643985 0.004154762 8.204649e-05
-0.00048494636 0.0 0.0 0.0 0.0 0.0 0.0 0.0
0.0 0.0 0.0 0.0 0.0 0.0 0.0 0.0
0.0 0.0 0.0 0.0 0.0 0.0 0.0 0.0
0.0 0.0 -0.04668051 -0.046364658 -0.0065464578 -0.015237771 9.871048e-05 -0.04668051
00000000: 987d 76bd d493 61bd 6e87 5bbd 13eb b5bb
00000010: 93a6 6eb9 987d 76bd af64 39bc b801 6a3c
00000020: f354 09bc aba0 6e39 987d 76bd b3af 46bc
00000030: 4c58 5b3d 749f b8bb c713 0a38 987d 76bd
00000040: 3e94 70bc 8e9b 643d 6c24 84bb df51 4139
00000050: 987d 76bd a44f 17bd d963 933c b090 e2bb
00000060: 0913 e138 0000 0000 0000 0000 0000 0000
00000070: 0000 0000 0000 0000 0000 0000 0000 0000
00000080: 0000 0000 0000 0000 0000 0000 0000 0000
00000090: 0000 0000 0000 0000 0000 0000 0000 0000
000000a0: 0000 0000 0000 0000 0000 0000 0000 0000
000000b0: 0000 0000 0000 0000 0000 0000 0000 0000
000000c0: 0000 0000 0000 0000 0000 0000 0000 0000
000000d0: 0000 0000 0000 0000 0000 0000 0000 0000
000000e0: 0000 0000 0000 0000 0000 0000 0000 0000
000000f0: 0000 0000 0000 0000 0000 0000 0000 0000
00000100: 0000 0000 0000 0000 0000 0000 0000 0000
00000110: 0000 0000 0000 0000 0000 0000 0000 0000
00000120: 0000 0000 0000 0000 0000 0000 767b 8dbd
00000130: 9ad9 81bd 1404 cbbc e924 07bd d6ff ea38
00000140: 767b 8dbd 6f22 353b f92e ff3c d5fd 4f3c
00000150: c903 ba39 767b 8dbd 5445 1abc e848 e5bc
00000160: 0cae 353c 829d bab7 767b 8dbd 64d8 93bc
00000170: cf7a 6abc dc78 283c c035 1fb9 767b 8dbd
00000180: b751 64bc b011 6f3b db8b 323c 7402 c2b8
00000190: 0000 0000 0000 0000 0000 0000 0000 0000
000001a0: 0000 0000 0000 0000 0000 0000 0000 0000
000001b0: 0000 0000 0000 0000 0000 0000 0000 0000
000001c0: 0000 0000 0000 0000 0000 0000 0000 0000
000001d0: 0000 0000 0000 0000 0000 0000 0000 0000
000001e0: 0000 0000 0000 0000 0000 0000 0000 0000
000001f0: 0000 0000 0000 0000 0000 0000 0000 0000
00000200: 0000 0000 0000 0000 0000 0000 0000 0000
00000210: 0000 0000 0000 0000 0000 0000 0000 0000
00000220: 0000 0000 0000 0000 0000 0000 0000 0000
00000230: 0000 0000 0000 0000 0000 0000 0000 0000
00000240: 0000 0000 0000 0000 0000 0000 0000 0000
00000250: 0000 0000 0000 0000 9d67 1302 9d67 1302
00000260: 8ecd 1202 0c06 1802 c7bb 1c02 9d67 1302
00000270: 9c81 1002 bc7f 1b02 45ef 1d82 adbb 1c82
00000280: 9d67 1302 07fa 1382 d976 1982 b680 1c82
00000290: adbb 1c82 9d67 1302 265a 1f02 8ecd 1282
000002a0: a3a0 1582 adbb 1c82 9d67 1302 b383 1502
000002b0: 8580 1b02 cab0 1382 adbb 1c82 ed0f 92bc
000002c0: a811 92bc 87e9 7c3b af31 b3bb caae cd38
000002d0: ed0f 92bc fb4c 05ba 746c 43bc 8c0a 6b3a
000002e0: 1beb 1ab8 ed0f 92bc e3d6 afba 8f47 e0bb
000002f0: 4802 9e3a aa8f f7b8 ed0f 92bc 12cc 8ebb
00000300: 9944 08bc d3c4 df3a cc28 fd38 ed0f 92bc
00000310: 8b96 04bc 5939 57bc 9e76 a43a 3366 e4b8
00000320: af26 3fbd b386 3ebd d30a d6bc ecbe 4bbc
00000330: cde1 72b9 af26 3fbd 4c99 b5bb 1043 ec39
00000340: 4227 093b 838b 9f39 af26 3fbd 223f bbbc
00000350: 0ce0 dcbb 72af 833b fbcf 9339 af26 3fbd
00000360: 22a8 b1bc 5d97 4a3d 68c4 783a 5003 f039
00000370: af26 3fbd ba4e b1bc ab24 883b 6010 ac38
00000380: 6640 feb9 0000 0000 0000 0000 0000 0000
00000390: 0000 0000 0000 0000 0000 0000 0000 0000
000003a0: 0000 0000 0000 0000 0000 0000 0000 0000
000003b0: 0000 0000 0000 0000 0000 0000 0000 0000
000003c0: 0000 0000 0000 0000 0000 0000 0000 0000
000003d0: 0000 0000 0000 0000 0000 0000 0000 0000
000003e0: 0000 0000 0000 0000 1034 3fbd dee8 3dbd
000003f0: ab83 d6bb d8a7 79bc c902 cf38 1034 3fbd

exp_avg_sq f4 [256, 25]
0.1115589 0.10867698 0.04613308 0.017923512 4.960478e-06 0.1115589 0.0006882032 0.014283534
0.0015730626 1.0165659e-05 0.1115589 0.002995745 0.026206786 0.001424052 5.3048684e-06 0.1115589
0.008941252 0.016865432 0.0014497807 1.0898037e-05 0.1115589 0.021497607 0.021901196 0.0014886993
6.820413e-06 0.0 0.0 0.0 0.0 0.0 0.0 0.0
0.0 0.0 0.0 0.0 0.0 0.0 0.0 0.0
0.0 0.0 0.0 0.0 0.0 0.0 0.0 0.0
0.0 0.0 0.0 0.0 0.0 0.0 0.0 0.0
0.0 0.0 0.0 0.0 0.0 0.0 0.0 0.0
0.0 0.0 0.0 0.0 0.0 0.0 0.0 0.0
0.0 0.0 0.0 0.17566083 0.17444333 0.011961284 0.033026464 8.496529e-06
0.17566083 0.00039935598 0.050010245 0.0023511474 2.1184389e-05 0.17566083 0.003724818 0.01908018
0.0030617975 9.979926e-06 0.17566083 0.018734526 0.03415 0.002428279 1.3987157e-05 0.17566083
0.036646347 0.034957767 0.0027127806 9.3419885e-06 0.0 0.0 0.0 0.0
0.0 0.0 0.0 0.0 0.0 0.0 0.0 0.0
0.0 0.0 0.0 0.0 0.0 0.0 0.0 0.0
0.0 0.0 0.0 0.0 0.0 0.0 0.0 0.0
0.0 0.0 0.0 0.0 0.0 0.0 0.0 0.0
0.0 0.0 0.0 0.0 0.0 0.0 0.0 0.0
0.0 0.0 0.0 0.0 0.0 0.0 8.4163424e-17 8.4163424e-17
4.238355e-17 1.293123e-17 2.431099e-29 8.4163424e-17 1.05134184e-19 2.0125393e-18 1.3298919e-18 2.4892539e-29
8.4163424e-17 1.146454e-19 1.6633641e-17 1.3716804e-18 2.431099e-29 8.4163424e-17 6.8981094e-19 4.238355e-17
1.3332815e-18 2.431099e-29 8.4163424e-17 9.8406485e-18 2.4952465e-31 1.4979857e-18 2.431099e-29 0.047305446
0.04692704 0.003936827 0.007670057 4.4035132e-06 0.047305446 0.00011493437 0.012774018 0.0007606326
4.437048e-06 0.047305446 0.0006719555 0.009093267 0.00089480414 4.9872033e-06 0.047305446 0.0037148555
0.0038949847 0.0008115677 3.466661e-05 0.047305446 0.007953322 0.016219478 0.0007261581 4.763164e-06
0.17637439 0.17555323 0.07927148 0.025464807 3.6760698e-06 0.17637439 0.00032536822 0.04161002
0.0021163505 4.0326722e-05 0.17637439 0.002598163 0.027885612 0.0022086876 7.834567e-06 0.17637439
0.012210805 0.04274562 0.002093415 2.3530129e-05 0.17637439 0.027755141 0.042353205 0.0021345706
5.5133746e-06 0.0 0.0 0.0 0.0 0.0 0.0 0.0
0.0 0.0 0.0 0.0 0.0 0.0 0.0 0.0
0.0 0.0 0.0 0.0 0.0 0.0 0.0 0.0
0.0 0.0 0.073505774 0.07342771 0.016650422 0.009502085 2.0262573e-06 0.073505774
00000000: fe78 e43d 0992 de3d 0af6 3c3d 54d4 923c
00000010: 2e72 a636 fe78 e43d 8968 343a 7c05 6a3c
00000020: 392f ce3a 2c8d 2a37 fe78 e43d 4354 443b
00000030: 9daf d63c 42a7 ba3a 7900 b236 fe78 e43d
00000040: 547e 123c 6029 8a3c 9106 be3a b6d6 3637
00000050: fe78 e43d c01b b03c 236a b33c 7620 c33a
00000060: e7da e436 0000 0000 0000 0000 0000 0000
00000070: 0000 0000 0000 0000 0000 0000 0000 0000
00000080: 0000 0000 0000 0000 0000 0000 0000 0000
00000090: 0000 0000 0000 0000 0000 0000 0000 0000
000000a0: 0000 0000 0000 0000 0000 0000 0000 0000
000000b0: 0000 0000 0000 0000 0000 0000 0000 0000
000000c0: 0000 0000 0000 0000 0000 0000 0000 0000
000000d0: 0000 0000 0000 0000 0000 0000 0000 0000
000000e0: 0000 0000 0000 0000 0000 0000 0000 0000
000000f0: 0000 0000 0000 0000 0000 0000 0000 0000
00000100: 0000 0000 0000 0000 0000 0000 0000 0000
00000110: 0000 0000 0000 0000 0000 0000 0000 0000
00000120: 0000 0000 0000 0000 0000 0000 6fe0 333e
00000130: 46a1 323e 43f9 433c c246 073d 508c 0e37
00000140: 6fe0 333e a760 d139 8bd7 4c3d b515 1a3b
00000150: 21b5 b137 6fe0 333e 131c 743b 0a4e 9c3c
00000160: 70a8 483b 756f 2737 6fe0 333e 2679 993c
00000170: dfe0 0b3d c323 1f3b 62aa 6a37 6fe0 333e
00000180: 7b1a 163d e02f 0f3d e8c8 313b 89bb 1c37
00000190: 0000 0000 0000 0000 0000 0000 0000 0000
000001a0: 0000 0000 0000 0000 0000 0000 0000 0000
000001b0: 0000 0000 0000 0000 0000 0000 0000 0000
000001c0: 0000 0000 0000 0000 0000 0000 0000 0000
000001d0: 0000 0000 0000 0000 0000 0000 0000 0000
000001e0: 0000 0000 0000 0000 0000 0000 0000 0000
000001f0: 0000 0000 0000 0000 0000 0000 0000 0000
00000200: 0000 0000 0000 0000 0000 0000 0000 0000
00000210: 0000 0000 0000 0000 0000 0000 0000 0000
00000220: 0000 0000 0000 0000 0000 0000 0000 0000
00000230: 0000 0000 0000 0000 0000 0000 0000 0000
00000240: 0000 0000 0000 0000 0000 0000 0000 0000
00000250: 0000 0000 0000 0000 5111 c224 5111 c224
00000260: aa75 4324 028a 6e23 f08a f60f 5111 c224
00000270: b73d f81f cb7f 1422 e541 c421 ba70 fc0f
00000280: 5111 c224 7259 0720 136b 9923 9f6c ca21
00000290: f08a f60f 5111 c224 a498 4b21 aa75 4324
000002a0: f3c1 c421 f08a f60f 5111 c224 2687 3523
000002b0: 65f3 a10c 4d10 dd21 f08a f60f 5bc3 413d
000002c0: 9136 403d 8000 813b 1a55 fb3b e4c1 9336
000002d0: 5bc3 413d ec08 f138 1d4a 513c 3165 473a
000002e0: f4e1 9436 5bc3 413d 2c26 303a edfb 143c
000002f0: 4a91 6a3a c057 a736 5bc3 413d ef74 733b
00000300: 0043 7f3b 63bf 543a fd66 1138 5bc3 413d
00000310: a64e 023c b6de 843c a55b 3e3a 44d3 9f36
00000320: 7d9b 343e 3ac4 333e 1659 a23d 929b d03c
00000330: 66b2 7636 7d9b 343e 2f96 aa39 456f 2a3d
00000340: 78b2 0a3b 7d24 2938 7d9b 343e f145 2a3b
00000350: 5e70 e43c a1bf 103b 3671 0337 7d9b 343e
00000360: d40f 483c 0816 2f3d ad31 093b 9162 c537
00000370: 7d9b 343e c05e e33c 8e7a 2d3d 27e4 0b3b
00000380: 87ff b836 0000 0000 0000 0000 0000 0000
00000390: 0000 0000 0000 0000 0000 0000 0000 0000
000003a0: 0000 0000 0000 0000 0000 0000 0000 0000
000003b0: 0000 0000 0000 0000 0000 0000 0000 0000
000003c0: 0000 0000 0000 0000 0000 0000 0000 0000
000003d0: 0000 0000 0000 0000 0000 0000 0000 0000
000003e0: 0000 0000 0000 0000 328a 963d 4461 963d
000003f0: 7766 883c a2ae 1b3c d6fa 0736 328a 963d

exp_avg f4 [256]
-0.06017837 0.0 0.0 -0.06908315 0.0 0.0 1.082959e-37 -0.01782986
-0.046667743 0.0 -0.04668051 0.0 -0.03749293 -0.13457951 0.07687318 -0.04174143
0.02595342 1.1701952e-37 -0.1348608 0.04630591 -0.012480743 0.0 -0.062195614 1.1524912e-37
0.089790374 -0.08991467 0.0 -0.22763114 0.0 0.03330278 0.008908216 0.0
-0.06977942 0.07666037 -0.027712163 -0.075379334 0.0 -0.07342183 0.000105704865 0.0
0.0007783077 1.0622216e-37 0.02991024 0.0 1.1045162e-37 0.062474567 0.023727173 -0.009745065
1.0701869e-37 0.04095474 0.040524878 0.0 -0.01968773 0.066427596 0.0 0.016127817
-0.06229973 0.0 -0.08850089 0.0 0.00030005537 0.003421094 0.06396083 -0.025728649
1.1366634e-37 -0.123862416 0.0 -0.023166995 0.048958234 -0.008822108 -0.013954768 1.082959e-37
-0.005514019 0.0 0.18670912 0.0 0.0 -0.00921361 -0.12910652 0.018291146
-0.08333841 -0.06440719 1.094867e-37 -0.02611862 0.0 -0.19676258 -0.11509404 0.027464526
0.0 0.032316063 -0.09797945 1.1209033e-37 0.0 0.0 -0.14920875 0.034369707
1.0655917e-37 0.087943725 0.19742274 -0.16320698 1.1386593e-37 0.0 -0.024440454 1.082959e-37
1.0743172e-37 0.0 1.1234186e-37 -0.11103731 0.0 0.025459263 1.1623661e-37 -0.04259939
0.0 1.1327778e-37 1.082959e-37 0.0 1.0837967e-37 0.037216492 1.1162254e-37 -0.0499345
-0.037351444 0.11913905 -0.07725414 1.0639319e-37 -0.015632018 1.1064583e-37 0.0 1.1423154e-37
0.0147337895 0.0 0.0113858385 0.09305724 1.1115976e-37 -0.21821323 1.082959e-37 -0.0887734
1.1584425e-37 0.06497998 0.0084630065 0.031661242 0.08043015 0.05011365 0.017102797 -0.019227704
-0.052775234 0.0 -0.07424987 0.17439558 0.0 0.0 -0.0782076 -0.09745963
-0.097701445 1.1000333e-37 0.06919788 0.0 -0.053343073 1.1076811e-37 0.0 1.1483669e-37
-0.014233871 1.1578001e-37 -0.102404825 -0.091959566 -0.05820182 -0.0073974472 0.05925312 0.0
-0.014171478 1.1398853e-37 0.0 0.03512011 -0.12204749 0.0 -0.040333893 -0.09399025
1.1025596e-37 0.041134067 0.019873103 -0.16875757 -0.048020512 0.0 -0.05689863 0.037647635
0.0 0.025653847 -0.080181114 1.1367947e-37 0.0 1.1637191e-37 -0.20224442 0.018401772
1.1622852e-37 0.0 1.1098092e-37 -0.11787213 1.1524544e-37 0.046018578 0.07201511 -0.06284504
0.04764284 -0.015177518 0.034173463 -0.016055165 -0.082249925 0.019561283 0.0 0.04614889
0.06164716 0.12157072 1.116518e-37 -0.08363422 0.01147555 0.020174349 -0.0047993967 0.010051939
0.042328652 -0.03267666 -0.011162365 0.0 0.0 -0.065608464 -0.09964199 0.026760783
0.04235658 1.0636515e-37 0.0 -0.02215915 -0.100130536 -0.03079101 0.07227987 0.0020466498
-0.010335514 -0.099511236 0.059736438 -0.054190613 0.0 1.0610197e-37 0.0 1.1649751e-37
-0.034862433 -9.609334e-05 1.0630761e-37 0.00027217474 1.1590245e-37 -0.035497542 0.060250625 -0.226489
1.0892425e-37 -0.0834918 -0.28548414 1.1494228e-37 1.1156534e-37 0.106606945 0.10494766 -0.06795845
00000000: 987d 76bd 0000 0000 0000 0000 777b 8dbd
00000010: 0000 0000 0000 0000 9d67 1302 ed0f 92bc
00000020: ad26 3fbd 0000 0000 1034 3fbd 0000 0000
00000030: 3092 19bd 36cf 09be b06f 9d3d 10f9 2abd
00000040: 449c d43c 5a47 1f02 f318 0abe 44ab 3d3d
00000050: 087c 4cbc 0000 0000 d4c0 7ebd 75de 1c02
00000060: 04e4 b73d 2f25 b8bd 0000 0000 2318 69be
00000070: 0000 0000 7f68 083d c4f3 113c 0000 0000
00000080: 83e8 8ebd 1d00 9d3d 9e04 e3bc 7b60 9abd
00000090: 0000 0000 2f5e 96bd dead dd38 0000 0000
000000a0: 5807 4c3a 0595 1002 5206 f53c 0000 0000
000000b0: c656 1602 55e5 7f3d 7d5f c23c c4a9 1fbc
000000c0: 92aa 1102 28c0 273d 6afd 253d 0000 0000
000000d0: 2a48 a1bc 310b 883d 0000 0000 7c1e 843c
000000e0: 002e 7fbd 0000 0000 f43f b5bd 0000 0000
000000f0: c050 9d39 6f34 603b e5fd 823d e3c4 d2bc
00000100: f0b6 1a02 94ab fdbd 0000 0000 b6c8 bdbc
00000110: 6e88 483d 9a8a 10bc 8aa2 64bc 9d67 1302
00000120: f2ae b4bb 0000 0000 ad30 3f3e 0000 0000
00000130: 0000 0000 aef4 16bc 8034 04be 50d7 953c
00000140: 54ad aabd ebe7 83bd 8c06 1502 b7f6 d5bc
00000150: 0000 0000 217c 49be 6db6 ebbd 49fd e03c
00000160: 0000 0000 d95d 043d 73a9 c8bd c891 1802
00000170: 0000 0000 0000 0000 2eca 18be 40c7 0c3d
00000180: 740a 1102 d71b b43d 3029 4a3e bb1f 27be
00000190: 7cfc 1a02 0000 0000 5937 c8bc 9d67 1302
000001a0: 7e3a 1202 0000 0000 6de9 1802 8767 e3bd
000001b0: 0000 0000 f28f d03c 8c36 1e02 b37c 2ebd
000001c0: 0000 0000 8c2f 1a02 9d67 1302 0000 0000
000001d0: ce84 1302 5270 183d c7ee 1702 1e88 4cbd
000001e0: d4fd 18bd 2dff f33d 6b37 9ebd 9ed0 1002
000001f0: b80e 80bc 729a 1602 0000 0000 e27b 1b02
00000200: fe65 713c 0000 0000 ab8b 3a3c cb94 be3d
00000210: 864d 1702 4a73 5fbe 9d67 1302 d4ce b5bd
00000220: d4ad 1d02 3914 853d 6ca8 0a3c 38af 013d
00000230: 90b8 a43d f843 4d3d 2a1b 8c3c 6b83 9dbc
00000240: d82a 58bd 0000 0000 5110 98bd c194 323e
00000250: 0000 0000 0000 0000 4e2b a0bd ea98 c7bd
00000260: b217 c8bd 91ba 1502 9eb7 8d3d 0000 0000
00000270: 447e 5abd 0ec5 1602 0000 0000 bf4e 1c02
00000280: 2f35 69bc 7297 1d02 9fb9 d1bd 4c55 bcbd
00000290: 0865 6ebd 4966 f2bb 66b3 723d 0000 0000
000002a0: 7d2f 68bc 3527 1b02 0000 0000 1bda 0f3d
000002b0: 09f4 f9bd 0000 0000 2735 25bd f67d c0bd
000002c0: 9812 1602 327c 283d ebcc a23c c9ce 2cbe
000002d0: 28b1 44bd 0000 0000 8a0e 69bd 6834 1a3d
000002e0: 0000 0000 0428 d23c ff35 a4bd 84bb 1a02
000002f0: 0000 0000 b165 1e02 2919 4fbe 50bf 963c
00000300: ba33 1e02 0000 0000 350f 1702 f166 f1bd
00000310: 2ddd 1c02 fa7d 3c3d a87c 933d e6b4 80bd
00000320: 2325 433d 20ab 78bc 79f9 0b3d 1f86 83bc
00000330: a672 a8bd fc3e a03c 0000 0000 9e06 3d3d
00000340: bc81 7c3d 12fa f83d f9f8 1702 6b48 abbd
00000350: f203 3c3c ad44 a53c 4244 9dbb e3b0 243c
00000360: cf60 2d3d f6d7 05bd 5ae2 36bc 0000 0000
00000370: 0000 0000 bb5d 86bd 1a11 ccbd 6e39 db3c
00000380: 187e 2d3d d8c6 1002 0000 0000 1b87 b5bc
00000390: 3d11 cdbd 6e3d fcbc 7807 943d 1621 063b
000003a0: 4a56 29bc 8ccc cbbd 32ae 743d faf6 5dbd
000003b0: 0000 0000 246b 1002 0000 0000 7591 1e02
000003c0: e9cb 0ebd b885 c9b8 ccb2 1002 adb2 8e39
000003d0: 1cc2 1d02 df65 11bd 5cc9 763d bbec 67be
000003e0: 9042 1402 c0fd aabd fa2a 92be 8a73 1c02
000003f0: d9da 1702 be54 da3d ccee d63d cd2d 8bbd
