highway_ddqn/ddqn_tuned_reward_change/checkpoint-5000.tar (torch, 892334 bytes, 18 tensors)

layers.0.weight f4 [256, 25]
000000 03 94 75 be 6c 95 76 3d 90 df a5 3d d0 a1 c8 bd
       -0.23982243 0.060201094 0.08099282 -0.09796488
000010 db 7f 30 40 e7 af 01 be fb b8 0c 40 6c 41 84 bf
       2.7578037 -0.12664758 2.1987903 -1.0332465
000020 26 9a ff 3e 51 5d 3b c0 ec aa 52 bd 65 de 84 3e
       0.49922293 -2.9275706 -0.051432535 0.25950924
000030 79 c6 17 bd 65 c1 f4 be 8a e7 c2 bf 7e 77 02 bd
       -0.037054513 -0.47803798 -1.522691 -0.031852238
000040 ae 7d 9c 3e 87 ad a0 be 00 20 a1 bc 86 25 08 c0
       0.30564636 -0.3138239 -0.01966858 -2.1272902
000050 18 fc db 3d 41 ba 48 be c7 ec ce bd 99 36 48 3d
       0.107414424 -0.196023 -0.101037554 0.048880193
000060 43 6c 0b c0 6d c4 0b be 23 df 09 be 58 3f 2e be
       -2.1784828 -0.13649149 -0.13464026 -0.17016351
000070 30 03 86 3d cd 11 f3 3b ed 33 d3 bd ca 53 98 bd
       0.06543577 0.0074178935 -0.103126384 -0.074378565
000080 07 6f 3e 3e 1a 4b 0f 3d 33 28 ec bc 27 88 2e 3d
       0.18597041 0.03498373 -0.028827762 0.042610314
000090 87 bf 6a 3d 10 10 1c 3e fa dc 01 bd 7d 1d 37 3e
       0.05731156 0.15240502 -0.03170488 0.17882343
0000a0 c5 5d 31 be 40 3b 49 3d a7 c2 90 bc e5 26 2c 3e
       -0.17320926 0.04912877 -0.017670942 0.16811712
0000b0 a8 b0 13 be 00 b0 7f 3a 33 8f 6b bc 97 29 8a bd
       -0.14422858 0.0009753704 -0.014377403 -0.06746214
0000c0 00 66 a3 bc 73 24 0a be da ae 11 bd fa 53 18 bd
       -0.019946098 -0.13490467 -0.035567142 -0.03718946
0000d0 da 9b cc 3c 9a ad 12 bc 97 c0 de bd 83 8e a1 bd
       0.02497666 -0.008952523 -0.10876577 -0.0788851
0000e0 33 09 32 bd 4d 53 bd 3d f3 13 95 3d 13 35 57 bd
       -0.043465804 0.09244404 0.07279196 -0.05254085
0000f0 0d ea 06 bd 95 a1 26 be 9a 97 51 3b 73 c0 eb bc
       -0.032938052 -0.16272576 0.003198123 -0.02877829
000100 d0 49 03 3e e0 78 6b bd da f8 67 3d 67 ac 7b bd
       0.12821126 -0.057488322 0.056633808 -0.061443713
000110 4b d8 07 be 5f cd 17 be aa 94 13 be 13 2f fb 3d
       -0.13266103 -0.14824437 -0.1441218 0.12264838
000120 7d 50 f7 bd 1b e2 03 3e 6d f2 5a bd 5b 13 f7 bd
       -0.12075899 0.12879221 -0.05345385 -0.12064239
000130 5e 06 04 3d aa b7 24 be 5b 02 82 be a1 e7 5f 3f
       0.032232635 -0.16085687 -0.25392422 0.8746281
000140 8e 55 19 3e 26 95 f9 3d 81 61 a3 3e 4f 66 89 be
       0.14974043 0.12186651 0.31910327 -0.26835868
000150 13 60 cf 3e 02 b5 00 3e 22 91 12 bf 58 8a 6a 3e
       0.40502986 0.12569049 -0.57252705 0.22904336
000160 23 1d a3 be 29 d4 b7 be a6 59 04 be 11 1f 3b 3f
       -0.31858167 -0.35904053 -0.12924823 0.7309428
000170 1f df 7a 3f d3 ba ad 3d eb fb 13 3e 84 d2 2c 3e
       0.97996706 0.084828995 0.14451568 0.1687718
000180 ca f5 11 be 2d 17 d2 bd 4f 31 1e 3d 68 6a 97 bc
       -0.14253917 -0.10258327 0.038621243 -0.018483356
000190 cd 6c 43 3b 0d 95 05 be e7 86 3c be 55 e8 2f be
       0.002981949 -0.1304514 -0.18410836 -0.17178471
0001a0 d8 82 1d 3e e0 c1 87 bd 4a 38 4b 3e b3 7c e4 bd
       0.15381944 -0.066287756 0.19845691 -0.11156597
0001b0 dd 87 18 3e 4a e1 03 3e 7d 7b 94 3d 9d 41 c4 bd
       0.14895578 0.1287891 0.07250116 -0.09582827
0001c0 33 a0 35 bd 63 2c cc bd b3 c5 ea bd ea f4 0b be
       -0.04434223 -0.099694036 -0.114634894 -0.13667646
0001d0 c0 73 b8 bd aa 69 4c 3e 8a 4d 23 be 43 58 e3 bd
       -0.090064526 0.19962183 -0.15947548 -0.11100819
0001e0 c8 d0 33 be 00 88 06 bd a0 33 d3 bd 77 39 84 3d
       -0.17560112 -0.032844543 -0.10312581 0.06456273
0001f0 80 92 cd bc 38 6e 0a be 93 a6 1e bd ca 38 94 bd
       -0.02509427 -0.13518608 -0.038733076 -0.07237394
000200 70 07 c1 3d 00 90 dd bd e3 52 a6 bd 2b f2 02 3e
       0.09425247 -0.108184814 -0.08121278 0.12787692
000210 00 bc 1b 3e 93 3e 4b be 7d e1 2e 3e 33 9b 7f bb
       0.15208435 -0.19848089 0.17078204 -0.0039002418
000220 fb 2f 0d be 5a c6 7c bd 87 ae 35 bd 73 5d ad 3c
       -0.13787834 -0.0617126 -0.044355895 0.021162724
000230 ed 51 bd 3d 80 73 21 be 27 4e e0 bc 82 26 0f 3e
       0.09244142 -0.15766716 -0.027381016 0.13979533
000240 05 5e 36 be 0b 59 32 be d3 d8 06 3d 8b 10 33 3e
       -0.17809303 -0.1741678 0.032921623 0.1748678
000250 4d 0a 57 bd d5 9b 09 3e 3a 2b 33 be 09 44 9f be
       -0.052500058 0.13438351 -0.17496958 -0.31106594
000260 40 c7 53 3f a1 48 64 3f 7a 64 a3 3e 7e 4b 3d be
       0.82725906 0.8917332 0.31912595 -0.18485829
000270 fa c1 65 3e 52 d5 c1 3e 18 14 10 bf 5d 00 b1 3e
       0.22437277 0.37858063 -0.5628066 0.3457059
000280 7e ac 69 be 12 ef 5d bf 92 87 93 be fd b3 24 bf
       -0.22819707 -0.8669292 -0.2881437 -0.6433714
000290 9d f1 71 3e 56 3f 48 be 24 87 a6 bf f2 d0 98 be
       0.23627324 -0.1955541 -1.3009992 -0.29846913
0002a0 1c 85 9f bf c4 40 fb 3d 67 b1 e9 bd 01 ac 08 3f
       -1.2462497 0.122682124 -0.1141079 0.5338746
0002b0 13 15 11 3f e2 5b 7b bf 75 19 3b bf a4 48 ab 3d
       0.5667278 -0.9818708 -0.7308572 0.083634645
0002c0 65 0a 0f 3e 3b 5e 06 bf 0f be d6 3e 3d 07 18 bf
       0.13968809 -0.52487534 0.41941878 -0.59386045
0002d0 01 a1 59 be 81 21 8f be 7d 1b 04 bf d7 11 41 bf
       -0.21252824 -0.2795525 -0.51604444 -0.75417846
0002e0 56 bc 80 be 2b 5c 2e bd be 43 1c bf 68 b3 95 3b
       -0.2514369 -0.042568367 -0.61040866 0.004568506
0002f0 13 ef 1d bf 51 c6 1f 3e ac e3 a2 bd dc d5 ef 3d
       -0.61692923 0.15602995 -0.07953581 0.11710712
000300 b0 67 54 bd 44 a5 57 bf 2c b0 18 3f 81 51 22 be
       -0.051856697 -0.8423655 0.59643817 -0.15851404
000310 12 1e 71 be 03 de 3f 3f 94 38 f0 be 6e 9e 4b 3f
       -0.23546627 0.7494814 -0.46918166 0.7953862
000320 50 df 4b 3d c0 a8 33 3d 7c 9f ac bd a5 f3 3e 3f
       0.049773514 0.043862104 -0.08428857 0.7459052
000330 9b 1c 86 3d 19 42 e6 bd 61 6e 35 bf 7a 59 d0 3e
       0.06548425 -0.11243076 -0.7087155 0.40693265
000340 7b a4 bf bd db 7c 1b 3f f3 b3 03 bc e0 a5 2a bf
       -0.09357544 0.6073739 -0.008038509 -0.66659355
000350 7f db 26 3e f8 63 91 be d2 f3 ba be f7 04 07 be
       0.16294669 -0.28396583 -0.36514145 -0.13185488
000360 bd bf 1f 3f 1c 08 87 3d 51 b9 39 3e a8 f3 d3 bd
       0.62401944 0.065933436 0.18137099 -0.10349208
000370 2d 46 24 bc 8f 0f 87 3e b6 10 a4 bd d6 d5 f8 3d
       -0.010026497 0.26379058 -0.08011 0.12150161
000380 24 a8 38 bf ed 78 40 3d 7a b6 eb bd 8a 4b 31 3e
       -0.7213156 0.046990324 -0.11509414 0.17313972
000390 73 d0 0f be 3a 28 69 3d 8d d6 f9 bd 30 7f 06 be
       -0.14044361 0.05692313 -0.121991254 -0.13134456
0003a0 df df 19 3e a7 cc c6 bd c7 51 a8 bd 9a 8c 0a bc
       0.15026806 -0.09707003 -0.08218723 -0.008456374
0003b0 dd 73 8e bd 00 50 61 ba ba 64 73 bd fa 9b 33 bd
       -0.06955693 -0.000859499 -0.059422232 -0.043849923
0003c0 03 23 bb bd 4a 68 c3 bd e7 90 44 bc 5f 2c 4b be
       -0.09137537 -0.09541376 -0.011997438 -0.19841145
0003d0 d7 d7 a5 bd e7 90 96 bc 60 f0 8c 3d 2a 47 45 3e
       -0.08097809 -0.018379642 0.068817854 0.19265428
0003e0 bd cc 3a 3e 3d 05 a4 3d ac 85 cc bc 35 8a 1c be
       0.18242164 0.080088116 -0.024966083 -0.15287097
0003f0 70 43 19 be 7a 14 95 3d 8f 64 81 bf 06 21 0e 3e
       -0.14967132 0.07279296 -1.0108813 0.13879785

layers.0.bias f4 [256]
000000 2a 45 c6 3d c0 e6 98 bc 20 7c 37 3e 9e b1 42 bd
       0.09681161 -0.018664718 0.17918444 -0.04753267
000010 60 de a2 3d 1d f5 87 bd 95 de c7 be 8e 98 5c bd
       0.07952571 -0.066385485 -0.39037004 -0.053856425
000020 74 f8 eb 3b f0 50 8f 3d 4e 68 03 be 13 be 5b 3d
       0.007201249 0.069978595 -0.12832758 0.053648066
000030 5e 1f 46 be d6 57 60 3e 91 95 91 bc e9 55 a5 3d
       -0.19347903 0.21908507 -0.017771514 0.08073027
000040 01 2a fb bc 96 8b d6 bd 76 89 b2 3c f7 a3 45 bc
       -0.030659677 -0.10475843 0.021794062 -0.012063018
000050 73 0e 57 be 27 57 2c be 92 99 da bc 1c 9f 27 bd
       -0.21001606 -0.16830121 -0.026684556 -0.040923223
000060 49 e7 a9 bc 68 ee e5 bd 53 18 c3 bd 2a 80 5b bd
       -0.020740168 -0.11227113 -0.09526124 -0.053589024
000070 60 c3 46 bd c3 4a 85 bc c7 16 ac bd cf 40 2e 3e
       -0.048526168 -0.016271 -0.08402782 0.1701691
000080 f8 e1 63 3e 2a 52 2a bd a3 b0 df 3c 24 cf eb bb
       0.22254169 -0.041582264 0.027305907 -0.007196324
000090 27 47 89 bd 29 d5 0d 3e e1 66 47 bd 60 f6 e4 bd
       -0.06703024 0.13850845 -0.048682097 -0.11179805
0000a0 29 b9 1e be e3 2e 5d be c3 6d 2c be e7 fe 26 be
       -0.1550032 -0.21599917 -0.16838746 -0.16308175
0000b0 dd 13 1f bc 9d 65 0a be 96 68 b3 bd 73 25 8b 3c
       -0.009709326 -0.13515325 -0.087601826 0.01698563
0000c0 dc b8 7b 3d 47 22 48 bd bf 99 94 bd ff 26 14 be
       0.061455593 -0.048860814 -0.07255887 -0.14468001
0000d0 88 e8 a8 bd 6f f9 65 be 47 ea 46 3e 32 bd e6 3d
       -0.08247477 -0.22458433 0.19425307 0.11266555
0000e0 28 cb 55 bd 10 3a fa bd aa 2a b4 bd cd 15 2a be
       -0.052195698 -0.12218106 -0.087972 -0.16609879
0000f0 40 2f 0d 3c 91 c3 06 be 77 7a a6 bd 0b 7c 96 bd
       0.008617222 -0.1316054 -0.08128827 -0.07347878
000100 4c 70 47 be d8 bd c8 3d 1a 04 3f be be 58 a2 bd
       -0.19476432 0.09801835 -0.18653908 -0.079270825
000110 45 98 71 bd 64 c5 44 bc c8 78 12 3e 80 7e 65 be
       -0.058983106 -0.012009952 0.14303887 -0.22411537
000120 80 7b 2e be ea 1a c8 3d 84 f9 00 3e d2 a9 2d be
       -0.17039299 0.097707585 0.12595183 -0.16959313
000130 2a df 41 be ba 79 f2 3c 4b 03 33 be 73 16 a1 bd
       -0.18932787 0.02959906 -0.17481725 -0.0786561
000140 40 04 a2 bc f2 7c a0 bd 96 77 3d 3e a9 9a 16 be
       -0.019777417 -0.078363314 0.1850265 -0.14707436
000150 60 75 44 3d 8a 69 18 bd 8f 74 f5 3d cb 8b c0 3d
       0.0479635 -0.037210025 0.119851224 0.094016634
000160 d7 0a 9b bd 1c 2e 81 3d c2 68 fa 3d 61 23 2b bd
       -0.07570427 0.06307623 0.12227012 -0.041781787
000170 9a 7b ac bd 77 7c b2 3d 9b a3 14 bc 4b af 7c be
       -0.084220126 0.08715146 -0.00907221 -0.24676244
000180 cf c5 c8 bc 38 8b 16 bc f7 52 13 be fb c8 b4 bd
       -0.024508385 -0.009188466 -0.14387117 -0.088273965
000190 85 f3 d7 3d 3f 05 46 3e 18 4e 08 be 08 82 94 be
       0.105444945 0.19337939 -0.1331104 -0.29005456
0001a0 eb a3 02 bd 67 96 cf bb 91 c3 df bd 46 47 06 3e
       -0.031894606 -0.006335068 -0.10925973 0.13113126
0001b0 73 77 10 3d d9 d0 d4 3d d4 00 49 bd 41 34 02 3e
       0.035270166 0.10391397 -0.049073055 0.12715246
0001c0 9d ef bc bd 77 61 a4 3d f8 93 09 be cd e3 a4 bc
       -0.0922539 0.080264024 -0.13435352 -0.020128155
0001d0 a0 68 64 be aa eb c5 bb d5 bf 81 be 0c 25 dd 3d
       -0.22305536 -0.0060400562 -0.2534167 0.10798082
0001e0 64 b3 d9 3d 3a 1c 4c be f9 9c 15 be bb 1d 21 be
       0.10629919 -0.19932643 -0.14610662 -0.15733998
0001f0 36 1f 2d 3e a3 22 7d 3d c3 25 8c bd b6 aa 7e be
       0.16906437 0.06180061 -0.0684314 -0.24869809
000200 2f 5e 22 3e 73 98 44 3e be 50 21 be d3 d1 1e be
       0.1585624 0.1919878 -0.15753457 -0.15509729
000210 ca 6e f6 bd eb 6b c9 bb 48 10 7a 3c 3e d6 c7 3e
       -0.1203285 -0.006146898 0.015262671 0.3903064
000220 3f cf ad be 0d f3 b4 3d 3d 21 22 be ba 7f 4e be
       -0.3394718 0.08835421 -0.15832992 -0.20165911
000230 bd 2d 2b be b5 1b ea 3d 83 31 34 bd 76 fb 0d bc
       -0.16716667 0.11431066 -0.04399253 -0.00866591
000240 f2 10 0f 3e d3 48 21 be d6 96 1d bd 3a 15 e8 b8
       0.13971308 -0.15750436 -0.038473926 -0.00011066576
000250 1d e6 9d bd 4a c3 22 be 31 f7 7a be 96 12 48 be
       -0.07709906 -0.1589481 -0.24508359 -0.1953834
000260 3e 46 af bd f6 09 ec bd 9d df 83 3b 53 cd 4e 3d
       -0.085583195 -0.115253374 0.0040244595 0.05048878
000270 1f ff a3 3e 6c ee 41 be 00 77 ab 3b 2b f0 e9 bb
       0.3203058 -0.18938607 0.0052326918 -0.007139226
000280 2f 75 0b 3e db d2 06 3d 37 eb 9c 3c ca 7e a6 3c
       0.1361892 0.03291593 0.019155128 0.02032413
000290 b4 10 e6 3d 73 e9 36 bd f4 35 b8 bd 00 47 8a bd
       0.112336546 -0.04465623 -0.08994666 -0.067518234
0002a0 3f d6 0a 3d 56 d7 84 be da 18 c3 bd 82 98 81 be
       0.033895727 -0.25945538 -0.095262244 -0.25311667
0002b0 d5 57 51 be bd 3c 88 bd d5 4a 55 3e a0 7d 5d 3e
       -0.20443662 -0.0665221 0.20829327 0.21629953
0002c0 13 f6 f6 bd fc a5 5b 3d 61 0a 04 be 09 7a f7 bd
       -0.12058654 0.053625092 -0.12894584 -0.12083823
0002d0 df 74 02 3d 80 50 0d 3c 96 e8 da bd 53 19 2e bc
       0.03184974 0.00862515 -0.106888935 -0.010626155
0002e0 a3 2b f6 bd 07 6d 19 3e 40 48 23 3e af a1 45 bd
       -0.12020042 0.14982997 0.1594553 -0.048249897
0002f0 ad f2 eb bd fb 5b 35 3e ea bf e9 3d 34 4b 26 bd
       -0.11520896 0.17710869 0.11413558 -0.040599063
000300 2b a1 16 3e 9a 73 51 bc bb cf 7e 3d f2 e2 22 bd
       0.14709918 -0.012783909 0.062209826 -0.039767213
000310 1b ca 36 be 38 b0 31 bd 46 65 85 be 11 43 d8 bc
       -0.17850535 -0.043380946 -0.26053828 -0.026399167
000320 ca 6f 84 3d 49 e2 4f 3e ca 21 c9 bc fe f6 83 bd
       0.064666346 0.20301165 -0.024552245 -0.064435944
000330 29 5d 3a bd 53 a9 0e be a0 9c 8f bd 52 6f 86 be
       -0.045499 -0.1393178 -0.07012296 -0.26256806
000340 5c eb da 3d 26 e5 96 3f 4b f9 d3 bc 1d 13 c0 3d
       0.106894225 1.178868 -0.025875708 0.093786456
000350 38 22 3d be 3a 82 1f bd 06 0b d7 bd 0a fc 37 be
       -0.18470085 -0.038942553 -0.105001494 -0.17967239
000360 f5 c8 52 be a2 48 54 bd c6 0b fb bd e7 fd 47 be
       -0.20584472 -0.05182708 -0.12258105 -0.1953045
000370 7a b9 44 be 1b da a5 bc 53 fa 7a 3e 6f 9b aa be
       -0.19211379 -0.020245602 0.24509554 -0.3332171
000380 3b 5f 12 be 4b 46 62 3d 2f 50 4a be a8 ab ac bd
       -0.1429414 0.055242818 -0.1975715 -0.08431178
000390 a4 53 08 3e 0e 2f 77 3d 61 36 8b 3e 3b b0 34 3e
       0.13313156 0.06034761 0.27189925 0.17645352
0003a0 64 86 9f 3e 0c f4 11 3d 40 01 1d be a8 c0 5f be
       0.3115722 0.03563313 -0.15332508 -0.21850836
0003b0 9d 25 d0 bd 25 03 95 bd fb b9 2e be f1 31 c5 be
       -0.10163424 -0.072759904 -0.17063133 -0.38514665
0003c0 4b ba 0e be 13 ff 7a b9 b6 fd 19 3c 0b 99 20 be
       -0.13938253 -0.0002393688 0.009398868 -0.15683381
0003d0 57 5c 2a 3c 8e 5a 20 bd b5 8c ea 3d 72 43 70 bd
       0.010397992 -0.03914886 0.11452619 -0.05865807
0003e0 b6 37 35 3d 34 7b d2 3d 76 e0 06 bd 60 aa 51 bd
       0.044242583 0.102774054 -0.032928906 -0.051187873
0003f0 96 c8 e7 bd 5a 89 1b 3e 4b 2e d3 3d 28 8c 38 be
       -0.113175556 0.15189114 0.10311564 -0.18022215

layers.1.weight f4 [256, 256]
000000 ea bd 8e bd f6 bf 5a 3d 36 a2 32 3d 7a 3e 49 bd
       -0.06969817 0.053405724 0.043611728 -0.049131848
000010 80 dc 2e 3a 12 6e 7e bd 87 9e 9a 3d cd c0 0a bf
       0.00066704303 -0.06211669 0.07549768 -0.5420044
000020 98 8e 75 be 6e e2 75 3d 63 01 4a 3e b6 70 63 bd
       -0.23980176 0.060030393 0.19727091 -0.05552741
000030 d5 78 d2 3e b6 ad 4f 3d d6 ff 8e 3d 9e ce 82 bd
       0.41107813 0.050702773 0.069823906 -0.06387065
000040 94 6a 42 bf 8f 3c 14 3d 8c 95 0a 3e 7c fc d2 3d
       -0.75943875 0.036190566 0.1353361 0.10302064
000050 2a df c3 3d d8 f6 70 bd 39 76 8a be 3a 33 a5 be
       0.095640495 -0.05882916 -0.27043322 -0.32265645
000060 7e 0c b5 be d4 6a 27 bf 20 5b 8e bc 37 e2 82 be
       -0.35361093 -0.6539738 -0.017377436 -0.25563213
000070 0a 01 59 3d 63 e5 3f 3f de fe 51 3d 82 c0 0f 3d
       0.052979507 0.7495939 0.05126845 0.0350957
000080 35 f2 a2 3e 9d 0b 80 bd 70 8f f8 3e b5 e2 5f 3a
       0.31825414 -0.06252215 0.48546934 0.0008540557
000090 50 de 7b 3d b4 97 93 bd 16 62 e4 be 58 ff 06 3d
       0.06149131 -0.072066694 -0.44606084 0.03295836
0000a0 3b af 95 be 78 8a 24 be ae 8f e1 be 6c a5 80 bc
       -0.29235253 -0.16068447 -0.4405493 -0.01570388
0000b0 1e 99 b5 bc 4d 5e a9 3d d7 1a fa 3c eb b3 7c 3e
       -0.022167739 0.082699396 0.030530376 0.24678008
0000c0 b0 55 9a bd f4 c8 b0 be 03 6e 28 bf b2 9b 5a bd
       -0.07535875 -0.34528315 -0.65792865 -0.05337114
0000d0 b1 34 17 bf f1 64 39 3c 50 92 96 3b e7 86 d6 3d
       -0.59064776 0.01131557 0.0045950785 0.10474949
0000e0 c4 af 68 be 34 96 51 bd e4 e9 25 be 6c 81 33 bd
       -0.227233 -0.051168635 -0.16202503 -0.0438246
0000f0 1f 3d fc bb 76 92 2b 3d 0d 69 3a bf 9d 3a 05 bf
       -0.007697716 0.041887723 -0.72816545 -0.5204256
000100 03 e1 de 39 6c de 7b 3e 38 c0 0e 3c c2 2b 91 3e
       0.00042510786 0.24596566 0.008712821 0.28353697
000110 73 4d ea bd ef b1 9b 3d 5d c2 57 be 93 d8 f9 bc
       -0.114405535 0.076022975 -0.21070237 -0.030498778
000120 4c 70 88 be 40 2e 96 bc 07 de 05 bd f0 4c 5a 3d
       -0.26648176 -0.0183326 -0.032682445 0.05329603
000130 50 fe ea 3b 82 eb 4d be f1 53 64 bf 2b 02 b3 3e
       0.0071714297 -0.2010937 -0.89190584 0.34962592
000140 d2 b5 d7 be 91 87 d5 bf 8e 4a 92 3d e3 46 dc bd
       -0.42130905 -1.6681997 0.071431264 -0.10755708
000150 c4 39 bd 3c f9 79 18 bf 8a dc b4 3e e4 84 15 be
       0.023098834 -0.59561116 0.35324508 -0.14601475
000160 78 c2 10 bc d9 92 81 3e 3d 4c ab bc 3e 93 4f be
       -0.008835427 0.25307348 -0.020910377 -0.20271012
000170 42 99 50 3d 3e 61 1b 3d 73 4e bc be 33 26 81 be
       0.050927408 0.037934534 -0.36778602 -0.25224456
000180 3f 3b 72 bf a5 e1 b1 be 69 5c 4e bf 7d 9d 19 bd
       -0.9462165 -0.34742466 -0.80609757 -0.03750371
000190 35 37 88 bb 88 37 59 3d 35 2e b3 be bd a5 35 bf
       -0.004156972 0.053031474 -0.3499619 -0.7095602
0001a0 f3 54 80 be 80 ff c9 3b 5d 63 f1 3c 69 33 f3 3d
       -0.2506481 0.006164491 0.029466325 0.1187504
0001b0 88 6c 47 3d 0e 51 f5 bf 2c a6 d2 bc 88 53 a1 3c
       0.048687488 -1.9165361 -0.025714003 0.019693151
0001c0 12 42 35 bd b2 1e 52 3d 05 c0 3f bf 20 12 16 3c
       -0.044252463 0.051298805 -0.74902374 0.009159595
0001d0 92 46 10 be 1c a7 3d bc 85 a5 a0 be 7e aa 22 bf
       -0.1408942 -0.0115754865 -0.3137628 -0.635414
0001e0 59 80 d5 3e 95 cb 31 bf 0b 50 8c 3d ef ec 18 bf
       0.41699484 -0.69451267 0.068512045 -0.5973653
0001f0 9d 02 f0 bd 08 4a c3 3d 48 99 83 bc d2 d5 88 be
       -0.117192484 0.09535605 -0.016064301 -0.26725632
000200 cb 9a b7 bd d2 42 69 bd 61 6d a9 be 5c 1c 8a bf
       -0.08965071 -0.05694849 -0.33091262 -1.0789905
000210 eb 61 f8 3c 65 10 bc be 01 5a ae 3d ac 7a 93 bc
       0.030320128 -0.36731258 0.08513261 -0.01800283
000220 82 8c 1e bf cd 8e 0b c0 0b c5 a7 3d fc 86 ed be
       -0.6193315 -2.1805909 0.0819188 -0.46392047
000230 02 55 fb 3e bd 0b 6b 3e 70 03 61 be ee 35 13 3e
       0.49088293 0.22953697 -0.21973968 0.14376041
000240 d3 44 a7 3d 12 79 0a 3d f7 b6 52 3d df 29 47 be
       0.08167424 0.033806868 0.05144402 -0.19449566
000250 58 08 ac bc 98 81 cd bc 6a 68 ae bf 9e fc 61 bd
       -0.021000072 -0.02508621 -1.3625615 -0.055172555
000260 9c 85 49 bc 7e 0b 55 3d 19 1e 44 bf 00 0d 9c 39
       -0.012299921 0.052012913 -0.76608425 0.00029764324
000270 d6 a9 99 bf d6 d7 86 bd 8e 7e 0d bd 0a 9c 0f 3e
       -1.2004955 -0.06584136 -0.03454452 0.14024368
000280 f4 74 9f be 2c 49 99 3c a9 07 38 bf 8d 4f 45 3d
       -0.31143916 0.018711649 -0.7188669 0.04817157
000290 51 0a a5 bd 39 89 9d be 13 d7 13 be 78 15 d3 3c
       -0.08058608 -0.30768755 -0.14437513 0.025767073
0002a0 87 b7 21 3e 6d b8 31 bf b4 98 87 bc ea 7c b8 3c
       0.15792666 -0.69422036 -0.016552307 0.022520501
0002b0 27 93 f8 be 5c 69 d3 3c 69 70 32 be cf ef 7b bd
       -0.48549768 0.025807075 -0.17425694 -0.061507996
0002c0 24 0b b0 be 0c dd 00 3f c0 aa 64 3c 89 ba 48 be
       -0.343835 0.5033729 0.013956726 -0.19602408
0002d0 96 72 04 3d 02 ec 03 3d c2 72 d7 bd 03 bd 5e bc
       0.03233584 0.032207496 -0.10519935 -0.013594869
0002e0 50 05 cd 3b 1d 05 d6 be 3e ba 41 bc 2f 2f 53 bf
       0.006256737 -0.41800776 -0.011824189 -0.8249387
0002f0 b8 66 0d bc de 1d b9 be bb 10 7a be 91 45 a0 bf
       -0.008630447 -0.361556 -0.24420445 -1.252123
000300 58 3a f0 bc ec 57 bc 3c c8 10 5c be 80 6a ee bd
       -0.029324695 0.022991143 -0.21490777 -0.11641407
000310 11 5f 0e bd f8 92 f1 3d a5 90 5e 3e 9c 49 9c bd
       -0.03475863 0.1179561 0.21734865 -0.076312274
000320 41 d1 80 bf fa b0 df 3d 1b 65 aa be e0 77 12 be
       -1.0063859 0.109224275 -0.33280262 -0.14303541
000330 55 16 cb be a8 e4 40 be a8 de 47 3c bf b9 8b bd
       -0.39665475 -0.18837225 0.0121990815 -0.06822538
000340 6d 0a fe be f5 b6 23 3f e0 9b 81 3b 21 e7 86 3e
       -0.4961733 0.63951045 0.0039553493 0.26348212
000350 97 ed d3 3b 11 2c 70 bd f6 77 a6 3e 74 bc 6a 3e
       0.006467532 -0.058635775 0.32513398 0.22923452
000360 fc d0 b9 bd 69 5c 64 be 39 61 b7 be f8 37 e9 bc
       -0.09073064 -0.22300877 -0.35816363 -0.02846907
000370 22 ef 3b 3d 54 1c 12 be c7 15 b8 3d 1a 15 c8 bf
       0.04588235 -0.14268619 0.08988529 -1.563144
000380 42 80 96 bf 10 2b 36 be 3c e8 02 3d 86 07 90 bd
       -1.1757891 -0.17789865 0.031959757 -0.07032685
000390 8e 69 a5 3d 84 13 25 bd 8c 5c 7c 3c dd 69 20 be
       0.080767736 -0.040301815 0.015402924 -0.15665384
0003a0 1a d4 24 be 48 16 cc be 50 a6 ec be 79 30 6f 3e
       -0.16096535 -0.3986075 -0.46220636 0.23358335
0003b0 96 0b 20 bd c9 20 f7 3c 34 e2 a7 3c d8 83 30 bf
       -0.03907355 0.030167 0.020493604 -0.6895118
0003c0 78 b5 88 be 7a 6f 5b bf f0 37 67 be 39 58 e4 3b
       -0.2670095 -0.85716975 -0.22579932 0.006968525
0003d0 c2 ec 96 bf 4d ce 4e 3e 0c 12 05 3d ad 11 dd 3d
       -1.1791003 0.20195885 0.032487914 0.10794387
0003e0 09 d9 be 3e 79 1f 64 3e 9c bc 26 3f 22 72 88 be
       0.3727496 0.22277631 0.65131545 -0.26649576
0003f0 df aa 12 bb 2f be 3c bd f2 4d 33 bf 5e 05 41 3e
       -0.002237968 -0.04607981 -0.7004081 0.18849704

layers.1.bias f4 [256]
000000 98 49 a5 be 11 0b 7c be 48 1c d4 3e cc 20 59 be
       -0.3228271 -0.24613596 0.41427827 -0.21203917
000010 79 f7 de 3e c6 e1 0f bd c2 12 73 bd 63 33 45 be
       0.43548182 -0.035127424 -0.05934406 -0.19257884
000020 7d b3 9e be 63 3b 7a be 4e e2 56 bd 30 7b 44 bd
       -0.30996314 -0.24436717 -0.052461915 -0.047969043
000030 3d c6 96 bd de 3b a8 bc 6a cd 11 bf 20 08 11 bf
       -0.0736203 -0.02053636 -0.5695406 -0.5665302
000040 49 dd 3e 3d 4a 3a 55 bd c6 85 64 3e 43 7f 02 3d
       0.046597753 -0.052057542 0.22316656 0.031859647
000050 69 81 26 bd a1 48 12 3d c7 e6 2b 3d ad 40 f9 bc
       -0.04065076 0.035713796 0.041968133 -0.030426348
000060 69 ed 3c bd 93 c2 ec 3e 2a 66 0e 3e bf 53 05 3e
       -0.04612485 0.46242198 0.1390616 0.13020228
000070 c8 93 2a bd a0 96 37 bd 6d ed 21 bd 82 ef 20 be
       -0.04164484 -0.04482138 -0.039533067 -0.15716365
000080 3b 46 0b bd 82 a9 22 3f ef 2e 20 bd f6 31 9c be
       -0.034002524 0.635399 -0.03910726 -0.30506867
000090 de 35 82 bb 01 06 49 bd 22 2e da 3e 26 5d 9b be
       -0.0039737066 -0.04907799 0.42613322 -0.30344504
0000a0 4b e4 5e 3b fe b5 c7 be 18 2f 93 bd a2 7b 51 be
       0.0034010585 -0.39006037 -0.07186717 -0.20457318
0000b0 37 22 4f be 24 92 97 bd 5d be 89 bd 70 82 fd bd
       -0.20227896 -0.07400921 -0.06725762 -0.123783946
0000c0 8d b6 07 3d de 48 7b bd cb 2a 76 bd 11 96 84 be
       0.03313308 -0.06134879 -0.060099404 -0.25895742
0000d0 e0 15 28 ba 54 c5 5e be 85 03 6b 3f 0f 2a 36 3e
       -0.0006411951 -0.21754962 0.91802245 0.17789482
0000e0 ea 26 55 3c c9 05 82 3c 6e ab e4 bd ee b5 ff 3e
       0.013009766 0.0158719 -0.1116551 0.4994349
0000f0 ef fd 66 be 45 ab 64 bf 81 36 35 be 23 6c 06 3c
       -0.22557805 -0.89323837 -0.17696573 0.008204493
000100 45 67 36 bf 8e c4 9b 3e e0 57 8f 3e 72 34 2b bd
       -0.71251327 0.30423397 0.2799673 -0.041798063
000110 9d f8 70 3e 2b 38 65 3e 8f 51 1a bd e1 b3 5b 3e
       0.23532338 0.22384708 -0.037675437 0.21455337
000120 3c 4d 10 be fa d1 0f 3e f7 2c 97 bc 27 2f 89 be
       -0.14091963 0.14044943 -0.018454058 -0.26793787
000130 02 2f c4 3d d5 99 87 bd ed 18 69 bd 60 98 83 3e
       0.095792785 -0.06621138 -0.056908537 0.2570219
000140 54 6a 3c b8 e7 6d b1 3b 73 2f 85 3e 31 51 f8 3e
       -4.492172e-05 0.0054147127 0.26012763 0.48499444
000150 98 d0 a5 bb f3 4a 8a be 87 42 15 bf 1e 16 0b be
       -0.0050602667 -0.27010307 -0.5830464 -0.13582656
000160 ac d4 06 bd a2 06 0c be e0 ba 3e bd a1 00 61 3a
       -0.032917663 -0.13674405 -0.046564937 0.00085831626
000170 ab c3 91 3b 50 a5 65 be d6 53 45 bd 1f 2c 90 be
       0.0044483743 -0.22426343 -0.048175655 -0.28158662
000180 50 43 8d bd be 47 43 3e de 50 91 bd d6 3a e2 bc
       -0.068976045 0.19070336 -0.07095502 -0.027615946
000190 8a 52 66 3c 6d 8e c9 3c 9e 3b 23 bd b9 b6 b5 3c
       0.014057765 0.024604047 -0.039851777 0.022181856
0001a0 c0 de 7e be 9f 0a 0a 3d d9 07 02 bf 4f 46 b9 be
       -0.2488966 0.033701535 -0.50793225 -0.36186454
0001b0 71 27 46 3d df b0 18 bc e6 bc 39 bc 8c 39 95 be
       0.048377458 -0.009319513 -0.011336541 -0.29145467
0001c0 3c 8e 77 3f 98 8e 40 3c 75 ed 46 be e7 3b 92 be
       0.9670141 0.011752747 -0.1942652 -0.28561327
0001d0 8d 1b 7b bc 7c b5 25 bf 14 ba 00 bd f6 4b a3 be
       -0.015326393 -0.6473005 -0.031427458 -0.3189389
0001e0 e1 68 8c bc cf e5 c1 be 79 c2 90 3f 31 3b fd be
       -0.017139854 -0.37870643 1.1309348 -0.49459222
0001f0 8e b3 82 bd b8 da 0d bd 2c 5a 31 3e 4b c3 20 be
       -0.063819036 -0.034632415 0.17319554 -0.15699498
000200 92 00 24 3f 34 55 75 3c e9 20 5e be 49 ef 26 3e
       0.6406337 0.014973927 -0.21692242 0.16302218
000210 2f 40 10 bd 1c ce 96 bd fb ae 6a be 06 13 3e bd
       -0.03521746 -0.07363531 -0.22918312 -0.04640486
000220 7c 9f af bc 5d 58 3a bd bb 8c 32 bd 91 0f d5 bd
       -0.021438353 -0.045494426 -0.043591242 -0.1040336
000230 fc 3d eb bc fc 77 3b 3f bf f7 e1 bd ca 5d 01 bc
       -0.02871608 0.73229957 -0.11033582 -0.007895896
000240 9a 43 f2 3e 31 94 85 bc b0 f1 f0 3e 0d bd 98 bc
       0.473172 -0.016306015 0.47059393 -0.018644834
000250 0f 11 2e bd fa 32 9c 3c 01 c9 1b bd 6a 5a 13 3e
       -0.042496737 0.019067276 -0.03803349 0.14389959
000260 a1 5c 2a 3c 32 7e e3 3d bd 69 8a bd 86 ae 9a be
       0.010398061 0.11108054 -0.06758449 -0.30211276
000270 f7 20 82 bd 4d 70 f5 bc 4c 98 ea 3d 85 1d c4 ba
       -0.06353944 -0.029960776 0.114548296 -0.0014962411
000280 f3 67 2a bd 4c 11 55 3e c2 c4 9e bd df 86 61 bf
       -0.04160304 0.2080738 -0.07752372 -0.8809642
000290 1e 24 d0 be d2 49 b1 bd a8 19 5c bd 57 fc d7 be
       -0.40652555 -0.08656658 -0.053735405 -0.42184708
0002a0 81 d4 2c 3f 06 02 63 be ae 71 f2 3d 90 da e1 3b
       0.67511755 -0.2216874 0.11838089 0.0068925098
0002b0 fa 2b 50 bd 72 f4 53 bd 46 0a 7b be dd 76 26 bc
       -0.05082319 -0.051746793 -0.24515638 -0.010160175
0002c0 ef 00 3a 3e 51 8f 34 bd 89 ce 98 ba 62 7a e1 3e
       0.18164419 -0.04408199 -0.0011658232 0.44038683
0002d0 49 93 0f 3d b9 0c 08 bc c4 a6 41 bd f4 87 54 bd
       0.03505257 -0.008303815 -0.04727818 -0.051887468
0002e0 8e 9f 6a bd 35 ce d7 bd d4 3a 0e 3e 7a a7 12 bf
       -0.05728107 -0.10537378 0.13889629 -0.572868
0002f0 a8 82 32 bd cc 53 44 be 10 e2 d9 3d e5 87 81 be
       -0.043581635 -0.19172591 0.10638821 -0.25298992
000300 46 e8 81 bc 88 26 5f 3e 42 af bb 3e 64 42 98 3a
       -0.015857827 0.21792042 0.3665715 0.0011616466
000310 1e ce a0 bd 95 75 4d 3d a7 ea 81 be 4f e7 ff 3e
       -0.07851814 0.050160963 -0.25374338 0.49981162
000320 ce b1 12 bf 32 18 07 bd 03 4f 93 bc 9a 7b aa bd
       -0.5730256 -0.03298206 -0.017982012 -0.083243564
000330 8e 0c 90 bd 11 1d 38 bd b2 91 0f 3f a2 f4 a0 be
       -0.070336446 -0.044949595 0.5608169 -0.3143664
000340 83 08 aa bd 26 7f aa bc 6c 83 81 3e 0b 13 3b 3e
       -0.08302405 -0.020812582 0.2529558 0.18268983
000350 43 42 d0 bd 5f 71 45 3f 71 4a f1 bc 9d c6 64 bc
       -0.101688884 0.77126116 -0.029454442 -0.013963369
000360 6c 33 0c bf 4d 2b 8d bd 1e 59 ba 3e 5c 8d 90 bd
       -0.54765964 -0.068930246 0.36396116 -0.07058212
000370 28 26 0f 3f b9 db b0 be eb 72 21 bd 9d ea fd bc
       0.55917597 -0.34542635 -0.039416235 -0.030995661
000380 24 b8 de 3c 03 f6 41 3e 1a f9 10 be 2a 19 a7 be
       0.027187414 0.18941502 -0.14157525 -0.32636386
000390 0e 3d a8 bc 73 c1 81 3e 58 4a d3 3e 6d 36 d4 bc
       -0.020536926 0.25342903 0.41267657 -0.025904858
0003a0 51 3c 22 bd 7f 7e 7e bd 90 15 57 bd 27 28 42 3b
       -0.039608303 -0.062132355 -0.052510798 0.0029625983
0003b0 8c b1 22 bc 2c 09 4f ba 96 c9 21 bd ca 78 b7 bc
       -0.009930026 -0.000789779 -0.039498888 -0.022396464
0003c0 12 2f b4 be 14 5d 66 bd 61 13 34 bd 3d f6 e3 bd
       -0.35192162 -0.05624111 -0.043963794 -0.111309506
0003d0 ab 97 73 bd e2 04 69 bd 3b fa e4 be d8 7f 38 3e
       -0.059470814 -0.056889422 -0.4472216 0.18017519
0003e0 c7 11 7b bd 7c 74 3b bd ee 45 3a 3d 6f db 9d bd
       -0.06129625 -0.045765385 0.045476846 -0.07707869
0003f0 b0 31 8c be f7 62 15 3e 4d f6 5d be a0 ff 95 be
       -0.2738166 0.14588533 -0.21675988 -0.2929659

predict.weight f4 [5, 256]
000000 b9 2d 86 3f 94 eb 40 3f 94 ef b8 bf 9e 25 98 3e
       1.0482703 0.75359464 -1.4448113 0.297162
000010 79 ec 20 3f b7 f1 11 bd c4 f6 03 bd 73 45 bc 3e
       0.6286083 -0.035630908 -0.032217756 0.36771736
000020 c3 a5 11 3f 0e af c9 3c 97 8e 0e be 7c 30 35 bb
       0.5689356 0.024619605 -0.13921581 -0.0027647307
000030 39 1d 50 bc 69 f8 8f bc ce b2 b3 3c c4 10 10 3e
       -0.01270228 -0.017574506 0.021935847 0.14068896
000040 c9 99 c3 bf b8 49 35 3c 30 0f bd 3e e9 90 f0 bc
       -1.5281307 0.011064939 0.3692565 -0.029365974
000050 83 81 ea bc 22 3b 31 bc c5 75 db 3b 62 bb 35 3d
       -0.02862621 -0.010817321 0.006697389 0.044368155
000060 6b 27 85 bd 16 bd 2d 3f bf 74 8f 3d 60 2e 61 bf
       -0.06501659 0.6786665 0.070046894 -0.8796139
000070 54 9e 51 bd 3e 79 13 bd db 19 b4 3c 98 a0 20 3f
       -0.051176384 -0.036004297 0.021984985 0.62745047
000080 e1 35 00 bf b6 cf c9 bf 8e 56 18 3a 8c 5d db 3e
       -0.5008221 -1.5766513 0.00058112375 0.42844808
000090 bf a0 6c 3c a0 2b 7b 3b a3 31 cc bf 95 b1 30 3e
       0.014442622 0.0038325563 -1.5952648 0.17255242
0000a0 a9 05 cf 3c 70 b0 45 3f df d7 70 3c fe 09 ef b8
       0.025271254 0.7722235 0.014699905 -0.00011398269
0000b0 9d 42 00 be 62 51 72 3e 20 6d 8a 3e 08 9f 36 3e
       -0.12525411 0.23663858 0.2703638 0.17834103
0000c0 fa f5 cc bc ee ed a7 3c d9 2e 44 bc f3 ce 4c 3f
       -0.025019635 0.020499196 -0.01197406 0.8000328
0000d0 af b6 96 bb e1 2c c5 3e cf af 4d bf ec 00 de bd
       -0.0045994143 0.38510802 -0.8034639 -0.108400196
0000e0 61 8f 5c bd 87 b1 3a bd 07 7d fa 3e 15 02 be 3e
       -0.053847674 -0.04557946 0.48923513 0.37110963
0000f0 09 ae 33 3f ab 0d 35 bd 05 32 d7 bc a1 af 90 3b
       0.7018743 -0.044202488 -0.026268968 0.004415468
000100 dc c3 0a bf 0d 63 86 be b7 b4 11 bc fe b2 40 3b
       -0.5420511 -0.26247445 -0.008893183 0.0029403563
000110 e3 a0 08 3e 36 c7 2b c0 08 00 4c 3c ad e2 b9 3e
       0.13342623 -2.6840339 0.012451179 0.36305752
000120 c9 67 0e bf e5 52 9e be 43 20 57 be 68 aa 66 3f
       -0.55627114 -0.30922619 -0.210084 0.9010377
000130 60 3a 0d 3f 3a 54 d8 bc 0e 4f ae 3d 21 9d 75 bf
       0.551672 -0.02640735 0.08511172 -0.95942885
000140 89 a9 05 3d 0a 3a ef 3c e6 28 01 bf 57 ce 63 bf
       0.032632384 0.02920248 -0.5045303 -0.88986725
000150 af 55 09 bd 90 08 6c 3e 77 57 f5 bd b3 43 0c bd
       -0.03352898 0.23050141 -0.11979573 -0.03424425
000160 7a 2e 2c 3d d8 a2 87 3d 10 8f ee 3c 78 b8 a7 3c
       0.04203651 0.06622857 0.029120952 0.020473704
000170 d5 b1 a7 bc 37 94 33 3f 3b 05 28 bd 89 c8 9e be
       -0.02047054 0.7014803 -0.041020613 -0.3101237
000180 09 ea 3e bd e9 c6 9b be 3f d9 33 3e 0a 47 41 bd
       -0.046609912 -0.30425194 0.17563342 -0.04718689
000190 53 bf b5 bc 43 2e 02 3d 51 2c 20 3d e1 24 d5 3d
       -0.022185957 0.0317824 0.039104763 0.10407425
0001a0 09 9a 57 3e 2f db 84 3c 89 f2 e3 3e 8f 8a 5f 3e
       0.21054853 0.016217796 0.44520977 0.218302
0001b0 4a c3 58 3c 1c 74 df 3c a2 02 2f 3f d3 c2 34 3e
       0.013230154 0.027277045 0.6836339 0.17652445
0001c0 57 17 ac bf c3 9e 23 bd 2b c7 58 3e 79 17 e3 3e
       -1.3444623 -0.03994633 0.21169727 0.44353846
0001d0 68 54 0c 3b 45 14 39 3e 6a 81 d8 bc df 3a 0a bf
       0.0021412615 0.18074138 -0.026428897 -0.5399608
0001e0 d7 f2 89 bc 31 bc 2a be 88 d0 f8 bf 57 85 52 3f
       -0.016839428 -0.16673352 -1.9438639 0.8223471
0001f0 82 c4 11 be 60 5a c5 bc bc f5 b4 3d 6a 11 92 3d
       -0.14235118 -0.024090946 0.088359326 0.07132228
000200 bf c4 63 bf 6a 08 b8 bc 40 e0 20 3f d7 ec 23 bf
       -0.88972086 -0.02246495 0.6284218 -0.64033264
000210 56 14 0f bc 7f d5 82 ba b9 5d 62 bd 1f 38 21 bc
       -0.008732876 -0.000998184 -0.055265162 -0.0098400405
000220 5a 4b f2 bc 7c 54 fd 3b b9 43 e5 bc 13 53 1b 3f
       -0.029576946 0.0077310186 -0.027986394 0.60673636
000230 ad fb 95 3f 41 24 15 bf 38 60 e0 3e a6 1b 8b 3c
       1.171743 -0.58258444 0.4382341 0.016980957
000240 37 69 ea 3e 18 41 3f bd eb 63 bc be 69 39 38 3d
       0.45783398 -0.046692938 -0.3679498 0.044976626
000250 91 d3 18 3f 22 20 58 3e 4a b8 2c 3c 0c e4 41 3f
       0.59697825 0.21106008 0.010541985 0.75738597
000260 7c 4e 16 bd 46 62 83 bd d0 00 a3 bb 39 b7 8d 3f
       -0.036695942 -0.064152285 -0.004974462 1.107154
000270 ae 06 12 3d d8 11 b2 bc dd 1b 05 be 8c 19 82 bc
       0.0356509 -0.021737024 -0.1299891 -0.015881322
000280 a8 b3 aa 3c b6 dd c4 bf 79 5e 62 bc 60 7f ce 3e
       0.02083762 -1.5380161 -0.013816469 0.40331554
000290 7e be a4 3d 9b ec c1 3c 8d 94 93 bc d2 0c e1 3f
       0.08044146 0.023672393 -0.01801517 1.7582037
0002a0 56 ef 31 bf a8 34 0d 3b 85 0d 93 bc a4 b3 dd 3c
       -0.6950582 0.0021546278 -0.017950783 0.027063198
0002b0 c3 7c 01 3c 18 0d b8 bb 83 7b f3 3e f5 63 d9 ba
       0.007903281 -0.0056167953 0.4755517 -0.0016585576
0002c0 39 0f 33 bf 7a d8 12 3d a4 35 8a bc aa cf e0 3e
       -0.699451 0.03585098 -0.016871281 0.43908435
0002d0 75 a2 82 3b 90 fa 81 bc 16 7c 42 bd 8a b0 36 3d
       0.0039866515 -0.015866548 -0.04748162 0.044601955
0002e0 7a 78 3f 3d 0a 04 44 3d 67 38 f0 bd 42 86 cc 3e
       0.046745755 0.047855414 -0.11729508 0.3994618
0002f0 73 9f bf bf cb e3 74 bd 03 d4 4b bf c5 bc b5 3e
       -1.4970535 -0.059787553 -0.7962038 0.35495582
000300 8e 65 01 3c 4f 6a b3 bd 7a 1a 6d 3e 9b e0 3c 3d
       0.007897748 -0.08760511 0.23154631 0.046112638
000310 ae e0 ac 3c 54 8f 38 bf 85 81 a2 3f ab f6 a1 3f
       0.02110323 -0.720937 1.2695776 1.2653402
000320 d1 a8 37 3d 4c 7b 64 bd 2c 66 ba bc 1a 33 2d bc
       0.04483873 -0.055781648 -0.022753797 -0.010571266
000330 18 c5 41 bd c1 33 2e bd c5 8b 3f 3f 9a 47 9a 3e
       -0.047307104 -0.042529825 0.74822646 0.30132753
000340 09 36 4e be 93 3e 1f 3d 6d 68 a8 3d f4 b6 dc bf
       -0.201378 0.038878035 0.08223043 -1.7243333
000350 e2 a4 44 3e 4c 76 a0 3f 88 01 11 3c 02 32 c9 3b
       0.19203523 1.2536101 0.008850463 0.0061399946
000360 38 0e 47 3e 65 41 d5 3c b3 af 95 bf f0 cc 86 bc
       0.19439018 0.02603216 -1.1694244 -0.016455144
000370 bf 7f 1c c0 ac 22 7d be 43 df 7a bd 4f 81 70 3d
       -2.445297 -0.24720258 -0.061248075 0.05871707
000380 92 d8 9c bb 0c 8e 8c bd 07 c5 0d 3f 0e 96 06 be
       -0.0047865594 -0.06863031 0.55378765 -0.13143179
000390 98 6a c8 bc db f6 03 bf 97 ee 5f 3d d1 5c bc 3c
       -0.02446489 -0.51548547 0.054670896 0.022993477
0003a0 3f 6c f0 3c ef 3e a4 bc 35 18 3a bd e4 54 4d 3c
       0.02934849 -0.02004954 -0.045433242 0.0125324465
0003b0 14 3f 64 3c ed 28 0c c0 6c bc 2b 3d 5e 73 04 3d
       0.013931055 -2.189998 0.04192774 0.032336585
0003c0 6e fa b0 bd 10 bc 5e bd 60 54 44 be b8 45 7d 3f
       -0.08641516 -0.05437857 -0.19172812 0.9893451
0003d0 85 ab 8f bf 54 c8 11 3d 8d ac ba bf 6c 56 13 3d
       -1.1224219 0.03559144 -1.4583908 0.03597109
0003e0 fe 27 d0 bb 6e 92 c3 3d 03 b0 22 bd 6b 70 7d bd
       -0.0063524237 0.095494136 -0.03971864 -0.06187479
0003f0 6e 01 93 bf 61 3d 13 3d 12 ee 5e 3c de 28 55 3e
       -1.1484811 0.035947207 0.013606565 0.20816371

predict.bias f4 [5]
000000 17 bc 6c be e0 6d 24 be e0 ed 9e be 3b 5b 26 be
       -0.23118626 -0.16057539 -0.3104086 -0.16245739
000010 b3 f5 95 be
       -0.29289016

exp_avg f4 [256, 25]
000000 b4 46 d8 bd 90 f5 d4 bd 8e 32 4d bd 16 d4 03 bd
       -0.105603606 -0.103984 -0.05009704 -0.032184683
000010 90 9a 74 37 b4 46 d8 bd 46 23 51 bc 7e de be 3b
       1.457952e-05 -0.105603606 -0.0127647575 0.005824863
000020 ba 94 b6 3b 7c b7 90 39 b4 46 d8 bd 7f 24 7c bc
       0.005571929 0.00027602527 -0.105603606 -0.015389561
000030 62 25 4d 3c 9b fe 10 3c 75 0e fa 38 b4 46 d8 bd
       0.01252112 0.008849765 0.00011923622 -0.105603606
000040 c0 86 c4 bc 51 5f 49 3c 70 ec e6 3b 8a 8d 33 39
       -0.023990035 0.012290792 0.0070472285 0.00017123498
000050 b4 46 d8 bd 09 0e 27 bd 3f 7c 36 3c c2 dd eb 3b
       -0.105603606 -0.04078487 0.011138021 0.0071980665
000060 1c 04 4a 38 00 00 00 00 00 00 00 00 00 00 00 00
       4.816438e-05 0.0 0.0 0.0
000070 00 00 00 00 00 00 00 00 00 00 00 00 00 00 00 00
       0.0 0.0 0.0 0.0
000080 00 00 00 00 00 00 00 00 00 00 00 00 00 00 00 00
       0.0 0.0 0.0 0.0
000090 00 00 00 00 00 00 00 00 00 00 00 00 00 00 00 00
       0.0 0.0 0.0 0.0
0000a0 00 00 00 00 00 00 00 00 00 00 00 00 00 00 00 00
       0.0 0.0 0.0 0.0
0000b0 00 00 00 00 00 00 00 00 00 00 00 00 00 00 00 00
       0.0 0.0 0.0 0.0
0000c0 00 00 00 00 00 00 00 00 00 00 00 00 00 00 00 00
       0.0 0.0 0.0 0.0
0000d0 00 00 00 00 00 00 00 00 00 00 00 00 00 00 00 00
       0.0 0.0 0.0 0.0
0000e0 00 00 00 00 00 00 00 00 00 00 00 00 00 00 00 00
       0.0 0.0 0.0 0.0
0000f0 00 00 00 00 00 00 00 00 00 00 00 00 00 00 00 00
       0.0 0.0 0.0 0.0
000100 00 00 00 00 00 00 00 00 00 00 00 00 00 00 00 00
       0.0 0.0 0.0 0.0
000110 00 00 00 00 00 00 00 00 00 00 00 00 00 00 00 00
       0.0 0.0 0.0 0.0
000120 00 00 00 00 00 00 00 00 00 00 00 00 8c 7b 9d 3b
       0.0 0.0 0.0 0.0048059877
000130 b8 0e 5c 3b a9 02 ad bc c9 19 ac bb a0 70 6d b9
       0.003357811 -0.021119433 -0.0052520973 -0.00022644037
000140 8c 7b 9d 3b aa b7 78 3b a8 8e bf 3b 8f 4d 89 3b
       0.0048059877 0.003795127 0.0058458634 0.004190154
000150 89 f9 1c 3a 8c 7b 9d 3b 20 75 c5 3b 43 87 88 3d
       0.00059881114 0.0048059877 0.0060259253 0.06666424
000160 e4 84 19 3c 40 da a7 39 8c 7b 9d 3b 28 e5 f0 38
       0.0093700625 0.0003201533 0.0048059877 0.000114867755
000170 e9 ca 2d 3c 4d 06 d8 3b e2 87 48 38 8c 7b 9d 3b
       0.01060746 0.006592548 4.7810267e-05 0.0048059877
000180 b6 79 4d 3c d8 ec 91 3d 59 4a 07 3c 5a ad 6d 39
       0.012541225 0.071252525 0.008257472 0.0002266666
000190 00 00 00 00 00 00 00 00 00 00 00 00 00 00 00 00
       0.0 0.0 0.0 0.0
0001a0 00 00 00 00 00 00 00 00 00 00 00 00 00 00 00 00
       0.0 0.0 0.0 0.0
0001b0 00 00 00 00 00 00 00 00 00 00 00 00 00 00 00 00
       0.0 0.0 0.0 0.0
0001c0 00 00 00 00 00 00 00 00 00 00 00 00 00 00 00 00
       0.0 0.0 0.0 0.0
0001d0 00 00 00 00 00 00 00 00 00 00 00 00 00 00 00 00
       0.0 0.0 0.0 0.0
0001e0 00 00 00 00 00 00 00 00 00 00 00 00 00 00 00 00
       0.0 0.0 0.0 0.0
0001f0 00 00 00 00 00 00 00 00 00 00 00 00 00 00 00 00
       0.0 0.0 0.0 0.0
000200 00 00 00 00 00 00 00 00 00 00 00 00 00 00 00 00
       0.0 0.0 0.0 0.0
000210 00 00 00 00 00 00 00 00 00 00 00 00 00 00 00 00
       0.0 0.0 0.0 0.0
000220 00 00 00 00 00 00 00 00 00 00 00 00 00 00 00 00
       0.0 0.0 0.0 0.0
000230 00 00 00 00 00 00 00 00 00 00 00 00 00 00 00 00
       0.0 0.0 0.0 0.0
000240 00 00 00 00 00 00 00 00 00 00 00 00 00 00 00 00
       0.0 0.0 0.0 0.0
000250 00 00 00 00 00 00 00 00 c5 92 1e 02 c5 92 1e 02
       0.0 0.0 1.1650128e-37 1.1650128e-37
000260 b7 03 11 02 66 6e 19 02 89 0d 16 82 c5 92 1e 02
       1.0653984e-37 1.1272348e-37 -1.1024144e-37 1.1650128e-37
000270 9a 27 14 82 3c 98 17 82 4e a6 17 82 89 0d 16 02
       -1.0884688e-37 -1.1137417e-37 -1.1141455e-37 1.1024144e-37
000280 c5 92 1e 02 00 eb 11 82 b7 03 11 82 fa 2a 11 82
       1.1650128e-37 -1.0720359e-37 -1.0653984e-37 -1.0665251e-37
000290 89 0d 16 02 c5 92 1e 02 0c 1a 19 02 b7 03 11 82
       1.1024144e-37 1.1650128e-37 1.124814e-37 -1.0653984e-37
0002a0 b7 ba 16 82 89 0d 16 02 c5 92 1e 02 e9 c1 11 02
       -1.1073844e-37 1.1024144e-37 1.1650128e-37 1.0708567e-37
0002b0 4a 18 1e 82 86 30 16 82 89 0d 16 02 2f fa 07 be
       -1.1614977e-37 -1.1034185e-37 1.1024144e-37 -0.13279031
0002c0 ca d9 0a be 61 6b 0f bb cf a0 4c bd ba 92 59 38
       -0.13559642 -0.0021884071 -0.049958047 5.187348e-05
0002d0 2f fa 07 be b4 81 30 3b 15 4f 81 bd af 5d e8 3b
       -0.13279031 0.0026932778 -0.06313912 0.007091246
0002e0 82 ee ee b9 2f fa 07 be 8a 20 e3 3a 4e 04 7f bd
       -0.000455726 -0.13279031 0.0017328423 -0.062259965
0002f0 df 6e dd 3b a1 68 98 b8 2f fa 07 be 2d da 67 bc
       0.0067576016 -7.2674135e-05 -0.13279031 -0.014151138
000300 bf a7 c5 bc a3 e4 f1 3b 9d 76 2b b8 2f fa 07 be
       -0.02412784 0.007381992 -4.0880044e-05 -0.13279031
000310 ce a2 7f bd 52 27 d9 bd e5 eb ec 3b 84 c0 3e b8
       -0.062411122 -0.10603203 0.0072302693 -4.5478824e-05
000320 1e 2c be 3d ed e1 bd 3d 5d b6 b5 3c 9e fe b5 3c
       0.092857584 0.092716075 0.022181684 0.022216137
000330 ba 10 1c 39 1e 2c be 3d 3c b0 67 bb 14 f8 5c 3d
       0.0001488355 0.092857584 -0.0035352847 0.053947523
000340 4c 8b cf bb 86 92 ce b9 1e 2c be 3d 02 9c b2 3b
       -0.006333744 -0.0003940055 0.092857584 0.0054507265
000350 42 0c 87 3c 48 13 4f bc 89 fe 96 b9 1e 2c be 3d
       0.016485337 -0.012638874 -0.00028799873 0.092857584
000360 11 4a 9b 3c 3c 7c e5 39 d4 80 29 bc 34 a3 3a b9
       0.018956216 0.00043770846 -0.010345656 -0.0001779914
000370 1e 2c be 3d d5 b1 96 3c aa 81 52 bd 14 a7 e2 bb
       0.092857584 0.018395344 -0.05139319 -0.00691689
000380 64 d4 2c b9 00 00 00 00 00 00 00 00 00 00 00 00
       -0.0001648232 0.0 0.0 0.0
000390 00 00 00 00 00 00 00 00 00 00 00 00 00 00 00 00
       0.0 0.0 0.0 0.0
0003a0 00 00 00 00 00 00 00 00 00 00 00 00 00 00 00 00
       0.0 0.0 0.0 0.0
0003b0 00 00 00 00 00 00 00 00 00 00 00 00 00 00 00 00
       0.0 0.0 0.0 0.0
0003c0 00 00 00 00 00 00 00 00 00 00 00 00 00 00 00 00
       0.0 0.0 0.0 0.0
0003d0 00 00 00 00 00 00 00 00 00 00 00 00 00 00 00 00
       0.0 0.0 0.0 0.0
0003e0 00 00 00 00 00 00 00 00 a3 0c 38 3e 42 b2 36 3e
       0.0 0.0 0.1797357 0.17841437
0003f0 6d ce a0 3d 4c 9c 66 3d 08 8a 0d b9 a3 0c 38 3e
       0.078518726 0.0563014 -0.00013498229 0.1797357

exp_avg_sq f4 [256, 25]
000000 4b 82 1b 3e 51 a9 19 3e 12 b0 80 3d a7 9b e3 3c
       0.15186422 0.15005995 0.06283583 0.027784182
000010 01 37 62 36 4b 82 1b 3e 27 8f f3 39 35 b0 f8 3c
       3.370864e-06 0.15186422 0.0004645523 0.03035746
000020 17 31 1c 3b ef 8f 9b 36 4b 82 1b 3e 83 84 23 3b
       0.002383297 4.636116e-06 0.15186422 0.002495081
000030 44 2e e3 3c 36 6c 2e 3b 9b b6 c1 36 4b 82 1b 3e
       0.027732022 0.0026614792 5.7731063e-06 0.15186422
000040 ae f0 09 3c 92 db df 3c 10 7d 24 3b 87 d4 ae 36
       0.008419199 0.027326379 0.0025098957 5.2103455e-06
000050 4b 82 1b 3e ac ee d3 3c 63 27 d0 3c 27 b8 23 3b
       0.15186422 0.025870644 0.025409406 0.002498159
000060 f9 41 75 36 00 00 00 00 00 00 00 00 00 00 00 00
       3.6546246e-06 0.0 0.0 0.0
000070 00 00 00 00 00 00 00 00 00 00 00 00 00 00 00 00
       0.0 0.0 0.0 0.0
000080 00 00 00 00 00 00 00 00 00 00 00 00 00 00 00 00
       0.0 0.0 0.0 0.0
000090 00 00 00 00 00 00 00 00 00 00 00 00 00 00 00 00
       0.0 0.0 0.0 0.0
0000a0 00 00 00 00 00 00 00 00 00 00 00 00 00 00 00 00
       0.0 0.0 0.0 0.0
0000b0 00 00 00 00 00 00 00 00 00 00 00 00 00 00 00 00
       0.0 0.0 0.0 0.0
0000c0 00 00 00 00 00 00 00 00 00 00 00 00 00 00 00 00
       0.0 0.0 0.0 0.0
0000d0 00 00 00 00 00 00 00 00 00 00 00 00 00 00 00 00
       0.0 0.0 0.0 0.0
0000e0 00 00 00 00 00 00 00 00 00 00 00 00 00 00 00 00
       0.0 0.0 0.0 0.0
0000f0 00 00 00 00 00 00 00 00 00 00 00 00 00 00 00 00
       0.0 0.0 0.0 0.0
000100 00 00 00 00 00 00 00 00 00 00 00 00 00 00 00 00
       0.0 0.0 0.0 0.0
000110 00 00 00 00 00 00 00 00 00 00 00 00 00 00 00 00
       0.0 0.0 0.0 0.0
000120 00 00 00 00 00 00 00 00 00 00 00 00 c5 38 f7 3d
       0.0 0.0 0.0 0.12071375
000130 dd 22 f6 3d 6a fd fb 3b 7c 58 8a 3c 48 b8 00 36
       0.120183684 0.0076901214 0.016887896 1.9180752e-06
000140 c5 38 f7 3d 19 b0 36 39 59 5c b5 3c e9 fa be 3a
       0.12071375 0.00017422474 0.022138761 0.0014570627
000150 82 75 4e 36 c5 38 f7 3d bb 39 a5 3a 71 33 b6 3c
       3.076479e-06 0.12071375 0.0012605706 0.022241326
000160 f8 d3 be 3a bf a3 32 36 c5 38 f7 3d 65 b3 a1 3b
       0.0014559021 2.661938e-06 0.12071375 0.0049347156
000170 bc 46 11 3c 16 d0 c3 3a bc fd a9 36 c5 38 f7 3d
       0.008866962 0.0014939334 5.066131e-06 0.12071375
000180 8f c6 7c 3c 86 b9 a4 3c 14 a7 ca 3a 73 c0 11 36
       0.015428199 0.020107996 0.001546117 2.1718704e-06
000190 00 00 00 00 00 00 00 00 00 00 00 00 00 00 00 00
       0.0 0.0 0.0 0.0
0001a0 00 00 00 00 00 00 00 00 00 00 00 00 00 00 00 00
       0.0 0.0 0.0 0.0
0001b0 00 00 00 00 00 00 00 00 00 00 00 00 00 00 00 00
       0.0 0.0 0.0 0.0
0001c0 00 00 00 00 00 00 00 00 00 00 00 00 00 00 00 00
       0.0 0.0 0.0 0.0
0001d0 00 00 00 00 00 00 00 00 00 00 00 00 00 00 00 00
       0.0 0.0 0.0 0.0
0001e0 00 00 00 00 00 00 00 00 00 00 00 00 00 00 00 00
       0.0 0.0 0.0 0.0
0001f0 00 00 00 00 00 00 00 00 00 00 00 00 00 00 00 00
       0.0 0.0 0.0 0.0
000200 00 00 00 00 00 00 00 00 00 00 00 00 00 00 00 00
       0.0 0.0 0.0 0.0
000210 00 00 00 00 00 00 00 00 00 00 00 00 00 00 00 00
       0.0 0.0 0.0 0.0
000220 00 00 00 00 00 00 00 00 00 00 00 00 00 00 00 00
       0.0 0.0 0.0 0.0
000230 00 00 00 00 00 00 00 00 00 00 00 00 00 00 00 00
       0.0 0.0 0.0 0.0
000240 00 00 00 00 00 00 00 00 00 00 00 00 00 00 00 00
       0.0 0.0 0.0 0.0
000250 00 00 00 00 00 00 00 00 1f 05 2b 34 1f 05 2b 34
       0.0 0.0 1.5927479e-07 1.5927479e-07
000260 5d 22 ba 33 f5 fa bf 33 f5 33 98 2b 1f 05 2b 34
       8.6675506e-08 8.9397794e-08 1.0814671e-12 1.5927479e-07
000270 63 f5 9c 2f c0 37 aa 33 0d 3f ac 32 af 63 ed 2c
       2.8550592e-10 7.926383e-08 2.0052108e-08 6.7470122e-12
000280 1f 05 2b 34 33 b7 74 30 4d 79 b8 33 49 01 54 32
       1.5927479e-07 8.9027025e-10 8.590232e-08 1.2340316e-08
000290 5d 5b f3 2c 1f 05 2b 34 6e 92 fe 31 f9 16 23 32
       6.9166188e-12 1.5927479e-07 7.40902e-09 9.493072e-09
0002a0 4d 44 77 32 28 7f f8 2c 1f 05 2b 34 1c d4 77 33
       1.4392822e-08 7.062701e-12 1.5927479e-07 5.770208e-08
0002b0 a2 c6 a3 33 51 9e b4 32 ba 62 b5 2b 02 55 b6 3d
       7.62641e-08 2.1026752e-08 1.2888226e-12 0.08902933
0002c0 c2 ef b5 3d fe 24 28 3b 71 d8 95 3c 17 b5 dc 35
       0.08883621 0.0025656815 0.018291684 1.6443981e-06
0002d0 02 55 b6 3d 32 6b 0d 39 31 f0 fd 3c 7d 0d 0b 3b
       0.08902933 0.00013486741 0.030998321 0.0021217756
0002e0 e2 88 20 36 02 55 b6 3d 2f ac 65 3a db 90 96 3c
       2.3921534e-06 0.08902933 0.0008761314 0.01837962
0002f0 c3 c6 dc 3a 93 a3 19 36 02 55 b6 3d 61 01 c5 3b
       0.0016843904 2.289399e-06 0.08902933 0.0060121273
000300 d4 63 1e 3c 0b 00 f3 3a 12 5a 7f 36 02 55 b6 3d
       0.009667356 0.0018539442 3.805039e-06 0.08902933
000310 fd e8 88 3c 0d 3f 1a 3d cb c7 f8 3a 2d 06 03 36
       0.01671266 0.037657786 0.0018980441 1.9524116e-06
000320 72 9e 9a 3e 90 0d 9a 3e 64 43 74 3d 17 ac 80 3d
       0.3019901 0.30088472 0.05963458 0.062828235
000330 e5 8e e8 36 72 9e 9a 3e f7 0f 10 3a 9d 75 93 3d
       6.930774e-06 0.3019901 0.0005495543 0.07200167
000340 76 de a6 3b 0a 6b 57 37 72 9e 9a 3e 38 55 b4 3b
       0.0050924374 1.2839921e-05 0.3019901 0.005503323
000350 65 1b 0a 3d 6f 49 ad 3b f0 29 03 37 72 9e 9a 3e
       0.03371753 0.005288295 7.817973e-06 0.3019901
000360 4b 93 e1 3c 82 5d 8f 3d 31 70 9a 3b 24 2c 6b 37
       0.027536055 0.07000257 0.0047130813 1.4017369e-05
000370 72 9e 9a 3e 0e 19 84 3d c5 5d 80 3d 9b ea a2 3b
       0.3019901 0.06450091 0.06267885 0.004971815
000380 a6 91 0e 37 00 00 00 00 00 00 00 00 00 00 00 00
       8.497771e-06 0.0 0.0 0.0
000390 00 00 00 00 00 00 00 00 00 00 00 00 00 00 00 00
       0.0 0.0 0.0 0.0
0003a0 00 00 00 00 00 00 00 00 00 00 00 00 00 00 00 00
       0.0 0.0 0.0 0.0
0003b0 00 00 00 00 00 00 00 00 00 00 00 00 00 00 00 00
       0.0 0.0 0.0 0.0
0003c0 00 00 00 00 00 00 00 00 00 00 00 00 00 00 00 00
       0.0 0.0 0.0 0.0
0003d0 00 00 00 00 00 00 00 00 00 00 00 00 00 00 00 00
       0.0 0.0 0.0 0.0
0003e0 00 00 00 00 00 00 00 00 d8 3b 94 3e 12 2e 92 3e
       0.0 0.0 0.28951907 0.28550774
0003f0 f2 a6 6c 3d 77 b4 22 3d 33 7d c5 36 d8 3b 94 3e
       0.0577764 0.039722886 5.8856326e-06 0.28951907
