highway_ddqn/ddqn_tuned_reward_change/checkpoint-15000.tar (torch, 892362 bytes, 18 tensors)

layers.0.weight f4 [256, 25]
0	0xbea5f13e	-0.32410616
1	0x3dc6dbec	0.097099155
2	0x3ec52526	0.38504905
3	0x3df33b54	0.1187655
4	0x40330e74	2.7977571
5	0xbe57fd94	-0.21092826
6	0x4096fda5	4.7184625
7	0xc011b74c	-2.2768126
8	0x3f1d3f8c	0.6142509
9	0xc0b850fc	-5.759886
10	0xbe0af88e	-0.13571379
11	0x3f445a00	0.7669983
12	0x3dc1a722	0.09455706
13	0xbedb4a07	-0.42829916
14	0xbf511dba	-0.81685984
15	0xbdedd7e0	-0.116134405
16	0x3fa729ba	1.3059609
17	0xbe0ecca6	-0.13945255
18	0xbe3385c2	-0.17531493
19	0xc04ff245	-3.249162
20	0x3cbd8055	0.023132483
21	0x3e8d9f0c	0.27660406
22	0xbe4d537a	-0.20051375
23	0xbeabb008	-0.3353274
24	0xbffbf257	-1.9683331
25	0xbe0bc46d	-0.13649149
26	0xbe09df23	-0.13464026
27	0xbe2e3f58	-0.17016351
28	0x3d860330	0.06543577
29	0x3bf311cd	0.0074178935
30	0xbdd333ed	-0.103126384
31	0xbd9853ca	-0.074378565
32	0x3e3e6f07	0.18597041
33	0x3d0f4b1a	0.03498373
34	0xbcec2833	-0.028827762
35	0x3d2e8827	0.042610314
36	0x3d6abf87	0.05731156
37	0x3e1c1010	0.15240502
38	0xbd01dcfa	-0.03170488
39	0x3e371d7d	0.17882343
40	0xbe315dc5	-0.17320926
41	0x3d493b40	0.04912877
42	0xbc90c2a7	-0.017670942
43	0x3e2c26e5	0.16811712
44	0xbe13b0a8	-0.14422858
45	0x3a7fb000	0.0009753704
46	0xbc6b8f33	-0.014377403
47	0xbd8a2997	-0.06746214
48	0xbca36600	-0.019946098
49	0xbe0a2473	-0.13490467
50	0xbd11aeda	-0.035567142
51	0xbd1853fa	-0.03718946
52	0x3ccc9bda	0.02497666
53	0xbc12ad9a	-0.008952523
54	0xbddec097	-0.10876577
55	0xbda18e83	-0.0788851
56	0xbd320933	-0.043465804
57	0x3dbd534d	0.09244404
58	0x3d9513f3	0.07279196
59	0xbd573513	-0.05254085
60	0xbd06ea0d	-0.032938052
61	0xbe26a195	-0.16272576
62	0x3b51979a	0.003198123
63	0xbcebc073	-0.02877829
64	0x3e0349d0	0.12821126
65	0xbd6b78e0	-0.057488322
66	0x3d67f8da	0.056633808
67	0xbd7bac67	-0.061443713
68	0xbe07d84b	-0.13266103
69	0xbe17cd5f	-0.14824437
70	0xbe1394aa	-0.1441218
71	0x3dfb2f13	0.12264838
72	0xbdf7507d	-0.12075899
73	0x3e03e21b	0.12879221
74	0xbd5af26d	-0.05345385
75	0xbeab3eb2	-0.3344627
76	0xbe086ac0	-0.13321972
77	0x3fb68ad0	1.4261112
78	0x3f9fcf45	1.2485129
79	0xbf2b04bc	-0.668041
80	0xbd833d01	-0.0640812
81	0xbf3ea55b	-0.7447106
82	0x3f814bf7	1.0101308
83	0x3d4a1172	0.049333043
84	0x3fbf9951	1.4968663
85	0xbdb47e80	-0.088131905
86	0xbf670f08	-0.9025731
87	0x3e84dfc0	0.25951958
88	0xbec168b4	-0.37775195
89	0xbe21c7b4	-0.15798837
90	0xbeafa6e2	-0.3430701
91	0x40090d87	2.1414506
92	0x400f513f	2.2393339
93	0x3f1cae67	0.61203617
94	0x3f2b0863	0.6680967
95	0xbd38855c	-0.045049056
96	0x3f84cb85	1.0374609
97	0xbf7cc101	-0.98732
98	0x3ed71ece	0.4201569
99	0x3eeaab42	0.45833784
100	0x3b436ccd	0.002981949
101	0xbe05950d	-0.1304514
102	0xbe3c86e7	-0.18410836
103	0xbe2fe855	-0.17178471
104	0x3e1d82d8	0.15381944
105	0xbd87c1e0	-0.066287756
106	0x3e4b384a	0.19845691
107	0xbde47cb3	-0.11156597
108	0x3e1887dd	0.14895578
109	0x3e03e14a	0.1287891
110	0x3d947b7d	0.07250116
111	0xbdc4419d	-0.09582827
112	0xbd35a033	-0.04434223
113	0xbdcc2c63	-0.099694036
114	0xbdeac5b3	-0.114634894
115	0xbe0bf4ea	-0.13667646
116	0xbdb873c0	-0.090064526
117	0x3e4c69aa	0.19962183
118	0xbe234d8a	-0.15947548
119	0xbde35843	-0.11100819
120	0xbe33d0c8	-0.17560112
121	0xbd068800	-0.032844543
122	0xbdd333a0	-0.10312581
123	0x3d843977	0.06456273
124	0xbccd9280	-0.02509427
125	0xbe0a6e38	-0.13518608
126	0xbd1ea693	-0.038733076
127	0xbd9438ca	-0.07237394
128	0x3dc10770	0.09425247
129	0xbddd9000	-0.108184814
130	0xbda652e3	-0.08121278
131	0x3e02f22b	0.12787692
132	0x3e1bbc00	0.15208435
133	0xbe4b3e93	-0.19848089
134	0x3e2ee17d	0.17078204
135	0xbb7f9b33	-0.0039002418
136	0xbe0d2ffb	-0.13787834
137	0xbd7cc65a	-0.0617126
138	0xbd35ae87	-0.044355895
139	0x3cad5d73	0.021162724
140	0x3dbd51ed	0.09244142
141	0xbe217380	-0.15766716
142	0xbce04e27	-0.027381016
143	0x3e0f2682	0.13979533
144	0xbe365e05	-0.17809303
145	0xbe32590b	-0.1741678
146	0x3d06d8d3	0.032921623
147	0x3e33108b	0.1748678
148	0xbd570a4d	-0.052500058
149	0x3e099bd5	0.13438351
150	0xbe4b82f1	-0.19874169
151	0xbeab6fdd	-0.33483782
152	0x3f4dba68	0.8036256
153	0x3f5ec5b8	0.87020445
154	0x3e9db1fe	0.3079986
155	0xbe55a335	-0.2086304
156	0x3e704d11	0.23466899
157	0x3ecb41e5	0.3969871
158	0xbf0ac07b	-0.5419995
159	0x3eb6b814	0.35687315
160	0xbe810218	-0.2519691
161	0xbf58507d	-0.84497815
162	0xbe89d2ac	-0.26918542
163	0xbf1fb09b	-0.62378854
164	0x3e7d56bb	0.24740116
165	0xbe60970d	-0.21932621
166	0xbfa7f678	-1.3122091
167	0xbe8991f4	-0.26869166
168	0xbf9ce449	-1.2257167
169	0x3e09057d	0.13381
170	0xbe0d3064	-0.13787991
171	0x3f030f18	0.51194906
172	0x3f11dc6f	0.5697698
173	0xbf761b50	-0.96135426
174	0xbf384036	-0.7197298
175	0xbd04205b	-0.03225742
176	0x3d0fa473	0.03506894
177	0xbedbb6cb	-0.42912897
178	0x3f271f08	0.65281725
179	0xbda64067	-0.081177525
180	0xbea82648	-0.32841706
181	0xc017183c	-2.3608541
182	0xbf57cd04	-0.84297204
183	0xbf0967f4	-0.53674245
184	0xbeea13d3	-0.4571825
185	0xbe224350	-0.1584599
186	0xbfa9caf3	-1.326506
187	0xbe1e19ad	-0.15439482
188	0xbe666980	-0.22501183
189	0xbedaa914	-0.4270712
190	0xbe481ef2	-0.19543055
191	0xbe5f1501	-0.21785356
192	0xbf3212d3	-0.69559973
193	0xbf6a7b2c	-0.91594195
194	0xbf7cc22c	-0.9873378
195	0xbe8c7ec8	-0.27440476
196	0xbe194f01	-0.14971544
197	0x3fa55750	1.2917271
198	0x3b973707	0.004614714
199	0x3e87306c	0.2640413
200	0x3e89455f	0.26810738
201	0x3ea2c6ad	0.31792203
202	0x3fa85e29	1.3153735
203	0x40080bdf	2.1257246
204	0xbfbfd113	-1.4985679
205	0x3dd8e2af	0.105901115
206	0xbf80c48b	-1.005998
207	0x3e0f7869	0.14010777
208	0xbf60cbc8	-0.87810946
209	0x3e96f323	0.29482374
210	0x3e575743	0.21029381
211	0xbf4cb28a	-0.7995993
212	0xbea5b0aa	-0.32361346
213	0xbf916b29	-1.1360828
214	0x3dd6b033	0.10482826
215	0x3db11aad	0.08647666
216	0x3fa99c74	1.3250871
217	0xbfba6db0	-1.4564724
218	0x3dbc2160	0.09186053
219	0xbe505d3d	-0.20348068
220	0x3e554e29	0.20830597
221	0x3fa780b8	1.3086157
222	0xbfab5c5b	-1.338756
223	0xbe27eccb	-0.16398923
224	0xbea29292	-0.3175245
225	0x3d4078ed	0.046990324
226	0xbdebb67a	-0.11509414
227	0x3e314b8a	0.17313972
228	0xbe0fd073	-0.14044361
229	0x3d69283a	0.05692313
230	0xbdf9d68d	-0.121991254
231	0xbe067f30	-0.13134456
232	0x3e19dfdf	0.15026806
233	0xbdc6cca7	-0.09707003
234	0xbda851c7	-0.08218723
235	0xbc0a8c9a	-0.008456374
236	0xbd8e73dd	-0.06955693
237	0xba615000	-0.000859499
238	0xbd7364ba	-0.059422232
239	0xbd339bfa	-0.043849923
240	0xbdbb2303	-0.09137537
241	0xbdc3684a	-0.09541376
242	0xbc4490e7	-0.011997438
243	0xbe4b2c5f	-0.19841145
244	0xbda5d7d7	-0.08097809
245	0xbc9690e7	-0.018379642
246	0x3d8cf060	0.068817854
247	0x3e45472a	0.19265428
248	0x3e3accbd	0.18242164
249	0x3da4053d	0.080088116
250	0x3e59a9a7	0.21256123
251	0xbd90c989	-0.0706969
252	0xbe94771e	-0.2899713
253	0xbf11a0c7	-0.5688595
254	0xbecd0a73	-0.40047035
255	0x3ec0ade0	0.37632656

layers.0.bias f4 [256]
0	0x3c4d411a	0.012527728
1	0xbc98e6c0	-0.018664718
2	0x3e377c20	0.17918444
3	0xbe85cffc	-0.26135242
4	0x3da2de60	0.07952571
5	0xbd87f51d	-0.066385485
6	0xbed40a69	-0.41414192
7	0xbe2dd2a6	-0.16974887
8	0x3e66f261	0.22553398
9	0x3d8f50f0	0.069978595
10	0x3ddfa48b	0.10920056
11	0x3d5bbe13	0.053648066
12	0xbe4e3ef2	-0.20141199
13	0x3e3bed1b	0.18352167
14	0x3d0c81a5	0.034303326
15	0xba5c9795	-0.00084149215
16	0x3cbf4a25	0.023350785
17	0xbdd68b96	-0.10475843
18	0xbc34115d	-0.010990468
19	0xbe4fefe9	-0.20306362
20	0xbe9a14dd	-0.30094042
21	0xbe2c5727	-0.16830121
22	0xbe2e3b06	-0.17014703
23	0xbd279f1c	-0.040923223
24	0xbe072691	-0.13198306
25	0xbe1efad9	-0.15525378
26	0xbdc31853	-0.09526124
27	0xbe5770ea	-0.21039167
28	0xbd46c360	-0.048526168
29	0xbdcaa292	-0.09894289
30	0xbe91cc43	-0.28476152
31	0x3e2e40cf	0.1701691
32	0x3dbaf552	0.091288224
33	0x3db2a4d9	0.087228484
34	0x3c94997c	0.018139593
35	0xbe0840ca	-0.13305965
36	0xbd894727	-0.06703024
37	0xbe1a7c4b	-0.15086477
38	0xbeb22eb1	-0.34801248
39	0xbde4f660	-0.11179805
40	0xbeeca7be	-0.46221727
41	0xbe8e5022	-0.2779551
42	0xbe2c5093	-0.16827612
43	0xbe26fee7	-0.16308175
44	0xbc1f13dd	-0.009709326
45	0xbeb3ff19	-0.35155562
46	0xbe2efb5a	-0.1708807
47	0xbc94a5bf	-0.01814544
48	0x3d4c3101	0.04985142
49	0xbd41cc7a	-0.047314145
50	0xbd0789cf	-0.03309041
51	0xbe1426ff	-0.14468001
52	0x3e85caa6	0.2613117
53	0xbe7cfd4e	-0.24706003
54	0x3e46ea47	0.19425307
55	0x3cb733e7	0.022363616
56	0x3d361215	0.044450838
57	0xbdfa3a10	-0.12218106
58	0xbcdf9e16	-0.027297061
59	0xbe2a15cd	-0.16609879
60	0xbe549d21	-0.20763065
61	0xbc5b1d91	-0.013373748
62	0xbe91a2b7	-0.28444454
63	0xbdced73d	-0.10099647
64	0xbe47704c	-0.19476432
65	0x3de498c3	0.111619495
66	0xbe3f041a	-0.18653908
67	0xbdb5ed6a	-0.08883174
68	0xbdfa2e11	-0.12215818
69	0xbe59267d	-0.21206088
70	0xbd4c045f	-0.049808856
71	0xbe85fe90	-0.26170778
72	0xbe50ae08	-0.20378888
73	0x3dc81aea	0.097707585
74	0x3e187b4d	0.14890786
75	0xbe2da9d2	-0.16959313
76	0xbe41df2a	-0.18932787
77	0xbd815c5f	-0.063164465
78	0xbdd2e273	-0.10297098
79	0xbeb4f4dd	-0.35343066
80	0x3d18ba10	0.037286818
81	0x3b22da95	0.0024849523
82	0x3e3d7796	0.1850265
83	0xbea4f4f0	-0.32218122
84	0x3d447560	0.0479635
85	0xbe3a6300	-0.18201828
86	0x3e5fdb06	0.21860895
87	0xbde48ec1	-0.11160041
88	0xbd9b0ad7	-0.07570427
89	0x3d61cb85	0.055125732
90	0x3ebfbed0	0.37450266
91	0xbd7febb5	-0.062480647
92	0xbdac7b9a	-0.084220126
93	0x3db27c77	0.08715146
94	0xbd1d6b83	-0.03843261
95	0xbe3104ec	-0.17287034
96	0xbcc8c5cf	-0.024508385
97	0xbb81f965	-0.0039664977
98	0xbe05466b	-0.13015144
99	0xbdfb8393	-0.12280955
100	0x3dd7f385	0.105444945
101	0x3e46053f	0.19337939
102	0xbe13b366	-0.14423904
103	0xbe948208	-0.29005456
104	0xbd0978b6	-0.033562385
105	0xbbcf9667	-0.006335068
106	0xbddfc391	-0.10925973
107	0xbd4d6821	-0.050148133
108	0x3d107773	0.035270166
109	0x3dcacd4a	0.09902437
110	0xbd4900d4	-0.049073055
111	0xbd2f182a	-0.042747654
112	0xbdbcef9d	-0.0922539
113	0x3d877afe	0.06615256
114	0xbe189895	-0.14901955
115	0xbca4e3cd	-0.020128155
116	0xbe7b1438	-0.24519432
117	0xbe3dd666	-0.18538818
118	0xbe89e19d	-0.26929942
119	0xbdbdbee6	-0.092649266
120	0x3d8d2557	0.06891888
121	0xbea4af47	-0.32164976
122	0xbd4c06eb	-0.049811285
123	0xbe809ce0	-0.25119686
124	0x3e557ca4	0.20848328
125	0xbdb1c66d	-0.08680425
126	0xbd8c25c3	-0.0684314
127	0xbea2c998	-0.3179443
128	0x3d72db3e	0.059291117
129	0x3e449873	0.1919878
130	0x3d22edf8	0.039777726
131	0xbe8b1cb6	-0.27170342
132	0xbdf66eca	-0.1203285
133	0xbe8a8f87	-0.27062628
134	0x3c7a1048	0.015262671
135	0x3d12395a	0.035699226
136	0xbeadcf3f	-0.3394718
137	0x3d6350a7	0.055496838
138	0xbe4392a0	-0.19098902
139	0xbc224864	-0.009904955
140	0xbe8019d5	-0.25019708
141	0xbc85c37f	-0.016328571
142	0xbe5fb4c6	-0.21846303
143	0xbe590c82	-0.21196178
144	0x3db342d4	0.08752981
145	0xbe2148d3	-0.15750436
146	0xbea5cfce	-0.32385105
147	0x3e4e7ad9	0.2016405
148	0xbd9de61d	-0.07709906
149	0xbe22c34a	-0.1589481
150	0xbdcd1d3b	-0.10015341
151	0xbef30430	-0.47464132
152	0xbee0b2f6	-0.43886536
153	0xbdec09f6	-0.115253374
154	0xbe81785a	-0.25287133
155	0x3d4ecd53	0.05048878
156	0x3eeb6a66	0.45979613
157	0xbed465e2	-0.4148398
158	0x3bab7700	0.0052326918
159	0xbbe9f02b	-0.007139226
160	0x3e40079e	0.18752906
161	0x3d06d2db	0.03291593
162	0xbd85c758	-0.065321624
163	0x3dec0958	0.1152522
164	0x3e07ded2	0.13268593
165	0xbd965324	-0.073400766
166	0x3cd85a47	0.026410235
167	0xbd8a4700	-0.067518234
168	0xbe3686db	-0.17824881
169	0xbe8cdc6c	-0.2751192
170	0xbdc318da	-0.095262244
171	0xbeb2d9aa	-0.3493169
172	0xbec01bd1	-0.37521222
173	0xbd883cbd	-0.0665221
174	0x3a525087	0.0008022864
175	0xbcf05b96	-0.029340547
176	0xbef050a0	-0.46936512
177	0xbd543b6c	-0.05181448
178	0xbea56e3b	-0.32310662
179	0xbdf171ec	-0.11789307
180	0x3e17057b	0.14748184
181	0x3c0d5080	0.00862515
182	0xbdfd6d65	-0.12374381
183	0xbe0eaac7	-0.13932334
184	0xbdf62ba3	-0.12020042
185	0x3e08719e	0.13324592
186	0x3d8009e7	0.06251889
187	0xbe1090e7	-0.14117776
188	0xbdebf2ad	-0.11520896
189	0xbbcbd92e	-0.006220958
190	0x3e770d99	0.24126281
191	0xbd8acd20	-0.06777406
192	0x3e16a12b	0.14709918
193	0xbc51739a	-0.012783909
194	0xbe1c3714	-0.15255386
195	0xbe083287	-0.13300525
196	0xbe36ca1b	-0.17850535
197	0xbe9667fd	-0.29376212
198	0xbe8b5ba0	-0.27218342
199	0xbea3488e	-0.31891292
200	0xbda86b4b	-0.082235895
201	0xbc5d756f	-0.013516768
202	0xbda42836	-0.08015482
203	0x3c26fdc3	0.010192337
204	0x3d929dbe	0.07158993
205	0xbe7890bd	-0.24273963
206	0xbd8f9ca0	-0.07012296
207	0xbf0c8cd2	-0.54902375
208	0x3bcddcc9	0.006282423
209	0x3fa53cd6	1.2909191
210	0xbcd3f94b	-0.025875708
211	0x3e301caf	0.17198442
212	0xbe73ddd5	-0.23815091
213	0x3de7a4dd	0.11310742
214	0xb90df7af	-0.00013539077
215	0xbef85cd8	-0.48508334
216	0xbe83d6ed	-0.25749913
217	0xbc316386	-0.010826951
218	0xbe011848	-0.12606919
219	0xbe47fde7	-0.1953045
220	0xbe44b97a	-0.19211379
221	0xbdf990f8	-0.12185854
222	0x3e1d1c45	0.15342815
223	0xbe66ac29	-0.22526611
224	0xbdbd9dde	-0.092586264
225	0x3d62464b	0.055242818
226	0xbe4a502f	-0.1975715
227	0xbf00ed45	-0.50362045
228	0x3df692da	0.120397285
229	0x3d745081	0.059647087
230	0x3e424c69	0.1897446
231	0x3e3562b4	0.17713434
232	0xbb939417	-0.0045037377
233	0x3cb3030e	0.021852043
234	0xbe55a39e	-0.20863196
235	0xbec5fa62	-0.3866759
236	0xbdd0259d	-0.10163424
237	0xbd950325	-0.072759904
238	0xbe2eb9fb	-0.17063133
239	0xbed1eee8	-0.41002584
240	0xbebcc2e9	-0.36867455
241	0xbd0cdab2	-0.03438825
242	0xbcbb1c03	-0.022840505
243	0xbef1b681	-0.47209552
244	0xbd468a23	-0.04847158
245	0xbeb27c67	-0.34860536
246	0xbdb185ad	-0.08668075
247	0xbdb4b95a	-0.088244155
248	0x3d3537b6	0.044242583
249	0xbdc76365	-0.09735755
250	0x3b84c138	0.004051354
251	0xbd51aa60	-0.051187873
252	0xbe2bd8d3	-0.1678193
253	0x3e82dded	0.2555994
254	0x3eabc28b	0.33546862
255	0xbe901e64	-0.28148186

layers.1.weight f4 [256, 256]
0	0xbddcbc35	-0.10778085
1	0x3d5abff6	0.053405724
2	0x3d32a236	0.043611728
3	0xbeea3924	-0.4574672
4	0x3a2edc80	0.00066704303
5	0xbd7e6e12	-0.06211669
6	0x3d9a9e87	0.07549768
7	0x3e6763b6	0.2259663
8	0x3ed92ffc	0.42419422
9	0x3d75e26e	0.060030393
10	0xbe445a33	-0.19175033
11	0xbd6370b6	-0.05552741
12	0x3ef073f4	0.46963465
13	0xc0033d7c	-2.0506277
14	0xbcd10c14	-0.025518455
15	0xbfa26d37	-1.268958
16	0xbf3d1687	-0.738625
17	0x3d143c8f	0.036190566
18	0xb966c65c	-0.00022008404
19	0x3e41cc27	0.18925534
20	0xbd70e641	-0.058813337
21	0xbd70f6d8	-0.05882916
22	0x3fbbbff0	1.466795
23	0xbea5333a	-0.32265645
24	0xbefc0427	-0.49221918
25	0x3f101cae	0.5629376
26	0xbc8e5b20	-0.017377436
27	0xbe209978	-0.15683544
28	0x3d59010a	0.052979507
29	0x3fc29e34	1.520453
30	0x3d6848c8	0.056710035
31	0x3d0fc082	0.0350957
32	0xbc83cb78	-0.016088232
33	0x3d768856	0.060188614
34	0x3ebb7f5c	0.36620605
35	0xbfbbcf4a	-1.4672635
36	0x3d7bde50	0.06149131
37	0x3df376a1	0.11887861
38	0xbf252a19	-0.6451736
39	0x3d06ff58	0.03295836
40	0xbf96788f	-1.1755542
41	0x3e2e0102	0.16992572
42	0xbef08986	-0.46979922
43	0xbc80a56c	-0.01570388
44	0xbcb5991e	-0.022167739
45	0xbd9426f4	-0.07233992
46	0x3ed51a42	0.41621596
47	0xbeb321cc	-0.34986722
48	0xbd9a55b0	-0.07535875
49	0xbc8f1224	-0.017464705
50	0xbedaf28e	-0.4276318
51	0xbd5a9bb2	-0.05337114
52	0xbe4b97c6	-0.19882116
53	0x3e4af43f	0.19819735
54	0x3b969250	0.0045950785
55	0x3eb7f839	0.35931566
56	0xbf21c7a9	-0.6319528
57	0xbd519634	-0.051168635
58	0x3e329649	0.17440142
59	0xbd33816c	-0.0438246
60	0xbe79ef74	-0.2440775
61	0x3e5bffe2	0.2148433
62	0xbf91bc72	-1.1385634
63	0xbf3c4df3	-0.7355644
64	0x39dee103	0.00042510786
65	0x3e9bd773	0.30437812
66	0x3c0ec038	0.008712821
67	0x3ec5c926	0.38630027
68	0xbe604808	-0.21902478
69	0xbe02fdcb	-0.12792127
70	0x3dac6101	0.084169395
71	0xbd00115c	-0.031266555
72	0xbf2b312c	-0.66871905
73	0xbc962e40	-0.0183326
74	0x3d985f0c	0.07440004
75	0x3d5a4cf0	0.05329603
76	0x3beafe50	0.0071714297
77	0xbe64d144	-0.22345454
78	0xbfc6fe5e	-1.5546377
79	0x3e852fde	0.26013082
80	0xbfa0ac67	-1.2552613
81	0xc08b87eb	-4.3603415
82	0x3d924a8e	0.071431264
83	0xbd3521b2	-0.044221587
84	0x3cbd39c4	0.023098834
85	0xbf689239	-0.9084812
86	0x3ec69d1b	0.38791737
87	0xbfaac5cd	-1.3341614
88	0xbc10c278	-0.008835427
89	0x3e1118cb	0.14169614
90	0xbe842dd6	-0.2581622
91	0xbe437317	-0.19086872
92	0x3d509942	0.050927408
93	0x3d1b613e	0.037934534
94	0xbeddca80	-0.43318558
95	0xbe56be3a	-0.20971003
96	0xbf723b3f	-0.9462165
97	0xbe96fac9	-0.2948821
98	0xc00d361b	-2.2064273
99	0x3e3daacd	0.18522187
100	0xbb883735	-0.004156972
101	0x3d593788	0.053031474
102	0xbeb5976b	-0.35467085
103	0xbf35a5bd	-0.7095602
104	0xbf6b7405	-0.91973907
105	0x3bc9ff80	0.006164491
106	0x3cf1635d	0.029466325
107	0xbf117f89	-0.5683523
108	0x3d476c88	0.048687488
109	0xbfdbe1e8	-1.7178316
110	0xbcd2a62c	-0.025714003
111	0xbc83a0e3	-0.016067928
112	0xbd354212	-0.044252463
113	0x3d0102bb	0.031496745
114	0xbf3fc005	-0.74902374
115	0x3c161220	0.009159595
116	0xbe104692	-0.1408942
117	0xbeae07fe	-0.33990473
118	0xbea0a585	-0.3137628
119	0xbf5ea3d0	-0.8696871
120	0x3e6266bf	0.22109507
121	0xbed3dcab	-0.41379294
122	0xbf9f3e22	-1.2440836
123	0xbf850351	-1.0391637
124	0xbfd6c264	-1.6778073
125	0x3d867add	0.06566403
126	0xbc839948	-0.016064301
127	0xbf2f3790	-0.68444157
128	0x3e1fc9f3	0.15604381
129	0xbd6942d2	-0.05694849
130	0xbe7dce4d	-0.24785729
131	0xbfd99e81	-1.7001497
132	0x3cf861eb	0.030320128
133	0xbec6a19c	-0.38795173
134	0x3dae5a01	0.08513261
135	0xbfa7e7f5	-1.3117663
136	0xbf1e8c82	-0.6193315
137	0xc082b09c	-4.084059
138	0x3f53f3b1	0.8279372
139	0xbf4b4073	-0.79395217
140	0x3f83d4f5	1.0299364
141	0x3d8890e4	0.06668261
142	0x3f35a19e	0.70949733
143	0xbf164e49	-0.58713204
144	0x3e0851cc	0.13312453
145	0x3d0a7912	0.033806868
146	0xbeb7a61c	-0.3586892
147	0x3e4946c0	0.19655895
148	0xbcac0858	-0.021000072
149	0xbccd8198	-0.02508621
150	0xbf866fa1	-1.0502816
151	0xbffa5b15	-1.9559046
152	0xbeabead9	-0.33577612
153	0x3d550b7e	0.052012913
154	0xbf1413d2	-0.57842743
155	0x399c0d00	0.00029764324
156	0xc048f252	-3.13979
157	0xbe209318	-0.15681112
158	0xbd0d7e8e	-0.03454452
159	0x3e0f9c0a	0.14024368
160	0xbf210d4a	-0.629109
161	0x3c99492c	0.018711649
162	0xbfb2ba99	-1.3963195
163	0x3f6c22b7	0.9224047
164	0xbf30c44f	-0.69049543
165	0xc01b89cc	-2.4302855
166	0xbe36ae1b	-0.17839853
167	0x3cd31578	0.025767073
168	0x3e05bd78	0.13060558
169	0xbf31b86d	-0.69422036
170	0xbc8798b4	-0.016552307
171	0x3dab85c3	0.083751224
172	0xbf48f504	-0.78498864
173	0x3cd3695c	0.025807075
174	0xbf07bbf1	-0.5302115
175	0xbf266bf4	-0.65008473
176	0xbf3f9d9e	-0.7484988
177	0x3edcb574	0.43107188
178	0x3eec14c2	0.46109587
179	0x3f8602f8	1.0469656
180	0xbf99204d	-1.1962982
181	0x3d03ec02	0.032207496
182	0xbe2987bd	-0.16555686
183	0x3d82be17	0.06383913
184	0x3bcd0550	0.006256737
185	0xbeab4b8b	-0.33456072
186	0xbed4bf0e	-0.41552013
187	0xbf532a13	-0.82486075
188	0xbc0d66b8	-0.008630447
189	0xbeafb6fc	-0.34319293
190	0xbdf60efe	-0.12014578
191	0xbee94318	-0.45559
192	0xbcf03a58	-0.029324695
193	0x3cbc57ec	0.022991143
194	0xbf3171ef	-0.69314474
195	0xbf68396a	-0.90712607
196	0xbd0e5f11	-0.03475863
197	0x3fb4740b	1.4097914
198	0x3d827054	0.06369081
199	0xbeb2d2bf	-0.34926412
200	0xbf7cbe3c	-0.98727775
201	0xbeb23285	-0.34804168
202	0xbe92e118	-0.28687358
203	0xbcf998fd	-0.030468458
204	0xbeecc2b5	-0.462423
205	0xbf8a36b5	-1.0797945
206	0x3c47dea8	0.0121990815
207	0x3f992025	1.1962935
208	0xbfeacd50	-1.8343906
209	0x404e8628	3.2269382
210	0x3b819be0	0.0039553493
211	0x3f769a20	0.96328926
212	0xbdccba03	-0.099964164
213	0xbe10607e	-0.14099309
214	0x3dc89706	0.097944304
215	0x3f1807e4	0.5938704
216	0xbf133a03	-0.57510394
217	0xbf8f027d	-1.1172634
218	0xbfab2239	-1.3369819
219	0xbce937f8	-0.02846907
220	0x3d3bef22	0.04588235
221	0xbef2d947	-0.47431394
222	0xbf9c10c6	-1.2192619
223	0xbfefeb84	-1.8743749
224	0xbfc3219b	-1.524463
225	0xbe362b10	-0.17789865
226	0x3d02e83c	0.031959757
227	0x3f58a54e	0.84627235
228	0x3e0d060e	0.13771841
229	0xbe704e4a	-0.23467365
230	0x3ec22507	0.37918875
231	0xbf017207	-0.50564617
232	0xbecaff39	-0.39647844
233	0xbfb527ac	-1.4152732
234	0xbdf62d5f	-0.120203726
235	0xbbfdf64f	-0.0077503095
236	0xbd200b96	-0.03907355
237	0x3cf720c9	0.030167
238	0x3ca7e234	0.020493604
239	0xbf32d778	-0.6986003
240	0xbca9fe39	-0.020751106
241	0xbfe6b263	-1.8023189
242	0xbe6737f0	-0.22579932
243	0x3f58af11	0.8464213
244	0xbf9580d4	-1.167994
245	0x3e01c7cc	0.12673873
246	0xbc2c5e30	-0.010520503
247	0xbcb1e18a	-0.02171399
248	0x3ebed909	0.3727496
249	0xbf1addbc	-0.6049459
250	0xbf3b832a	-0.73247015
251	0xbe887222	-0.26649576
252	0x3f165e59	0.58737713
253	0xbefceb4f	-0.49398276
254	0xbf6039fa	-0.87588465
255	0xb8135494	-3.51263e-05

layers.1.bias f4 [256]
0	0xbff3b4a7	-1.9039506
1	0xbfe577a7	-1.792714
2	0x400b9912	2.1812177
3	0xbf5db927	-0.86610645
4	0x3e6c3e32	0.230706
5	0xbd0fe1c6	-0.035127424
6	0xbd7312c2	-0.05934406
7	0xc00363d2	-2.0529675
8	0xbf91bf11	-1.1386434
9	0xbe875eb8	-0.26439452
10	0xbf58909a	-0.84595644
11	0xbd447b30	-0.047969043
12	0xbd96c63d	-0.0736203
13	0xbd0653b1	-0.032794658
14	0xbfef3d3e	-1.8690565
15	0xbf1395ca	-0.57650435
16	0x3d3edd49	0.046597753
17	0xbd553a4a	-0.052057542
18	0x3e753d2a	0.23949113
19	0x3d027f43	0.031859647
20	0xbd268169	-0.04065076
21	0x3ef1a402	0.4719544
22	0x3d2be6c7	0.041968133
23	0xbcf940ad	-0.030426348
24	0xbd3ced69	-0.04612485
25	0x3fd7db10	1.6863728
26	0x3eb1588e	0.34637874
27	0x3f4e7317	0.80644363
28	0xbd6b8d04	-0.05750753
29	0xbd3796a0	-0.04482138
30	0xbd21ed6d	-0.039533067
31	0xbf4e7c70	-0.80658627
32	0xbd4c5473	-0.049885225
33	0x3fb6f301	1.4292909
34	0xbd202eef	-0.03910726
35	0xc03e260b	-2.971072
36	0xbb8235de	-0.0039737066
37	0xbd490601	-0.04907799
38	0x3ea3f5f0	0.32023573
39	0xbfd8a7d9	-1.6926223
40	0x3b5ee44b	0.0034010585
41	0xc0082e16	-2.1278129
42	0xbd932f18	-0.07186717
43	0x3f3d8bfe	0.74041736
44	0xbf2522b6	-0.6450609
45	0xbfec4445	-1.8458334
46	0xbf5fd7fb	-0.87438935
47	0xbf8c9503	-1.0982975
48	0x3c8d518c	0.017250799
49	0xbd7b48de	-0.06134879
50	0xbd762acb	-0.060099404
51	0xc03a9d4a	-2.9158502
52	0xbc86f7e7	-0.01647563
53	0xc0153f46	-2.331987
54	0x3f9814ab	1.1881307
55	0x3fea684b	1.8313078
56	0x3c5526ea	0.013009766
57	0x3c8205c9	0.0158719
58	0xbfb89d34	-1.4422975
59	0x3f4f0838	0.80871916
60	0xbfc6f77e	-1.5544279
61	0xbf8ce144	-1.1006246
62	0xbee87542	-0.4540196
63	0x3c066c23	0.008204493
64	0xc008a564	-2.1350946
65	0x3f4308e2	0.7618543
66	0x3e8f57e0	0.2799673
67	0xbd2b3472	-0.041798063
68	0x3f74f8d1	0.95692164
69	0xbd8d5a5d	-0.06902001
70	0xbd57bf90	-0.052672923
71	0x3e3db68a	0.18526664
72	0xbe7abe8e	-0.24486753
73	0x3fad859a	1.3556397
74	0xbc972cf7	-0.018454058
75	0xbfba218c	-1.4541488
76	0xbddbf4db	-0.10740062
77	0xbd8799d5	-0.06621138
78	0xbd6918ed	-0.056908537
79	0x3e658557	0.22414146
80	0xb83c6a54	-4.492172e-05
81	0x3bb16de7	0.0054147127
82	0x3eb5f766	0.35540313
83	0x4012f070	2.2959251
84	0x402d1aa0	2.70475
85	0xc022dbbd	-2.5446618
86	0xbf347fbf	-0.70507425
87	0xbf15b97a	-0.5848614
88	0xbd06d4ac	-0.032917663
89	0xbfae3cfe	-1.3612363
90	0xbd3ebae0	-0.046564937
91	0x3a6100a1	0.00085831626
92	0x3b91c3ab	0.0044483743
93	0xbe0fef67	-0.14056168
94	0xbd4553d6	-0.048175655
95	0xbf62d369	-0.88603836
96	0xbd8d4350	-0.068976045
97	0xbeb8d47a	-0.36099607
98	0xbdf6f3b0	-0.120581985
99	0xbce23ad6	-0.027615946
100	0x3c66528a	0.014057765
101	0x3cc98e6d	0.024604047
102	0xbd233b9e	-0.039851777
103	0x3f9ffc86	1.2498939
104	0xbf6d3d51	-0.92671686
105	0x3d0a0a9f	0.033701535
106	0xc0046ab9	-2.0690138
107	0xbf6cd97f	-0.9251937
108	0x3d462771	0.048377458
109	0xbc18b0df	-0.009319513
110	0xbcd86c33	-0.02641878
111	0xc01759e2	-2.364861
112	0x3f04291f	0.51625246
113	0x3c408e98	0.011752747
114	0xbf30c573	-0.69051284
115	0xbf9a7df4	-1.2069688
116	0xbc7b1b8d	-0.015326393
117	0xc003ff4e	-2.0624576
118	0xbd00ba14	-0.031427458
119	0xbe911a8f	-0.28340575
120	0xbc8c68e1	-0.017139854
121	0xbe695c9a	-0.22789231
122	0x3fd0233f	1.6260756
123	0xbf351f19	-0.70750576
124	0xbe14e687	-0.14541064
125	0xbd0ddab8	-0.034632415
126	0x3f6fb6d3	0.9363834
127	0xbf67e702	-0.90586865
128	0x3f240092	0.6406337
129	0x3c755534	0.014973927
130	0xbff01a16	-1.8757961
131	0xbf5ae5f8	-0.85507154
132	0xbd10402f	-0.03521746
133	0xbd96ce1c	-0.07363531
134	0xbf1fb6ed	-0.623885
135	0xbd70e20f	-0.058809336
136	0xbcaf9f7c	-0.021438353
137	0xbd3a585d	-0.045494426
138	0xbd328cbb	-0.043591242
139	0xbe4dc793	-0.20095663
140	0xbf428f03	-0.7599947
141	0x3fc049f7	1.5022572
142	0xbed51a52	-0.41621643
143	0xbc015dca	-0.007895896
144	0x3f201906	0.6253818
145	0xbc859431	-0.016306015
146	0x3f24532d	0.64189416
147	0xbc98bd0d	-0.018644834
148	0x3d95e402	0.0731888
149	0xbe9cb8ac	-0.30609643
150	0xbdb425b5	-0.087962545
151	0xbf653a2a	-0.89541876
152	0x3c2a5ca1	0.010398061
153	0xbd07d398	-0.033160776
154	0xbd9b848e	-0.07593642
155	0xc01a9930	-2.4155998
156	0xbd8220f7	-0.06353944
157	0xbcf5704d	-0.029960776
158	0x3f3034b4	0.6883042
159	0xbac41d85	-0.0014962411
160	0xbd2a67f3	-0.04160304
161	0x3e8688e2	0.26276308
162	0xbd9ec4c2	-0.07752372
163	0xbfcfbb77	-1.6229085
164	0xbe930ac3	-0.28719148
165	0xbdb149d2	-0.08656658
166	0xbd5c19a8	-0.053735405
167	0x3f9bb324	1.2164044
168	0x3f26e788	0.6519704
169	0x3ea89592	0.32926613
170	0x3fe26bbc	1.7689128
171	0x3be1da90	0.0068925098
172	0xbd502bfa	-0.05082319
173	0xbd53f472	-0.051746793
174	0xc01cfd1b	-2.4529483
175	0xbc2676dd	-0.010160175
176	0x3e3a00ef	0.18164419
177	0xbd663a42	-0.056207903
178	0xba98ce89	-0.0011658232
179	0xbecfb968	-0.4057114
180	0x3d0f9349	0.03505257
181	0xbc080cb9	-0.008303815
182	0xbd81532c	-0.06314692
183	0xbd5487f4	-0.051887468
184	0xbd84c6f6	-0.06483261
185	0xbed3e811	-0.4138799
186	0x3e11e69b	0.14248125
187	0xbeecfc0e	-0.46286052
188	0x3e413835	0.18869098
189	0xbfd7c63f	-1.6857375
190	0x3db95ca8	0.09050876
191	0xbfe8541d	-1.8150669
192	0xbc81e846	-0.015857827
193	0x3f24c1c5	0.6435817
194	0x3eb38d83	0.35068902
195	0x3a984264	0.0011616466
196	0xbda0ce1e	-0.07851814
197	0xbc25f1c9	-0.010128447
198	0xbd2e1c09	-0.042507205
199	0x3f0a115a	0.53932726
200	0xbf8d8268	-1.1055422
201	0xbd071832	-0.03298206
202	0xbc934f03	-0.017982012
203	0xbdaa7b9a	-0.083243564
204	0xbd900c8e	-0.070336446
205	0xbd381d11	-0.044949595
206	0x3f8fa28e	1.1221483
207	0xbf3630e1	-0.71168333
208	0xbeb27be7	-0.34860155
209	0xbcf0ff9c	-0.029418759
210	0x3fbf00c3	1.4922107
211	0x3d43c958	0.04779944
212	0xbdb7276b	-0.08943065
213	0x3f5b4dd7	0.8566565
214	0xbcf14a71	-0.029454442
215	0xbc64c69d	-0.013963369
216	0xbf7f4b5d	-0.9972437
217	0xbdadad3c	-0.084803075
218	0x3fa499ac	1.2859397
219	0xbf3468c5	-0.70472366
220	0x3eef724c	0.4676689
221	0xbecc21aa	-0.39869434
222	0xbd2172eb	-0.039416235
223	0xbcfdea9d	-0.030995661
224	0x3cdeb824	0.027187414
225	0x3f40bb74	0.7528603
226	0xbf2b8c81	-0.67011267
227	0xbe185dfb	-0.148796
228	0xbca83d0e	-0.020536926
229	0x3e81c173	0.25342903
230	0x3ed34a58	0.41267657
231	0xbcd4366d	-0.025904858
232	0xbd3b0e48	-0.045667917
233	0xbd7e7e7f	-0.062132355
234	0xbd571590	-0.052510798
235	0x3b422827	0.0029625983
236	0xbc22b18c	-0.009930026
237	0x3f1dac1d	0.6159075
238	0xbd21c996	-0.039498888
239	0xbcb778ca	-0.022396464
240	0xbeb42f12	-0.35192162
241	0xbd862221	-0.06549478
242	0xbe16bc0a	-0.14720169
243	0xbde3f63d	-0.111309506
244	0x3f03fdd1	0.5155917
245	0xbd6904e2	-0.056889422
246	0xbf8ba439	-1.0909492
247	0x3fa452c0	1.2837753
248	0xbd7b11c7	-0.06129625
249	0xbd3b747c	-0.045765385
250	0xbef623f1	-0.48074296
251	0xbfe4cbbe	-1.7874677
252	0xbec0ecea	-0.3768075
253	0xbec3d017	-0.38244697
254	0xbfb1ffc6	-1.3906181
255	0xbfcbbb0e	-1.591646

predict.weight f4 [5, 256]
0	0x3f6cb53a	0.9246403
1	0x3f347549	0.7049146
2	0xbf42e995	-0.7613767
3	0x3f3a4c9f	0.72773165
4	0x3f0c801f	0.54883
5	0xbd11f1b7	-0.035630908
6	0xbd03f6c4	-0.032217756
7	0x3e65227b	0.22376435
8	0xbe1c77de	-0.152801
9	0x3c0f26b1	0.008737252
10	0x3f234933	0.6378357
11	0xbb35307c	-0.0027647307
12	0xbc501d39	-0.01270228
13	0xbc8ff869	-0.017574506
14	0xc00961dc	-2.1465979
15	0x3e8001b8	0.2500131
16	0xbfc399c9	-1.5281307
17	0x3c3549b8	0.011064939
18	0xbe564a69	-0.20926823
19	0xbcf090e9	-0.029365974
20	0xbcea8183	-0.02862621
21	0xbf02a0f6	-0.51026857
22	0x3bdb75c5	0.006697389
23	0x3d35bb62	0.044368155
24	0xbd85276b	-0.06501659
25	0x3f156c85	0.5836871
26	0x3c404cd4	0.011737067
27	0xbfa14c98	-1.26015
28	0xbd519e54	-0.051176384
29	0xbd13793e	-0.036004297
30	0x3cb419db	0.021984985
31	0x3e63d3c0	0.22248745
32	0xbf0035e1	-0.5008221
33	0xbfb58b52	-1.4183142
34	0x3a18568e	0.00058112375
35	0x3f28f83f	0.66003793
36	0x3c6ca0bf	0.014442622
37	0x3b7b2ba0	0.0038325563
38	0xbf941323	-1.156834
39	0x3e74389f	0.23849724
40	0x3ccf05a9	0.025271254
41	0x4014029f	2.31266
42	0x3c70d7df	0.014699905
43	0xbf14ea55	-0.5817006
44	0xbd91e9c1	-0.07124663
45	0xbc9a00ac	-0.018799148
46	0x3e69cc35	0.22831805
47	0xbe094167	-0.13403855
48	0xbcccf5fa	-0.025019635
49	0x3ca7edee	0.020499196
50	0xbc442ed9	-0.01197406
51	0x3f60e227	0.8784508
52	0xbb96b6af	-0.0045994143
53	0x3f1d2160	0.6137905
54	0xbfac237e	-1.3448331
55	0xbeb650db	-0.35608563
56	0xbd5c8f61	-0.053847674
57	0xbd3ab187	-0.04557946
58	0x3ecb6fe1	0.39733794
59	0x3f66afe8	0.9011216
60	0x3e8d2293	0.2756544
61	0xbe2e3fb0	-0.17016482
62	0xbec57ca2	-0.3857165
63	0x3b90afa1	0.004415468
64	0xbc2f89fe	-0.010714052
65	0xbe05c707	-0.13064204
66	0xbc11b4b7	-0.008893183
67	0x3b40b2fe	0.0029403563
68	0x3d314ec8	0.043288022
69	0xc0744f49	-3.8173392
70	0x3c4c0008	0.012451179
71	0xbdf94b9e	-0.12172626
72	0xbefb1c33	-0.49044952
73	0xbec58b5b	-0.38582882
74	0xbe572043	-0.210084
75	0x401f0d08	2.4851704
76	0x3ebec53d	0.37259856
77	0xbcd8543a	-0.02640735
78	0x3dae4f0e	0.08511172
79	0xbffac023	-1.9589885
80	0x3d05a989	0.032632384
81	0x3cef3a0a	0.02920248
82	0xbec01edb	-0.3752354
83	0xbf9f19bf	-1.2429732
84	0xbf0efbf8	-0.55853224
85	0x3f02e350	0.511281
86	0xbf967ea8	-1.1757402
87	0xbeec6af0	-0.46175337
88	0x3d2c2e7a	0.04203651
89	0x3f24abbd	0.6432455
90	0x3cee8f10	0.029120952
91	0x3ca7b878	0.020473704
92	0xbca7b1d5	-0.02047054
93	0x3f32475a	0.69640124
94	0xbd28053b	-0.041020613
95	0xbef7152f	-0.4825835
96	0xbd3eea09	-0.046609912
97	0x3f719104	0.943619
98	0x3e56ba41	0.20969488
99	0xbd41470a	-0.04718689
100	0xbcb5bf53	-0.022185957
101	0x3d022e43	0.0317824
102	0x3d202c51	0.039104763
103	0xbda9b57b	-0.08286568
104	0x3be85231	0.007089876
105	0x3c84db2f	0.016217796
106	0x3f0052e7	0.501265
107	0x3ec39790	0.3820157
108	0x3c58c34a	0.013230154
109	0x3cdf741c	0.027277045
110	0x3f2d5c8e	0.6771935
111	0xbefab4d2	-0.4896608
112	0xbe660d53	-0.2246602
113	0xbd239ec3	-0.03994633
114	0xbef9482b	-0.48687872
115	0x3eee6a6e	0.46565574
116	0x3b0c5468	0.0021412615
117	0x3dac88aa	0.08424504
118	0xbcd8816a	-0.026428897
119	0xbde1cd0c	-0.11025438
120	0xbc89f2d7	-0.016839428
121	0xbfc7fe74	-1.5624528
122	0xc018260f	-2.377323
123	0x3f31f531	0.6951476
124	0x3ba75d3a	0.005107549
125	0xbcc55a60	-0.024090946
126	0xbf119a16	-0.5687574
127	0xbf406631	-0.7515593
128	0xbf63c4bf	-0.88972086
129	0xbcb8086a	-0.02246495
130	0x3f46b1ef	0.77615255
131	0x3f9bc950	1.2170811
132	0xbc0f1456	-0.008732876
133	0xba82d57f	-0.000998184
134	0xbebbfb67	-0.36715242
135	0xbcd2b752	-0.02572218
136	0xbcf24b5a	-0.029576946
137	0x3bfd547c	0.0077310186
138	0xbce543b9	-0.027986394
139	0x3f1787e8	0.5919175
140	0x3fb9e60b	1.4523329
141	0xbf3af658	-0.7303214
142	0x3f578d65	0.84200126
143	0x3c8b1ba6	0.016980957
144	0x3b455f44	0.0030116597
145	0xbd3f4118	-0.046692938
146	0x3e8dd94e	0.27704853
147	0x3d383969	0.044976626
148	0xbd9547e1	-0.072891004
149	0x3f188bba	0.59588206
150	0x3cb2bd3a	0.021818746
151	0x40180c61	2.3757555
152	0xbd164e7c	-0.036695942
153	0xbedf4c37	-0.43612835
154	0x3c32a813	0.01090433
155	0x3ff34a2d	1.9007012
156	0x3d1206ae	0.0356509
157	0xbcb211d8	-0.021737024
158	0xbe10cc30	-0.14140391
159	0xbc82198c	-0.015881322
160	0x3caab3a8	0.02083762
161	0xbfdebbd7	-1.7401074
162	0xbc625e79	-0.013816469
163	0x3eca4154	0.39502966
164	0xbde55531	-0.111978896
165	0x3cc1ec9b	0.023672393
166	0xbc93948d	-0.01801517
167	0xbf2a4889	-0.6651693
168	0xbf0b4894	-0.5440762
169	0xbfdcf32e	-1.7261713
170	0xbfcdb2fb	-1.6070246
171	0x3cddb3a4	0.027063198
172	0x3c017cc3	0.007903281
173	0xbbb80d18	-0.0056167953
174	0x3f607550	0.87679005
175	0xbad963f5	-0.0016585576
176	0xbf330f39	-0.699451
177	0xbc8ddb17	-0.017316384
178	0xbc8a35a4	-0.016871281
179	0x3ed331c9	0.4124892
180	0x3b82a275	0.0039866515
181	0xbc81fa90	-0.015866548
182	0xbd427c16	-0.04748162
183	0x3d36b08a	0.044601955
184	0x3d3f787a	0.046745755
185	0xbef65e24	-0.481187
186	0x3e5a4417	0.21315037
187	0x3e92e3cf	0.2868943
188	0xbfad2ca3	-1.3529247
189	0x3effe987	0.49982855
190	0xbf4bd403	-0.7962038
191	0xbf4c8305	-0.7988742
192	0x3c01658e	0.007897748
193	0xbe7f1369	-0.24909748
194	0x3e6d1a7a	0.23154631
195	0x3d3ce09b	0.046112638
196	0x3cace0ae	0.02110323
197	0xbff43b2c	-1.9080558
198	0xbee8c59f	-0.45463273
199	0x3fc97dca	1.5741513
200	0xbffec7f1	-1.9904767
201	0xbd647b4c	-0.055781648
202	0xbcba662c	-0.022753797
203	0xbc2d331a	-0.010571266
204	0xbd41c518	-0.047307104
205	0xbd2e33c1	-0.042529825
206	0x3dda3477	0.10654538
207	0x3f18421e	0.59475887
208	0x3eb78a69	0.35847786
209	0x3cbc7387	0.023004306
210	0x3f0078c0	0.5018425
211	0xc0059d42	-2.0877233
212	0x3cdcdb08	0.026959911
213	0x3f8ab3de	1.0836141
214	0x3c110188	0.008850463
215	0x3bc93202	0.0061399946
216	0xbeb2f4b5	-0.34952322
217	0x3cd54165	0.02603216
218	0xbfd71fc1	-1.6806566
219	0xbf039e73	-0.5141365
220	0xc01938c1	-2.394089
221	0xbdafdc4c	-0.0858694
222	0xbd7adf43	-0.061248075
223	0x3d70814f	0.05871707
224	0xbb9cd892	-0.0047865594
225	0xbf1f43d2	-0.6221286
226	0x3f2f1a55	0.68399554
227	0xbe4987f8	-0.19680774
228	0xbcc86a98	-0.02446489
229	0xbf03f6db	-0.51548547
230	0x3d5fee97	0.054670896
231	0x3cbc5cd1	0.022993477
232	0x3d152b34	0.036418155
233	0xbca43eef	-0.02004954
234	0xbd3a1835	-0.045433242
235	0x3c4d54e4	0.0125324465
236	0x3c643f14	0.013931055
237	0xc00d5a9d	-2.2086556
238	0x3d2bbc6c	0.04192774
239	0x3d04735e	0.032336585
240	0xbdb0fa6e	-0.08641516
241	0xbd83534e	-0.064123735
242	0xbf0e2f75	-0.55541164
243	0x3f7d45b8	0.9893451
244	0xbf9d3de7	-1.2284516
245	0x3d11c854	0.03559144
246	0xc0076d05	-2.116029
247	0x3ecd8fb3	0.40148696
248	0xbbd027fe	-0.0063524237
249	0x3dc3926e	0.095494136
250	0xbf369542	-0.713215
251	0x3ecaf487	0.39639685
252	0xbfe28093	-1.7695488
253	0x3eb0fbec	0.345672
254	0xbf08bcb3	-0.5341293
255	0xbed3d12f	-0.41370532

predict.bias f4 [5]
0	0xc05ad5b1	-3.4192927
1	0xbfd74c69	-1.6820194
2	0xc044de39	-3.0760634
3	0xbfbd4b06	-1.478852
4	0xc0392b8d	-2.8932831

exp_avg f4 [256, 25]
0	0x3cb6580e	0.022258785
1	0x3caae416	0.020860713
2	0x3d400a84	0.04688503
3	0x3d0021ee	0.031282358
4	0xb9a4ba08	-0.00031419122
5	0x3cb6580e	0.022258785
6	0x3b2769e8	0.0025545303
7	0xbd25f13a	-0.040513255
8	0xbc4a6fd2	-0.012355762
9	0xb654bd00	-3.1700474e-06
10	0x3cb6580e	0.022258785
11	0xbbc1e61d	-0.005917324
12	0xbbffa492	-0.0078016007
13	0xbc808458	-0.015688106
14	0x38ba6618	8.8881876e-05
15	0x3cb6580e	0.022258785
16	0x3c8460b6	0.016159397
17	0xbd1b9c27	-0.037990715
18	0xbc783bf5	-0.015151014
19	0x39807233	0.00024499148
20	0x3cb6580e	0.022258785
21	0x3cbfc726	0.023410391
22	0xbb1fba42	-0.0024372493
23	0xbc632f4c	-0.013866257
24	0x3a80772c	0.0009801141
25	0x00000000	0.0
26	0x00000000	0.0
27	0x00000000	0.0
28	0x00000000	0.0
29	0x00000000	0.0
30	0x00000000	0.0
31	0x00000000	0.0
32	0x00000000	0.0
33	0x00000000	0.0
34	0x00000000	0.0
35	0x00000000	0.0
36	0x00000000	0.0
37	0x00000000	0.0
38	0x00000000	0.0
39	0x00000000	0.0
40	0x00000000	0.0
41	0x00000000	0.0
42	0x00000000	0.0
43	0x00000000	0.0
44	0x00000000	0.0
45	0x00000000	0.0
46	0x00000000	0.0
47	0x00000000	0.0
48	0x00000000	0.0
49	0x00000000	0.0
50	0x00000000	0.0
51	0x00000000	0.0
52	0x00000000	0.0
53	0x00000000	0.0
54	0x00000000	0.0
55	0x00000000	0.0
56	0x00000000	0.0
57	0x00000000	0.0
58	0x00000000	0.0
59	0x00000000	0.0
60	0x00000000	0.0
61	0x00000000	0.0
62	0x00000000	0.0
63	0x00000000	0.0
64	0x00000000	0.0
65	0x00000000	0.0
66	0x00000000	0.0
67	0x00000000	0.0
68	0x00000000	0.0
69	0x00000000	0.0
70	0x00000000	0.0
71	0x00000000	0.0
72	0x00000000	0.0
73	0x00000000	0.0
74	0x00000000	0.0
75	0xbce8360a	-0.02834608
76	0xbcf2f43a	-0.029657472
77	0x3992a140	0.0002796743
78	0xbd92b765	-0.07163886
79	0xb98c19c4	-0.00026722078
80	0xbce8360a	-0.02834608
81	0x3be651d2	0.0070287967
82	0xbd7874a1	-0.0606581
83	0x3ca014b4	0.019541122
84	0x390f6f52	0.00013679013
85	0xbce8360a	-0.02834608
86	0xb95bc560	-0.00020958995
87	0xbd854527	-0.065073304
88	0x3ca57390	0.020196706
89	0xb4bd2600	-3.5231642e-07
90	0xbce8360a	-0.02834608
91	0xbccfbd24	-0.025358744
92	0xbcc4790c	-0.0239835
93	0x3c96ede4	0.018423982
94	0x39e06c7b	0.00042805434
95	0xbce8360a	-0.02834608
96	0xbd4ce64d	-0.05002432
97	0xbd90be9c	-0.07067606
98	0x3ca73e1e	0.020415362
99	0x3a08bb8d	0.00052159355
100	0x00000000	0.0
101	0x00000000	0.0
102	0x00000000	0.0
103	0x00000000	0.0
104	0x00000000	0.0
105	0x00000000	0.0
106	0x00000000	0.0
107	0x00000000	0.0
108	0x00000000	0.0
109	0x00000000	0.0
110	0x00000000	0.0
111	0x00000000	0.0
112	0x00000000	0.0
113	0x00000000	0.0
114	0x00000000	0.0
115	0x00000000	0.0
116	0x00000000	0.0
117	0x00000000	0.0
118	0x00000000	0.0
119	0x00000000	0.0
120	0x00000000	0.0
121	0x00000000	0.0
122	0x00000000	0.0
123	0x00000000	0.0
124	0x00000000	0.0
125	0x00000000	0.0
126	0x00000000	0.0
127	0x00000000	0.0
128	0x00000000	0.0
129	0x00000000	0.0
130	0x00000000	0.0
131	0x00000000	0.0
132	0x00000000	0.0
133	0x00000000	0.0
134	0x00000000	0.0
135	0x00000000	0.0
136	0x00000000	0.0
137	0x00000000	0.0
138	0x00000000	0.0
139	0x00000000	0.0
140	0x00000000	0.0
141	0x00000000	0.0
142	0x00000000	0.0
143	0x00000000	0.0
144	0x00000000	0.0
145	0x00000000	0.0
146	0x00000000	0.0
147	0x00000000	0.0
148	0x00000000	0.0
149	0x00000000	0.0
150	0x0213679d	1.082959e-37
151	0x0213679d	1.082959e-37
152	0x0212cd8e	1.0785377e-37
153	0x0218060c	1.1168932e-37
154	0x021cbbc7	1.1514959e-37
155	0x0213679d	1.082959e-37
156	0x0210819c	1.0616645e-37
157	0x021b7fbc	1.142426e-37
158	0x821def45	-1.1603205e-37
159	0x821cbbad	-1.151493e-37
160	0x0213679d	1.082959e-37
161	0x8213fa07	-1.0871609e-37
162	0x821976d9	-1.1274772e-37
163	0x821c80b6	-1.1498008e-37
164	0x821cbbad	-1.151493e-37
165	0x0213679d	1.082959e-37
166	0x021f5a26	1.1707346e-37
167	0x8212cd8e	-1.0785377e-37
168	0x8215a0a3	-1.0992892e-37
169	0x821cbbad	-1.151493e-37
170	0x0213679d	1.082959e-37
171	0x021583b3	1.0984587e-37
172	0x021b8085	1.1424485e-37
173	0x8213b0ca	-1.085059e-37
174	0x821cbbad	-1.151493e-37
175	0x2f3cdf84	1.7177909e-10
176	0x2f3cdf84	1.7177909e-10
177	0x2efbd184	1.1451376e-10
178	0x2e7258d3	5.510332e-11
179	0x27490d1f	2.7901466e-15
180	0x2f3cdf84	1.7177909e-10
181	0xacc27b59	-5.527506e-12
182	0xaefbd184	-1.1451376e-10
183	0xad80bfd0	-1.4637097e-11
184	0xa7490d1f	-2.7901466e-15
185	0x2f3cdf84	1.7177909e-10
186	0xacea26d9	-6.654993e-12
187	0xae7bce61	-5.7254094e-11
188	0xad5cf097	-1.2558974e-11
189	0xa7490d1f	-2.7901466e-15
190	0x2f3cdf84	1.7177909e-10
191	0x2e1e236f	3.5956512e-11
192	0xaefbd184	-1.1451376e-10
193	0xad43831d	-1.111358e-11
194	0xa7490d13	-2.790144e-15
195	0x2f3cdf84	1.7177909e-10
196	0x2e6d9db8	5.4027643e-11
197	0x27cbe93c	5.659669e-15
198	0xad26a7c5	-9.47326e-12
199	0xa7490d13	-2.790144e-15
200	0xbe35236a	-0.1768929
201	0xbe300f57	-0.17193352
202	0xbc8142a8	-0.015778854
203	0xbd63e142	-0.055634744
204	0xb9ba95ee	-0.0003558839
205	0xbe35236a	-0.1768929
206	0xbbb76306	-0.0055965213
207	0xbdd16502	-0.10224344
208	0x3c7ee5d0	0.015557721
209	0x3972e08f	0.00023162573
210	0xbe35236a	-0.1768929
211	0xbc58acd1	-0.013224796
212	0xbc35e4fa	-0.011101956
213	0x3c2c925e	0.0105329435
214	0x3a0b4c5a	0.00053138065
215	0xbe35236a	-0.1768929
216	0xbd2c4205	-0.04205515
217	0xbd19ffd0	-0.037597477
218	0x3c1791c0	0.009251058
219	0x39c99a77	0.00038452793
220	0xbe35236a	-0.1768929
221	0xbd77af16	-0.06046971
222	0xbd830c02	-0.06398775
223	0x3c4063ea	0.011742571
224	0x3907c17c	0.00012946682
225	0x00000000	0.0
226	0x00000000	0.0
227	0x00000000	0.0
228	0x00000000	0.0
229	0x00000000	0.0
230	0x00000000	0.0
231	0x00000000	0.0
232	0x00000000	0.0
233	0x00000000	0.0
234	0x00000000	0.0
235	0x00000000	0.0
236	0x00000000	0.0
237	0x00000000	0.0
238	0x00000000	0.0
239	0x00000000	0.0
240	0x00000000	0.0
241	0x00000000	0.0
242	0x00000000	0.0
243	0x00000000	0.0
244	0x00000000	0.0
245	0x00000000	0.0
246	0x00000000	0.0
247	0x00000000	0.0
248	0x00000000	0.0
249	0x00000000	0.0
250	0x3da612d4	0.0810906
251	0x3d994d3e	0.07485436
252	0xbc2ececc	-0.010669421
253	0x3ccc4592	0.024935517
254	0x395d6af4	0.00021116046
255	0x3da612d4	0.0810906

exp_avg_sq f4 [256, 25]
0	0x3e9aedac	0.30259454
1	0x3e991e38	0.29905868
2	0x3dd8c208	0.105838835
3	0x3d65566c	0.05599062
4	0x37666e8f	1.373481e-05
5	0x3e9aedac	0.30259454
6	0x3ad0a5e9	0.0015918586
7	0x3d56004c	0.052246377
8	0x3b8b1f62	0.0042456845
9	0x37b51a0f	2.1589016e-05
10	0x3e9aedac	0.30259454
11	0x3bede741	0.0072602336
12	0x3d379cf3	0.044827413
13	0x3ba00925	0.0048839026
14	0x37861f35	1.5988577e-05
15	0x3e9aedac	0.30259454
16	0x3cc882d4	0.024476446
17	0x3d2be3b6	0.04196521
18	0x3b9551e7	0.0045568827
19	0x376ddcf4	1.41777455e-05
20	0x3e9aedac	0.30259454
21	0x3d84af6d	0.06478772
22	0x3d2dc9fe	0.042428963
23	0x3b89b73c	0.0042027514
24	0x37771eaa	1.4729487e-05
25	0x00000000	0.0
26	0x00000000	0.0
27	0x00000000	0.0
28	0x00000000	0.0
29	0x00000000	0.0
30	0x00000000	0.0
31	0x00000000	0.0
32	0x00000000	0.0
33	0x00000000	0.0
34	0x00000000	0.0
35	0x00000000	0.0
36	0x00000000	0.0
37	0x00000000	0.0
38	0x00000000	0.0
39	0x00000000	0.0
40	0x00000000	0.0
41	0x00000000	0.0
42	0x00000000	0.0
43	0x00000000	0.0
44	0x00000000	0.0
45	0x00000000	0.0
46	0x00000000	0.0
47	0x00000000	0.0
48	0x00000000	0.0
49	0x00000000	0.0
50	0x00000000	0.0
51	0x00000000	0.0
52	0x00000000	0.0
53	0x00000000	0.0
54	0x00000000	0.0
55	0x00000000	0.0
56	0x00000000	0.0
57	0x00000000	0.0
58	0x00000000	0.0
59	0x00000000	0.0
60	0x00000000	0.0
61	0x00000000	0.0
62	0x00000000	0.0
63	0x00000000	0.0
64	0x00000000	0.0
65	0x00000000	0.0
66	0x00000000	0.0
67	0x00000000	0.0
68	0x00000000	0.0
69	0x00000000	0.0
70	0x00000000	0.0
71	0x00000000	0.0
72	0x00000000	0.0
73	0x00000000	0.0
74	0x00000000	0.0
75	0x3e83df09	0.257561
76	0x3e832f94	0.25622237
77	0x3d044eb1	0.03230161
78	0x3d5088a6	0.050911568
79	0x3707f0a5	8.1026565e-06
80	0x3e83df09	0.257561
81	0x3a2e7b01	0.0006655902
82	0x3d652098	0.055939287
83	0x3b908705	0.004410627
84	0x379a8566	1.8420349e-05
85	0x3e83df09	0.257561
86	0x3bad3101	0.0052853827
87	0x3cf0943b	0.029367557
88	0x3b97a1ea	0.004627456
89	0x38625904	5.39655e-05
90	0x3e83df09	0.257561
91	0x3cb35df6	0.02189539
92	0x3d871a34	0.06596795
93	0x3b899ffb	0.0041999794
94	0x38605808	5.3487747e-05
95	0x3e83df09	0.257561
96	0x3d604e17	0.054761972
97	0x3d40f54d	0.047108937
98	0x3b926967	0.0044681313
99	0x3735bfc2	1.0833088e-05
100	0x00000000	0.0
101	0x00000000	0.0
102	0x00000000	0.0
103	0x00000000	0.0
104	0x00000000	0.0
105	0x00000000	0.0
106	0x00000000	0.0
107	0x00000000	0.0
108	0x00000000	0.0
109	0x00000000	0.0
110	0x00000000	0.0
111	0x00000000	0.0
112	0x00000000	0.0
113	0x00000000	0.0
114	0x00000000	0.0
115	0x00000000	0.0
116	0x00000000	0.0
117	0x00000000	0.0
118	0x00000000	0.0
119	0x00000000	0.0
120	0x00000000	0.0
121	0x00000000	0.0
122	0x00000000	0.0
123	0x00000000	0.0
124	0x00000000	0.0
125	0x00000000	0.0
126	0x00000000	0.0
127	0x00000000	0.0
128	0x00000000	0.0
129	0x00000000	0.0
130	0x00000000	0.0
131	0x00000000	0.0
132	0x00000000	0.0
133	0x00000000	0.0
134	0x00000000	0.0
135	0x00000000	0.0
136	0x00000000	0.0
137	0x00000000	0.0
138	0x00000000	0.0
139	0x00000000	0.0
140	0x00000000	0.0
141	0x00000000	0.0
142	0x00000000	0.0
143	0x00000000	0.0
144	0x00000000	0.0
145	0x00000000	0.0
146	0x00000000	0.0
147	0x00000000	0.0
148	0x00000000	0.0
149	0x00000000	0.0
150	0x00000000	0.0
151	0x00000000	0.0
152	0x00000000	0.0
153	0x00000000	0.0
154	0x00000000	0.0
155	0x00000000	0.0
156	0x00000000	0.0
157	0x00000000	0.0
158	0x00000000	0.0
159	0x00000000	0.0
160	0x00000000	0.0
161	0x00000000	0.0
162	0x00000000	0.0
163	0x00000000	0.0
164	0x00000000	0.0
165	0x00000000	0.0
166	0x00000000	0.0
167	0x00000000	0.0
168	0x00000000	0.0
169	0x00000000	0.0
170	0x00000000	0.0
171	0x00000000	0.0
172	0x00000000	0.0
173	0x00000000	0.0
174	0x00000000	0.0
175	0x3a446237	0.0007491442
176	0x3a446220	0.00074914284
177	0x39400535	0.00018312487
178	0x38cc566b	9.7435746e-05
179	0x3388a5f1	6.363178e-08
180	0x3a446237	0.0007491442
181	0x354d5abe	7.65005e-07
182	0x393fbb49	0.00018284949
183	0x3741f5ca	1.1560924e-05
184	0x3388a683	6.363282e-08
185	0x3a446237	0.0007491442
186	0x3663c2a9	3.3938943e-06
187	0x380191c6	3.089176e-05
188	0x3705b046	7.96846e-06
189	0x3388f5f5	6.377733e-08
190	0x3a446237	0.0007491442
191	0x3840d41e	4.5973917e-05
192	0x393d26a1	0.00018038835
193	0x37290bb1	1.0075907e-05
194	0x338d8821	6.590586e-08
195	0x3a446237	0.0007491442
196	0x38a594cf	7.895531e-05
197	0x384f454f	4.9417195e-05
198	0x36f61f91	7.335046e-06
199	0x3388b043	6.365055e-08
200	0x3e776cc5	0.24162586
201	0x3e758b41	0.23978902
202	0x3d6e6c6d	0.05820887
203	0x3d1ba130	0.037995517
204	0x36b7f785	5.48264e-06
205	0x3e776cc5	0.24162586
206	0x3a2c1e8f	0.0006565833
207	0x3d917b0b	0.07103547
208	0x3b454e3f	0.0030106453
209	0x37253625	9.847373e-06
210	0x3e776cc5	0.24162586
211	0x3b83d43f	0.0040231044
212	0x3cd3f357	0.02587287
213	0x3b41ac29	0.0029552078
214	0x370a907b	8.2590805e-06
215	0x3e776cc5	0.24162586
216	0x3c8eef2e	0.017448034
217	0x3d2c1581	0.042012695
218	0x3b473de4	0.003040188
219	0x36ffc94a	7.6230253e-06
220	0x3e776cc5	0.24162586
221	0x3d24002b	0.040039223
222	0x3d43c69d	0.047796834
223	0x3b4580cc	0.0030136583
224	0x37182d4f	9.070455e-06
225	0x00000000	0.0
226	0x00000000	0.0
227	0x00000000	0.0
228	0x00000000	0.0
229	0x00000000	0.0
230	0x00000000	0.0
231	0x00000000	0.0
232	0x00000000	0.0
233	0x00000000	0.0
234	0x00000000	0.0
235	0x00000000	0.0
236	0x00000000	0.0
237	0x00000000	0.0
238	0x00000000	0.0
239	0x00000000	0.0
240	0x00000000	0.0
241	0x00000000	0.0
242	0x00000000	0.0
243	0x00000000	0.0
244	0x00000000	0.0
245	0x00000000	0.0
246	0x00000000	0.0
247	0x00000000	0.0
248	0x00000000	0.0
249	0x00000000	0.0
250	0x3eabc770	0.33550596
251	0x3eaaae25	0.33335987
252	0x3d96db53	0.073660515
253	0x3d6c17e6	0.05763998
254	0x37559800	1.273118e-05
255	0x3eabc770	0.33550596
