highway_ddqn/ddqn_tuned_reward_change/checkpoint-11000.tar (torch, 892362 bytes, 18 tensors)

layers.0.weight f4 [256, 25]
000000 d0 35 5d be b1 8f 67 3e 71 69 65 bc bf 52 dd be
       -0.21602559 0.22613408 -0.01400219 -0.43227193
000010 dc 56 15 40 9e a2 d2 bd 75 06 82 40 16 47 d4 bf
       2.3334265 -0.10284923 4.063288 -1.6584194
000020 74 6d bd 3e 1a b3 a6 c0 01 61 e2 bc 6f cd 70 3e
       0.3699757 -5.209363 -0.027634146 0.23515867
000030 2b ad f2 39 54 b1 c5 be 37 8e ec bd 78 f5 03 bc
       0.00046286857 -0.38611853 -0.11550563 -0.00805413
000040 d9 55 01 3f 29 73 b2 be 09 5b aa be 03 8c 1b c0
       0.5052162 -0.34853485 -0.3327258 -2.4304206
000050 58 5c 06 3e 49 9c 8c be 1e 9b 1b 3e 52 17 93 be
       0.13121164 -0.27462986 0.15195891 -0.2872873
000060 dc c5 c7 bf 6d c4 0b be 23 df 09 be 58 3f 2e be
       -1.5607257 -0.13649149 -0.13464026 -0.17016351
000070 30 03 86 3d cd 11 f3 3b ed 33 d3 bd ca 53 98 bd
       0.06543577 0.0074178935 -0.103126384 -0.074378565
000080 07 6f 3e 3e 1a 4b 0f 3d 33 28 ec bc 27 88 2e 3d
       0.18597041 0.03498373 -0.028827762 0.042610314
000090 87 bf 6a 3d 10 10 1c 3e fa dc 01 bd 7d 1d 37 3e
       0.05731156 0.15240502 -0.03170488 0.17882343
0000a0 c5 5d 31 be 40 3b 49 3d a7 c2 90 bc e5 26 2c 3e
       -0.17320926 0.04912877 -0.017670942 0.16811712
0000b0 a8 b0 13 be 00 b0 7f 3a 33 8f 6b bc 97 29 8a bd
       -0.14422858 0.0009753704 -0.014377403 -0.06746214
0000c0 00 66 a3 bc 73 24 0a be da ae 11 bd fa 53 18 bd
       -0.019946098 -0.13490467 -0.035567142 -0.03718946
0000d0 da 9b cc 3c 9a ad 12 bc 97 c0 de bd 83 8e a1 bd
       0.02497666 -0.008952523 -0.10876577 -0.0788851
0000e0 33 09 32 bd 4d 53 bd 3d f3 13 95 3d 13 35 57 bd
       -0.043465804 0.09244404 0.07279196 -0.05254085
0000f0 0d ea 06 bd 95 a1 26 be 9a 97 51 3b 73 c0 eb bc
       -0.032938052 -0.16272576 0.003198123 -0.02877829
000100 d0 49 03 3e e0 78 6b bd da f8 67 3d 67 ac 7b bd
       0.12821126 -0.057488322 0.056633808 -0.061443713
000110 4b d8 07 be 5f cd 17 be aa 94 13 be 13 2f fb 3d
       -0.13266103 -0.14824437 -0.1441218 0.12264838
000120 7d 50 f7 bd 1b e2 03 3e 6d f2 5a bd 63 95 57 be
       -0.12075899 0.12879221 -0.05345385 -0.2105308
000130 e8 fc bb 3b 4c 0c 1b 3f 3d d0 01 3f 40 0c a8 3e
       0.005736936 0.6056564 0.5070837 0.32821846
000140 5e 28 75 3d f8 6b 0c bf 80 24 2b 3f 0b 17 dc bd
       0.05985295 -0.5485225 0.6685257 -0.107465826
000150 ca 58 b0 3f 72 a5 12 3d c0 45 2f bf fa 74 fa bd
       1.3777096 0.035802312 -0.68465805 -0.12229343
000160 50 d6 68 be 32 6c 27 bf 2f 65 60 be 64 84 c9 3f
       -0.22738004 -0.6539947 -0.21913598 1.5743527
000170 de b7 ba 3f f6 98 9c 3e 3d ce ab 3e 53 8e a1 3d
       1.4587362 0.3058545 0.33555785 0.07888474
000180 76 8a 99 3e 26 3d 9a be 45 fb ae 3e ff fe b1 3d
       0.2998845 -0.30124778 0.34176078 0.08691215
000190 cd 6c 43 3b 0d 95 05 be e7 86 3c be 55 e8 2f be
       0.002981949 -0.1304514 -0.18410836 -0.17178471
0001a0 d8 82 1d 3e e0 c1 87 bd 4a 38 4b 3e b3 7c e4 bd
       0.15381944 -0.066287756 0.19845691 -0.11156597
0001b0 dd 87 18 3e 4a e1 03 3e 7d 7b 94 3d 9d 41 c4 bd
       0.14895578 0.1287891 0.07250116 -0.09582827
0001c0 33 a0 35 bd 63 2c cc bd b3 c5 ea bd ea f4 0b be
       -0.04434223 -0.099694036 -0.114634894 -0.13667646
0001d0 c0 73 b8 bd aa 69 4c 3e 8a 4d 23 be 43 58 e3 bd
       -0.090064526 0.19962183 -0.15947548 -0.11100819
0001e0 c8 d0 33 be 00 88 06 bd a0 33 d3 bd 77 39 84 3d
       -0.17560112 -0.032844543 -0.10312581 0.06456273
0001f0 80 92 cd bc 38 6e 0a be 93 a6 1e bd ca 38 94 bd
       -0.02509427 -0.13518608 -0.038733076 -0.07237394
000200 70 07 c1 3d 00 90 dd bd e3 52 a6 bd 2b f2 02 3e
       0.09425247 -0.108184814 -0.08121278 0.12787692
000210 00 bc 1b 3e 93 3e 4b be 7d e1 2e 3e 33 9b 7f bb
       0.15208435 -0.19848089 0.17078204 -0.0039002418
000220 fb 2f 0d be 5a c6 7c bd 87 ae 35 bd 73 5d ad 3c
       -0.13787834 -0.0617126 -0.044355895 0.021162724
000230 ed 51 bd 3d 80 73 21 be 27 4e e0 bc 82 26 0f 3e
       0.09244142 -0.15766716 -0.027381016 0.13979533
000240 05 5e 36 be 0b 59 32 be d3 d8 06 3d 8b 10 33 3e
       -0.17809303 -0.1741678 0.032921623 0.1748678
000250 4d 0a 57 bd d5 9b 09 3e f1 82 4b be dd 6f ab be
       -0.052500058 0.13438351 -0.19874169 -0.33483782
000260 68 ba 4d 3f b8 c5 5e 3f fe b1 9d 3e 35 a3 55 be
       0.8036256 0.87020445 0.3079986 -0.2086304
000270 11 4d 70 3e e5 41 cb 3e 7b c0 0a bf 14 b8 b6 3e
       0.23466899 0.3969871 -0.5419995 0.35687315
000280 18 02 81 be 7d 50 58 bf ac d2 89 be 9b b0 1f bf
       -0.2519691 -0.84497815 -0.26918542 -0.62378854
000290 bb 56 7d 3e 0d 97 60 be 78 f6 a7 bf f4 91 89 be
       0.24740116 -0.21932621 -1.3122091 -0.26869166
0002a0 49 e4 9c bf 7d 05 09 3e 64 30 0d be 18 0f 03 3f
       -1.2257167 0.13381 -0.13787991 0.51194906
0002b0 6f dc 11 3f 50 1b 76 bf 36 40 38 bf 6c 28 9c 3d
       0.5697698 -0.96135426 -0.7197298 0.07624897
0002c0 6b 41 14 3e 39 5c ba be 48 9c 5a 3f 6c c6 08 bf
       0.1447808 -0.36398485 0.85394716 -0.5342777
0002d0 82 30 61 be 19 28 d7 bf 7a 92 4a bf 89 cb 53 bf
       -0.2199116 -1.6809112 -0.79129755 -0.82732445
0002e0 11 4b 9d bf 09 9c 4c bd 11 56 b2 bf 5f dc d4 3c
       -1.2288533 -0.049953494 -1.3932515 0.025983987
0002f0 e0 75 1e bf c9 d5 46 be fa 04 b2 bd 2f 7d ed bd
       -0.6189861 -0.1941749 -0.086923555 -0.115961425
000300 04 d6 26 bf 6f 82 52 bf f3 d0 c3 be 26 e1 29 be
       -0.6517031 -0.82230276 -0.38245353 -0.16589794
000310 60 db b0 3d d5 50 a3 3f 89 d3 2b be df 30 62 3f
       0.086355925 1.2759043 -0.16779913 0.8835582
000320 92 42 b2 bc 07 2b 5c 3c 54 df 8b 3e d6 2f a5 3f
       -0.021760259 0.013437993 0.27318823 1.2905223
000330 61 34 e2 be f1 61 3c be 78 6a 73 bf aa 4a 3e 3f
       -0.44180587 -0.18396737 -0.95084333 0.7433268
000340 44 4d cd be 47 f5 c5 3e 2b f7 a2 bd 64 a7 b6 bf
       -0.40098011 0.38663694 -0.079573 -1.4269834
000350 06 e0 37 3c c6 c6 33 bf 64 5e c3 be dd 45 50 be
       0.011222845 -0.7022518 -0.38157952 -0.2033915
000360 67 ee 6f 3f a7 7b 53 bf 2d fd 17 3f 64 bc 6d bd
       0.9372315 -0.82610554 0.5937069 -0.05804099
000370 6b 09 a7 bd 63 dc 1c 3f 5f 48 34 bf 54 ed 8a 3e
       -0.08156093 0.61273783 -0.7042293 0.27134192
000380 ca 93 4d bf ed 78 40 3d 7a b6 eb bd 8a 4b 31 3e
       -0.80303633 0.046990324 -0.11509414 0.17313972
000390 73 d0 0f be 3a 28 69 3d 8d d6 f9 bd 30 7f 06 be
       -0.14044361 0.05692313 -0.121991254 -0.13134456
0003a0 df df 19 3e a7 cc c6 bd c7 51 a8 bd 9a 8c 0a bc
       0.15026806 -0.09707003 -0.08218723 -0.008456374
0003b0 dd 73 8e bd 00 50 61 ba ba 64 73 bd fa 9b 33 bd
       -0.06955693 -0.000859499 -0.059422232 -0.043849923
0003c0 03 23 bb bd 4a 68 c3 bd e7 90 44 bc 5f 2c 4b be
       -0.09137537 -0.09541376 -0.011997438 -0.19841145
0003d0 d7 d7 a5 bd e7 90 96 bc 60 f0 8c 3d 2a 47 45 3e
       -0.08097809 -0.018379642 0.068817854 0.19265428
0003e0 bd cc 3a 3e 3d 05 a4 3d e7 a6 97 3e f8 4e 8e 3c
       0.18242164 0.080088116 0.29619524 0.01737164
0003f0 2a 1f 2a bf 64 33 d7 be bc 1f a4 bf ed 7f eb 3e
       -0.664538 -0.42031395 -1.2822185 0.45996037

layers.0.bias f4 [256]
000000 12 01 f7 3d c0 e6 98 bc 20 7c 37 3e da b7 0c be
       0.12060751 -0.018664718 0.17918444 -0.13742009
000010 60 de a2 3d 1d f5 87 bd 69 0a d4 be 36 d9 7a bd
       0.07952571 -0.066385485 -0.41414192 -0.061242305
000020 1d c1 83 bd f0 50 8f 3d aa 76 45 3e 13 be 5b 3d
       -0.06433318 0.069978595 0.19283548 0.053648066
000030 ec df 45 be d4 a9 06 3e c6 23 bd 3d 8c 0a 0a bd
       -0.193237 0.13150722 0.09235339 -0.033701465
000040 48 d8 0a 3d 96 8b d6 bd 8e d9 83 3d 78 bd d4 3c
       0.033897668 -0.10475843 0.0643798 0.025969252
000050 c7 14 8a be 27 57 2c be 36 08 00 be 1c 9f 27 bd
       -0.26968977 -0.16830121 -0.12503132 -0.040923223
000060 8b 8a 59 3c 60 63 fd bd 53 18 c3 bd 3c 88 0c be
       0.01327766 -0.1237247 -0.09526124 -0.13723844
000070 60 c3 46 bd ec 3c a5 3d 35 89 80 be cf 40 2e 3e
       -0.048526168 0.080682606 -0.2510468 0.1701691
000080 2b 6f 1e 3e a0 76 21 3d 89 f4 dd 3d c0 50 1d be
       0.15472095 0.03941977 0.10837657 -0.15362835
000090 27 47 89 bd a2 3d 3c be 38 b7 65 be 60 f6 e4 bd
       -0.06703024 -0.18382886 -0.22433174 -0.11179805
0000a0 be a7 ec be 7f 8a 89 be 28 30 8b be e7 fe 26 be
       -0.46221727 -0.26863477 -0.27185178 -0.16308175
0000b0 dd 13 1f bc 7e 4b 7e be 91 e0 35 be 6b e6 57 3d
       -0.009709326 -0.24833485 -0.17761447 0.052709978
0000c0 01 31 4c 3d e2 ab d8 bc 38 df b7 3d ff 26 14 be
       0.04985142 -0.026449148 0.089781225 -0.14468001
0000d0 2e 6d 22 be af 75 8c be 47 ea 46 3e 00 b1 88 b9
       -0.15861961 -0.27433535 0.19425307 -0.00026071817
0000e0 62 d1 24 bc 10 3a fa bd 9f bc ec bc cd 15 2a be
       -0.010059686 -0.12218106 -0.028898535 -0.16609879
0000f0 28 28 49 be a3 04 a6 3d 41 da 2d be 5b 5f 42 3c
       -0.19644225 0.08106353 -0.16977789 0.011863555
000100 4c 70 47 be a8 49 64 3e 1a 04 3f be c0 f1 93 bb
       -0.19476432 0.22293723 -0.18653908 -0.004514903
000110 fb fe 3b be ea 88 b5 bc f3 ed 14 3d 90 fe 85 be
       -0.18358986 -0.022160012 0.03635974 -0.26170778
000120 c4 9f 58 be ea 1a c8 3d 73 55 2e 3e d2 a9 2d be
       -0.21154696 0.097707585 0.17024784 -0.16959313
000130 2a df 41 be 85 1f f9 3d fa f9 1a be c4 ce 2c 3b
       -0.18932787 0.12164215 -0.15134421 0.002636836
000140 a9 87 d8 bd 92 5a ca bc 96 77 3d 3e 3d b9 a2 bd
       -0.1057275 -0.02470139 0.1850265 -0.07945488
000150 60 75 44 3d 08 85 2d be 3f 9c 93 3e a5 f7 4e bd
       0.0479635 -0.16945279 0.28830144 -0.05052914
000160 d7 0a 9b bd bd f6 9d 3e 0d ed e5 3e b0 64 62 bd
       -0.07570427 0.3085231 0.44907418 -0.055271804
000170 9a 7b ac bd 77 7c b2 3d ab 8f 92 bd 47 9e 07 be
       -0.084220126 0.08715146 -0.07156309 -0.13243972
000180 cf c5 c8 bc d3 16 0b be 23 57 21 be fa ac 62 be
       -0.024508385 -0.13582925 -0.15755896 -0.22136298
000190 85 f3 d7 3d 3f 05 46 3e ac 9c 03 3e 08 82 94 be
       0.105444945 0.19337939 0.12852734 -0.29005456
0001a0 b8 25 96 bd 67 96 cf bb 91 c3 df bd 71 c0 2c 3d
       -0.07331413 -0.006335068 -0.10925973 0.042175714
0001b0 73 77 10 3d c4 cc 54 bb d4 00 49 bd 10 f4 20 3e
       0.035270166 -0.0032470683 -0.049073055 0.15718102
0001c0 9d ef bc bd fe 7a 87 3d 95 98 18 be cd e3 a4 bc
       -0.0922539 0.06615256 -0.14901955 -0.020128155
0001d0 38 14 7b be 78 13 f1 bd 9d e1 89 be e6 be bd bd
       -0.24519432 -0.117712915 -0.26929942 -0.092649266
0001e0 4b e2 ef 3d dc 57 f9 bd c4 b4 06 be e0 9c 80 be
       0.11713084 -0.12174961 -0.13154894 -0.25119686
0001f0 f0 9c 17 3e 79 fb db bd c3 25 8c bd 98 c9 a2 be
       0.1480596 -0.10741324 -0.0684314 -0.3179443
000200 c4 ef 2d 3e 73 98 44 3e b3 a1 eb bc ea 51 0f be
       0.16985995 0.1919878 -0.028763628 -0.13996091
000210 ca 6e f6 bd 1f 7b 16 bd 48 10 7a 3c 43 7a 52 bd
       -0.1203285 -0.03673851 0.015262671 -0.05138613
000220 3f cf ad be 22 54 82 3d bc b1 43 be bf 32 b0 bd
       -0.3394718 0.06363703 -0.19110769 -0.08603429
000230 82 4a 18 be d3 4a f4 3d e3 7b 20 be 05 92 1d 3c
       -0.14872172 0.11928334 -0.15672259 0.009617333
000240 5d 78 d8 3d d3 48 21 be 2a 0d c5 3c cc 12 65 3a
       0.105698325 -0.15750436 0.024054129 0.00087384577
000250 1d e6 9d bd 4a c3 22 be a5 68 3a be d3 9d b2 be
       -0.07709906 -0.1589481 -0.18203981 -0.34886035
000260 12 e2 4b be f6 09 ec bd c6 5b f5 bd 53 cd 4e 3d
       -0.19910458 -0.115253374 -0.11980395 0.05048878
000270 9a 27 b5 3e e2 65 d4 be 00 77 ab 3b 2b f0 e9 bb
       0.35381776 -0.4148398 0.0052326918 -0.007139226
000280 22 7b 07 3e db d2 06 3d f2 5a 96 3c 79 3d ee 3c
       0.13230565 0.03291593 0.018353913 0.029082047
000290 e3 b9 cf 3d b3 b6 be bd 53 a7 dc bd 00 47 8a bd
       0.10142877 -0.09312191 -0.10774102 -0.067518234
0002a0 af 3c 7e bd 6c dc 8c be da 18 c3 bd 71 9e 61 be
       -0.06206959 -0.2751192 -0.095262244 -0.22033097
0002b0 70 c5 80 be bd 3c 88 bd 21 61 22 3e 74 88 6d 3e
       -0.25150633 -0.0665221 0.15857364 0.23196584
0002c0 a0 50 f0 be bf 59 1f bd e2 bd 82 be 70 d6 08 be
       -0.46936512 -0.038903948 -0.25535494 -0.13363051
0002d0 68 58 2b 3d 80 50 0d 3c cd 7c 2f be 84 97 1a 3d
       0.041832358 0.00862515 -0.17137451 0.037742153
0002e0 a3 2b f6 bd 6a 32 7a 3e c2 fa 07 3e e7 90 10 be
       -0.12020042 0.24433294 0.1327925 -0.14117776
0002f0 ad f2 eb bd 2e d9 cb bb c2 31 13 3e f0 32 b1 3d
       -0.11520896 -0.006220958 0.1437445 0.08652294
000300 2b a1 16 3e 9a 73 51 bc 14 37 1c be 17 92 89 bc
       0.14709918 -0.012783909 -0.15255386 -0.016793294
000310 1b ca 36 be b4 40 8d bd 9e e0 11 be 77 c8 8a be
       -0.17850535 -0.06897107 -0.14245841 -0.27106068
000320 86 d2 4e bc d2 8d 9d 3b 5c 36 97 bd b2 36 cc bd
       -0.012623435 0.004808166 -0.07383415 -0.0997137
000330 94 cc 89 3d e3 c0 b0 be a0 9c 8f bd 6a 8f bb be
       0.06728473 -0.3452216 -0.07012296 -0.36632854
000340 39 ec 29 3d c6 c6 ae 3f 4b f9 d3 bc e1 c4 a2 3d
       0.041485045 1.3654411 -0.025875708 0.07947708
000350 d2 d3 4c be 5d ac 70 3d 14 3a be bd 0d a7 45 be
       -0.20002678 0.05875813 -0.09288421 -0.19302006
000360 38 10 85 be bc 4e 9f bd d2 a4 23 be e7 fd 47 be
       -0.25988936 -0.07778689 -0.15980843 -0.1953045
000370 7a b9 44 be 6e d6 20 be b5 a3 bd 3d 68 25 8e be
       -0.19211379 -0.15706798 0.0925974 -0.27762914
000380 cc 6b 1c be 4b 46 62 3d 2f 50 4a be 65 2a b7 be
       -0.15275496 0.055242818 -0.1975715 -0.35774532
000390 47 46 ea 3d ec 36 e3 3d f2 46 e2 3d 39 81 4b 3e
       0.114391856 0.1109446 0.11048688 0.19873513
0003a0 ae 6a a2 3e e6 64 29 bd d1 0d 59 be f7 8b a9 be
       0.31722015 -0.04135599 -0.21196677 -0.33114597
0003b0 9d 25 d0 bd 25 03 95 bd fb b9 2e be e8 ee d1 be
       -0.10163424 -0.072759904 -0.17063133 -0.41002584
0003c0 3f 8d b3 be a8 c0 5f bd 03 1c bb bc b8 94 e9 be
       -0.350687 -0.05462709 -0.022840505 -0.45621276
0003d0 23 8a 46 bd a4 eb e5 bd 40 2b a0 bd 9e c3 12 3d
       -0.04847158 -0.112265855 -0.07820749 0.035831086
0003e0 b6 37 35 3d 6b 53 8d bb 3a 98 f8 bc 60 aa 51 bd
       0.044242583 -0.0043129227 -0.030346025 -0.051187873
0003f0 d3 d8 2b be 95 21 ea 3e 87 35 ad bb 0e 8d 95 be
       -0.1678193 0.45728746 -0.005285922 -0.2920918

layers.1.weight f4 [256, 256]
000000 74 fd 5d bd f6 bf 5a 3d 36 a2 32 3d 06 8d 2b bf
       -0.05419679 0.053405724 0.043611728 -0.6701206
000010 80 dc 2e 3a 12 6e 7e bd 87 9e 9a 3d 09 de da 3d
       0.00066704303 -0.06211669 0.07549768 0.10686881
000020 e5 f4 de 3c 6e e2 75 3d 46 58 f1 39 b6 70 63 bd
       0.027216384 0.060030393 0.0004603287 -0.05552741
000030 17 84 8c 3e 3b 7b c7 bf d6 24 ea bb 3e d0 85 bf
       0.27444527 -1.5584482 -0.0071455045 -1.0454175
000040 bf 89 96 bf 8f 3c 14 3d 06 4d 7a bc 10 a3 c5 3d
       -1.1760787 0.036190566 -0.015277153 0.09650242
000050 aa 3e f7 bd d8 f6 70 bd 99 d9 22 3f 3a 33 a5 be
       -0.12072499 -0.05882916 0.6361328 -0.32265645
000060 d5 56 e1 be 3b bd 9a 3e 20 5b 8e bc 6e 02 a4 3b
       -0.4401156 0.30222496 -0.017377436 0.0050051725
000070 0a 01 59 3d 6c 17 7e 3f 7b d7 28 be 82 c0 0f 3d
       0.052979507 0.9925449 -0.1648845 0.0350957
000080 6c 8e a4 3c ab 3e 3c bd 74 fa f8 3e 2b 3c 91 bf
       0.020087443 -0.045958202 0.4862858 -1.1346487
000090 50 de 7b 3d cb 3d 85 be a5 17 12 bf 58 ff 06 3d
       0.06149131 -0.26023707 -0.5706733 0.03295836
0000a0 8f 78 96 bf 70 d2 8e be b3 4e df be 6c a5 80 bc
       -1.1755542 -0.27894926 -0.4361473 -0.01570388
0000b0 1e 99 b5 bc 98 62 5c bc 57 2d 85 3e dd b0 e6 bd
       -0.022167739 -0.013451241 0.26011154 -0.11264203
0000c0 b0 55 9a bd 16 bc 0d bf ed 4f 6e be b2 9b 5a bd
       -0.07535875 -0.5536512 -0.23272677 -0.05337114
0000d0 f4 4c c7 bd b2 bf 83 bd 50 92 96 3b de 76 19 3c
       -0.097314745 -0.06433047 0.0045950785 0.009366719
0000e0 fc 3c c8 bd 34 96 51 bd c6 1c 55 be 6c 81 33 bd
       -0.09777257 -0.051168635 -0.20811757 -0.0438246
0000f0 74 ef 79 be bf cd 8c 3e ea 7b b8 bf 62 bd ff be
       -0.2440775 0.27500722 -1.4412816 -0.49949175
000100 03 e1 de 39 44 2c d4 bc 38 c0 0e 3c a0 c6 ee 3e
       0.00042510786 -0.025900014 0.008712821 0.46635914
000110 f7 8f 3e bd 9e 0b df bd da 90 84 3e 5c 11 00 bd
       -0.046524014 -0.10890888 0.25891763 -0.031266555
000120 b8 f3 9e bf 40 2e 96 bc 25 f7 3a bd f0 4c 5a 3d
       -1.2418127 -0.0183326 -0.04564585 0.05329603
000130 50 fe ea 3b 6e 82 b1 be a5 2d c5 bf c2 85 93 3e
       0.0071714297 -0.34669822 -1.5404555 0.28812987
000140 53 b7 43 bf 54 8a 23 c0 8e 4a 92 3d 9f 5a 10 3d
       -0.76451606 -2.5553179 0.071431264 0.035242673
000150 c4 39 bd 3c 3d 21 2c bf 92 7e c4 3d 0d bd 9b bf
       0.023098834 -0.6723822 0.09594454 -1.2167069
000160 78 c2 10 bc c9 4a 97 3e 58 d3 4c be 17 73 43 be
       -0.008835427 0.29549244 -0.20002496 -0.19086872
000170 42 99 50 3d 3e 61 1b 3d 0c 57 cb be 5f c9 ea be
       0.050927408 0.037934534 -0.3971485 -0.4585676
000180 3f 3b 72 bf 98 33 ff bd 97 9a de bf ba 22 01 3e
       -0.9462165 -0.124610126 -1.7390927 0.12610903
000190 35 37 88 bb 88 37 59 3d dc 2e ee be bd a5 35 bf
       -0.004156972 0.053031474 -0.46520126 -0.7095602
0001a0 0b 9f 93 bf 80 ff c9 3b 5d 63 f1 3c cc 78 0c bf
       -1.1532911 0.006164491 0.029466325 -0.5487182
0001b0 88 6c 47 3d f1 af 2e c0 2c a6 d2 bc a5 08 a7 3e
       0.048687488 -2.7294886 -0.025714003 0.32623783
0001c0 12 42 35 bd bb 02 01 3d 05 c0 3f bf 20 12 16 3c
       -0.044252463 0.031496745 -0.74902374 0.009159595
0001d0 92 46 10 be fd aa 22 be 85 a5 a0 be d0 a3 5e bf
       -0.1408942 -0.1588554 -0.3137628 -0.8696871
0001e0 01 04 8f 3e 14 06 47 bf 21 93 2b bf 51 03 85 bf
       0.27932742 -0.7774365 -0.67021376 -1.0391637
0001f0 7b 7c 91 bf d1 03 47 3e 48 99 83 bc 90 37 2f bf
       -1.1366113 0.1943505 -0.016064301 -0.68444157
000200 e9 2c 44 be d2 42 69 bd e6 04 74 be c4 40 d0 bf
       -0.19157757 -0.05694849 -0.23829994 -1.6269765
000210 eb 61 f8 3c cc d2 de bd 01 5a ae 3d 49 a4 5f bf
       0.030320128 -0.1088005 0.08513261 -0.87360054
000220 82 8c 1e bf 95 e7 2b c0 3c 7d 87 3f 8c 49 14 bf
       -0.6193315 -2.6860096 1.0585093 -0.57924724
000230 ec 3b 3c 3f 66 0d a7 3d 69 27 31 3f be 54 09 bf
       0.73528934 0.081568524 0.6920076 -0.5364493
000240 a4 d0 6c 3e 12 79 0a 3d e4 5a cd be 5d fe 2b 3e
       0.23126465 0.033806868 -0.40108407 0.1679625
000250 58 08 ac bc 98 81 cd bc 97 4f a3 bf 2f 16 a7 bf
       -0.021000072 -0.02508621 -1.2758664 -1.3053645
000260 2c 2d 0a bf 7e 0b 55 3d 8d 41 81 bf 00 0d 9c 39
       -0.53975177 0.052012913 -1.009813 0.00029764324
000270 55 71 31 c0 18 93 20 be 8e 7e 0d bd 0a 9c 0f 3e
       -2.7725422 -0.15681112 -0.03454452 0.14024368
000280 2d 6c 01 bf 2c 49 99 3c 28 23 a1 bf 3c d0 8a 3f
       -0.5055569 0.018711649 -1.2588854 1.0844798
000290 34 5f 3a 3e 48 c5 d9 bf 39 29 6b be 78 15 d3 3c
       0.1820038 -1.701333 -0.22964944 0.025767073
0002a0 9b 07 1f 3e 6d b8 31 bf b4 98 87 bc 5d e3 a6 bc
       0.15530245 -0.69422036 -0.016552307 -0.020372087
0002b0 0f a1 35 bf 5c 69 d3 3c 45 23 e0 be 81 b5 a3 be
       -0.7094888 0.025807075 -0.4377691 -0.31974414
0002c0 9e 9d 3f bf 80 2a bb 3e f3 47 93 3e e5 6d 72 3f
       -0.7484988 0.36555862 0.2876583 0.94698936
0002d0 f8 c5 66 bf 02 ec 03 3d 69 cd 3e be 4c 9a 02 be
       -0.90145826 0.032207496 -0.18633045 -0.12754172
0002e0 50 05 cd 3b 75 e3 e4 be 43 ef a6 be 13 2a 53 bf
       0.006256737 -0.44704786 -0.32604417 -0.82486075
0002f0 b8 66 0d bc fc b6 af be e1 5c 1e 3d 32 67 25 bf
       -0.008630447 -0.34319293 0.038662795 -0.6461059
000300 58 3a f0 bc ec 57 bc 3c ef 71 31 bf 1c 06 47 bf
       -0.029324695 0.022991143 -0.69314474 -0.777437
000310 11 5f 0e bd a9 f1 c4 3e 33 01 6b 3e 26 b0 94 be
       -0.03475863 0.38465622 0.22949676 -0.2904064
000320 8d ce a2 bf 3a d9 a3 be c2 bf f4 be 33 71 8a bf
       -1.2719284 -0.32001668 -0.4780255 -1.0815796
000330 85 27 44 bf d7 7b 64 bf a8 de 47 3c e9 29 49 3f
       -0.766228 -0.89251465 0.0121990815 0.78579575
000340 35 a0 c7 bf d8 9a 20 40 e0 9b 81 3b fb 29 49 3f
       -1.5595766 2.509451 0.0039553493 0.7857968
000350 00 89 2a 3f 50 81 32 be 51 3b 46 3e 0a 59 17 3e
       0.66615295 -0.17432141 0.19358565 0.1478006
000360 00 ad 8e be 5b 74 2d be 29 c9 c3 be f8 37 e9 bc
       -0.27866364 -0.16938917 -0.3823941 -0.02846907
000370 22 ef 3b 3d de 3b 94 be 8e 71 80 bf e4 2a d9 bf
       0.04588235 -0.28951925 -1.0034654 -1.6966214
000380 94 ac bb bf 10 2b 36 be 3c e8 02 3d c4 34 0e 3f
       -1.4662042 -0.17789865 0.031959757 0.55549264
000390 52 50 bd be 42 4b a7 bd ed 0c cf 3d 14 a8 9f be
       -0.36975342 -0.08168651 0.10109887 -0.3118292
0003a0 d7 d0 41 be 36 08 a2 bf f2 89 4f be 0d 49 f0 3c
       -0.18927322 -1.2658756 -0.20267466 0.029331708
0003b0 96 0b 20 bd c9 20 f7 3c 34 e2 a7 3c 78 d7 32 bf
       -0.03907355 0.030167 0.020493604 -0.6986003
0003c0 6d 9c 85 bd 04 10 df bf f0 37 67 be 11 af 58 3f
       -0.065239765 -1.7426763 -0.22579932 0.8464213
0003d0 d4 80 95 bf 36 45 a8 bd e2 30 65 be 12 c8 8c 3d
       -1.167994 -0.08216326 -0.22381929 0.06874098
0003e0 09 d9 be 3e a1 54 6c bf f6 af c8 3e 22 72 88 be
       0.3727496 -0.92316633 0.39196748 -0.26649576
0003f0 59 5e 16 3f 07 50 bd be 72 98 84 bf 41 70 95 bb
       0.58737713 -0.3697512 -1.0359023 -0.004560501

layers.1.bias f4 [256]
000000 14 e6 c6 bf 0d 05 b4 bf 18 fa dc 3f 48 a8 59 bf
       -1.5538964 -1.4064041 1.7263823 -0.850224
000010 a4 43 71 3e c6 e1 0f bd c2 12 73 bd b4 91 cb bf
       0.23560959 -0.035127424 -0.05934406 -1.590384
000020 27 2f 9b bf b8 5e 87 be d3 a9 1e bf 30 7b 44 bd
       -1.2123765 -0.26439452 -0.6197788 -0.047969043
000030 3d c6 96 bd de 3b a8 bc da b6 c7 bf ca 95 13 bf
       -0.0736203 -0.02053636 -1.5602677 -0.57650435
000040 49 dd 3e 3d 4a 3a 55 bd 72 bd 8f 3d 43 7f 02 3d
       0.046597753 -0.052057542 0.07018556 0.031859647
000050 69 81 26 bd 6a 7c 01 3f c7 e6 2b 3d ad 40 f9 bc
       -0.04065076 0.50580466 0.041968133 -0.030426348
000060 69 ed 3c bd e7 b2 86 3f fd d3 ea 3e 17 73 4e 3f
       -0.04612485 1.0523347 0.4586486 0.80644363
000070 04 8d 6b bd a0 96 37 bd 6d ed 21 bd 1a 84 83 bf
       -0.05750753 -0.04482138 -0.039533067 -1.0274689
000080 3b 46 0b bd ac 1d b6 3f ef 2e 20 bd 21 d9 dd bf
       -0.034002524 1.4227805 -0.03910726 -1.7331887
000090 de 35 82 bb 01 06 49 bd 84 59 c5 3e 88 cc b7 bf
       -0.0039737066 -0.04907799 0.38544858 -1.4359293
0000a0 4b e4 5e 3b 4f 63 c7 bf 18 2f 93 bd c5 58 40 3f
       0.0034010585 -1.5577182 -0.07186717 0.7513545
0000b0 0f 94 06 bf 49 48 a0 bf 83 60 3e bf 54 b3 42 bf
       -0.5256967 -1.252206 -0.74366015 -0.76054883
0000c0 8d b6 07 3d de 48 7b bd cb 2a 76 bd 5a f2 f3 bf
       0.03313308 -0.06134879 -0.060099404 -1.9058335
0000d0 e0 15 28 ba 2f a6 c5 bf d9 4d 98 3f b7 db 70 3f
       -0.0006411951 -1.544134 1.1898757 0.9408526
0000e0 ea 26 55 3c c9 05 82 3c 92 13 4a bf 1a 19 53 3f
       0.013009766 0.0158719 -0.7893611 0.82460177
0000f0 cd 06 86 bf 44 e1 8c bf 82 53 e0 be 23 6c 06 3c
       -1.0470825 -1.1006246 -0.4381371 0.008204493
000100 d6 3e 9a bf 82 76 13 3f e0 57 8f 3e 72 34 2b bd
       -1.2050426 0.57602704 0.2799673 -0.041798063
000110 16 b3 44 3f 55 a6 59 bd 8f 51 1a bd f5 f2 42 3e
       0.76835763 -0.053137142 -0.037675437 0.19037993
000120 d3 19 4d be 9a 85 ad 3f f7 2c 97 bc 88 24 98 bf
       -0.20029382 1.3556397 -0.018454058 -1.1886148
000130 8d 3e 0d bd d5 99 87 bd ed 18 69 bd 50 63 40 3e
       -0.03448348 -0.06621138 -0.056908537 0.18787885
000140 54 6a 3c b8 e7 6d b1 3b 66 f7 b5 3e 36 cc e2 3f
       -4.492172e-05 0.0054147127 0.35540313 1.771857
000150 33 3e c7 3f 25 b2 df bf ab 24 23 bf 5f 1b 45 bf
       1.5565857 -1.747624 -0.63727826 -0.7699489
000160 ac d4 06 bd ee 72 6a bf e0 ba 3e bd a1 00 61 3a
       -0.032917663 -0.9158162 -0.046564937 0.00085831626
000170 ab c3 91 3b 67 ef 0f be d6 53 45 bd 11 88 6c bf
       0.0044483743 -0.14056168 -0.048175655 -0.9239512
000180 50 43 8d bd f4 69 90 be de 50 91 bd d6 3a e2 bc
       -0.068976045 -0.28205836 -0.07095502 -0.027615946
000190 8a 52 66 3c 6d 8e c9 3c 9e 3b 23 bd 21 cd 48 3e
       0.014057765 0.024604047 -0.039851777 0.196095
0001a0 15 ae 3f bf 9f 0a 0a 3d 39 dc b5 bf 30 29 71 bf
       -0.74875003 0.033701535 -1.4207832 -0.9420347
0001b0 71 27 46 3d df b0 18 bc 33 6c d8 bc 5f d8 d8 bf
       0.048377458 -0.009319513 -0.02641878 -1.6941031
0001c0 d5 7c 6a 3f 98 8e 40 3c fb 7b 04 bf 95 5e 65 bf
       0.9159673 0.011752747 -0.5175168 -0.89597446
0001d0 8d 1b 7b bc 08 4f e7 bf 14 ba 00 bd 31 ad 8b be
       -0.015326393 -1.8070993 -0.031427458 -0.27280572
0001e0 e1 68 8c bc 8d 0f 0f bf 31 dc cb 3f 3a 0e 31 bf
       -0.017139854 -0.55883104 1.5926572 -0.69162333
0001f0 6f ff 8b be b8 da 0d bd c1 bc 5b 3f a4 12 5f bf
       -0.27343318 -0.034632415 0.8583489 -0.8713782
000200 92 00 24 3f 34 55 75 3c c4 7f 51 bf 49 fa f0 bd
       0.6406337 0.014973927 -0.8183558 -0.11766488
000210 2f 40 10 bd 1c ce 96 bd 6e f2 10 bf 0f e2 70 bd
       -0.03521746 -0.07363531 -0.5661992 -0.058809336
000220 7c 9f af bc 5d 58 3a bd bb 8c 32 bd 0f 84 3d be
       -0.021438353 -0.045494426 -0.043591242 -0.18507408
000230 9c b2 e7 be a3 fa c0 3f 52 1a d5 be ca 5d 01 bc
       -0.45253456 1.5076488 -0.41621643 -0.007895896
000240 ac 79 1f 3f 31 94 85 bc df 6a 31 3f 0d bd 98 bc
       0.6229503 -0.016306015 0.693037 -0.018644834
000250 52 f4 8b bd 7b e6 62 be fc c3 98 bd 1b 4c 22 bf
       -0.0683371 -0.22158234 -0.07459256 -0.6339738
000260 a1 5c 2a 3c da 3f ad 3e bd 69 8a bd 91 6f c2 bf
       0.010398061 0.33837777 -0.06758449 -1.5190297
000270 f7 20 82 bd 4d 70 f5 bc 67 d2 c7 3e 85 1d c4 ba
       -0.06353944 -0.029960776 0.39027712 -0.0014962411
000280 f3 67 2a bd e5 95 8a 3e c2 c4 9e bd eb bf a3 bf
       -0.04160304 0.27067485 -0.07752372 -1.2792944
000290 dc 55 f4 be d2 49 b1 bd a8 19 5c bd 2d 8a 51 3f
       -0.47721756 -0.08656658 -0.053735405 0.81851465
0002a0 db f7 2a 3f 8c be c0 3d ac c6 b6 3f 90 da e1 3b
       0.6678445 0.09411344 1.427938 0.0068925098
0002b0 fa 2b 50 bd 72 f4 53 bd 15 0d cd bf dd 76 26 bc
       -0.05082319 -0.051746793 -1.6019617 -0.010160175
0002c0 ef 00 3a 3e 42 3a 66 bd 89 ce 98 ba 6d 06 3a be
       0.18164419 -0.056207903 -0.0011658232 -0.18166514
0002d0 49 93 0f 3d b9 0c 08 bc 2c 53 81 bd f4 87 54 bd
       0.03505257 -0.008303815 -0.06314692 -0.051887468
0002e0 f6 c6 84 bd 68 ea 8d be 36 ad 27 3e 2a 74 c8 be
       -0.06483261 -0.277179 0.16374668 -0.39151126
0002f0 35 38 41 3e 9c 5d ba bf a8 5c b9 3d 3f 42 c6 bf
       0.18869098 -1.4559817 0.09050876 -1.5488967
000300 46 e8 81 bc fa 56 33 3f 83 8d b3 3e 64 42 98 3a
       -0.015857827 0.7005459 0.35068902 0.0011616466
000310 1e ce a0 bd fa 42 70 3c a1 15 9f be 5a 11 0a 3f
       -0.07851814 0.014664406 -0.3107119 0.53932726
000320 0c c3 0f bf 32 18 07 bd 03 4f 93 bc 9a 7b aa bd
       -0.5615699 -0.03298206 -0.017982012 -0.083243564
000330 8e 0c 90 bd 11 1d 38 bd 6f 38 03 3f 53 2f 22 bf
       -0.070336446 -0.044949595 0.51257986 -0.6335346
000340 c6 f8 08 be 9c ff f0 bc 2d c9 d1 3f 5e b6 02 3d
       -0.1337615 -0.029418759 1.6389519 0.0319122
000350 6b 27 b7 bd fc 59 64 3f 71 4a f1 bc 9d c6 64 bc
       -0.08943065 0.89199805 -0.029454442 -0.013963369
000360 03 c2 8a bf 3c ad ad bd 4c 80 99 3f 28 bb 2a bf
       -1.0840458 -0.084803075 1.1992278 -0.6669183
000370 4c 72 ef 3e d3 a5 b5 be eb 72 21 bd 9d ea fd bc
       0.4676689 -0.35478076 -0.039416235 -0.030995661
000380 24 b8 de 3c 50 6d 0e 3f c3 88 8d be 8b 5e 1c bf
       0.027187414 0.5563555 -0.27643403 -0.6108176
000390 0e 3d a8 bc 73 c1 81 3e 58 4a d3 3e 6d 36 d4 bc
       -0.020536926 0.25342903 0.41267657 -0.025904858
0003a0 48 0e 3b bd 7f 7e 7e bd 90 15 57 bd 27 28 42 3b
       -0.045667917 -0.062132355 -0.052510798 0.0029625983
0003b0 8c b1 22 bc 07 bd 42 3e 96 c9 21 bd ca 78 b7 bc
       -0.009930026 0.1901742 -0.039498888 -0.022396464
0003c0 12 2f b4 be 14 5d 66 bd 0a bc 16 be 3d f6 e3 bd
       -0.35192162 -0.05624111 -0.14720169 -0.111309506
0003d0 c4 07 63 3e e2 04 69 bd 8d e0 7c bf 2d 4d 70 3f
       0.22170931 -0.056889422 -0.9878014 0.9386776
0003e0 c7 11 7b bd 7c 74 3b bd fb d4 f2 be 63 ff 56 bf
       -0.06129625 -0.045765385 -0.47428116 -0.8398344
0003f0 e2 d7 e7 be 86 86 08 3d bc bd 92 bf 83 a5 99 bf
       -0.45281893 0.033331417 -1.1464152 -1.2003635

predict.weight f4 [5, 256]
000000 81 56 6d 3f 0e 3f 1b 3f 87 2a b6 bf 9f 4c 3a 3f
       0.9271012 0.6064309 -1.4231728 0.72773165
000010 99 45 6b 3f b7 f1 11 bd c4 f6 03 bd 57 18 4e 3f
       0.9190307 -0.035630908 -0.032217756 0.8050589
000020 01 10 fd bd b1 26 0f 3c 7f 11 05 3f 7c 30 35 bb
       -0.12356568 0.008737252 0.5197982 -0.0027647307
000030 39 1d 50 bc 69 f8 8f bc 1e 19 a5 bf b8 01 80 3e
       -0.01270228 -0.017574506 -1.289829 0.2500131
000040 c9 99 c3 bf b8 49 35 3c d3 10 5b be e9 90 f0 bc
       -1.5281307 0.011064939 -0.21393137 -0.029365974
000050 83 81 ea bc 4e 5d b5 be c5 75 db 3b 62 bb 35 3d
       -0.02862621 -0.35422748 0.006697389 0.044368155
000060 6b 27 85 bd e2 d3 6a 3f e9 a8 21 3d 98 4c a1 bf
       -0.06501659 0.9172956 0.039467726 -1.26015
000070 54 9e 51 bd 3e 79 13 bd db 19 b4 3c f6 a4 e2 3e
       -0.051176384 -0.036004297 0.021984985 0.4426648
000080 e1 35 00 bf 52 8b b5 bf 8e 56 18 3a 82 8b 23 3f
       -0.5008221 -1.4183142 0.00058112375 0.6388475
000090 bf a0 6c 3c a0 2b 7b 3b b0 b7 a4 bf 79 d5 e7 3e
       0.014442622 0.0038325563 -1.2868557 0.45280054
0000a0 a9 05 cf 3c ec ff fd 3f df d7 70 3c 6a 85 1f bf
       0.025271254 1.9843726 0.014699905 -0.6231295
0000b0 f1 bc b2 bd cb 48 d8 3e 3f e7 cd 3e 74 3e e4 3d
       -0.08727444 0.42243037 0.4021549 0.111447245
0000c0 fa f5 cc bc ee ed a7 3c d9 2e 44 bc c2 e8 9d 3f
       -0.025019635 0.020499196 -0.01197406 1.2336657
0000d0 af b6 96 bb 50 f3 4a 3f 56 5d ac bf 99 4d 27 bf
       -0.0045994143 0.79277515 -1.3465984 -0.6535278
0000e0 61 8f 5c bd 87 b1 3a bd 7e f9 8f 3e e8 af 66 3f
       -0.053847674 -0.04557946 0.28120035 0.9011216
0000f0 00 35 7f 3e b0 3f 2e be a2 7c c5 be a1 af 90 3b
       0.24922562 -0.17016482 -0.3857165 0.004415468
000100 25 37 6d be 73 7e ee bd b7 b4 11 bc fe b2 40 3b
       -0.23165567 -0.11645212 -0.008893183 0.0029403563
000110 d6 7e ec 3c 49 4f 74 c0 08 00 4c 3c b9 2d c7 3e
       0.028869074 -3.8173392 0.012451179 0.3890207
000120 cf 9e 01 bf 5b 8b c5 be 43 20 57 be dd 62 18 40
       -0.5063295 -0.38582882 -0.210084 2.3810341
000130 79 56 04 3f 3a 54 d8 bc 0e 4f ae 3d 93 f3 a6 bf
       0.51694447 -0.02640735 0.08511172 -1.3043083
000140 89 a9 05 3d 0a 3a ef 3c db 1e c0 be e7 2c a8 bf
       0.032632384 0.02920248 -0.3752354 -1.3138703
000150 16 82 1c bf 2b 32 9a 3e 6f 01 e2 be c9 98 00 bf
       -0.61135995 0.301164 -0.4414172 -0.5023313
000160 7a 2e 2c 3d 13 4c 2d 3f 10 8f ee 3c 78 b8 a7 3c
       0.04203651 0.67694205 0.029120952 0.020473704
000170 d5 b1 a7 bc 5a 47 32 3f 3b 05 28 bd bc 62 19 bf
       -0.02047054 0.69640124 -0.041020613 -0.5991628
000180 09 ea 3e bd c6 ed 04 3f 3f d9 33 3e 0a 47 41 bd
       -0.046609912 0.51925313 0.17563342 -0.04718689
000190 53 bf b5 bc 43 2e 02 3d 51 2c 20 3d 4b e4 e6 bc
       -0.022185957 0.0317824 0.039104763 -0.02818503
0001a0 71 a7 95 3e 2f db 84 3c 19 78 05 3f f9 c0 ce 3e
       0.2922931 0.016217796 0.5213638 0.403816
0001b0 4a c3 58 3c 1c 74 df 3c 8e 5c 2d 3f fe 7b 03 3e
       0.013230154 0.027277045 0.6771935 0.12840268
0001c0 83 64 53 bf c3 9e 23 bd 36 24 a2 be 76 4a 03 3f
       -0.82575244 -0.03994633 -0.31668252 0.51285493
0001d0 68 54 0c 3b 15 f4 ee 3d 6a 81 d8 bc f7 ba 29 be
       0.0021412615 0.11667649 -0.026428897 -0.16575228
0001e0 d7 f2 89 bc 38 16 7a bf 45 2a 19 c0 31 f5 31 3f
       -0.016839428 -0.97690153 -2.393205 0.6951476
0001f0 37 eb 2c bc 60 5a c5 bc f1 56 a8 be dc 46 36 be
       -0.010554126 -0.024090946 -0.3287883 -0.17800468
000200 bf c4 63 bf 6a 08 b8 bc b3 7b 4e 3f c7 23 6d 3f
       -0.88972086 -0.02246495 0.806575 0.92632717
000210 56 14 0f bc 7f d5 82 ba f5 6a 2e be 52 b7 d2 bc
       -0.008732876 -0.000998184 -0.17032988 -0.02572218
000220 5a 4b f2 bc 7c 54 fd 3b b9 43 e5 bc e8 87 17 3f
       -0.029576946 0.0077310186 -0.027986394 0.5919175
000230 1f 03 c1 3f 58 f6 3a bf 65 8d 57 3f a6 1b 8b 3c
       1.5079077 -0.7303214 0.84200126 0.016980957
000240 44 5f 45 3b 18 41 3f bd c4 ed 2c be 69 39 38 3d
       0.0030116597 -0.046692938 -0.16887575 0.044976626
000250 75 bc b3 bd fa 46 51 3f c7 f7 82 bb b9 06 e7 3f
       -0.0877618 0.81748927 -0.0039968225 1.8048927
000260 7c 4e 16 bd f6 b4 3e be d0 00 a3 bb 74 33 c9 3f
       -0.036695942 -0.18623719 -0.004974462 1.5718827
000270 ae 06 12 3d d8 11 b2 bc 8d aa 58 3c 8c 19 82 bc
       0.0356509 -0.021737024 0.013224256 -0.015881322
000280 a8 b3 aa 3c 7c 9c e3 bf 79 5e 62 bc b7 7e 4a 3f
       0.02083762 -1.778213 -0.013816469 0.790996
000290 39 90 02 be 9b ec c1 3c 8d 94 93 bc 75 a2 ba be
       -0.12750329 0.023672393 -0.01801517 -0.3645207
0002a0 94 48 0b bf 87 78 bc bf f6 ca dd bf a4 b3 dd 3c
       -0.5440762 -1.4724282 -1.7327564 0.027063198
0002b0 c3 7c 01 3c 18 0d b8 bb 2e af 46 3f f5 63 d9 ba
       0.007903281 -0.0056167953 0.77611053 -0.0016585576
0002c0 39 0f 33 bf 17 db 8d bc a4 35 8a bc 0d c7 1f 3f
       -0.699451 -0.017316384 -0.016871281 0.624131
0002d0 75 a2 82 3b 90 fa 81 bc 16 7c 42 bd 8a b0 36 3d
       0.0039866515 -0.015866548 -0.04748162 0.044601955
0002e0 7a 78 3f 3d 88 81 11 bf 8c 24 e7 3d 60 45 08 be
       0.046745755 -0.56838274 0.11286268 -0.13307714
0002f0 a3 2c ad bf 11 58 0c 3f 03 d4 4b bf 1e bc 16 3e
       -1.3529247 0.5482188 -0.7962038 0.14720199
000300 8e 65 01 3c 39 68 d3 be 7a 1a 6d 3e 9b e0 3c 3d
       0.007897748 -0.41290453 0.23154631 0.046112638
000310 ae e0 ac 3c 2c 3b f4 bf 16 d2 e2 3e ca 7d c9 3f
       0.02110323 -1.9080558 0.44300908 1.5741513
000320 b3 7e b4 bf 4c 7b 64 bd 2c 66 ba bc 1a 33 2d bc
       -1.4101166 -0.055781648 -0.022753797 -0.010571266
000330 18 c5 41 bd c1 33 2e bd 08 5b c9 3e 3c bc c8 3e
       -0.047307104 -0.042529825 0.39327264 0.3920611
000340 9e 9b 4d 3c 87 73 bc 3c 6e 70 92 3e f6 c2 04 c0
       0.012549309 0.023004306 0.28601402 -2.0743995
000350 08 db dc 3c 18 a6 8d 3f 88 01 11 3c 02 32 c9 3b
       0.026959911 1.1066313 0.008850463 0.0061399946
000360 c2 16 c9 be 65 41 d5 3c 81 5e cb bf 2b a7 07 bc
       -0.39275175 0.02603216 -1.5888215 -0.008279602
000370 c1 38 19 c0 40 91 83 be 43 df 7a bd 4f 81 70 3d
       -2.394089 -0.25696754 -0.061248075 0.05871707
000380 92 d8 9c bb 2f b1 c9 bd 2e 62 36 3f dc 6b 8f be
       -0.0047865594 -0.09848248 0.7124356 -0.28011978
000390 98 6a c8 bc db f6 03 bf 97 ee 5f 3d d1 5c bc 3c
       -0.02446489 -0.51548547 0.054670896 0.022993477
0003a0 34 2b 15 3d ef 3e a4 bc 35 18 3a bd e4 54 4d 3c
       0.036418155 -0.02004954 -0.045433242 0.0125324465
0003b0 14 3f 64 3c af a9 1d c0 6c bc 2b 3d 5e 73 04 3d
       0.013931055 -2.4634817 0.04192774 0.032336585
0003c0 6e fa b0 bd 10 bc 5e bd 75 2f 0e bf b8 45 7d 3f
       -0.08641516 -0.05437857 -0.55541164 0.9893451
0003d0 fa 87 ac bf 54 c8 11 3d 3c 10 10 c0 57 83 0a 3f
       -1.3478997 0.03559144 -2.2509909 0.5410666
0003e0 fe 27 d0 bb 6e 92 c3 3d ae fe c8 bd b5 63 57 3e
       -0.0063524237 0.095494136 -0.09814201 0.21034129
0003f0 c8 31 c8 bf 6d e4 e6 bc a3 9a 18 be 5a a3 aa be
       -1.5640192 -0.028185094 -0.14902739 -0.33327752

predict.bias f4 [5]
000000 87 90 08 c0 cf 27 56 bf df dd c7 bf de 88 73 bf
       -2.1338212 -0.83654493 -1.5614585 -0.9513072
000010 cf 1f f4 bf
       -1.9072207

exp_avg f4 [256, 25]
000000 aa 3f c1 bd cf d1 c3 bd a5 c0 86 bd 66 3c 03 bd
       -0.09435971 -0.09561502 -0.06579713 -0.032040022
000010 29 67 e5 b9 aa 3f c1 bd ce 18 cf bb a4 ec e3 bb
       -0.00043755144 -0.09435971 -0.0063200956 -0.0069557
000020 25 da 19 3b 98 1d f8 b8 aa 3f c1 bd 02 57 ce bb
       0.0023475972 -0.00011831074 -0.09435971 -0.0062969932
000030 67 17 3c bc 6e b4 0b 3c a5 80 b5 3a aa 3f c1 bd
       -0.011480189 0.0085269045 0.0013847543 -0.09435971
000040 80 cd 1b bd 84 91 a4 3d a4 e6 71 3b d6 13 a2 39
       -0.038037777 0.080355674 0.0036911154 0.00030913827
000050 aa 3f c1 bd b2 73 06 bd 31 fc 3e 3c 27 f4 35 3c
       -0.09435971 -0.03282518 0.011656807 0.011105574
000060 48 7c c4 39 00 00 00 00 00 00 00 00 00 00 00 00
       0.0003747663 0.0 0.0 0.0
000070 00 00 00 00 00 00 00 00 00 00 00 00 00 00 00 00
       0.0 0.0 0.0 0.0
000080 00 00 00 00 00 00 00 00 00 00 00 00 00 00 00 00
       0.0 0.0 0.0 0.0
000090 00 00 00 00 00 00 00 00 00 00 00 00 00 00 00 00
       0.0 0.0 0.0 0.0
0000a0 00 00 00 00 00 00 00 00 00 00 00 00 00 00 00 00
       0.0 0.0 0.0 0.0
0000b0 00 00 00 00 00 00 00 00 00 00 00 00 00 00 00 00
       0.0 0.0 0.0 0.0
0000c0 00 00 00 00 00 00 00 00 00 00 00 00 00 00 00 00
       0.0 0.0 0.0 0.0
0000d0 00 00 00 00 00 00 00 00 00 00 00 00 00 00 00 00
       0.0 0.0 0.0 0.0
0000e0 00 00 00 00 00 00 00 00 00 00 00 00 00 00 00 00
       0.0 0.0 0.0 0.0
0000f0 00 00 00 00 00 00 00 00 00 00 00 00 00 00 00 00
       0.0 0.0 0.0 0.0
000100 00 00 00 00 00 00 00 00 00 00 00 00 00 00 00 00
       0.0 0.0 0.0 0.0
000110 00 00 00 00 00 00 00 00 00 00 00 00 00 00 00 00
       0.0 0.0 0.0 0.0
000120 00 00 00 00 00 00 00 00 00 00 00 00 06 fa ec bc
       0.0 0.0 0.0 -0.028927814
000130 bc 6e ea bc 72 6a ba 3b dd a2 2b bc dd 55 1b ba
       -0.028617255 0.005688959 -0.010475841 -0.00059255754
000140 06 fa ec bc a2 a9 0b 3c c1 d0 4d bc a4 a5 ae 3b
       -0.028927814 0.00852433 -0.012561978 0.0053298045
000150 0e 0d 8a ba 06 fa ec bc 90 52 47 3c 34 be 80 bd
       -0.0010532455 -0.028927814 0.0121656805 -0.06286278
000160 58 24 7e 3b 23 99 41 3a 06 fa ec bc 36 02 1a 3c
       0.0038778987 0.0007385185 -0.028927814 0.009399941
000170 79 d1 08 3d f6 6a c6 3b 84 88 d9 39 06 fa ec bc
       0.033402894 0.006055231 0.00041491177 -0.028927814
000180 f8 10 a5 bb 1c d4 da bc d0 7e 38 ba f0 13 d2 39
       -0.005037423 -0.02671247 -0.00070379395 0.00040069176
000190 00 00 00 00 00 00 00 00 00 00 00 00 00 00 00 00
       0.0 0.0 0.0 0.0
0001a0 00 00 00 00 00 00 00 00 00 00 00 00 00 00 00 00
       0.0 0.0 0.0 0.0
0001b0 00 00 00 00 00 00 00 00 00 00 00 00 00 00 00 00
       0.0 0.0 0.0 0.0
0001c0 00 00 00 00 00 00 00 00 00 00 00 00 00 00 00 00
       0.0 0.0 0.0 0.0
0001d0 00 00 00 00 00 00 00 00 00 00 00 00 00 00 00 00
       0.0 0.0 0.0 0.0
0001e0 00 00 00 00 00 00 00 00 00 00 00 00 00 00 00 00
       0.0 0.0 0.0 0.0
0001f0 00 00 00 00 00 00 00 00 00 00 00 00 00 00 00 00
       0.0 0.0 0.0 0.0
000200 00 00 00 00 00 00 00 00 00 00 00 00 00 00 00 00
       0.0 0.0 0.0 0.0
000210 00 00 00 00 00 00 00 00 00 00 00 00 00 00 00 00
       0.0 0.0 0.0 0.0
000220 00 00 00 00 00 00 00 00 00 00 00 00 00 00 00 00
       0.0 0.0 0.0 0.0
000230 00 00 00 00 00 00 00 00 00 00 00 00 00 00 00 00
       0.0 0.0 0.0 0.0
000240 00 00 00 00 00 00 00 00 00 00 00 00 00 00 00 00
       0.0 0.0 0.0 0.0
000250 00 00 00 00 00 00 00 00 9d 67 13 02 9d 67 13 02
       0.0 0.0 1.082959e-37 1.082959e-37
000260 8e cd 12 02 0c 06 18 02 c7 bb 1c 02 9d 67 13 02
       1.0785377e-37 1.1168932e-37 1.1514959e-37 1.082959e-37
000270 9c 81 10 02 bc 7f 1b 02 45 ef 1d 82 ad bb 1c 82
       1.0616645e-37 1.142426e-37 -1.1603205e-37 -1.151493e-37
000280 9d 67 13 02 07 fa 13 82 d9 76 19 82 b6 80 1c 82
       1.082959e-37 -1.0871609e-37 -1.1274772e-37 -1.1498008e-37
000290 ad bb 1c 82 9d 67 13 02 26 5a 1f 02 8e cd 12 82
       -1.151493e-37 1.082959e-37 1.1707346e-37 -1.0785377e-37
0002a0 a3 a0 15 82 ad bb 1c 82 9d 67 13 02 b3 83 15 02
       -1.0992892e-37 -1.151493e-37 1.082959e-37 1.0984587e-37
0002b0 85 80 1b 02 ca b0 13 82 ad bb 1c 82 0c 13 3c be
       1.1424485e-37 -1.085059e-37 -1.151493e-37 -0.18366641
0002c0 f3 0f 3d be 4b 8d b7 bc cf cc 80 bd ef 63 06 39
       -0.18463115 -0.02240624 -0.06289064 0.00012816464
0002d0 0c 13 3c be 07 74 6c bb f0 7b 04 bd 85 6e 98 3c
       -0.18366641 -0.00360799 -0.03234476 0.018607387
0002e0 70 0f f5 b8 0c 13 3c be 38 74 37 bc 80 82 63 bb
       -0.00011685386 -0.18366641 -0.011197142 -0.0034715235
0002f0 2f 71 57 3c 49 81 f2 b9 0c 13 3c be 61 de 4c bc
       0.013149544 -0.00046254162 -0.18366641 -0.012504191
000300 c2 d2 2d bd 91 cb 95 3c 94 a4 11 b9 0c 13 3c be
       -0.042437322 0.018285545 -0.00013889588 -0.18366641
000310 b6 27 8b bd 42 4b a3 bd 8a 36 ff 3b db 24 d3 b8
       -0.06794684 -0.07973339 0.007788484 -0.00010068129
000320 de 80 56 3d 00 d8 52 3d 30 c8 ed 3a 90 a1 a5 3c
       0.05236899 0.051475525 0.0018141326 0.02021864
000330 4a e8 71 39 de 80 56 3d d6 1d 9f bb 51 47 41 bd
       0.00023070085 0.05236899 -0.0048558516 -0.047187153
000340 f0 eb 33 bc 08 a9 d7 b7 de 80 56 3d 5e 4d ea 3b
       -0.010981545 -2.5708709e-05 0.05236899 0.007150336
000350 c8 55 d0 bb 48 93 53 bc d7 46 a5 38 de 80 56 3d
       -0.006357882 -0.012913533 7.881008e-05 0.05236899
000360 84 d4 ad bb d4 f9 b1 3c 58 3a 25 bc 40 b2 bd 36
       -0.005304875 0.021725573 -0.010084711 5.65339e-06
000370 de 80 56 3d 16 d0 9f 3c 90 25 21 3b b0 7e 20 bc
       0.05236899 0.019508403 0.002458904 -0.00979583
000380 da ed 3f b8 00 00 00 00 00 00 00 00 00 00 00 00
       -4.5759465e-05 0.0 0.0 0.0
000390 00 00 00 00 00 00 00 00 00 00 00 00 00 00 00 00
       0.0 0.0 0.0 0.0
0003a0 00 00 00 00 00 00 00 00 00 00 00 00 00 00 00 00
       0.0 0.0 0.0 0.0
0003b0 00 00 00 00 00 00 00 00 00 00 00 00 00 00 00 00
       0.0 0.0 0.0 0.0
0003c0 00 00 00 00 00 00 00 00 00 00 00 00 00 00 00 00
       0.0 0.0 0.0 0.0
0003d0 00 00 00 00 00 00 00 00 00 00 00 00 00 00 00 00
       0.0 0.0 0.0 0.0
0003e0 00 00 00 00 00 00 00 00 07 69 8f bc 0d c3 83 bc
       0.0 0.0 -0.017506136 -0.016084218
0003f0 be c2 bf bc a1 79 00 bc 7b 2e 99 39 07 69 8f bc
       -0.02340829 -0.007841499 0.00029217065 -0.017506136

exp_avg_sq f4 [256, 25]
000000 11 5a 67 3e 19 12 64 3e e5 b5 b1 3d 0c 72 36 3d
       0.22592951 0.22272529 0.08677272 0.044542357
000010 29 69 7a 37 11 5a 67 3e 5b b6 03 3b ff aa dd 3c
       1.4925646e-05 0.22592951 0.0020097706 0.027059076
000020 ff 44 95 3b 18 55 aa 37 11 5a 67 3e 3d b6 0d 3c
       0.004555344 2.0305204e-05 0.22592951 0.008649406
000030 1d 9e 21 3d ef ae 82 3b bc ff c7 37 11 5a 67 3e
       0.03945743 0.003988139 2.3841734e-05 0.22592951
000040 2c 70 dc 3c a3 c7 57 3d b8 39 8e 3b 1a 32 94 37
       0.026908956 0.052680623 0.0043403767 1.7666305e-05
000050 11 5a 67 3e 25 5a 69 3d 2e 6a 14 3d 7a ed 9d 3b
       0.22592951 0.056970734 0.036234073 0.004819569
000060 2c 05 b1 37 00 00 00 00 00 00 00 00 00 00 00 00
       2.1102453e-05 0.0 0.0 0.0
000070 00 00 00 00 00 00 00 00 00 00 00 00 00 00 00 00
       0.0 0.0 0.0 0.0
000080 00 00 00 00 00 00 00 00 00 00 00 00 00 00 00 00
       0.0 0.0 0.0 0.0
000090 00 00 00 00 00 00 00 00 00 00 00 00 00 00 00 00
       0.0 0.0 0.0 0.0
0000a0 00 00 00 00 00 00 00 00 00 00 00 00 00 00 00 00
       0.0 0.0 0.0 0.0
0000b0 00 00 00 00 00 00 00 00 00 00 00 00 00 00 00 00
       0.0 0.0 0.0 0.0
0000c0 00 00 00 00 00 00 00 00 00 00 00 00 00 00 00 00
       0.0 0.0 0.0 0.0
0000d0 00 00 00 00 00 00 00 00 00 00 00 00 00 00 00 00
       0.0 0.0 0.0 0.0
0000e0 00 00 00 00 00 00 00 00 00 00 00 00 00 00 00 00
       0.0 0.0 0.0 0.0
0000f0 00 00 00 00 00 00 00 00 00 00 00 00 00 00 00 00
       0.0 0.0 0.0 0.0
000100 00 00 00 00 00 00 00 00 00 00 00 00 00 00 00 00
       0.0 0.0 0.0 0.0
000110 00 00 00 00 00 00 00 00 00 00 00 00 00 00 00 00
       0.0 0.0 0.0 0.0
000120 00 00 00 00 00 00 00 00 00 00 00 00 d9 1e 8f 3e
       0.0 0.0 0.0 0.27953222
000130 64 b2 8e 3e 03 b2 10 3d 9b ec 6d 3d 43 1a 0c 37
       0.27870476 0.035326015 0.058086973 8.350765e-06
000140 d9 1e 8f 3e b7 0d f4 39 7b c8 6b 3d e9 11 b6 3b
       0.27953222 0.00046549525 0.05756424 0.0055563343
000150 de cb 3d 37 d9 1e 8f 3e 4a 68 97 3b 51 b6 0e 3d
       1.1312744e-05 0.27953222 0.0046205865 0.03484184
000160 22 8c aa 3b 47 e7 ed 37 d9 1e 8f 3e 77 fd c2 3c
       0.0052046934 2.8360299e-05 0.27953222 0.023802502
000170 c2 2c 8b 3d a6 cf af 3b 2b b2 31 37 d9 1e 8f 3e
       0.06795646 0.00536533 1.0591505e-05 0.27953222
000180 be 62 69 3d 05 5a 47 3d 86 bb ab 3b b7 3f 33 37
       0.056978934 0.048669834 0.0052408604 1.0684066e-05
000190 00 00 00 00 00 00 00 00 00 00 00 00 00 00 00 00
       0.0 0.0 0.0 0.0
0001a0 00 00 00 00 00 00 00 00 00 00 00 00 00 00 00 00
       0.0 0.0 0.0 0.0
0001b0 00 00 00 00 00 00 00 00 00 00 00 00 00 00 00 00
       0.0 0.0 0.0 0.0
0001c0 00 00 00 00 00 00 00 00 00 00 00 00 00 00 00 00
       0.0 0.0 0.0 0.0
0001d0 00 00 00 00 00 00 00 00 00 00 00 00 00 00 00 00
       0.0 0.0 0.0 0.0
0001e0 00 00 00 00 00 00 00 00 00 00 00 00 00 00 00 00
       0.0 0.0 0.0 0.0
0001f0 00 00 00 00 00 00 00 00 00 00 00 00 00 00 00 00
       0.0 0.0 0.0 0.0
000200 00 00 00 00 00 00 00 00 00 00 00 00 00 00 00 00
       0.0 0.0 0.0 0.0
000210 00 00 00 00 00 00 00 00 00 00 00 00 00 00 00 00
       0.0 0.0 0.0 0.0
000220 00 00 00 00 00 00 00 00 00 00 00 00 00 00 00 00
       0.0 0.0 0.0 0.0
000230 00 00 00 00 00 00 00 00 00 00 00 00 00 00 00 00
       0.0 0.0 0.0 0.0
000240 00 00 00 00 00 00 00 00 00 00 00 00 00 00 00 00
       0.0 0.0 0.0 0.0
000250 00 00 00 00 00 00 00 00 00 00 00 00 00 00 00 00
       0.0 0.0 0.0 0.0
000260 00 00 00 00 00 00 00 00 00 00 00 00 00 00 00 00
       0.0 0.0 0.0 0.0
000270 00 00 00 00 00 00 00 00 00 00 00 00 00 00 00 00
       0.0 0.0 0.0 0.0
000280 00 00 00 00 00 00 00 00 00 00 00 00 00 00 00 00
       0.0 0.0 0.0 0.0
000290 00 00 00 00 00 00 00 00 00 00 00 00 00 00 00 00
       0.0 0.0 0.0 0.0
0002a0 00 00 00 00 00 00 00 00 00 00 00 00 00 00 00 00
       0.0 0.0 0.0 0.0
0002b0 00 00 00 00 00 00 00 00 00 00 00 00 3f 36 d0 3d
       0.0 0.0 0.0 0.101665966
0002c0 c4 10 d0 3d a2 84 ca 3c 55 c2 8b 3c 46 92 5a 36
       0.10159448 0.024721447 0.017060438 3.2569674e-06
0002d0 3f 36 d0 3d 4e 7b 1a 39 16 8e b9 3c 1f 00 e7 3a
       0.101665966 0.00014732519 0.02265076 0.0017623937
0002e0 ad e1 a4 36 3f 36 d0 3d 0e 98 97 3a 1b 35 73 3c
       4.913853e-06 0.101665966 0.0011565702 0.014844204
0002f0 08 bf 15 3b b1 94 e3 36 3f 36 d0 3d 56 02 f5 3b
       0.002284946 6.782437e-06 0.101665966 0.007477085
000300 c3 e6 c4 3c 70 60 d9 3a 5f 80 be 36 3f 36 d0 3d
       0.024035817 0.0016584527 5.6773856e-06 0.101665966
000310 7e e7 84 3c b6 d2 86 3c a3 0c 0a 3b ef 2b a9 36
       0.016223665 0.016457897 0.002106466 5.041707e-06
000320 46 cd 67 3e 99 33 66 3e 91 41 a2 3d 06 01 13 3d
       0.226369 0.2248062 0.07922662 0.035889648
000330 bd 23 b9 36 46 cd 67 3e b0 e3 22 3a 11 95 5e 3d
       5.51759e-06 0.226369 0.00062137377 0.05434138
000340 8b 67 41 3b af 31 22 37 46 cd 67 3e 47 cb 82 3b
       0.002951118 9.66752e-06 0.226369 0.0039915177
000350 ef 9b 17 3d bb d9 46 3b b5 19 55 37 46 cd 67 3e
       0.037013944 0.003034218 1.2701775e-05 0.226369
000360 ab d0 91 3c 41 d3 09 3d c6 74 3b 3b 89 af 14 37
       0.017799696 0.033648733 0.0028603538 8.862357e-06
000370 46 cd 67 3e ac 1a 22 3d ed de 26 3d 1b 2e 46 3b
       0.226369 0.039576218 0.040739942 0.0030239883
000380 96 91 1e 37 00 00 00 00 00 00 00 00 00 00 00 00
       9.451431e-06 0.0 0.0 0.0
000390 00 00 00 00 00 00 00 00 00 00 00 00 00 00 00 00
       0.0 0.0 0.0 0.0
0003a0 00 00 00 00 00 00 00 00 00 00 00 00 00 00 00 00
       0.0 0.0 0.0 0.0
0003b0 00 00 00 00 00 00 00 00 00 00 00 00 00 00 00 00
       0.0 0.0 0.0 0.0
0003c0 00 00 00 00 00 00 00 00 00 00 00 00 00 00 00 00
       0.0 0.0 0.0 0.0
0003d0 00 00 00 00 00 00 00 00 00 00 00 00 00 00 00 00
       0.0 0.0 0.0 0.0
0003e0 00 00 00 00 00 00 00 00 c3 7e bc 3d 73 52 bb 3d
       0.0 0.0 0.092038654 0.09146585
0003f0 8f 6a 69 3c f1 1b 4f 3c ed 9a 34 36 c3 7e bc 3d
       0.014246597 0.012640939 2.6912269e-06 0.092038654
