highway_ddqn/ddqn_tuned_reward_change/checkpoint-64.tar (torch, 892278 bytes, 18 tensors)

layers.0.weight f4 [256, 25]
0	0xbe60a272	-0.21936968
1	0x3d95b7d9	0.07310457
2	0x3d88a047	0.066711955
3	0xbd0a9182	-0.033830173
4	0x3d72f765	0.059317965
5	0xbdd97d79	-0.10619635
6	0x3e8c629e	0.2741899
7	0xbe9c3e24	-0.3051616
8	0x3e34ba9f	0.17649315
9	0xbd5ff2fe	-0.054675095
10	0xbcfdcc21	-0.030981125
11	0x3d6748bd	0.056465853
12	0x3ded6cf8	0.1159305
13	0xbc8cbeac	-0.017180763
14	0x3e2fe933	0.17178802
15	0xbc3ac8fc	-0.0114004575
16	0x3d67d468	0.05659905
17	0xbdf05b45	-0.11736158
18	0x3dd78fc7	0.1052547
19	0x3c838a2c	0.016057096
20	0x3e02ef60	0.12786627
21	0xbda7bf45	-0.08190779
22	0x3d7eea87	0.06223538
23	0x3dbb2ed9	0.09139795
24	0xbde8828e	-0.11353026
25	0xbe0bc46d	-0.13649149
26	0xbe09df23	-0.13464026
27	0xbe2e3f58	-0.17016351
28	0x3d860330	0.06543577
29	0x3bf311cd	0.0074178935
30	0xbdd333ed	-0.103126384
31	0xbd9853ca	-0.074378565
32	0x3e3e6f07	0.18597041
33	0x3d0f4b1a	0.03498373
34	0xbcec2833	-0.028827762
35	0x3d2e8827	0.042610314
36	0x3d6abf87	0.05731156
37	0x3e1c1010	0.15240502
38	0xbd01dcfa	-0.03170488
39	0x3e371d7d	0.17882343
40	0xbe315dc5	-0.17320926
41	0x3d493b40	0.04912877
42	0xbc90c2a7	-0.017670942
43	0x3e2c26e5	0.16811712
44	0xbe13b0a8	-0.14422858
45	0x3a7fb000	0.0009753704
46	0xbc6b8f33	-0.014377403
47	0xbd8a2997	-0.06746214
48	0xbca36600	-0.019946098
49	0xbe0a2473	-0.13490467
50	0xbd11aeda	-0.035567142
51	0xbd1853fa	-0.03718946
52	0x3ccc9bda	0.02497666
53	0xbc12ad9a	-0.008952523
54	0xbddec097	-0.10876577
55	0xbda18e83	-0.0788851
56	0xbd320933	-0.043465804
57	0x3dbd534d	0.09244404
58	0x3d9513f3	0.07279196
59	0xbd573513	-0.05254085
60	0xbd06ea0d	-0.032938052
61	0xbe26a195	-0.16272576
62	0x3b51979a	0.003198123
63	0xbcebc073	-0.02877829
64	0x3e0349d0	0.12821126
65	0xbd6b78e0	-0.057488322
66	0x3d67f8da	0.056633808
67	0xbd7bac67	-0.061443713
68	0xbe07d84b	-0.13266103
69	0xbe17cd5f	-0.14824437
70	0xbe1394aa	-0.1441218
71	0x3dfb2f13	0.12264838
72	0xbdf7507d	-0.12075899
73	0x3e03e21b	0.12879221
74	0xbd5af26d	-0.05345385
75	0xbe0afe30	-0.13573527
76	0x3da6fc2d	0.081535675
77	0x3dc30637	0.0952267
78	0x3e122092	0.14270237
79	0x3e80f730	0.2518859
80	0x3e09e214	0.13465148
81	0x3e3f7e41	0.18700506
82	0x3e6a25c8	0.22865975
83	0xbe05b136	-0.13055882
84	0xbd0c8477	-0.034306016
85	0x3de282cb	0.11060103
86	0x3e5060e3	0.2034946
87	0x3e292b93	0.16520528
88	0x3cd0f075	0.025505284
89	0xbe4c0cab	-0.19926707
90	0xbe13ce2a	-0.14434114
91	0x3dabc609	0.083873816
92	0x3e5357ad	0.20638914
93	0xbe3346c3	-0.17507462
94	0xbe82e884	-0.2556802
95	0x3e1d5f32	0.15368345
96	0xbd3fea47	-0.046854284
97	0xbd8a3905	-0.06749157
98	0xbdc2466c	-0.09486088
99	0xbe08b4bf	-0.13350199
100	0x3b436ccd	0.002981949
101	0xbe05950d	-0.1304514
102	0xbe3c86e7	-0.18410836
103	0xbe2fe855	-0.17178471
104	0x3e1d82d8	0.15381944
105	0xbd87c1e0	-0.066287756
106	0x3e4b384a	0.19845691
107	0xbde47cb3	-0.11156597
108	0x3e1887dd	0.14895578
109	0x3e03e14a	0.1287891
110	0x3d947b7d	0.07250116
111	0xbdc4419d	-0.09582827
112	0xbd35a033	-0.04434223
113	0xbdcc2c63	-0.099694036
114	0xbdeac5b3	-0.114634894
115	0xbe0bf4ea	-0.13667646
116	0xbdb873c0	-0.090064526
117	0x3e4c69aa	0.19962183
118	0xbe234d8a	-0.15947548
119	0xbde35843	-0.11100819
120	0xbe33d0c8	-0.17560112
121	0xbd068800	-0.032844543
122	0xbdd333a0	-0.10312581
123	0x3d843977	0.06456273
124	0xbccd9280	-0.02509427
125	0xbe0a6e38	-0.13518608
126	0xbd1ea693	-0.038733076
127	0xbd9438ca	-0.07237394
128	0x3dc10770	0.09425247
129	0xbddd9000	-0.108184814
130	0xbda652e3	-0.08121278
131	0x3e02f22b	0.12787692
132	0x3e1bbc00	0.15208435
133	0xbe4b3e93	-0.19848089
134	0x3e2ee17d	0.17078204
135	0xbb7f9b33	-0.0039002418
136	0xbe0d2ffb	-0.13787834
137	0xbd7cc65a	-0.0617126
138	0xbd35ae87	-0.044355895
139	0x3cad5d73	0.021162724
140	0x3dbd51ed	0.09244142
141	0xbe217380	-0.15766716
142	0xbce04e27	-0.027381016
143	0x3e0f2682	0.13979533
144	0xbe365e05	-0.17809303
145	0xbe32590b	-0.1741678
146	0x3d06d8d3	0.032921623
147	0x3e33108b	0.1748678
148	0xbd570a4d	-0.052500058
149	0x3e099bd5	0.13438351
150	0x3da47a9b	0.08031198
151	0xbd4faea8	-0.050703675
152	0x3dcc4a7c	0.09975144
153	0x3c99468e	0.0187104
154	0xbdb91259	-0.09036703
155	0x3d903a2a	0.07042344
156	0xbe3283d2	-0.17433098
157	0x3e038844	0.1284495
158	0x3da26c35	0.07930795
159	0x3d99a589	0.075022765
160	0x3cdde0f7	0.02708481
161	0xbe5d0d31	-0.21587063
162	0xbe2a0cc0	-0.16606426
163	0x3e275b1f	0.16343354
164	0x3cb53588	0.022120252
165	0x3d74a506	0.05972769
166	0xbe07deed	-0.13268633
167	0xbe0b96bb	-0.13631718
168	0xbcba02b5	-0.022706369
169	0x3e11450d	0.14186497
170	0x3e108ffe	0.14117429
171	0xbda9e0ba	-0.08294816
172	0xbcd1f945	-0.025631556
173	0x3e06b790	0.13155961
174	0x3df47e36	0.11938135
175	0x3e209352	0.15681198
176	0x3e32e484	0.17469984
177	0x3d777d7c	0.060422406
178	0x3d7f5c1d	0.062343705
179	0xbdd24771	-0.102675326
180	0xbe0eb238	-0.13935173
181	0x3cc08611	0.023501428
182	0xbe5356f2	-0.20638636
183	0xbdce6b45	-0.10079054
184	0x3d823546	0.06357817
185	0x3cfac2ee	0.030610528
186	0x3d09e341	0.03366399
187	0xbd64df07	-0.055876758
188	0xbe02f4b8	-0.12788665
189	0x3d28d233	0.041216087
190	0xbbd04b04	-0.006356599
191	0xbb8533ae	-0.0040649986
192	0x3ce056c2	0.02738512
193	0xbe40cbc7	-0.18827735
194	0x3e5ed832	0.2176216
195	0xbdaec33f	-0.08533334
196	0xba1a4ad0	-0.0005885782
197	0x3da13010	0.07870495
198	0xbddc1e29	-0.1074794
199	0x3e3b6606	0.18300638
200	0x3e20fb3b	0.15720837
201	0x3df3da6a	0.119068936
202	0xbe348487	-0.1762868
203	0x3d7febb5	0.062480647
204	0x3e4d5e33	0.20055465
205	0xbba3aa4b	-0.0049946657
206	0xbc37cef2	-0.011218773
207	0x3dc203aa	0.09473355
208	0x3d633df9	0.055479024
209	0x3dd33aa2	0.10313918
210	0x3dcb90f4	0.09939757
211	0x3e413042	0.18866065
212	0x3c2f5ad6	0.010702809
213	0x3dae4992	0.08510126
214	0xbda2311a	-0.07919522
215	0xbcc80bdd	-0.02441972
216	0x3e58041e	0.2109532
217	0x3d5e8aeb	0.0543317
218	0xbd2706a0	-0.040777802
219	0x3df2ffb0	0.11865175
220	0x3dc77ead	0.09740958
221	0xbcec654f	-0.028856901
222	0xbda88a24	-0.08229473
223	0x3d2f9c9a	0.042873956
224	0xbe25f802	-0.16207889
225	0x3d4078ed	0.046990324
226	0xbdebb67a	-0.11509414
227	0x3e314b8a	0.17313972
228	0xbe0fd073	-0.14044361
229	0x3d69283a	0.05692313
230	0xbdf9d68d	-0.121991254
231	0xbe067f30	-0.13134456
232	0x3e19dfdf	0.15026806
233	0xbdc6cca7	-0.09707003
234	0xbda851c7	-0.08218723
235	0xbc0a8c9a	-0.008456374
236	0xbd8e73dd	-0.06955693
237	0xba615000	-0.000859499
238	0xbd7364ba	-0.059422232
239	0xbd339bfa	-0.043849923
240	0xbdbb2303	-0.09137537
241	0xbdc3684a	-0.09541376
242	0xbc4490e7	-0.011997438
243	0xbe4b2c5f	-0.19841145
244	0xbda5d7d7	-0.08097809
245	0xbc9690e7	-0.018379642
246	0x3d8cf060	0.068817854
247	0x3e45472a	0.19265428
248	0x3e3accbd	0.18242164
249	0x3da4053d	0.080088116
250	0xbcfed26a	-0.031106193
251	0xbdb92c22	-0.09041621
252	0x3b7983be	0.003807291
253	0xbe1571c1	-0.14594175
254	0xbdf242fc	-0.118291825
255	0x3e07d74d	0.13265724

layers.0.bias f4 [256]
0	0x3df027b2	0.11726321
1	0xbc98e6c0	-0.018664718
2	0x3e377c20	0.17918444
3	0xbd80400b	-0.06262215
4	0x3da2de60	0.07952571
5	0xbd87f51d	-0.066385485
6	0xbe0a53eb	-0.13508575
7	0x3c9e492a	0.019321997
8	0x3deac675	0.11463634
9	0x3d8f50f0	0.069978595
10	0xbe09b225	-0.13446863
11	0x3d5bbe13	0.053648066
12	0xbe3923b5	-0.18080027
13	0xbe4d59f6	-0.20053849
14	0x3cc5b618	0.02413468
15	0x3e184f53	0.1487401
16	0x3dca674f	0.09882986
17	0xbdd68b96	-0.10475843
18	0x3d402207	0.04690745
19	0x3be8415a	0.0070878686
20	0xbe022247	-0.12708388
21	0xbe2c5727	-0.16830121
22	0x3d839631	0.06425131
23	0x3cdb0621	0.02673632
24	0xba204138	-0.0006113234
25	0xbd808d64	-0.06276968
26	0xbdc31853	-0.09526124
27	0xbdfd6c20	-0.12374139
28	0xbd46c360	-0.048526168
29	0x3e233de4	0.15941578
30	0xbd8109ef	-0.06300723
31	0x3e2e40cf	0.1701691
32	0x3e3f8a4b	0.18705098
33	0x3cdb34a8	0.026758507
34	0x3e396231	0.18103863
35	0xbe22f148	-0.15912354
36	0xbd894727	-0.06703024
37	0xbc8b216e	-0.016983714
38	0xbdf3120d	-0.11868677
39	0xbde4f660	-0.11179805
40	0xbc7ab280	-0.015301347
41	0xbd89c3fb	-0.067268334
42	0xbddd178b	-0.10795506
43	0xbe26fee7	-0.16308175
44	0xbc1f13dd	-0.009709326
45	0xbe06481e	-0.13113448
46	0xbcc9b75c	-0.024623565
47	0x3c91be7b	0.017791023
48	0x3e38f82e	0.18063423
49	0x3d7a9b48	0.061183244
50	0x3e21f811	0.15817286
51	0xbe1426ff	-0.14468001
52	0xbd935dbf	-0.07195615
53	0xbe032756	-0.12807974
54	0x3e46ea47	0.19425307
55	0x3dd3b5e7	0.103374295
56	0xbc194479	-0.009354704
57	0xbdfa3a10	-0.12218106
58	0xbcd4677b	-0.02592825
59	0xbe2a15cd	-0.16609879
60	0xbd74d1da	-0.059770443
61	0xbd89e968	-0.06733972
62	0x3c6b6217	0.014366648
63	0xbd85a7dd	-0.06526158
64	0xbe3756fb	-0.17904274
65	0x3d808830	0.06275976
66	0xbe3f041a	-0.18653908
67	0x3d65fa57	0.056146946
68	0xbdb1054e	-0.0864359
69	0xbd38607a	-0.045013882
70	0x3e2626c7	0.1622573
71	0xbcd22c90	-0.025656015
72	0xbdb4668b	-0.08808621
73	0x3dc81aea	0.097707585
74	0x3da1ab37	0.07893985
75	0xbe2da9d2	-0.16959313
76	0xbe41df2a	-0.18932787
77	0x3d25a10a	0.040436782
78	0xbde8e15e	-0.113711104
79	0xbd3e4202	-0.04644967
80	0x3c6d35ca	0.014478156
81	0xbd3065ab	-0.043065708
82	0x3e44dd5f	0.19225071
83	0xbe041d85	-0.12901886
84	0x3d447560	0.0479635
85	0xbce2aefc	-0.02767133
86	0x3e100aaa	0.14066568
87	0x3dd3df2e	0.103453025
88	0xbd9b0ad7	-0.07570427
89	0x3ca488a8	0.020084694
90	0x3dff6a66	0.12471466
91	0x3ded1fd8	0.11578339
92	0xbdac7b9a	-0.084220126
93	0x3db27c77	0.08715146
94	0x3bd41832	0.006472611
95	0xbdce379b	-0.100692
96	0x3e16697b	0.14688675
97	0xbad01d7e	-0.001587793
98	0xbdd68b5a	-0.10475798
99	0xbd32a76c	-0.043616697
100	0x3df8799a	0.12132569
101	0x3e46053f	0.19337939
102	0xbe02bda6	-0.12767658
103	0xbd91d06c	-0.071198314
104	0x3cf543b3	0.029939508
105	0xbbcf9667	-0.006335068
106	0xbddc473a	-0.10755773
107	0x3e0ca2a3	0.13733916
108	0x3d107773	0.035270166
109	0x3e28f884	0.16501051
110	0xbd4900d4	-0.049073055
111	0x3e3ad545	0.18245418
112	0xbdbcef9d	-0.0922539
113	0x3da46177	0.080264024
114	0x3d4aa614	0.04947479
115	0xbca4e3cd	-0.020128155
116	0xbbd96ce7	-0.0066352966
117	0xbd2504af	-0.04028767
118	0xbdd3d499	-0.10343284
119	0x3e44d6cb	0.19222562
120	0x3dfa3e02	0.12218858
121	0xbe0db698	-0.13839185
122	0xbca62700	-0.020282269
123	0x3b3a3d47	0.0028417872
124	0x3e55f5c5	0.20894535
125	0x3df71dd0	0.12066233
126	0xbd8c25c3	-0.0684314
127	0xbda38729	-0.07984764
128	0x3db3cb74	0.0877904
129	0x3e449873	0.1919878
130	0x3d6f0a43	0.058359396
131	0xbd5ba8d0	-0.05362779
132	0xbde92df0	-0.11385715
133	0xbcdb7ac2	-0.026791934
134	0x3e2daf46	0.16961393
135	0xbc366c90	-0.011134282
136	0xbde83f25	-0.11340169
137	0x3d8f5a95	0.06999699
138	0xbdaef1dd	-0.085422255
139	0xbe36c40d	-0.17848225
140	0xbe075685	-0.13216598
141	0x3e49fb84	0.19724852
142	0x3dbcb900	0.092149734
143	0x3cf362dd	0.029710228
144	0x3e40221c	0.18763012
145	0xbe2148d3	-0.15750436
146	0x3d3f2f0b	0.046675723
147	0x3dba34fd	0.09092138
148	0xbd9de61d	-0.07709906
149	0xbe22c34a	-0.1589481
150	0xbe3711d1	-0.1787789
151	0xbe40b316	-0.18818316
152	0xbe074a9b	-0.13212053
153	0xbd6c6c76	-0.057720624
154	0x3defac94	0.117028385
155	0x3d4ecd53	0.05048878
156	0x3e3b90a7	0.18316899
157	0xbdc6e410	-0.09711468
158	0x3bab7700	0.0052326918
159	0x3e1d3319	0.15351523
160	0x3de06fe5	0.10958842
161	0x3d06d2db	0.03291593
162	0x3ced37d6	0.028957289
163	0x3d909174	0.07058993
164	0x3db6318f	0.08896171
165	0x3d7da509	0.061924968
166	0xbde70bd5	-0.11281554
167	0xbd8a4700	-0.067518234
168	0x3da7352e	0.0816444
169	0xbd72e031	-0.059295837
170	0xbdc318da	-0.095262244
171	0xbe2eea84	-0.17081648
172	0xbe1925db	-0.14955847
173	0xbd883cbd	-0.0665221
174	0x3e2086ed	0.1567647
175	0x3df2ddaf	0.11858689
176	0xbe1f17c5	-0.15536411
177	0x3e1a2002	0.15051273
178	0xbe27d71c	-0.16390651
179	0xbda4eff0	-0.08053577
180	0x3e175fc7	0.1478263
181	0x3c0d5080	0.00862515
182	0xbd9f9ba9	-0.07793362
183	0xbc0d712b	-0.008632938
184	0xbdf62ba3	-0.12020042
185	0x3e255778	0.16146648
186	0x3e2113b3	0.15730171
187	0x3db14ea3	0.08657577
188	0xbdebf2ad	-0.11520896
189	0x3e3c7554	0.18404132
190	0x3dec877d	0.1154928
191	0x3db61531	0.08890761
192	0x3e16a12b	0.14709918
193	0xbc51739a	-0.012783909
194	0x3d33d570	0.04390472
195	0xbcffd3e4	-0.031228967
196	0x398ac9ec	0.00026471855
197	0x3daac0ae	0.08337532
198	0xbe515200	-0.20441437
199	0xbd2ced21	-0.04221833
200	0x3e1ce28d	0.15320797
201	0x3e3c15a7	0.18367635
202	0x3e007345	0.12543972
203	0xbad46523	-0.0016204457
204	0x3abee39e	0.0014563685
205	0xbe19b000	-0.15008545
206	0xbd8f9ca0	-0.07012296
207	0xbe3e78f1	-0.18600823
208	0x3e4ea78a	0.20181099
209	0xbc36126a	-0.011112789
210	0xbc25949d	-0.010106233
211	0x3e3b2861	0.18277122
212	0xbdb8ac1c	-0.09017202
213	0xbdb14c40	-0.08657122
214	0xbe069641	-0.13143255
215	0xbdfebd61	-0.12438465
216	0xbddd7d76	-0.108149454
217	0x3d10fc76	0.035397016
218	0xbd67b876	-0.0565724
219	0xbe47fde7	-0.1953045
220	0xbe44b97a	-0.19211379
221	0xbdf05980	-0.11735821
222	0x3e1008e4	0.14065892
223	0xbe4fc72c	-0.20290822
224	0xbdb3334f	-0.08750021
225	0x3e088225	0.13330896
226	0xbe4a502f	-0.1975715
227	0xbdd72a74	-0.10506144
228	0x3e109d4a	0.14122501
229	0x3dd89dbe	0.10576962
230	0x3e49be6b	0.19701545
231	0x3e32d0c3	0.17462449
232	0x3e4c9a51	0.19980742
233	0xbddbda71	-0.10735024
234	0xbc27595c	-0.010214176
235	0xbe424c2c	-0.1897437
236	0xbdd0259d	-0.10163424
237	0xbd69754d	-0.056996632
238	0xbe2eb9fb	-0.17063133
239	0xbe3f2276	-0.1866549
240	0xbe1446c5	-0.14480121
241	0x3d1df8a4	0.0385672
242	0x3de19237	0.110142164
243	0xbe35eca6	-0.17766055
244	0x3e184f50	0.14874005
245	0xbce1660c	-0.02751448
246	0x3bf35504	0.007425906
247	0xbbd266d4	-0.0064209495
248	0x3dd372f7	0.10324662
249	0x3d5f5e9a	0.05453358
250	0x3d90f445	0.07077841
251	0x3ce27839	0.027645217
252	0xbba12034	-0.004917169
253	0x3dc63208	0.096775115
254	0x3e06f19c	0.13178104
255	0xbe25bd42	-0.16185477

layers.1.weight f4 [256, 256]
0	0x3b811231	0.003938936
1	0x3d5abff6	0.053405724
2	0x3d32a236	0.043611728
3	0x3c9deef0	0.019278973
4	0x3a2edc80	0.00066704303
5	0xbd7e6e12	-0.06211669
6	0x3cd7411f	0.02627617
7	0xbd56f852	-0.05248291
8	0xbc891381	-0.016732933
9	0x3d75e26e	0.060030393
10	0x3dd3cac9	0.103414126
11	0xbd6370b6	-0.05552741
12	0xbc9b9657	-0.018992586
13	0x3d835212	0.06412138
14	0x3c2bc019	0.010482811
15	0x3de6b3d4	0.11264768
16	0xbd8b775d	-0.06809876
17	0x3d143c8f	0.036190566
18	0x3c95d475	0.018289784
19	0xbd027513	-0.031849932
20	0x3d42e000	0.047576904
21	0xbd70f6d8	-0.05882916
22	0xbe04f9dc	-0.12985939
23	0xbcaf1bd3	-0.021375572
24	0x3bf1f325	0.0073837214
25	0xbd4e447d	-0.050358284
26	0xbc8e5b20	-0.017377436
27	0x3c82136f	0.015878407
28	0x3d59010a	0.052979507
29	0x3d1b509f	0.037918683
30	0x3e2553ae	0.16145203
31	0x3d0fc082	0.0350957
32	0xbc53cdfc	-0.0129275285
33	0x3d2ee5dd	0.042699683
34	0x3dbd9669	0.09257204
35	0x3c7e75a9	0.015530982
36	0x3d7bde50	0.06149131
37	0x3dabfca9	0.083978005
38	0x3d0e6c08	0.034770995
39	0x3d06ff58	0.03295836
40	0xbc51b67c	-0.012799855
41	0x3c303f34	0.010757256
42	0xbd44fa86	-0.04809048
43	0xbc80a56c	-0.01570388
44	0xbcb5991e	-0.022167739
45	0x3cbf26ff	0.023334024
46	0xbd88a487	-0.06672006
47	0x3d9ee0cc	0.0775772
48	0x3d226aab	0.039652508
49	0x3d3183a1	0.04333842
50	0xbba65bb4	-0.00507685
51	0xbd5a9bb2	-0.05337114
52	0xbdaca97a	-0.084307626
53	0x3dd3a206	0.10333638
54	0x3b969250	0.0045950785
55	0x3cfd2d36	0.030905347
56	0x3d146ca7	0.03623643
57	0xbd519634	-0.051168635
58	0xbd009c21	-0.031398896
59	0xbd33816c	-0.0438246
60	0x3d1d85ff	0.038457867
61	0xbe005785	-0.12533386
62	0x3bc7ff24	0.006103413
63	0xbdb47176	-0.088107035
64	0x3c82ac38	0.01595126
65	0x3df65657	0.12028187
66	0x3c0ec038	0.008712821
67	0xbb02ae6c	-0.001994039
68	0x3ba42f16	0.005010496
69	0xbd111e68	-0.03542939
70	0xbdf20d6e	-0.11818968
71	0x3d1fc22a	0.03900353
72	0x3ca41c70	0.020033091
73	0xbc962e40	-0.0183326
74	0x3b0a7149	0.0021124652
75	0x3d5a4cf0	0.05329603
76	0x3beafe50	0.0071714297
77	0x3db8ec06	0.09029393
78	0xbdbd40e5	-0.09240893
79	0xbca051ab	-0.019570192
80	0xbcdc6744	-0.02690471
81	0xbdbcceee	-0.09219156
82	0x3d328369	0.043582354
83	0x3b1b1995	0.002366637
84	0x3cbd39c4	0.023098834
85	0xbdbee114	-0.09320274
86	0x3dfda6fc	0.12385365
87	0x3bf9061c	0.0075996052
88	0xbc10c278	-0.008835427
89	0x3d8221d9	0.06354112
90	0x3b02cd6e	0.0019958871
91	0xbc84a337	-0.016191108
92	0x3d509942	0.050927408
93	0x3d1b613e	0.037934534
94	0xbce47c73	-0.027891373
95	0x3cd7c33e	0.026338216
96	0x3bcd3720	0.006262675
97	0xbd5eb55c	-0.054372177
98	0x3c821437	0.01587878
99	0x3d139e64	0.036039725
100	0xbc9f2e0c	-0.019431137
101	0x3d593788	0.053031474
102	0xbd1ed446	-0.03877666
103	0xbc5d3afd	-0.013502833
104	0xbd3d2568	-0.04617825
105	0x3bc9ff80	0.006164491
106	0x3d01014e	0.031495385
107	0x3d99a385	0.07501892
108	0x3d476c88	0.048687488
109	0xbd707c33	-0.058712196
110	0xbcd2a62c	-0.025714003
111	0x3de24461	0.110481985
112	0xbd354212	-0.044252463
113	0x3d521eb2	0.051298805
114	0xbd829f60	-0.063780546
115	0x3c161220	0.009159595
116	0x3bab91f9	0.005235907
117	0x3c8f5853	0.017498171
118	0x3d1d3629	0.03838173
119	0xbd28f938	-0.0412533
120	0x3da53390	0.080664754
121	0xbd9841ef	-0.07434451
122	0x3cadddae	0.02122387
123	0xbe0e7200	-0.13910675
124	0x3da0f94b	0.07860049
125	0xbcffc874	-0.031223513
126	0xbc839948	-0.016064301
127	0xbda57c08	-0.08080298
128	0x3d87a338	0.066229284
129	0xbd6942d2	-0.05694849
130	0xbd8e808a	-0.06958111
131	0xbd9373fd	-0.071998574
132	0x3b06fc60	0.0020597205
133	0xbc15c2bb	-0.009140666
134	0xbd2960be	-0.041352026
135	0x3b1e1034	0.0024118545
136	0xbd1cd3e0	-0.038287997
137	0xbca81888	-0.02051951
138	0xb9877c8c	-0.00025842
139	0x3d13e00e	0.036102347
140	0x3d5b0188	0.053468257
141	0x3dda1fb8	0.10650581
142	0xbb6332ed	-0.0034667805
143	0x3dbfdc4e	0.09368192
144	0xbb38bdcc	-0.00281893
145	0x3d0a7912	0.033806868
146	0x3d539ad8	0.051661342
147	0x3d22c84d	0.039741803
148	0xbcac0858	-0.021000072
149	0xbccd8198	-0.02508621
150	0x3d3f05ce	0.046636395
151	0x3d5e6b8c	0.054301783
152	0x3dccfbea	0.10008986
153	0xbd5ca12b	-0.05386464
154	0x3cde94f4	0.027170636
155	0x399c0d00	0.00029764324
156	0xbe13f239	-0.1444787
157	0x3d2231ac	0.039598152
158	0xbd0d7e8e	-0.03454452
159	0xbd9ef99c	-0.07762453
160	0xbdc3ce2d	-0.09560809
161	0x3c99492c	0.018711649
162	0xbd890cde	-0.06691907
163	0x3c68e003	0.014213565
164	0x3d2e4f56	0.04255613
165	0x3c10232c	0.008797448
166	0x3bb534b7	0.0055299657
167	0x3cd31578	0.025767073
168	0x3cf46caf	0.02983698
169	0xbd7b348e	-0.061329417
170	0xbc8798b4	-0.016552307
171	0x3d56e5bb	0.05246518
172	0xbba8ee94	-0.005155394
173	0x3cd3695c	0.025807075
174	0x3d64eca3	0.055889737
175	0xbb952c23	-0.0045523806
176	0x3d9fdd16	0.07805841
177	0x3d75d894	0.060020998
178	0x3cc65faf	0.024215547
179	0xbd8e26fa	-0.06941028
180	0x3d830f32	0.06399383
181	0x3d03ec02	0.032207496
182	0x3d6dc54e	0.058049493
183	0x3d849473	0.06473627
184	0x3bcd0550	0.006256737
185	0xbe27cf49	-0.16387667
186	0xbc4cedc6	-0.0125078615
187	0xbdfd2b72	-0.12361802
188	0xbc0d66b8	-0.008630447
189	0x3cb5719f	0.022148905
190	0x3d26ddf9	0.040739033
191	0xbd89c93a	-0.06727834
192	0xbcf03a58	-0.029324695
193	0x3cbc57ec	0.022991143
194	0xbcaef4a6	-0.021356892
195	0xbc99b8a2	-0.018764798
196	0x3d92cd68	0.071680844
197	0x3d265268	0.040605932
198	0x3d50d9aa	0.05098883
199	0x3d375cf4	0.04476638
200	0xbd50ea9c	-0.05100499
201	0x3e10e459	0.14149608
202	0xbd3c996b	-0.04604475
203	0x3c68635d	0.014183846
204	0xbd0551aa	-0.032548584
205	0x3df2da26	0.11858015
206	0x3c47dea8	0.0121990815
207	0x3c0861a5	0.0083240615
208	0x3d0c52fa	0.03425882
209	0xbc53217c	-0.012886401
210	0x3c9a5170	0.01883766
211	0x3d14350d	0.036183406
212	0xbca172a1	-0.01970798
213	0x3bb10938	0.0054027103
214	0x3d2db3c6	0.042407773
215	0x3d869ca4	0.065728456
216	0x3c6d8357	0.014496646
217	0xbd596054	-0.05307038
218	0x3c235b6d	0.009970528
219	0xbce937f8	-0.02846907
220	0x3d3bef22	0.04588235
221	0xbca394f8	-0.019968495
222	0x3d9265c8	0.071483195
223	0xbdae234a	-0.085028246
224	0xbdaa761b	-0.08323308
225	0xb9815cd0	-0.00024673948
226	0x3d02e83c	0.031959757
227	0x3c93cad6	0.018041056
228	0xbd69264a	-0.05692128
229	0xbda93029	-0.08261139
230	0x3cf1c76f	0.029514043
231	0x3a34a0c6	0.0006890412
232	0x3d265034	0.04060383
233	0x3c0002ca	0.007813165
234	0xbdc67d8f	-0.09691917
235	0x3c8d94a3	0.01728279
236	0xbd200b96	-0.03907355
237	0x3d3b015e	0.0456556
238	0x3ca7e234	0.020493604
239	0xbe1d8c25	-0.15385492
240	0x3d0b84b3	0.0340621
241	0xbde3250c	-0.110910505
242	0xbd6bc33b	-0.057559233
243	0xbd9c4e26	-0.07632093
244	0xbda0959f	-0.07841038
245	0xbae630ea	-0.0017562185
246	0x3dbccbc5	0.092185535
247	0xbc0f8901	-0.008760692
248	0x3cfbfde3	0.030760711
249	0x3d010f5e	0.031508796
250	0xbcae4e1a	-0.021277476
251	0xbaeee33e	-0.0018225682
252	0x3c8bd702	0.017070297
253	0xbc75fb2b	-0.015013496
254	0x3c7916a3	0.015203151
255	0xbd5b60c4	-0.05355908

layers.1.bias f4 [256]
0	0x3c004868	0.007829763
1	0x3d3ca245	0.04605319
2	0xbd421f5f	-0.0473932
3	0xbb7d18df	-0.003861956
4	0x3d38e676	0.04514166
5	0xbc9db47c	-0.0192511
6	0xbce18ccc	-0.027532957
7	0xbd1b90d8	-0.03797993
8	0xbd329d13	-0.04360683
9	0xbc9861f5	-0.018601397
10	0xbcfe96c9	-0.03107776
11	0xbd23a326	-0.039950512
12	0xbd7e1838	-0.062034816
13	0xbb989d12	-0.004657396
14	0x3d98c317	0.074590854
15	0x3ce3d88c	0.027813219
16	0x3d158928	0.036507756
17	0xbd149126	-0.036271237
18	0xbb40cacc	-0.0029417751
19	0x3d21c997	0.03949889
20	0xbb8fe7cb	-0.0043916455
21	0xbd3d7288	-0.046251804
22	0x3d347667	0.04405823
23	0xbc6fca38	-0.014635615
24	0xbd0ed329	-0.034869347
25	0x3c885756	0.016643208
26	0xbccff113	-0.025383508
27	0x3d7b477d	0.061347473
28	0xbd2a93c8	-0.04164484
29	0xbced1596	-0.028940957
30	0xbc677480	-0.014126897
31	0xbd41646d	-0.047214914
32	0xbc2b6a95	-0.010462423
33	0x3d6bcc68	0.057567984
34	0xbcbe4a0a	-0.023228664
35	0xbc533213	-0.012890357
36	0xbb8235de	-0.0039737066
37	0xbd07fd9c	-0.033200845
38	0x3d361a8a	0.044458903
39	0x3d278847	0.04090145
40	0x3c9d6610	0.019213706
41	0xbb1d18d0	-0.0023971088
42	0xbd33a465	-0.04385795
43	0xbd5c96b5	-0.053854663
44	0xbcd31ed0	-0.025771528
45	0x3c556a11	0.0130257765
46	0x3d39901d	0.045303453
47	0x3d3eaa6d	0.04654925
48	0x3d48b9e8	0.04900542
49	0xbd5d0825	-0.053962845
50	0xbd351e94	-0.044218615
51	0x3d00f6e8	0.03148547
52	0x3bf1b790	0.0073766187
53	0xbc0f4f33	-0.00874691
54	0x3c96079a	0.018314172
55	0xbc856096	-0.016281407
56	0x3d1f6e83	0.03892375
57	0x3c8205c9	0.0158719
58	0x3b8ebb87	0.004355851
59	0x3ce4409b	0.027862838
60	0x3d6e867d	0.058233727
61	0xbd86ab17	-0.065756015
62	0xbc6b8178	-0.0143741295
63	0x3c9a3671	0.018824788
64	0xbd67526b	-0.056475084
65	0x3d4580c4	0.048218504
66	0xbd793691	-0.060843054
67	0xbcd46afb	-0.025929919
68	0xbcd01a2c	-0.025403105
69	0x3cd9a18f	0.026566295
70	0xbce89ec4	-0.028396018
71	0x3d889d61	0.06670643
72	0x3c9348d0	0.017979056
73	0x3d96ded3	0.07366719
74	0xbd6c3056	-0.057663284
75	0x3d74e0c2	0.05978466
76	0xbc5a0d54	-0.013308842
77	0xbd10e3ec	-0.035373613
78	0xbd48b167	-0.04899731
79	0x3d464610	0.04840666
80	0xb83c6a54	-4.492172e-05
81	0x3cadfdaf	0.02123913
82	0x3d40a252	0.0470298
83	0x3ca0a8b8	0.019611701
84	0x3d71d2f4	0.05903907
85	0xba1b9b94	-0.00059359637
86	0xbc5da3d0	-0.0135278255
87	0x3d5bab72	0.0536303
88	0xbd06d4ac	-0.032917663
89	0xbd0b06e5	-0.033942122
90	0xbd3ebae0	-0.046564937
91	0x3c38fd78	0.0112909
92	0x3c4ac27b	0.012375469
93	0xbcfe4d9a	-0.031042863
94	0xbd0454a9	-0.0323073
95	0xbd807abc	-0.0627341
96	0xbd4a49f4	-0.049386933
97	0x3cbeea7a	0.023305167
98	0x3d724094	0.059143618
99	0xbce23a4e	-0.027615692
100	0x3cb4b796	0.022060197
101	0x3ce894c7	0.028391255
102	0xbca75b2d	-0.020429218
103	0xbcd311ae	-0.025765266
104	0x3cc5281a	0.024066973
105	0x3d205e20	0.039152265
106	0x3d8c3fc3	0.06848099
107	0x3bda1fce	0.0066566234
108	0x3d649567	0.055806544
109	0x3bd35330	0.0064491257
110	0x3c31880d	0.01083566
111	0xbd188dfc	-0.03724478
112	0x3c31c111	0.010849253
113	0x3cbad5c0	0.022807002
114	0xbc3b2da2	-0.011424454
115	0x3caf3886	0.021389257
116	0x3aa212d8	0.0012365235
117	0x3b8a7dc5	0.0042264187
118	0xbc7fb370	-0.015606746
119	0xbc82fd74	-0.015989996
120	0xbbf38c15	-0.0074324706
121	0x3d7e8db5	0.06214686
122	0x3c3fb36b	0.011700491
123	0xbd34011d	-0.043946374
124	0x3ca2ddae	0.019881096
125	0xbcd41f95	-0.025893966
126	0x3b9116ff	0.00442779
127	0xbd18d80a	-0.037315406
128	0x3cd47458	0.025934383
129	0x3ce08eef	0.027411906
130	0xbd7d8c44	-0.061901346
131	0xbd29bc4c	-0.04143934
132	0xbcc4659a	-0.023974229
133	0xbd0cc7ed	-0.03437035
134	0xbb745cf6	-0.0037286854
135	0xbcfaa880	-0.030597925
136	0xbbf8ebd0	-0.0075964704
137	0xbd1d09d0	-0.038339436
138	0xbc9c38fc	-0.019070141
139	0x3d5db647	0.05412891
140	0xbd417968	-0.047234923
141	0x3c8f6935	0.017506221
142	0xbd08c7a7	-0.03339353
143	0x3cc379ca	0.023861784
144	0xbd21de63	-0.039518725
145	0xbc859431	-0.016306015
146	0x3c9efc00	0.019407272
147	0xbbea2ad0	-0.007146217
148	0x3d3cb27c	0.046068653
149	0xbc530e6f	-0.012881859
150	0xbcaa531f	-0.020791588
151	0x3d8aeaa0	0.067830324
152	0x3ca62a64	0.020283885
153	0xbc93ae55	-0.018027464
154	0xbd8a69af	-0.06758439
155	0x3d63f3a9	0.055652294
156	0xbd4f8614	-0.050664976
157	0xbc84ba60	-0.016202152
158	0x3d8d2fcc	0.06893882
159	0x3c6bab33	0.014384079
160	0xbca9579c	-0.020671658
161	0xbd516496	-0.051121317
162	0xbd5d392b	-0.054009598
163	0xbc7f10d8	-0.015567981
164	0x3d5d4177	0.05401751
165	0xbd4514fb	-0.04811571
166	0xbd404d61	-0.046948794
167	0xbb958efe	-0.004564165
168	0x3d7ad87b	0.061241608
169	0x3d7029b9	0.05863354
170	0x3d443d13	0.047909807
171	0x3be1da90	0.0068925098
172	0xbd0f2782	-0.034949787
173	0xbd1cc248	-0.03827122
174	0xbd617736	-0.05504533
175	0xbc2676dd	-0.010160175
176	0xbcbf95a3	-0.023386782
177	0xbd0f5e34	-0.03500195
178	0xba0cb2aa	-0.0005367199
179	0x3d8bf50c	0.06833848
180	0x3d533e96	0.05157336
181	0x3bf76f33	0.007551098
182	0xbd41a6c4	-0.04727818
183	0xbd18034c	-0.03711252
184	0xbd29a2b4	-0.04141493
185	0x3d159b0b	0.036524814
186	0xbc3f1c5b	-0.011664475
187	0xbbe55470	-0.006998591
188	0x3d29210c	0.04129128
189	0xbc765d15	-0.015036841
190	0xbc9a32ed	-0.018823111
191	0x3c2349e7	0.00996635
192	0xb6240166	-2.4438718e-06
193	0x3d085d9b	0.033292394
194	0x3ce4648d	0.027879978
195	0x3c8f4f6e	0.01749393
196	0xbd7b2bd5	-0.0613211
197	0xbcedf3ff	-0.02904701
198	0x3d6d2bbc	0.057903036
199	0xbd5ca55e	-0.053868644
200	0xbd23ac92	-0.039959498
201	0xbc86bc09	-0.016447084
202	0xbb09b2e0	-0.0021011159
203	0xbd79d40e	-0.060993247
204	0xbd428030	-0.04748553
205	0xbd17c6be	-0.03705477
206	0x3d0bc7b4	0.034126
207	0xbc6bc8b4	-0.014391113
208	0x3d4c154a	0.04982499
209	0xbc0ceea0	-0.0086018145
210	0xbcd72b24	-0.026265688
211	0x3b587f4a	0.0033034855
212	0x3d92e6b3	0.07172909
213	0x3b7068f2	0.0036683646
214	0xbc651fb0	-0.013984606
215	0xbc00cb0c	-0.00786091
216	0xbba7d3af	-0.00512167
217	0xbd59579e	-0.053062074
218	0x3ce4c308	0.02792503
219	0x3cca6061	0.02470416
220	0x3d66f330	0.056384265
221	0xbd807fe6	-0.06274395
222	0xbc790218	-0.015198253
223	0xbbebbf00	-0.0071944
224	0x3cdeb824	0.027187414
225	0xbc4e5785	-0.0125941085
226	0xbccc2f68	-0.024924949
227	0x3ccdfd94	0.02514533
228	0xbb9a10f0	-0.004701726
229	0x3d44633e	0.047946207
230	0x3d508ecd	0.050917435
231	0xbba41a7d	-0.0050080405
232	0xbd0f0b2b	-0.03492276
233	0xbd5f8e48	-0.05457905
234	0xbbd629ef	-0.0065357606
235	0x3c9eb38b	0.019372722
236	0xba826300	-0.0009947717
237	0xbb900326	-0.0043949066
238	0xbcc4d433	-0.024026966
239	0xbb9059df	-0.0044052447
240	0x3c2b7763	0.010465476
241	0xbd25506a	-0.040359892
242	0x3d05fd7a	0.032712437
243	0xbd1a0695	-0.037603933
244	0x3c6dce53	0.014514524
245	0xbd384b4c	-0.044993684
246	0xbab7ebc9	-0.0014032061
247	0x3d72f4b1	0.059315387
248	0xbd5e8788	-0.05432847
249	0x3baf720d	0.005354172
250	0x3d2423f7	0.04007336
251	0x3d3a6bd4	0.04551299
252	0x3d0156b4	0.031576827
253	0x3ce6461a	0.028109599
254	0x3b3534e3	0.002764993
255	0xbc9afde9	-0.018919902

predict.weight f4 [5, 256]
0	0x3dfa8df7	0.12234109
1	0x3d8be918	0.068315685
2	0xbdbb0449	-0.09131677
3	0x3d6d0b9d	0.057872403
4	0xbc7b0e16	-0.015323183
5	0xbd524b2c	-0.05134122
6	0xbd03f6c4	-0.032217756
7	0x3de1e48d	0.11029921
8	0x3dd77a85	0.105214156
9	0xbd66b196	-0.056321703
10	0xbd0db324	-0.03459467
11	0xbd31a12a	-0.04336659
12	0xbadcb480	-0.0016838461
13	0xbc8ff869	-0.017574506
14	0xbc85e468	-0.016344264
15	0x3d8e87a6	0.06959467
16	0xbdba2699	-0.09089393
17	0x3c3549b8	0.011064939
18	0x3cf44fe8	0.029823259
19	0xbcf3feea	-0.029784638
20	0xbd3cb71e	-0.04607307
21	0x3d4101f1	0.047120992
22	0x3bdb75c5	0.006697389
23	0x3d35bb62	0.044368155
24	0xbd4c5af1	-0.049891416
25	0x3dc8a1cd	0.09796486
26	0x3d84b78c	0.06480321
27	0xbd2d9fdc	-0.042388782
28	0xbd519e54	-0.051176384
29	0xbd13793e	-0.036004297
30	0x3d09e214	0.03366287
31	0x3da0a90e	0.078447446
32	0xbcf79fc9	-0.030227559
33	0xbdb162a6	-0.08661394
34	0x3a18568e	0.00058112375
35	0x3d88d5f7	0.066814356
36	0x3c6ca0bf	0.014442622
37	0x3b7b2ba0	0.0038325563
38	0xbdf0bfcf	-0.117553346
39	0x3ccf413a	0.025299657
40	0x3d23abac	0.03995864
41	0xbb199d6a	-0.0023439773
42	0xbcc40984	-0.023930319
43	0xbc7271b6	-0.014797619
44	0xbd838bd0	-0.064231515
45	0x3de0ca1d	0.1097605
46	0x3747e640	1.1914934e-05
47	0x3d9f461b	0.077770434
48	0xbcccf5fa	-0.025019635
49	0x3b9806b0	0.004639469
50	0xbce40fec	-0.027839623
51	0x3e13aa42	0.14420417
52	0x3cb6e2d8	0.022324964
53	0x3d9f7351	0.07785667
54	0x3d87e97b	0.0663633
55	0x3d8b96a9	0.068158455
56	0xbd5c8f61	-0.053847674
57	0xbd3ab187	-0.04557946
58	0xbbdd5b2a	-0.0067552524
59	0x3dd4a96b	0.103838764
60	0x3e1499df	0.14511822
61	0xbb4303f8	-0.0029757004
62	0xbcdf0005	-0.027221689
63	0x3c6ffc1c	0.01464751
64	0xbd4d0822	-0.050056584
65	0x3d1f467e	0.038885586
66	0xbc9c5fcf	-0.019088654
67	0x3b40b2fe	0.0029403563
68	0xbc3b707c	-0.011440393
69	0xbdab76fa	-0.08372302
70	0x3c4c0008	0.012451179
71	0xbd2d4562	-0.042302497
72	0x3c010dfc	0.007876869
73	0xba5f774e	-0.00085245527
74	0xbce19328	-0.02753599
75	0xbbc442e1	-0.005989418
76	0xbd9ebcb0	-0.07750833
77	0xbd30874a	-0.04309777
78	0x3d25a29f	0.04043829
79	0xbdac65a2	-0.084178224
80	0x3d05a989	0.032632384
81	0x3cef3a0a	0.02920248
82	0xbd181dd7	-0.037137832
83	0xbd6616c8	-0.05617407
84	0xbbbf2960	-0.0058337897
85	0x3ced4618	0.028964087
86	0xbb2f03e0	-0.002670519
87	0x3c8eb133	0.01741848
88	0x3d2c2e7a	0.04203651
89	0xbae31068	-0.0017323615
90	0x3cee8f10	0.029120952
91	0x3d14e5ce	0.03635197
92	0xbd215750	-0.03938991
93	0x3d84375d	0.06455872
94	0xbd28053b	-0.041020613
95	0xbcb65c2a	-0.022260744
96	0xbcd21188	-0.025643125
97	0xbd908c9c	-0.07058069
98	0x3d6479ae	0.055780105
99	0xbd41470a	-0.04718689
100	0xbcf51df1	-0.029921504
101	0x3ceead69	0.029135423
102	0x3d202c51	0.039104763
103	0x3d53f870	0.0517506
104	0xbd2a6c9a	-0.041607477
105	0x3c84db2f	0.016217796
106	0xbd3b9a67	-0.045801546
107	0xbd87b67c	-0.06626603
108	0x3c8ee34e	0.017442372
109	0x3cdf741c	0.027277045
110	0xbcb0b192	-0.021569047
111	0x3d8d7e93	0.06908908
112	0xbdba1a53	-0.09087052
113	0xbd549612	-0.05190093
114	0xbcd929fa	-0.026509274
115	0x3dda059e	0.10645603
116	0x3cd246f6	0.025668602
117	0xbc25cac2	-0.010119142
118	0xbcd8816a	-0.026428897
119	0xbd2ced8a	-0.042218722
120	0xbba24470	-0.004952006
121	0x3db6c7f8	0.0892486
122	0xbdd1f639	-0.10252041
123	0x3d3aff4c	0.045653626
124	0xbce75ded	-0.02824303
125	0xbcffff84	-0.031249769
126	0x3d868cd4	0.065698296
127	0x3d74f0bb	0.05979989
128	0xbd9bbb01	-0.076040275
129	0x3bfdc2a0	0.0077441484
130	0x3d5f52da	0.054522373
131	0xbce39658	-0.02778165
132	0xbb543cf6	-0.0032384968
133	0xbcdb1cf3	-0.026747203
134	0xbd4db5d1	-0.05022222
135	0x3b8a4620	0.0042197853
136	0xbd63153c	-0.055440173
137	0x3bfd547c	0.0077310186
138	0xbcc45b8b	-0.023969432
139	0xbd53eb76	-0.051738225
140	0x3e0310ed	0.12799425
141	0x3bd4f52b	0.006498953
142	0x3da57cee	0.08080469
143	0x3d067cca	0.032833852
144	0x3d420d20	0.0473758
145	0xbd3f4118	-0.046692938
146	0x3d9b218b	0.07574757
147	0x3d340f03	0.04395963
148	0x3e2417f5	0.16024764
149	0x3e037957	0.12839256
150	0x3c2a5fdd	0.010398832
151	0x3cf83fea	0.030303914
152	0xbd573994	-0.052545145
153	0xbc5932e0	-0.013256758
154	0xbba300d0	-0.004974462
155	0x3ddde43a	0.108345464
156	0x3d1206ae	0.0356509
157	0xbcb211d8	-0.021737024
158	0x3c97d8cf	0.018536
159	0xbc82198c	-0.015881322
160	0x3988c100	0.00026083738
161	0xbda92e37	-0.08260768
162	0x39139310	0.00014073798
163	0x3c9e8b48	0.019353524
164	0xbcca9f63	-0.024734205
165	0x3cbb1c77	0.022840722
166	0xbca7e78b	-0.02049615
167	0x3e082d77	0.13298593
168	0xbdd110ac	-0.10208258
169	0xbd66e618	-0.05637178
170	0x3d7ce0dd	0.061737884
171	0x3cddb3a4	0.027063198
172	0x3c017cc3	0.007903281
173	0x3c278b1c	0.010226037
174	0x3de7f35b	0.11325713
175	0xbad963f5	-0.0016585576
176	0xbde59313	-0.11209693
177	0x3d12d87a	0.03585098
178	0xbc8a35a4	-0.016871281
179	0x3df49bcb	0.11943778
180	0xbd22553b	-0.039632063
181	0xbc81fa90	-0.015866548
182	0xbd427c16	-0.04748162
183	0x3d779f1a	0.060454465
184	0x3d7e165a	0.062033035
185	0x3cf12090	0.029434472
186	0x3d88aec1	0.06673957
187	0x3d0f4447	0.034977224
188	0xbd0f33c0	-0.034961462
189	0x3b1bfa23	0.0023800216
190	0xbd8ee0c2	-0.06976463
191	0x3d0c6b45	0.034281988
192	0xbc01f2ed	-0.007931453
193	0x3d3317df	0.043723937
194	0xbb28c815	-0.0025754024
195	0x3d7d4048	0.06182888
196	0x3d0666e9	0.032812987
197	0xbda03f5b	-0.07824584
198	0x3dd717f6	0.10502617
199	0x3ca2a44d	0.019853735
200	0xbcaa0361	-0.020753564
201	0xbd647b4c	-0.055781648
202	0xbcba662c	-0.022753797
203	0xbd6b68d2	-0.05747301
204	0xbd694f3e	-0.056960337
205	0xbd4398d2	-0.047753163
206	0x3b88cf05	0.0041750693
207	0x3de86fb2	0.11349429
208	0x3d7666df	0.0601567
209	0x3d50441a	0.050846197
210	0x3d14a9a0	0.03629458
211	0xbd971fba	-0.07379098
212	0xbca894a0	-0.020578682
213	0x3a761da5	0.00093885727
214	0x3c110188	0.008850463
215	0x3cc39ed0	0.023879439
216	0x3b78392c	0.0037875874
217	0x3d2b5436	0.041828357
218	0xbde222ee	-0.110418186
219	0xbd77fae8	-0.060542017
220	0xbdc83f78	-0.09777731
221	0x3d2265f7	0.039648023
222	0xbd56e574	-0.052464917
223	0x3d7ad774	0.06124063
224	0xbb9cd892	-0.0047865594
225	0x3d88c535	0.06678239
226	0x3e0bd163	0.13654093
227	0xbd22d212	-0.03975112
228	0xbcc86a98	-0.02446489
229	0xbd6dddac	-0.05807273
230	0xbd38946a	-0.045063414
231	0x3ccd74e8	0.02508016
232	0x3cf06c3f	0.02934849
233	0xbc9c4829	-0.019077377
234	0x3d9d4816	0.07679765
235	0xbb5b4d74	-0.0033462914
236	0x3cd8c000	0.02645874
237	0xbdb5d43a	-0.0887837
238	0x3d2bbc6c	0.04192774
239	0x3d04735e	0.032336585
240	0x3d87e7c7	0.06636005
241	0xbd5ebc10	-0.05437857
242	0xbc2afcea	-0.010436276
243	0x3d0d4611	0.03449065
244	0xbbf642b8	-0.0075152777
245	0x3d11c854	0.03559144
246	0xbd27e1b0	-0.040986717
247	0x3d4bfa79	0.049799416
248	0xbc16014c	-0.009155583
249	0x3c5fa1d0	0.013649419
250	0x3c98eb55	0.018666903
251	0xbd27e1c3	-0.040986788
252	0xbb287d60	-0.0025709495
253	0xbd0ff916	-0.035149656
254	0x3e01ef11	0.12688853
255	0x3d84fd23	0.064935945

predict.bias f4 [5]
0	0xbd5fd060	-0.05464208
1	0xbc83c20b	-0.016083738
2	0x3d29ec74	0.041485265
3	0x3ca82a0a	0.020527858
4	0xbd2d82cc	-0.042361066

exp_avg f4 [256, 25]
0	0x3bf4d240	0.007471353
1	0x3be77355	0.007063309
2	0x3b66fab3	0.0035244643
3	0x3b1ea7fb	0.002420901
4	0xb8bea72a	-9.091043e-05
5	0x3bf4d240	0.007471353
6	0x39aa6dba	0.0003250668
7	0xbaa33e7e	-0.0012454537
8	0xba0c1870	-0.00053442176
9	0x38fd2051	0.000120699995
10	0x3bf4d240	0.007471353
11	0x3a31b705	0.0006779286
12	0xba81a399	-0.0009890675
13	0xba0ad4be	-0.0005295983
14	0x38aa6268	8.124561e-05
15	0x3bf4d240	0.007471353
16	0x3aa227e2	0.0012371505
17	0xbaa9e038	-0.0012960499
18	0xba1b0a9b	-0.0005914361
19	0x38bf9e9b	9.137132e-05
20	0x3bf4d240	0.007471353
21	0x3b2490a1	0.002511062
22	0xba9896be	-0.0011641604
23	0xb9facdfd	-0.0004783719
24	0x38b6685c	8.697875e-05
25	0x00000000	0.0
26	0x00000000	0.0
27	0x00000000	0.0
28	0x00000000	0.0
29	0x00000000	0.0
30	0x00000000	0.0
31	0x00000000	0.0
32	0x00000000	0.0
33	0x00000000	0.0
34	0x00000000	0.0
35	0x00000000	0.0
36	0x00000000	0.0
37	0x00000000	0.0
38	0x00000000	0.0
39	0x00000000	0.0
40	0x00000000	0.0
41	0x00000000	0.0
42	0x00000000	0.0
43	0x00000000	0.0
44	0x00000000	0.0
45	0x00000000	0.0
46	0x00000000	0.0
47	0x00000000	0.0
48	0x00000000	0.0
49	0x00000000	0.0
50	0x00000000	0.0
51	0x00000000	0.0
52	0x00000000	0.0
53	0x00000000	0.0
54	0x00000000	0.0
55	0x00000000	0.0
56	0x00000000	0.0
57	0x00000000	0.0
58	0x00000000	0.0
59	0x00000000	0.0
60	0x00000000	0.0
61	0x00000000	0.0
62	0x00000000	0.0
63	0x00000000	0.0
64	0x00000000	0.0
65	0x00000000	0.0
66	0x00000000	0.0
67	0x00000000	0.0
68	0x00000000	0.0
69	0x00000000	0.0
70	0x00000000	0.0
71	0x00000000	0.0
72	0x00000000	0.0
73	0x00000000	0.0
74	0x00000000	0.0
75	0xba795862	-0.0009511766
76	0xba4784dd	-0.0007611046
77	0x3a8b9a9b	0.0010650934
78	0xb9b4d20f	-0.0003448878
79	0xb60511f4	-1.9828994e-06
80	0xba795862	-0.0009511766
81	0xb8c8208a	-9.542804e-05
82	0xbaa75dd1	-0.0012769048
83	0x3864c4bd	5.4542663e-05
84	0xb7bf93d2	-2.2837809e-05
85	0xba795862	-0.0009511766
86	0xba1be043	-0.00059461984
87	0xbadde9f4	-0.0016930685
88	0xb7eba648	-2.8091614e-05
89	0xb7176634	-9.024097e-06
90	0xba795862	-0.0009511766
91	0xb9f97b98	-0.00047585065
92	0xbab10e47	-0.0013508283
93	0xb7b6eb10	-2.180555e-05
94	0x378c52c0	1.6727834e-05
95	0xba795862	-0.0009511766
96	0xba31c7a0	-0.00067817606
97	0xba9aedb2	-0.0011820106
98	0x39a52cc2	0.000315046
99	0x378f021a	1.7047907e-05
100	0x00000000	0.0
101	0x00000000	0.0
102	0x00000000	0.0
103	0x00000000	0.0
104	0x00000000	0.0
105	0x00000000	0.0
106	0x00000000	0.0
107	0x00000000	0.0
108	0x00000000	0.0
109	0x00000000	0.0
110	0x00000000	0.0
111	0x00000000	0.0
112	0x00000000	0.0
113	0x00000000	0.0
114	0x00000000	0.0
115	0x00000000	0.0
116	0x00000000	0.0
117	0x00000000	0.0
118	0x00000000	0.0
119	0x00000000	0.0
120	0x00000000	0.0
121	0x00000000	0.0
122	0x00000000	0.0
123	0x00000000	0.0
124	0x00000000	0.0
125	0x00000000	0.0
126	0x00000000	0.0
127	0x00000000	0.0
128	0x00000000	0.0
129	0x00000000	0.0
130	0x00000000	0.0
131	0x00000000	0.0
132	0x00000000	0.0
133	0x00000000	0.0
134	0x00000000	0.0
135	0x00000000	0.0
136	0x00000000	0.0
137	0x00000000	0.0
138	0x00000000	0.0
139	0x00000000	0.0
140	0x00000000	0.0
141	0x00000000	0.0
142	0x00000000	0.0
143	0x00000000	0.0
144	0x00000000	0.0
145	0x00000000	0.0
146	0x00000000	0.0
147	0x00000000	0.0
148	0x00000000	0.0
149	0x00000000	0.0
150	0xbb8bf670	-0.004271321
151	0xbb8d86e6	-0.0043190597
152	0xbb992796	-0.0046739085
153	0xba9febb0	-0.0012200978
154	0x38c1e855	9.2462324e-05
155	0xbb8bf670	-0.004271321
156	0x370fea30	8.57799e-06
157	0x3b8161b9	0.003948417
158	0x38a6af63	7.948165e-05
159	0xb844eb24	-4.6949033e-05
160	0xbb8bf670	-0.004271321
161	0x3a4b3d3f	0.0007752962
162	0x3b3c321e	0.0028716396
163	0x39d717e2	0.0004102579
164	0xb8820388	-6.199541e-05
165	0xbb8bf670	-0.004271321
166	0x39c6aa60	0.00037892442
167	0x3b50e105	0.0031872403
168	0x3a1295b0	0.0005591763
169	0xb91f1960	-0.00015172875
170	0xbb8bf670	-0.004271321
171	0xb90c66f0	-0.00013389788
172	0x3b8f22ad	0.0043681473
173	0xb950b8f1	-0.00019905322
174	0xb8f31308	-0.00011590688
175	0x3a28b12c	0.0006435092
176	0x3a3601bc	0.00069430075
177	0x39ca41bb	0.00038577415
178	0x390494f7	0.00012643995
179	0x36f7b4e9	7.3822343e-06
180	0x3a28b12c	0.0006435092
181	0xb89602c8	-7.1530754e-05
182	0x39b338e1	0.0003418392
183	0xb7f6c16c	-2.9415554e-05
184	0x378a6b97	1.6500982e-05
185	0x3a28b12c	0.0006435092
186	0x3938c7d5	0.0001762205
187	0xb9900705	-0.0002747105
188	0x37c699f8	2.3675137e-05
189	0xb74b2464	-1.2108216e-05
190	0x3a28b12c	0.0006435092
191	0x394cd56f	0.00019534466
192	0x39db301d	0.00041806782
193	0x3898b6f2	7.282001e-05
194	0xb702f459	-7.805495e-06
195	0x3a28b12c	0.0006435092
196	0x3994cebf	0.00028382798
197	0xba19920c	-0.00058582495
198	0x37ae56be	2.0782809e-05
199	0xb761bc15	-1.3454836e-05
200	0xb63d0800	-2.8167851e-06
201	0x387cef10	6.0304126e-05
202	0x3a7847f6	0.0009471172
203	0xb843fd70	-4.6727655e-05
204	0xb6b1d87d	-5.3002136e-06
205	0xb63d0800	-2.8167851e-06
206	0x382c92ea	4.114482e-05
207	0xba61a538	-0.00086076884
208	0x3868046c	5.531723e-05
209	0xb6ffbaee	-7.6213537e-06
210	0xb63d0800	-2.8167851e-06
211	0xb804bd58	-3.1647593e-05
212	0xba9c3d4d	-0.0011920125
213	0xb815d421	-3.572193e-05
214	0xb5fba2b4	-1.874831e-06
215	0xb63d0800	-2.8167851e-06
216	0xb8a8985c	-8.0392434e-05
217	0xba3467b2	-0.0006881907
218	0x38452669	4.7004232e-05
219	0x377f2f4c	1.5210197e-05
220	0xb63d0800	-2.8167851e-06
221	0x37d9cb80	2.5963178e-05
222	0xba65b04a	-0.0008761926
223	0x38ea9076	0.000111848974
224	0x35e0a0b2	1.6736069e-06
225	0x00000000	0.0
226	0x00000000	0.0
227	0x00000000	0.0
228	0x00000000	0.0
229	0x00000000	0.0
230	0x00000000	0.0
231	0x00000000	0.0
232	0x00000000	0.0
233	0x00000000	0.0
234	0x00000000	0.0
235	0x00000000	0.0
236	0x00000000	0.0
237	0x00000000	0.0
238	0x00000000	0.0
239	0x00000000	0.0
240	0x00000000	0.0
241	0x00000000	0.0
242	0x00000000	0.0
243	0x00000000	0.0
244	0x00000000	0.0
245	0x00000000	0.0
246	0x00000000	0.0
247	0x00000000	0.0
248	0x00000000	0.0
249	0x00000000	0.0
250	0x3ac11cac	0.0014733276
251	0x3af26c34	0.0018495382
252	0x3b8da956	0.004323165
253	0x3a10aab6	0.0005518602
254	0xb882907a	-6.225794e-05
255	0x3ac11cac	0.0014733276

exp_avg_sq f4 [256, 25]
0	0x38a4e772	7.8632394e-05
1	0x38a201ad	7.725074e-05
2	0x37c24aef	2.3161496e-05
3	0x3710f3d5	8.63984e-06
4	0x31147ada	2.1606668e-09
5	0x38a4e772	7.8632394e-05
6	0x343947a0	1.7255525e-07
7	0x37754947	1.4620199e-05
8	0x3527e557	6.254608e-07
9	0x318aed9b	4.043341e-09
10	0x38a4e772	7.8632394e-05
11	0x35b19233	1.3230077e-06
12	0x36b3c929	5.358034e-06
13	0x35304e51	6.5679075e-07
14	0x321ebe2e	9.240052e-09
15	0x38a4e772	7.8632394e-05
16	0x369f2244	4.7425583e-06
17	0x371c692f	9.322815e-06
18	0x35300ebd	6.5586556e-07
19	0x3117ba5b	2.2079323e-09
20	0x38a4e772	7.8632394e-05
21	0x372977ad	1.0101049e-05
22	0x372a7cb9	1.0161829e-05
23	0x35307e19	6.5748605e-07
24	0x313347fa	2.6088842e-09
25	0x00000000	0.0
26	0x00000000	0.0
27	0x00000000	0.0
28	0x00000000	0.0
29	0x00000000	0.0
30	0x00000000	0.0
31	0x00000000	0.0
32	0x00000000	0.0
33	0x00000000	0.0
34	0x00000000	0.0
35	0x00000000	0.0
36	0x00000000	0.0
37	0x00000000	0.0
38	0x00000000	0.0
39	0x00000000	0.0
40	0x00000000	0.0
41	0x00000000	0.0
42	0x00000000	0.0
43	0x00000000	0.0
44	0x00000000	0.0
45	0x00000000	0.0
46	0x00000000	0.0
47	0x00000000	0.0
48	0x00000000	0.0
49	0x00000000	0.0
50	0x00000000	0.0
51	0x00000000	0.0
52	0x00000000	0.0
53	0x00000000	0.0
54	0x00000000	0.0
55	0x00000000	0.0
56	0x00000000	0.0
57	0x00000000	0.0
58	0x00000000	0.0
59	0x00000000	0.0
60	0x00000000	0.0
61	0x00000000	0.0
62	0x00000000	0.0
63	0x00000000	0.0
64	0x00000000	0.0
65	0x00000000	0.0
66	0x00000000	0.0
67	0x00000000	0.0
68	0x00000000	0.0
69	0x00000000	0.0
70	0x00000000	0.0
71	0x00000000	0.0
72	0x00000000	0.0
73	0x00000000	0.0
74	0x00000000	0.0
75	0x38226353	3.8716313e-05
76	0x381c534f	3.7270886e-05
77	0x36d051e5	6.208417e-06
78	0x3693731b	4.3943414e-06
79	0x30b106de	1.2880397e-09
80	0x38226353	3.8716313e-05
81	0x33d7bfa5	1.00465776e-07
82	0x368f4446	4.26968e-06
83	0x34c20c0a	3.6144075e-07
84	0x319cfd64	4.5690047e-09
85	0x38226353	3.8716313e-05
86	0x35695963	8.692934e-07
87	0x36704cde	3.580753e-06
88	0x34c4d9b5	3.6666248e-07
89	0x3214d714	8.663637e-09
90	0x38226353	3.8716313e-05
91	0x363665f4	2.7179458e-06
92	0x3669ed5d	3.485787e-06
93	0x34c822bb	3.7278173e-07
94	0x30e3f763	1.6586735e-09
95	0x38226353	3.8716313e-05
96	0x36b38f1c	5.351276e-06
97	0x367abbb8	3.736217e-06
98	0x34c49850	3.6618667e-07
99	0x30d412aa	1.5430335e-09
100	0x00000000	0.0
101	0x00000000	0.0
102	0x00000000	0.0
103	0x00000000	0.0
104	0x00000000	0.0
105	0x00000000	0.0
106	0x00000000	0.0
107	0x00000000	0.0
108	0x00000000	0.0
109	0x00000000	0.0
110	0x00000000	0.0
111	0x00000000	0.0
112	0x00000000	0.0
113	0x00000000	0.0
114	0x00000000	0.0
115	0x00000000	0.0
116	0x00000000	0.0
117	0x00000000	0.0
118	0x00000000	0.0
119	0x00000000	0.0
120	0x00000000	0.0
121	0x00000000	0.0
122	0x00000000	0.0
123	0x00000000	0.0
124	0x00000000	0.0
125	0x00000000	0.0
126	0x00000000	0.0
127	0x00000000	0.0
128	0x00000000	0.0
129	0x00000000	0.0
130	0x00000000	0.0
131	0x00000000	0.0
132	0x00000000	0.0
133	0x00000000	0.0
134	0x00000000	0.0
135	0x00000000	0.0
136	0x00000000	0.0
137	0x00000000	0.0
138	0x00000000	0.0
139	0x00000000	0.0
140	0x00000000	0.0
141	0x00000000	0.0
142	0x00000000	0.0
143	0x00000000	0.0
144	0x00000000	0.0
145	0x00000000	0.0
146	0x00000000	0.0
147	0x00000000	0.0
148	0x00000000	0.0
149	0x00000000	0.0
150	0x39738b6b	0.00023226223
151	0x396d34a7	0.00022621696
152	0x388d7766	6.7456436e-05
153	0x37d92260	2.5884423e-05
154	0x31e5a49d	6.6834915e-09
155	0x39738b6b	0.00023226223
156	0x350e7193	5.3064394e-07
157	0x3825c7d0	3.9525155e-05
158	0x36043eac	1.9706013e-06
159	0x32ec4955	2.7507363e-08
160	0x39738b6b	0.00023226223
161	0x3692dc74	4.376803e-06
162	0x37a0475f	1.9106721e-05
163	0x360f50f7	2.1355788e-06
164	0x32504cb2	1.2124632e-08
165	0x39738b6b	0.00023226223
166	0x3775b0c5	1.4644295e-05
167	0x380e2be6	3.3896322e-05
168	0x36146396	2.2111685e-06
169	0x321b81bb	9.051685e-09
170	0x39738b6b	0.00023226223
171	0x37f90aea	2.9688195e-05
172	0x380dec97	3.383736e-05
173	0x3608353f	2.0296573e-06
174	0x3238adde	1.0749742e-08
175	0x366b0222	3.501897e-06
176	0x3666173f	3.4286202e-06
177	0x353fb382	7.1414263e-07
178	0x34d5da98	3.983339e-07
179	0x2f03ee94	1.199914e-10
180	0x366b0222	3.501897e-06
181	0x32250077	9.60437e-09
182	0x35085036	5.078067e-07
183	0x331761c9	3.5246362e-08
184	0x30055658	4.850782e-10
185	0x366b0222	3.501897e-06
186	0x33b75004	8.536156e-08
187	0x34ee35d9	4.4370134e-07
188	0x332dd830	4.0476323e-08
189	0x2fcfc0a2	3.7789954e-10
190	0x366b0222	3.501897e-06
191	0x3472f111	2.2625706e-07
192	0x34c79062	3.717169e-07
193	0x3319df82	3.5826368e-08
194	0x2f9373be	2.6821384e-10
195	0x366b0222	3.501897e-06
196	0x350bc40b	5.2066815e-07
197	0x3519c013	5.7276446e-07
198	0x3311e15b	3.3965403e-08
199	0x2f3af324	1.7002982e-10
200	0x36c78f90	5.947375e-06
201	0x36c0bb83	5.743875e-06
202	0x35a68706	1.2407261e-06
203	0x3533d59b	6.6993533e-07
204	0x2f694ccd	2.1218512e-10
205	0x36c78f90	5.947375e-06
206	0x32b51537	2.108082e-08
207	0x353fb4ab	7.141595e-07
208	0x335705e4	5.0063946e-08
209	0x30399de8	6.7527006e-10
210	0x36c78f90	5.947375e-06
211	0x341a7c11	1.4387503e-07
212	0x351a3b28	5.7455554e-07
213	0x33775ac1	5.759171e-08
214	0x30761bc7	8.953375e-10
215	0x36c78f90	5.947375e-06
216	0x34e466c2	4.2543076e-07
217	0x35121885	5.442492e-07
218	0x3367e00c	5.3987648e-08
219	0x2f8b3628	2.5322433e-10
220	0x36c78f90	5.947375e-06
221	0x356a694c	8.732502e-07
222	0x35655bd1	8.544276e-07
223	0x3366fde5	5.3781964e-08
224	0x2fa703c8	3.037981e-10
225	0x00000000	0.0
226	0x00000000	0.0
227	0x00000000	0.0
228	0x00000000	0.0
229	0x00000000	0.0
230	0x00000000	0.0
231	0x00000000	0.0
232	0x00000000	0.0
233	0x00000000	0.0
234	0x00000000	0.0
235	0x00000000	0.0
236	0x00000000	0.0
237	0x00000000	0.0
238	0x00000000	0.0
239	0x00000000	0.0
240	0x00000000	0.0
241	0x00000000	0.0
242	0x00000000	0.0
243	0x00000000	0.0
244	0x00000000	0.0
245	0x00000000	0.0
246	0x00000000	0.0
247	0x00000000	0.0
248	0x00000000	0.0
249	0x00000000	0.0
250	0x392be70e	0.00016393905
251	0x39266bae	0.00015871107
252	0x38269d40	3.9723935e-05
253	0x379b3732	1.8503142e-05
254	0x318fa56b	4.1806536e-09
255	0x392be70e	0.00016393905
