highway_ddqn/ddqn_tuned_reward_change/checkpoint-3000.tar (torch, 892334 bytes, 18 tensors)

layers.0.weight f4 [256, 25]
-0.22704811 0.06731611 0.07039776 -0.100618795 1.489388 -0.11387378 1.2488421 -0.72721213
0.47087407 -2.0168834 -0.038658496 0.14626889 0.16878703 -0.37940928 -0.25293761 -0.01907823
0.21629854 -0.36093894 0.07331798 -1.0783736 0.1201879 -0.20581134 0.00089948846 0.20031494
-0.93671495 -0.13649149 -0.13464026 -0.17016351 0.06543577 0.0074178935 -0.103126384 -0.074378565
0.18597041 0.03498373 -0.028827762 0.042610314 0.05731156 0.15240502 -0.03170488 0.17882343
-0.17320926 0.04912877 -0.017670942 0.16811712 -0.14422858 0.0009753704 -0.014377403 -0.06746214
-0.019946098 -0.13490467 -0.035567142 -0.03718946 0.02497666 -0.008952523 -0.10876577 -0.0788851
-0.043465804 0.09244404 0.07279196 -0.05254085 -0.032938052 -0.16272576 0.003198123 -0.02877829
0.12821126 -0.057488322 0.056633808 -0.061443713 -0.13266103 -0.14824437 -0.1441218 0.12264838
-0.12075899 0.12879221 -0.05345385 -0.1890825 0.0064089396 0.39880744 0.12662415 0.81355166
0.081302576 0.21236263 0.27469608 -0.42629248 0.55719924 0.057252936 -0.18068793 0.22323363
-0.31716466 -0.5482427 -0.19768837 0.5159562 0.6201236 -0.20972802 0.30236033 0.10033361
0.06331585 -0.2278466 -0.111488685 0.20550169 0.002981949 -0.1304514 -0.18410836 -0.17178471
0.15381944 -0.066287756 0.19845691 -0.11156597 0.14895578 0.1287891 0.07250116 -0.09582827
-0.04434223 -0.099694036 -0.114634894 -0.13667646 -0.090064526 0.19962183 -0.15947548 -0.11100819
-0.17560112 -0.032844543 -0.10312581 0.06456273 -0.02509427 -0.13518608 -0.038733076 -0.07237394
0.09425247 -0.108184814 -0.08121278 0.12787692 0.15208435 -0.19848089 0.17078204 -0.0039002418
-0.13787834 -0.0617126 -0.044355895 0.021162724 0.09244142 -0.15766716 -0.027381016 0.13979533
-0.17809303 -0.1741678 0.032921623 0.1748678 -0.052500058 0.13438351 0.04374263 -0.092930004
0.35127732 0.2895384 -0.22103083 0.033854004 0.07765521 0.16122529 0.14436017 0.65874004
-0.009484013 -0.66903496 -0.0927789 -0.15806514 0.37390965 0.023158265 -1.0868033 -0.25381434
-0.5507731 0.41995472 0.10460368 -0.060457267 0.08229871 -0.34110963 -0.084282406 0.11611871
0.1621773 -0.33556062 0.20910843 -0.99631596 -0.18004401 0.025147943 -0.31652185 -0.5521632
0.062598035 -0.0100843245 -0.6504458 -0.13983093 -0.4492398 0.2568877 -0.04705114 -0.108690165
-0.39197373 -0.7302844 0.79333216 -0.12602946 -0.21670794 0.39841324 -0.396142 1.0292146
0.12006651 0.08209857 -0.36078233 0.07144458 -0.38625488 -0.04213756 -0.18538935 0.19044662
-0.053707384 0.48084834 0.062254198 -0.32032448 0.078411184 -0.04410142 -0.14988805 -0.06156146
0.34904778 -0.0769518 0.33786675 0.29650393 0.060266364 -0.0117165325 -0.15003335 0.23897839
-0.07542812 0.046990324 -0.11509414 0.17313972 -0.14044361 0.05692313 -0.121991254 -0.13134456
0.15026806 -0.09707003 -0.08218723 -0.008456374 -0.06955693 -0.000859499 -0.059422232 -0.043849923
-0.09137537 -0.09541376 -0.011997438 -0.19841145 -0.08097809 -0.018379642 0.068817854 0.19265428
0.18242164 0.080088116 -0.040083494 -0.11140993 -0.080948085 -0.0549808 -0.2673957 0.12368006
00000000: 4d7f 68be 07dd 893d b32c 903d 3a11 cebd
00000010: 44a4 be3f a836 e9bd 0fda 9f3f 932a 3abf
00000020: 6816 f13e 9e14 01c0 5f58 1ebd 83c7 153e
00000030: 82d6 2c3e ef41 c2be 0a81 81be f349 9cbc
00000040: 5d7d 5d3e fdcc b8be bd27 963d 2508 8abf
00000050: 1325 f63d 35c0 52be a6cb 6b3a 5c1f 4d3e
00000060: 8dcc 6fbf 6dc4 0bbe 23df 09be 583f 2ebe
00000070: 3003 863d cd11 f33b ed33 d3bd ca53 98bd
00000080: 076f 3e3e 1a4b 0f3d 3328 ecbc 2788 2e3d
00000090: 87bf 6a3d 1010 1c3e fadc 01bd 7d1d 373e
000000a0: c55d 31be 403b 493d a7c2 90bc e526 2c3e
000000b0: a8b0 13be 00b0 7f3a 338f 6bbc 9729 8abd
000000c0: 0066 a3bc 7324 0abe daae 11bd fa53 18bd
000000d0: da9b cc3c 9aad 12bc 97c0 debd 838e a1bd
000000e0: 3309 32bd 4d53 bd3d f313 953d 1335 57bd
000000f0: 0dea 06bd 95a1 26be 9a97 513b 73c0 ebbc
00000100: d049 033e e078 6bbd daf8 673d 67ac 7bbd
00000110: 4bd8 07be 5fcd 17be aa94 13be 132f fb3d
00000120: 7d50 f7bd 1be2 033e 6df2 5abd d89e 41be
00000130: 1502 d23b 7d30 cc3e c3a9 013e ec44 503f
00000140: f781 a63d 9775 593e f7a4 8c3e 0243 dabe
00000150: 9ca4 0e3f 0e82 6a3d 4206 39be 5b97 643e
00000160: 6863 a2be a259 0cbf d26e 4abe b515 043f
00000170: 6cc0 1e3f f1c2 56be f9ce 9a3e b57b cd3d
00000180: beab 813d 9e50 69be 2e54 e4bd 096f 523e
00000190: cd6c 433b 0d95 05be e786 3cbe 55e8 2fbe
000001a0: d882 1d3e e0c1 87bd 4a38 4b3e b37c e4bd
000001b0: dd87 183e 4ae1 033e 7d7b 943d 9d41 c4bd
000001c0: 33a0 35bd 632c ccbd b3c5 eabd eaf4 0bbe
000001d0: c073 b8bd aa69 4c3e 8a4d 23be 4358 e3bd
000001e0: c8d0 33be 0088 06bd a033 d3bd 7739 843d
000001f0: 8092 cdbc 386e 0abe 93a6 1ebd ca38 94bd
00000200: 7007 c13d 0090 ddbd e352 a6bd 2bf2 023e
00000210: 00bc 1b3e 933e 4bbe 7de1 2e3e 339b 7fbb
00000220: fb2f 0dbe 5ac6 7cbd 87ae 35bd 735d ad3c
00000230: ed51 bd3d 8073 21be 274e e0bc 8226 0f3e
00000240: 055e 36be 0b59 32be d3d8 063d 8b10 333e
00000250: 4d0a 57bd d59b 093e 792b 333d 1652 bebd
00000260: 9fda b33e 613e 943e e855 62be 7faa 0a3d
00000270: b209 9f3d 3e18 253e 27d3 133e 30a3 283f
00000280: d562 1bbc e045 2bbf dd02 bebd d4db 21be
00000290: 1671 bf3e 67b6 bd3c 5f1c 8bbf f4f3 81be
000002a0: 77ff 0cbf 4e04 d73e 743a d63d 0aa2 77bd
000002b0: 3a8c a83d eca5 aebe 419c acbd a5cf ed3d
000002c0: ce11 263e 9ace abbe 8520 563e 900e 7fbf
000002d0: 755d 38be 0f03 ce3c 270f a2be 915a 0dbf
000002e0: 6633 803d b938 25bc 9e83 26bf d72f 0fbe
000002f0: c202 e6be c986 833e b2b8 40bd f398 debd
00000300: c8b0 c8be ebf3 3abf d117 4b3f de0d 01be
00000310: b0e8 5dbe d2fc cb3e 20d3 cabe 4ebd 833f
00000320: 6ee5 f53d 4c23 a83d 76b8 b8be 8951 923d
00000330: 33c3 c5be 6f98 2cbd b5d6 3dbe 7004 433e
00000340: 46fc 5bbd c131 f63e 42fe 7e3d 9201 a4be
00000350: 0b96 a03d b1a3 34bd 417c 19be df27 7cbd
00000360: 64b6 b23e e898 9dbd dffc ac3e 5dcf 973e
00000370: ddd9 763d b3f6 3fbc 58a2 19be c0b6 743e
00000380: 0f7a 9abd ed78 403d 7ab6 ebbd 8a4b 313e
00000390: 73d0 0fbe 3a28 693d 8dd6 f9bd 307f 06be
000003a0: dfdf 193e a7cc c6bd c751 a8bd 9a8c 0abc
000003b0: dd73 8ebd 0050 61ba ba64 73bd fa9b 33bd
000003c0: 0323 bbbd 4a68 c3bd e790 44bc 5f2c 4bbe
000003d0: d7d7 a5bd e790 96bc 60f0 8c3d 2a47 453e
000003e0: bdcc 3a3e 3d05 a43d 972e 24bd e42a e4bd
000003f0: 1cc8 a5bd 8c33 61bd 17e8 88be f94b fd3d

layers.0.bias f4 [256]
0.10958556 -0.018664718 0.17918444 -0.115970634 0.07952571 -0.066385485 -0.17165548 -0.021372808
0.07749377 0.069978595 -0.14344494 0.053648066 -0.09899356 0.22260794 0.012673882 0.14318605
0.024741985 -0.10475843 0.016333653 -0.0058549456 -0.14555916 -0.16830121 -0.026684556 -0.040923223
-0.01858357 -0.0949053 -0.09526124 -0.10886799 -0.048526168 0.14342424 0.08326502 0.1701691
0.23508051 0.0030045393 0.17593049 -0.100202605 -0.06703024 -0.02711585 -0.17753775 -0.11179805
-0.037819486 -0.12025306 -0.111467324 -0.16308175 -0.009709326 -0.1204756 -0.12520853 0.017522084
0.21479504 0.069099404 0.078059584 -0.14468001 -0.1788293 -0.1659912 0.19425307 0.09296455
-0.081465706 -0.12218106 -0.043635443 -0.16609879 -0.028965585 -0.12964796 0.015650345 -0.13635252
-0.19476432 0.15527627 -0.18653908 0.05915959 -0.07185394 -0.023272363 0.17831072 -0.15333296
-0.11488601 0.097707585 0.1712067 -0.16959313 -0.18932787 0.0989102 -0.18536058 -0.03533463
0.019667942 -0.0073861373 0.1850265 -0.15048556 0.0479635 0.05044531 0.12852597 0.118689805
-0.07570427 0.0206463 0.07929092 0.12666419 -0.084220126 0.08715146 -0.068325095 -0.13085781
0.034015443 0.0049196156 -0.17210166 -0.05580292 0.105444945 0.19337939 -0.058546405 -0.13117564
0.082645014 -0.006335068 -0.10925973 0.109275006 0.035270166 0.17811891 -0.049073055 0.19159248
-0.0922539 0.080264024 0.11266887 -0.020128155 0.07434202 -0.035999253 -0.06869061 0.14067435
0.13065253 -0.16342498 -0.047935143 -0.019374246 0.12522015 0.17349856 -0.0684314 -0.17316465
0.16749309 0.1919878 -0.048128404 -0.044573374 -0.1203285 -0.043524776 0.031311363 0.00598959
-0.2973838 0.14927624 -0.0562125 -0.18822531 -0.07427157 0.16147669 -0.019613627 0.0048583727
0.17231089 -0.15750436 0.10259405 0.084116794 -0.07709906 -0.1589481 -0.12234204 -0.18932304
-0.14909132 -0.10656948 0.124530084 0.05048878 0.21809883 -0.065337144 0.0052326918 0.16759399
0.13662967 0.03291593 0.008200478 0.1169918 0.050365552 0.02663369 -0.12414438 -0.067518234
0.08910691 -0.09455532 -0.095262244 -0.15603065 -0.2708844 -0.0665221 0.16327056 0.08525619
-0.1713611 0.06282984 -0.07448989 -0.09882954 0.020441437 0.00862515 -0.0327432 0.07231513
-0.12020042 0.13660371 0.18675487 0.12908298 -0.11520896 0.26345417 0.14152144 0.008693559
0.14709918 -0.012783909 0.08022479 -0.06827105 0.012321111 0.13057585 -0.20490968 -0.042770997
0.1683445 0.19422948 0.08290365 -0.027922258 -0.0019654445 -0.16747129 -0.07012296 -0.19161063
0.18036744 0.6243922 -0.025875708 0.24185887 -0.18518198 -0.08937325 -0.107832454 -0.16778283
-0.14769761 0.06840864 -0.14642057 -0.1953045 -0.19211379 -0.1488372 0.1568693 -0.31983605
-0.09129784 0.055242818 -0.1975715 -0.18163235 0.26742747 0.045542125 0.19958937 0.16200492
0.19953488 -0.033868093 -0.08490579 -0.15416607 -0.10163424 -0.072759904 -0.17063133 -0.26280543
-0.15592799 -0.03378999 0.03835958 -0.2202638 0.0858856 -0.10266446 -0.00975512 0.028967038
0.044242583 0.06340152 0.022496993 -0.051187873 -0.03444763 0.07123358 0.14026153 -0.15101016
00000000: 656e e03d c0e6 98bc 207c 373e 0382 edbd
00000010: 60de a23d 1df5 87bd 74c6 2fbe 0716 afbc
00000020: 0eb5 9e3d f050 8f3d 3be3 12be 13be 5b3d
00000030: 23bd cabd 56f3 633e 1da6 4f3c 5d9f 123e
00000040: b4af ca3c 968b d6bd 27ce 853c d8da bfbb
00000050: 760d 15be 2757 2cbe 9299 dabc 1c9f 27bd
00000060: 923c 98bc b65d c2bd 5318 c3bd 2ef6 debd
00000070: 60c3 46bd cedd 123e da86 aa3d cf40 2e3e
00000080: f2b8 703e cee7 443b 1f27 343e 0637 cdbd
00000090: 2747 89bd 0f22 debc 75cc 35be 60f6 e4bd
000000a0: 9be8 1abd 3c47 f6bd fb48 e4bd e7fe 26be
000000b0: dd13 1fbc e9bb f6bd aa36 00be 798a 8f3c
000000c0: 3bf3 5b3e fd83 8d3d b4dd 9f3d ff26 14be
000000d0: 071f 37be 99f9 29be 47ea 463e 3364 be3d
000000e0: 7ed7 a6bd 103a fabd 14bb 32bd cd15 2abe
000000f0: 3c49 edbc 6fc2 04be 2735 803c ff9f 0bbe
00000100: 4c70 47be be00 1f3e 1a04 3fbe 5451 723d
00000110: 2928 93bd afa5 bebc 1697 363e 5103 1dbe
00000120: 5b49 ebbd ea1a c83d cf50 2f3e d2a9 2dbe
00000130: 2adf 41be 6e91 ca3d 2acf 3dbe 0cbb 10bd
00000140: aa1e a13c 6907 f2bb 9677 3d3e e318 1abe
00000150: 6075 443d be9f 4e3d 509c 033e a413 f33d
00000160: d70a 9bbd 6e22 a93c 4763 a23d 42b4 013e
00000170: 9a7b acbd 777c b23d 07ee 8bbd 97ff 05be
00000180: c753 0b3d ba34 a13b 6b3b 30be 9a91 64bd
00000190: 85f3 d73d 3f05 463e 5bce 6fbd e852 06be
000001a0: ca41 a93d 6796 cfbb 91c3 dfbd 93cb df3d
000001b0: 7377 103d ce64 363e d400 49bd d230 443e
000001c0: 9def bcbd 7761 a43d f0be e63d cde3 a4bc
000001d0: a140 983d f473 13bd aaad 8cbd f00c 103e
000001e0: c7c9 053e e158 27be a457 44bd bdb6 9ebc
000001f0: b639 003e 9ba9 313e c325 8cbd 1352 31be
00000200: 4f83 2b3e 7398 443e 4a22 45bd 9292 36bd
00000210: ca6e f6bd 0947 32bd 5840 003d 5344 c43b
00000220: b042 98be dfdb 183e 143f 66bd 23be 40be
00000230: b11b 98bd 255a 253e c2ac a0bc fc32 9f3b
00000240: 4472 303e d348 21be d41c d23d 6d45 ac3d
00000250: 1de6 9dbd 4ac3 22be 778e fabd e6dd 41be
00000260: 65ab 18be 1941 dabd a109 ff3d 53cd 4e3d
00000270: 4d55 5f3e 7bcf 85bd 0077 ab3b c29d 2b3e
00000280: a6e8 0b3e dbd2 063d 4c5b 063c 6699 ef3d
00000290: 1c4c 4e3d e52e da3c 693f febd 0047 8abd
000002a0: af7d b63d 38a6 c1bd da18 c3bd 80c6 1fbe
000002b0: 5cb1 8abe bd3c 88bd 6630 273e cc9a ae3d
000002c0: 4979 2fbe eeac 803d 288e 98bd 2467 cabd
000002d0: cd74 a73c 8050 0d3c bc1d 06bd f419 943d
000002e0: a32b f6bd d8e1 0b3e ab3c 3f3e 542e 043e
000002f0: adf2 ebbd 77e3 863e ffea 103e 6e6f 0e3c
00000300: 2ba1 163e 9a73 51bc e54c a43d b1d1 8bbd
00000310: 7cde 493c adb5 053e d8d3 51be a430 2fbd
00000320: 8062 2c3e 18e4 463e 64c9 a93d 38bd e4bc
00000330: b0ce 00bb 987d 2bbe a09c 8fbd 9435 44be
00000340: 3eb2 383e 2bd8 1f3f 4bf9 d3bc daa9 773e
00000350: 58a0 3dbe 5309 b7bd 43d7 dcbd 43cf 2bbe
00000360: 0b3e 17be d419 8c3d 46ef 15be e7fd 47be
00000370: 7ab9 44be c768 18be 59a2 203e 8dc1 a3be
00000380: 5dfa babd 4b46 623d 2f50 4abe d5fd 39be
00000390: 41ec 883e 618a 3a3d 2861 4c3e 9ee4 253e
000003a0: df52 4c3e 45b9 0abd 16e3 adbd b6dd 1dbe
000003b0: 9d25 d0bd 2503 95bd fbb9 2ebe 6f8e 86be
000003c0: 96ab 1fbe 5f67 0abd ef1e 1d3d d58c 61be
000003d0: cae4 af3d bf41 d2bd f0d3 1fbc 484c ed3c
000003e0: b637 353d a8d8 813d 9d4b b83c 60aa 51bd
000003f0: f518 0dbd e9e2 913d b8a0 0f3e 68a2 1abe

layers.1.weight f4 [256, 256]
0.010276626 0.053405724 0.043611728 0.04948172 0.00066704303 -0.06211669 -0.020533785 -0.5995196
-0.0065571624 0.060030393 0.14859767 -0.05552741 0.40365532 0.13345511 0.17293115 0.11633741
-0.7293827 0.036190566 0.18002494 0.108412296 0.071107626 -0.05882916 -0.27043322 -0.32265645
0.023980716 -0.5670302 -0.017377436 0.01380375 0.052979507 0.012028699 0.20198092 0.0350957
0.30994815 -0.037258312 0.22432421 0.03964854 0.06149131 0.15807414 0.106067255 0.03295836
-0.19509207 0.12602398 -0.261526 -0.01570388 -0.022167739 0.11469746 -0.017319195 0.1702776
0.06336475 0.057319514 -0.14721501 -0.05337114 -0.7687092 0.09110376 0.0045950785 0.21924782
-0.3448318 -0.051168635 -0.0145057645 -0.0438246 0.12261882 -0.08030762 -0.23336476 -0.2755836
0.00042510786 0.35849604 0.008712821 0.18848082 0.047032814 0.25727248 -0.2716258 -0.02416744
-0.067105435 -0.0183326 -0.03386823 0.05329603 0.0071714297 -0.038434178 -0.58799744 0.20296232
-0.27132723 -0.78477395 0.071431264 0.08345805 0.023098834 -0.7284481 0.12418265 0.03523377
-0.008835427 0.27000278 0.08370697 0.0019773957 0.050927408 0.037934534 -0.14225785 -0.03667279
-0.9325327 -0.09122569 -0.53877795 -0.124869004 -0.004156972 0.053031474 -0.17258222 -0.43665555
-0.39790025 0.006164491 0.029466325 0.117427215 0.048687488 -1.1954942 -0.025714003 0.15872717
-0.044252463 0.051298805 -0.14343049 0.009159595 -0.022321649 0.13169864 -0.0035055678 -0.25295675
0.45012915 -0.7489181 -0.076423965 -0.15983059 0.041433405 -0.02597108 -0.016064301 -0.1899027
0.19311474 -0.05694849 -0.31681603 -0.39244914 0.030320128 -0.17465927 0.08513261 0.012703465
-0.66088945 -0.82857686 0.07839861 -0.26571515 0.35774216 0.29945907 0.22912402 0.109186135
-0.14533234 0.033806868 0.047654256 0.021707576 -0.021000072 -0.02508621 -0.45767644 0.049643733
0.17388424 0.036142796 -0.16496979 0.00029764324 -0.6609685 0.033945534 -0.03454452 0.034540456
-0.114256784 0.018711649 -0.45076618 0.11119859 0.10916333 -0.004625878 0.0721469 0.025767073
0.24420834 -0.5685867 -0.016552307 0.20037583 -0.3965654 0.025807075 -0.037556995 0.10558572
0.0043247696 0.24304844 0.014817111 -0.45117643 -0.05287553 0.032207496 0.011170912 0.1004493
0.006256737 -0.33088294 0.05179602 -0.4483866 -0.008630447 -0.02605446 0.09876438 -0.7326939
-0.029324695 0.022991143 -0.053986393 -0.07900018 0.015107348 0.4124887 0.13507152 0.14190902
-0.2967393 0.22721101 -0.29226542 -0.070361525 -0.26701692 0.042508136 0.0121990815 -0.21720017
-0.11100814 0.050640028 0.0039553493 0.18688338 -0.24333784 -0.016556947 0.44288936 0.17964928
-0.15786092 0.07146006 -0.09993425 -0.02846907 0.04588235 -0.42413357 0.123196915 -1.0417353
-1.1084237 -0.17789865 0.031959757 -0.009179187 0.13337003 -0.10800389 0.275729 0.069627985
0.09567405 -0.005414808 -0.37301692 0.19111605 -0.03907355 0.030167 0.020493604 -0.5521948
-0.1636834 -0.76998144 -0.3638943 -0.3385809 -0.5654712 0.18044032 0.13569081 0.080767356
0.3727496 0.27494967 -0.31582734 -0.26649576 -0.10654605 0.083746515 -0.25247923 0.18822418
00000000: 4b5f 283c f6bf 5a3d 36a2 323d 58ad 4a3d
00000010: 80dc 2e3a 126e 7ebd 7836 a8bc 1e7a 19bf
00000020: 77dd d6bb 6ee2 753d fd29 183e b670 63bd
00000030: e9ab ce3e 75a8 083e dd14 313e 4f42 ee3d
00000040: d3b8 3abf 8f3c 143d 7558 383e 4407 de3d
00000050: e0a0 913d d8f6 70bd 3976 8abe 3a33 a5be
00000060: 3573 c43c e428 11bf 205b 8ebc 2029 623c
00000070: 0a01 593d 0514 453c 16d4 4e3e 82c0 0f3d
00000080: 86b1 9e3e 2c9c 18bd 3fb5 653e 8266 223d
00000090: 50de 7b3d 30de 213e ca39 d93d 58ff 063d
000000a0: 37c6 47be 6e0c 013e bce6 85be 6ca5 80bc
000000b0: 1e99 b5bc 80e6 ea3d fce0 8dbc 405d 2e3e
000000c0: 61c5 813d dec7 6a3d 88bf 16be b29b 5abd
000000d0: 20ca 44bf 9c94 ba3d 5092 963b 8082 603e
000000e0: cb8d b0be 3496 51bd 96a9 6dbc 6c81 33bd
000000f0: 931f fb3d 5278 a4bd 2cf7 6ebe 4b19 8dbe
00000100: 03e1 de39 cb8c b73e 38c0 0e3c 1e01 413e
00000110: 7ba5 403d 38b9 833e 8912 8bbe ccfa c5bc
00000120: 936e 89bd 402e 96bc 6ab9 0abd f04c 5a3d
00000130: 50fe ea3b 286d 1dbd 0087 16bf 5bd5 4f3e
00000140: 67eb 8abe f2e6 48bf 8e4a 923d 0eec aa3d
00000150: c439 bd3c 937b 3abf 7953 fe3d 4951 103d
00000160: 78c2 10bc ce3d 8a3e 8f6e ab3d 3297 013b
00000170: 4299 503d 3e61 1b3d 0bac 11be 3536 16bd
00000180: 77ba 6ebf 89d4 babd 5aed 09bf 52bb ffbd
00000190: 3537 88bb 8837 593d 65b9 30be 5191 dfbe
000001a0: 95b9 cbbe 80ff c93b 5d63 f13c ae7d f03d
000001b0: 886c 473d f405 99bf 2ca6 d2bc 6089 223e
000001c0: 1242 35bd b21e 523d 71df 12be 2012 163c
000001d0: e4db b6bc 02dc 063e abbd 65bb 8c83 81be
000001e0: 5477 e63e 19b9 3fbf 2b84 9cbd a1aa 23be
000001f0: 13b6 293d 4dc1 d4bc 4899 83bc da75 42be
00000200: dfbf 453e d242 69bd b635 a2be 18ef c8be
00000210: eb61 f83c e1d9 32be 015a ae3d 3222 503c
00000220: 0d30 29bf 9d1d 54bf 738f a03d d10b 88be
00000230: fb29 b73e b352 993e 7d9f 6a3e fb9c df3d
00000240: 00d2 14be 1279 0a3d 1c31 433d 16d4 b13c
00000250: 5808 acbc 9881 cdbc 9154 eabe 3a57 4b3d
00000260: b60e 323e 780a 143d d7ed 28be 000d 9c39
00000270: 3b35 29bf 790a 0b3d 8e7e 0dbd 4b7a 0d3d
00000280: 76ff e9bd 2c49 993c d3ca e6be 16bc e33d
00000290: 0691 df3d ad94 97bb c1c1 933d 7815 d33c
000002a0: c011 7a3e e68e 11bf b498 87bc 522f 4d3e
000002b0: 9f0a cbbe 5c69 d33c 5dd5 19bd 533d d83d
000002c0: ccb6 8d3b b1e1 783e 78c3 723c 9900 e7be
000002d0: 0394 58bd 02ec 033d 3306 373c 5db8 cd3d
000002e0: 5005 cd3b 7d69 a9be 1028 543d ee92 e5be
000002f0: b866 0dbc 2a70 d5bc fb44 ca3d d491 3bbf
00000300: 583a f0bc ec57 bc3c d620 5dbd d9ca a1bd
00000310: cf84 773c b831 d33e 3050 0a3e 9950 113e
00000320: 37ee 97be 01aa 683e d0a3 95be b419 90bd
00000330: 71b6 88be 031d 2e3d a8de 473c b969 5ebe
00000340: 3c58 e3bd eb6b 4f3d e09b 813b 5b5e 3f3e
00000350: 8e2d 79be 6fa2 87bc 65c2 e23e fbf5 373e
00000360: 4ba6 21be a759 923d 54aa ccbd f837 e9bc
00000370: 22ef 3b3d 0928 d9be aa4e fc3d 9557 85bf
00000380: d4e0 8dbf 102b 36be 3ce8 023d 4d64 16bc
00000390: 2792 083e 2531 ddbd 5a2c 8d3e 1e99 8e3d
000003a0: c2f0 c33d b46e b1bb 13fc bebe edb3 433e
000003b0: 960b 20bd c920 f73c 34e2 a73c a35c 0dbf
000003c0: 9f9c 27be 811d 45bf 5b50 babe 7a5a adbe
000003d0: b8c2 10bf 59c5 383e 88f2 0a3e 5b69 a53d
000003e0: 09d9 be3e 34c6 8c3e 1fb4 a1be 2272 88be
000003f0: d134 dabd 4b83 ab3d f544 81be d7bd 403e

layers.1.bias f4 [256]
0.07209716 0.08392626 0.108079255 0.08101137 0.30507925 -0.035127424 -0.05934406 0.05566196
0.055205163 0.06690617 -0.033092566 -0.039950512 -0.0736203 -0.02053636 -0.13348404 0.029908333
0.11888178 -0.052057542 0.00063680863 0.031859647 -0.04065076 -0.070091404 0.041968133 -0.030426348
-0.04612485 0.18521057 -0.023259804 0.024214556 -0.04164484 -0.04482138 -0.027230402 -0.0070191175
-0.004819751 0.2766639 -0.03910726 -0.002373337 -0.0039737066 -0.04907799 0.20521425 0.05448407
0.0034010585 0.06161953 -0.055989265 -0.060263224 0.03955409 0.088343255 -0.039679367 0.06332854
0.03313308 -0.06134879 -0.044218615 0.016920257 -0.0006411951 0.049674876 0.3158512 0.0117291715
0.013009766 0.0158719 -0.0238708 0.13074946 0.14012404 -0.15218747 0.073716186 0.008204493
-0.08250474 0.06145189 0.082485415 -0.041798063 -0.055147145 0.18233609 -0.037675437 0.16475962
-0.030691491 0.032634914 -0.0025713958 0.12081636 0.0816559 -0.06621138 -0.028519526 0.1011146
-4.492172e-05 0.0054147127 0.07284037 0.05645932 0.05995777 0.009339581 -0.077849515 0.1631131
-0.032917663 0.059980642 -0.046564937 0.00085831626 0.0044483743 -0.09171929 -0.048175655 0.055425968
-0.049386933 -0.005874013 0.05877731 -0.027615946 0.014057765 0.024604047 -0.039851777 -0.022437867
-0.028943287 0.033701535 0.051649265 0.0077839857 0.048377458 -0.009319513 0.08631088 -0.009936527
0.3293331 0.011752747 0.11342125 0.028373735 -0.015326393 -0.020573162 -0.031427458 -0.025085084
-0.017139854 0.0522178 0.3950678 -0.045449182 0.025387958 -0.034632415 0.009132541 0.07922487
0.46138528 0.014973927 -0.066693716 -0.061778083 -0.03521746 -0.07363531 0.065252334 -0.04640486
-0.021438353 -0.045494426 -0.043591242 0.03307221 -0.097885825 0.3339752 -0.019785767 -0.007895896
0.04731578 -0.016306015 0.045208465 -0.018644834 0.20053436 -0.011782312 -0.03803349 0.31532055
0.010398061 -0.018027464 -0.06758449 0.08224364 -0.06353944 -0.029960776 0.0589101 -0.0014962411
-0.03544939 0.02289375 -0.07752372 -0.11126483 0.11682488 -0.07070128 -0.053735405 -0.16187203
0.3356073 0.12151592 0.06570268 0.0068925098 -0.05082319 -0.051746793 0.04757624 -0.010160175
0.19077078 -0.04408199 -0.0011658232 0.059347972 0.03505257 -0.008303815 -0.04727818 -0.051887468
-0.05728107 0.051233504 0.016372664 0.048327204 0.11276221 0.0019358477 0.0743406 0.016375659
-0.015857827 0.04307051 0.3372292 0.0011616466 -0.07851814 0.06975647 0.042728543 0.13478795
-0.095408656 -0.03298206 -0.017982012 -0.083243564 -0.070336446 -0.044949595 0.30725116 0.01804637
0.027466156 -0.020812582 -0.045115244 0.097101614 0.020397095 0.3412429 -0.029454442 -0.013963369
0.0419299 -0.068930246 0.15198022 0.14549145 0.243361 -0.0511118 -0.039416235 -0.023010753
0.027187414 -0.0062005534 -0.14288574 -0.003868766 -0.020536926 0.25342903 0.21915556 -0.025904858
-0.039608303 -0.062132355 -0.052510798 0.0029625983 -0.009930026 0.054715615 -0.039498888 -0.022396464
-0.07488698 -0.05624111 0.19615339 -0.018913759 -0.05978994 -0.056889422 -0.06625156 0.07042313
-0.06129625 -0.012874385 0.179777 0.050310057 -0.01794047 0.09065019 0.09791526 0.018116275
00000000: ada7 933d 88e1 ab3d a858 dd3d 4ae9 a53d
00000010: 5933 9c3e c6e1 0fbd c212 73bd ccfd 633d
00000020: cf1e 623d 1a06 893d 128c 07bd 26a3 23bd
00000030: 3dc6 96bd de3b a8bc 0ab0 08be 5202 f53c
00000040: 4a78 f33d 4a3a 55bd 81ef 263a 437f 023d
00000050: 6981 26bd 158c 8fbd c7e6 2b3d ad40 f9bc
00000060: 69ed 3cbd d7a7 3d3e 588b bebc 9b5d c63c
00000070: c893 2abd a096 37bd 4b12 dfbc a000 e6bb
00000080: 00ef 9dbb e4a6 8d3e ef2e 20bd fd89 1bbb
00000090: de35 82bb 0106 49bd af23 523e b02a 5f3d
000000a0: 4be4 5e3b c364 7c3d 0055 65bd 92d6 76bd
000000b0: 7803 223d 4fed b43d d586 22bd 65b2 813d
000000c0: 8db6 073d de48 7bbd 941e 35bd 5a9c 8a3c
000000d0: e015 28ba e277 4b3d 40b7 a13e b62b 403c
000000e0: ea26 553c c905 823c b28c c3bc 30e3 053e
000000f0: ad7c 0f3e 08d7 1bbe 83f8 963d 236c 063c
00000100: 3ff8 a8bd fab4 7b3d 1dee a83d 7234 2bbd
00000110: f9e1 61bd 50b6 3a3e 8f51 1abd bfb6 283e
00000120: b96c fbbc 30ac 053d dd84 28bb 916e f73d
00000130: 353b a73d d599 87bd c8a1 e9bc 2c15 cf3d
00000140: 546a 3cb8 e76d b13b 552d 953d e341 673d
00000150: 4796 753d 0b05 193c 916f 9fbd 1f07 273e
00000160: acd4 06bd 43ae 753d e0ba 3ebd a100 613a
00000170: abc3 913b 53d7 bbbd d653 45bd 5706 633d
00000180: f449 4abd cb7a c0bb 7ac0 703d d63a e2bc
00000190: 8a52 663c 6d8e c93c 9e3b 23bd 9ecf b7bc
000001a0: 791a edbc 9f0a 0a3d 2e8e 533d ce10 ff3b
000001b0: 7127 463d dfb0 18bc c2c3 b03d d1cc 22bc
000001c0: 599e a83e 988e 403c 6649 e83d 0970 e83c
000001d0: 8d1b 7bbc 0c89 a8bc 14ba 00bd 3c7f cdbc
000001e0: e168 8cbc 55e2 553d 5446 ca3e ec28 3abd
000001f0: 68fa cf3c b8da 0dbd a7a0 153c a640 a23d
00000200: b13a ec3e 3455 753c b796 88bd 040b 7dbd
00000210: 2f40 10bd 1cce 96bd 04a3 853d 0613 3ebd
00000220: 7c9f afbc 5d58 3abd bb8c 32bd ba76 073d
00000230: 5d78 c8bd ccfe aa3e c315 a2bc ca5d 01bc
00000240: 31ce 413d 3194 85bc 832c 393d 0dbd 98bc
00000250: e158 4d3e 990a 41bc 01c9 1bbd b271 a13e
00000260: a15c 2a3c 55ae 93bc bd69 8abd 5b6f a83d
00000270: f720 82bd 4d70 f5bc b84b 713d 851d c4ba
00000280: 6133 11bd ac8b bb3c c2c4 9ebd d1de e3bd
00000290: e241 ef3d d5cb 90bd a819 5cbd c8c1 25be
000002a0: b8d4 ab3e 57dd f83d 208f 863d 90da e13b
000002b0: fa2b 50bd 72f4 53bd 4edf 423d dd76 26bc
000002c0: 6a59 433e 518f 34bd 89ce 98ba dc16 733d
000002d0: 4993 0f3d b90c 08bc c4a6 41bd f487 54bd
000002e0: 8e9f 6abd 39da 513d f71f 863c bff2 453d
000002f0: e0ef e63d 45bc fd3a e23f 983d 3f26 863c
00000300: 46e8 81bc b46a 303d 4ea9 ac3e 6442 983a
00000310: 1ece a0bd 7bdc 8e3d 2004 2f3d da05 0a3e
00000320: 9d65 c3bd 3218 07bd 034f 93bc 9a7b aabd
00000330: 8e0c 90bd 111d 38bd 0650 9d3e fbd5 933c
00000340: b400 e13c 267f aabc c3ca 38bd 36dd c63d
00000350: cf17 a73c 64b7 ae3e 714a f1bc 9dc6 64bc
00000360: b0be 2b3d 4d2b 8dbd b4a0 1b3e b6fb 143e
00000370: a033 793e 9b5a 51bd eb72 21bd 0c81 bcbc
00000380: 24b8 de3c 032e cbbb a450 12be 1f8b 7dbb
00000390: 0e3d a8bc 73c1 813e 516a 603e 6d36 d4bc
000003a0: 513c 22bd 7f7e 7ebd 9015 57bd 2728 423b
000003b0: 8cb1 22bc 7b1d 603d 96c9 21bd ca78 b7bc
000003c0: 585e 99bd 145d 66bd 6fdc 483e 07f1 9abc
000003d0: 4ce6 74bd e204 69bd e6ae 87bd 013a 903d
000003e0: c711 7bbd 16ef 52bc 7617 383e eb11 4e3d
000003f0: e4f7 92bc cfa6 b93d cc87 c83d 9568 943c

predict.weight f4 [5, 256]
0.72896576 0.46391034 -1.1422622 0.27485868 0.014885315 -0.035630908 -0.032217756 0.318647
0.44635704 0.019531976 -0.0124241505 -0.04336659 -0.01270228 -0.017574506 -0.09282672 0.347081
-0.8869896 0.011064939 0.36468598 -0.029365974 -0.02862621 0.13539013 0.006697389 0.044368155
-0.06501659 0.20886545 0.029306054 -0.10240551 -0.051176384 -0.036004297 0.021984985 0.3642113
-0.15666217 -1.0934118 0.00058112375 0.21858734 0.014442622 0.0038325563 -1.2139696 0.034350812
0.025271254 0.27542546 0.014699905 0.07098696 0.0509083 0.28649247 0.19095778 0.19983563
-0.025019635 0.020499196 -0.027839623 0.5885888 -0.0045994143 0.31393585 -0.42928958 0.11576589
-0.053847674 -0.04557946 0.012246396 0.3913993 0.61869776 -0.12238917 0.035968766 0.004415468
-0.29833233 0.10616134 0.26554018 0.0029403563 0.17370334 -2.0188913 0.012451179 0.01844306
-0.024753304 0.10593091 -0.210084 0.265512 0.059150822 -0.02640735 0.092033885 -0.4125743
0.032632384 0.02920248 -0.5377762 -0.48185688 0.099102296 0.14959712 0.51178885 0.102009445
0.04203651 0.06522889 0.029120952 0.020473704 -0.02047054 0.11798651 -0.041020613 -0.19124402
-0.025643125 -0.90109867 0.11100446 -0.04718689 -0.022185957 0.0317824 0.039104763 0.16069539
0.16897072 0.016217796 0.33848742 0.1013316 0.013230154 0.027277045 0.3784622 0.11941272
-1.1994421 -0.03994633 0.04998938 0.48604026 0.0021412615 -0.15203941 -0.026428897 0.03698422
-0.016839428 0.036890063 -1.2347538 0.7501853 0.13379176 -0.024090946 0.0910726 0.10044024
-0.7897881 -0.02246495 0.4174695 -0.93781203 -0.008732876 -0.000998184 0.07260453 -0.0098400405
-0.029576946 0.0077310186 -0.027986394 0.09858869 0.58301604 0.09838276 0.040323306 0.016980957
1.0052613 -0.046692938 0.032959927 0.044976626 0.5874203 0.12642801 0.010541985 0.2726988
-0.036695942 -0.013256758 -0.004974462 0.78965575 0.0356509 -0.021737024 0.10603876 -0.015881322
0.00026083738 -1.1529621 -0.013816469 0.92290986 0.050022464 0.023672393 -0.01801517 1.8303653
-0.7070437 -0.13652575 0.0501567 0.027063198 0.007903281 -0.0056167953 0.36061552 -0.0016585576
-0.91251934 0.03585098 -0.016871281 0.6265988 0.0039866515 -0.015866548 -0.04748162 0.044601955
0.046745755 0.13969888 0.0260723 0.3430196 -1.3945271 0.18545794 -0.44928366 0.19969691
0.007897748 0.101384014 -0.44763803 0.046112638 0.02110323 -0.086161144 0.4614014 0.6854837
-0.26358566 -0.055781648 -0.022753797 -0.010571266 -0.047307104 -0.042529825 0.45927933 0.34945795
0.3418329 0.038878035 0.06437726 -0.9935805 0.16978912 0.34187004 0.008850463 0.0061399946
0.23059319 0.02603216 -1.1019667 0.014838169 -1.6155044 -0.065632865 -0.061248075 0.045605917
-0.0047865594 0.09723873 0.38315314 0.05970155 -0.02446489 -0.51548547 -0.0126585 0.022993477
0.02934849 -0.02004954 -0.045433242 0.0125324465 0.013931055 -1.975207 0.04192774 0.032336585
0.24216631 -0.05437857 -0.086608805 0.9748455 -0.64589804 0.03559144 -0.96040416 0.053834196
-0.0063524237 0.06822549 0.0133614885 -0.14773646 -0.043774016 -0.087815 0.16348764 0.047970593
00000000: 809d 3a3f a885 ed3e a635 92bf 47ba 8c3e
00000010: 89e1 733c b7f1 11bd c4f6 03bd b325 a33e
00000020: e988 e43e 8601 a03c aa8e 4bbc 2aa1 31bd
00000030: 391d 50bc 69f8 8fbc ef1b bebd 9ab4 b13e
00000040: c011 63bf b849 353c 1fb8 ba3e e990 f0bc
00000050: 8381 eabc b6a3 0a3e c575 db3b 62bb 353d
00000060: 6b27 85bd d3e0 553e 4013 f03c fbb9 d1bd
00000070: 549e 51bd 3e79 13bd db19 b43c e779 ba3e
00000080: 0c6c 20be ebf4 8bbf 8e56 183a 5cd5 5f3e
00000090: bfa0 6c3c a02b 7b3b 5b63 9bbf 70b3 0c3d
000000a0: a905 cf3c 9104 8d3e dfd7 703c 9c61 913d
000000b0: 3985 503d 24af 923e 708a 433e b6a1 4c3e
000000c0: faf5 ccbc eeed a73c ec0f e4bc c1ad 163f
000000d0: afb6 96bb 33bc a03e d8cb dbbe ab16 ed3d
000000e0: 618f 5cbd 87b1 3abd 1ca5 483c 7d65 c83e
000000f0: fa62 1e3f 2ca7 fabd fc53 133d a1af 903b
00000100: 04bf 98be 1e6b d93d e2f4 873e feb2 403b
00000110: 4adf 313e 8435 01c0 0800 4c3c e615 973c
00000120: 71c7 cabc 4ef2 d83d 4320 57be 30f1 873e
00000130: 2248 723d 3a54 d8bc 437c bc3d f03c d3be
00000140: 89a9 053d 0a3a ef3c b3ab 09bf f2b5 f6be
00000150: 25f6 ca3d fd2f 193e 9804 033f 54ea d03d
00000160: 7a2e 2c3d b996 853d 108f ee3c 78b8 a73c
00000170: d5b1 a7bc e9a2 f13d 3b05 28bd 79d5 43be
00000180: 8811 d2bc 67ae 66bf 4e56 e33d 0a47 41bd
00000190: 53bf b5bc 432e 023d 512c 203d 558d 243e
000001a0: a906 2d3e 2fdb 843c 394e ad3e f186 cf3d
000001b0: 4ac3 583c 1c74 df3c ccc5 c13e a88e f43d
000001c0: 5287 99bf c39e 23bd aac1 4c3d 45da f83e
000001d0: 6854 0c3b 38b0 1bbe 6a81 d8bc c47c 173d
000001e0: d7f2 89bc 091a 173d 6a0c 9ebf 250c 403f
000001f0: b500 093e 605a c5bc 4584 ba3d 9db3 cd3d
00000200: 8e2f 4abf 6a08 b8bc 90be d53e 7314 70bf
00000210: 5614 0fbc 7fd5 82ba afb1 943d 1f38 21bc
00000220: 5a4b f2bc 7c54 fd3b b943 e5bc dee8 c93d
00000230: 8a40 153f e77c c93d 0d2a 253d a61b 8b3c
00000240: 67ac 803f 1841 3fbd fd00 073d 6939 383d
00000250: 2d61 163f 5876 013e 4ab8 2c3c 2d9f 8b3e
00000260: 7c4e 16bd e032 59bc d000 a3bb e126 4a3f
00000270: ae06 123d d811 b2bc d92a d93d 8c19 82bc
00000280: 00c1 8839 4394 93bf 795e 62bc d243 6c3f
00000290: 5be4 4c3d 9bec c13c 8d94 93bc 6949 ea3f
000002a0: d100 35bf 68cd 0bbe 1d71 4d3d a4b3 dd3c
000002b0: c37c 013c 180d b8bb 99a2 b83e f563 d9ba
000002c0: de9a 69bf 7ad8 123d a435 8abc c768 203f
000002d0: 75a2 823b 90fa 81bc 167c 42bd 8ab0 363d
000002e0: 7a78 3f3d 390d 0f3e 9395 d53c 44a0 af3e
000002f0: dd7f b2bf b0e8 3d3e 8208 e6be 597d 4c3e
00000300: 8e65 013c 6ca2 cf3d d030 e5be 9be0 3c3d
00000310: aee0 ac3c 4175 b0bd ce3c ec3e dc7b 2f3f
00000320: b3f4 86be 4c7b 64bd 2c66 babc 1a33 2dbc
00000330: 18c5 41bd c133 2ebd a926 eb3e 27ec b23e
00000340: b904 af3e 933e 1f3d 3ad8 833d 4b5b 7ebf
00000350: 33dd 2d3e 9709 af3e 8801 113c 0232 c93b
00000360: 9f20 6c3e 6541 d53c 3f0d 8dbf cb1b 733c
00000370: d9c8 cebf 866a 86bd 43df 7abd 45cd 3a3d
00000380: 92d8 9cbb 1925 c73d a62c c43e 9d89 743d
00000390: 986a c8bc dbf6 03bf 9965 4fbc d15c bc3c
000003a0: 3f6c f03c ef3e a4bc 3518 3abd e454 4d3c
000003b0: 143f 643c 95d3 fcbf 6cbc 2b3d 5e73 043d
000003c0: 72fa 773e 10bc 5ebd f55f b1bd 7a8f 793f
000003d0: 9359 25bf 54c8 113d 0cdd 75bf 3f81 5c3d
000003e0: fe27 d0bb ceb9 8b3d 25ea 5a3c 3a48 17be
000003f0: 624c 33bd 5ad8 b3bd 4e69 273e d07c 443d

predict.bias f4 [5]
0.0706437 -0.010868395 0.13906705 0.04430506 0.0029736713
00000000: a5ad 903d 5a11 32bc 9867 0e3e 3979 353d
00000010: ede1 423b

exp_avg f4 [256, 25]
0.013321595 0.012453862 0.0091017885 0.004912439 2.1042999e-05 0.013321595 0.00024891875 -0.002773099
-0.0014709374 8.773581e-06 0.013321595 0.0047381986 -0.01006976 -0.003195869 -3.7682003e-05 0.013321595
0.008688394 -0.008976413 -0.00092916144 -8.0073085e-05 0.013321595 0.0063229445 0.010423799 -0.0016851462
-4.641098e-05 0.0 0.0 0.0 0.0 0.0 0.0 0.0
0.0 0.0 0.0 0.0 0.0 0.0 0.0 0.0
0.0 0.0 0.0 0.0 0.0 0.0 0.0 0.0
0.0 0.0 0.0 0.0 0.0 0.0 0.0 0.0
0.0 0.0 0.0 0.0 0.0 0.0 0.0 0.0
0.0 0.0 0.0 0.0 0.0 0.0 0.0 0.0
0.0 0.0 0.0 -0.032526087 -0.029870914 0.0003009981 -0.010156672 0.00016882939
-0.032526087 -0.0035808147 -0.015566726 0.00010440702 7.8877536e-05 -0.032526087 -0.00043786317 -0.002781306
0.0023362695 1.4491863e-05 -0.032526087 -0.013739827 -0.018255075 0.0006977287 -4.642322e-05 -0.032526087
-0.013328143 -0.021774003 0.0013399833 0.00014244886 0.0 0.0 0.0 0.0
0.0 0.0 0.0 0.0 0.0 0.0 0.0 0.0
0.0 0.0 0.0 0.0 0.0 0.0 0.0 0.0
0.0 0.0 0.0 0.0 0.0 0.0 0.0 0.0
0.0 0.0 0.0 0.0 0.0 0.0 0.0 0.0
0.0 0.0 0.0 0.0 0.0 0.0 0.0 0.0
0.0 0.0 0.0 0.0 0.0 0.0 -0.018739015 -0.018772896
-0.008741056 -0.0033225985 -7.1677487e-06 -0.018739015 -0.0015486383 0.015637219 -0.0023343249 2.8720307e-05
-0.018739015 -0.001104136 -0.030366294 -0.0030736073 1.0293745e-05 -0.018739015 -0.0054448815 0.02613857
-0.00075068185 7.1135555e-06 -0.018739015 -0.0069859903 0.023801684 -0.0013525536 1.0016001e-05 0.02941792
0.029266665 0.0076347333 0.011636853 8.8322224e-05 0.02941792 0.0008710957 0.007875345 -0.0045527956
-0.0002006851 0.02941792 -9.6309435e-05 -0.010055787 -0.0040254686 -9.64668e-05 0.02941792 0.0032237412
0.007631913 -0.0042624464 -0.00018370849 0.02941792 0.008022029 0.0020928192 -0.0034965076 -9.370157e-05
0.02361867 0.024423867 -0.0018916704 0.009046236 -0.0001861756 0.02361867 -0.0034567523 0.007749266
-0.0041984627 0.00013488556 0.02361867 -0.0047812746 0.0014530602 -0.0042258375 0.0001992036 0.02361867
0.000571168 0.01909398 -0.0033697558 0.00023785366 0.02361867 0.0057638986 -0.008083938 -0.0040852656
0.00021952901 0.0 0.0 0.0 0.0 0.0 0.0 0.0
0.0 0.0 0.0 0.0 0.0 0.0 0.0 0.0
0.0 0.0 0.0 0.0 0.0 0.0 0.0 0.0
0.0 0.0 -0.035755426 -0.034688383 -0.025032246 -0.008298205 4.9341797e-06 -0.035755426
00000000: d242 5a3c 480b 4c3c ab1f 153c 86f8 a03b
00000010: 7f85 b037 d242 5a3c 4f81 8239 e2bc 35bb
00000020: 78cc c0ba 3e32 1337 d242 5a3c e442 9b3b
00000030: a2fb 24bc c971 51bb be0c 1eb8 d242 5a3c
00000040: c459 0e3c ce11 13bc f892 73ba e9ec a7b8
00000050: d242 5a3c b430 cf3b 95c8 2a3c 20e0 dcba
00000060: 69a9 42b8 0000 0000 0000 0000 0000 0000
00000070: 0000 0000 0000 0000 0000 0000 0000 0000
00000080: 0000 0000 0000 0000 0000 0000 0000 0000
00000090: 0000 0000 0000 0000 0000 0000 0000 0000
000000a0: 0000 0000 0000 0000 0000 0000 0000 0000
000000b0: 0000 0000 0000 0000 0000 0000 0000 0000
000000c0: 0000 0000 0000 0000 0000 0000 0000 0000
000000d0: 0000 0000 0000 0000 0000 0000 0000 0000
000000e0: 0000 0000 0000 0000 0000 0000 0000 0000
000000f0: 0000 0000 0000 0000 0000 0000 0000 0000
00000100: 0000 0000 0000 0000 0000 0000 0000 0000
00000110: 0000 0000 0000 0000 0000 0000 0000 0000
00000120: 0000 0000 0000 0000 0000 0000 133a 05bd
00000130: d9b3 f4bc 48cf 9d39 2c68 26bc cb07 3139
00000140: 133a 05bd 1aac 6abb 950b 7fbc 18f5 da38
00000150: 0e6b a538 133a 05bd 0091 e5b9 9246 36bb
00000160: 191c 193b 1422 7337 133a 05bd 031d 61bc
00000170: ab8b 95bc c8e7 363a 8eb6 42b8 133a 05bd
00000180: 495e 5abc 655f b2bc 61a2 af3a 535e 1539
00000190: 0000 0000 0000 0000 0000 0000 0000 0000
000001a0: 0000 0000 0000 0000 0000 0000 0000 0000
000001b0: 0000 0000 0000 0000 0000 0000 0000 0000
000001c0: 0000 0000 0000 0000 0000 0000 0000 0000
000001d0: 0000 0000 0000 0000 0000 0000 0000 0000
000001e0: 0000 0000 0000 0000 0000 0000 0000 0000
000001f0: 0000 0000 0000 0000 0000 0000 0000 0000
00000200: 0000 0000 0000 0000 0000 0000 0000 0000
00000210: 0000 0000 0000 0000 0000 0000 0000 0000
00000220: 0000 0000 0000 0000 0000 0000 0000 0000
00000230: 0000 0000 0000 0000 0000 0000 0000 0000
00000240: 0000 0000 0000 0000 0000 0000 0000 0000
00000250: 0000 0000 0000 0000 9082 99bc 9ec9 99bc
00000260: a536 0fbc f4bf 59bb 7e82 f0b6 9082 99bc
00000270: aefb caba a019 803c 79fb 18bb 64ec f037
00000280: 9082 99bc a8b8 90ba bcc2 f8bc 936e 49bb
00000290: 4cb3 2c37 9082 99bc fa6a b2bb 8e20 d63c
000002a0: 68c9 44ba fab0 ee36 9082 99bc bcea e4bb
000002b0: c0fb c23c 2b48 b1ba 660a 2837 dafd f03c
000002c0: a5c0 ef3c c92c fa3b 80a8 3e3c a239 b938
000002d0: dafd f03c 3e5a 643a 9707 013c 9e2f 95bb
000002e0: ff6e 52b9 dafd f03c bcf9 c9b8 07c1 24bc
000002f0: 14e8 83bb 384e cab8 dafd f03c 6745 533b
00000300: 2015 fa3b feab 8bbb dfa1 40b9 dafd f03c
00000310: d46e 033c ae27 093b aa25 65bb a681 c4b8
00000320: f17b c13c 9014 c83c edf1 f7ba aa36 143c
00000330: 2238 43b9 f17b c13c ae8a 62bb 8eed fd3b
00000340: 4293 89bb 1170 0d39 f17b c13c 3dac 9cbb
00000350: 9c74 be3a e578 8abb 4fe1 5039 f17b c13c
00000360: 70ba 153a fa6a 9c3c 1fd7 5cbb 5b68 7939
00000370: f17b c13c 16df bc3b 7e72 04bc b1dd 85bb
00000380: 5f31 6639 0000 0000 0000 0000 0000 0000
00000390: 0000 0000 0000 0000 0000 0000 0000 0000
000003a0: 0000 0000 0000 0000 0000 0000 0000 0000
000003b0: 0000 0000 0000 0000 0000 0000 0000 0000
000003c0: 0000 0000 0000 0000 0000 0000 0000 0000
000003d0: 0000 0000 0000 0000 0000 0000 0000 0000
000003e0: 0000 0000 0000 0000 4874 12bd 6815 0ebd
000003f0: 6d10 cdbc 32f5 07bc 4890 a536 4874 12bd

exp_avg_sq f4 [256, 25]
0.056269493 0.05608705 0.017033722 0.007463612 2.137821e-06 0.056269493 0.00010143573 0.0070418282
0.0005739683 3.18972e-06 0.056269493 0.0007751515 0.0070893033 0.00060614414 6.6965617e-06 0.056269493
0.0031385624 0.009409869 0.0005607941 5.1110237e-06 0.056269493 0.0081382245 0.009167978 0.0005639813
2.2770614e-06 0.0 0.0 0.0 0.0 0.0 0.0 0.0
0.0 0.0 0.0 0.0 0.0 0.0 0.0 0.0
0.0 0.0 0.0 0.0 0.0 0.0 0.0 0.0
0.0 0.0 0.0 0.0 0.0 0.0 0.0 0.0
0.0 0.0 0.0 0.0 0.0 0.0 0.0 0.0
0.0 0.0 0.0 0.0 0.0 0.0 0.0 0.0
0.0 0.0 0.0 0.10353314 0.10258997 0.008549183 0.014335163 8.6897234e-07
0.10353314 0.00024577454 0.02559167 0.0012856994 1.6513924e-06 0.10353314 0.0010437362 0.015351283
0.0013551562 1.3052326e-06 0.10353314 0.0044801435 0.0068645095 0.0013261251 1.2380832e-06 0.10353314
0.012972468 0.014989677 0.0014006157 1.5572076e-06 0.0 0.0 0.0 0.0
0.0 0.0 0.0 0.0 0.0 0.0 0.0 0.0
0.0 0.0 0.0 0.0 0.0 0.0 0.0 0.0
0.0 0.0 0.0 0.0 0.0 0.0 0.0 0.0
0.0 0.0 0.0 0.0 0.0 0.0 0.0 0.0
0.0 0.0 0.0 0.0 0.0 0.0 0.0 0.0
0.0 0.0 0.0 0.0 0.0 0.0 0.15297686 0.15275383
0.033528797 0.029855348 1.6511112e-06 0.15297686 0.0001259933 0.043392204 0.002759926 2.381235e-06
0.15297686 0.0006825616 0.023950588 0.0031769122 1.6728064e-06 0.15297686 0.004303321 0.014282076
0.0029843028 1.6751122e-06 0.15297686 0.020354817 0.027071603 0.003296996 1.9589131e-06 0.08722702
0.08717397 0.011417318 0.013860678 1.018604e-06 0.08722702 0.00010718573 0.014962086 0.0014431693
1.2519897e-06 0.08722702 0.00065634213 0.013978112 0.0014736252 1.389176e-06 0.08722702 0.0035667222
0.0053886096 0.0014251602 1.0690219e-06 0.08722702 0.010784451 0.014278581 0.0015409351 1.1921151e-06
0.032860477 0.032729235 0.0048607965 0.0039356938 4.282347e-07 0.032860477 3.358075e-05 0.005521891
0.00034991832 6.59239e-07 0.032860477 0.00018240398 0.0033153049 0.0003700374 1.1024471e-06 0.032860477
0.001292461 0.0039580106 0.00034062078 6.460558e-07 0.032860477 0.0035375794 0.0039497996 0.00036384864
5.1391976e-07 0.0 0.0 0.0 0.0 0.0 0.0 0.0
0.0 0.0 0.0 0.0 0.0 0.0 0.0 0.0
0.0 0.0 0.0 0.0 0.0 0.0 0.0 0.0
0.0 0.0 0.030331071 0.02999814 0.00598883 0.0032551023 5.1518424e-07 0.030331071
00000000: d77a 663d 89bb 653d 4e8a 8b3c 5191 f43b
00000010: 7c77 0f36 d77a 663d e5b9 d438 23bf e63b
00000020: 5c76 163a f90e 5636 d77a 663d 8933 4b3a
00000030: 634d e83b a5e5 1e3a 07b3 e036 d77a 663d
00000040: 57b0 4d3b da2b 1a3c 4102 133a 5c7f ab36
00000050: d77a 663d 3056 053c 4935 163c 25d8 133a
00000060: 9ecf 1836 0000 0000 0000 0000 0000 0000
00000070: 0000 0000 0000 0000 0000 0000 0000 0000
00000080: 0000 0000 0000 0000 0000 0000 0000 0000
00000090: 0000 0000 0000 0000 0000 0000 0000 0000
000000a0: 0000 0000 0000 0000 0000 0000 0000 0000
000000b0: 0000 0000 0000 0000 0000 0000 0000 0000
000000c0: 0000 0000 0000 0000 0000 0000 0000 0000
000000d0: 0000 0000 0000 0000 0000 0000 0000 0000
000000e0: 0000 0000 0000 0000 0000 0000 0000 0000
000000f0: 0000 0000 0000 0000 0000 0000 0000 0000
00000100: 0000 0000 0000 0000 0000 0000 0000 0000
00000110: 0000 0000 0000 0000 0000 0000 0000 0000
00000120: 0000 0000 0000 0000 0000 0000 2f09 d43d
00000130: b11a d23d df11 0c3c 08de 6a3c 5343 6935
00000140: 2f09 d43d 4ddb 8039 9fa5 d13c ea84 a83a
00000150: 69a5 dd35 2f09 d43d facd 883a f383 7b3c
00000160: 7f9f b13a 732f af35 2f09 d43d 2bce 923b
00000170: aeef e03b 60d1 ad3a 372c a635 2f09 d43d
00000180: 798a 543c 4397 753c dd94 b73a 3f01 d135
00000190: 0000 0000 0000 0000 0000 0000 0000 0000
000001a0: 0000 0000 0000 0000 0000 0000 0000 0000
000001b0: 0000 0000 0000 0000 0000 0000 0000 0000
000001c0: 0000 0000 0000 0000 0000 0000 0000 0000
000001d0: 0000 0000 0000 0000 0000 0000 0000 0000
000001e0: 0000 0000 0000 0000 0000 0000 0000 0000
000001f0: 0000 0000 0000 0000 0000 0000 0000 0000
00000200: 0000 0000 0000 0000 0000 0000 0000 0000
00000210: 0000 0000 0000 0000 0000 0000 0000 0000
00000220: 0000 0000 0000 0000 0000 0000 0000 0000
00000230: 0000 0000 0000 0000 0000 0000 0000 0000
00000240: 0000 0000 0000 0000 0000 0000 0000 0000
00000250: 0000 0000 0000 0000 f7a5 1c3e 806b 1c3e
00000260: 7e55 093d 3493 f43c c09b dd35 f7a5 1c3e
00000270: 121d 0439 06bc 313d e0df 343b 4ecd 1f36
00000280: f7a5 1c3e efed 323a 0634 c43c be33 503b
00000290: 3185 e035 f7a5 1c3e df02 8d3b 5eff 693c
000002a0: 4b94 433b 6bd4 e035 f7a5 1c3e 25bf a63c
000002b0: 44c5 dd3c 6a12 583b df75 0336 14a4 b23d
000002c0: 4488 b23d b40f 3b3c e617 633c f8b6 8835
000002d0: 14a4 b23d e7c8 e038 8a23 753c ba28 bd3a
000002e0: 0a0a a835 14a4 b23d 600e 2c3a 7304 653c
000002f0: a826 c13a b973 ba35 14a4 b23d abbf 693b
00000300: ef92 b03b 71cc ba3a 507b 8f35 14a4 b23d
00000310: 44b1 303c b6f0 693c 34f9 c93a c300 a035
00000320: b598 063d 170f 063d 5147 9f3b fef6 803b
00000330: 21e8 e534 b598 063d 0ed9 0c38 fbf0 b43b
00000340: 3e75 b739 8ff6 3035 b598 063d b243 3f39
00000350: 9645 593b 9401 c239 cbf7 9335 b598 063d
00000360: cb67 a93a 33b2 813b 5995 b239 9e6c 2d35
00000370: b598 063d bcd6 673b 526d 813b f0c2 be39
00000380: 4cf4 0935 0000 0000 0000 0000 0000 0000
00000390: 0000 0000 0000 0000 0000 0000 0000 0000
000003a0: 0000 0000 0000 0000 0000 0000 0000 0000
000003b0: 0000 0000 0000 0000 0000 0000 0000 0000
000003c0: 0000 0000 0000 0000 0000 0000 0000 0000
000003d0: 0000 0000 0000 0000 0000 0000 0000 0000
000003e0: 0000 0000 0000 0000 de78 f83c a9be f53c
000003f0: f23d c43b 8e53 553b 314b 0a35 de78 f83c

exp_avg f4 [256]
0.013321593 0.0 0.0 -0.032526076 0.0 0.0 -0.018739015 0.029417928
0.02361867 0.0 -0.035755426 0.0 -0.052168712 -0.06827892 -0.047658123 0.09100556
-0.03256318 1.1701952e-37 -0.035740554 -0.039545123 0.054359682 0.0 1.1090503e-37 1.1524912e-37
-0.043953475 0.15327978 0.0 0.064938694 0.0 0.123684704 0.007989949 0.0
-0.07207026 -0.021830697 0.08106309 0.002107405 0.0 -0.07510466 0.024789413 0.0
0.06952686 -0.03211266 0.034426376 0.0 1.1045162e-37 0.0094654 -0.023224209 0.0050985683
-0.014799761 0.018093057 0.04500362 0.0 0.034967113 0.15903015 0.0 -0.07570599
0.07053519 0.0 -0.14713046 0.0 -0.013396912 -0.0052374573 -0.024629116 0.08904786
1.1366634e-37 -0.009516394 0.0 -0.018627003 0.016435403 -0.0046343985 0.03852775 1.1712377e-37
-0.02082707 0.0 -0.07910913 0.0 0.0 0.030297477 0.0070166024 0.12535664
-0.14606522 0.020174298 1.094867e-37 -0.119886026 0.0 0.029971043 -0.02562969 -0.033320196
0.0 -0.05088407 -0.12277155 0.031499922 0.0 0.0 -8.637202e-06 -0.027598064
-0.013028476 0.0001227851 -0.027667373 -0.15783155 1.1386593e-37 0.0 0.120876595 -0.024523908
0.03618008 0.0 1.1234186e-37 -0.04636748 0.0 -0.0062679965 1.1623661e-37 0.07600673
0.0 0.0 0.05101809 0.0 0.055124514 0.018172517 0.06342891 0.17461953
-0.10694454 0.003629447 0.07659381 0.058886357 -0.021802336 0.07831955 0.0 0.002386746
-0.068376854 0.0 0.11332193 0.005925432 1.1115976e-37 -0.029282061 0.0009625944 0.005894022
-0.04363848 -0.24722962 0.12071457 0.021062946 -0.10034971 0.021226533 0.0008269775 0.053258326
-0.0028127432 0.0 0.051829096 -0.012341173 0.0 0.0 -0.006979946 0.026890306
0.04732441 1.1676085e-37 0.0108992215 0.0 -0.10131028 0.08562131 0.0 0.11161682
0.046846334 1.1578001e-37 0.06569859 -0.012994834 0.034801632 0.05218778 -0.08860817 0.0
0.008128574 -0.10376878 0.0 0.06171956 0.067771286 0.0 -0.03266838 -0.09498098
-0.056259442 0.0064738 -0.1061303 0.0808704 -0.00630345 0.0 0.022849418 -0.028273975
0.0 0.014488002 0.037363525 -0.011773711 0.0 0.06559824 0.0058751134 0.00029381178
1.1622852e-37 0.0 0.07774874 -0.010159202 0.053966455 -0.09822751 0.05899927 0.022940785
0.025822697 -0.055751145 0.05517937 0.02562547 0.055417575 0.00014697388 0.0 0.091258936
0.058580436 -0.22723027 1.116518e-37 -0.039320868 -0.043136384 -0.14670074 -0.03471001 0.001834577
0.04956697 -0.06114792 0.0037017907 0.0 0.0 0.07219343 -0.019005964 0.023974467
-0.021697596 1.0636515e-37 0.0 0.0138180675 0.07195803 0.07686079 -0.010692953 0.015972473
-0.020781558 -0.1333794 -0.003088063 0.06779039 0.0 1.0610197e-37 0.0 0.016629005
-0.045184456 0.025435679 1.1328535e-37 0.010764871 -4.6196394e-05 0.11003094 -0.10049923 0.12470081
1.0892425e-37 0.058929037 0.0150510315 1.1494228e-37 0.06669636 -0.104579695 -0.07783286 0.034478914
00000000: d042 5a3c 0000 0000 0000 0000 103a 05bd
00000010: 0000 0000 0000 0000 9082 99bc defd f03c
00000020: f17b c13c 0000 0000 4874 12bd 0000 0000
00000030: dcae 55bd d2d5 8bbd 2a35 43bd 1f61 ba3d
00000040: f860 05bd 5a47 1f02 b064 12bd 11fa 21bd
00000050: 42a8 5e3d 0000 0000 c3f4 1602 75de 1c02
00000060: 8f08 34bd 60f5 1c3e 0000 0000 94fe 843d
00000070: 0000 0000 684e fd3d 46e8 023c 0000 0000
00000080: 9399 93bd 4ad6 b2bc 6804 a63d 641c 0a3b
00000090: 0000 0000 79d0 99bd 2b13 cb3c 0000 0000
000000a0: 1964 8e3d 9188 03bd ac02 0d3d 0000 0000
000000b0: c656 1602 c414 1b3c b240 bebc e411 a73b
000000c0: b27a 72bc e437 943c b755 383d 0000 0000
000000d0: ad39 0f3d cdd8 223e 0000 0000 be0b 9bbd
000000e0: c174 903d 0000 0000 5ea9 16be 0000 0000
000000f0: b97e 5bbc fa9e abbb 00c3 c9bc b95e b63d
00000100: f0b6 1a02 a6ea 1bbc 0000 0000 a897 98bc
00000110: 8aa3 863c 27dc 97bb 46cf 1d3d ad6b 1f02
00000120: 889d aabc 0000 0000 f803 a2bd 0000 0000
00000130: 0000 0000 6a32 f83c 87eb e53b 7e5d 003e
00000140: 1f92 15be 9244 a53c 8c06 1502 ce86 f5bd
00000150: 0000 0000 d585 f53c 5bf5 d1bc c27a 08bd
00000160: 0000 0000 d16b 50bd a76f fbbd 1006 013d
00000170: 0000 0000 0000 0000 80e8 10b7 5615 e2bc
00000180: 6475 55bc e0bf 0039 b0a6 e2bc 989e 21be
00000190: 7cfc 1a02 0000 0000 268e f73d 5de6 c8bc
000001a0: 9031 143d 0000 0000 6de9 1802 d4eb 3dbd
000001b0: 0000 0000 c463 cdbb 8c36 1e02 6ba9 9b3d
000001c0: 0000 0000 0000 0000 58f8 503d 0000 0000
000001d0: 3eca 613d 88de 943c 04e7 813d 76cf 323e
000001e0: bd05 dbbd 04dc 6d3b 37dd 9c3d d232 713d
000001f0: d09a b2bc 0066 a03d 0000 0000 f46a 1c3b
00000200: 2a09 8cbd 0000 0000 5415 e83d 202a c23b
00000210: 864d 1702 efe0 efbc 9e56 7c3a a422 c13b
00000220: 43be 32bd c329 7dbe 3339 f73d 338c ac3c
00000230: 2684 cdbd 44e3 ad3c 85c9 583a 6725 5a3d
00000240: 0056 38bb 0000 0000 bf4a 543d a232 4abc
00000250: 0000 0000 0000 0000 08b8 e4bb 0f49 dc3c
00000260: 3ed7 413d 38ed 1e02 a692 323c 0000 0000
00000270: c47b cfbd 3a5a af3d 0000 0000 5c97 e43d
00000280: f1e1 3f3d 7297 1d02 fb8c 863d 49e8 54bc
00000290: 288c 0e3d dbc2 553d 3378 b5bd 0000 0000
000002a0: b62d 053c ba84 d4bd 0000 0000 a6cd 7c3d
000002b0: accb 8a3d 0000 0000 47cf 05bd 6385 c2bd
000002c0: 4d70 66bd 2c22 d43b d85a d9bd 619f a53d
000002d0: 2c8d cebb 0000 0000 b42e bb3c d39e e7bc
000002e0: 0000 0000 165f 6d3c 7f0a 193d 86e6 40bc
000002f0: 0000 0000 5f58 863d 0684 c03b c00a 9a39
00000300: ba33 1e02 0000 0000 bb3a 9f3d c872 26bc
00000310: ee0b 5d3d 812b c9bd 38a9 713d 50ee bb3c
00000320: 1f8a d33c 505b 64bd c303 623d 81ec d13c
00000330: 8afd 623d 001d 1a39 0000 0000 f7e5 ba3d
00000340: 0af2 6f3d 0daf 68be f9f8 1702 eb0e 21bd
00000350: c7af 30bd b838 16be 152c 0ebd 3076 f03a
00000360: bc06 4b3d 3e76 7abd be99 723b 0000 0000
00000370: 0000 0000 26da 933d 65b2 9bbc 1a66 c43c
00000380: 28bf b1bc d8c6 1002 0000 0000 2d65 623c
00000390: bb5e 933d 3169 9d3d 7f31 2fbc b4d8 823c
000003a0: 163e aabc 9c94 08be 1a61 4abb b0d5 8a3d
000003b0: 0000 0000 246b 1002 0000 0000 8d39 883c
000003c0: 5613 39bd 7c5e d03c 2f32 1a02 245f 303c
000003d0: 00c3 41b8 e757 e13d 8ad2 cdbd 2363 ff3d
000003e0: 9042 1402 935f 713d 9a98 763c 8a73 1c02
000003f0: 1a98 883d e12d d6bd d666 9fbd c339 0d3d
